TFM/regresion/results/branch_trip/AGCRN.pt (torch, 82932 bytes, 6 tensors)

recurrent._gate.weights_pool f4 [3, 2, 110, 20]
00000000: 07d3 c83d c5aa c33e 75aa 403d e458 2b3e
00000010: 5218 2b3e 51af 82bd 2d54 fe3e 4880 533e
00000020: 90ed e6be 4ef9 923e 6be7 9abc e8b9 63bd
00000030: 1fd7 d3bd 2b90 d0bd 0470 13be eb27 5dbe
00000040: f6d2 cfbd e018 5bbd 94e6 fa3d 5fa6 f9be
00000050: 7192 2c3e 965e 133f 3697 333e c2b8 fc3e
00000060: 110a 8a3e 7f2f 4abe aa78 c23e 90c5 713d
00000070: 6001 81be 1424 30bd 3aab 793e 0818 16be
00000080: 212b 293e 31c2 333e d8af 0abe ac37 9abe
00000090: cb2c a6bc e583 483e 46a0 1cbd a9ef ddbe
000000a0: 5c41 9b3e 36e8 f93e 56ec 69bd e2b3 023f
000000b0: ebbf 8a3d 1343 39be 10e1 733e d765 233e
000000c0: cc8c a6bd 7c42 453c b0ec cbbd 233f 93bd
000000d0: f1e6 dfbd b9c7 3c3e 9d3e 3dbd 12c6 c0be
000000e0: 68b1 1bbe 99b3 8d3e 1690 153d 62a3 f2be
000000f0: fe76 af3e 9ac7 243f e322 3e3e f8cc 873e
00000100: ef58 d6bc c29e 2d3c 1cda 953e 3f1d 6a3d
00000110: 3e1b e3bd cbed a33e 4005 c53c 08e2 58bd
00000120: e283 b23d 10df a13d 2a25 febd ebd6 01be
00000130: 9fb7 c1be a3f6 fe3c dc49 f03d 9ff6 1cbe
00000140: cd29 663e c38f c63e eb6b 41bd 8afa f13d
00000150: 9e4b 64bd c814 7c3d 3b6c f13e cca1 803e
00000160: b96c d5be e647 05bd 6d67 3ebc d5b2 333e
00000170: 5dae c13d e99e 293d 0291 02be a38d 7dbe
00000180: 8201 a6be 4edd 893e bcd8 e8bd 262b d4be
00000190: f50e 113d b7a1 223f 76e2 8b3e 3d79 c13e
000001a0: bb0c 2dbe a864 41be da4e 263e ee58 9b3e
000001b0: d820 11be 56ff 973e b383 0c3e 9f47 bf3d
000001c0: e2b2 a93d 8aa3 67bd 3543 c2be 4704 b5be
000001d0: e454 83bd 035d 2e3c aded 8cbd 4c0a debe
000001e0: aba8 373e f59f bb3e 88c0 a2bd 7762 b83e
000001f0: 78ca 3cbd 5f53 113e a92a 8d3e dad3 75bc
00000200: eaec 6dbe cef5 0abd fa45 30bd ed85 59be
00000210: 5e00 563e 2ccc f6bc 0f26 e4bd 4c59 90bd
00000220: ca07 f1bc 1876 2cbd 543c 003e 4d2c c4be
00000230: b7db 993e 6d38 363f 69df 413d 66bf 903e
00000240: a3e9 22bd ba44 3cbe bc74 f53e 98ca 41bd
00000250: 5990 92bd 4319 6a3e 3c5e 633e 3a86 fdbc
00000260: eac8 07be dbff 123e d6ce e3bd f87f c6be
00000270: 162e 4ebe 1f50 843c e19c f9bd 1832 e1be
00000280: d8bb 1b3e 286c cb3e 7611 a6bd 8467 f63e
00000290: 76cc 163e 5acb 343c de0b a33e c550 573d
000002a0: 5e1c e5be 9a13 e1bd 9d0d db3d 42f1 a5bd
000002b0: 2e27 1dbd 8da2 9c3d fd12 80be 11c7 5abe
000002c0: c8fb debd e5ec 703d 9a0a 86bd d240 bbbe
000002d0: 57d5 873d 0718 2c3f cad2 dc3c 09c2 a83e
000002e0: 3781 91bd 0fd9 263d 6171 0b3f 4287 773e
000002f0: d576 d7be ee61 443e 21dd 763e b15a 5b3d
00000300: e464 5b3e 336f 8b3e e4af 24be 3945 e0bd
00000310: 2989 a7be 2705 be3d 8797 a63d 2c54 43be
00000320: e79e d93d 33c2 9e3e 396e 48bd e6bb aa3d
00000330: e221 49be 6339 1abd 7f6e 023f 0ac5 373e
00000340: e973 c5be 1c9a d1bd 8d82 fe3d 57eb 0fbe
00000350: 0a91 e73c df38 3d3e 6b81 96be ef69 3cbe
00000360: 1123 34be be88 ab3d bb0c 10be 5400 fdbe
00000370: 8577 933d 4f94 bb3e 0504 a93e dd07 393e
00000380: 1286 35be 85b5 063e 3eaa d13e 2b51 813e
00000390: 1992 a4bd c431 5b3e ee23 48be ddf3 3f3d
000003a0: 95e8 3a3e 8add 7d3d fbcd a6be c35b 5d3d
000003b0: 9c93 5fbe afe8 c9bc a153 53be b9cd 89be
000003c0: 80f6 af3e 613a 083f 08bd 063e 2c9b 0d3e
000003d0: f642 80be 69cb e23c 413a 113f 5df2 963e
000003e0: 2b44 acbe 17cb cf3b 71d4 19be 7452 8bbd
000003f0: 86d5 2e3e e350 4a3e 06a0 d6bb 56a4 b2be
0.09805875 0.38216224 0.04703756 0.16733128 0.16708496 -0.06381095 0.49673596 0.20654404
-0.4510312 0.2870583 -0.018909177 -0.055597216 -0.103437655 -0.10183748 -0.143982 -0.21597259
-0.101476595 -0.05349052 0.122510105 -0.48759744 0.16852738 0.575662 0.17538151 0.4935971
0.26960805 -0.19744681 0.37982684 0.0590263 -0.25196362 -0.043003157 0.24381724 -0.14657605
0.16520359 0.17554547 -0.13543642 -0.301206 -0.02028503 0.19581564 -0.038238786 -0.4334691
0.30323303 0.48809975 -0.057110153 0.5105573 0.06774887 -0.18091993 0.23816323 0.15956818
-0.081323236 0.012039777 -0.09957254 -0.07189777 -0.109327205 0.18435563 -0.04620229 -0.37651116
-0.15204394 0.27676085 0.036514364 -0.47390276 0.3427047 0.6436707 0.18567996 0.26523566
-0.026165454 0.010596933 0.29267967 0.057156797 -0.110891804 0.3201736 0.024050355 -0.052949935
0.08716561 0.07903874 -0.12409432 -0.12679641 -0.37835404 0.031123465 0.117328376 -0.15328453
0.22476883 0.38781556 -0.04722206 0.11815365 -0.055736177 0.061543256 0.47152886 0.2512344
-0.4168451 -0.03253927 -0.011621338 0.17548688 0.09457085 0.041411314 -0.12750629 -0.24761061
-0.32423025 0.26926655 -0.11369464 -0.4143917 0.035414655 0.6352801 0.27321213 0.3778781
-0.16899388 -0.18886054 0.16241017 0.30341285 -0.14172685 0.29686993 0.13722114 0.093398325
0.08286072 -0.056552447 -0.379419 -0.35354826 -0.06412676 0.010642293 -0.068812706 -0.4336723
0.17935435 0.36645475 -0.07946879 0.36012623 -0.046091527 0.1419196 0.2757161 -0.015004123
-0.23234907 -0.033925824 -0.043035485 -0.21242495 0.20898578 -0.030126654 -0.111400716 -0.07048282
-0.02942266 -0.04210481 0.12523013 -0.3831505 0.30050442 0.7117985 0.0473322 0.28271025
-0.039773595 -0.18385592 0.47940624 -0.04731235 -0.071564384 0.22861199 0.22203916 -0.030947793
-0.13260236 0.14355414 -0.11123435 -0.38769507 -0.20134768 0.016151486 -0.121881254 -0.4398353
0.15208375 0.39730954 -0.08108799 0.4812585 0.14726433 0.011034811 0.3184499 0.052567262
-0.44748205 -0.10990067 0.10695956 -0.08102657 -0.038367443 0.076481916 -0.25014487 -0.21365
-0.10887867 0.05881967 -0.06544991 -0.3657289 0.06632488 0.6722416 0.02695598 0.32960537
-0.07104724 0.040734347 0.5446988 0.2417269 -0.4208285 0.19177982 0.24107791 0.053553287
0.21425205 0.27233276 -0.16082722 -0.10950703 -0.32721832 0.092783265 0.0813437 -0.19075078
0.10626011 0.31007537 -0.04893324 0.0833662 -0.19641832 -0.037652384 0.50949854 0.17946258
-0.38564995 -0.10234472 0.12427244 -0.14054619 0.028267402 0.18478726 -0.29395613 -0.18399785
-0.17591502 0.08375691 -0.14067356 -0.49414313 0.07200531 0.36636588 0.3301088 0.18069406
-0.17726925 0.13155182 0.40950197 0.2525724 -0.080356784 0.21405703 -0.19544956 0.046863426
0.18252786 0.061978854 -0.32579026 0.05404259 -0.21833652 -0.024647085 -0.2063737 -0.26914766
0.34367752 0.5321408 0.13158047 0.13828725 -0.25051087 0.027684884 0.56729513 0.29481784
-0.33645758 0.006341349 -0.15022446 -0.06802836 0.1707364 0.19757418 -0.006549838 -0.34891003

recurrent._gate.bias_pool f4 [3, 20]
00000000: 473b 0d3f 6329 083f 513a 033f 33e8 353f
00000010: 04be 7dbe 670e 793d 1fff cdbc d2f8 503e
00000020: 5991 71bf f52a 5c3f 7116 c73e 5408 963c
00000030: 699c 2e3e 6d2b 2a3e 234f 243d 1e6b bdbe
00000040: 830c 8dbe b4f8 4f3e f500 8dbe e4fa 8cbe
00000050: ac72 a63e 4366 5c3e e9c5 9cbe 73d1 d5be
00000060: 92bd f43d 2185 0e3f 8332 593e 5eea 003e
00000070: 41b7 243e 1e2c 04bf 7b7a 95bc e66f 413d
00000080: a6c4 e63d ad64 843e acb7 a13e f0da af3c
00000090: 5cfa 3bbe 978e 74bd 905a bf3e a4a5 4b3d
000000a0: 7d7f c53d 6887 49be 47c8 51bf ae91 e9be
000000b0: 6e2e cc3e 8b56 02be 7c55 0a3f 2c78 7e3d
000000c0: bba1 413f 7ca3 3ebe 1907 0dbe f5f8 443d
000000d0: f474 90be b12c 7abe ec1e b8be a24b c73e
000000e0: 4d08 f93d 3948 1e3e 0a9c 6c3e 5c96 dfbd
0.55168575 0.5318815 0.5126086 0.7105743 -0.24779516 0.06080475 -0.025146065 0.20407417
-0.9436241 0.8600305 0.3888431 0.018314518 0.17051853 0.16618128 0.040114533 -0.36995786
-0.27548608 0.20309716 -0.27539793 -0.27535164 0.32509363 0.21523385 -0.30619743 -0.4176136
0.1195022 0.5567189 0.21210675 0.12589404 0.16085531 -0.5162982 -0.01824688 0.047225855
0.112679765 0.2585806 0.31585443 0.021466702 -0.18357223 -0.059706297 0.3737378 0.049718514
0.09643457 -0.1968056 -0.81946224 -0.45618957 0.39879173 -0.12728326 0.5403669 0.062126324
0.75637406 -0.18617052 -0.13772239 0.048088986 -0.28214228 -0.24431111 -0.35961092 0.3892489
0.121597864 0.15457238 0.23106399 -0.10917351

recurrent._update.weights_pool f4 [3, 2, 110, 10]
00000000: 6d53 2b3e 9ba0 febd 5583 99bd 151f 283e
00000010: 187d f33d c930 00be 399d 823d 141d fa3d
00000020: 51e7 823e 99c1 6f3d 1ccd 5b3d 49d4 77be
00000030: dfd0 973e 9f62 5e3e d2ac 43bd 579f 62bc
00000040: fd7e 6ebc 5a73 dcbb 876a 293e ce4e f3bb
00000050: cf26 4ebe 8aab 833d 634f 5fbd 3db3 583d
00000060: c010 bf3d a5cd cbbd c834 343e e641 913c
00000070: 20a8 c2bd 688c 453e 67ae 3a3e d622 003e
00000080: 7d5d 4fbd 91e7 ecbd 8c47 34be f232 153e
00000090: 593d dd3d 8606 aabd 4258 fc3d e08c 313c
000000a0: 7858 a3bd bafa 9bbc c9a4 82bd 5f1d 21bd
000000b0: ed1c bc3d f390 0c3d dc18 2fbe 18f3 dd3d
000000c0: 920f 1dbd 2642 38be d5d3 31be 6886 12bd
000000d0: 5dac 96bd 542a c2bd bc43 403d 6c9c 3d3b
000000e0: 9a7c 04be 928d e03d 3f04 f03d 971f 03be
000000f0: 7da6 cfbd 68f2 0c3d ea39 173e 162b b73d
00000100: fea3 133e 362c 8f3b 0b81 c13d 3423 9fbd
00000110: 6260 c1bc 33ac 253e 84d5 67be 5d65 18be
00000120: 0a19 1bbe 1fd6 4b3e c20d fabc 0d1c 753e
00000130: fbdf d2bd 1604 85bb dc45 063e 1a48 6abe
00000140: 51d0 35be 49af 3dbe 8d0a f33d ff42 17be
00000150: 0e96 473d 4d61 403e c8f8 8bbd 368a ad3c
00000160: e95e 31be 937e 88bd 1d37 0b3d e7bb 6e3c
00000170: 2ac0 8cbc 7f6b ccbd d2d0 fdbd 9a0d 1b3e
00000180: c95c 0abe 3368 993d 95c7 3cbd f0d5 cbbd
00000190: 1219 22bb 6a1b 163e fc58 743e 92b9 c4bc
000001a0: 78b2 53bd 379f e5bd 2fb3 d2bd c914 973c
000001b0: 32d6 293e 9430 293d a182 25be e131 ccbd
000001c0: caf5 c5bd 781a 7f3e 1c2e a43c 4dba 7cbd
000001d0: 2f3a 853d 814a 0bbe 385b 92bd 6d58 b7bb
000001e0: 8595 233e d5d7 223e a727 683d b714 56be
000001f0: 89f6 9c3c 65da 0dbe f5ec 5c3e 3e86 41bc
00000200: d441 89bd f556 febb 81f2 4f3e 367f a43d
00000210: f0f1 71bd 791b 863d 9afe 843d 1b0c 38bd
00000220: d4ee ae3d c9d0 1dbe 36bc eebd 0a08 1b3e
00000230: 43c7 663e 2b6c ed3c e591 a6bd 2c94 e43d
00000240: d7ae 15be 8676 37be 9b91 25be f8e9 103d
00000250: 3a57 173d 5c36 763c 0c66 6f3e 6a78 2abd
00000260: ec45 8d3e 21b7 01be 0705 00be fc43 0d3d
00000270: 7cc9 f53d c95a f93d 7dcd 5c3e 624a 02be
00000280: 7590 453e 2749 823d 4d9a f53d cb14 923c
00000290: 9e9d 2dbe 74fc 193e e601 453d 11da 413e
000002a0: d78d 2a3e a2e2 56be e8df 433e 9b87 98bd
000002b0: 03df 02be c63c 5a3e 8308 73bd e14f 723d
000002c0: 4914 043d 7fe9 a5bd 132f 093e c5ac a73d
000002d0: e42e 423e ed5c c3bd 6ccf b8bd 2c8d 9f3d
000002e0: 9ae8 84bd 1e35 343c 13ec 43be dc24 843e
000002f0: 3cf7 e7bd 2c08 d4bc 4dc7 893c 0a1e 08be
00000300: 4b1f 323e b98c 24be c53f 70bd e007 14be
00000310: a154 e43d 7bd1 cbbd 2f5a 2d3e f3a0 4bbe
00000320: a684 69be 7a63 7cbb 7c91 2ebe b461 6d3e
00000330: 890d 433e d330 a0bd 8dae 303e 99ce 41bd
00000340: 59cb 603d e304 18be 8184 47bc 2413 a1bd
00000350: 4302 033e 3fc7 cb3d 6743 61be afe5 0e3d
00000360: 94ef 343e e231 6d3e 3c6d d33d 8c49 b13c
00000370: 293c 2d3e aee0 d13d 6f07 e7bd a201 4e3c
00000380: 1c35 6ebe 8ef3 b93c 1a75 1d3c 9a34 cabd
00000390: 63b0 123d 6b35 2a3e 4ada 3bbe b3ca 61be
000003a0: 06ef e8bc ee85 653d f670 6bbe 0797 10bd
000003b0: c21b 3a3e bfe3 06be 077e 53bd 226b b6bc
000003c0: daaf f83d 66c3 a6bd 3be6 493e a27e cebd
000003d0: 0903 743d 7a34 febb 3e9c 5d3e a881 a7bd
000003e0: e230 b2bd a7bc 6b3e 71ab 48be da2e 833d
000003f0: 0188 223e 5b7c 99bc 77c5 2b3e f223 37be
0.16731043 -0.12432977 -0.07495753 0.16418107 0.11889094 -0.1251861 0.06377644 0.122125775
0.25567105 0.05853424 0.053662404 -0.24202074 0.29651543 0.21717308 -0.047772236 -0.013831935
-0.014556644 -0.006727618 0.16544543 -0.0074251657 -0.20131992 0.06429203 -0.05451907 0.05290531
0.09329367 -0.09951333 0.1759826 0.017731618 -0.095047235 0.19291842 0.18230592 0.12513289
-0.050626267 -0.11567605 -0.17605418 0.14570215 0.10802717 -0.083020255 0.12321521 0.01083681
-0.079758584 -0.019040454 -0.063790865 -0.03933465 0.09185205 0.03431792 -0.17099327 0.10837382
-0.038344927 -0.17993984 -0.17365964 -0.03577271 -0.073570944 -0.0948073 0.046939597 0.0028932346
-0.12938157 0.109645024 0.1171956 -0.1280502 -0.10139177 0.034410864 0.14768186 0.08943765
0.14418027 0.004369284 0.09448441 -0.07770386 -0.02360553 0.1617897 -0.22640043 -0.14882417
-0.1514627 0.199059 -0.030524138 0.23936482 -0.10296627 -0.004059325 0.13112587 -0.22879067
-0.17755248 -0.18523897 0.11867247 -0.1477165 0.048727088 0.18787117 -0.06834561 0.021184068
-0.17321362 -0.06664767 0.033988107 0.014571167 -0.017181475 -0.09981441 -0.12393345 0.15141907
-0.13511957 0.074905775 -0.046088774 -0.09952915 -0.0024734181 0.14658895 0.2386207 -0.024014268
-0.051683873 -0.112120084 -0.10288083 0.018442528 0.16585615 0.041306093 -0.16163112 -0.09970451
-0.09666021 0.24912441 0.020041518 -0.061701108 0.06505238 -0.1360264 -0.07146305 -0.005595258
0.15975006 0.15902646 0.05667844 -0.2090634 0.019160526 -0.13852842 0.21574767 -0.011811791
-0.06702009 -0.007761831 0.20307352 0.08032076 -0.05906862 0.06548209 0.06493874 -0.04493342
0.085416466 -0.15411676 -0.11656992 0.15139785 0.2253695 0.028982243 -0.08133296 0.11161074
-0.14617477 -0.17916307 -0.16168825 0.03537938 0.03694842 0.015027609 0.23378772 -0.041618742
0.2759241 -0.12667514 -0.12501918 0.034488663 0.12001321 0.12175519 0.21562763 -0.12723687
0.19293387 0.06361609 0.11992321 0.01783218 -0.16954657 0.1503771 0.048097514 0.18930842
0.1665567 -0.20984891 0.19128382 -0.0744774 -0.12780385 0.21312246 -0.05933429 0.05915821
0.032245908 -0.081011765 0.13396864 0.0818725 0.189632 -0.095392086 -0.090239376 0.07790598
-0.06489678 0.010998992 -0.19133024 0.2580937 -0.11326453 -0.025882803 0.016818667 -0.13292709
0.1739475 -0.16069306 -0.058654565 -0.14456129 0.11148954 -0.099520646 0.16928934 -0.19885616
-0.22804508 -0.003851144 -0.17047685 0.23181802 0.19048132 -0.078218125 0.17254086 -0.047316168
0.054881427 -0.14845614 -0.0121775875 -0.07864979 0.12793832 0.099501126 -0.21998368 0.034887012
0.17669517 0.2316356 0.10323569 0.021641515 0.1691748 0.102479324 -0.11280715 0.0125736315
-0.23262447 0.022699144 0.009610439 -0.09873314 0.035812747 0.1662194 -0.1834499 -0.2204998
-0.028434288 0.05603593 -0.2299231 -0.03530028 0.18174651 -0.13172816 -0.05163386 -0.022267882
0.12142916 -0.08142738 0.19716732 -0.10082747 0.059573207 -0.0077577205 0.21641633 -0.08179027
-0.0870073 0.23021184 -0.1959665 0.064054206 0.15872194 -0.018736055 0.16774546 -0.17884806

recurrent._update.bias_pool f4 [3, 10]
00000000: 508c fe3e 7be8 10bf 8408 fcbd ada7 c63e
00000010: 12bd d63d 3c3d d6be a613 1fbf f02e 423e
00000020: d723 6a3e 2d19 bcbe fd0b 2b3e 4368 49be
00000030: 1680 c53e 08e9 363f fcaa 3e3f 93f4 c4bd
00000040: cdc4 bfbe 3395 e9be e81b 4d3f 2e3c 2abf
00000050: c512 07bf a8d4 e63e 1bb0 68be c3dc 2abf
00000060: e977 3ebf 40dc 2e3e ef63 e73e 75f0 123e
00000070: 7f1b 0abf 02cb dbbe
0.49716425 -0.5660474 -0.12306312 0.387998 0.10485281 -0.41843593 -0.62139356 0.18963218
0.22865234 -0.36737958 0.16703792 -0.19668679 0.38574284 0.7144933 0.7447965 -0.09616961
-0.37454835 -0.45621642 0.80120707 -0.66498077 -0.52763015 0.4508412 -0.22723429 -0.66743106
-0.7440172 0.17076206 0.4519343 0.1434954 -0.53948206 -0.4292832

linear.weight f4 [20, 10]
00000000: f3ae c03e 618b 963e 4239 243e a887 6b3e
00000010: 5a53 703e b709 6f3e dfda 8d3e f5b0 c03e
00000020: ff97 573e dfbe b93e d454 bf3e 2bb2 9d3e
00000030: 4b6a 223e e854 6c3e a24f 713e 974d 613e
00000040: ee57 8a3e e49d bf3e b276 563e ef65 bc3e
00000050: 6a4b c03e c382 983e caae 1f3e 2364 6c3e
00000060: b360 723e be7c 663e ae0e 8f3e 79c6 bf3e
00000070: 7f8b 563e 781f bb3e a865 bd3e c7bd 973e
00000080: 319a 213e 3e32 683e 830e 733e 91ab 623e
00000090: 5c87 8d3e 2f3c bd3e 4aa8 553e 54ff bb3e
000000a0: f277 be3e db90 953e 12c4 223e cda5 693e
000000b0: 03a1 763e 79dc 673e d408 923e 5bc3 bf3e
000000c0: 55fe 563e c74f bc3e e138 bb3e 6c20 983e
000000d0: 8f6d 223e 0996 663e a662 773e bb13 5d3e
000000e0: 2ca1 8f3e 890a bd3e 9a2e 553e 7dd7 bd3e
000000f0: 3979 c03e 80ee 993e 4289 293e 4b6c 6b3e
00000100: 265b 783e d33e 6d3e c8c4 8f3e 4d94 c33e
00000110: 300f 5a3e 5a6e bd3e e0c4 bb3e daf0 913e
00000120: fe3f 283e 7c8c 633e 3af8 7b3e 5699 6a3e
00000130: 696a 943e b0aa bf3e 7b10 573e 33de bc3e
00000140: c79c b73e 120f 903e 1969 273e 8ed0 5b3e
00000150: 6a64 7c3e 5fe9 643e 673f 903e d0bd ba3e
00000160: 5ac1 533e c424 bc3e 99e7 b83e e2ff 923e
00000170: 9d98 233e 9ae5 5e3e 6a1e 7d3e ffaa 5e3e
00000180: 1ccf 913e 2a17 bb3e 553e 543e 978e bd3e
00000190: 9ef4 b83e ee17 913e 195b 263e 2e48 5c3e
000001a0: 6269 7f3e 7e22 633e 2066 923e 1312 bb3e
000001b0: 0c21 553e 20f6 bd3e 9a79 b93e ec04 973e
000001c0: 39ea 2e3e 54e2 5c3e 88ad 803e 5708 673e
000001d0: 616f 8d3e 415b bf3e 4e2b 573e e465 be3e
000001e0: 29e6 b43e d996 8d3e 5749 223e 6d92 543e
000001f0: b8dd 7f3e 7745 593e 0f5a 933e e213 b63e
00000200: f7ad 513e 138a bd3e 5172 b73e ab47 963e
00000210: aeb1 293e dcbd 593e 9d5c 803e fdb1 5d3e
00000220: 5e8e 8d3e 125e bb3e 6aa6 543e e594 be3e
00000230: eea8 b13e aca4 8e3e 2e84 243e 0ea0 513e
00000240: b34e 813e bff5 533e 99d7 913e ef52 b53e
00000250: 8c4f 503e 0d1a be3e 41f1 b23e 2f6c 8f3e
00000260: 8682 293e 06e9 4f3e f9e2 813e 651a 5c3e
00000270: cc0e 8f3e 1054 b73e 46bb 513e 1b2e bd3e
00000280: 2ac9 b23e 8a81 963e a26e 2c3e 9684 533e
00000290: 887c 813e f740 573e 9240 8b3e f620 ba3e
000002a0: ce47 523e 99c4 bd3e ac3c af3e 7001 8e3e
000002b0: 1d22 2e3e b597 4c3e c937 833e 7ec6 5a3e
000002c0: 7bf9 8f3e 05d6 b73e 15d6 503e 7f4a bd3e
000002d0: 3da6 ad3e c476 903e d57d 2b3e 366e 4a3e
000002e0: 4bcf 823e 2ac9 513e f6b7 8c3e c4af b43e
000002f0: c443 4f3e 0917 be3e 3798 ad3e 6119 8c3e
00000300: 0572 323e 0aff 473e 98d4 833e 40d8 5d3e
00000310: b890 8f3e 39ac b73e 50d1 503e 7d9f bc3e
0.37633476 0.29403213 0.16037467 0.23000968 0.23469296 0.2334355 0.27706048 0.37635008
0.21054076 0.36278436 0.37369406 0.30799994 0.1586086 0.23079264 0.23565534 0.22002254
0.2702021 0.37425148 0.20943716 0.3679652 0.37557536 0.29787263 0.1559402 0.23085074
0.236697 0.22508523 0.27940887 0.3745611 0.20951651 0.36547446 0.3699162 0.29636976
0.15781476 0.22675416 0.23736005 0.2213576 0.27642334 0.3695998 0.20864978 0.36718237
0.37200886 0.29212078 0.15895107 0.22817154 0.24084859 0.22642697 0.2852236 0.37453732
0.20995457 0.36779615 0.36566833 0.29712236 0.15862106 0.22518171 0.24158725 0.21589558
0.28052652 0.369221 0.20818558 0.37078467 0.37592486 0.30064774 0.16556266 0.22990529
0.2425352 0.23168497 0.2807982 0.38199082 0.21294856 0.36998254 0.3667364 0.28504068
0.16430661 0.2222156 0.2460641 0.22910056 0.28987435 0.37434912 0.2100238 0.36888275
0.358618 0.28136498 0.16348685 0.21466276 0.2464768 0.22354649 0.28173372 0.3647294
0.20679227 0.367468 0.36114195 0.28710848 0.15976186 0.21767274 0.24718633 0.21744917
0.28478324 0.3654111 0.20726903 0.3702285 0.36124128 0.2833857 0.16245688 0.2151191
0.24942544 0.22181126 0.2859354 0.36537227 0.20813388 0.3710184 0.36225587 0.29495943
0.17081536 0.21570712 0.25132394 0.22561775 0.27624038 0.3737431 0.21012613 0.3718711
0.35331848 0.2765415 0.1584829 0.20758982 0.24986923 0.21217905 0.28779647 0.35562044
0.20476519 0.37019405 0.35829404 0.29351553 0.16571686 0.21263832 0.25070658 0.21649928
0.2764768 0.36595207 0.20766607 0.37222973 0.34699196 0.2786001 0.16066048 0.20471212
0.25255355 0.20699213 0.284848 0.35414836 0.20342845 0.3712925 0.34949687 0.28012225
0.16553697 0.20303735 0.2536848 0.21494444 0.27940977 0.35806322 0.20481595 0.36949238
0.349191 0.29395705 0.16839078 0.20656046 0.25290322 0.21020876 0.271977 0.36353272
0.20535204 0.37064055 0.34225976 0.27735472 0.170052 0.19979747 0.25628498 0.21364781
0.28120026 0.3590547 0.20394166 0.36970899 0.33915892 0.2821561 0.1674722 0.19768605
0.25548777 0.20486894 0.274841 0.3529035 0.20240694 0.3712695 0.33905193 0.27363113
0.17426307 0.19530883 0.25748134 0.21664524 0.280401 0.35873583 0.20392346 0.3684043

linear.bias f4 [20]
00000000: f3bb 893e 007c 8b3e affa 8b3e ec86 8e3e
00000010: 2721 8c3e 40f1 8f3e 25ec 853e 4e34 8d3e
00000020: 83a1 933e a37b 933e a197 923e fdcf 8c3e
00000030: c8f2 9a3e 39d8 923e f3f3 9c3e 32eb 993e
00000040: 7e3b 973e 547f 9b3e a39d 9e3e 8d54 9c3e
0.26901206 0.27243042 0.27339694 0.27837312 0.27369043 0.28113747 0.26156726 0.27578968
0.2883416 0.28805265 0.2863131 0.27502432 0.30263352 0.2868059 0.30654868 0.30062252
0.29537576 0.3037058 0.30979642 0.30533257
