TFM/regresion/results/branch_trip/LSTM_NOBATCH.pt (torch, 210814 bytes, 10 tensors)

lstm.weight_ih_l0 f4 [200, 100]
0	0x3de6d757	0.112715416
1	0x3df59772	0.119917765
2	0xbd0d915d	-0.034562457
3	0x3e0810e8	0.13287699
4	0xbcffdd81	-0.031233551
5	0x3cf95ef1	0.03044078
6	0xbd943842	-0.07237293
7	0x3da21d74	0.07915774
8	0x3e004c14	0.12529022
9	0xbdd36bc8	-0.10323292
10	0x3df8e6b8	0.12153381
11	0x3cdf701e	0.027275141
12	0x3dcf1cd1	0.10112918
13	0x3c8997ba	0.016795982
14	0x3d880312	0.066412106
15	0xbcabc0c5	-0.020965943
16	0x3ddc01b7	0.107425146
17	0x3c99c77c	0.01877188
18	0xbd8b4a4e	-0.06801282
19	0x3d118f6e	0.035537176
20	0xbd8b941d	-0.0681536
21	0xbc998acf	-0.018742947
22	0xbd74b1bf	-0.059739824
23	0x3db969fd	0.09053419
24	0xbded0340	-0.115728855
25	0xbd8e169e	-0.06937908
26	0xbd3ae693	-0.04563005
27	0xbdb864ca	-0.09003599
28	0x3c61d4aa	0.013783613
29	0xbe100c1f	-0.14067124
30	0x3e01096b	0.12601249
31	0xbdf92ce7	-0.121667676
32	0x3de0ba41	0.10973025
33	0x3cadc61b	0.021212628
34	0xbd3b5ec9	-0.04574469
35	0x3db186a5	0.086682595
36	0x3ca845d9	0.020541118
37	0x3deae836	0.11470072
38	0x3c662632	0.014047192
39	0xbd367c66	-0.04455223
40	0x3d1a0a78	0.03760764
41	0xbd248042	-0.04016138
42	0x3d75c085	0.059998054
43	0x3dffc5e1	0.12488914
44	0x3da60eb5	0.08108274
45	0xbd80422d	-0.06262622
46	0x3da22b2c	0.07918391
47	0x3cd84891	0.02640179
48	0x3d960485	0.07325081
49	0xbdab7d73	-0.08373537
50	0xbe119085	-0.14215286
51	0xbd6215c0	-0.055196524
52	0xbddb0f6c	-0.10696301
53	0x3de7bcee	0.11315332
54	0x3d20dbcb	0.03927211
55	0x3d77526f	0.06038135
56	0x3d2fc1ae	0.042909317
57	0xbb6dc721	-0.003628202
58	0x3ddad95b	0.106859885
59	0xbdd5464a	-0.10413797
60	0x3c04c433	0.008103418
61	0xbdc727dd	-0.097244
62	0x3d37f1d9	0.04490838
63	0xbd5806fe	-0.052741043
64	0x3d262cda	0.040570118
65	0xbd0c5d06	-0.0342684
66	0x3de1c24c	0.11023387
67	0xbdb72abb	-0.08943697
68	0xbdb1f237	-0.08688777
69	0xbdb7a556	-0.08967082
70	0x3df2651c	0.11835691
71	0x3d1a4b03	0.037669193
72	0x3e03982b	0.12851016
73	0xbe046ccc	-0.12932128
74	0xbe1bbbf6	-0.1520842
75	0xbdf99deb	-0.121883236
76	0xbddeb10f	-0.10873615
77	0x3d236a0f	0.039896067
78	0x3d03719b	0.032090764
79	0x3dc80c59	0.0976798
80	0xbdbc986b	-0.09208759
81	0xbdec2b16	-0.115316555
82	0x3d60bdb9	0.054868434
83	0xbdac7338	-0.08420414
84	0x3d70b2d8	0.05876431
85	0xbd857ed8	-0.06518334
86	0x3d343226	0.043993138
87	0xbe185086	-0.14874467
88	0xbde1ca6c	-0.11024937
89	0xbacf9c78	-0.0015839478
90	0xbc9664b3	-0.018358564
91	0xbdbbc1bd	-0.09167812
92	0x3cda691d	0.02666145
93	0x3d0bf06a	0.034164824
94	0xbe2aa843	-0.16665749
95	0xbe159ba0	-0.14610147
96	0x3d5add04	0.053433433
97	0xbe025142	-0.1272631
98	0xbe086ca8	-0.13322699
99	0xbe650d7d	-0.22368427
100	0xbd45356b	-0.048146646
101	0x3d8be34e	0.06830464
102	0x3c6b9e6a	0.014381031
103	0xbd8e9c7b	-0.0696344
104	0x3d153b27	0.036433365
105	0xbd81f0f3	-0.063447855
106	0xbdb181d4	-0.08667341
107	0xbd3664a3	-0.04452957
108	0xbdb93247	-0.09042793
109	0xbd683821	-0.056694154
110	0x3e3311b1	0.17487217
111	0x3d76e21d	0.060274232
112	0x3d9e18ab	0.07719549
113	0xbdc91ef5	-0.09820358
114	0xbd72568c	-0.05916457
115	0xbc591ff8	-0.013252251
116	0x3d65a3d6	0.05606445
117	0xbdb94b2c	-0.09047541
118	0xbcdc7c63	-0.026914781
119	0xbd4f5e5a	-0.05062709
120	0x3d0d8ee0	0.034560084
121	0xbc9668cc	-0.018360518
122	0x3cc8d9ca	0.024517912
123	0xbd7bded4	-0.061491802
124	0xbd803b80	-0.06261349
125	0xbd4487d1	-0.047981087
126	0xbc60fc57	-0.0137320375
127	0xbd9d85a4	-0.076915056
128	0x3e1cdaf7	0.15317903
129	0x3bdb0f0e	0.0066851443
130	0x3e20509b	0.15655749
131	0x3da1d412	0.07901777
132	0xbdadaf42	-0.084806934
133	0x3e082857	0.13296638
134	0xbb799a7a	-0.003808646
135	0xbc9bc97d	-0.019016976
136	0xbda80533	-0.08204117
137	0xbdd77841	-0.105209835
138	0x3d9b743b	0.075905286
139	0x3b95986b	0.004565289
140	0x3db98188	0.09057909
141	0xbda49af0	-0.080373645
142	0x3e100bf1	0.14067055
143	0xbd8b4c2f	-0.0680164
144	0x3c3b5eae	0.011436148
145	0x3d861165	0.065462865
146	0x3ddf71e4	0.10910395
147	0x3e19e0c8	0.15027153
148	0x3e28d072	0.16485766
149	0xbd9b93cf	-0.075965516
150	0x3d934e21	0.07192636
151	0xbcc83763	-0.024440473
152	0x3cab45a1	0.020907225
153	0xbd8def65	-0.069304265
154	0x3e2964da	0.16542378
155	0xbd8998a7	-0.06718569
156	0x3de60d86	0.11233048
157	0x3db1435e	0.086554274
158	0x3da9ab51	0.08284629
159	0xbd21f7b5	-0.039542872
160	0x3e2977a4	0.16549546
161	0x3d8b7fb8	0.0681147
162	0x3d62576b	0.05525915
163	0xbdb30cf2	-0.087427035
164	0x3dc5def6	0.09661667
165	0x3c8416da	0.016124178
166	0xbcdf9719	-0.027293729
167	0x3e22d274	0.15900594
168	0x3d8d2eb7	0.06893676
169	0xbd2663b4	-0.040622428
170	0xbd0aabf8	-0.03385541
171	0x3cfe3daa	0.031035263
172	0x3def258a	0.11677082
173	0x3aed7dc2	0.0018119144
174	0xbd2ef3e2	-0.042713054
175	0xbc2a9587	-0.010411627
176	0xbd8a4d7c	-0.0675306
177	0x3db5a688	0.08869654
178	0x3e174729	0.14773239
179	0xbdc2347b	-0.09482666
180	0x3d91c72f	0.071180694
181	0x3de4466f	0.11146247
182	0x3d834e68	0.06411439
183	0xbc411a1f	-0.011786013
184	0x3de654ec	0.11246666
185	0x3de78380	0.113043785
186	0x3dbbf763	0.09178045
187	0x3c675ada	0.014120782
188	0x3aaecbf8	0.0013335934
189	0x3d5dc235	0.05414029
190	0x3c67159f	0.014104276
191	0xbb406a13	-0.00293601
192	0x3e04c9ed	0.12967654
193	0x3e24c18f	0.16089462
194	0x3cd06834	0.025440313
195	0x3bffadd6	0.0078027053
196	0x3d2a9951	0.04165012
197	0x3d001c30	0.03127688
198	0x3d9706d7	0.073743515
199	0x3da2aece	0.079434976
200	0xbdb4403c	-0.08801314
201	0xbc40bb83	-0.011763456
202	0x3e23592c	0.15951985
203	0x3dc39dfd	0.09551618
204	0x3d08eed3	0.033430886
205	0xbd3766d3	-0.044775795
206	0xbd3cc7d1	-0.046088997
207	0xbdb09cb1	-0.086236365
208	0xbbb5887a	-0.005539951
209	0x3db4e824	0.0883334
210	0x3e05d86e	0.13070843
211	0x3dd8c6bf	0.10584783
212	0xbdad025e	-0.08447717
213	0xbd36566a	-0.044516005
214	0x3c95712a	0.018242437
215	0x3e35ac12	0.17741421
216	0x3d7a6ee5	0.061140914
217	0x3b8455ab	0.0040385327
218	0x3dcb122e	0.09915577
219	0xbc57773f	-0.013150989
220	0xbd50283a	-0.050819613
221	0x3e136ecb	0.14397733
222	0xbcc08aab	-0.023503622
223	0x3c4b3f42	0.012405219
224	0xbdcc8b06	-0.09987454
225	0x3e0ab968	0.1354729
226	0x3e178a02	0.1479874
227	0x3dbd3cb7	0.09240096
228	0xbd6c4d83	-0.05769111
229	0xbdca0854	-0.0986487
230	0xbd976508	-0.07392317
231	0x3e15f00d	0.14642353
232	0x3ddf0fbe	0.108916745
233	0x3e23ce75	0.15996726
234	0x3debbeca	0.115109995
235	0x3d9d63a7	0.07685023
236	0x3d22c37d	0.039737213
237	0xbd8801ea	-0.0664099
238	0xbda3f039	-0.08004803
239	0xbdba87fb	-0.091079675
240	0x3dcaf4b1	0.099099524
241	0xbce72856	-0.028217476
242	0x3c529e71	0.012855158
243	0xbd2471d7	-0.04014763
244	0x3c7f10f0	0.015568003
245	0xbd6e5bb1	-0.058192912
246	0xbd51052b	-0.05103032
247	0x3db4f8d8	0.08836526
248	0xba282ac4	-0.0006415064
249	0x3e03df6b	0.12878196
250	0xbb8045de	-0.003914579
251	0xbd7ee752	-0.062232323
252	0x3c884757	0.01663558
253	0xbcdd790c	-0.027035259
254	0xbadd91b4	-0.0016904385
255	0xbdbe6dde	-0.09298299

lstm.weight_hh_l0 f4 [200, 50]
0	0x3d9135b0	0.07090318
1	0xbe11eed8	-0.14251268
2	0xbd8faa22	-0.07014872
3	0xbdfe3e1a	-0.12414189
4	0xbdc94f46	-0.09829573
5	0xbda825e7	-0.08210354
6	0xbcc0f1c8	-0.02355279
7	0xbd909e2b	-0.07061418
8	0xbe0d513d	-0.13800521
9	0x3d9dfade	0.07713865
10	0xbae65d87	-0.0017575481
11	0xbdcd944e	-0.100380525
12	0xbdee9797	-0.11650007
13	0x3bb1a290	0.0054209903
14	0x3da01838	0.07817119
15	0xbdb79f48	-0.08965927
16	0xbd5f08a9	-0.05445162
17	0x3da26d6e	0.07931028
18	0xbc0bb461	-0.008526892
19	0xbe220184	-0.1582089
20	0x3dc29aa8	0.095021546
21	0xbe1d689b	-0.15371935
22	0x3ddc9391	0.107703336
23	0xbe1a99bb	-0.15097706
24	0xbc332545	-0.010934179
25	0xbc981181	-0.018563034
26	0xbdc9ee2a	-0.09859879
27	0xbd96f059	-0.073700614
28	0x3dbb887a	0.0915689
29	0x3de7fcf8	0.11327547
30	0x3d872754	0.06599298
31	0x3d5bca0c	0.053659484
32	0x3dad3397	0.084571056
33	0x3bb88741	0.005631358
34	0x3d550464	0.05200614
35	0x3de9cf05	0.11416439
36	0x3d8fc509	0.07020003
37	0xbd4d7cb4	-0.050167754
38	0x3cf5938e	0.029977586
39	0x3d471d56	0.04861196
40	0xbda8683a	-0.08223005
41	0x3da1aff9	0.07894892
42	0xbd87eeca	-0.06637342
43	0x3da1f650	0.079083085
44	0x3dc61fee	0.09674059
45	0x3a116c1d	0.0005547421
46	0xbdd444ff	-0.103647225
47	0xbdf85554	-0.1212565
48	0xbcb26089	-0.021774547
49	0x3da2ae81	0.0794344
50	0x3e053152	0.13007095
51	0x3d880ab8	0.066426694
52	0xbbc86520	-0.0061155707
53	0xbcf18a80	-0.029484987
54	0x3cfe50bc	0.031044357
55	0xbcfbe80d	-0.030750299
56	0xbd2bc156	-0.041932426
57	0x3d84aecc	0.06478652
58	0xbdbe444f	-0.092903726
59	0xbd98b43d	-0.07456253
60	0xbd3f5732	-0.046714015
61	0xbdcda5ad	-0.10041366
62	0xbdb20fc4	-0.08694413
63	0x3dbb7a76	0.09154217
64	0x3d6f49fa	0.05842016
65	0x3d6a26d1	0.057165924
66	0xbdad51b8	-0.08462852
67	0x3d845333	0.064611815
68	0x3daa9a99	0.083302684
69	0x3caade5c	0.020857982
70	0xbda98715	-0.08277718
71	0xbd366da4	-0.044538155
72	0x3da7ae12	0.08187498
73	0x3d6a7193	0.05723722
74	0x3cd03c4b	0.025419375
75	0xbdae39f0	-0.085071445
76	0xbe0fda76	-0.1404818
77	0x3e012917	0.12613331
78	0xbbbebecf	-0.005821086
79	0x3e08ac0f	0.13346885
80	0xbdf0856f	-0.117442004
81	0xbd62cab3	-0.05536909
82	0xbe145a88	-0.1448766
83	0x3d8cf329	0.068823166
84	0x3ca8ca9d	0.020604426
85	0x3d256b0a	0.040385284
86	0x3dbd59e8	0.09245664
87	0x3cbb1397	0.02283649
88	0x3d3d4c51	0.04621536
89	0xbdd656fe	-0.10465811
90	0xbbc8816e	-0.006118945
91	0x3deb20ef	0.11480891
92	0xbbad6552	-0.0052916193
93	0xbd9f8261	-0.0778854
94	0xbd72e33d	-0.059298743
95	0xbab7585b	-0.0013988124
96	0x3dd8e767	0.105910115
97	0xbb214a84	-0.0024611065
98	0xbd6e7499	-0.058216665
99	0x3ce9b845	0.02853025
100	0xbd74bf54	-0.059752777
101	0xbbcf6217	-0.006328832
102	0x3d84a560	0.06476855
103	0xbe1094e8	-0.14119303
104	0xbd489af1	-0.04897589
105	0xbd8608dc	-0.065446585
106	0x3dc0e2cb	0.09418257
107	0xbe129741	-0.14315511
108	0xbc93d730	-0.018046945
109	0xbe15ebcb	-0.14640729
110	0xbdbf3042	-0.09335376
111	0xbda75254	-0.0817
112	0x3d0d0902	0.03443242
113	0xbdd6a43d	-0.10480545
114	0x3b015b68	0.001973832
115	0xbdc337b6	-0.095321104
116	0x3dfc1df6	0.12310402
117	0xbd9d3d99	-0.076777644
118	0xbe07a8f0	-0.13248038
119	0xbce7b239	-0.028283225
120	0xbe0fc8dc	-0.14041466
121	0xbd5abcf0	-0.05340284
122	0x3d00ca9a	0.031443216
123	0xbdd150c3	-0.10220482
124	0xbda73883	-0.08165076
125	0x3dca698b	0.09883412
126	0x3da61b2e	0.08110653
127	0x3e1089e2	0.14115098
128	0x3dc42ca0	0.09578824
129	0x3e0ea549	0.13930239
130	0xbc412a21	-0.0117898295
131	0xbd2595d7	-0.0404261
132	0xbd5f54d5	-0.05452426
133	0x3cbb27d6	0.022846144
134	0x3cbfdce7	0.023420764
135	0xbde62a3d	-0.11238525
136	0x3dc1ef02	0.09469415
137	0xbc7290a7	-0.014804996
138	0x3e0586c2	0.13039687
139	0x3c8efe5f	0.017455278
140	0x3d321e20	0.04348576
141	0x3d0bfa14	0.03417404
142	0x3d9bc891	0.076066144
143	0xbd882f02	-0.06649591
144	0x3daf13bf	0.08548688
145	0xbdd0ac1c	-0.10189077
146	0x3dc783cb	0.097419344
147	0xbdb51c60	-0.08843303
148	0x3d4b5b59	0.049647663
149	0xbde28cbc	-0.11061999
150	0xbdd295b2	-0.10282458
151	0x3debdf3c	0.11517188
152	0x3db12820	0.08650231
153	0xbe15efbd	-0.14642234
154	0xbdd5a320	-0.10431504
155	0xbe04d63b	-0.12972347
156	0xbb8a0547	-0.004212055
157	0xbd73886a	-0.059456266
158	0x3bbade36	0.005702759
159	0x3d372b73	0.04471917
160	0x3d539307	0.051653888
161	0xbd2c0edc	-0.04200636
162	0x3c317621	0.010831387
163	0xbdca403d	-0.09875534
164	0x3df8dc85	0.12151436
165	0xbe10314b	-0.14081304
166	0xbd5895ce	-0.05287724
167	0xbd256c2c	-0.040386364
168	0xbdc29b9f	-0.095023386
169	0xbc81e047	-0.015854014
170	0x3d48e0f8	0.049042672
171	0xbd693120	-0.056931615
172	0xbd606877	-0.054787125
173	0xbd90b1ad	-0.07065139
174	0x3d085967	0.033288386
175	0xbdaebc4f	-0.08532011
176	0x3da867e0	0.082229376
177	0x3d59a3c0	0.05313468
178	0xbe05617d	-0.1302547
179	0x3c342cd9	0.010997021
180	0x3d70d89d	0.05880033
181	0x3e20f320	0.15717745
182	0xbd8ffce3	-0.07030656
183	0xbddf0d77	-0.1089124
184	0xbdbea966	-0.09309654
185	0x3c57bcab	0.013167541
186	0x3d963003	0.07333376
187	0x3cd45f75	0.025924424
188	0x3e176227	0.14783536
189	0xbdafdc6c	-0.08586964
190	0xbe15a521	-0.14613773
191	0x3d195454	0.037433937
192	0x3de11081	0.10989476
193	0x3e18cd0f	0.14921974
194	0x3ce1ccc7	0.027563466
195	0xbcce816e	-0.025208201
196	0x3dac7466	0.08420639
197	0x3d865033	0.065582655
198	0xbe03a4ad	-0.12855788
199	0xbd41210c	-0.047150657
200	0x3e00a501	0.12562944
201	0xbd546aed	-0.051859785
202	0xbddfb3b4	-0.109229475
203	0xbdd3feba	-0.103513196
204	0xbe018baa	-0.12650934
205	0xbbb77678	-0.0055988394
206	0xbbbfc0ed	-0.005851856
207	0xbdecdaef	-0.11565196
208	0x3e0ddf23	0.13854651
209	0x3c2fd9e5	0.010733102
210	0x3e0c035d	0.13673158
211	0xbd4d8a67	-0.05018082
212	0x3dd3e459	0.10346288
213	0x3d4ad70a	0.049521483
214	0xbdea36ca	-0.114362314
215	0x3dae0944	0.08497861
216	0x3db52bc4	0.08846238
217	0xbdc882b2	-0.09790553
218	0x3d4564f9	0.048192
219	0x3d3e7927	0.04650226
220	0xbd4a2503	-0.049351703
221	0xbd3bcf25	-0.045851845
222	0xbe0744e1	-0.13209869
223	0x3dc84f4b	0.09780749
224	0xbd363714	-0.04448612
225	0xbd437047	-0.047714498
226	0x3e0bcf7e	0.1365337
227	0xbe110086	-0.14160356
228	0xbdd487a6	-0.103774354
229	0x3d350e9b	0.044203382
230	0x3e0b16c7	0.13582908
231	0xbda914cf	-0.08255922
232	0xbd8b155a	-0.06791182
233	0xbdc96e1c	-0.09835455
234	0x3dcd2eff	0.100187294
235	0xbba28f48	-0.004960928
236	0xbde2dd14	-0.110773236
237	0xbd84132b	-0.064489685
238	0xbdea2a36	-0.11433832
239	0x3cbdcc1d	0.023168618
240	0xbd9ffa60	-0.07811427
241	0xbce677df	-0.02813333
242	0x3dbd4d06	0.09243207
243	0x3de15d90	0.11004174
244	0xbe149f1b	-0.14513819
245	0x3db65aa3	0.08904006
246	0x3df0605e	0.117371306
247	0x3de5c61a	0.112194255
248	0x3d4cff3e	0.050048105
249	0xbc1fff2c	-0.009765428
250	0xbd998423	-0.07495906
251	0xbdb7ff69	-0.089842625
252	0xbdba49e2	-0.09096123
253	0xbd4f1489	-0.050556693
254	0x3db42d80	0.08797741
255	0x3e227c55	0.15867741

lstm.bias_ih_l0 f4 [200]
0	0x3e078bea	0.13236967
1	0x3df3cfa5	0.119048394
2	0xbd55cf51	-0.052199665
3	0x3da920c9	0.082582064
4	0xbda4f9ea	-0.0805548
5	0x3da4ff5b	0.08056518
6	0xbd682ac2	-0.056681402
7	0xbdc012ed	-0.0937861
8	0x3d3c1825	0.045921464
9	0xbd142d47	-0.036175992
10	0xbdc40b4f	-0.095724694
11	0xbdd14477	-0.10218137
12	0xbd8f04b1	-0.06983317
13	0x3d9798b1	0.074021704
14	0x3d9c813f	0.07641839
15	0x3e076174	0.13220769
16	0xbdebcfea	-0.11514266
17	0xbd8bba00	-0.06822586
18	0xbdaf7813	-0.08567824
19	0xbe3bad24	-0.18327767
20	0xbd03a8a2	-0.032143243
21	0x3d612291	0.054964606
22	0x3df45502	0.119302765
23	0x3d90050c	0.070322126
24	0xbdc8c8b7	-0.09803908
25	0x3da4c91f	0.08046173
26	0x3e24fa8c	0.16111201
27	0x3e1baaea	0.15201917
28	0xbde2aac7	-0.110677294
29	0xbd28e549	-0.04123429
30	0xbc8c29a2	-0.017109696
31	0x3e1d7dde	0.15380046
32	0x3e23b912	0.15988567
33	0x3dd11d79	0.102106996
34	0x3e2b4c92	0.16728428
35	0x3d61951a	0.055073835
36	0xbc63b06a	-0.013897041
37	0x3dab49e1	0.08363701
38	0xbd2db160	-0.042405486
39	0x3d642cc7	0.055706766
40	0x3db6d814	0.089279324
41	0x3e3598ae	0.17734024
42	0xbdcb16d6	-0.09916465
43	0x3ccf6087	0.025314583
44	0x3cc28414	0.02374462
45	0x3d5c3843	0.053764593
46	0x3e096fee	0.13421604
47	0x3d0a17db	0.033714157
48	0x3d0ffb32	0.035151668
49	0xbdef1fdd	-0.11675999
50	0x3ca6d6f3	0.020366168
51	0xbcced188	-0.025246397
52	0x3e02a63c	0.12758726
53	0x3c612c5b	0.013743485
54	0xbbda2867	-0.0066576484
55	0xbd2d3f05	-0.04229643
56	0x3d8c0f23	0.068388246
57	0xbd8e96db	-0.06962367
58	0x3d954591	0.07288659
59	0x3cceb06e	0.025230613
60	0xbda17cde	-0.07885145
61	0x3e14c541	0.14528371
62	0xbb951455	-0.004549543
63	0xbc419de0	-0.0118174255
64	0x3cd274f9	0.025690543
65	0xbd1dd633	-0.038534354
66	0xbd830dbf	-0.06399106
67	0x3db29696	0.08720128
68	0x3dfbfbc0	0.12303877
69	0xbdb97be9	-0.09056837
70	0x3d93a75d	0.072096564
71	0xbdeb3f5a	-0.11486693
72	0xbdb15f82	-0.08660795
73	0xbe021f03	-0.12707143
74	0x3dcd6856	0.10029666
75	0xbdf64793	-0.120253704
76	0x39b8ad89	0.0003522451
77	0x3db468eb	0.08809074
78	0xbd933aa7	-0.071889214
79	0xbd97b963	-0.074084066
80	0x3df8bf21	0.1214583
81	0xbcfa0507	-0.030519975
82	0xbdf418f2	-0.119188204
83	0x3d42c8a1	0.047554616
84	0x3d3fb107	0.046799686
85	0xbd4ab072	-0.049484678
86	0xbd3c7848	-0.046013147
87	0xbd2dd628	-0.042440563
88	0x3d0c04b6	0.03418418
89	0xbc6dd2d1	-0.014515595
90	0xbdd1ad81	-0.10238171
91	0x3d717843	0.05895258
92	0x3d83e6ef	0.064405315
93	0x3e128492	0.14308384
94	0xbddbf827	-0.10740691
95	0x3c9a3e00	0.018828392
96	0x3e07fba5	0.13279589
97	0xbdc698c7	-0.09697109
98	0x3dad6f21	0.08468462
99	0xbd95111a	-0.072786525
100	0x3df06e01	0.117397316
101	0xbd76fa72	-0.060297437
102	0x3c2e44b3	0.010636496
103	0xbdf90408	-0.12158972
104	0xbc4f536f	-0.012654169
105	0xbc372ef1	-0.011180625
106	0x3e047b5b	0.12937681
107	0xbdd0ef2f	-0.10201871
108	0x3dd0bffe	0.101928696
109	0xbe13a5e6	-0.14418754
110	0xbc5713c3	-0.01312727
111	0xbdfc433c	-0.123175114
112	0x3d93a27e	0.07208727
113	0x3c32c3ee	0.010910971
114	0x3c69878e	0.01425351
115	0x3a32b938	0.0006817761
116	0x3bd80884	0.006592812
117	0x3d33e850	0.043922722
118	0xbde7b342	-0.113134876
119	0xbd9294b2	-0.07157268
120	0xbd9261d1	-0.07147563
121	0xbdf12056	-0.11773746
122	0x3dfd8303	0.12378504
123	0xbe3b90cd	-0.18316956
124	0xbbb08a78	-0.0053876005
125	0x3c1b21c8	0.009468503
126	0xbd726c6a	-0.059185423
127	0xbc01357e	-0.007886289
128	0x3d816c20	0.06319451
129	0xbcf4dc6f	-0.029890267
130	0xbd93b97c	-0.07213113
131	0x3df377f0	0.11888111
132	0xbd0e8390	-0.034793437
133	0xbd7f6b5e	-0.062358253
134	0xbd64a8de	-0.055825107
135	0x3da1a4b1	0.078927405
136	0xbe23a837	-0.15982138
137	0x3c8fc4e5	0.017549941
138	0x3e1abcd3	0.15111093
139	0xbdebe141	-0.11517573
140	0x3d9e9ae6	0.07744388
141	0x3d38e09f	0.04513609
142	0x3db1f448	0.08689171
143	0x3de97cd3	0.114007615
144	0xbd09ace5	-0.03361215
145	0x3db0e1b2	0.08636798
146	0xbde73ac5	-0.11290506
147	0x3dfd4ea5	0.12368516
148	0x3c239e0d	0.009986413
149	0x3cb89f01	0.022536756
150	0x3df4edda	0.11959429
151	0xbd67c23a	-0.056581713
152	0xbdeace50	-0.11465132
153	0xbd9697e5	-0.0735319
154	0x3dcd655f	0.100291006
155	0x3da31d5c	0.07964584
156	0x3d05fb90	0.03271061
157	0xbd2f3a8b	-0.04278044
158	0x3ca551c6	0.020180594
159	0xbd1e27e5	-0.038612265
160	0xbcd67ac4	-0.026181586
161	0x3cdb08c0	0.02673757
162	0x3b855a91	0.0040696342
163	0xbdd976c0	-0.10618353
164	0xbd956283	-0.0729418
165	0xbd10d547	-0.035359647
166	0x3cb2bea0	0.021819413
167	0xbb8d8782	-0.0043191323
168	0x3de56343	0.11200573
169	0xbc3cfd44	-0.011534993
170	0x3c55cc0d	0.013049138
171	0xbdce1121	-0.10061861
172	0x3df0e8d4	0.117631584
173	0xbbaadc4e	-0.0052142506
174	0x3d9b755f	0.07590746
175	0xbc62fe03	-0.013854506
176	0x3b1749db	0.0023084793
177	0x3dfd64e2	0.123727575
178	0x3da8fac9	0.082509585
179	0xbdc75c98	-0.09734458
180	0x3df67ef1	0.12035931
181	0x3c897149	0.016777651
182	0x3d824e86	0.063626334
183	0x3d887f96	0.0666496
184	0x3e3a9fec	0.18225068
185	0x3db7bba4	0.089713365
186	0x3c4cf2ba	0.012509042
187	0xbdd1bad5	-0.102407135
188	0x3dbf0881	0.09327794
189	0xbe08d04c	-0.13360709
190	0x3d8f55a4	0.069987565
191	0x3d6e2fee	0.058151178
192	0x3d53e44b	0.05173139
193	0x3dad0955	0.084490456
194	0xbdd94530	-0.106088996
195	0xbd8cc2cc	-0.06873092
196	0xbd232983	-0.03983451
197	0xbdd49d8d	-0.10381613
198	0x3da323f8	0.07965845
199	0xbd92255d	-0.07136033

lstm.bias_hh_l0 f4 [200]
0	0xbd55a8a3	-0.052162778
1	0xbc9effec	-0.019409142
2	0x3df08159	0.11743421
3	0x3cfadf65	0.030624101
4	0x3de33cc8	0.110955775
5	0x3dbda591	0.09260095
6	0xbc251570	-0.010075912
7	0x3e0720ed	0.13196154
8	0x3de6a67d	0.11262224
9	0x3e122eba	0.14275637
10	0x3e143bb3	0.14475898
11	0x3db2ce4e	0.08730756
12	0x3e3af676	0.1825808
13	0x3dc36b22	0.09541918
14	0xbd5310de	-0.051529758
15	0x3d4dce6f	0.0502457
16	0xbd480b3c	-0.04883884
17	0x3df1c80b	0.11805733
18	0x3dc3cb94	0.09560314
19	0xbe162d9c	-0.14665836
20	0x3e1d4272	0.15357378
21	0x3dcd42ab	0.100224815
22	0x3c8996a9	0.016795473
23	0xbd70b6e5	-0.05876817
24	0xbcd75811	-0.02628711
25	0xbe2ad1d3	-0.16681604
26	0xbd6ea38a	-0.05826143
27	0x3e201e93	0.15636663
28	0x3c36a4fe	0.011147736
29	0x3e21d2d2	0.15803078
30	0x3df28632	0.11842002
31	0x3e22eb53	0.15910082
32	0x3da4f494	0.08054462
33	0x3c22ef4d	0.009944749
34	0x3e3a499b	0.18192141
35	0xbdb7ac7a	-0.08968444
36	0x3d8d8a14	0.06911102
37	0x3d8be105	0.068300284
38	0x3e00644a	0.12538257
39	0xbdc76437	-0.09735911
40	0x3d9741de	0.0738561
41	0x3d79f7d9	0.06102738
42	0xbd82d315	-0.06387917
43	0x3d9a4bf3	0.075340174
44	0x3d0203e1	0.03174198
45	0x3ddf2843	0.10896351
46	0xbdee86bd	-0.11646793
47	0x3d5b3c98	0.053524584
48	0x3e142469	0.14467014
49	0xbd90581d	-0.07048056
50	0x3e053610	0.13008904
51	0xbcb33e3c	-0.021880262
52	0x3e11df79	0.14245404
53	0xb8b7ea36	-8.769745e-05
54	0x3dc318c8	0.09526211
55	0xbe05df0d	-0.13073368
56	0x3cd6ca3d	0.026219482
57	0xbd81f659	-0.06345815
58	0x3d1b08b3	0.037850093
59	0xbe028d66	-0.12749252
60	0xbd8f168f	-0.069867246
61	0x3cc59103	0.024116999
62	0xbe0427ca	-0.12905803
63	0x3dcc9c25	0.0999072
64	0xbd817258	-0.063206375
65	0xbc547460	-0.012967199
66	0xbc0d040c	-0.008606922
67	0x3d73a985	0.05948784
68	0xbd547037	-0.05186483
69	0x3cab2155	0.020889917
70	0xbd471ae3	-0.048609626
71	0xbc63edaa	-0.013911644
72	0xbe1cf9a7	-0.1532961
73	0xbd2c1467	-0.042011645
74	0xbdd6fdd1	-0.104976304
75	0xbe184e5f	-0.14873646
76	0x3e18ecc3	0.14934067
77	0xbddb0adb	-0.1069543
78	0x3da8313d	0.082125165
79	0xbd59f5a8	-0.05321279
80	0x3e0d2983	0.13785367
81	0xbd91d76d	-0.07121167
82	0xbdad5c72	-0.08464898
83	0x3db8b84c	0.09019527
84	0xbda70446	-0.08155112
85	0xbda57b78	-0.080801904
86	0xbdd11de6	-0.10210781
87	0x3de86402	0.113472
88	0x3e10e3aa	0.14149347
89	0xbd9c39dc	-0.07628223
90	0x3dcce39e	0.10004352
91	0xbe3042a8	-0.17212927
92	0x3dc303bc	0.09522197
93	0xbdf65462	-0.120278135
94	0x3e29fbdf	0.16599987
95	0xbda68eda	-0.081327155
96	0xbd77203f	-0.060333487
97	0x3d6033b4	0.054736808
98	0xbe0f6aed	-0.14005633
99	0x3df82c6e	0.12117849
100	0x3c2502f4	0.010071505
101	0x3d49476e	0.049140386
102	0x3d816896	0.06318776
103	0x3d1d7360	0.03844011
104	0xbd8268d7	-0.06367653
105	0x3d4e63e1	0.05038822
106	0xbe036060	-0.12829733
107	0xbdc60d0a	-0.09670456
108	0xbdeb4abf	-0.11488866
109	0xbd54a448	-0.051914483
110	0xbd9299a4	-0.07158211
111	0xbdfe6ab1	-0.124226935
112	0xbd8d03ac	-0.06885466
113	0xbd9d3f06	-0.076780364
114	0x3c9bd187	0.019020809
115	0xbd899a99	-0.0671894
116	0x3e0664a1	0.13124324
117	0x3dbaa272	0.09113015
118	0xbd96e683	-0.07368185
119	0xbcf1d4b1	-0.029520364
120	0xbe1ca2ae	-0.15296432
121	0x3d0e3c18	0.03472528
122	0x3ce30a58	0.027714893
123	0x3d0f6a79	0.03501365
124	0xbe2073ee	-0.15669224
125	0x3c863982	0.016384844
126	0xbdbcab9d	-0.0921242
127	0xbd9446a4	-0.07240036
128	0x3c854554	0.01626841
129	0x3da4633b	0.08026739
130	0x3db4318c	0.08798513
131	0xbd3b45d3	-0.045720886
132	0xbdfc5882	-0.12321569
133	0x3db901b5	0.09033529
134	0xbd4314d8	-0.0476273
135	0xbaac034e	-0.0013123543
136	0x3de2ac81	0.11068059
137	0xbdd8693a	-0.105669454
138	0xbd524bf0	-0.05134195
139	0x39d11a47	0.00039883165
140	0xbd9ceada	-0.07661982
141	0xbcb02d03	-0.021505838
142	0x3dd581b6	0.10425131
143	0x3d0ee8bc	0.03488992
144	0x3dec21b6	0.11529867
145	0xbd8431e4	-0.064548284
146	0xbe01c1da	-0.12671605
147	0xbe089e1a	-0.13341561
148	0x3cbc5cf7	0.022993548
149	0xbdb26c32	-0.08712043
150	0x3de9b87e	0.11412142
151	0x3da2fad6	0.079579994
152	0x3d4f747a	0.05064819
153	0x3b9e4e9a	0.0048311474
154	0xbd6a91d3	-0.057267975
155	0x3bdb61c9	0.0066950065
156	0xbe0e376e	-0.13888332
157	0xbde70d27	-0.112818055
158	0xbd976a0f	-0.07393276
159	0x3cde08a1	0.027103724
160	0xbe07b2cb	-0.13251798
161	0x3d2f54da	0.04280553
162	0xbd9556f0	-0.07291973
163	0x3e1a2c86	0.15056047
164	0xbd3b219b	-0.045686346
165	0xbbddca9f	-0.006768539
166	0x3d0b83c2	0.0340612
167	0x3e07d0df	0.13263272
168	0x3de5d7fb	0.11222836
169	0x3e3c4134	0.18384248
170	0xbd45507a	-0.04817245
171	0x3cfbea20	0.030751288
172	0x3d3a6810	0.045509398
173	0x3e374157	0.17896019
174	0x3df64aee	0.120260105
175	0x3da99796	0.08280866
176	0x3deb602a	0.11492951
177	0xbe0275be	-0.12740228
178	0xbd6043b3	-0.054752063
179	0x3dc2dcf3	0.09514799
180	0x3d8a0979	0.06740088
181	0xbe09ab60	-0.1344428
182	0x3dbb0758	0.0913226
183	0x3d45484e	0.04816466
184	0x3dc1d4d3	0.09464421
185	0x3d29a6f4	0.041418985
186	0xbd570ed2	-0.052504368
187	0x3dcb7b71	0.09935654
188	0x3d5a254f	0.053258236
189	0x3e009140	0.12555408
190	0x3dfa19fe	0.12211989
191	0xbd1b4790	-0.037910044
192	0xbca909ab	-0.020634493
193	0xbd8c37d7	-0.06846588
194	0x3d644ae7	0.055735495
195	0xbde93a1e	-0.11388038
196	0x3d87e382	0.066351905
197	0xbd8dc8ef	-0.06923091
198	0x3e0069df	0.12540387
199	0x3db1be6e	0.086789

lstm.weight_ih_l1 f4 [200, 50]
0	0xbdea77c2	-0.11448623
1	0xbd5fb5fb	-0.05461691
2	0x38d2af35	0.00010046215
3	0xbd645116	-0.055741392
4	0xbc76de07	-0.015067584
5	0xbc1066ff	-0.008813619
6	0xbe08311a	-0.13299981
7	0xbd65d5dd	-0.05611216
8	0x3e34dabe	0.17661569
9	0xbdc6688c	-0.096879095
10	0x3c059a4f	0.008154466
11	0xbc8c348f	-0.017114906
12	0x3dedac19	0.11605091
13	0x3dc63d0a	0.09679611
14	0x3c816343	0.015794402
15	0xbcfcbc5f	-0.030851541
16	0xbd0de1c0	-0.03463912
17	0x3e1680b1	0.1469753
18	0x3dc4b23d	0.09604309
19	0x3eb9d3d6	0.3629443
20	0xbcdf64ea	-0.0272698
21	0xbcf5cdb2	-0.03000531
22	0xbe834d8e	-0.25645107
23	0x3da7c7b8	0.0819239
24	0x3a44038a	0.0007477334
25	0x3e1c2c63	0.15251307
26	0x3db4c4db	0.0882661
27	0x3c596efe	0.0132710915
28	0x3d744af0	0.05964178
29	0xbcae57d9	-0.021282123
30	0xbdaed158	-0.08536023
31	0x3d537f5e	0.05163514
32	0xbd87cc45	-0.06630758
33	0x3df0c725	0.11756734
34	0x3e3ff3bf	0.18745326
35	0xbdaf1b43	-0.08550122
36	0xbc050f74	-0.00812136
37	0x3d859951	0.065233834
38	0xbdcb2478	-0.09919065
39	0x3d2a9125	0.041642327
40	0x3b7afe74	0.0038298639
41	0x3d682cba	0.05668328
42	0xbc8d59c6	-0.017254721
43	0x3e146f64	0.14495617
44	0xbd9c2c31	-0.07625616
45	0x3d4c765d	0.049917568
46	0x3d3c0378	0.045901746
47	0xbe27c40a	-0.16383377
48	0x3d49f279	0.049303506
49	0xbd3a4039	-0.045471404
50	0xbdd66bfa	-0.10469814
51	0xbdca2043	-0.09869435
52	0x3d0cbb9f	0.034358617
53	0xbc8057f5	-0.015666941
54	0x3d8dd1c8	0.06924778
55	0x3d34ef8f	0.044173773
56	0xbd9764e7	-0.073922925
57	0xbcc89c8d	-0.024488712
58	0x3d4903b3	0.049075793
59	0xbe0d3bd7	-0.13792358
60	0x3c7c8f8b	0.015415083
61	0xbd8d22a5	-0.068913735
62	0x3e2197dc	0.15780586
63	0x3dbc6395	0.09198681
64	0x3e338da2	0.17534497
65	0xbc5a6557	-0.013329825
66	0x3dd32212	0.10309233
67	0x3d4ff4bb	0.050770503
68	0x3d9531dc	0.072849005
69	0x3eb6bad6	0.3568942
70	0xbe044ee7	-0.12920724
71	0xbd18853b	-0.037236433
72	0xbe599b26	-0.2125059
73	0x3e3f2298	0.1866554
74	0x3d5979ad	0.053094555
75	0xbdb88ae1	-0.09010864
76	0xbdc7e831	-0.09761084
77	0xbd994eae	-0.0748571
78	0xbd72abb8	-0.059245795
79	0x3cccedd7	0.025015755
80	0x3d2ac983	0.041696083
81	0x3d286462	0.041111358
82	0xbe0f2ace	-0.13981172
83	0xbe07c2af	-0.1325786
84	0x3b1c91ed	0.002389069
85	0xbd354721	-0.044257287
86	0xbd9869d8	-0.07442063
87	0x3cc0ea07	0.023549093
88	0x3e1e26f3	0.15444545
89	0xbd964882	-0.073380485
90	0xbd664648	-0.05621937
91	0x3e187ca9	0.14891304
92	0x3e10fc1c	0.14158672
93	0xbca99ccd	-0.020704651
94	0x3e115556	0.1419271
95	0x3da122e1	0.07867981
96	0x3de4307e	0.11142062
97	0x3d07268e	0.032995753
98	0x3d3dc0ed	0.046326566
99	0x3e1c5ec2	0.15270522
100	0x3c49d9cd	0.012319994
101	0xbd535894	-0.051598147
102	0xbdc4855f	-0.09595751
103	0xbe163a83	-0.14670758
104	0x3dfb7cac	0.12279639
105	0xbd4daa50	-0.05021125
106	0xbe5981db	-0.21240942
107	0xbde9cc8f	-0.114159696
108	0xbd1781f0	-0.036989152
109	0xbde9f61b	-0.11423894
110	0xbe064543	-0.13112359
111	0x3b259ece	0.0025271657
112	0x3e0bf531	0.13667752
113	0x3e19f556	0.15034994
114	0x3d29fc2d	0.04150026
115	0xbd2cd1f6	-0.04219242
116	0x3e14bc60	0.14524984
117	0x3e162980	0.14664268
118	0x3d0145f2	0.031560846
119	0x3eceeed2	0.4041658
120	0xbdf6b9f9	-0.1204719
121	0x3e1645e8	0.14675105
122	0xbeb36ba2	-0.35043055
123	0xbc2d4c4d	-0.010577274
124	0x3d24f9f1	0.040277425
125	0x3dc03d4c	0.093866915
126	0xbdd9839b	-0.10620805
127	0x3df5d320	0.120031595
128	0x3dafccde	0.08583997
129	0xbc994a2a	-0.018712122
130	0x3be60d95	0.007020662
131	0x3e134c83	0.14384656
132	0x3cb0e6c6	0.021594416
133	0x3d27fb3d	0.041011084
134	0x3e61e28d	0.22059079
135	0xbe3da533	-0.1852005
136	0x3d51115c	0.051041946
137	0x3d92990e	0.07158099
138	0x3d1a55b2	0.03767938
139	0x3d504975	0.050851304
140	0xbe25c0ce	-0.1618683
141	0x3c996647	0.018725527
142	0x3de95f96	0.11395185
143	0x38f0f37d	0.00011489445
144	0x3e0ba372	0.13636568
145	0x3be08060	0.006851241
146	0x3de2469e	0.110486254
147	0xba81e8ff	-0.0009911357
148	0xbd8b1272	-0.067906275
149	0x3e2258ca	0.15854183
150	0xbdb85c86	-0.090020224
151	0xbd8eb5b6	-0.06968252
152	0xbe030754	-0.12795764
153	0xbcf06480	-0.029344797
154	0x3e512ab2	0.20426443
155	0xbc5a6542	-0.013329806
156	0xbe25cab3	-0.16190605
157	0xbd6635b5	-0.056203563
158	0x3e08be93	0.13353948
159	0xbbc88153	-0.0061189323
160	0xbce97caa	-0.028501827
161	0xbca41c46	-0.020033013
162	0x3e10072c	0.14065236
163	0xbdaa3d5a	-0.08312483
164	0x3dd67b11	0.10472692
165	0x3d944842	0.072403446
166	0x3e29ee4a	0.16594806
167	0xbd0bdd71	-0.03414673
168	0x3e57dc8e	0.21080229
169	0x3eb22354	0.34792578
170	0x3dc6b8d5	0.09703223
171	0x3e00fddb	0.12596838
172	0xbeaebb3b	-0.3412722
173	0x3e9afe63	0.30272207
174	0xbe294068	-0.16528475
175	0x3e82ced7	0.2554843
176	0xbd65bc60	-0.05608785
177	0x3c133894	0.008985657
178	0xbd268ecf	-0.040663537
179	0xbd9752e3	-0.07388856
180	0xbd224833	-0.039619636
181	0x3e18ef54	0.14935046
182	0xbdc4ce45	-0.09609655
183	0xbe88305a	-0.2659939
184	0x3d8b69e6	0.06807308
185	0x3dc21f3e	0.09478615
186	0x3dea8484	0.114510566
187	0x3dca23db	0.0987012
188	0x3bc4f6a0	0.0060108453
189	0x3c39dfc2	0.011344852
190	0xbe18446a	-0.14869848
191	0xbc974ecf	-0.018470196
192	0x3d304d8a	0.043042697
193	0x3db0696a	0.08613856
194	0x3e2feb30	0.1717956
195	0x3c33b7af	0.010969087
196	0xbd1022ad	-0.03518932
197	0xbd9c73ef	-0.076393
198	0x3cd2f87b	0.02575325
199	0x3e27c8c6	0.16385183
200	0xbd7a7cb5	-0.061154086
201	0xbd1cea50	-0.038309395
202	0xbcc6ab64	-0.024251647
203	0x3dc29b13	0.09502234
204	0x3da96773	0.082716845
205	0x3def0cd3	0.11672368
206	0x3c864f25	0.01639516
207	0xbd81e0d4	-0.06341711
208	0x3c1da4c4	0.009621803
209	0xbe48d9a1	-0.19614269
210	0xbd8a6d65	-0.067591466
211	0xbe119a2e	-0.14218971
212	0x3ddd810a	0.10815628
213	0xbd1b733b	-0.03795169
214	0x3d431722	0.047629483
215	0xbe00ec03	-0.12590031
216	0x3dca1bfb	0.09868618
217	0x3e036f98	0.12835538
218	0x3d6368df	0.055519935
219	0x3df09b91	0.11748422
220	0xbdca4bab	-0.09877714
221	0x3e240de6	0.16020927
222	0xbdaf2774	-0.08552447
223	0x3cd64f47	0.02616085
224	0xbd257958	-0.040398926
225	0x3d891660	0.06693721
226	0xbe08e9a9	-0.13370384
227	0x3caca26d	0.021073544
228	0x3d5dc8b0	0.05414647
229	0x3e375b75	0.17905982
230	0x3d8a5087	0.067536406
231	0xbd7771fd	-0.060411442
232	0xbd03d132	-0.032181926
233	0xbe57e50c	-0.21083468
234	0x3de76609	0.112987585
235	0xbd1881fe	-0.037233345
236	0x3d7f950f	0.062398013
237	0xbb3c57ad	-0.0028738782
238	0xbdaeaf8a	-0.08529575
239	0xbdcceb79	-0.1000585
240	0xbd923088	-0.07138163
241	0xbc749cfc	-0.014930006
242	0xbdbd95bc	-0.09257075
243	0x3da5e2cf	0.08099901
244	0x3e399c60	0.18126059
245	0xbcc69906	-0.02424289
246	0x3d672610	0.056432784
247	0xbd266014	-0.04061897
248	0xbd884158	-0.06653088
249	0xbd665e3b	-0.05624221
250	0xbbb957bc	-0.0056562107
251	0xbe28cade	-0.16483638
252	0x3d975496	0.0738918
253	0x3d946de6	0.07247524
254	0x3de02654	0.109448105
255	0x3d2e5f7b	0.042571526

lstm.weight_hh_l1 f4 [200, 50]
0	0xbc440b5a	-0.011965597
1	0xbd5e6b23	-0.054301392
2	0xbd99428c	-0.07483396
3	0x3d882c4c	0.06649074
4	0x3dc2d750	0.09513724
5	0x3da97746	0.08274703
6	0xbc5a9729	-0.013341703
7	0x3d96bae7	0.073598675
8	0xbde80d93	-0.11330714
9	0xbae15ca6	-0.0017193749
10	0x3d9c8c2c	0.07643923
11	0x3db96346	0.09052138
12	0xbcc5d7d0	-0.024150759
13	0xbdc89de1	-0.09795738
14	0x3db37178	0.08761877
15	0x3dd40242	0.10351993
16	0xbdd95ad2	-0.10613026
17	0xbe1094de	-0.14119288
18	0xbd9bb4ad	-0.076028205
19	0x3c877bdf	0.016538559
20	0x3d0006cd	0.031256486
21	0xbe1300c3	-0.1435576
22	0xbdec8b18	-0.115499675
23	0xbd84556f	-0.06461608
24	0x3d73fbc2	0.059566267
25	0xbd7c19ab	-0.061547916
26	0xbbceb983	-0.006308736
27	0x3e11ed2f	0.14250635
28	0xbd9f720e	-0.07785426
29	0xbdce8640	-0.100842
30	0x3de203a2	0.11035849
31	0xbdb2061b	-0.08692571
32	0xbd950f2d	-0.07278285
33	0x3cc50e83	0.024054771
34	0x3cb0a900	0.02156496
35	0xbdb0d149	-0.08633668
36	0x3db80f5e	0.08987306
37	0xbbe6abdd	-0.0070395307
38	0x3de3381d	0.11094687
39	0xbdfb5090	-0.122712255
40	0xbc98aae9	-0.018636184
41	0x3ce5f12c	0.028069101
42	0x3dcc2548	0.09968048
43	0x3e05c3bf	0.13062952
44	0xbd86c129	-0.06579811
45	0xbd593fd7	-0.053039398
46	0xbd731b8a	-0.059352435
47	0x3deccf4d	0.11562977
48	0x3d9e4dcc	0.07729682
49	0xbdad85dc	-0.08472797
50	0xbc2cd955	-0.010549863
51	0xbde9fb86	-0.114249274
52	0xbc4172d5	-0.011807163
53	0x3c92b688	0.017909303
54	0x3e14898e	0.14505598
55	0x3dfc7792	0.12327494
56	0xbe0bed68	-0.13664782
57	0xbddde215	-0.10834137
58	0xbc901236	-0.017586809
59	0x3e084451	0.1330731
60	0x3e17b0b0	0.14813495
61	0x3e159f51	0.14611556
62	0x3d7a9d30	0.061185062
63	0xbd55c6ad	-0.052191425
64	0x3dc92ce1	0.09823013
65	0x3d27681f	0.040870782
66	0x3e005a28	0.12534392
67	0xbdcb6fc8	-0.0993343
68	0xbe0d1bd0	-0.13780141
69	0x3d6732e5	0.05644502
70	0x3ced1c6d	0.028944219
71	0xbe2057b1	-0.15658452
72	0xbdc19e1c	-0.09453985
73	0x3e0b5c91	0.1360953
74	0x3d1ad7bc	0.037803397
75	0x3dc3dfe5	0.09564189
76	0xbd93b18c	-0.07211599
77	0x3ae49d10	0.0017441828
78	0x3c3c4b2d	0.011492533
79	0xbde30eab	-0.11086782
80	0xbe00df98	-0.12585294
81	0x3dc53a5c	0.09630272
82	0x3e1ec31b	0.15504114
83	0x3dec30af	0.11532723
84	0xbe0917db	-0.13388006
85	0x3ca00cea	0.019537408
86	0xbcc46566	-0.023974132
87	0xbcd75ae2	-0.026288453
88	0xbe20d36c	-0.15705651
89	0xbe1e1d69	-0.15440907
90	0xbda99b7d	-0.0828161
91	0x3d818424	0.06324032
92	0x3d0ea513	0.034825396
93	0x3d886f20	0.066618204
94	0x3dc14f55	0.094389595
95	0xbe092ba6	-0.13395557
96	0x3df1bb7c	0.11803338
97	0x3dae039d	0.08496783
98	0xbe179393	-0.14802389
99	0x3df1ea2c	0.11812243
100	0xbc77cbb1	-0.015124247
101	0xbe1df0b0	-0.15423846
102	0x3da94a1f	0.082660906
103	0x3da5a33a	0.080877736
104	0x3e265c89	0.16246237
105	0x3de7b246	0.113133
106	0xbd9ce4a8	-0.076608
107	0xbcedc9c5	-0.029026875
108	0x3cc419c5	0.02393807
109	0x3e008bbf	0.12553309
110	0x3d301464	0.042988196
111	0xbd90c883	-0.070694946
112	0x3deb7b17	0.11498087
113	0xbb517147	-0.0031958388
114	0x3dbe8b10	0.09303868
115	0x3cd5d51c	0.026102595
116	0x3df85d40	0.12127161
117	0xbada6828	-0.0016663121
118	0xbe22ca05	-0.15897377
119	0x3dc8cac1	0.09804297
120	0x3def5c33	0.116875075
121	0xbd887ab5	-0.066640295
122	0x3c53e5fb	0.01293325
123	0xbde13568	-0.109965146
124	0x3da5f486	0.0810328
125	0x3d4b5272	0.049639173
126	0xbc10c340	-0.008835614
127	0x3dd173d0	0.102271676
128	0xbbdd474e	-0.006752885
129	0x3dde0dd1	0.10842479
130	0x3e27b8ea	0.16379133
131	0xbdc04056	-0.09387271
132	0x3ddd1296	0.107945606
133	0xbd60ad28	-0.054852635
134	0x3d58e580	0.052953243
135	0xbd214bf3	-0.03937907
136	0x3d939d96	0.072077915
137	0xbdb13ebb	-0.08654543
138	0x3de6a7eb	0.112624966
139	0x3dbcbe7c	0.092160195
140	0x3d661d7f	0.056180473
141	0xbdfaef00	-0.12252617
142	0x3d53fa07	0.051752117
143	0xbd88e323	-0.06683948
144	0x3e18736b	0.14887778
145	0x3bdac344	0.0066761095
146	0xbcb9e645	-0.022692809
147	0xbdf8aa2c	-0.12141833
148	0xbd2c9a63	-0.042139422
149	0xbc9adb50	-0.018903404
150	0xbe159d6e	-0.14610836
151	0xbdd2c656	-0.10291736
152	0x3d093816	0.033500753
153	0x3d7a16a8	0.061056763
154	0x3dece860	0.115677595
155	0xbd04d2a1	-0.032427434
156	0x3df27a97	0.118397884
157	0xbc1822df	-0.009285658
158	0x3e1fd2f1	0.15607812
159	0xbe185f9c	-0.14880222
160	0x3dc88405	0.09790806
161	0xbdb079f1	-0.086170085
162	0x3d838d43	0.06423428
163	0xbbe6c7d0	-0.0070428625
164	0x3d86c2e0	0.06580138
165	0xbcc87473	-0.02446959
166	0xbe1b2a01	-0.15152742
167	0x3e0951e5	0.13410147
168	0xbe0f2de1	-0.13982345
169	0xbe00ece7	-0.12590371
170	0x3d976f58	0.07394284
171	0x3e114a8a	0.1418859
172	0x3dd7d759	0.10539121
173	0x3da33663	0.07969358
174	0x3c297cb9	0.010344678
175	0xbd734387	-0.05939057
176	0x3d2f688f	0.042824324
177	0x3be27299	0.0069106338
178	0x3d815ead	0.06316886
179	0xbcd4a2dd	-0.025956566
180	0xbd1bdf6b	-0.038054865
181	0xbbeafc98	-0.007171225
182	0xbd1ce715	-0.038306314
183	0xbdbbc50a	-0.091684416
184	0x3bee62f2	0.007274979
185	0x3dc7dd3a	0.097589925
186	0xbd3b5ebd	-0.045744646
187	0xbd75665b	-0.059912067
188	0xbb73428e	-0.0037118527
189	0x3e0565bb	0.13027088
190	0xbe038105	-0.12842186
191	0x3daf6ff9	0.08566279
192	0xbce3619c	-0.027756505
193	0x3d42e555	0.04758199
194	0xbe0279d9	-0.12741794
195	0x3d4a8701	0.049445156
196	0x3d982bff	0.074302666
197	0xbdc0b3e4	-0.094093114
198	0x3dc9ce83	0.09853842
199	0xbdf86832	-0.12129249
200	0x3e0d5fc7	0.13806067
201	0xbdeba71a	-0.115064815
202	0xbdbbb1bf	-0.09164762
203	0x3e2a025b	0.16602461
204	0x3d920abf	0.07130956
205	0x3d98a69b	0.074536525
206	0xbdbbdc54	-0.09172884
207	0x3d706b1f	0.05869591
208	0xbe213d74	-0.15746099
209	0xbdf80be9	-0.12111647
210	0x3d8478fa	0.06468387
211	0xbd27f3d2	-0.04100401
212	0xbd6e17d1	-0.05812818
213	0xbc6a570a	-0.014302978
214	0xbd8f9490	-0.07010758
215	0xbd19d62d	-0.03755777
216	0x3d8b99b5	0.06816427
217	0x3ce52c7b	0.027975312
218	0xbda930e0	-0.08261275
219	0xbde8c21a	-0.11365147
220	0x3dccbdd9	0.09997148
221	0x3d0d117c	0.034440503
222	0x3bf50660	0.0074775666
223	0x3de10dbd	0.109889485
224	0xbc0071c3	-0.007839623
225	0xb9e95b5e	-0.00044509297
226	0x3e29bc6e	0.16575786
227	0x3e0c95c2	0.13729003
228	0x3dd8912d	0.10574565
229	0xbd544e5c	-0.05183254
230	0x3e0e8bf4	0.13920575
231	0x3b2d577f	0.0026449857
232	0xbdab0ac4	-0.08351663
233	0x3ca1cb02	0.019750122
234	0xbe08adcd	-0.1334755
235	0xbdbc2d45	-0.09188322
236	0x3dcb7408	0.099342406
237	0xbd708566	-0.05872097
238	0xbe08b799	-0.13351287
239	0x3d802af1	0.062581904
240	0x3d9d72e0	0.07687926
241	0xbcb18d80	-0.021673918
242	0xbd8b7bb1	-0.06810702
243	0x3d49a0c9	0.049225602
244	0x3df5d3ec	0.120033115
245	0x3d2617b3	0.040549945
246	0xbdcc5fd0	-0.09979212
247	0x3c137837	0.009000829
248	0xbd316e58	-0.043318123
249	0x3e0ea898	0.13931501
250	0xbdc4390c	-0.09581193
251	0xbda2d7ce	-0.07951318
252	0xbcd6bfab	-0.026214441
253	0xbdc970c0	-0.098359585
254	0xbd137eca	-0.036009587
255	0xbc24ab75	-0.010050644

lstm.bias_ih_l1 f4 [200]
0	0x3d79d3ad	0.060992885
1	0x3e1415c6	0.14461431
2	0x3e3d718b	0.18500344
3	0xbd4784b8	-0.048710555
4	0x3b4052f8	0.0029346328
5	0xba924e43	-0.001116224
6	0xbd824d9f	-0.06362461
7	0x3df05ead	0.11736808
8	0x3da4b20c	0.08041772
9	0x39e45a9e	0.00043555064
10	0x3e080bd9	0.1328577
11	0x3ce26bcf	0.027639298
12	0x3de55cf3	0.11199369
13	0x3ddf673d	0.10908363
14	0xbdbb7b15	-0.091543354
15	0xbcbd5fc0	-0.023116946
16	0x3df12cd3	0.11776128
17	0xbc4bf178	-0.012447707
18	0xbd266fc1	-0.04063392
19	0x3dad8dfb	0.08474346
20	0x3d5c0958	0.05371985
21	0xbd25739c	-0.040393457
22	0x3e0e99c8	0.1392585
23	0x3de68634	0.11256066
24	0x3d70ccfd	0.058789242
25	0xbd8c824c	-0.0686079
26	0xbd9dc67f	-0.07703876
27	0x3cce53b1	0.025186392
28	0x3da66382	0.08124448
29	0x3de58a2f	0.11207997
30	0x3d414ab2	0.047190376
31	0x3d1ed4cf	0.03877717
32	0x3d8c2eb5	0.06844846
33	0xbd9c4502	-0.0763035
34	0x3b9dd787	0.0048169526
35	0x3da9a2f4	0.08283034
36	0xbd8afcb9	-0.06786484
37	0x3d9ff967	0.078112416
38	0x3b6645bd	0.0035136782
39	0xbdd50cc4	-0.104028255
40	0xbda59a01	-0.080860145
41	0x3d1b537e	0.03792142
42	0xbdcdda6d	-0.10051427
43	0x3dfb501a	0.122711375
44	0x3dcb840b	0.099372946
45	0x3e36b54e	0.178426
46	0xbbc094a8	-0.005877096
47	0x3d978684	0.07398704
48	0xbdaac3b0	-0.08338106
49	0x3cc36a1a	0.023854304
50	0x3d752827	0.059852745
51	0x3d28f87d	0.041252602
52	0xbd29118d	-0.041276503
53	0xbd96e2fe	-0.07367514
54	0xbc9d31bd	-0.019188756
55	0x3df74f38	0.12075657
56	0x3d799f28	0.0609428
57	0xbd2707fa	-0.04077909
58	0xbd00ad48	-0.031415254
59	0xbb203438	-0.0024445187
60	0x3d9af942	0.075670734
61	0x3e1e2333	0.15443115
62	0x3deb8262	0.11499478
63	0x3e0c561b	0.13704722
64	0xbcf735a2	-0.030176941
65	0x3c80f362	0.015741054
66	0x3de81915	0.11332909
67	0x3df9a043	0.121887706
68	0xba8a0520	-0.0010530092
69	0x3dd5a96d	0.10432706
70	0xbdd53212	-0.10409941
71	0xbde352ca	-0.11099775
72	0x3d68043b	0.05664466
73	0x3dd759ba	0.10515161
74	0x3dbd74fd	0.09250829
75	0xbdc31a05	-0.09526447
76	0x3e023f3b	0.12719433
77	0xbde89e40	-0.11358309
78	0x3dafbe2f	0.085811965
79	0xbd85b3c4	-0.06528428
80	0x3e12ce51	0.14336516
81	0x3da5b8a7	0.0809186
82	0x3dccfe93	0.10009494
83	0x3d07db2d	0.033168007
84	0xbe05bc01	-0.13059999
85	0xbe0de272	-0.13855913
86	0xbe1b7d94	-0.15184623
87	0xbcc7e94c	-0.024403237
88	0xbc7bee0c	-0.015376579
89	0x3d604a90	0.05475861
90	0xbde90a9f	-0.11378979
91	0xbdac24f6	-0.08405487
92	0xbc794276	-0.015213599
93	0xbd408f54	-0.04701169
94	0xbc262146	-0.010139769
95	0xbe0b2e02	-0.1359177
96	0xbde9c729	-0.1141494
97	0xbe12f2a2	-0.1435037
98	0xbd24e3a6	-0.040256165
99	0xbd557020	-0.052108884
100	0xbd9e79c0	-0.07738066
101	0xbe1fe46a	-0.15614477
102	0x3c8ae50a	0.016954917
103	0x3e1e9f6f	0.15490507
104	0x3e06f32f	0.13178705
105	0x3ce8864e	0.028384354
106	0xbe01e4b0	-0.12684894
107	0xbbb4a94c	-0.005513346
108	0xbe1c3297	-0.15253673
109	0xbd9c469b	-0.076306544
110	0x3d34c298	0.04413089
111	0x3d82cd94	0.06386867
112	0xbdbdec3c	-0.09273574
113	0xbcf440bc	-0.029816024
114	0x3ce64129	0.028107243
115	0xbc4a1965	-0.012335156
116	0x3d8f2568	0.069895566
117	0x3d254d17	0.04035672
118	0xbd660efa	-0.056166627
119	0x3bfb0366	0.0076603172
120	0xbde60255	-0.112309135
121	0xbde36948	-0.11104065
122	0xbe287882	-0.1645222
123	0xbdaa31bf	-0.083102696
124	0xbd6db6f2	-0.0580358
125	0x3ccb84b3	0.02484355
126	0x3cf26df2	0.029593442
127	0x3d2a64a2	0.041599877
128	0x3db7d64f	0.08976423
129	0x3c6d1144	0.0144694485
130	0x3cc3088f	0.023807792
131	0x3c8a4b17	0.016881509
132	0xbd21f9ad	-0.03954475
133	0xbcfe545c	-0.031046085
134	0x3d8956f5	0.06706039
135	0x3e02e89f	0.1278405
136	0x3dcc98ab	0.099900566
137	0xbdca68d6	-0.09883277
138	0xbcda286b	-0.0266306
139	0x3db0ea59	0.08638448
140	0x3d152a6b	0.036417406
141	0xbe278b19	-0.16361655
142	0x3e060a51	0.13089873
143	0xbd71d129	-0.05903736
144	0xbd85dfd1	-0.0653683
145	0xbe00e790	-0.12588334
146	0x3e288f4c	0.16460913
147	0x3e093d9f	0.13402413
148	0xbd96519e	-0.07339786
149	0x3cbd0400	0.023073196
150	0x3d18df05	0.037322063
151	0xbde5e597	-0.112254314
152	0xbd64e045	-0.055877943
153	0xbc986044	-0.01860059
154	0x3cd67790	0.026180059
155	0xbca7aa5e	-0.02046698
156	0x3df907a0	0.121596575
157	0xbd9aa13d	-0.07550285
158	0xbd3b39e9	-0.045709524
159	0x3d1209a9	0.035653744
160	0x3ca023a1	0.01954824
161	0x3b999775	0.0046872445
162	0xbd4d65f4	-0.05014606
163	0x3de387ed	0.1110991
164	0x3dd9fd70	0.106440425
165	0xbae2316b	-0.0017257159
166	0x3cd917be	0.026500579
167	0x3e154476	0.14576897
168	0xbbf1e446	-0.0073819486
169	0xbd31bb50	-0.043391526
170	0xbc60c341	-0.013718427
171	0x3dccda7b	0.10002609
172	0xbd55cdef	-0.052198347
173	0x3d963871	0.07334984
174	0xbcd197f8	-0.02558516
175	0x3db03e94	0.08605686
176	0x3daa612b	0.083193146
177	0x3e06aa18	0.13150823
178	0x3d720b0d	0.05909257
179	0xbd64d768	-0.05586949
180	0x3cf960e7	0.030441714
181	0xbd06828e	-0.03283935
182	0x3d8fe4b5	0.07026044
183	0x3c9807a0	0.018558323
184	0xbc6880e1	-0.014190883
185	0x3e355dc8	0.17711556
186	0xbdf7c873	-0.120987795
187	0x3e13a9d6	0.14420256
188	0x3da4033a	0.08008428
189	0xbd89435e	-0.067023024
190	0x3dfed26f	0.12442481
191	0xbc96e1ef	-0.01841828
192	0xbdce59a0	-0.10075688
193	0xbd45547a	-0.048176266
194	0x3c98c7ea	0.018650014
195	0xbdf03098	-0.117280185
196	0x3cf0919b	0.029366305
197	0x3d495af9	0.049159024
198	0xbdc5f4aa	-0.096658066
199	0x3d4a69d2	0.049417324

lstm.bias_hh_l1 f4 [200]
0	0x3d8006b5	0.06251279
1	0x3e31556b	0.1731774
2	0x3e3e42a2	0.18580106
3	0x3c45a8fb	0.012064214
4	0xbb35d48d	-0.0027745098
5	0xbdcdaef4	-0.10043135
6	0xbd278db8	-0.040906638
7	0x3d920222	0.07129313
8	0x3df3a9c6	0.11897616
9	0x3e0a606a	0.13513342
10	0x3dd1cece	0.10244523
11	0x3cbf5ce8	0.02335973
12	0x3da286b2	0.07935847
13	0x3deba78d	0.11506567
14	0x3e189c08	0.14903271
15	0x3da4680c	0.08027658
16	0xbd139c77	-0.03603789
17	0xbd225bbb	-0.039638262
18	0xbd256b33	-0.040385436
19	0x3b8014ee	0.003908745
20	0xbda423d1	-0.08014644
21	0x3e16b762	0.14718392
22	0x3e034546	0.12819394
23	0x3e243e9d	0.1603951
24	0x3db7e896	0.08979909
25	0x3e2b69eb	0.16739623
26	0x3ca1e9c1	0.019764783
27	0x3c87150b	0.016489526
28	0x3db3e2b6	0.08783476
29	0x3d20544a	0.039142884
30	0x3d954328	0.072882
31	0x3d047f7d	0.032348145
32	0x3ce3d237	0.0278102
33	0xbd38ff2d	-0.04516523
34	0x3c18162f	0.009282633
35	0x3dd96425	0.10614804
36	0xbc84b074	-0.01619742
37	0xbdb8169d	-0.08988688
38	0x3cc4f2f4	0.02404163
39	0xbc05ddd1	-0.008170561
40	0x3e04308f	0.12909149
41	0x3e0acef2	0.13555506
42	0xbd812405	-0.06305698
43	0x3d810d3e	0.06301354
44	0x3d8f7bc6	0.0700603
45	0xbd5ece40	-0.054395914
46	0xbc8097cf	-0.015697388
47	0xbc03c9f7	-0.008043758
48	0x3de64756	0.11244075
49	0xbd9faf96	-0.07797162
50	0x3d10d472	0.035358854
51	0x3d8ef472	0.06980218
52	0xbdbbf53f	-0.09177636
53	0xbd375dc8	-0.04476717
54	0x3d8e9814	0.069626
55	0x3d95bc27	0.07311278
56	0x3d307284	0.04307796
57	0xbd2a49d0	-0.0415743
58	0xbd139994	-0.036035135
59	0x3d5755e4	0.052572146
60	0x3dad5fc6	0.08465533
61	0x3aad3ab9	0.0013216353
62	0x3e272155	0.16321309
63	0x3d2eeadd	0.04270445
64	0xbdb6b62f	-0.089214675
65	0xbca5a380	-0.020219564
66	0xba52c135	-0.00080396543
67	0xbcc4d58b	-0.024027606
68	0xbc795aa5	-0.015219365
69	0xbd888382	-0.06665708
70	0xbdad5b84	-0.08464721
71	0x3de5d960	0.112231016
72	0x3de2f97d	0.11082742
73	0xbd81921c	-0.06326696
74	0x3cfc5294	0.030801095
75	0x3d681367	0.05665913
76	0xbba55bc6	-0.0050463406
77	0x3bc23c5a	0.0059276046
78	0xbd7924e0	-0.060826182
79	0xbce3735e	-0.027764972
80	0xbdd6fbe6	-0.104972646
81	0x3e192a8a	0.14957634
82	0x3e134967	0.1438347
83	0x3dd8448f	0.105599515
84	0xbd4583df	-0.048221465
85	0xbd735954	-0.05941136
86	0x3af16d77	0.0018419464
87	0x3dcc81a8	0.099856675
88	0x3bfb6ee9	0.0076731336
89	0xbc456388	-0.012047656
90	0xbde6b9c3	-0.112659
91	0xbda4c589	-0.08045489
92	0x3c0cf830	0.008604094
93	0xbcac727c	-0.021050684
94	0x3b82834d	0.0039829374
95	0x3de1d8c6	0.110276744
96	0x3d87fe25	0.06640271
97	0xbe001141	-0.12506582
98	0xbd9180d3	-0.071046494
99	0x3b23d539	0.0024998917
100	0x3dec2b72	0.11531724
101	0xbe21874b	-0.15774266
102	0x3db1da3f	0.08684205
103	0xbd4130d3	-0.047165703
104	0x3db3c3e2	0.08777596
105	0xbcd57f92	-0.026061807
106	0x3dc86e9d	0.09786723
107	0x3dcd2140	0.100161076
108	0xbe042f01	-0.12908556
109	0xbdd235f1	-0.10264195
110	0x3d8daf54	0.06918207
111	0x3e13b6d5	0.14425214
112	0x3d14d7ca	0.036338605
113	0xbdc617ab	-0.09672483
114	0x3e1bf34e	0.15229532
115	0xbdfbb83c	-0.12290999
116	0x3e195e71	0.14977433
117	0xbd98c4da	-0.074594215
118	0x3c648d85	0.0139497565
119	0x3cd4bc3a	0.02596866
120	0xbcf11a3d	-0.029431457
121	0xbd75007a	-0.059814908
122	0x3c1edf80	0.009696841
123	0x3d5b2bcd	0.05350857
124	0x3d45bb1f	0.048274156
125	0x3e2b3082	0.16717723
126	0x3ca019fc	0.01954364
127	0xbd8209b7	-0.06349509
128	0xbe0b507e	-0.13604924
129	0x3dc014c3	0.0937896
130	0xbd9c4f72	-0.076323405
131	0x3d1f712c	0.03892629
132	0xbd578d87	-0.052625205
133	0xbdf9e276	-0.12201397
134	0x3d4e9946	0.05043914
135	0x3de3c928	0.11122352
136	0xbe197a4c	-0.14988059
137	0x3dfbe45c	0.122994155
138	0xbe30c1ea	-0.17261472
139	0xbd85aab0	-0.06526697
140	0xbcddd5de	-0.027079519
141	0xbe03cc1e	-0.12870833
142	0xbda7fa09	-0.08201987
143	0xbc7a0457	-0.015259824
144	0xbda897b3	-0.08232059
145	0xbcbe1f14	-0.023208179
146	0xbd831b01	-0.06401635
147	0xbd469589	-0.04848245
148	0xbdd04801	-0.10169984
149	0x3c8993fd	0.0167942
150	0xbd35d650	-0.044393837
151	0x3ddfbe20	0.10924935
152	0x3de612cc	0.11234054
153	0xbd82af0d	-0.063810445
154	0xbabd7095	-0.0014453108
155	0xbdf8abc5	-0.121421374
156	0x3daf236a	0.085516766
157	0xbc8ba2c2	-0.017045382
158	0x3d832632	0.064037696
159	0x3d8e365a	0.069439605
160	0x3e209ca7	0.15684758
161	0x3c4f9cbe	0.012671648
162	0xbcb2d2ff	-0.021829126
163	0x3e24acf9	0.16081609
164	0x3c8db3d4	0.017297663
165	0x3c0f2aa2	0.008738192
166	0x3d2b32b3	0.041796397
167	0xbd75680a	-0.059913673
168	0x3d82e659	0.063915916
169	0xbde0f604	-0.10984424
170	0x3e0f8704	0.14016348
171	0x3db71661	0.08939815
172	0x3df67c62	0.12035443
173	0xbd9cdb9f	-0.07659077
174	0x3de445d4	0.11146131
175	0x3e1e5478	0.1546191
176	0x3c79afb9	0.015239649
177	0xbdd37db3	-0.103267096
178	0x3d83123d	0.06399963
179	0x3b9ab329	0.0047210646
180	0xbde5085b	-0.11183234
181	0x3c459048	0.012058325
182	0xbcf301ce	-0.029663946
183	0xbdd24a4b	-0.102680765
184	0x3daa950c	0.0832921
185	0x3da52dc2	0.08065368
186	0xbd9e4caf	-0.0772947
187	0x3e211070	0.15728927
188	0x3d181b6d	0.03713553
189	0x3cd45ccf	0.02592316
190	0x3cdf2c6c	0.027242862
191	0xbdb9e4f4	-0.090768725
192	0xbd434de7	-0.047681715
193	0x3bd2038b	0.0064091138
194	0xbd2765d5	-0.0408686
195	0x3da0666c	0.078320354
196	0x3ca88277	0.020570023
197	0x3bf3f1f2	0.0074446136
198	0x3e240ed8	0.16021287
199	0xbdaddb84	-0.08489135
