TFM/regresion/results/branch_trip/STConv.pt (torch, 170618 bytes, 21 tensors)

recurrent._temporal_conv1.conv_1.weight f4 [64, 1, 1, 5]
0	0x3eae4dcc	0.3404373
1	0x3ebdb9fa	0.3705595
2	0xbdd55863	-0.10417249
3	0x3ed31d90	0.41233492
4	0xbdc31455	-0.095253624
5	0x3db8d19b	0.09024354
6	0xbe5ef423	-0.21772818
7	0x3e8678da	0.26264077
8	0x3ec9d98f	0.39423797
9	0xbea7fb37	-0.3280885
10	0x3ec26477	0.37967274
11	0x3d9941e1	0.074832685
12	0x3ea4b398	0.3216827
13	0x3d5509d5	0.05201133
14	0x3e543933	0.20724945
15	0xbd8005d2	-0.0625111
16	0x3eb11281	0.3458443
17	0x3d8ab4f8	0.06772798
18	0xbe538471	-0.20655991
19	0x3def0d76	0.11672489
20	0xbe497aac	-0.19675702
21	0xbd2ed3c1	-0.042682413
22	0xbe2fa2d1	-0.17151953
23	0x3e9d51e7	0.3072655
24	0xbeaf1cd1	-0.34201673
25	0xbe531e40	-0.20617008
26	0xbe015006	-0.12628183
27	0xbe89ace5	-0.2688972
28	0x3d2ce3c7	0.042209413
29	0xbee226f7	-0.44170353
30	0x3ecad7db	0.3961781
31	0xbec6a124	-0.38794816
32	0x3eac78cb	0.33685908
33	0x3d868066	0.06567459
34	0xbe1e0576	-0.1543177
35	0x3e90cf43	0.28283128
36	0x3d9f06bd	0.07764957
37	0x3ebd9b2a	0.37032443
38	0x3d6fda2f	0.058557685
39	0xbe054ffc	-0.13018793
40	0x3e03e3f6	0.12879929
41	0xbde63e4d	-0.11242352
42	0x3e4a03f4	0.1972807
43	0x3ed13215	0.40858522
44	0x3e893e8a	0.26805526
45	0xbe484c0e	-0.19560263
46	0x3e84f0b0	0.2596488
47	0x3da97233	0.08273735
48	0x3e6d19c2	0.23154357
49	0xbe888255	-0.26661935
50	0xbee51161	-0.44739822
51	0xbe36432a	-0.17799059
52	0xbeb2859f	-0.3486757
53	0x3eb8be73	0.360828
54	0x3dfa26ba	0.12214418
55	0x3e36f781	0.17867853
56	0x3e09f0f8	0.13470829
57	0xbc70aae1	-0.014689178
58	0x3eaf920d	0.34291115
59	0xbea668c3	-0.32501802
60	0x3ccfe49a	0.02537756
61	0xbe9e7d72	-0.30955082
62	0x3e0acb8d	0.13554211
63	0xbe2266b0	-0.15859485
64	0x3e096b7c	0.13419908
65	0xbdcd8159	-0.10034437
66	0x3eb9f1f1	0.363174
67	0xbe8c6e91	-0.27428105
68	0xbe8fac74	-0.2806126
69	0xbe8c36d7	-0.2738559
70	0x3ec9cbaf	0.3941321
71	0x3e11f7d2	0.14254692
72	0x3ed7ce18	0.42149425
73	0xbec01ed5	-0.37523523
74	0xbee9180e	-0.45526165
75	0xbeabbf39	-0.3354433
76	0xbe950e3b	-0.2911242
77	0x3e3f0667	0.18654786
78	0x3e25aaef	0.16178487
79	0x3ebd0fb9	0.36926058
80	0xbe6ca32e	-0.23109123
81	0xbe990e79	-0.29893854
82	0x3e766685	0.24062546
83	0xbe3db8fb	-0.18527596
84	0x3e88c1e7	0.26710436
85	0xbdece6e7	-0.115674786
86	0x3e7c1855	0.24618657
87	0xbeb6e1c8	-0.35719132
88	0xbe7138aa	-0.23556772
89	0x3e0162a4	0.12635285
90	0x3dd2c422	0.102913156
91	0xbdd875d4	-0.10569349
92	0x3e8cb708	0.27483392
93	0x3e9fdc76	0.31222886
94	0xbea1dd9e	-0.31614393
95	0xbe76c1ca	-0.24097362
96	0x3ed057ae	0.40691894
97	0xbe1d72f3	-0.15375881
98	0xbe25ae23	-0.16179709
99	0xbedf6c2c	-0.43637216
100	0xbe7e26cf	-0.24819492
101	0x3de27d62	0.11059071
102	0xbd4f74f7	-0.050648656
103	0xbe9f94af	-0.31168124
104	0x3cc83c3f	0.02444279
105	0xbe9c6850	-0.30548334
106	0xbec2429f	-0.37941453
107	0xbe7c2c95	-0.24626382
108	0xbec86677	-0.39140674
109	0xbe91cbca	-0.2847579
110	0x3ee8e777	0.45489094
111	0x3dbd6cbe	0.092492566
112	0x3e155e42	0.14586738
113	0xbed1608d	-0.40893975
114	0xbe9223d3	-0.28542957
115	0xbe234252	-0.15943268
116	0x3d72dadb	0.059290748
117	0xbecef1a2	-0.40418726
118	0xbe504e05	-0.20342262
119	0xbe8e99f0	-0.2785182
120	0x3aa2717f	0.0012393444
121	0xbe2a6748	-0.16640961
122	0xbcfddec2	-0.030990008
123	0xbe9b28be	-0.3030452
124	0xbe9d2a8d	-0.30696526
125	0xbe80566b	-0.25065932
126	0xbe12bb68	-0.14329302
127	0xbeaffe99	-0.3437393
128	0x3ec47757	0.383723
129	0xbda4f6eb	-0.08054908
130	0x3ec80a3c	0.39070308
131	0x3e13bfb9	0.14428605
132	0xbebfc3b6	-0.37454003
133	0x3ea01746	0.31267756
134	0xbdf74d48	-0.12075287
135	0xbe2f8afc	-0.17142862
136	0xbebe1064	-0.3712188
137	0xbee3a2e5	-0.44460216
138	0x3e0305ff	0.12795256
139	0xbdc81241	-0.09769107
140	0x3e472718	0.19448507
141	0xbeb431d3	-0.35194263
142	0x3eb66563	0.35624227
143	0xbe92a887	-0.286442
144	0xbd21603d	-0.03939842
145	0x3dc0573a	0.09391637
146	0x3e6daa39	0.23209466
147	0x3eb9cf15	0.36290804
148	0x3ed1e6d6	0.40996426
149	0xbeb3e179	-0.3513296
150	0x3e028951	0.12747695
151	0xbe36fd78	-0.17870128
152	0xbd12a0dd	-0.035797942
153	0xbea47bca	-0.32125694
154	0x3ed6fcab	0.41989645
155	0xbea99a9d	-0.33125773
156	0x3e715b82	0.23570064
157	0x3e1d4515	0.15358384
158	0x3e10d2ae	0.14142868
159	0xbe7bdfb8	-0.2459706
160	0x3ed50ab8	0.4160974
161	0x3ddb6185	0.1071196
162	0x3d86ce87	0.06582361
163	0xbec5f6ce	-0.3866486
164	0x3e472c5d	0.19450517
165	0xbd896723	-0.06709125
166	0xbe51cbe8	-0.2048794
167	0x3ec4ad06	0.38413256
168	0x3dcc3284	0.099705726
169	0xbe7d5f02	-0.24743274
170	0xbe67c8df	-0.2263522
171	0xbcaef4e3	-0.021357005
172	0x3e7fb321	0.24970676
173	0xbdea0ab0	-0.1142782
174	0xbe82a57e	-0.25516886
175	0xbe1cd212	-0.1531451
176	0xbeab0f6c	-0.33410203
177	0x3e235194	0.15949088
178	0x3eb13c0e	0.3461613
179	0xbed79094	-0.42102492
180	0x3de5fb65	0.1122959
181	0x3e74f6b7	0.23922239
182	0x3db64db6	0.08901541
183	0xbe1b3d2c	-0.15160054
184	0x3e7698a2	0.24081662
185	0x3e9e44ed	0.3091196
186	0x3e7d8b08	0.24760067
187	0x3bc74e4b	0.0060823313
188	0xbd640244	-0.055666223
189	0x3dd9ffcc	0.106444925
190	0xbd98afe6	-0.07455425
191	0xbe043a3e	-0.12912843
192	0x3e944dfa	0.2896574
193	0x3ec68faf	0.38781497
194	0xbd288c94	-0.04114969
195	0xbdbb8efd	-0.09158132
196	0x3c75668e	0.014978064
197	0xbc969764	-0.018382736
198	0x3decf884	0.11570838
199	0x3e089a5c	0.13340133
200	0xbecb0ce9	-0.39658287
201	0xbe1f4fae	-0.15557739
202	0x3ec59c03	0.3859559
203	0x3e3bd3f0	0.18342566
204	0xbc57cb81	-0.013171078
205	0xbe883007	-0.26599142
206	0xbe874fe5	-0.26428142
207	0xbecb365d	-0.39689913
208	0xbe16aca8	-0.147143
209	0x3e20e4cd	0.1571228
210	0x3e8d8068	0.2763703
211	0x3e4a7e5c	0.19774765
212	0xbeced4b5	-0.40396658
213	0xbe8e1a7d	-0.27754584
214	0xbda20d83	-0.079127334
215	0x3ed9d7b0	0.4254737
216	0x3d6988db	0.05701528
217	0xbdfdf9eb	-0.12401184
218	0x3e3479c1	0.1762457
219	0xbe37fc62	-0.1796737
220	0xbe8a5c41	-0.2702351
221	0x3eaea794	0.34112227
222	0xbe3fca7c	-0.18729585
223	0xbd97bf5a	-0.07409544
224	0xbedcd9ff	-0.43135068
225	0x3ea406b6	0.3203637
226	0x3ec6ba2b	0.3881391
227	0x3e488c1d	0.19584699
228	0xbe8f3e50	-0.27977228
229	0xbecfaa24	-0.40559494
230	0xbebe3efe	-0.37157434
231	0x3ea6488f	0.32477233
232	0x3e5298aa	0.20566049
233	0x3ebbe0e4	0.36695015
234	0x3e65eb79	0.22453107
235	0x3de7ce32	0.113186255
236	0xbb8f8141	-0.004379422
237	0xbeae22b8	-0.34010863
238	0xbec42d92	-0.38316017
239	0xbed62b80	-0.41830063
240	0x3e3b7749	0.18307222
241	0xbe60d651	-0.21956755
242	0xbdb8536f	-0.09000289
243	0xbe83c67f	-0.25737378
244	0xbda6e5b9	-0.08149285
245	0xbe9b863d	-0.30375853
246	0xbe903bd7	-0.28170654
247	0x3e2225de	0.15834758
248	0xbdfcd0c6	-0.12344508
249	0x3e91f0ba	0.28503972
250	0xbd7ab30c	-0.06120591
251	0xbe7b976c	-0.24569482
252	0x399ba9ee	0.0002969051
253	0xbe07c74a	-0.13259616
254	0xbd8837b3	-0.06651249
255	0xbed5b14d	-0.41736832

recurrent._temporal_conv1.conv_1.bias f4 [64]
0	0xbe9ece46	-0.3101675
1	0xbdbcbea2	-0.09216048
2	0x3ea49c4e	0.321505
3	0x3e6c3dd4	0.2307046
4	0xbe8b6014	-0.2722174
5	0xbeb79c3d	-0.35861388
6	0xbe9fcd09	-0.31211117
7	0xbedc7721	-0.43059638
8	0xbeabcf24	-0.33556473
9	0xbde73ef6	-0.11291306
10	0x3e981fc5	0.29711738
11	0x3d8e8b76	0.06960194
12	0xbeaf3dfe	-0.34226984
13	0xbebbe500	-0.3669815
14	0x3e59b136	0.21259007
15	0xbe937835	-0.28802648
16	0xbd468cac	-0.048474
17	0x3e56b7cb	0.20968549
18	0xbe4b052f	-0.19826196
19	0xbd4b506c	-0.049637243
20	0xbc8302fc	-0.015992634
21	0xbdd8af65	-0.10580329
22	0xbe5d0a2d	-0.21585913
23	0xbed17b06	-0.40914172
24	0xbeb9179c	-0.36150825
25	0xbe69d308	-0.22834408
26	0x3ee33ebd	0.44383803
27	0xbe5d31eb	-0.21601073
28	0xbe82a823	-0.25518903
29	0x3ddbabab	0.107261024
30	0x3e0eef47	0.13958465
31	0x3e7864cb	0.242572
32	0x3eb38ac3	0.35066804
33	0x3e7f04c9	0.24904169
34	0xbee306fe	-0.44341272
35	0x3d227569	0.039662752
36	0x3e8f2817	0.27960274
37	0x3d17b034	0.037033275
38	0xbe84efef	-0.25964305
39	0x3edfa2ba	0.43678838
40	0xbe20dfc5	-0.15710361
41	0xbe609a86	-0.21933946
42	0xbed31ac3	-0.41231355
43	0x3c647cd9	0.013945782
44	0x3e653bd9	0.22386111
45	0x3e1d5321	0.15363742
46	0x3da4cc5b	0.0804679
47	0xbeada689	-0.3391612
48	0xbed5d5d6	-0.41764706
49	0x3c9fb970	0.019497603
50	0x3f00f21a	0.5036942
51	0x3e8ac0e1	0.2710028
52	0xbe5f66e8	-0.218166
53	0xbd491064	-0.049087897
54	0xbea5f2d8	-0.32411838
55	0xbe5cec9a	-0.21574631
56	0x3e0bbf40	0.13647175
57	0x3e7274b6	0.23677334
58	0x3eb3ece4	0.3514167
59	0xbebcb9b4	-0.3686043
60	0x3e93bfde	0.2885732
61	0xbea780f3	-0.32715568
62	0x3e2b7c6e	0.16746685
63	0x3ec29360	0.38003063

recurrent._temporal_conv1.conv_2.weight f4 [64, 1, 1, 5]
0	0x3b8d9ad0	0.0043214336
1	0x3ecfb9ff	0.4057159
2	0xbec3402c	-0.38134897
3	0xbe2e5f12	-0.17028454
4	0x3e86462c	0.26225412
5	0xbdc78b32	-0.09743346
6	0xbdbb7bcd	-0.091544725
7	0xbe3ede4e	-0.1863949
8	0x3e9dd52f	0.3082671
9	0x3e609fd4	0.2193597
10	0x3e09cf91	0.13458087
11	0xbe851290	-0.25990725
12	0xbebe33bf	-0.37148854
13	0x3d240827	0.040046837
14	0x3dfe9495	0.124306835
15	0xbe54431c	-0.20728725
16	0xbe007e9a	-0.12548295
17	0x3e9ac30a	0.30226928
18	0x3d157a50	0.0364936
19	0x3cb082d5	0.02154676
20	0xbdf3cf7c	-0.11904809
21	0xbed4291d	-0.41437617
22	0xbedc40e8	-0.4301827
23	0xbe65386d	-0.22384806
24	0xbe737789	-0.23776068
25	0x3e0eacc9	0.139331
26	0xbe05502f	-0.13018869
27	0xbe3328ad	-0.17495985
28	0x3eda4f5e	0.42638677
29	0x3e1f8369	0.15577473
30	0x3e9ac23f	0.30226323
31	0xbe6c3b8f	-0.23069595
32	0xbe46faf3	-0.19431667
33	0x3e1f26c8	0.15542138
34	0xbe9bf296	-0.30458516
35	0xbe968e9e	-0.29405683
36	0xbcbea671	-0.023272725
37	0xbe28c3d0	-0.16480947
38	0xbeabf7fb	-0.33587632
39	0x3e87a3e1	0.26492217
40	0x3ebc780d	0.3681034
41	0x3da65130	0.08120954
42	0xbd8d520f	-0.06900417
43	0xbecf71bb	-0.40516457
44	0xbe1d4c94	-0.15361243
45	0x3ddb7558	0.10715741
46	0x3e50ab36	0.20377812
47	0xbd805ad9	-0.06267328
48	0xbe3d0b0a	-0.18461242
49	0x3e776456	0.24159369
50	0xbeb6957a	-0.35660917
51	0x3e90ad48	0.28257203
52	0xbe316a44	-0.17325693
53	0x3bf6678c	0.007519668
54	0xbdb30916	-0.087419674
55	0x3d429bf1	0.047512
56	0xbe1169d2	-0.14200523
57	0x3ea2e399	0.31814268
58	0xbc99eb13	-0.01878885
59	0x3eaef73a	0.34172994
60	0x3eddd4ed	0.43326512
61	0xbe59e908	-0.212803
62	0xbea5afe0	-0.32360744
63	0x3eba783f	0.36419865
64	0x3eb4f5eb	0.3534387
65	0xbeab15a2	-0.33414942
66	0xbcd54f9e	-0.026038941
67	0xbedc85b9	-0.43070772
68	0xbeb2bb3c	-0.34908473
69	0x3dbf949e	0.09354518
70	0x3de4592f	0.11149823
71	0x3db5d1c8	0.08877903
72	0xbe0509d0	-0.12992024
73	0x3ed0552b	0.40689978
74	0x3d58d77f	0.052939888
75	0xbea2fec9	-0.3183501
76	0xbd9c8379	-0.07642264
77	0x3d75ac08	0.059978515
78	0x3ddf2db7	0.10897391
79	0xbeb79a5a	-0.35859948
80	0x3e2b0f5a	0.16705075
81	0xbe71e253	-0.23621492
82	0xbebd9a9f	-0.3703203
83	0xbe764280	-0.24048805
84	0x3ee025af	0.4377875
85	0x3ecf5678	0.40495658
86	0x3ed8f3e9	0.4237359
87	0x3e922919	0.2854698
88	0x3eb8f814	0.3612677
89	0xbd128a1d	-0.035776246
90	0xbe850a6d	-0.25984517
91	0x3e562bc3	0.20915131
92	0xbe7c7ced	-0.2465703
93	0xbea286b9	-0.3174341
94	0xbe22fdc9	-0.15917124
95	0x3dc8346d	0.097756244
96	0x3e701350	0.23444867
97	0xbe2d5955	-0.16928609
98	0xbe845ab1	-0.25850442
99	0x3d85b502	0.06528665
100	0xbe874986	-0.2642328
101	0xbe914101	-0.28369907
102	0x3e6d55ca	0.23177257
103	0xbda91264	-0.08255461
104	0x3ecd8aa6	0.40144843
105	0x3edebdc6	0.4350416
106	0x3e08f972	0.13376406
107	0x3e1d9b1b	0.153912
108	0x3dd2ea55	0.102986015
109	0x3be57fca	0.007003759
110	0xbd2a840b	-0.041629832
111	0xbb4b1641	-0.0030988606
112	0x3e217d16	0.15770373
113	0x3ed012d0	0.40639353
114	0xbe006bb5	-0.12541087
115	0xbe369955	-0.17831929
116	0xbdc7b43c	-0.09751174
117	0xbe522973	-0.20523624
118	0x3db20379	0.086920686
119	0x3eb08374	0.3447529
120	0x3eb30d50	0.34971094
121	0x3e524149	0.20532717
122	0xbea8823b	-0.32911858
123	0xbe75c83e	-0.24002168
124	0xbdc93b75	-0.09825794
125	0xbdbd1693	-0.09232821
126	0x3cdf74f8	0.027277455
127	0xbed6d873	-0.41962013
128	0x3e05b5d2	0.1305764
129	0xbeb2e3ea	-0.3493951
130	0xbe8f3116	-0.27967137
131	0xbebd274d	-0.36944047
132	0x3ec845ce	0.39115757
133	0xbed87ba3	-0.42281827
134	0x3eac9405	0.3370668
135	0xbc7650e5	-0.015033935
136	0xbd5508dc	-0.052010402
137	0x3e8f37c9	0.27972248
138	0xbd294ec4	-0.041334882
139	0x3e8f9a01	0.28047183
140	0x3e9abfbd	0.3022441
141	0xbeccdfdb	-0.40014538
142	0x3e187f66	0.14892349
143	0x3d33100f	0.043716487
144	0x3d76abfd	0.060222615
145	0x3d872f76	0.06600849
146	0x3dfd6100	0.12372017
147	0xbe5a3b55	-0.21311696
148	0xbd5f7185	-0.05455162
149	0x3edb4531	0.42826226
150	0x3ea0aa1e	0.3137979
151	0xbba5857a	-0.005051312
152	0xbed132f6	-0.40859193
153	0x3cf3efbc	0.0297774
154	0xbe95930e	-0.29213756
155	0x3eb8af74	0.3607136
156	0xbe8caa15	-0.27473512
157	0xbd127dbe	-0.03576445
158	0xbdd2ff2c	-0.103025764
159	0x3d9ab50e	0.07554065
160	0x3eddb92b	0.43305334
161	0x3d5c8e1f	0.053846475
162	0x3e8a23f1	0.26980546
163	0x3eb6c39c	0.35696113
164	0x3ebd7f48	0.3701117
165	0xbe1e270f	-0.15444587
166	0xbdccd87d	-0.10002229
167	0x3e5cb3aa	0.21552911
168	0xbdf9eaef	-0.12203013
169	0x3e5670a1	0.20941402
170	0xbdc817d8	-0.09770173
171	0xbe9b4d3d	-0.30332366
172	0x3e3a6777	0.18203531
173	0x3d8c6c49	0.06856591
174	0x3e4c2cbf	0.19938944
175	0x3ee37b5a	0.44430047
176	0x3e9c53e1	0.30532745
177	0x3ed90ffb	0.42395005
178	0x3cc415b7	0.023936136
179	0xbec4f73c	-0.38469875
180	0xbe9c7ece	-0.30565494
181	0xbe8a365c	-0.26994598
182	0xbec5e515	-0.38651338
183	0xbe5e0726	-0.21682414
184	0xbecf26c8	-0.40459275
185	0xbeadeaca	-0.33968192
186	0xbe3fde12	-0.18737057
187	0xbeb6d06e	-0.35705894
188	0xbe67d1b6	-0.22638592
189	0x3e5d92ca	0.21638027
190	0x3ebf27c1	0.37335017
191	0xbe081d49	-0.13292421
192	0xbe0563fa	-0.1302642
193	0x3e7409c0	0.23831844
194	0xbe62a474	-0.22133046
195	0xbe5079f8	-0.20359027
196	0x3e910cc3	0.2833005
197	0xbec399bc	-0.38203228
198	0x3d7ea94f	0.062173184
199	0x3ece0a21	0.40242103
200	0x3d883780	0.06651211
201	0x3de474fb	0.11155125
202	0xbe8a7344	-0.27041066
203	0xbc8368dc	-0.016041212
204	0x3c72c5ba	0.0148176495
205	0x3dfafd80	0.122553825
206	0x3e39dd3f	0.18150805
207	0x3ecd6e2a	0.4012311
208	0xbea62acb	-0.32454523
209	0x3cc7cb62	0.024388973
210	0xbe5c5ac5	-0.21519001
211	0xbeb0eee8	-0.3455727
212	0xbce2d3bf	-0.027688859
213	0xbec56a6f	-0.38557765
214	0x3ea3e7a5	0.32012668
215	0x3d36fb25	0.044673104
216	0xbe7e8a37	-0.24857412
217	0x3e672573	0.2257288
218	0xbedcfa9c	-0.4315995
219	0xbe3a2d26	-0.18181285
220	0xbdafef80	-0.08590603
221	0xbec00145	-0.3750097
222	0xbe8f8ce3	-0.28037176
223	0xbd89c7d5	-0.06727568
224	0x3eb16cde	0.34653372
225	0x3eebfda9	0.46091965
226	0x3eaeec60	0.34164715
227	0xbe68359a	-0.22676697
228	0xbe837b30	-0.25679922
229	0x3edb73dc	0.4286183
230	0x3e18af81	0.149107
231	0x3b272229	0.0025502539
232	0x3d5071f6	0.05088993
233	0xbebd159f	-0.36930558
234	0xbe234f6a	-0.15948263
235	0x3edc69f5	0.4304959
236	0xbde1e38a	-0.11029728
237	0xbcb7c7a7	-0.022434069
238	0xbebe1fab	-0.37133536
239	0xbe8016de	-0.25017446
240	0xbc159e0e	-0.009131921
241	0xbe8e3a9d	-0.27779093
242	0xbd6328c0	-0.055458784
243	0x3e3a5d99	0.18199767
244	0xbedff9ff	-0.4374542
245	0x3df6ddff	0.12054061
246	0xbe9d7ebc	-0.30760753
247	0xbe6b4216	-0.22974429
248	0x3e246b30	0.16056514
249	0x3eb097a8	0.34490705
250	0xbde33d3a	-0.110956624
251	0xbe2edff0	-0.17077613
252	0xbec496b1	-0.38396218
253	0xbe5c0c2b	-0.21489017
254	0xbec0a917	-0.37629005
255	0xbdba8556	-0.09107463

recurrent._temporal_conv1.conv_2.bias f4 [64]
0	0x3de37076	0.111054346
1	0xbeb9981d	-0.36248866
2	0x3e384d80	0.17998314
3	0x3e119346	0.14216337
4	0xbecc2d16	-0.39878148
5	0x3df994ee	0.12186609
6	0xbd36a6f1	-0.0445928
7	0x3e50a4cb	0.20375364
8	0x3e881b20	0.26583195
9	0xbee314c3	-0.44351777
10	0x3ed2d0eb	0.41175017
11	0x3ebd3a31	0.3695846
12	0x3e38a6e1	0.18032409
13	0xbeccbbcf	-0.39987037
14	0xbe2d03d2	-0.16895989
15	0xbe4fbafe	-0.20286176
16	0xbdf808be	-0.121110424
17	0x3e880d79	0.2657278
18	0x3e1e922a	0.15485445
19	0x3eb70e47	0.3575308
20	0xbe37c63c	-0.17946714
21	0x3e1a1e05	0.15050514
22	0x3e166b72	0.14689425
23	0xbeb93583	-0.3617364
24	0xbede1bd3	-0.43380603
25	0xbe780fb9	-0.24224748
26	0x3ea139f7	0.31489536
27	0xbed791b6	-0.42103356
28	0xbedeff21	-0.43554023
29	0x3e8068a5	0.25079837
30	0x3e8367e3	0.25665197
31	0x3ebb02a5	0.36525455
32	0xbea5fc69	-0.32419136
33	0xbea795e6	-0.3273155
34	0x3e6aebaa	0.22941461
35	0x3ec71f45	0.38891044
36	0x3e8d1fa7	0.2756321
37	0x3e185757	0.14877068
38	0x3e168029	0.14697327
39	0x3ede76f2	0.43450123
40	0xbe992f66	-0.29918975
41	0xbe6120a9	-0.21985115
42	0x3ea49f25	0.32152668
43	0xbea03d23	-0.31296644
44	0xbe7fa6a6	-0.24965915
45	0x3ec63d19	0.3871849
46	0x3e06ad64	0.13152081
47	0x3e13f2e9	0.14448132
48	0xbe4218a8	-0.18954718
49	0xbc9ac205	-0.018891344
50	0x3edb3ffa	0.42822248
51	0xbe81a1c8	-0.25318742
52	0xbc7b5659	-0.015340411
53	0x3e488448	0.19581711
54	0xbe9aeba0	-0.30257893
55	0x3ede5fa6	0.4343235
56	0xbe86f2d6	-0.26357144
57	0xbde98144	-0.114016086
58	0xbda2c3a6	-0.07947473
59	0xbea91e64	-0.33031
60	0xbedc0be2	-0.42977816
61	0x3e86e7d1	0.26348737
62	0x3df35445	0.118813075
63	0xbed4e02b	-0.41577277

recurrent._temporal_conv1.conv_3.weight f4 [64, 1, 1, 5]
0	0xbe9417ca	-0.289244
1	0x3ee20675	0.4414555
2	0x3e2fc2f7	0.17164217
3	0x3e396b23	0.18107276
4	0xbe87883c	-0.26471126
5	0xbe48c316	-0.1960567
6	0xbd8a4205	-0.067508735
7	0xbda77f9f	-0.08178639
8	0xbe9ce754	-0.3064524
9	0x3d16e962	0.036843665
10	0x3d1134d0	0.035450757
11	0xbd860b18	-0.06545085
12	0x3d5a658a	0.05331949
13	0xbe3e3915	-0.18576463
14	0x3ddd4326	0.10803823
15	0x3e2d5515	0.16926987
16	0xbe701f84	-0.23449522
17	0xbee238ed	-0.44184056
18	0x3e71f376	0.23628029
19	0x3de004c6	0.109384105
20	0xbe6021b7	-0.21887861
21	0x3ee14646	0.43998927
22	0xbe458a80	-0.19291115
23	0x3e9fbb74	0.31197703
24	0x3e72b905	0.23703392
25	0xbebff91e	-0.3749475
26	0x3e93aca4	0.28842652
27	0xbed288e9	-0.4112008
28	0xbe7db58e	-0.24776289
29	0xbd98b16e	-0.07455717
30	0xbe9e7970	-0.30952024
31	0x3edb5eb9	0.42845705
32	0xbdc9b538	-0.09849018
33	0x3e2c85d2	0.16847923
34	0xbed151fd	-0.40882865
35	0x3e86b7a4	0.26311982
36	0xbe072685	-0.13198288
37	0xbeaa16e4	-0.3322059
38	0x3d979995	0.0740234
39	0x3e67d101	0.22638322
40	0x3ecaa77c	0.39580905
41	0xbe873f90	-0.26415682
42	0xbe57eda6	-0.2108675
43	0x3dc36b86	0.09541993
44	0x3e061e9f	0.13097619
45	0x3e2f5e67	0.17125855
46	0x3e7c54df	0.24641751
47	0xbdcb26f9	-0.09919543
48	0x3e81400d	0.2524418
49	0x3eaba9a6	0.3352787
50	0xbdf8c686	-0.1214724
51	0x3ea044b4	0.31302416
52	0x3e5a0777	0.2129191
53	0x3ec6ded0	0.38841867
54	0xbe857b5a	-0.26070672
55	0xbe688f5d	-0.22710939
56	0xbe0b010e	-0.13574621
57	0x3c8387c6	0.016055953
58	0x3e85f210	0.26161242
59	0xbe864bb6	-0.26229638
60	0x3e62a36d	0.22132654
61	0xbe283c92	-0.16429356
62	0x3e893129	0.2679532
63	0xbcd0feee	-0.025512185
64	0xbeca007d	-0.39453498
65	0xbe81c29c	-0.25343788
66	0xbeaa392d	-0.33246747
67	0x3e5855ea	0.21126524
68	0xbea28017	-0.3173835
69	0xbd35de52	-0.044401474
70	0x3db3c35f	0.087774985
71	0xbe811721	-0.25212958
72	0x3df4ffae	0.119628295
73	0xbee2f4ef	-0.44327495
74	0xbeaa273e	-0.33233064
75	0xbecba736	-0.3977601
76	0xbe07cb03	-0.13261037
77	0xbe2893de	-0.16462657
78	0x3d6f2f73	0.05839486
79	0xbdbc7d2d	-0.09203563
80	0x3e57143e	0.21003816
81	0x3ed58c58	0.41708636
82	0x3e294cab	0.16533153
83	0xbe37ab4e	-0.17936441
84	0xbed89594	-0.4230162
85	0x3e1d5787	0.1536542
86	0xbe6b7f4a	-0.22997776
87	0x3e605e99	0.21911086
88	0x3e94a766	0.29033965
89	0x3e27b912	0.16379192
90	0x3edaa52f	0.4270415
91	0x3edd3e6a	0.4321168
92	0x3dd0d41e	0.10196708
93	0xbea3270a	-0.31865722
94	0x3ed03a1a	0.40669328
95	0xbe5bb903	-0.21457295
96	0xbe5b1c69	-0.21397556
97	0x3ebe10ed	0.37122288
98	0x3eafacfc	0.34311664
99	0x3e067c76	0.13133416
100	0x3d0f3f06	0.034972213
101	0xbec211f2	-0.37904316
102	0xbd241d44	-0.040066972
103	0x3ee1b13b	0.4408053
104	0x3e014d63	0.12627177
105	0x3d1cd57f	0.038289543
106	0xbdbe2fab	-0.09286436
107	0xbe1fb945	-0.15598018
108	0x3e88792c	0.26654947
109	0x3ce1ed5a	0.027578998
110	0x3e9932b2	0.2992149
111	0xbd90c631	-0.07069052
112	0x3e50c787	0.20388614
113	0x3e45dc1f	0.19322251
114	0x3da3fe56	0.08007495
115	0x3e8a78df	0.27045342
116	0x3e8a0b58	0.2696178
117	0x3ecec883	0.40387353
118	0x3eaa8b61	0.33309463
119	0xbe001e5e	-0.12511584
120	0xbec1da7d	-0.37862006
121	0x3da770fa	0.081758454
122	0xbb7fd02b	-0.003903399
123	0xbdeee365	-0.11664466
124	0xbd995ee5	-0.07488803
125	0x3cfb2b2f	0.03066024
126	0x3eabc423	0.33548078
127	0x3e17a340	0.14808369
128	0xbe1a3e55	-0.1506284
129	0xbe34757c	-0.17622942
130	0xbdd7cfeb	-0.10537704
131	0xbe2c785e	-0.16842791
132	0x3ecfc064	0.4057647
133	0x3e7553eb	0.23957793
134	0x3ecfaed7	0.4056308
135	0x3abb3369	0.0014282289
136	0x3db8b584	0.09018996
137	0x3e1eccbc	0.15507787
138	0xbed8bc46	-0.4233114
139	0x3d239282	0.039934643
140	0xbc063cf0	-0.00819324
141	0xbe70ca56	-0.23514685
142	0xbea4f871	-0.32220796
143	0x3ee0990f	0.43866774
144	0x3ecdee21	0.4022074
145	0x3e547cda	0.20750752
146	0x3edafdaf	0.4277167
147	0xbe3830b4	-0.17987329
148	0xbd99730d	-0.07492647
149	0x3e307f21	0.17235996
150	0xbd735212	-0.05940444
151	0xbd988c1c	-0.07448599
152	0xbeb6ab2d	-0.35677472
153	0x3e086c95	0.13322671
154	0xbe841b8a	-0.2580226
155	0x3c5890c9	0.013218113
156	0x3edd88cf	0.4326844
157	0xbe10a8de	-0.14126918
158	0xbe145c0f	-0.14488243
159	0x3e87fba3	0.2655917
160	0xbe1d9531	-0.15388943
161	0xbceb0c5a	-0.028692413
162	0x3eda815f	0.42676827
163	0xbe334b48	-0.17509186
164	0xbe9ff28a	-0.3123973
165	0xbe8024bd	-0.2502803
166	0xbdfded6e	-0.12398802
167	0xbe594b8f	-0.2122023
168	0xbe6da4a1	-0.23207332
169	0x3e38fc2c	0.18064946
170	0x3d9ba515	0.07599846
171	0xbe129236	-0.14313588
172	0xbeb1e45b	-0.34744534
173	0xbe103065	-0.14080961
174	0xbe41457d	-0.18874164
175	0xbe150648	-0.14553177
176	0xbece8fe8	-0.40344167
177	0x3dc54f61	0.09634281
178	0xbea83b6c	-0.32857835
179	0xbeb25303	-0.34828958
180	0xbeb701be	-0.35743517
181	0x3e471205	0.19440468
182	0xbe86006f	-0.26172206
183	0xbe358e09	-0.17729963
184	0x3eb7182e	0.35760635
185	0x3e9dd412	0.3082586
186	0x3eab4345	0.3344976
187	0xbeaf5057	-0.34240982
188	0xbe888148	-0.26661134
189	0xbdef3a86	-0.11681084
190	0x3ebf66c6	0.37383097
191	0x3d4c1c1f	0.049831506
192	0xbea9563a	-0.33073598
193	0x3bcbbf48	0.006217871
194	0xbeb04542	-0.3442784
195	0xbdb69b61	-0.08916355
196	0xbde9f9cf	-0.114246
197	0x3eca9dae	0.39573425
198	0x3e1684ac	0.14699048
199	0xbd8e96c9	-0.06962354
200	0x3dae48a9	0.085099526
201	0xbdf51e9e	-0.119687304
202	0x3e3d709a	0.18499985
203	0x3e3e8487	0.18605243
204	0x3e04344f	0.12910579
205	0xbe2ca441	-0.16859533
206	0x3ec92e58	0.3929317
207	0xbd71a237	-0.05899259
208	0xbe314caf	-0.17314409
209	0x3e93917b	0.2882193
210	0x3eb63cc6	0.3559324
211	0x3edf8070	0.43652678
212	0x3dfe08a1	0.124039896
213	0xbe24b807	-0.16085826
214	0x3e6009aa	0.21878687
215	0x3ec07833	0.37591705
216	0xbee4d361	-0.4469252
217	0xbd8384d6	-0.06421821
218	0xbea0f09f	-0.3143358
219	0x3d96631d	0.07343123
220	0x3e4ebe33	0.20189743
221	0xbda34a33	-0.07973137
222	0xbcc29d43	-0.023756629
223	0x3e5ba9d3	0.21451502
224	0xbd82cb84	-0.06386474
225	0xbeb4d9f6	-0.3532254
226	0x3ed28405	0.41116348
227	0xbe4169fd	-0.18888088
228	0xbc4eeafe	-0.012629269
229	0x3da61c02	0.08110811
230	0xbd10f79f	-0.0353924
231	0xbedbeee4	-0.42955697
232	0x3e48ac59	0.19596995
233	0xbe59c80b	-0.21267717
234	0xbe77aa42	-0.24186042
235	0x3ddad233	0.106846236
236	0xbe6efc29	-0.23338379
237	0xbe53a4fd	-0.20668407
238	0xbe1a4e1c	-0.15068859
239	0xbe2c0a52	-0.16800812
240	0xbe3f4176	-0.18677315
241	0xbdf700e6	-0.12060718
242	0x3dee04bd	0.116219975
243	0xbeb94a13	-0.36189327
244	0xbe8a97d3	-0.27068958
245	0x3c91d3fa	0.017801274
246	0x3d956bd5	0.07295958
247	0x3e83b445	0.25723472
248	0xbe9be1ea	-0.30445796
249	0x3e1b8d32	0.1519058
250	0x3ea8404c	0.32861555
251	0x3ea47658	0.3212154
252	0xbeb1f288	-0.3475535
253	0xbdc51f7b	-0.09625145
254	0xbea5e978	-0.32404685
255	0xbe8d53e7	-0.27603075

recurrent._temporal_conv1.conv_3.bias f4 [64]
0	0xbe6c8c3c	-0.2310037
1	0xbee274f6	-0.4422986
2	0x3e23e5ab	0.1600558
3	0x3e81013b	0.2519625
4	0xbebf7854	-0.3739649
5	0x3e24369c	0.16036457
6	0x3ebe0e06	0.37120074
7	0x3d169a65	0.036768336
8	0xbe84fffd	-0.25976554
9	0x3eba0f70	0.36339903
10	0x3e3ea68c	0.1861822
11	0x3e9517d5	0.29119745
12	0xbe9bdcbc	-0.30441844
13	0x3e80b362	0.25136858
14	0xbea1c2bf	-0.31593892
15	0x3ef5fd5b	0.48044857
16	0xbe39f8c3	-0.18161301
17	0x3e87e127	0.26538965
18	0x3dc879d4	0.09788862
19	0x3df09a60	0.11748195
20	0xbd3be780	-0.045875072
21	0x3e3c184c	0.18368644
22	0xbe3341a9	-0.17505516
23	0xbedd2f49	-0.43200138
24	0xbe2ff1cd	-0.17182083
25	0x3eb8a885	0.3606607
26	0xbdda50ce	-0.106599435
27	0x3e0ff0eb	0.14056747
28	0xbdf50e3a	-0.11965604
29	0x3eaaef22	0.3338557
30	0x3e913887	0.2836344
31	0x3e1f1f6e	0.15539333
32	0xbe5dfed0	-0.21679235
33	0xbebb19d9	-0.36543158
34	0x3c89ee6b	0.01683732
35	0xbe865439	-0.26236132
36	0x3ec05efc	0.37572467
37	0xbeb50846	-0.35357875
38	0x3e508c91	0.20366122
39	0x3ee9b32e	0.45644516
40	0x3e6fb9e1	0.23410751
41	0x3e4222bb	0.18958561
42	0xbee0e50c	-0.4392475
43	0x3ed8ab68	0.42318273
44	0xbd57ddac	-0.052701637
45	0xbeb7e294	-0.35915053
46	0x3eddcc41	0.43319896
47	0xbe3a5a42	-0.18198493
48	0xbd019834	-0.031639293
49	0x3ed7b077	0.4212682
50	0xbe623193	-0.22089224
51	0xbe9be2bf	-0.3044643
52	0x3de97fcc	0.114013284
53	0xbd4e9853	-0.050438236
54	0x3ddea6bd	0.108716466
55	0xbec00a8a	-0.3750804
56	0x3d90dc1d	0.07073233
57	0xbe52846f	-0.20558332
58	0xbe78084d	-0.24221916
59	0xbebce899	-0.36896208
60	0x3e68829a	0.2270607
61	0x3d98a2c6	0.074529216
62	0xbec19580	-0.37809372
63	0x3eb724a9	0.35770157

recurrent._graph_conv.bias f4 [64]
0	0xbc4effd5	-0.012634237
1	0x3ca0ae49	0.019614356
2	0x3b54d460	0.0032475218
3	0xbb6a4047	-0.0035743879
4	0x00000000	0.0
5	0xba7ca479	-0.00096375454
6	0x3aa5563a	0.0012614198
7	0x3cdbe9fc	0.02684497
8	0x00000000	0.0
9	0x3c41cd1e	0.011828689
10	0xbb85e8b0	-0.0040865764
11	0x3ca94227	0.020661427
12	0xbbc411ed	-0.005983582
13	0xbbd5d628	-0.0065257736
14	0x00000000	0.0
15	0x3bf24f2a	0.007394691
16	0x3bfc78c5	0.0077048265
17	0x3bca9992	0.006182858
18	0x3c248e50	0.010043696
19	0xbbaf1799	-0.005343389
20	0xbc0823ee	-0.008309348
21	0xbc333805	-0.010938649
22	0x3b8572e5	0.0040725344
23	0xbc56c4b7	-0.013108424
24	0xbb962c08	-0.0045828857
25	0xbc1d6cd1	-0.009608463
26	0xbc183a60	-0.009291261
27	0x3d03b6b6	0.03215667
28	0x3c1c5a3d	0.009542999
29	0x00000000	0.0
30	0xbc1ff286	-0.009762412
31	0x3d1146a1	0.035467748
32	0x00000000	0.0
33	0xbbd0c7dd	-0.006371482
34	0x3bbf3352	0.0058349753
35	0x00000000	0.0
36	0x3c17495b	0.009233798
37	0x3d2bd9ca	0.041955747
38	0x3c4d831b	0.012543465
39	0x3ba15f2a	0.0049246745
40	0x3d3192b4	0.043352798
41	0x00000000	0.0
42	0x00000000	0.0
43	0x3c30f93f	0.010801612
44	0x3ba54ebd	0.0050447867
45	0x00000000	0.0
46	0x3c8f123c	0.01746475
47	0x3a3eb3db	0.00072747254
48	0x00000000	0.0
49	0x00000000	0.0
50	0x3ce6e356	0.028184574
51	0xbb1df55d	-0.0024102547
52	0xbc183d3c	-0.009291943
53	0x3c1dc2df	0.00962898
54	0xbc160ff6	-0.009159079
55	0xbc0b15eb	-0.008489112
56	0x00000000	0.0
57	0xbbc4c955	-0.006005446
58	0x00000000	0.0
59	0x3b907d3d	0.004409461
60	0x3c3d75ba	0.011563713
61	0x00000000	0.0
62	0xbbc51b4f	-0.0060152183
63	0xbbace623	-0.005276458

recurrent._graph_conv.lins.0.weight f4 [64, 64]
0	0x3d93452c	0.07190928
1	0x3d828848	0.0637365
2	0x3e0271b2	0.12738684
3	0x3d80bfc0	0.062865734
4	0xbd7410b9	-0.05958626
5	0xbd1a3533	-0.03764839
6	0x3e2a973e	0.16659257
7	0xbca1a78b	-0.019733211
8	0xbe463fa0	-0.19360209
9	0xbe2616f4	-0.16219693
10	0xbe34261c	-0.17592663
11	0x3c062c65	0.008189295
12	0x3e1cd2fa	0.15314856
13	0x3e049ffe	0.12951657
14	0x3d54028a	0.051760234
15	0x3d840731	0.06446684
16	0xbde13587	-0.10996538
17	0x3e42a904	0.19009787
18	0x3d8f41e6	0.06994991
19	0xbe185441	-0.1487589
20	0xbe1aa9dd	-0.1510386
21	0xbe469e6f	-0.19396375
22	0xbd982bd0	-0.074302316
23	0x3e15acf4	0.14616758
24	0x3c504303	0.012711289
25	0xbdec4e71	-0.11538399
26	0x3d4317b0	0.047630012
27	0xbe19e3f4	-0.15028363
28	0x3d74aeda	0.059737064
29	0x3e0a6f9c	0.13519138
30	0x3dc7c49d	0.09754298
31	0xbda0b80a	-0.07847603
32	0xbdb2a726	-0.08723287
33	0x3db8d453	0.09024873
34	0x3e04bed6	0.12963423
35	0xbd595094	-0.05305536
36	0xbc5ad03e	-0.013355313
37	0xbcde6624	-0.027148314
38	0xbd201167	-0.039079096
39	0xbe51b967	-0.20480882
40	0xbe43e7cf	-0.19131397
41	0x3e349e0a	0.17638412
42	0xbdeea769	-0.11653025
43	0x3e171c5a	0.14756909
44	0x3e02d74e	0.12777445
45	0xbd25db26	-0.0404922
46	0xbdefd4e0	-0.117105246
47	0x3beb8cea	0.007188429
48	0xbd19bad9	-0.037531707
49	0xbe109e9a	-0.14123002
50	0x3e6b7d95	0.22997124
51	0xbcbd68e5	-0.023121307
52	0xbd1e4608	-0.038641006
53	0xbe1d18c2	-0.15341476
54	0x3cb86548	0.022509232
55	0x3cf5ced0	0.030005842
56	0x3e58948b	0.21150415
57	0xbd9e596e	-0.07731901
58	0x3de99924	0.114061624
59	0x3d36d721	0.044638757
60	0x3dd1ad36	0.102381155
61	0xbbfc4a45	-0.0076992833
62	0xbd18e6dc	-0.03732954
63	0x3d93ece1	0.072229154
64	0xbe1c7b7d	-0.15281482
65	0x3e0659e5	0.1312023
66	0xbe337e32	-0.17528608
67	0xbe0aad20	-0.13542604
68	0x3e316699	0.17324294
69	0xbda71671	-0.08158577
70	0xbe0f1656	-0.13973364
71	0xbe718983	-0.23587613
72	0x3e23039d	0.15919347
73	0xbd10e69e	-0.035376184
74	0xbe34e885	-0.17666824
75	0xbb70bb38	-0.0036732685
76	0xbe1dd422	-0.15412953
77	0xbe14b70f	-0.14522956
78	0xbd5ac33c	-0.053408846
79	0x3e725d0b	0.23668306
80	0x3e4aea56	0.19815955
81	0x3e07479a	0.13210908
82	0x3abd0314	0.0014420473
83	0xbdc00d65	-0.09377555
84	0xbd839aea	-0.06426032
85	0xbe14cbdf	-0.14530896
86	0xbe6514be	-0.22371194
87	0xbe609214	-0.21930724
88	0x3d1d8cab	0.03846423
89	0x3dfdd294	0.1239368
90	0x3e272294	0.16321784
91	0xbbb42ac8	-0.005498264
92	0xbccd7855	-0.025081793
93	0xbca86921	-0.020557942
94	0x3e588d61	0.21147682
95	0xbd039f8e	-0.032134585
96	0xbac8581f	-0.0015285051
97	0xbd745965	-0.059655566
98	0xbe58923e	-0.21149537
99	0xbe2abcec	-0.1667363
100	0xbd858b38	-0.065206945
101	0x3c90ea96	0.017689984
102	0xbd8b44ac	-0.068002075
103	0x3dbea0f6	0.093080446
104	0xbe005509	-0.12532438
105	0x3ea2a38d	0.31765404
106	0xbe6a07d7	-0.22854553
107	0x3e278350	0.16358685
108	0xbce487e0	-0.027896821
109	0x3c0db80d	0.008649838
110	0xbe24c44c	-0.16090506
111	0xbe4d78f1	-0.20065667
112	0xbe51d07c	-0.20489687
113	0x3c553fb6	0.013015678
114	0x3e849db9	0.25901583
115	0x3ddab556	0.10679118
116	0x3e5514d7	0.20808731
117	0x3dd997da	0.106246665
118	0xbdfe2e4d	-0.12411175
119	0xbdacaf91	-0.08431924
120	0x3d03a285	0.032137413
121	0xbe242966	-0.16031417
122	0x3e0d5fea	0.1380612
123	0xbc41fcbe	-0.011840044
124	0xbe00f2f0	-0.12592673
125	0x3db9e3d7	0.0907666
126	0x36ba320a	5.5490573e-06
127	0x3dee7b96	0.11644666
128	0xbe111fff	-0.14172362
129	0x3e5c3e8e	0.21508238
130	0xbda9f02d	-0.08297763
131	0x3daccf14	0.084379345
132	0x3e3f6163	0.18689494
133	0xbc4b7dcf	-0.012420132
134	0xbe3dd696	-0.1853889
135	0xbe558d43	-0.20854668
136	0x3e555c30	0.20835948
137	0xbe4d0c1b	-0.20024149
138	0xbd9ea576	-0.07746403
139	0x3e1b2ac4	0.15153033
140	0xbe339131	-0.17535855
141	0x3e495ff8	0.19665515
142	0x3d16f79d	0.036857236
143	0xbb4744f4	-0.003040609
144	0x3d2d52f3	0.042315435
145	0x3cdabee2	0.026702348
146	0x3dfd36d0	0.1236397
147	0xbe3e97d7	-0.1861261
148	0x3d0d462a	0.03449074
149	0xbdc8ad2e	-0.097986564
150	0x3e5231cf	0.20526813
151	0x3e36942a	0.17829958
152	0xbdae2dc1	-0.085048206
153	0x3dfb2d38	0.12264484
154	0xbd0df0d7	-0.03465351
155	0x3de9f8c4	0.114244014
156	0xbd9b0b9c	-0.07570574
157	0xbdfe909f	-0.12429928
158	0x3d848d83	0.06472304
159	0x3de10bdd	0.10988591
160	0x3e40e479	0.18837155
161	0x3d8c85c6	0.06861453
162	0xbdc5dd45	-0.096613444
163	0x3d62919e	0.055314653
164	0x3c8c6531	0.017138096
165	0x3e814219	0.2524574
166	0x3dc184f2	0.094491854
167	0x3e3fc2c7	0.18726645
168	0x3c94c3bd	0.018159742
169	0xbe61ec7a	-0.22062865
170	0xbe0f5876	-0.13998589
171	0x3e4e2578	0.2013148
172	0x3e273854	0.16330081
173	0x3dc4ec48	0.096153796
174	0xbe1a7309	-0.15082945
175	0x3e2200b3	0.15820579
176	0x3db7ef69	0.08981211
177	0xbe2c3e5c	-0.16820663
178	0x3e199473	0.14998035
179	0x3e65f288	0.224558
180	0xbe2a5605	-0.16634376
181	0x3c108fe7	0.0088233715
182	0x3d81445b	0.06311866
183	0xbd9f97b5	-0.07792608
184	0x3d65b930	0.05608481
185	0x3e4797cb	0.19491498
186	0x3e536172	0.20642641
187	0xbe0f86f1	-0.1401632
188	0x3c6c7664	0.014432523
189	0x3e3a7580	0.18208885
190	0x3e3cdb73	0.18443088
191	0xbd5a38ae	-0.05327671
192	0x3e0fc602	0.14040378
193	0x3e257a3c	0.1615991
194	0xbc902057	-0.017593546
195	0x3e14928e	0.14509031
196	0x3df9bdb9	0.1219439
197	0xbd03ea48	-0.03220585
198	0xbdbe8a72	-0.0930375
199	0xbdf63057	-0.12020939
200	0xbe381950	-0.17978406
201	0xbe08182e	-0.13290474
202	0x3d5f00bf	0.05444407
203	0x3d9b11a7	0.07571726
204	0xbd7e45f6	-0.06207844
205	0xbc92add5	-0.017905155
206	0x3e12ae43	0.14324288
207	0x3d035abd	0.032068957
208	0xbe1f11b4	-0.15534097
209	0x3e381fc0	0.17980862
210	0x3e01d57d	0.12679096
211	0x3ccd502e	0.025062647
212	0x3dd352a8	0.103185
213	0xbe3b6751	-0.18301131
214	0x3df94d7f	0.12172984
215	0x3d49a972	0.04923386
216	0xbc9ce04e	-0.019149926
217	0xbd95228d	-0.07281981
218	0x3e2efadc	0.17087883
219	0x3d3f0ff3	0.04664607
220	0xbdf7b18a	-0.1209441
221	0x3dbffbd7	0.093742065
222	0x3d036cb1	0.032086078
223	0xbda24970	-0.07924163
224	0x3e167b2e	0.14695427
225	0x3e5cbe4d	0.21556969
226	0xbc1ca14d	-0.0095599415
227	0xbdb6e549	-0.089304514
228	0xbdf157e2	-0.117843404
229	0xbdf3fdab	-0.11913618
230	0x3ddcc4df	0.10779738
231	0x3e0779ef	0.13230108
232	0xbe09e4ca	-0.13466182
233	0x3dff3aab	0.12462362
234	0x3ba2db12	0.004969963
235	0xbc5bb1bc	-0.013409074
236	0xbd9103af	-0.07080781
237	0xbe4cfa20	-0.2001729
238	0xbe395421	-0.18098499
239	0x3e2292c7	0.15876304
240	0xbd114397	-0.03546485
241	0xbc7fd855	-0.015615542
242	0xbe0c438c	-0.13697642
243	0xbd1c4835	-0.0381548
244	0xbdacf965	-0.08446006
245	0x3c9fa08b	0.019485733
246	0xbe56961b	-0.20955698
247	0x3cac0163	0.020996755
248	0xbe443cac	-0.1916377
249	0xbe1e4ac1	-0.15458204
250	0xbb977657	-0.0046222615
251	0xbcbceacf	-0.023061184
252	0xbd841bcb	-0.064506136
253	0x3df5f4fd	0.120096184
254	0x3c80133c	0.015634172
255	0x3d29b42a	0.041431583

recurrent._graph_conv.lins.1.weight f4 [64, 64]
0	0x3dcb885a	0.09938116
1	0xbe4fd619	-0.20296516
2	0xbd7174de	-0.058949344
3	0x3d068dce	0.03285008
4	0x3e2cb73a	0.1686677
5	0x3e34d62e	0.17659828
6	0x3ba8afb9	0.005147901
7	0xbe50b255	-0.20380528
8	0x3d57fdf2	0.052732415
9	0xbde051e8	-0.109531224
10	0x3e54c6a2	0.20778897
11	0xbd3ba2fd	-0.045809735
12	0xbd5c2f1c	-0.053755865
13	0xbd03b5a5	-0.03215565
14	0x3e531bf3	0.2061613
15	0x3dd23475	0.10263912
16	0xbe114dc2	-0.14189819
17	0x3d4eba3d	0.05047058
18	0x3da6cde6	0.08144741
19	0xbd340bcc	-0.043956563
20	0x3da119fe	0.07866286
21	0xbe470147	-0.19434081
22	0xbdca96ee	-0.09892069
23	0x3e1a1729	0.15047897
24	0x3e4df709	0.20113768
25	0x3da6f89e	0.08152889
26	0xbde15d0e	-0.11004077
27	0x3da1982e	0.07890354
28	0xbdf595a6	-0.11991434
29	0xbe24b9b4	-0.16086465
30	0xbe0a5ebf	-0.13512705
31	0xbc02bf8f	-0.007980241
32	0x3d73e2a9	0.05954233
33	0x3c840ed1	0.016120346
34	0x3e551475	0.20808585
35	0xbc7bb0b9	-0.015361958
36	0x3e591b1f	0.21201752
37	0xbe21cafc	-0.15800089
38	0xbdc85d43	-0.09783413
39	0x3d2d7221	0.04234517
40	0x3e1119a3	0.14169936
41	0x3d968370	0.073492885
42	0x3e65f3cf	0.22456287
43	0xbdd2c41f	-0.102913134
44	0x3e562f3a	0.20916453
45	0x3d9d27c6	0.07673602
46	0x3d8e6624	0.069530755
47	0xbbb5e327	-0.0055507603
48	0xbe1f9350	-0.15583539
49	0x3e03aaed	0.12858172
50	0x3ce538ae	0.027981129
51	0x3e1efda6	0.15526447
52	0x3e28a15f	0.16467808
53	0xbe3566ac	-0.17714947
54	0x3e5a5d97	0.21324764
55	0xbd4c353e	-0.049855463
56	0xbe128229	-0.14307465
57	0x3e4c3744	0.19942957
58	0xbcd974aa	-0.026544888
59	0x3ac0438e	0.001466857
60	0x3d387764	0.045035735
61	0xbdd7062f	-0.10499226
62	0x3e0c974b	0.13729589
63	0x3dc1fa17	0.09471529
64	0x3e6d4116	0.2316936
65	0xbd767848	-0.060173303
66	0xbe2bfae1	-0.16794921
67	0x3ca14d0f	0.019690065
68	0xbcbcfa60	-0.023068607
69	0x38ea6c18	0.000111781235
70	0xbe5809b7	-0.21097456
71	0x3e8a842b	0.2705396
72	0xbd7e8411	-0.062137667
73	0xbc903dc5	-0.017607579
74	0xbb4ec67f	-0.0031551418
75	0xbdfea36c	-0.12433514
76	0x3e35691c	0.17715877
77	0xbe34a5b4	-0.17641336
78	0xbda61f47	-0.081114344
79	0xbe5b4d2d	-0.21416159
80	0x3c91e3b4	0.017808773
81	0xbe2a514c	-0.16632575
82	0x3e3d3c52	0.18480042
83	0xbe3fc32a	-0.18726793
84	0xbe758967	-0.23978196
85	0x3bad04de	0.005280121
86	0xbe161d11	-0.14659525
87	0x3e72e17a	0.23718825
88	0x3e4f17bf	0.20223902
89	0xbde51172	-0.11184968
90	0x3e302c8a	0.1720449
91	0xbdaa8792	-0.08326639
92	0x3d41e65f	0.04733884
93	0xbe1be203	-0.15222935
94	0xbe105bea	-0.14097562
95	0xbd9204d3	-0.071298264
96	0xbcb430c9	-0.021995919
97	0x3d8e8af1	0.06960095
98	0xbe4eef78	-0.20208538
99	0x3c6faff5	0.014629354
100	0x3e0c9b7c	0.13731188
101	0x3e36757c	0.17818254
102	0x3ceb27fd	0.028705591
103	0xbc0599b1	-0.008154319
104	0x3e1be4cf	0.15224002
105	0x3be01b7b	0.0068392134
106	0xbdd251c4	-0.10269502
107	0xbd6bccd5	-0.05756839
108	0xbe9226d3	-0.28545246
109	0xbd8f7684	-0.07005027
110	0xbcdfb7b0	-0.027309269
111	0xbe11f5b7	-0.14253889
112	0x3d53c9c3	0.051706087
113	0x3e04cf75	0.12969764
114	0xbe797dec	-0.24364442
115	0xbe4c9971	-0.19980408
116	0xbe37d719	-0.17953147
117	0xbcf1966f	-0.029490678
118	0xbe310890	-0.17288423
119	0xbd307d40	-0.043088198
120	0x3d8bb2ae	0.0682119
121	0xbe6101e4	-0.21973377
122	0xbd9cdf84	-0.0765982
123	0xbdc86c5b	-0.09786292
124	0x3e066ae3	0.13126712
125	0xbdef18a4	-0.11674622
126	0x3e284da6	0.1643587
127	0xbde201ed	-0.110355236
128	0x3da4b24c	0.0804182
129	0xbd23e826	-0.040016316
130	0x3e3ddc52	0.18541077
131	0xbdde5086	-0.108552024
132	0xbd90ed9a	-0.07076569
133	0x3e47f540	0.19527149
134	0xbe3477fa	-0.17623892
135	0x3d77b3a0	0.060474038
136	0x3de666c5	0.112500705
137	0xbcace495	-0.02110509
138	0x3e4029c9	0.1876594
139	0xbe520136	-0.20508274
140	0xbcc8d253	-0.024514353
141	0xbdddb4a2	-0.108254686
142	0x3d8e62eb	0.06952461
143	0x3e90b475	0.28262678
144	0xbe615951	-0.22006728
145	0xbdcb469b	-0.09925576
146	0xbe26327a	-0.16230193
147	0xbdfb61c3	-0.12274506
148	0x3d9ffc19	0.07811756
149	0x3b512b37	0.0031916627
150	0xbe2dd6b6	-0.16976437
151	0xbe06cdc0	-0.13164425
152	0xbe1133c6	-0.14179906
153	0x3c6b7d06	0.01437307
154	0xbe38afc4	-0.180358
155	0xbe2d59e0	-0.16928816
156	0xbe2263c1	-0.15858366
157	0x3e3087bc	0.17239279
158	0x3e3d85a4	0.18508011
159	0xbdd6fa4a	-0.104969576
160	0x3d6c370a	0.057669677
161	0xbcf7b524	-0.030237742
162	0xbdb2345a	-0.087013915
163	0x3dcec05f	0.100952856
164	0xbe191d26	-0.14952525
165	0xbd84066f	-0.064465396
166	0x3e2020dc	0.15637535
167	0xbe4301bd	-0.19043632
168	0x3e34d67a	0.17659941
169	0x3e4c2d77	0.19939218
170	0x3dc73e1b	0.097286426
171	0xbd0b173f	-0.033957716
172	0xbd504350	-0.050845444
173	0xbe186275	-0.14881308
174	0xbe2451b7	-0.16046797
175	0xbe581d1e	-0.21104857
176	0xbcfe6af4	-0.031056859
177	0x3d26595d	0.040612567
178	0xbe97d222	-0.29652506
179	0x3e4a638c	0.19764537
180	0xbe0198f4	-0.12656003
181	0x3ccc385c	0.024929218
182	0xbd988620	-0.07447457
183	0x3e49c4fd	0.19704051
184	0xbbe42f55	-0.00696365
185	0x3d5dca20	0.05414784
186	0x3d967861	0.07347179
187	0x3d3b43a6	0.04571881
188	0xbe1db483	-0.15400891
189	0xbe0044f1	-0.12526299
190	0x3b1e1c4b	0.002412575
191	0xbe5d1023	-0.21588187
192	0xbda6dfb4	-0.08148137
193	0xbe3a0611	-0.18166377
194	0x3dcbf4a9	0.099587746
195	0x3cd38700	0.025821209
196	0xbe4c987d	-0.19980045
197	0x3e58d072	0.21173266
198	0x3dbb0cda	0.091333106
199	0xbdf31b9c	-0.118705004
200	0xbc86e04b	-0.016464373
201	0x3e19eacf	0.15030979
202	0xbe01a4dc	-0.12660545
203	0x3d6406bf	0.055670496
204	0x3d903209	0.070407934
205	0xbe0e86e3	-0.13918643
206	0xbddb7c8f	-0.10717117
207	0xbd1c2e53	-0.038130116
208	0xbe2830ab	-0.16424815
209	0x3e427dd0	0.18993306
210	0x3d86772e	0.065657005
211	0xbd8d7196	-0.069064304
212	0xbb26d103	-0.002545417
213	0x3b1b122c	0.0023661954
214	0x3d9d989c	0.076951236
215	0x3e210031	0.1572273
216	0xbe3a4fd7	-0.18194519
217	0xbd96deff	-0.07366752
218	0x3da7fd1c	0.08202574
219	0xbdf7a707	-0.12092405
220	0xbc2ec13f	-0.010666191
221	0xbd74b566	-0.059743308
222	0x3e0563ae	0.13026306
223	0xbde6f488	-0.112771094
224	0x3e4dd929	0.20102371
225	0x3dd2d18d	0.10293875
226	0xbe1ef4c1	-0.15523054
227	0xbd304f45	-0.043044347
228	0xbc98e4c4	-0.018663771
229	0xbe52ba94	-0.20578986
230	0xbe3aa61a	-0.18227425
231	0x3e3b003c	0.18261808
232	0x3e22d2c3	0.15900712
233	0xbe1bd26a	-0.15216985
234	0x3ac73d5c	0.0015200782
235	0x3d83251e	0.06403564
236	0x3e09448a	0.13405052
237	0x3e45202e	0.19250557
238	0x3e063fb7	0.13110243
239	0x3e37dd79	0.17955579
240	0xbe0fbd49	-0.1403705
241	0xbd30ed1e	-0.043194883
242	0x3de14d20	0.110010386
243	0xbe2c1aa6	-0.1680704
244	0xbe56b2ac	-0.20966595
245	0x3df9ebce	0.12203179
246	0x3e249945	0.16074093
247	0x3db13489	0.086525984
248	0x3e0cd0cb	0.13751523
249	0x3dd0d7a6	0.10197382
250	0x3cf02130	0.0293127
251	0xbd47a802	-0.04874421
252	0x3d09287f	0.033485886
253	0xbd8ec272	-0.06970681
254	0x3e33ffef	0.175781
255	0x3e3ec573	0.18630008

recurrent._temporal_conv2.conv_1.weight f4 [32, 64, 1, 5]
0	0xbd6eb162	-0.058274634
1	0x3cb0c6f3	0.021579241
2	0x3a43a692	0.00074634806
3	0xbcb90cde	-0.022589143
4	0xbd1d7556	-0.03844198
5	0x3ce918ee	0.02845427
6	0xbca7e1d2	-0.020493422
7	0xb9d9c955	-0.0004153947
8	0xbb898212	-0.004196414
9	0xbad0447c	-0.001588955
10	0xbcdae410	-0.026720077
11	0xbd753471	-0.059864465
12	0x3bd96d30	0.0066353306
13	0xbc72ad83	-0.014811876
14	0xbcbfe0e0	-0.023422658
15	0x3d370bce	0.044688992
16	0xbcab4ce3	-0.020910686
17	0x36a3c3f4	4.8805905e-06
18	0xbd4015fe	-0.046895973
19	0xbc7e4727	-0.015519894
20	0x3d22e763	0.03977145
21	0x3b43ff3e	0.0029906775
22	0x3cfd0ff6	0.0308914
23	0x3d3f9d81	0.046781067
24	0x3c6c0020	0.014404327
25	0x3d38a488	0.045078784
26	0x3baa141a	0.0051903846
27	0x3d1b9ebd	0.03799318
28	0xbd67d985	-0.056603927
29	0x3d076d81	0.033063415
30	0x3c2eefae	0.010677261
31	0x3a8078a8	0.0009801583
32	0xbd805e13	-0.06267943
33	0x3cc1f52f	0.023676483
34	0x3cb79723	0.022410935
35	0xbd0e407d	-0.03472947
36	0x3d4f2976	0.05057665
37	0x3d6ab1a4	0.057298318
38	0x3b16b756	0.002299746
39	0xbc602aea	-0.0136821065
40	0xbb5cc9fc	-0.0033689728
41	0xbd41179f	-0.047141667
42	0xbd4c2123	-0.04983629
43	0xbbfdfa18	-0.0077507608
44	0xbc9da0ec	-0.019241773
45	0x3d216e7a	0.039412
46	0x3cb9b1f2	0.022667859
47	0xbcd2b078	-0.025718912
48	0xbd85b171	-0.06527985
49	0x3be7eb3b	0.007077602
50	0xba006a27	-0.00048986304
51	0xbcd2d43b	-0.025735965
52	0x3d57c0e2	0.05267418
53	0x3d1a96c1	0.037741426
54	0xbcb64c19	-0.022253083
55	0x3d4345a8	0.04767385
56	0xbd223f2d	-0.03961103
57	0xbd23b3a8	-0.039966255
58	0x3cfe1423	0.031015461
59	0x3d2fb983	0.042901527
60	0xbc918d7a	-0.017767657
61	0xbbab0726	-0.005219358
62	0xbd71c446	-0.05902507
63	0x3cdbac91	0.026815685
64	0xbbe1b4e5	-0.0068880194
65	0xbd28e7b5	-0.041236598
66	0xbd0ef607	-0.0349026
67	0x3d0798cc	0.033104703
68	0xbd1d3883	-0.038383972
69	0x3c5330fc	0.012890097
70	0x3d50dd33	0.050992202
71	0xbc867aa8	-0.016415909
72	0x3d015f9c	0.03158532
73	0x3cca8e83	0.024726158
74	0xbc4e612c	-0.01259641
75	0xbd292873	-0.04129834
76	0xbd24f9ef	-0.040277418
77	0xbd7bce1d	-0.06147586
78	0x3aa2dafd	0.0012424883
79	0x3bc633d9	0.006048661
80	0xbcc5a148	-0.024124756
81	0x3ca68af3	0.020329928
82	0xbc5cfb8b	-0.013487707
83	0x3bf62c0d	0.0075125755
84	0x3d3749bf	0.044748064
85	0x3d3e3f1b	0.0464469
86	0x3d1eeb72	0.038798757
87	0xbcedd31a	-0.029031325
88	0xbb99c4a6	-0.004692632
89	0xbcba8fc6	-0.022773635
90	0x3c217520	0.009854585
91	0x3cd9cfea	0.026588399
92	0x3b46362e	0.0030244696
93	0xbcc6b463	-0.024255937
94	0x3b4f418d	0.0031624765
95	0xbd13ea54	-0.036112145
96	0xbd32ca7a	-0.043650128
97	0xbb9073e0	-0.0044083446
98	0x38af494d	8.3583036e-05
99	0xbbd3d810	-0.0064649656
100	0x3c82928a	0.015939016
101	0x3c095338	0.008381657
102	0x3b87408d	0.004127568
103	0x3b9969f6	0.004681821
104	0xbc4b9af0	-0.012427077
105	0x3b871283	0.00412208
106	0xbd36806c	-0.044556066
107	0xbd2be29d	-0.041964162
108	0x3989aaab	0.00026257834
109	0x3ceb5190	0.028725415
110	0xbb9a2ea8	-0.004705269
111	0x3d333ce7	0.043759253
112	0x3d1c0387	0.0380893
113	0xbd80c382	-0.0628729
114	0xbd0669ca	-0.032815732
115	0x3c509013	0.0127296625
116	0xbc19c1e4	-0.009384606
117	0x3c45680c	0.0120487325
118	0xbd19301b	-0.037399393
119	0x3cbdcf4a	0.023170132
120	0xbd1db389	-0.038501296
121	0xbb243a3d	-0.0025059127
122	0xbd50b9fc	-0.05095862
123	0xbcb7d556	-0.022440594
124	0x3cf069ce	0.029347327
125	0x3cb5ece6	0.022207689
126	0xbd409d10	-0.047024786
127	0x3ccf75e2	0.025324766
128	0xbc746b9a	-0.014918232
129	0xbd4b5734	-0.04964371
130	0x3d32f6ca	0.043692388
131	0x3c44e083	0.012016418
132	0xba8ed777	-0.0010897954
133	0x3c30a456	0.010781368
134	0x3c9196e1	0.01777214
135	0xbd49d892	-0.049278803
136	0x3d21a2c5	0.03946187
137	0x3d12cb6a	0.035838522
138	0x3b877ae9	0.004134525
139	0xbbfa5a29	-0.0076401425
140	0x3764ebc7	1.3644755e-05
141	0x37e0ef18	2.6814218e-05
142	0x3add67d1	0.0016891902
143	0xbd2da786	-0.04239609
144	0x3ce4dc58	0.0279371
145	0x3b6056b9	0.0034231378
146	0x3b5665be	0.0032714452
147	0xbca94e8f	-0.020667342
148	0x3d46851c	0.048466787
149	0xbd241fbf	-0.040069338
150	0xbcc9f0e1	-0.024650993
151	0xbd321f0b	-0.043486636
152	0x3d144948	0.0362027
153	0xbce71d39	-0.028212177
154	0xbb9e8fd3	-0.0048389225
155	0xbbb8cf24	-0.0056399275
156	0x3d47c8bb	0.048775416
157	0xbd49fd10	-0.049313605
158	0xbce47361	-0.027887048
159	0xbd56ac9b	-0.052410703
160	0xbc46c5fa	-0.012132162
161	0xbd455c30	-0.04818362
162	0xba9943d6	-0.001169319
163	0x3cb04cec	0.021521054
164	0x3bb402e7	0.00549351
165	0x3c0e4952	0.008684473
166	0xbc077893	-0.008268493
167	0xbd02e28a	-0.031954326
168	0xba873f23	-0.0010318499
169	0x3d4754d4	0.048664883
170	0x3b88a2b4	0.0041697863
171	0x3b704823	0.003666409
172	0xbcbd38a6	-0.023098301
173	0x3cff7acf	0.03118649
174	0x3cfc39db	0.030789306
175	0x3c4441f6	0.011978617
176	0x3d21ec28	0.039531857
177	0x3b8d1367	0.0043052915
178	0x3a8ce354	0.0010748901
179	0x3c7b455c	0.015336361
180	0xbd78feeb	-0.060789984
181	0x3ceac918	0.028660342
182	0xbd141336	-0.036151133
183	0xbd007def	-0.0313701
184	0xbc2a2683	-0.0103851585
185	0xbd3fb943	-0.04680754
186	0xbcfc6523	-0.030809944
187	0x3d3947a6	0.045234345
188	0xbc15bc45	-0.009139125
189	0x3c7d9c45	0.015479152
190	0x3b696277	0.0035611668
191	0x3d80428b	0.06262692
192	0xbd0a7fda	-0.033813335
193	0xbcba09ca	-0.022709746
194	0x3d6a90b5	0.05726691
195	0xbd32ddd5	-0.043668587
196	0xbd7bb4d8	-0.061451763
197	0xbc8530b6	-0.016258579
198	0x3cce57a8	0.025188282
199	0x3c97b024	0.018516608
200	0xbd3c3fcb	-0.045959275
201	0xbd0e840b	-0.034793895
202	0x3c4fc7b1	0.0126818875
203	0xbce6494f	-0.028111128
204	0x3d14a3d9	0.03628907
205	0xbc4f7390	-0.01266183
206	0xbcb96866	-0.022632789
207	0xbc249828	-0.0100460425
208	0x3d3a651e	0.04550659
209	0xbd09b5f4	-0.03362079
210	0xbd2fd405	-0.042926807
211	0x3cb973d5	0.02263824
212	0x3cc0f675	0.02355502
213	0xbc2fd6ed	-0.010732395
214	0x3d09de80	0.03365946
215	0xbcad7dc2	-0.02117813
216	0xbcfefc09	-0.03112604
217	0xbd4da5d9	-0.050206993
218	0xbd120626	-0.035650395
219	0xbd1ec98c	-0.03876643
220	0x3bf1fbd5	0.007384757
221	0xbc916721	-0.017749371
222	0x3d069013	0.032852244
223	0xbd0dbb4f	-0.03460246
224	0x3ccd4621	0.025057854
225	0x3d39c015	0.0453492
226	0xbc50cf30	-0.01274471
227	0xbcffed5a	-0.031241108
228	0x3ce402c4	0.02783335
229	0xbd59f546	-0.053212427
230	0x3d26029b	0.04052983
231	0x3d3c9699	0.04604206
232	0xbc3582e4	-0.01107857
233	0xbd28620c	-0.04110913
234	0x3c30811e	0.010772971
235	0x3d09fffe	0.0336914
236	0x3a3ba77f	0.0007158443
237	0x3b7210a6	0.0036936193
238	0x3c9026dd	0.017596656
239	0x3ccb8dba	0.024847854
240	0x3c47d60c	0.012197029
241	0xbcf99642	-0.030467156
242	0x3acca5f4	0.0015613423
243	0xbcc34d99	-0.023840712
244	0x3ce66ffd	0.028129572
245	0xbceb7ce2	-0.028746072
246	0x3d4823b4	0.048862174
247	0x3cc0b812	0.023525272
248	0xbd64bbb4	-0.05584307
249	0xbcbfd2dc	-0.023415975
250	0xbb4959e0	-0.0030723736
251	0xbcbfd782	-0.023418192
252	0xbaf4df45	-0.0018682262
253	0xbccaefe0	-0.024772584
254	0x3d367cae	0.044552498
255	0x3cb38703	0.021914965

recurrent._temporal_conv2.conv_1.bias f4 [32]
0	0xbca49541	-0.020090701
1	0x3ac7767e	0.0015217809
2	0x3ce760de	0.028244432
3	0x3c4e95c9	0.012608954
4	0x3caa8957	0.020817442
5	0x3cbaffe6	0.0228271
6	0xbd79f5d1	-0.061025444
7	0x3d780fa3	0.060561787
8	0x3cd72922	0.02626473
9	0xbc92177c	-0.017833464
10	0xbcc0b30e	-0.02352288
11	0xbd174588	-0.036931545
12	0xbab6e175	-0.001395269
13	0x3cd6fb35	0.026242832
14	0xbcdb9028	-0.026802137
15	0xbcc049e7	-0.02347274
16	0x3cc1a5d6	0.023638647
17	0xbd3f85f7	-0.04675862
18	0xbc7229fc	-0.014780518
19	0x3d346bb9	0.044048045
20	0x3c6b01c2	0.014343681
21	0x3d204be4	0.039134875
22	0x3be56d73	0.0070015728
23	0x3d3c9bc0	0.046046972
24	0xbd0b2ebd	-0.03398012
25	0xbd7802d8	-0.060549587
26	0xbcc17e5b	-0.023619821
27	0xbbd87966	-0.0066062687
28	0xbc7ef23d	-0.015560684
29	0xbc79a342	-0.015236678
30	0xbad86523	-0.0016509633
31	0x3cad4782	0.021152262
