TFM/experimentos_split/results/bus_trip/AGCRN.pt (torch, 399732 bytes, 6 tensors)

recurrent._gate.weights_pool f4 [3, 10, 110, 20]
000000 2e 4e 55 3d dc 0a 19 3e 0e fa f9 bd 61 7a 4d 3c
       0.05207651 0.14945549 -0.12205897 0.012541384
000010 73 cd 99 be a9 13 22 be ed 6a 83 3e d9 82 61 3d
       -0.30039558 -0.15827812 0.25667515 0.055056427
000020 5d 4e 60 3e fb 1c c7 bd 07 24 26 be 11 62 02 3e
       0.21904893 -0.097223245 -0.16224681 0.12732722
000030 0a 8b d3 ba 6e 45 7c be c0 39 6e be ba ef 82 be
       -0.0016139459 -0.2463586 -0.23264217 -0.25573522
000040 29 66 ea bc 88 d6 9f 3d 8c a6 cc 3d fa 29 b3 bc
       -0.028613167 0.078045905 0.09992704 -0.021870602
000050 13 6f 66 3e 72 ab 0b 3e 47 74 8f bc d1 1d 35 3e
       0.22503309 0.1363962 -0.0175115 0.17687155
000060 7d b6 db bd e1 20 3c 3e e9 e7 88 3e eb 02 9b bd
       -0.10728166 0.18371917 0.26739433 -0.07568916
000070 2e be ad 3d 08 72 82 be 10 1a 93 b9 8e 5d 33 be
       0.084835395 -0.25477624 -0.00028057443 -0.17516157
000080 19 ae 81 3e b8 18 a5 be 49 b3 77 3d 4e a6 09 3d
       0.25328138 -0.3224542 0.060473714 0.033605866
000090 2a 1d b8 bc 05 5a 16 3c 6d b3 58 3e d3 26 4e 3e
       -0.022474844 0.009176736 0.21162196 0.20131998
0000a0 3d 48 c4 3d ba 9c cf 3d 7e 39 e6 3d db 02 dd 3d
       0.09584091 0.10137315 0.112414345 0.1079156
0000b0 31 a0 ab be 30 ae 48 3e d9 64 fc 3d f6 2f e6 bc
       -0.33520654 0.19597697 0.12323923 -0.028099041
0000c0 1b ca a8 bd ba 42 2e be 3f d3 12 3e 5e 8c 9a bd
       -0.082416736 -0.17017642 0.14338396 -0.07546304
0000d0 40 cf 85 bd 00 a1 74 be 15 a1 5b be 67 51 0d 3d
       -0.065336704 -0.23889542 -0.21448167 0.03450146
0000e0 18 26 9f 3d b8 58 97 bd 4f 95 87 3d 17 32 85 3e
       0.07770938 -0.07389969 0.06620275 0.26014778
0000f0 99 5f d2 3d 0c 49 61 3e b8 61 06 3e 87 91 7a 3e
       0.1027214 0.22000521 0.13123214 0.24469577
000100 1f c3 0c be 2b 2b 00 bd 09 f3 98 3c ab 07 ee 3d
       -0.13746308 -0.03129117 0.018670576 0.11622556
000110 ae 71 a8 bb db d7 67 be 25 02 28 3e 2a 6d 31 3e
       -0.005140505 -0.22640936 0.16407068 0.17326799
000120 4f 4d 11 3d 13 fc 4c be 68 cf 4f bd f0 18 4c bd
       0.035474118 -0.20018034 -0.050734907 -0.04982847
000130 be b7 20 bd 50 77 43 3e 52 2c 37 be 43 71 8c 3d
       -0.03923773 0.19088483 -0.17888 0.068575405
000140 14 8d 7f 3e 1c f5 bf 3e 57 b4 31 3c cc dd e0 3b
       0.24956161 0.3749169 0.010846219 0.0068623777
000150 4b 4f bc be 20 b1 41 be b2 5f 39 ba 3e e5 21 3e
       -0.36779246 -0.18915224 -0.00070714497 0.15810105
000160 23 bf 20 3e b3 b7 71 bd df 2e 29 be 43 de 1a be
       0.15697913 -0.05901308 -0.16521786 -0.15123849
000170 5a 0b ba 3c 14 a5 67 3d 9e a5 b7 bc ef e2 bc bd
       0.022710491 0.056553915 -0.02241784 -0.09222972
000180 cf e4 57 3b 93 e8 37 3d ec 60 fb bd 5d c5 9b 3e
       0.0032942777 0.044899534 -0.12274346 0.30424014
000190 ad 15 f1 bc d2 34 7b 3e 69 ad 44 be 9f a9 8d 3e
       -0.029429281 0.24531868 -0.19206776 0.27668473
0001a0 e8 37 84 bd 14 81 9c 3d d1 89 9d bd af 1c 02 be
       -0.06455976 0.07641807 -0.07692302 -0.12706254
0001b0 fd 1a 16 be 52 c6 15 ba 6f 6c 02 3e 95 e3 24 3e
       -0.14658733 -0.0005713451 0.12736677 0.1610244
0001c0 52 c1 2d 3e f9 1a c4 bd a3 c0 60 bd 87 05 4d be
       0.16968277 -0.09575457 -0.054871213 -0.2002164
0001d0 65 c5 8c be 30 7d 8b bd f1 58 d5 3d 38 52 23 3d
       -0.2749435 -0.06810987 0.10417355 0.03987333
0001e0 e5 d7 ae 3c 6e 0c 27 3e 82 0e 91 bc 9d f6 cc bc
       0.02134318 0.16313335 -0.017707113 -0.025019938
0001f0 1a 45 b6 be 2c 17 85 3d dc ba cd 3b 5e fb 58 3e
       -0.35599595 0.0649856 0.006278379 0.21189639
000200 18 09 27 bd ff cb a1 be cf 5b 89 bc 2d 8d fd bd
       -0.040780157 -0.3160095 -0.01676741 -0.12380443
000210 4a 38 16 bc c0 c3 b4 be 3b b2 89 3d 3b 1a 3e be
       -0.009168694 -0.35305595 0.06723448 -0.18564694
000220 f3 d9 ac 3c 80 ff 6b 3e 9a 17 2e 3e 03 67 ac bc
       0.02110002 0.23046684 0.17001191 -0.021045214
000230 4a 35 63 3e 75 62 3a 3e c2 26 d5 3d 02 16 ab 3e
       0.22188297 0.18201621 0.10407783 0.33415228
000240 bb 5e 88 be 43 13 0b bc ea 9d 8c 3c 42 db cd bd
       -0.26634774 -0.008488479 0.017165143 -0.10051586
000250 4b 21 03 3e e6 86 be be f4 fc 1e 3e 54 ad 09 3e
       0.12805669 -0.37212294 0.15526181 0.13445026
000260 eb fa 84 3e 05 1d 48 be b4 88 69 be 1e a7 3e 3c
       0.25972685 -0.1954232 -0.22806054 0.0116365235
000270 44 75 03 3d c3 e4 af bd 47 23 06 bd 33 3f 71 3c
       0.032094255 -0.08588555 -0.032748487 0.0147245405
000280 a5 09 37 3d e7 c1 31 3e c7 c0 82 bd ca 3d 5d 3d
       0.044686932 0.17359124 -0.063844256 0.054014005
000290 dc d8 cf be 8b 33 2c 3e 86 e8 7e 3e e5 89 3d 3d
       -0.40595138 0.16816537 0.24893388 0.046274085
0002a0 89 6a 8b ba 3c b1 76 be 15 ee 30 be 71 af 6a be
       -0.0010636608 -0.24091047 -0.17278321 -0.22918488
0002b0 14 bf 08 3e 1c 21 8a be 68 4c 46 be 05 85 50 bd
       0.1335414 -0.26978385 -0.19365084 -0.050908107
0002c0 41 c4 21 be c0 72 83 3d 23 71 bd 3c 0f 56 c4 3d
       -0.15797521 0.06418371 0.023125237 0.09586727
0002d0 55 d4 29 bb c3 27 36 3e 27 b9 1b be c4 72 a1 3e
       -0.0025913913 0.17788605 -0.15207349 0.31532872
0002e0 0d ba a2 be 20 82 3e 3d 46 7c 20 bc 61 71 ae 3d
       -0.3178257 0.046510816 -0.009795254 0.08517719
0002f0 ad d3 68 3e 18 a2 75 bd c5 8e 27 be 49 59 7a 3d
       0.22736998 -0.059969038 -0.16363056 0.061120305
000300 a3 2f 84 3e a1 88 ad bd 03 db c4 3d ba d2 32 3e
       0.25817594 -0.084733255 0.09612086 0.17463198
000310 74 f9 ed bd 92 49 2f 3e a6 1a 07 be 09 9d 82 3d
       -0.11619845 0.17117909 -0.1319376 0.06377608
000320 97 e6 66 3e 1f 1b c7 3e ab 1e ea bd 66 ea 3a bd
       0.225489 0.3888788 -0.11431631 -0.045633696
000330 4b 3e b9 be fd 6c 6c be 68 28 c9 bd ff 3c 47 3c
       -0.36180338 -0.2308845 -0.0982216 0.012160539
000340 61 98 2a 3e 5e 10 f6 bd 0b 27 13 be c6 13 45 be
       0.1665969 -0.120148405 -0.14370362 -0.19245824
000350 97 5e 23 3e 67 b6 9a be cc 09 9e bd 01 d0 8c 3d
       0.15954052 -0.30217287 -0.07716712 0.06875611
000360 75 55 3c be d5 7a d6 3d 1a 00 85 ba ba 88 6e 3d
       -0.18391974 0.10472647 -0.0010147125 0.05823586
000370 f0 6a 3b bd 7e 62 a5 3d c6 63 1a be bf 19 9b 3b
       -0.04575628 0.080754265 -0.15077123 0.004733294
000380 15 55 04 3c b9 e3 02 be 77 18 a0 bd 7d 96 ee 3d
       0.008076926 -0.12782182 -0.07817166 0.11649797
000390 b3 a2 98 3d 07 7b 05 bd f5 09 38 3e 65 bc cc 3d
       0.074529074 -0.03258803 0.17972548 0.09996871
0003a0 95 0f 25 be 00 1f fd bd 7e ab a0 3d e4 46 5d bd
       -0.16119225 -0.123594284 0.078452095 -0.054022685
0003b0 30 9c 58 be b1 27 a8 3e ff 9f 7f bd 51 bf 4e bc
       -0.21153331 0.32842782 -0.062408444 -0.012618856
0003c0 22 45 01 be 4f cc 92 3e 28 fc f8 3d 41 cc 36 3e
       -0.12624028 0.286715 0.1215747 0.17851354
0003d0 6a 61 45 be 90 8d 3e be 1b 8f 0f be b3 5c 86 3d
       -0.19275442 -0.1860869 -0.14019434 0.0656065
0003e0 6f 2f 60 3e ee c2 1b bd 6d 20 df bd 26 01 72 bd
       0.21893094 -0.038027696 -0.108948566 -0.059083126
0003f0 f4 a7 d5 bd 8c 86 73 be 88 31 e6 bb 5c 1c a1 3d
       -0.10432425 -0.23781794 -0.0070249476 0.07866737

recurrent._gate.bias_pool f4 [3, 20]
000000 1f 8e c0 3d f2 bb e4 3e 21 82 2a 3d 88 42 85 3e
       0.094021074 0.4467464 0.041628007 0.26027322
000010 8f e5 82 bd 71 82 ac 3d e7 f4 17 3e 8e dc 58 3e
       -0.06391441 0.08423317 0.14839517 0.21177885
000020 03 5d 8a 3e 5d 9d 4e be 02 47 6a 3c 0d fe c1 bd
       0.27024087 -0.20177217 0.014299156 -0.094722845
000030 c3 82 9c 3d 41 24 41 be 75 9c b9 bc 6b b6 b3 bd
       0.07642128 -0.18861486 -0.022657612 -0.08775028
000040 bb 8f 0d be df 25 ac 3d 48 d3 1e 3d 8c 91 a0 3d
       -0.1382436 0.08405661 0.038775712 0.07840261
000050 97 b9 e0 3d 57 ee 21 be 18 f1 b8 3c a4 0d 9d be
       0.109728985 -0.15813576 0.0225759 -0.3067447
000060 e4 99 99 bc 08 30 cc be 64 42 83 3d ef 35 2b 3e
       -0.018750139 -0.39880395 0.064091474 0.16719793
000070 55 51 9b bd dd c2 e6 3d 00 b1 30 be 8d 6c 2b 3d
       -0.07583872 0.11267636 -0.1725502 0.04185157
000080 df c8 17 be e4 0a 09 bd ec 8e 01 3e d3 50 32 3d
       -0.1482272 -0.03345765 0.12652177 0.04353411
000090 0c 60 5e 3d bf 88 0f 3e 6a 03 b2 bc 0f 13 35 3d
       0.054290816 0.14017008 -0.021730144 0.04420763
0000a0 d2 68 26 3d 55 f4 1a 3e f8 24 3a 3d 91 b1 0b 3e
       0.04062731 0.15132268 0.045445412 0.13641955
0000b0 b2 ec e9 3d db 3c 59 be f0 68 3f 3d a9 f2 88 be
       0.11422099 -0.21214621 0.046730936 -0.26747635
0000c0 e8 70 4b bd d6 98 72 3d e5 db 38 bd 7c 43 68 3d
       -0.049668223 0.059227787 -0.045131583 0.056704983
0000d0 88 14 25 3d 2b 44 02 b9 f6 c1 d7 3a 4c 2f 70 3d
       0.040302783 -0.0001242316 0.0016461003 0.058638856
0000e0 ac b5 24 3e cb 90 4d 3c 3f c4 11 be 08 c9 5e be
       0.16084927 0.012546728 -0.14235018 -0.21756375

recurrent._update.weights_pool f4 [3, 10, 110, 10]
000000 77 68 09 3e 1d 78 2d be ea 5e b0 3d 79 8b e0 3d
       0.13418756 -0.16940351 0.086118534 0.10964102
000010 35 2b b8 bd f1 06 9c 3c 69 03 5b be 04 45 82 3d
       -0.08992616 0.019046279 -0.2138802 0.0636082
000020 b6 5e f2 3d 63 33 41 3d 7d ee ca 3c 8e a8 52 3d
       0.11834471 0.047168147 0.024771923 0.051430278
000030 9f 12 d9 bc f4 c1 71 3d 15 71 75 be a9 42 04 3d
       -0.026498137 0.05902286 -0.23968919 0.032290135
000040 29 6f 11 be c5 98 dc 3d b6 2b b3 3c f8 ed 19 be
       -0.1420256 0.10771326 0.021871429 -0.15032184
000050 bd 24 50 be e5 cd 63 be 4c b4 1e be ed a4 2b 3d
       -0.20326515 -0.22246511 -0.15498465 0.041905332
000060 66 37 1f 3e c4 cf e5 bd af c2 2a bd ee ed 08 bc
       0.15548477 -0.11221269 -0.04168957 -0.008357508
000070 de 61 2b be 19 0d b4 bd 44 35 46 3e 90 03 11 bc
       -0.16736552 -0.08791561 0.19356257 -0.008850947
000080 39 c6 1d 3d c5 e2 9d 3e 66 ea 04 bc 15 8d 3c be
       0.038519118 0.30837074 -0.008112526 -0.18413194
000090 c9 db d0 3c 23 22 4b 3e ac 1f 33 3e 3c d1 dc 3d
       0.025495427 0.19837241 0.1749255 0.10782096
0000a0 72 d8 20 3e 5b fc 2c be 6a 6d e1 bd 60 1c bb bd
       0.15707567 -0.16893141 -0.11007197 -0.091362715
0000b0 47 57 4a be eb 04 d3 bc a0 6d 4d be e2 f7 4e 3e
       -0.19759856 -0.025759181 -0.2006135 0.20211747
0000c0 0d 58 06 be 7e 78 24 3d ae ba 74 bd c2 54 de 3d
       -0.13119526 0.040153973 -0.059748344 0.1085601
0000d0 f2 67 d1 bd 00 c6 6e 3e 49 a0 15 be e3 45 28 be
       -0.10224904 0.23317719 -0.14611925 -0.1643291
0000e0 ee 41 3e 3d f3 de 5c 3d f5 d4 88 bd b5 40 2b be
       0.046449594 0.05392356 -0.06681243 -0.16723903
0000f0 4b 29 e1 bd ff b2 e7 bc 7e d9 34 3e 69 e0 1a 3e
       -0.10994204 -0.028283594 0.17661092 0.15124668
000100 d0 86 bc bd be 81 2d 3d 7d 31 db 3d 70 b1 66 3e
       -0.09205401 0.04236006 0.107027985 0.22528625
000110 ed 02 fc 3d 5f 32 ad bd d4 d2 bc 3d 93 60 38 be
       0.123052455 -0.08456873 0.092199 -0.1800559
000120 44 4f 0a bd 05 69 7a 3e 03 4c b3 bd 86 0a 0e be
       -0.033767 0.24454124 -0.087547325 -0.13871202
000130 db 13 c6 3d a0 dc 06 be bd de 79 be e8 21 4f be
       0.09671756 -0.131701 -0.24401374 -0.20227778
000140 1c 58 73 be 0e 2a 1e 3d 58 3a 81 3c e6 8f 0d 3e
       -0.2376408 0.038614325 0.01577489 0.13824424
000150 b5 88 ac 3d b2 59 a5 be e1 b7 d4 3d a0 0d 8d bd
       0.08424512 -0.32294995 0.103866346 -0.068873644
000160 06 05 67 bd f0 fb e2 bd 67 61 80 be 40 40 27 be
       -0.056401275 -0.110832095 -0.25074312 -0.16333103
000170 d8 0d 46 be db 3d 1a 3e c9 98 3d bd 14 cb 82 3d
       -0.19341218 0.15062658 -0.046288285 0.0638639
000180 7e e7 0e 3e 9a c5 30 3e 5f 64 24 3e 92 b2 dc bd
       0.13955495 0.17262879 0.16053914 -0.10776247
000190 34 8d 4d be 0f 5d 80 3d 59 8e 83 3d 95 43 72 3c
       -0.20073396 0.062677495 0.06423635 0.014786621
0001a0 5c 62 89 3d 6c cd 0f be 59 6c 7c be 1f e6 23 3e
       0.06708214 -0.14043206 -0.24650706 0.16005753
0001b0 39 3b 54 3e 89 e7 9a be fc 11 15 be 66 18 84 3d
       0.20725717 -0.30254772 -0.14557642 0.06449966
0001c0 3b 2c 29 3e 47 9e a3 3e 26 34 08 3e 5b 6b 05 be
       0.16520779 0.31956694 0.13301143 -0.13029234
0001d0 32 f6 68 be 1e dc 27 be 4b c5 96 bd 06 f2 80 be
       -0.22750166 -0.16392562 -0.073618494 -0.2518465
0001e0 1e 84 2b bc 30 5f 3f be 08 fa 8f 3d a4 71 12 3e
       -0.010468511 -0.18688655 0.070301116 0.14301163
0001f0 86 a2 16 3e ad 96 8c bd 18 40 b5 3d 34 71 03 bd
       0.14710435 -0.068646766 0.088501155 -0.03209038
000200 68 f4 16 bd 77 dd 01 bd e8 93 62 3d 2d dd 2e 3e
       -0.036854178 -0.031705346 0.055316836 0.1707656
000210 5b de b4 3d 92 79 43 3e 51 3e 09 be 17 21 de 3c
       0.088314734 0.19089344 -0.13402678 0.027115388
000220 e8 a3 1c be ca ab 5e 3e bb 8d 0a 3e 3b e1 92 be
       -0.152969 0.2174522 0.13530628 -0.28687462
000230 70 8f f8 bd 71 8b 55 3e f8 df 41 3e 1c c7 e7 3d
       -0.121367335 0.20853974 0.18933094 0.11317274
000240 1e 6b aa bd 51 65 81 3d 5c 19 f0 3d 31 f1 30 be
       -0.08321212 0.06318153 0.11723587 -0.17279507
000250 fe 7d 2c 3e 01 c1 f3 3d fb 4a ba 3d 97 a4 19 be
       0.16844937 0.11902047 0.09096333 -0.15004192
000260 d7 63 31 bc 01 33 c5 3d 3d 9b 92 bd 81 2b bf 3c
       -0.010827026 0.09628869 -0.071585156 0.023336174
000270 b9 10 16 3e f2 5d 67 3e 45 f1 8b bd 30 ab 0e be
       0.14654817 0.22594431 -0.06833128 -0.1393249
000280 d4 52 6c be d3 e0 f3 3d 8f db 98 3d 7b 27 87 3d
       -0.23078471 0.11908116 0.074637525 0.06599327
000290 8d 9c 6e 3c 14 d0 9e be d8 68 2d 3e 0f 3c 70 3d
       0.014563692 -0.31018126 0.16934526 0.058651026
0002a0 59 e7 f2 bd 4d ad 0d bd b5 7d 57 be 4d c2 d0 bd
       -0.11860532 -0.0345891 -0.21044047 -0.1019331
0002b0 ab 2c c1 bd a3 84 fb 3d ee fd 06 be c0 2d 8d be
       -0.09432348 0.12281158 -0.13182804 -0.27573967
0002c0 82 7b 66 be b4 19 74 3d 25 e8 f5 3d 65 73 28 be
       -0.22508052 0.059594825 0.12007169 -0.1645027
0002d0 d5 dd bd bc 7e fc 8a 3d 7a 46 85 bc db 4f af 3e
       -0.023177067 0.0678644 -0.016268957 0.34240612
0002e0 f1 3c d2 3d 8e a9 aa be 91 f9 f1 bd 1b 07 d5 bc
       0.1026553 -0.33332485 -0.11815179 -0.026004365
0002f0 30 11 4f 3b e3 f3 87 be 16 8f 9a 3d 19 e7 75 3e
       0.0031595938 -0.26553258 0.07546823 0.24013938
000300 f2 a0 aa bc 34 d2 0d bc 3c 5c bc bd 35 d1 8d bd
       -0.020828698 -0.008656073 -0.0919728 -0.06924669
000310 d1 55 78 be 52 38 f4 3d 76 33 94 3d 73 75 9c be
       -0.24251486 0.11924805 0.07236378 -0.30558357
000320 c3 ab 1e bb 9a 88 da bd 57 ca 22 3d c0 4a 13 3e
       -0.0024211265 -0.10670586 0.039743748 0.14383984
000330 3c 1f 15 be f5 bd bc bc d2 b8 b6 bd 5e 17 e7 bc
       -0.14562696 -0.023039797 -0.089219704 -0.028209385
000340 70 49 1a be bd 3a 02 be ad d6 ba 3d 84 36 e3 3d
       -0.15067077 -0.1271772 0.091229774 0.110943824
000350 60 89 46 be 9e b3 ba 3d 0a 73 1d be ed 24 57 be
       -0.19388342 0.091162905 -0.15375915 -0.2101018
000360 f6 98 0e 3e 62 2e 2d be a3 bc db bd 14 57 8a be
       0.13925537 -0.16912225 -0.10729339 -0.2701956
000370 13 bf 35 be 30 10 80 bd 74 92 28 3e 8d 57 ed 3d
       -0.1774867 -0.062530875 0.16462117 0.115889646
000380 d7 6e 39 be 2a de d1 bc b0 7c 08 3e 7f 87 47 bd
       -0.18108688 -0.025618631 0.13328815 -0.048713204
000390 4d 98 6b 3d 1c 16 77 be 7e 13 8e bd d1 a3 f5 bd
       0.057518292 -0.24129528 -0.069373116 -0.11994136
0003a0 de 38 3a be a5 3e 8e 3e bd f9 1f 3e 9e c4 a1 3d
       -0.18185756 0.2778217 0.15622611 0.0789883
0003b0 5d b5 16 3e 1d 3e 2e 3e c5 55 72 bd fa 12 5f 3d
       0.14717622 0.17015882 -0.059163827 0.054461457
0003c0 18 b7 4a 3d de d6 2b 3e ea 67 7e bd 81 34 91 bd
       0.049491018 0.16781184 -0.06211082 -0.070900925
0003d0 93 64 2b be 0a ba 9a be 7e e9 66 3c 0a f4 46 3d
       -0.16737585 -0.30220062 0.014093755 0.048572578
0003e0 ee 09 0a be 74 df 96 be f7 be 00 bd c6 d3 f0 3d
       -0.1348035 -0.29467356 -0.03143212 0.117591426
0003f0 9c 88 4d be f4 ae ec bc 9f a9 13 3c a1 73 89 3d
       -0.20071644 -0.028892018 0.009012609 0.067115076

recurrent._update.bias_pool f4 [3, 10]
000000 07 8e 1e be 55 be 6b be 62 14 fc bd ae 03 b0 bc
       -0.15483867 -0.23021825 -0.12308575 -0.02148613
000010 55 ea d8 be f3 1f d2 be ab 16 3d bf 25 0a 07 3f
       -0.4236628 -0.4104 -0.73862714 0.52749854
000020 db 1f 03 bd e8 73 12 be 0b ba 0b bf 33 10 ac 3d
       -0.0320128 -0.14302027 -0.54580754 0.08401527
000030 da 4a 50 bf d9 99 cc 3d c5 8e 0b 3f c5 4b 6a 3e
       -0.81364214 0.099902816 0.54514724 0.22880466
000040 34 62 28 bf 3d d3 02 3f 7d 7c a0 3d 3f f6 8e 3e
       -0.65774846 0.51103574 0.07836244 0.27922246
000050 fc 78 e7 bd 07 96 38 3c b2 88 b1 bd 6d 56 d1 3b
       -0.11302373 0.011266238 -0.08668651 0.0063884766
000060 f8 49 21 3e e0 df 59 3e 2f 44 72 3c 8a 9a 28 bf
       0.15750873 0.21276808 0.014786764 -0.6586081
000070 8d e0 a6 be 54 05 dd be
       -0.32593194 -0.43168128

linear.weight f4 [20, 10]
000000 32 cb 8d 3e 15 7d 98 3e 22 12 26 3e 1d f9 a3 3e
       0.27694088 0.2978293 0.16217855 0.32025996
000010 d3 57 a8 3e ef aa 63 3d b0 0e a1 3e 16 79 ae 3e
       0.32879505 0.055582937 0.31456518 0.34076756
000020 aa b7 f3 3e 7a a1 ce 3d a8 dd 8b 3e 86 f8 8b 3e
       0.47601062 0.10089393 0.27317548 0.27338046
000030 45 b0 26 3e 74 2c ad 3e 93 e2 a6 3e f1 f4 61 3d
       0.16278179 0.33822978 0.32594737 0.055165235
000040 9a ea a2 3e 5c 49 b0 3e 5e d5 f0 3e 2a 72 ce 3d
       0.31819612 0.3443097 0.47037786 0.10080369
000050 a9 de 8c 3e c7 be dd 3e c8 90 25 3e d2 f0 35 3e
       0.27513626 0.43309614 0.16168511 0.17767647
000060 db cf a6 3e f2 42 69 3d c3 2a 9f 3e 0f d7 ac 3e
       0.32580456 0.05694861 0.31087312 0.33757827
000070 4b 4c eb 3e 3a a8 de 3d 23 72 8a 3e b7 9e b1 3e
       0.45956644 0.108719304 0.27040204 0.34691402
000080 ff a1 27 3e 70 79 88 3e be 32 a5 3e 64 4f 63 3d
       0.1637039 0.2665515 0.32265276 0.055495635
000090 c8 45 a1 3e 96 d0 ae 3e c1 de ee 3e 1e 4d d8 3d
       0.3149855 0.34143513 0.46654323 0.10561584
0000a0 f7 2f 8c 3e e0 f1 c9 3e 16 32 26 3e 94 a9 61 3e
       0.27380344 0.39442348 0.16230044 0.22037345
0000b0 ef 62 a6 3e be 91 65 3d d0 64 9f 3e ce 00 ad 3e
       0.32497355 0.056047194 0.311316 0.33789676
0000c0 11 89 ee 3e 35 5b db 3d 8d 0b 8b 3e 00 3a a6 3e
       0.46588948 0.10710756 0.2715725 0.32466125
0000d0 1f 06 28 3e bb 03 95 3e 2c f6 a5 3e 91 87 61 3d
       0.16408585 0.2910441 0.32414377 0.055060927
0000e0 49 5f a1 3e 8d bd ae 3e ee 25 f1 3e 70 33 d4 3d
       0.3151801 0.3412899 0.4709925 0.103613734
0000f0 f6 8a 89 3e 6b d5 c5 3e 64 c9 27 3e 9b 2d 69 3e
       0.2686383 0.38639387 0.16385418 0.22771303
000100 40 40 a4 3e 3f ba 60 3d 9e 6f a0 3e 7d 5c ae 3e
       0.3208027 0.054865118 0.31335157 0.34054938
000110 3b 67 ee 3e 9f 98 db 3d f0 3f 8b 3e e3 98 da 3e
       0.46563134 0.107224695 0.27197218 0.42694768
000120 1a 60 27 3e a1 3d 36 3e f6 66 a5 3e ea 47 64 3d
       0.16345254 0.17796947 0.32305115 0.055732645
000130 ab 9a 9e 3e 79 90 ac 3e 4f 47 e7 3e 82 44 e3 3d
       0.30977377 0.33703974 0.45171592 0.11097051
000140 6a fa 8a 3e 64 ef ca 3e b1 dc 28 3e 23 8a 5f 3e
       0.27144176 0.39635766 0.16490437 0.21830039
000150 9d ad a5 3e 76 7e 64 3d fc ab a0 3e 02 86 ae 3e
       0.3235902 0.055784665 0.31381214 0.34086615
000160 c7 45 ee 3e 98 8c dc 3d 92 df 88 3e 6a 1c c8 3e
       0.4653761 0.10769004 0.2673307 0.39084178
000170 13 e6 27 3e e1 06 6e 3e 2c 58 a3 3e c8 eb 60 3d
       0.1639636 0.23244812 0.31903207 0.05491236
000180 1e c4 9e 3e 70 60 ac 3e d2 3c f3 3e 2f ec db 3d
       0.31009 0.33667326 0.4750734 0.10738408
000190 70 fa 8a 3e 92 38 99 3e 94 1d 29 3e 27 cb 9f 3e
       0.27144194 0.29925972 0.1651519 0.3120968
0001a0 19 81 a5 3e a2 ce 5e 3d 84 59 9f 3e a6 90 ac 3e
       0.32325056 0.05439628 0.31122983 0.33704108
0001b0 41 6d ee 3e af d6 d7 3d 71 1e 87 3e 5b 41 ca 3e
       0.4656773 0.105389945 0.26390412 0.39502987
0001c0 14 ca 28 3e 10 fe 59 3e 8f b2 a1 3e 18 07 61 3d
       0.16483337 0.21288323 0.31581542 0.054938406
0001d0 ee 2f 9f 3e 86 f5 ac 3e 54 a3 e9 3e c6 d6 e3 3d
       0.31091255 0.3378107 0.45632422 0.11124949
0001e0 db c5 87 3e 8a b8 b6 3e 57 a1 28 3e 3a fc 85 3e
       0.2651814 0.35687667 0.16467796 0.26168996
0001f0 44 22 a2 3e 84 8a 5f 3d 14 1b 9e 3e 6b 41 ab 3e
       0.31666768 0.05457546 0.30880034 0.33448347
000200 41 9a f1 3e e5 50 db 3d 92 6b 87 3e 34 e7 d1 3e
       0.47188 0.10708789 0.26449257 0.40996706
000210 1d 40 29 3e 00 67 49 3e b6 0a a2 3e 52 22 60 3d
       0.16528364 0.19668198 0.31648797 0.05472023
000220 90 72 9e 3e 18 40 ac 3e b4 df e8 3e c5 ad e3 3d
       0.3094678 0.3364265 0.45483172 0.11117128
000230 94 c5 88 3e 57 f9 ad 3e 0c ac 28 3e 48 78 8c 3e
       0.2671324 0.33979294 0.1647188 0.27435517
000240 0a 0e a3 3e c8 41 5c 3d 76 2d 9c 3e 47 8a a9 3e
       0.31846648 0.05377367 0.30503434 0.3311331
000250 05 0c f0 3e 98 fd d7 3d 09 03 87 3e b7 a0 cd 3e
       0.4688417 0.10546416 0.26369503 0.40161678
000260 4f 23 29 3e 17 53 54 3e 86 5d a1 3e 31 8b 61 3d
       0.16517375 0.20734821 0.31516665 0.055064384
000270 f7 20 9d 3e 0b 96 aa 3e 46 12 ea 3e bb 07 e4 3d
       0.30689213 0.333176 0.45717067 0.11134287
000280 01 80 85 3e 27 42 c2 3e cd fb 29 3e f6 eb 78 3e
       0.26074222 0.37941095 0.1659996 0.24308762
000290 a4 03 a0 3e ef 96 5d 3d 11 a6 9c 3e e7 23 aa 3e
       0.31252778 0.05409902 0.3059545 0.33230516
0002a0 9f e3 f2 3e da be de 3d 8f ec 86 3e 54 d1 ac 3e
       0.47439286 0.10876246 0.26352355 0.33753455
0002b0 e0 35 29 3e 3c 11 92 3e 5f 1c a1 3e 7b 43 5b 3d
       0.16524458 0.28528774 0.31466958 0.05353115
0002c0 c0 f3 9a 3e fb e7 a7 3e 0d 06 f4 3e 1d e9 db 3d
       0.30264091 0.32794175 0.47660866 0.10737822
0002d0 af 27 86 3e e2 6d c7 3e bd db 29 3e 37 be 5c 3e
       0.2620215 0.3895102 0.1658773 0.21556936
0002e0 63 94 a0 3e 7d f5 5e 3d b7 c9 9c 3e 03 09 aa 3e
       0.3136321 0.054433335 0.30622646 0.3321
0002f0 4a d4 e7 3e d6 eb e6 3d 99 29 86 3e 61 8f a7 3e
       0.4527915 0.11275451 0.26203611 0.32726577
000300 86 3d 29 3e 99 3d 95 3e e1 4e a0 3e c0 9a 5a 3d
       0.16527376 0.29148558 0.3131018 0.053370237
000310 90 68 9a 3e 4b 0d a7 3e a8 b0 f1 3e 42 44 de 3d
       0.301579 0.3262733 0.4720509 0.10852863

linear.bias f4 [20]
000000 b0 d8 7e 3b 02 75 0a 3c 0f 00 8a 3c 95 d6 4c 3c
       0.003888648 0.008450748 0.016845731 0.012502332
000010 bb 48 74 3c 00 9e 15 3c 6b 65 71 3c d1 57 bc 3c
       0.014909918 0.009131908 0.014733653 0.022991093
000020 54 fb 45 3c 31 96 1c 3c f5 21 75 3c 48 d0 ce 3c
       0.012083847 0.009557293 0.014961709 0.0252458
000030 c6 e8 83 3c af b7 c7 3c 6d ea 8b 3c dc 0d da 3c
       0.016102206 0.02437958 0.017079556 0.026617937
000040 a9 e7 82 3c 8c ec 5d 3c ed f7 f4 3c d8 52 a5 3c
       0.015979605 0.013545167 0.029903376 0.020181105
