TFM/experimentos_split/results/bus_trip/DCRNN.pt (torch, 239016 bytes, 8 tensors)

recurrent.conv_x_z.weight f4 [2, 1, 160, 60]
000000 d5 98 8b 3c b1 ae 99 3c 8a 56 23 3d 50 d0 9d 3c
       0.01704065 0.018760057 0.039877452 0.01926437
000010 7f ac 7f 3b a9 a5 0e 3c 08 e7 59 ba 39 01 b2 3c
       0.0039012728 0.008706489 -0.00083123194 0.021729099
000020 d0 cb 9e 3c b9 0c 8f bb 83 cb 56 3c 3a a4 0e 3c
       0.019384295 -0.0043655303 0.013110044 0.008706147
000030 9d b2 0f 3d 09 ab d5 3b df 6b 54 3c 49 3d e2 bb
       0.03508245 0.006520633 0.012965172 -0.0069042784
000040 a5 e7 cc 3c 60 74 5b 3b b2 70 6f 3c 30 ac 1e 3c
       0.0250128 0.0033486113 0.014614271 0.009684607
000050 03 b8 4a 3c a6 b8 55 3b d7 7b 2c bc f0 85 08 3d
       0.012372973 0.003261128 -0.010527573 0.033330858
000060 a6 8e b0 bb a3 23 fb ba 83 f0 fc 3a 92 29 2f bb
       -0.005388099 -0.0019160401 0.0019297752 -0.0026727659
000070 a0 6d f1 3b 1f 1b 01 bc b2 a9 aa 3b f4 20 3e bc
       0.0073678046 -0.007880001 0.0052082175 -0.011604536
000080 a6 91 8c 3c 54 55 a2 3b 81 c5 e2 3a c5 db 76 3c
       0.017159294 0.0049540196 0.0017301292 0.015067046
000090 62 b7 c4 b9 94 66 90 3c 04 25 3e 3b db 50 8b 3c
       -0.00037520664 0.017627038 0.0029013762 0.017006328
0000a0 16 65 c9 ba 40 0f 09 3b 89 32 74 3c 0d fc c1 3b
       -0.0015365209 0.002091363 0.014904627 0.0059199394
0000b0 30 5a 9d 3c 76 aa 9f b9 26 c0 6c 3c 0d b5 0c 3c
       0.019208044 -0.00030453847 0.014450109 0.008588088
0000c0 8f 0b 16 3e 41 1e 37 bb 9a ea 3c bc 0e 9d 19 ba
       0.14652847 -0.0027941617 -0.011530543 -0.000585989
0000d0 92 f5 98 39 1e e9 8f 3c 35 46 2e 3c 4d 92 74 3b
       0.00029174663 0.017567214 0.010636856 0.0037318647
0000e0 3d 30 38 3c 89 8f bc 3b 59 1e 9a 3c 2f 06 28 bc
       0.01124197 0.0057544154 0.018813299 -0.0102553805
0000f0 58 91 e2 3b 4f 04 76 38 04 37 47 3d a1 9c 87 3a
       0.006914299 5.8654983e-05 0.04863645 0.0010346362
000100 57 e6 4c 3c d0 a1 36 3b 3c c9 a7 3c 5d 97 bf 3b
       0.012506089 0.0027867444 0.020481698 0.0058469013
000110 9b e8 9b ba c6 52 1c bb 74 83 56 3c cd 30 31 3c
       -0.0011894883 -0.0023853048 0.013092864 0.010814858
000120 9a 2f 1b 3d 84 b6 f0 bb 55 2b 08 bc 75 c2 71 bc
       0.037887193 -0.0073459763 -0.008311112 -0.014755835
000130 8a 59 dd 3b 5b fe cb 3b 46 02 91 3c 46 72 93 3c
       0.0067550587 0.00622539 0.01770128 0.017998826
000140 15 43 54 3c 78 19 a0 bb 7c 9a ba 3b fc e4 9a 3c
       0.012955447 -0.0048858486 0.0056946855 0.018908016
000150 b0 eb 71 3c aa 16 ac 3a 4e ac 69 3c d6 ad aa bb
       0.014765665 0.0013129313 0.014262272 -0.005208711
000160 f2 92 a7 ba 94 8a 30 3c 51 15 ac ba 37 00 79 ba
       -0.0012784882 0.010775227 -0.0013128911 -0.0009498628
000170 cf 87 6f 3c 72 62 66 3c d2 be 84 bb eb 51 cc ba
       0.014619782 0.014061557 -0.004051068 -0.0015588378
000180 a2 c6 52 3c 23 d5 6d 3b 65 bc 1b bb 33 26 25 3c
       0.012864741 0.003629037 -0.0023763415 0.010079908
000190 6a 47 4c bc e7 77 1d 3c 16 ff e2 3b e6 f2 68 bc
       -0.012468198 0.0096111065 0.0069273813 -0.014218068
0001a0 31 e4 36 3c 42 92 7c bb 3e c8 c8 bb 77 9f fe ba
       0.0111628035 -0.0038539325 -0.0061273864 -0.0019426186
0001b0 ad 0f 02 3e fc e0 50 bb eb 30 99 3c 62 f9 fc 3b
       0.12701292 -0.0031872382 0.018700084 0.0077201584
0001c0 78 0b 8b 3c 28 92 fd bb d1 c6 46 bb 9f 93 c1 bb
       0.016973242 -0.0077383704 -0.0030330906 -0.0059074904
0001d0 91 60 12 3c 4d 62 db bb bf 28 aa 3a 22 93 0d bc
       0.008934156 -0.006695068 0.0012982114 -0.008641036
0001e0 4a 19 c6 3b b3 2f 94 3b db b1 39 3d 4c 6c 77 bb
       0.006045495 0.0045222878 0.04533563 -0.003775376
0001f0 3b c3 1a 3a 25 26 2c bb 7c 6b 0c 3b 5a 77 c1 3b
       0.00059037254 -0.0026267853 0.002142637 0.0059041204
000200 d8 6b b2 3c ec 20 5c 3b 33 e1 5a 3c 14 11 2c 3c
       0.02177994 0.003358896 0.013359356 0.010502119
000210 92 f9 6b 3c 27 76 6e 3c 1f 4d 05 3b 26 89 fd bb
       0.014402764 0.014554537 0.0020340157 -0.0077372966
000220 43 03 94 3b 28 d0 98 bc 2d 93 66 3c 36 f1 3a 3b
       0.0045169904 -0.018653944 0.014073175 0.002852512
000230 34 67 e6 3c 9b d1 e1 bb 61 2f 02 3c 1e d0 88 3c
       0.028125383 -0.006891442 0.007945866 0.0167008
000240 ed 3c 66 3b 94 0b fe 3b 8e 7a 5c 3c 43 a8 90 3c
       0.003513153 0.007752845 0.013456954 0.017658358
000250 fb e8 9c 3c 24 28 a6 bb 60 33 4a 3b 69 a8 98 b9
       0.019154062 -0.005070703 0.0030853376 -0.00029117175
000260 03 4c 91 3b c6 94 d3 bb 21 42 a0 3c 43 bb 91 bb
       0.00443411 -0.006456944 0.019562783 -0.004447372
000270 1b 94 e8 3b 63 d5 6e 3c 92 02 1f 3c 38 10 84 3c
       0.0070977337 0.014577243 0.009705203 0.016121015
000280 32 3a 23 3c 7e 5c 16 3c 84 07 2f 3c 3e 9c 59 bc
       0.009962605 0.009177325 0.010682944 -0.01328188
000290 96 84 8a 3c e2 aa 7b 3b 97 8b 01 ba 9a c2 96 3c
       0.016908925 0.0038401415 -0.000494176 0.01840334
0002a0 28 8d 0d 3e 54 ed 01 bb 01 83 9f ba 8b 24 8d 3b
       0.13823378 -0.0019825296 -0.001216978 0.004307335
0002b0 7d 9a b7 3c 4f 65 05 3b 0a 7a ea ba 2d 01 96 bb
       0.022412533 0.0020354574 -0.0017889154 -0.004577777
0002c0 4f 8b 86 bb 45 bb 36 3c fe 1a 99 3c 63 a2 5e bc
       -0.0041059623 0.011153047 0.018689629 -0.013588521
0002d0 3d 51 19 3c 14 61 a8 3c 3c 14 4e 3d 3d cb 62 3a
       0.009357748 0.020554103 0.050312266 0.00086515007
0002e0 fc ea 94 3c ac 33 5b 3c c5 e1 83 3c e3 a2 5f 3c
       0.018178456 0.013379019 0.016098866 0.013649675
0002f0 c1 53 a7 3b 91 85 fe 3b a9 df 1f bb c1 4f df 3a
       0.00510642 0.007767387 -0.0024394786 0.0017037318
000300 3f 2d 12 3d db 0e 8b 3c 5b f6 95 3b d7 80 a4 bb
       0.03568768 0.016974857 0.004576487 -0.0050202417
000310 f1 f6 9e 3c 1b 55 46 bb 5c 44 72 3c 02 aa 24 3c
       0.01940486 -0.003026313 0.014786806 0.010050299
000320 5c 23 1d 3c 63 72 c3 b9 84 29 4b 3c 2f bf 13 3d
       0.00959095 -0.00037278523 0.012400035 0.036071
000330 6c 43 ad 3b 7d e5 81 bb 03 26 39 bb e4 dd e2 bb
       0.0052875783 -0.0039641247 -0.0028251417 -0.006923424
000340 3d 7a aa 3a be 53 38 3c 4e a0 09 3c b1 1a 27 3c
       0.00130064 0.011250434 0.008400036 0.010199235
000350 dc 50 dd bb 99 cc 77 bb c8 ae 87 3b ce bb a4 3c
       -0.006754024 -0.0037811159 0.0041407086 0.020109084
000360 db 63 33 3b ec 47 f1 3b eb ad 32 3c 06 c9 af 3c
       0.002737275 0.00736331 0.010905723 0.02145816
000370 87 20 57 bc f7 7f 87 3c d4 a7 14 3b cd 30 3e bb
       -0.013130314 0.01654051 0.0022683041 -0.0029020787
000380 90 59 69 bb 1e 55 80 3c 5c b4 8b 3c 79 94 38 3c
       -0.0035606362 0.015665587 0.017053775 0.011265867
000390 65 eb d0 3d 78 05 07 bc 77 62 9f bb 5e 7f 81 3c
       0.10201148 -0.00824105 -0.004864033 0.015807804
0003a0 ab 08 b0 3c be 63 92 3c 16 d5 65 3c 62 60 88 3b
       0.021488508 0.017869826 0.014027854 0.0041618804
0003b0 98 26 d7 3b 96 e7 a2 bb 87 c2 9e bb 99 31 5d bc
       0.00656588 -0.004971455 -0.004844967 -0.0135005945
0003c0 79 33 43 3c aa 15 09 ba 51 06 0e 3d 06 d2 16 bb
       0.0119141275 -0.00052293635 0.034673993 -0.0023013367
0003d0 e0 ca 6c 3b f9 08 8f bb 75 72 f0 bb 6a 38 8a 3c
       0.0036131665 -0.0043650833 -0.007337863 0.016872603
0003e0 d4 d7 be 3a e5 f3 77 3c da d1 71 bb 09 2e 96 bb
       0.0014560171 0.015133833 -0.0036898763 -0.0045831245
0003f0 f7 4b 88 3c 4c 01 1f bb da 56 d0 3a 11 af 9e bc
       0.016637785 -0.0024262248 0.0015895024 -0.019370588

recurrent.conv_x_z.bias f4 [60]
000000 bf c9 c4 3b cf 76 04 3d de d5 ed 3d a4 c8 c4 3b
       0.0060054953 0.032339867 0.116130576 0.0060053635
000010 1b b5 b1 3c 7b c1 bd 3b fe c0 1d 3d 3b 57 7c 3d
       0.021692803 0.005790887 0.03851413 0.061606627
000020 49 5d 32 3d 50 77 cb 3b 49 61 d3 3a e7 c2 c4 3b
       0.043545995 0.0062092915 0.0016127016 0.0060046795
000030 7b 36 17 3e 25 9a 95 3b db c8 c4 3b fb 6c 62 39
       0.14766876 0.0045654946 0.006005389 0.00021593638
000040 ef 7f 46 3d 53 e3 28 be 7f 6f a4 be 82 c9 c4 3b
       0.04846185 -0.16492967 -0.32116315 0.006005467
000050 32 dd 87 3d 0b db a1 3b 66 60 13 3b 40 91 cb 3d
       0.066339865 0.004939442 0.0022487878 0.099398136
000060 97 c9 c4 3b ed 5d 9b 3b d1 c9 c4 3b d4 cc c4 3b
       0.0060054767 0.0047414214 0.0060055037 0.0060058627
000070 d0 c9 c4 3b cd 27 cf 3b 79 9b 08 bc e6 21 68 3c
       0.0060055032 0.0063218833 -0.008337849 0.014168238
000080 fc 22 c5 3b cb 00 27 3d ff bf d1 3b be a1 c8 3b
       0.0060161334 0.04077224 0.0064010615 0.006122797
000090 2d 16 8c 3c fd ed 90 39 d5 59 f1 3c f3 28 ca 3c
       0.017100418 0.00027643135 0.02946178 0.02467773
0000a0 af f9 90 3c cd c9 c4 3b 8b c9 0a 3c 30 30 24 bd
       0.017697183 0.006005502 0.008470903 -0.040085018
0000b0 fc a1 30 3c cf c9 c4 3b b5 db c8 3b e3 c9 c4 3b
       0.010780808 0.006005503 0.0061297067 0.006005512
0000c0 a4 af 9d bf 40 b6 c4 3b c3 aa 40 3c c9 0b a2 3b
       -1.2319226 0.006003171 0.011759463 0.0049452526
0000d0 34 e7 82 3d 7f 72 bb 3b ff ef d3 3b 84 51 d2 3c
       0.06391755 0.005720436 0.0064678187 0.025673635
0000e0 35 fe d9 3b d2 c9 c4 3b 44 be f4 3b 00 00 00 00
       0.0066526183 0.006005504 0.0074689705 0.0

recurrent.conv_x_r.weight f4 [2, 1, 160, 60]
000000 53 18 41 3c 5f f4 33 bc 57 6b f5 3b dc 5d c9 3b
       0.0117855845 -0.010983556 0.0074896025 0.006145222
000010 ca bb f7 3b c5 d5 a2 bb cd 56 f6 bb 6a 3c c0 b8
       0.007560228 -0.004969331 -0.0075176717 -9.1665264e-05
000020 92 da 90 bb c2 17 d2 3b 19 1c 30 bc 68 98 48 3c
       -0.004420587 0.0064115236 -0.0107488865 0.012243368
000030 af 1a 97 bb b6 9d 07 3c 8d e8 98 bb 2a 46 10 bb
       -0.004611335 0.008277347 -0.004666394 -0.0022014477
000040 a3 7b 0c 3b d9 93 50 bc 78 d5 d9 3b 59 f7 55 3c
       0.0021435998 -0.012730562 0.006647762 0.013059461
000050 44 a1 30 bc e6 e2 b4 3b a5 0d 57 bc a8 d8 14 ba
       -0.010780636 0.0055202125 -0.013125812 -0.0005678036
000060 8c 4e d7 bb 0b 84 4c bc f0 3e cf 3b 96 e3 13 3c
       -0.006570643 -0.012482653 0.0063246414 0.009026429
000070 6f 00 01 3b e4 57 9f 3b bd cd 02 bc 17 45 1c 3c
       0.0019684096 0.0048627723 -0.007983622 0.009537957
000080 e7 36 3c bc 46 f5 81 bb 6a 4b aa bb 71 0c cc bb
       -0.011487699 -0.0039660065 -0.0051969783 -0.006227069
000090 48 b3 42 3c d6 0a 37 3c 71 18 f3 3b 84 3f b6 bb
       0.011883564 0.011172017 0.007418685 -0.005561771
0000a0 c2 af 11 bc 3f 06 83 bb 8c ab b8 bb c0 df d2 3a
       -0.008892002 -0.0039985473 -0.0056356844 0.0016088411
0000b0 58 a8 ee 3b e0 ca 5d 3c dc b6 25 3c 76 47 42 bc
       0.0072832517 0.013537139 0.010114398 -0.011857858
0000c0 1b 23 4b 3c 07 69 5b bc ad 44 d1 3a ab a6 e0 3a
       0.0123985065 -0.01339174 0.0015965902 0.0017139515
0000d0 ba 40 28 bb 01 be 91 bb f3 fa cb bb a5 99 07 3c
       -0.0025673346 -0.004447699 -0.006224984 0.008276378
0000e0 49 bc 16 bc 43 85 3a 3b a8 ac aa 3b 22 bd 34 3c
       -0.009200164 0.0028460778 0.0052085705 0.011031421
0000f0 4c bd 91 39 e2 b0 4b 3c 94 6d 67 bc 97 ac 02 bc
       0.00027797592 0.012432309 -0.014125247 -0.007975719
000100 5d 82 4d bc e6 f2 d9 b9 7a 3f 12 bc 99 d5 1d 3c
       -0.012543288 -0.0004157044 -0.008926267 0.009633445
000110 1e d8 e0 bb 5e d6 a0 3a 80 ec 47 3c 45 10 69 bc
       -0.0068617007 0.0012270918 0.012202382 -0.01422507
000120 e8 19 c3 3b a8 70 49 bc d1 30 e5 3b c4 dd 77 bb
       0.005954016 -0.012294926 0.0069943448 -0.0037821392
000130 3a e9 4a bc e1 df 1b 3b 61 24 8a 3a 1e 8a a4 3b
       -0.012384707 0.0023784565 0.0010539406 0.0050213477
000140 1a ce 0d 3c 48 4c c3 ba 9f 55 db bb 23 1f 67 3c
       0.0086550955 -0.0014900053 -0.0066935564 0.014106545
000150 ec 0e 92 bb a4 54 4a 3c 90 b1 1d 3c b2 ec 67 bc
       -0.004457345 0.012349281 0.009624854 -0.014155554
000160 2e f6 88 bb f3 6b 74 3a d4 82 3d bc 43 b3 21 3b
       -0.0041797375 0.0009323947 -0.011566836 0.0024673499
000170 9f 7f c3 bb 54 b7 f2 bb fe 03 30 3c 27 58 cb 3b
       -0.0059661414 -0.0074071083 0.010743139 0.006205577
000180 8c 59 6b 3c c5 80 41 bb 0a 85 86 bb 94 09 17 bc
       0.014364611 -0.0029526216 -0.004105215 -0.009218592
000190 59 07 d6 3a 9b 8a 39 3c aa 10 cf ba 08 d9 a3 bb
       0.0016329094 0.01132455 -0.0015797813 -0.0050002374
0001a0 09 2a 17 3c 1c f2 03 3a b5 59 06 3b 15 db 5e 3c
       0.009226331 0.00050333305 0.0020500247 0.013602038
0001b0 6e 7f 62 3c 25 19 62 3c bf a0 55 bc 72 a3 20 3b
       0.013824327 0.01379994 -0.013038813 0.0024511483
0001c0 55 47 40 3c a0 a9 51 3c fc 39 4d bc 01 6d 2e 3c
       0.011735757 0.012796789 -0.012526032 0.010646106
0001d0 08 87 da bb 87 dc ec bb 39 33 05 bc 2a 68 fb bb
       -0.006668929 -0.0072284373 -0.008129888 -0.0076723294
0001e0 36 ea 13 bb 53 ba 87 b9 a9 38 cf bb 0b fd 17 3c
       -0.002257002 -0.0002588803 -0.006323893 0.009276639
0001f0 b1 ce 07 bc eb ab 52 3c 36 69 55 bc 2a de 9b 3b
       -0.008289025 0.012858371 -0.0130255725 0.0047567086
000200 c0 db 10 bc a4 81 03 bc 16 44 60 3b 48 15 31 bb
       -0.008841455 -0.008026514 0.003422027 -0.0027020741
000210 81 a8 1e bc d7 87 5f ba cb 75 2a bc 2e a5 0c bc
       -0.009683729 -0.00085270166 -0.010404061 -0.008584304
000220 5d c5 0b 3c 83 62 6a 3a 96 90 85 bb eb 5a 3d 3c
       0.008530942 0.0008941071 -0.004076074 0.011557321
000230 96 bf e8 3a 1f 06 2b 3c 09 d6 c3 3b 62 53 9b 3a
       0.0017757292 0.010438471 0.0059764427 0.0011850412
000240 88 48 ae bb 4c d1 cf bb 67 0f 4f 3c af 3d 4a 3b
       -0.005318705 -0.006342089 0.01263795 0.003085952
000250 7c 9c 49 3c 19 50 0d 3c 70 ae 55 ba cf ea 59 bc
       0.012305375 0.008625054 -0.00081512984 -0.013300612
000260 cb bc be 3b d1 da 51 bb fd a5 3d 3b 56 4b ac bb
       0.0058208457 -0.0032021294 0.0028938048 -0.005258004
000270 79 d2 39 3c b7 a1 63 3c 5e 40 0c bc 99 fb 60 bb
       0.0113416845 0.013893536 -0.008560268 -0.0034329651
000280 6b 0a 30 bc 14 f1 e4 3b 1c 59 2b bc 8a db 36 bc
       -0.010744671 0.0069867466 -0.010458257 -0.011160741
000290 92 df 2c bc 1c bb 3e bc 6f ae 36 3c 91 a3 cb bb
       -0.01055135 -0.01164129 0.011149987 -0.006214567
0002a0 78 2f 12 3c 9c e2 82 bb 23 b9 8e bb 42 8f 81 bb
       0.00892245 -0.003994299 -0.004355566 -0.0039538452
0002b0 71 d3 3f bc 64 bf 87 3b 63 3d be bb 7b 93 8d 3b
       -0.011708126 0.0041426886 -0.0058056577 0.0043205596
0002c0 b1 7f 49 bc df f5 13 3b 90 12 40 3c fa 61 91 bb
       -0.01229851 0.002257697 0.011723176 -0.0044367285
0002d0 45 a3 49 3b 0e 77 69 bc 40 2e c1 bb 1e df 43 3c
       0.0030767482 -0.014249576 -0.005895406 0.011955051
0002e0 7a 9a bb 3b 7d 49 ad 3b e5 43 cd 3b d3 24 41 bb
       0.005725202 0.0052883015 0.006264197 -0.0029471412
0002f0 f8 c2 c8 bb 1b 8d 5e 3c 97 6f ad bb 14 e1 96 ba
       -0.0061267577 0.013583447 -0.0052928436 -0.001151117
000300 0d 39 33 bc 97 45 35 3c c3 84 9a bb 9a 55 b0 bb
       -0.010938895 0.011063955 -0.0047155335 -0.0053812983
000310 7b 16 13 bc 2a 2c 5c 3b 67 1c 37 bc fe b3 4b 3c
       -0.008977528 0.003359566 -0.011176205 0.01243305
000320 15 da 2d 3c 5b fa 33 bc 92 fc 58 bc 37 2d 77 3b
       0.010611077 -0.010984982 -0.013243811 0.003771616
000330 ba 9c 0c bc 29 6c 6a bc 0b 7a 14 3c 3b e1 6d bb
       -0.008582288 -0.014308014 0.0090623 -0.0036297578
000340 a6 b8 43 3b d8 55 ca 3a e2 98 13 bc cf 02 e8 bb
       0.0029864698 0.001543696 -0.009008618 -0.007080413
000350 90 6e a4 3b c7 cd 50 bc d6 e7 01 bb 51 74 a6 ba
       0.005018063 -0.012744374 -0.0019822023 -0.001269946
000360 b2 1d 03 bc e6 ba 69 3c e0 8f 51 bc 4d b5 4a bc
       -0.008002685 0.0142657515 -0.01279065 -0.012372327
000370 a5 f7 2a bc 3f 1b 06 3c c4 4d 49 bc 13 8e 0f 3c
       -0.01043502 0.008185207 -0.012286607 0.0087619005
000380 e6 8b 65 3c 92 f3 5d 3c 56 64 5c 3c 5d a7 19 3b
       0.014010405 0.013546841 0.013451656 0.0023445704
000390 01 c8 4e bc 23 a7 67 3b 40 bb c2 3b 67 f3 8e ba
       -0.012620927 0.0035347424 0.005942732 -0.001090628
0003a0 a6 3e 4f bc ec 68 32 3c ff 45 36 3b d5 4c 1f 3c
       -0.012649214 0.010889273 0.0027812717 0.009722908
0003b0 31 d8 d1 ba dd 5f 53 bc 11 64 49 3c 88 73 67 bc
       -0.0016009865 -0.012901274 0.012291924 -0.014126666
0003c0 5e f2 28 bc c8 10 58 3c 89 1f 88 bb 77 69 00 3c
       -0.010311691 0.013187595 -0.00415415 0.007837645
0003d0 cb db 10 3c 10 2b de ba 25 35 3e bb fc 26 d2 3b
       0.008841465 -0.001695009 -0.0029023376 0.0064133387
0003e0 e8 f4 3f bb 15 79 c3 3b df db 95 bb eb bc 01 bc
       -0.0029290263 0.005965362 -0.00457333 -0.007918577
0003f0 5c 5f 15 bc a1 11 6b bc 9f 00 90 bb 6a 12 d8 bb
       -0.009116974 -0.014347465 -0.0043946053 -0.006593992

recurrent.conv_x_r.bias f4 [60]
000000 00 00 00 00 00 00 00 00 00 00 00 00 00 00 00 00
       0.0 0.0 0.0 0.0
000010 00 00 00 00 00 00 00 00 00 00 00 00 00 00 00 00
       0.0 0.0 0.0 0.0
000020 00 00 00 00 00 00 00 00 00 00 00 00 00 00 00 00
       0.0 0.0 0.0 0.0
000030 00 00 00 00 00 00 00 00 00 00 00 00 00 00 00 00
       0.0 0.0 0.0 0.0
000040 00 00 00 00 00 00 00 00 00 00 00 00 00 00 00 00
       0.0 0.0 0.0 0.0
000050 00 00 00 00 00 00 00 00 00 00 00 00 00 00 00 00
       0.0 0.0 0.0 0.0
000060 00 00 00 00 00 00 00 00 00 00 00 00 00 00 00 00
       0.0 0.0 0.0 0.0
000070 00 00 00 00 00 00 00 00 00 00 00 00 00 00 00 00
       0.0 0.0 0.0 0.0
000080 00 00 00 00 00 00 00 00 00 00 00 00 00 00 00 00
       0.0 0.0 0.0 0.0
000090 00 00 00 00 00 00 00 00 00 00 00 00 00 00 00 00
       0.0 0.0 0.0 0.0
0000a0 00 00 00 00 00 00 00 00 00 00 00 00 00 00 00 00
       0.0 0.0 0.0 0.0
0000b0 00 00 00 00 00 00 00 00 00 00 00 00 00 00 00 00
       0.0 0.0 0.0 0.0
0000c0 00 00 00 00 00 00 00 00 00 00 00 00 00 00 00 00
       0.0 0.0 0.0 0.0
0000d0 00 00 00 00 00 00 00 00 00 00 00 00 00 00 00 00
       0.0 0.0 0.0 0.0
0000e0 00 00 00 00 00 00 00 00 00 00 00 00 00 00 00 00
       0.0 0.0 0.0 0.0

recurrent.conv_x_h.weight f4 [2, 1, 160, 60]
000000 c3 f8 13 ba 06 9c 07 3b 6b 82 25 bd a6 5e b8 bb
       -0.00056446734 0.0020692362 -0.04040758 -0.0056265173
000010 ea d4 07 3c 79 74 a5 3b ce aa 13 bc f4 10 4f bc
       0.008290509 0.005049285 -0.009012891 -0.012638319
000020 c2 d1 0a 3c 43 c2 61 bc 44 2f 83 bc 21 e8 17 bb
       0.008472862 -0.013779226 -0.016013749 -0.002317913
000030 d9 ca 88 bc 7d 1c 78 3b bf 9e 49 bc c6 e7 a8 3c
       -0.016698288 0.0037858777 -0.012305914 0.02061833
000040 92 1c 7b bc a1 82 89 3c 92 46 54 3d 60 2b cb 3b
       -0.015326636 0.016785922 0.051825114 0.006200239
000050 4d f7 52 bc d0 7a 68 bc b6 39 a5 3c 8e b5 84 3c
       -0.012876344 -0.014189437 0.02016912 0.016199853
000060 5b 1d 9c bb 4c 93 88 bc 93 63 a0 3b 1f 31 bb 3a
       -0.0047642416 -0.0166718 0.0048946827 0.0014281607
000070 22 8d 9c 3b 28 49 b6 bb 44 26 a3 3a 17 a6 fe ba
       0.0047775665 -0.00556292 0.0012447317 -0.0019428161
000080 2e 13 89 bc f1 6e b8 3c 6c e8 a1 bb ca 61 08 ba
       -0.016732778 0.022513838 -0.004941037 -0.000520256
000090 1e d1 af bb 1f 53 b3 3c ec 98 34 3c a0 7f 26 3c
       -0.005365505 0.021890221 0.011022788 0.010162264
0000a0 47 8c 85 3c c5 aa 6c bc d6 6a d1 3b 53 ee 4a 3c
       0.016302241 -0.0144450115 0.0063909097 0.0123859225
0000b0 cb 77 d3 3a 32 82 c0 bb d5 15 52 bc 64 42 46 3b
       0.0016133724 -0.0058748955 -0.012822588 0.0030251974
0000c0 8b 57 0b 3d 63 de 91 bb 8c b0 38 bb c4 e8 20 3b
       0.034019034 -0.0044515594 -0.0028181402 0.0024552802
0000d0 c5 2e 09 3c f4 6a 35 bc e9 59 90 bb f9 b9 0b 3b
       0.008372967 -0.011072863 -0.0044052494 0.0021320565
0000e0 3e 9e 08 3a e6 7d 8b bc 40 dd f4 ba 66 2c 36 bc
       0.0005211568 -0.017027806 -0.001868166 -0.011118984
0000f0 3f ec 2f bb 17 17 23 3c be 33 eb bc 2b a5 a4 ba
       -0.0026843695 0.0099542355 -0.028711196 -0.0012561431
000100 b1 26 98 3c bb ce a0 bc 8f d5 f2 bb 82 32 cc bb
       0.018573137 -0.019629827 -0.007410712 -0.006231607
000110 0a fb 50 3c 3b 19 cc ba 47 8a 13 bc 0e d1 8e 3b
       0.012755165 -0.0015571484 -0.009005136 0.0043584174
000120 be 04 f9 ba a3 5c 93 bc 78 61 82 bb a0 c6 54 ba
       -0.0018998606 -0.017988509 -0.0039789043 -0.00081167556
000130 bb 2d 73 bc 3c 9f 0a 3d f3 a4 67 3d 65 9d 9e bc
       -0.014842446 0.033843264 0.056553792 -0.019362161
000140 70 0b 30 3c fd 1c b2 bb 5e 14 4f 3b 06 50 30 bc
       0.010744914 -0.0054355846 0.0031597833 -0.010761267
000150 f3 49 cd bb 25 3a 1e ba bd 81 94 bc 18 c4 84 bc
       -0.006264919 -0.0006035886 -0.01812827 -0.016206786
000160 de d5 10 bb 98 6c 19 bc 02 79 c0 3c 54 49 db 3b
       -0.002210013 -0.00936427 0.023495201 0.006692091
000170 f2 63 97 bb 3c a6 00 bb 83 ea 55 bc bb a5 c2 39
       -0.0046200687 -0.0019630333 -0.0130564 0.00037126042
000180 b9 b3 84 bc ca 7e c0 3b b4 f4 5c 3c 99 1a 0a bc
       -0.01619898 0.0058744894 0.013486076 -0.008429193
000190 78 93 13 bc 10 f1 99 bc 6e 66 61 bc 37 6b 9c 3c
       -0.009007327 -0.018791705 -0.013757331 0.019094093
0001a0 49 4f 46 3b f5 4b 8d 3b ff 28 60 bb df 26 32 bc
       0.003025966 0.0043120333 -0.0034204123 -0.010873525
0001b0 a7 38 f0 3c a3 62 a2 bb 7b de f8 3a ce 99 21 ba
       0.029323889 -0.004955606 0.0018987203 -0.0006164581
0001c0 cc 2e 45 ba 39 5c 8c 3b 36 46 d4 ba 35 2a 7f 3c
       -0.0007521927 0.0042834547 -0.0016195241 0.015574028
0001d0 60 b7 87 bb 77 b3 20 bc 19 ce ae bc 3d 54 1e bc
       -0.004141733 -0.009808413 -0.02133851 -0.009663639
0001e0 a0 45 76 bc 36 c4 1a 3c cb 9e 35 bd e3 fd d4 3b
       -0.015031248 0.009446194 -0.04434089 0.006499992
0001f0 b9 21 25 bb db 39 94 bc d9 ef 0b bc 89 b8 43 bc
       -0.0025197102 -0.018093994 -0.008541071 -0.011945852
000200 c3 ac 6e bc 69 79 64 bc 2b 7e 6f 3b 62 55 3c bc
       -0.014567557 -0.013944962 0.0036543708 -0.011494966
000210 cc d2 64 bc 3e 4e 13 3c 89 4c 00 bc 70 da 34 3b
       -0.0139662735 0.008990822 -0.007830747 0.002759602
000220 7b 29 0a 3b 80 02 3e 3d 62 58 65 3d 66 0c fd 3b
       0.0021081853 0.046389103 0.05599249 0.0077224253
000230 6b cf 77 bb ef 45 85 bc 55 27 40 3c 36 95 95 bb
       -0.003781284 -0.016268698 0.0117281275 -0.0045649065
000240 d2 87 64 bc 7c d3 7b bc bc ac 09 3c 6c cf 15 3a
       -0.013948398 -0.015370246 0.0084029995 0.0005714807
000250 60 de b5 bb 97 5a 6b bc ee 78 f8 ba 4d 14 67 3c
       -0.005550191 -0.01436486 -0.0018956938 0.014103961
000260 ae d1 98 3b 95 0c db 3b b4 44 4c bc 16 9c 85 bb
       0.0046636676 0.0066848495 -0.012467552 -0.004077445
000270 61 5f 30 ba 65 83 c6 3b 1b ba 36 bb 19 35 3c bc
       -0.000672808 0.006058144 -0.0027881924 -0.011487269
000280 f7 99 da 3b 6a 50 0b 3b 54 1e 83 bc bd cc 73 3c
       0.006671186 0.0021257647 -0.016005673 0.014880356
000290 93 3c 20 bc 35 69 28 bc 6a d8 05 3a 37 92 24 bc
       -0.009780067 -0.01027899 0.00051057956 -0.010044626
0002a0 82 80 de 3c ae 15 fe 3b cf 50 07 bc a5 6d f0 3b
       0.027160887 0.0077540493 -0.008259012 0.0073372894
0002b0 4a 10 15 bb 45 7e db bb 87 f4 bb ba 1a 69 9a b9
       -0.0022745305 -0.006698402 -0.0014339843 -0.00029451476
0002c0 7c 2b bd b9 73 53 1a bc 59 c4 23 bc 8b 7e 29 bc
       -0.00036081288 -0.00941931 -0.009995543 -0.010345112
0002d0 ad 68 c7 3b 83 a6 2b 3c 94 96 43 bd 85 da fa 3b
       0.0060854764 0.010476711 -0.047751024 0.007655444
0002e0 64 28 3c ba 61 d5 49 bc 62 31 29 bc 27 21 08 3c
       -0.00071776495 -0.01231894 -0.010326715 0.008308685
0002f0 01 a4 9a ba 06 ab da ba 71 65 d8 39 50 c1 38 bc
       -0.0011798145 -0.0016683049 0.0004127431 -0.011276558
000300 16 ef 04 bc 05 8e 04 bc 45 b6 1c bb bd 96 ec 3b
       -0.008113643 -0.008090501 -0.0023912352 0.007220118
000310 19 5c 5f bc 1f b9 a4 3c 12 2c 61 3d 86 f2 fd bb
       -0.013632798 0.020107804 0.05497367 -0.0077498583
000320 2a 42 62 bc ca f3 11 bc c9 a0 c1 3a d0 7b 90 bc
       -0.01380972 -0.0089082215 0.0014772649 -0.017637163
000330 7d 0c 4f bc 33 fe d9 3b 6f eb 10 bc 08 57 81 3b
       -0.012637255 0.0066526174 -0.008845194 0.0039471425
000340 be d6 4b bc 03 ac 31 bc da 77 e7 ba eb 6e 3a 3c
       -0.012441335 -0.010844233 -0.001765962 0.011378984
000350 e5 d2 89 bc d5 1d a2 3b 0b 7a a1 bc 66 48 39 bc
       -0.016824195 0.004947404 -0.019711515 -0.011308765
000360 07 6f 0f bc 9b 12 0f 3c f1 44 87 ba f4 f6 56 bb
       -0.008754498 0.008732463 -0.0010320229 -0.0032801004
000370 fb 18 b6 bb 8d a1 59 bc 5e 8b 4f bb b5 c7 a5 3c
       -0.005557177 -0.013283146 -0.0031668763 0.02023683
000380 25 b9 44 bc e6 c7 62 bc e7 3a 0c bc 81 b8 8f bb
       -0.0120070325 -0.013841605 -0.008558965 -0.0043860083
000390 bd 00 e2 3c fc 50 25 bb e0 a0 31 bc 68 6a 1d 3b
       0.027588243 -0.0025225272 -0.010841578 0.0024019722
0003a0 46 2d bb bb 83 c9 2e bc 67 46 54 bc aa 18 da ba
       -0.005712184 -0.010668161 -0.012956238 -0.001663943
0003b0 92 02 d1 3b 7a 9a 5f bc 2e b5 b5 bc e7 7d b5 3b
       0.0063784802 -0.01364767 -0.02218112 0.0055386904
0003c0 40 e2 a5 bc d7 60 a1 3c 47 b4 c2 bc 55 56 be 3b
       -0.020249486 0.019699497 -0.023767604 0.0058086314
0003d0 6e b4 77 ba 8d a8 e9 3b 2e 12 34 3c 5c e6 24 3c
       -0.00094491884 0.0071306885 0.0109906625 0.010064688
0003e0 59 c6 88 bb 07 46 3d bc 55 2a 16 3c 4b 4e 40 bc
       -0.0041740355 -0.01155234 0.009165366 -0.0117374165
0003f0 db ac 5b 3a a7 0b ec 3a b3 a5 fb 3a d6 2a 23 3c
       0.00083799445 0.0018008844 0.0019199162 0.009958943

recurrent.conv_x_h.bias f4 [60]
000000 d7 c9 c4 bb 93 3e 47 3a 06 c4 10 be 09 bf c4 bb
       -0.0060055065 0.0007600572 -0.14137277 -0.0060042185
000010 8b 28 7d 3b 03 aa c4 bb aa 31 61 bd 99 98 79 bd
       0.0038628902 -0.0060017123 -0.054979004 -0.060936544
000020 de 3d 3f bd 3e bd d9 bb 99 d2 a8 bb b2 9e c4 bb
       -0.04668986 -0.006644874 -0.0051520583 -0.0060003633
000030 de 9c 0f be a5 21 94 bb 16 bf c4 bb 75 84 4d 3d
       -0.14024684 -0.0045206123 -0.0060042245 0.05017515
000040 61 5b 97 bd 91 16 1f 3e 48 10 5a 3e ec bd c4 bb
       -0.07390476 0.15535952 0.21295273 -0.0060040858
000050 01 d6 83 bd 4f 2f af bb 00 43 bd bc 66 29 7f bd
       -0.064373024 -0.005346216 -0.023103237 -0.06229534
000060 bb c6 c4 bb cc 3c 95 bb fc c9 c4 bb c7 d3 c4 bb
       -0.006005136 -0.0045543667 -0.0060055237 -0.006006691
000070 d8 c9 c4 bb 55 9f 08 bc 37 9c 79 3d b4 5c 1a 3d
       -0.006005507 -0.008338769 0.060939994 0.037686065
000080 24 39 c5 bb 9f 60 60 bd 47 1f 0a bc 0c 66 fb bb
       -0.0060187746 -0.054779645 -0.008430309 -0.007672077
000090 73 18 49 3d 0c f2 17 3d a1 e4 48 bd 4f 71 83 bc
       0.049095582 0.03709607 -0.049046163 -0.01604524
0000a0 8a d9 5b bc d8 c9 c4 bb 9b 89 a3 bb f9 b4 3a 3d
       -0.013418565 -0.006005507 -0.004990769 0.045582745
0000b0 eb 2f e4 bb da c9 c4 bb 26 c0 c5 bb ce cb c4 bb
       -0.00696372 -0.006005508 -0.006034869 -0.0060057407
0000c0 56 34 df 3e a0 bc c4 bb 03 11 22 bc c7 a3 93 bb
       0.43594617 -0.006003931 -0.009891751 -0.0045056078
0000d0 65 62 39 bd b3 b9 c4 bb 2a 71 08 bc a0 7d a5 3c
       -0.045259852 -0.0060035824 -0.008327762 0.020201504
0000e0 e4 17 fc bb d8 c9 c4 bb 9d f1 fc bb 00 00 00 00
       -0.0076932777 -0.006005507 -0.0077192322 0.0

linear.weight f4 [20, 60]
000000 34 cf b5 3d 05 8c 42 3d 6f 30 2d 3d aa 9e a5 3d
       0.088774115 0.047496814 0.042282518 0.080869034
000010 c4 7d 22 3a c7 32 c5 3d 97 f6 24 3e b7 04 44 3e
       0.000619855 0.09628826 0.16109692 0.19142424
000020 26 2a 13 3e b4 20 23 3d 87 47 7d bd 86 f9 ef 3c
       0.14371547 0.03982611 -0.061835792 0.029293787
000030 6e 44 8e 3d b6 36 81 bd b0 2d 43 bc e0 d1 c5 3d
       0.06946646 -0.063092634 -0.011912748 0.09659171
000040 9d 13 7c 3d 53 22 0e be 3c 83 65 bd 6f ea d9 bb
       0.061542142 -0.13880281 -0.056033358 -0.006650261
000050 cb a8 12 3e 5b c6 b6 3d 34 b9 f8 3d b6 59 89 3d
       0.14322202 0.08924552 0.121447 0.06706564
000060 6a a6 f2 3d cc fd fb bd 32 8f 69 bd ec 93 38 b9
       0.11848147 -0.12304267 -0.057021327 -0.00017602713
000070 51 d8 4e bd 36 23 94 bd a3 90 1b bd 18 6a 3d bd
       -0.050499264 -0.072332785 -0.037979733 -0.046243757
000080 72 3c 42 3d 31 04 4c 3e 04 37 a8 3d 4f ee 04 3e
       0.047420926 0.19923474 0.082136184 0.12981533
000090 ef e2 45 3e af a0 ec bc 5d 18 38 3d a8 ab 05 bd
       0.1932485 -0.028885214 0.04494511 -0.032634407
0000a0 11 21 32 3e de d0 50 3d 2a 55 f3 3d 13 a5 d5 3d
       0.17395426 0.05098044 0.11881478 0.10431876
0000b0 e2 b5 0c 3e 57 9a 31 bd d0 05 cf 3d 0c 90 3f 3d
       0.13741258 -0.04336008 0.101085305 0.046768233
0000c0 b0 4a 60 be 48 d8 4b bd 09 e8 12 3e 6e 4c 93 3d
       -0.21903491 -0.04976681 0.14346327 0.07192312
0000d0 55 db cf 3d 06 58 ed bd f1 41 62 3b e2 98 d0 3d
       0.10149256 -0.11589055 0.0034524167 0.1018541
0000e0 41 e3 07 be 8f e9 64 bb 52 35 35 bc 48 1c 2b bd
       -0.13270284 -0.003492925 -0.011060076 -0.041775018
0000f0 86 3a 9a bd 80 84 1a bd 35 71 c3 3d 8e cf 07 bd
       -0.07530694 -0.037724018 0.09543077 -0.033156924
000100 ef 65 7f 3d 20 66 4a bc ee 8e 21 3e 39 ae 13 3e
       0.06235307 -0.01235345 0.1577718 0.1442193
000110 d7 11 54 3e ed a0 5b 3d 83 3a 17 bc 95 58 8c bd
       0.2070993 0.053620268 -0.009230259 -0.06852833
000120 8f 60 08 3e a3 14 e6 bd 3a e7 8b bd bf b2 26 3d
       0.13318084 -0.11234405 -0.06831212 0.04069781
000130 a8 33 81 bc 76 1e 8e be 08 23 48 bd df 47 f1 bd
       -0.015771702 -0.27757615 -0.048861533 -0.117812864
000140 0d de a9 bb cd 7b a5 3d 7d 47 c9 3d de a5 23 3e
       -0.005183941 0.08080254 0.098280884 0.15981242
000150 03 0c e9 bd a8 82 d4 3d 34 63 b1 3d 6c cd 22 3d
       -0.11379244 0.10376483 0.086614996 0.039746687
000160 d8 85 90 bd 92 71 41 3b e3 1c c8 3d d2 50 dd 3c
       -0.07056779 0.0029517156 0.09771135 0.027016077
000170 41 0a a3 bc 0b 58 4b 3e c2 54 38 bd 1b 76 03 bd
       -0.01990235 0.19857804 -0.045002706 -0.032095056
000180 dd 46 5f bc db 66 2c 3c 3e 71 f6 3c d0 78 56 bd
       -0.013627735 0.0105225695 0.030083295 -0.05236131
000190 51 6f 13 3e b8 15 c3 bd 9c a2 cf 3d 22 da 01 3d
       0.14397933 -0.09525627 0.10138437 0.03170217
0001a0 37 d1 15 3e 8b ce 04 bc 52 c2 f5 3d 1d d8 c2 bd
       0.1463059 -0.008105884 0.11999954 -0.095138766
0001b0 35 2f 98 be eb 05 59 bc 1f 73 22 3e 3f e5 5c 3d
       -0.29723516 -0.01324604 0.15864228 0.053929564
0001c0 fd dd 1a 3e 9a 92 2f bd 3e ce a5 3d b2 5f 43 3e
       0.15123744 -0.04286442 0.08095978 0.19079474
0001d0 31 6b ab 3d f3 28 65 bd 09 59 9c bc d7 77 d0 bd
       0.083700545 -0.055947255 -0.019085424 -0.10179108
0001e0 ba cc c0 3c a8 1d 03 3e 3f 9e 38 3e 63 fe cd bd
       0.023535121 0.12804282 0.18029116 -0.10058286
0001f0 7f 76 fe 3d fc 8e 1c 3d 91 d6 ac 3c ba cd ae 3d
       0.12424945 0.038222298 0.021098407 0.08535333
000200 68 bb 8e 3b a8 23 12 3d 78 50 cf bd ec 4f ce bd
       0.0043558367 0.035678536 -0.1012277 -0.10073838
000210 61 0f 3d 3d 30 aa a9 bd e2 7b c9 3d 27 af 83 3d
       0.046157245 -0.08284414 0.09838082 0.06429892
000220 1a c2 26 3e 71 91 c8 bd eb d8 77 3d 17 43 0b 3d
       0.16284981 -0.09793366 0.060509603 0.03399953
000230 c3 35 b2 3c c7 e4 b9 bc c1 e7 40 3e 30 18 22 bd
       0.021754151 -0.022692097 0.18838407 -0.03957385
000240 3c ae 8c bd 0b e6 e0 bd d4 2e a8 bd 65 b3 c9 bd
       -0.0686917 -0.10981377 -0.08212057 -0.0984867
000250 6e e7 f1 3d b9 05 aa bd b8 32 e7 3d 8e c5 c8 3d
       0.1181172 -0.08301873 0.11288971 0.098033056
000260 85 83 9d 3d 40 b3 2b bd e3 91 d0 3a f6 1d e8 bd
       0.07691101 -0.041918993 0.0015912618 -0.113338396
000270 25 96 06 3e 1e fe 27 3e 97 30 84 bc fb c3 3f 3e
       0.13143213 0.16405532 -0.01613645 0.18727104
000280 cd a8 4e 3e 73 87 1b bd cd e4 63 3d f7 d4 48 bd
       0.2018158 -0.03797097 0.055638123 -0.049031224
000290 0e 49 57 b9 24 40 8e 3c d7 20 69 bd de 86 3a 3d
       -0.00020531213 0.017364569 -0.056916084 0.045538776
0002a0 b9 a2 7b be a9 b0 69 bd 3d b3 be 3d 97 16 c3 3d
       -0.24573793 -0.057053242 0.09311531 0.09525793
0002b0 00 da a1 3d 8c 65 80 3d 2b 0a e6 bc b4 5b 1f 3e
       0.07902908 0.062693685 -0.02808102 0.15562326
0002c0 86 15 25 bd de 12 b7 3d 3a 90 59 bc e4 24 02 3e
       -0.04030373 0.089391455 -0.013279015 0.12709385
0002d0 e6 7f 99 3c 10 e5 b2 3d 90 ba 4a 3e 47 45 e7 bc
       0.018737745 0.087350965 0.1979773 -0.028231276
0002e0 ab 75 36 3e 41 72 62 bd 22 16 69 3d ca 1c d4 3b
       0.17818324 -0.055284742 0.056905873 0.0064731585
0002f0 8a 43 12 3e 5b d8 d6 3d 04 9d 49 3c ac 22 09 bc
       0.14283577 0.10490485 0.012305502 -0.008370083
000300 b8 c1 e8 3d ed 27 ab 3c 91 c7 8a bb 68 f2 17 3e
       0.11365074 0.020893062 -0.004235216 0.14838564
000310 c2 bd 18 3c c6 eb 4f bd 40 0a 1c 3d ee 9e 04 3d
       0.009322586 -0.05076196 0.038095713 0.03237813
000320 5e d5 1b 3e 66 6b 85 bd b3 10 69 3d 7e 6e a0 3d
       0.15218112 -0.06514625 0.05690069 0.07833575
000330 0b e4 4f 3d 7b 05 72 3d b2 37 f9 3c 37 7d 98 bd
       0.050754588 0.059087258 0.030422065 -0.07445758
000340 6a dd f0 bd 43 b4 92 b8 49 ba 80 3b 41 59 19 3e
       -0.117609814 -6.995399e-05 0.003928457 0.14975454
000350 6f aa bc bd c8 74 99 3d f3 ed 5e bd e1 29 84 bd
       -0.09212195 0.074929774 -0.054426145 -0.064533
000360 7e 8d ba 3d be 66 34 3d 6d b0 cb 3d f8 24 91 ba
       0.09109019 0.044043295 0.0994576 -0.001107364
000370 03 f5 29 3d 29 67 89 bd e5 21 db bc 85 00 18 3e
       0.041493427 -0.06709129 -0.02674956 0.14843948
000380 d1 59 08 3e 45 df ce 3d cf 6c 9a bd 16 08 9b bd
       0.13315512 0.10101179 -0.07540285 -0.07569902
000390 80 0f 7d bd b4 e2 e6 3c 66 42 88 bc 9c 18 e5 bc
       -0.06178236 0.028184272 -0.016633224 -0.027965836
0003a0 50 ec d8 3d ea f6 e5 3d a2 00 9d bd 5e 19 3a 3e
       0.10591948 0.11228736 -0.07666136 0.1817374
0003b0 38 fc c0 3d 9f be 0a 3d 6e 8c b3 bd f9 bb 49 3c
       0.09423107 0.033873197 -0.08767019 0.012312883
0003c0 fa 36 72 3d 49 f4 6a 3d 06 b7 26 3d 7a b5 32 3d
       0.05913446 0.057361875 0.04070189 0.0436301
0003d0 e4 80 0a bd 8a 17 bc 3d 5d 0d d1 3d 8c b0 c9 3c
       -0.033814326 0.09184177 0.10207627 0.024620317
0003e0 7b 48 01 3d de ea 85 bd 58 1c 39 3b 50 8a ac 3d
       0.031563263 -0.06538938 0.0028245654 0.084248185
0003f0 6d bf 4c 3e 17 81 0d 3d 98 3a f7 3c 0c ab 30 3e
       0.19994898 0.034546938 0.030179307 0.17252749

linear.bias f4 [20]
000000 30 a8 ae 3d b3 c2 00 3e 9d ca 6a 3d 1f 3f 73 bc
       0.08528173 0.12574272 0.057322133 -0.014846592
000010 a9 83 b2 3d d8 41 34 3d 7d 25 4f 3d 13 a0 89 3d
       0.087165184 0.044008106 0.05057286 0.06719985
000020 48 88 d2 bc 28 91 21 3e b7 c5 f2 3d 0e e2 1a 3d
       -0.02569975 0.15778029 0.11854117 0.03781324
000030 5f 6c 1c 3b ae 27 14 3e b8 93 89 3c a0 2c d1 3d
       0.0023868305 0.14468262 0.01679407 0.1021359
000040 6a 3a ec 3b 08 96 d8 3c c2 02 20 3e 7f 5a c4 3d
       0.007209112 0.026438728 0.15626052 0.09587573
