TFM/experimentos_split/results/bus_trip/STConv.pt (torch, 36922 bytes, 21 tensors)

recurrent._temporal_conv1.conv_1.weight f4 [32, 1, 1, 3]
000000 8a d7 da 3e 22 a2 ed 3e d9 56 1b be b5 c3 04 3f
       0.42742568 0.4641276 -0.15169849 0.51861125
000010 10 7d 0b be 51 a0 df 3d c0 1d 8e be 7c 23 b0 3e
       -0.13621926 0.1091925 -0.27757072 0.34402072
000020 9f c9 04 3f d8 39 d9 be 98 31 01 3f 5e 24 e9 3d
       0.5187015 -0.42426944 0.504663 0.113838896
000030 0a 48 d2 3e fc ec 81 3d c7 77 87 3e 6f 10 9a bd
       0.41070586 0.06344029 0.2645857 -0.07522666
000040 b7 df e7 3e 07 9d c2 3d 5e 9f 3b be c3 99 66 3e
       0.45287868 0.09502607 -0.18322513 0.22519593
000050 08 39 a0 be b3 73 4b bd c3 0f 5f be e7 91 cb 3e
       -0.3129351 -0.049670886 -0.21783356 0.39759752
000060 28 57 e9 be b5 46 88 be 1c f1 26 be f7 bc b1 be
       -0.45574307 -0.26616445 -0.16302913 -0.3471448
000070 21 33 5f 3d 0a fb 11 bf 5b 42 07 3f 9f cd f6 be
       0.05449212 -0.5702368 0.52835625 -0.4820375
000080 d5 2c ea 3e b6 c6 c4 3d ad f7 3f be 07 ab b6 3e
       0.4573733 0.096082136 -0.18746825 0.35677359
000090 33 7f c6 3d 07 2b f2 3e 7a e3 91 3d 63 73 3a be
       0.0969223 0.47298452 0.07123466 -0.18208079
0000a0 fb d8 1e 3e b6 52 20 be 91 91 81 3e 5f cf 05 3f
       0.15512459 -0.15656552 0.2530637 0.5226955
0000b0 a9 0f ad 3e cb 3a 81 be 30 a4 aa 3e 94 90 d3 3d
       0.3380101 -0.25240168 0.3332839 0.103303105
0000c0 23 1e 96 3e f6 2b b4 be 64 4f 12 bf 4b 94 3e be
       0.29319867 -0.3518979 -0.5715239 -0.18611257
0000d0 9d 22 e1 be 11 c7 fe 3e 0a 2a 2d 3e cf dc 76 3e
       -0.4397172 0.4976125 0.16910568 0.2410767
0000e0 4a e1 3b 3e aa 78 82 bb 9c 49 ec 3e 2c 27 cb be
       0.1834766 -0.0039816694 0.4614991 -0.39678323
0000f0 48 82 f6 3c b5 fa cc be 6e 3e 30 3e e2 99 4b be
       0.03009142 -0.40035024 0.17211315 -0.1988292
000100 c5 27 35 3e 83 58 f6 bd 59 ef 00 3f 33 4d bc be
       0.17690952 -0.12028601 0.50365216 -0.36777648
000110 f2 de f8 be d1 4e b0 be 6c f0 04 3f 31 05 45 3e
       -0.48607594 -0.34435132 0.51929355 0.19240262
000120 5c 79 09 3f 61 e7 fa be 06 29 17 bf 1d 67 9c be
       0.53700805 -0.49004653 -0.5904697 -0.3054742
000130 1f 62 b8 be 0d 45 98 3e 82 5e 48 3e 6d 5c ed 3e
       -0.3601236 0.29740182 0.19567302 0.46359578
000140 74 f4 a2 be 2b 84 c9 be 36 d7 9c 3e e8 f7 6e be
       -0.31827128 -0.3935865 0.30632943 -0.23336756
000150 13 e9 c6 3e ad 27 d9 bd c9 86 b4 3e a1 ac e5 be
       0.38849697 -0.10603271 0.35259083 -0.44858268
000160 18 2d 95 be b7 3e 34 3e 30 f1 f7 3d fb 28 1b be
       -0.29135966 0.17602049 0.1210655 -0.15152352
000170 23 67 ac 3e f2 fb c3 3e d2 28 db be 72 48 a2 be
       0.33672437 0.38278157 -0.4280458 -0.31695896

recurrent._temporal_conv1.conv_1.bias f4 [32]
000000 59 69 03 3f f0 ff 57 be d8 18 49 be 78 f8 09 bf
       0.5133262 -0.21093726 -0.19638383 -0.5389476
000010 bb aa b2 be d3 21 1f 3e b4 81 8b 3d 19 cf d5 be
       -0.34895882 0.15540247 0.06811848 -0.41759565
000020 51 e2 5d 3c d2 eb c9 be 57 35 f5 be 18 c7 a2 be
       0.013542728 -0.3943773 -0.47892258 -0.3179252
000030 52 bf 03 bf ce 38 bc be fa 4d 16 3f 0a 54 df 3d
       -0.51463807 -0.3676209 0.5871273 0.10904701
000040 a3 2f 36 3e 45 2b f1 be 21 1d c2 be aa 93 38 be
       0.1779161 -0.47103325 -0.3791285 -0.1802508
000050 ca 76 b2 3d c8 0d 02 bf 49 ed 24 be eb f7 b0 be
       0.087140635 -0.5080228 -0.16106142 -0.34564146
000060 9b 6e 85 bd b7 e1 d5 bd 5d da 09 bd 42 4f c8 be
       -0.06515237 -0.10443442 -0.033655513 -0.3912297
000070 e9 41 b7 be 9d 74 ac be 2e 7a 50 be 16 89 eb be
       -0.35792473 -0.3368272 -0.20359108 -0.46003026

recurrent._temporal_conv1.conv_2.weight f4 [32, 1, 1, 3]
000000 85 2a f1 3e 2d c3 03 be 46 6e f6 3e 62 92 22 3e
       0.47102752 -0.12867422 0.48131007 0.15876153
000010 2e 2b 02 bf a6 45 c3 3e 8e da 1d be d6 5e 5c be
       -0.50847137 0.38139075 -0.15415403 -0.21520552
000020 f1 15 f0 be 07 c3 12 bf e7 bb 25 3e 5e b0 07 be
       -0.4689174 -0.5732884 0.1618496 -0.13250872
000030 ae 5a 4f 3e 5f c1 fd be 1e a3 d0 3e 7d 0d d7 be
       0.20249435 -0.49561593 0.4074945 -0.42002478
000040 82 82 c1 bd 8c 7c 02 3e df 56 b0 3e f5 c7 15 3f
       -0.094487205 0.12742823 0.34441277 0.58508235
000050 d8 56 23 3f 9a a1 f4 be 42 90 01 3e a1 d8 87 be
       0.6380439 -0.47779542 0.12652686 -0.26532462
000060 15 93 81 bd 94 41 dd be 5d a0 06 3f 4d f5 d8 be
       -0.06326882 -0.43214095 0.52588445 -0.4237465
000070 4e fc 9d 3e 00 c6 4f 3e 70 4e 43 3e 5d ce 9e be
       0.30856556 0.20290375 0.1907289 -0.31016818
000080 a4 d9 07 3f fc ea 01 3e 10 1b 98 3d 3d 40 02 bf
       0.5306647 0.12687296 0.07427037 -0.5087927
000090 5a f8 6f 3e 92 bf c0 bd 33 56 8c be 50 e8 fd 3e
       0.23434582 -0.09411539 -0.27409515 0.49591303
0000a0 0e cf 03 3e e4 8c a3 be 17 c2 8f be 6c 96 98 bc
       0.12871954 -0.3194343 -0.28077766 -0.018626414
0000b0 17 41 a8 3e c3 12 17 be f1 a9 a8 be 5b 74 4a be
       0.3286216 -0.14753251 -0.32942155 -0.19770949
0000c0 7b d6 dc be ef d7 52 3e 12 cf e4 3e 36 77 14 bf
       -0.43132386 0.20590185 0.44689232 -0.579944
0000d0 9f 4d 08 3e e4 27 8e 3e a4 d4 df 3d 6e 32 4e be
       0.1331086 0.2776481 0.1092923 -0.20136425
0000e0 43 14 9c 3e c5 66 8f 3e c9 e8 40 3e 87 d4 05 be
       0.30484208 0.28008094 0.188388 -0.13069354
0000f0 45 3b 10 be ef e2 97 3d 23 27 b8 bd 22 2e 30 be
       -0.1408511 0.07416331 -0.0899184 -0.17205098
000100 a2 f3 bc 3e 97 0a fe 3e 19 86 0d 3e 2a 20 4b bd
       0.36904627 0.49617454 0.13820685 -0.04959122
000110 4c b9 e5 3d 1b 33 0d bd fc 21 0e 3e 0d ad 25 3e
       0.11216983 -0.034472566 0.13880152 0.16179295
000120 8a 31 02 bf 5e d2 4d be a1 3e 00 3f 18 14 51 3d
       -0.5085684 -0.2009978 0.50095564 0.051044554
000130 a6 df 80 bd c8 47 d0 be b9 24 b3 be 41 65 04 bf
       -0.062926576 -0.40679765 -0.34988955 -0.51717
000140 8b 78 44 be 29 a7 47 3e ab 7b bc 3e b2 7a 88 3e
       -0.19186608 0.1949736 0.368131 0.2665611
000150 3c 57 c5 be 19 b9 6b be 8b c6 b4 3c d3 f9 0e 3f
       -0.38543117 -0.23019828 0.022067329 0.5584995
000160 82 0b ab 3d f0 1a 19 be 7e 3d 73 3e 35 45 63 be
       0.08351804 -0.14951682 0.23753926 -0.22194369
000170 f3 dc c0 be 35 95 db 3e b2 b1 81 be 19 7e df bd
       -0.3766857 0.42887273 -0.25330883 -0.10912723

recurrent._temporal_conv1.conv_2.bias f4 [32]
000000 89 c0 16 bf 91 af c1 3e 07 b5 e4 3e 21 f4 43 3e
       -0.58887535 0.3782926 0.44669363 0.19136097
000010 bc 00 d4 be d5 b8 0f bf 14 a3 df be c0 ea d9 3e
       -0.4140681 -0.56141406 -0.43679106 0.42561913
000020 be eb 8d 3e 64 c0 f8 3e 62 3a 9c 3e 39 a1 15 3e
       0.2771892 0.48584282 0.30513293 0.14612283
000030 89 aa 71 3b e1 ce e0 be a4 db f8 be ff 3e 0a bf
       0.0036875329 -0.43907836 -0.48605072 -0.54002374
000040 7c 04 72 3e d9 21 b0 be 3e 13 e4 bd c0 dd b5 be
       0.23634523 -0.34400824 -0.11136483 -0.35520744
000050 81 91 c2 bd 52 0e d0 be 8a 9c 36 be 12 1c 44 3e
       -0.09500409 -0.40635926 -0.17833152 0.19151333
000060 31 32 22 bd b2 d8 88 3e aa 2c 46 be 4d d8 d8 be
       -0.039598648 0.26727825 -0.19352975 -0.42352524
000070 2b 77 c3 bd ff 4a 8f be 7a 58 3c be de 32 0b bf
       -0.09544214 -0.27986905 -0.18393126 -0.5437449

recurrent._temporal_conv1.conv_3.weight f4 [32, 1, 1, 3]
000000 b5 38 9e 3e 0f 9c d5 be a3 ff 8b 3e 31 11 80 3e
       0.3090264 -0.41720626 0.27343473 0.25013116
000010 16 29 ce 3e 7b 81 e6 be 7b 6c d6 3e 6f 3b 89 be
       0.4026572 -0.4502066 0.4187964 -0.26803157
000020 9a f6 64 3e 73 6e 09 3f fe c9 aa bd fe 8a 67 bb
       0.22359696 0.5368416 -0.08339308 -0.0035330649
000030 49 3e 18 be ef 4c fe be 78 e2 86 3e 0c 6b 11 bf
       -0.1486751 -0.4966807 0.26344657 -0.56803966
000040 f3 d7 ba 3e c5 69 e1 3e 7c 75 2a 3f 7e a1 e4 bc
       0.3649288 0.44026008 0.66585517 -0.027909037
000050 cb 0e ff be 2f a8 17 3e f2 fd ab 3e b3 43 0f bf
       -0.49815974 0.1481025 0.33592182 -0.55962676
000060 bb 31 06 be 77 33 b1 be 2a d6 4e bd fd 7f 91 be
       -0.13104908 -0.34609577 -0.05049721 -0.2841796
000070 87 aa 71 be 0d af 3b be a2 b6 0a bf 5c d2 f6 3e
       -0.23600207 -0.18328495 -0.54184926 0.48207366
000080 eb bb fd 3e eb 7b b9 bd da a7 86 bd 81 48 71 be
       0.49557433 -0.090568386 -0.06574984 -0.23562814
000090 53 b4 03 bf f0 2a 0e bf 44 04 64 3e c5 4c a2 be
       -0.5144703 -0.5553427 0.22267252 -0.31699196
0000a0 5d 09 be be e7 82 38 bd fd a1 39 be 17 f3 36 be
       -0.3711652 -0.045046713 -0.181282 -0.17866169
0000b0 a3 51 c2 3c f8 cd fa bd 4f 8f 4b be 60 89 8d be
       0.023720568 -0.12246317 -0.19878887 -0.2764387
0000c0 f1 91 f0 be 92 dd f7 3e e3 97 6c be 8b 5e 44 3e
       -0.46986344 0.48411232 -0.23104815 0.1917669
0000d0 9e e2 49 be 7c 24 90 3d 47 85 0a 3f 8b 2f 89 3e
       -0.19715354 0.07038209 0.54109615 0.26794085
0000e0 d1 b7 ff be 0c 56 73 3e 7b 72 0f 3f f8 32 2c 3e
       -0.49944928 0.23763293 0.5603406 0.16816318
0000f0 4d dd c2 3e 73 0d 10 3f 3d c5 c1 bd 48 6a f5 3d
       0.38059464 0.5627052 -0.09461448 0.11983162
000100 67 74 cd be 16 ab f3 bd 68 69 e7 3e 3d 5d 8c 3e
       -0.4012787 -0.118978664 0.45197606 0.27414885
000110 c6 53 00 bf 36 0a ed be 2c 01 ca be b7 dc 11 bf
       -0.5012783 -0.46296853 -0.3945402 -0.5697741
000120 d0 85 ed be ea 1b 20 be db 68 be 3e e4 86 73 3e
       -0.46391153 -0.15635648 0.37189373 0.23781925
000130 37 81 d2 be 65 fe cb be ea da 8f 3e ac 4b e1 be
       -0.41114208 -0.39842525 0.28096706 -0.44003046
000140 3c ab ae bd 7e cd 8d 3e 0d cf 88 be 24 ee 80 bd
       -0.08528754 0.2769584 -0.26720467 -0.06295422
000150 1c a0 11 bb be e0 c2 bd 5a ef 84 be 8e c1 03 bf
       -0.0022220677 -0.095155224 -0.2596386 -0.51467216
000160 f9 f3 ee be c5 48 9e be 27 6e 0e 3f 40 fe 90 be
       -0.4667051 -0.30914894 0.5563683 -0.28318977
000170 9f 44 ca be ca 76 05 3e 9a 6f 19 3e 43 88 9d 3e
       -0.3950548 0.13033596 0.14983979 0.30768022

recurrent._temporal_conv1.conv_3.bias f4 [32]
000000 9a cb d8 3e 06 1e 9c 3e 06 84 10 bf 54 f7 85 3d
       0.42342836 0.30491656 -0.5645145 0.06541315
000010 dd 57 a9 3e 14 fc 32 bd 56 1e 2b be 27 4f 0e 3f
       0.33074847 -0.04369743 -0.16710791 0.55589527
000020 b5 20 5d be d6 4c a8 be 04 79 02 bf 02 44 d3 3c
       -0.21594508 -0.3287112 -0.50965905 0.025789265
000030 e4 6d 7c 3e 06 df 02 3e 49 45 00 3e 8e 2e e0 be
       0.24651295 0.12780389 0.1252643 -0.43785518
000040 b4 07 0a bf 97 98 a0 3d cc c4 06 3f ad 04 b1 3e
       -0.53918004 0.07841604 0.5264404 0.3457388
000050 76 df ad be c3 7c 99 bd 78 1e ae be 21 9b 8e be
       -0.3395955 -0.074944995 -0.3400762 -0.2785273
000060 c9 92 1f 3d e3 85 d9 3e e7 91 f3 3e 96 b2 07 bf
       0.038958345 0.4248496 0.47572252 -0.53006876
000070 53 87 da 3e 98 7c d0 be 74 ac 56 3e 94 0c f8 3e
       0.4268137 -0.40720057 0.20964223 0.48447096

recurrent._graph_conv.bias f4 [32]
000000 64 f9 4c bc 65 51 1d bc 35 ad 83 3c a1 22 8c bc
       -0.012510631 -0.0096019255 0.016073802 -0.017106356
000010 93 aa 4c 3c f4 c0 46 bc d9 2d af 3c 1d 4c 25 3d
       0.01249184 -0.012130965 0.021384167 0.04035579
000020 c8 d0 b9 39 8f 8d 92 3c e9 5e 02 bb 00 00 00 00
       0.00035441504 0.017889766 -0.0019892997 0.0
000030 14 da 46 bb 66 6d 8b bc 25 d0 3b bc 00 00 00 00
       -0.0030342387 -0.017019939 -0.0114632 0.0
000040 f2 29 51 ba aa 10 a9 bb 74 0a bc 3c a1 d6 84 3d
       -0.00079789676 -0.005159457 0.022954203 0.0648625
000050 dd 2a cf 3d a1 94 df bb 00 00 00 00 22 23 4d 3c
       0.101155974 -0.006823138 0.0 0.012520583
000060 2d bf 79 bb 00 00 00 00 3a 74 4c 3c 00 00 00 00
       -0.0038108334 0.0 0.012478882 0.0
000070 99 a3 84 3d c6 3d 11 3c 41 ee 11 3c c0 b0 aa bc
       0.06476516 0.008864826 0.008906902 -0.020836234

recurrent._graph_conv.lins.0.weight f4 [32, 32]
000000 31 68 87 be 1d 68 49 3e 3b 08 52 be ee d7 68 3e
       -0.2644668 0.19668622 -0.20510952 0.2273862
000010 b3 ec ac 3c 8d 2e 7a 3d b8 79 bf 3e cc 1b 3b be
       0.02110896 0.06107955 0.37397552 -0.18272322
000020 c8 f9 45 bd f0 31 5e 3d 0c 66 a5 3d 77 91 98 be
       -0.048333913 0.054246843 0.080761045 -0.2979848
000030 5b de d1 3d 49 e6 38 be 36 a7 e0 3c 2e 1f 54 3e
       0.10247489 -0.18056597 0.027423482 0.20715019
000040 d4 dc f9 bc ff 8f da bd cb 88 13 bd 3f 14 78 3e
       -0.030500807 -0.10671996 -0.036019128 0.24226473
000050 74 f9 23 3e 58 e8 52 3d 65 61 2c be cc 42 2a be
       0.16013128 0.05149111 -0.16834028 -0.16627043
000060 0b 78 74 3e 33 85 8c 3e aa 55 29 3e eb 77 74 be
       0.23873918 0.27445373 0.16536584 -0.2387387
000070 ee a7 90 3e 62 c5 ef bc 1d f0 5a 3e 24 84 81 3e
       0.2825312 -0.029268924 0.21380658 0.25296128
000080 e5 04 cf 3c 52 93 0a be 41 f1 90 3e 4e 56 2a be
       0.025270889 -0.1353276 0.28309062 -0.16634485
000090 f3 6e 43 3e d0 50 9a be 9b df 91 3d 88 f1 8d be
       0.19085293 -0.3013978 0.071227275 -0.27723336
0000a0 eb a4 0c be 00 22 05 3e 1b 3b 60 be b2 92 87 be
       -0.13734786 0.13001251 -0.21897547 -0.26479107
0000b0 93 52 6b 3e 0a 5f 27 3e f3 23 52 bc 99 07 5d be
       0.22980718 0.16344848 -0.012825954 -0.2158493
0000c0 30 22 a6 bd d2 ac 29 bc 2c 4a 39 3e 61 99 dd bd
       -0.081119895 -0.010356145 0.180947 -0.1082027
0000d0 4d d2 c1 bd 80 40 5e be 4d 7f bc bd 51 c3 29 3e
       -0.0946394 -0.21704292 -0.09203968 0.16578414
0000e0 88 ba 48 3e 04 c3 2e 3d 32 88 00 be d6 92 96 3e
       0.19602406 0.04266645 -0.12551954 0.29408902
0000f0 23 92 09 3d ec 0b f2 bd a4 88 eb bd ad 59 51 bd
       0.033586632 -0.1181868 -0.115006715 -0.051110912
000100 af ad 21 3e e9 b8 fc 3d 9d ef 74 3e cc 15 f8 bb
       0.15788911 0.12339956 0.2391953 -0.0075709578
000110 02 65 8a 3e 77 53 e0 bd 9d e7 1c be ba 5a c8 bd
       0.27030188 -0.1095342 -0.15322728 -0.0978293
000120 94 14 93 be 15 d1 4d be 17 de 7f be ba 3b 94 bc
       -0.28726637 -0.2009929 -0.24987064 -0.018094886
000130 05 4b 6b 3d 3c c0 a2 bd 59 4d 45 be b4 3b 8e 3e
       0.05744459 -0.07946822 -0.19267787 0.27779925
000140 f7 c5 cf bd 7c 55 2d 3e e1 92 66 3e 83 bd 41 be
       -0.10145181 0.16927141 0.22516967 -0.18919949
000150 2a 83 00 bd 7a 36 35 3e c3 07 cb 3e 39 39 1e bd
       -0.031375088 0.17696562 0.3965436 -0.03862879
000160 4d 3f 67 3e e0 e2 8b be 1e b8 39 be 51 ea 80 3e
       0.22582741 -0.2732153 -0.18136641 0.2517877
000170 ad 6d 0e 3b be df 9a 3e 24 55 03 3d 1a 55 e9 bd
       0.0021732852 0.30248827 0.03206362 -0.11393185
000180 22 19 90 3e 7c e7 84 3e 50 d3 ce 3c 1b e2 40 be
       0.28144175 0.2595786 0.025247246 -0.18836252
000190 c5 94 fa bc 12 ca 12 be 31 86 00 3d 84 b4 a5 bb
       -0.030588517 -0.14334896 0.031377975 -0.0050569195
0001a0 f6 02 84 3d d7 25 3e 3e e6 63 f5 3d ab ba 43 be
       0.06445877 0.18569122 0.11981945 -0.19114177
0001b0 90 0e 7c 3e 4c 9e 40 3e cc 97 4e be 83 10 6d 3e
       0.2461493 0.18810385 -0.20175093 0.2315083
0001c0 d9 e6 b1 3d d4 dd 20 be 8e 88 69 be 0f 08 64 bd
       0.08686609 -0.1570962 -0.22805998 -0.055671748
0001d0 5d 68 9b be 10 f4 32 3e ac ba a1 3d 35 88 b4 bd
       -0.3035306 0.17475915 0.07896933 -0.08815042
0001e0 71 59 78 3e 45 17 41 be 44 38 eb 3c 1f 80 5a be
       0.24252869 -0.18856533 0.028713353 -0.21337937
0001f0 5f 9f 73 bd ee 7a fd 3d ad 2c d4 3d b4 9d 93 bc
       -0.05947816 0.123769626 0.10360084 -0.018019535
000200 1d 81 11 be 3c 8e 67 3e c8 71 4f 3e dc 15 76 3d
       -0.14209409 0.22612852 0.20258248 0.06007944
000210 ef c2 03 be 0c c8 a4 3d dc c5 5e bb c1 74 95 3e
       -0.1286733 0.080459684 -0.0033992445 0.2919064
000220 b3 da 39 3d 3c 76 c1 3c 00 68 e2 3c a6 cd 26 3e
       0.045374583 0.023615949 0.027637482 0.16289386
000230 a1 be 12 bb 4c 5f 86 3e 15 37 31 3e 51 ea 6c be
       -0.0022391456 0.2624458 0.17306168 -0.2313626
000240 aa 26 6b b6 60 8d 84 be ad 2c 64 be d5 75 94 3d
       -3.5040234e-06 -0.2588911 -0.22282667 0.07249037
000250 95 83 a3 3d 49 81 db bc b4 2a a9 3e 3d 6f 28 be
       0.07984082 -0.026795046 0.33040392 -0.16448684
000260 f7 00 2f be 2b d5 a3 bd 26 c4 60 3c 02 75 d4 bc
       -0.17090212 -0.07999643 0.01371864 -0.0259347
000270 2b a9 7f 3e 95 6b 04 be 8d 99 1b be 72 96 1f 3d
       0.24966876 -0.12931664 -0.15195294 0.038961835
000280 bd 9a 5d 3e e3 27 6f 3d 93 d0 19 3e 2e e5 2b 3d
       0.21641059 0.05838765 0.15020971 0.04196661
000290 69 8a 80 3e 70 5d 2e 3e 3e 54 93 3e d2 65 61 bd
       0.251056 0.17027831 0.2877521 -0.055028744
0002a0 78 c9 81 be cb ba 14 be e8 a8 ce 3d 90 f5 5b 3e
       -0.2534902 -0.14524381 0.1009081 0.21480393
0002b0 a3 46 d5 bd 59 b6 81 3e c2 c0 02 3d 80 68 9f 3a
       -0.104138635 0.25334433 0.03192211 0.0012161881
0002c0 47 91 43 3c 4a 4f 3b bd b0 62 8b 3e d0 d7 ba ba
       0.011936492 -0.045729913 0.2722373 -0.0014254991
0002d0 c7 4b 2f 3e 56 50 84 be f4 5a b9 bd dc 02 0d 3d
       0.1711875 -0.2584254 -0.09050551 0.034426555
0002e0 41 bc 76 3e d2 5b 24 3e c2 76 42 3d 84 e2 9a be
       0.2409525 0.16050652 0.047476538 -0.30250943
0002f0 d1 1b 4a 3b fb f6 4e be 8a b6 8c be c7 4e e7 3c
       0.0030839334 -0.20211403 -0.27483016 0.028235806
000300 e9 69 39 be 65 77 95 3e 9d 13 6f be 35 38 e9 3d
       -0.18106808 0.29192653 -0.23347326 0.11387674
000310 fd 7d 02 3e da 26 45 be c5 ea 2d 3e d6 2b a1 bc
       0.12743373 -0.19253102 0.16984089 -0.019674223
000320 45 76 22 3e 8e b5 97 3e 19 a0 4a bd 09 cb 07 be
       0.15865429 0.29630703 -0.049469087 -0.13261046
000330 67 1e 79 3e f7 75 0b 3d 4a e1 17 bb 6c de 6d 3e
       0.24328004 0.034048047 -0.0023175054 0.23229378
000340 80 7b 17 be b5 b2 77 bc 72 59 67 3e 7d c4 12 3e
       -0.14793205 -0.015118291 0.22592714 0.14332767
000350 34 36 39 be 58 fc a2 3d c6 87 2b be b9 45 2a be
       -0.18087083 0.07958287 -0.16751012 -0.1662816
000360 44 9b 49 3e 41 e7 ce bd 13 bd 30 be e4 ca b1 3c
       0.19688135 -0.10102702 -0.17259626 0.021703191
000370 51 a5 9c 3d 01 e6 42 be e3 ea 85 be f8 a0 8d be
       0.07648719 -0.19033052 -0.26155767 -0.27661872
000380 51 0c dd 3d 7d 1c 34 be 52 f6 3f 3d 7a 52 78 bd
       0.10793365 -0.17588992 0.04686577 -0.06062553
000390 e8 f3 19 be 19 36 65 bd 02 9d 95 be 3d 19 02 be
       -0.15034449 -0.055959795 -0.2922135 -0.1270494
0003a0 3f 5f 1c bc d5 05 86 be 96 ce 44 be 41 db 6a 3e
       -0.009544193 -0.26176324 -0.19219431 0.22935201
0003b0 7b af fe 3d 74 a9 0a be be 29 08 3d a3 81 68 3e
       0.12435814 -0.13541204 0.033242933 0.22705702
0003c0 1d c9 82 be 19 a2 72 be 11 71 49 be f1 93 a5 3b
       -0.25544062 -0.23694648 -0.19672038 0.0050530364
0003d0 05 8b 22 bb e4 56 74 be d0 13 70 3e fe c4 70 be
       -0.00248021 -0.23861271 0.23445058 -0.23512647
0003e0 1f 5a 45 3e d2 bd bd be 2d 6f 84 3a ef 81 6a 3d
       0.1927266 -0.37058884 0.0010103934 0.05725282
0003f0 e2 d1 a8 bd 7a 2b 90 3e 1a ab 51 be fa bd 65 3c
       -0.08243157 0.2815817 -0.20475426 0.014022345

recurrent._graph_conv.lins.1.weight f4 [32, 32]
000000 d7 5f 7f bd 92 59 46 3d 44 ed c5 3c 01 9e f2 3c
       -0.06234726 0.048425265 0.024160989 0.029616358
000010 f3 c4 44 bd 27 1b 00 3b 23 45 5b 3d 4e 1f 72 3e
       -0.048039388 0.0019547434 0.05353273 0.23644754
000020 20 81 84 3e 88 cd 7f be 53 46 70 be a1 6f 3b bd
       0.25879765 -0.24980748 -0.23464327 -0.045760754
000030 dc 11 45 bc 35 0d 2d 3e 85 45 9a 3e a7 07 a1 3d
       -0.012028184 0.1689957 0.30131164 0.07862788
000040 d8 b0 5e be 16 33 86 3d 68 7e 58 3e 8a 86 01 3e
       -0.21747148 0.065527126 0.2114197 0.12648979
000050 62 45 4f be 2f 67 92 3c 9b 99 9d be f3 ae fc bd
       -0.20241311 0.017871467 -0.30781254 -0.123380564
000060 dc c8 6b 3e d2 81 ee bd 6c db 4b 3e 01 be 7f be
       0.2302584 -0.11645855 0.19907922 -0.24974824
000070 50 f0 71 3e ca 8e 15 3e 35 6d 57 3e 82 50 c6 3d
       0.23626828 0.14605251 0.21037753 0.096833244
000080 6b 67 f7 3c a3 16 12 be 3e b0 27 be 2b 25 50 be
       0.03020068 -0.14266448 -0.16375825 -0.20326678
000090 eb 5d 86 3e c8 27 c9 bd 3f 68 16 be 77 f3 8d be
       0.2624353 -0.09822041 -0.14688204 -0.2772481
0000a0 40 4c a8 3d 68 c2 d5 bd b5 4f 7b be 48 37 1b 3d
       0.082176685 -0.10437471 -0.24542125 0.037894517
0000b0 89 e3 95 be 1e 21 f7 bc f0 10 76 be bf 37 46 3e
       -0.29275158 -0.030167159 -0.24029899 0.19357203
0000c0 7f ff 78 be 4e 96 12 bd 08 d4 23 3e c3 05 72 be
       -0.24316214 -0.035787873 0.15998852 -0.2363501
0000d0 4a c3 51 3e cf 58 7f 3e 1e fa 73 be 0f 09 d2 3c
       0.20484653 0.24936222 -0.23825881 0.025639085
0000e0 24 e3 c0 3d 65 dd 82 3e f3 0b 80 3e 92 7f 83 be
       0.09418324 0.25559536 0.25009117 -0.25683266
0000f0 96 c3 62 be d6 9d 8a be 35 29 02 be cd 6b 5a bd
       -0.22144923 -0.27073544 -0.12711032 -0.053325463
000100 fd 2a fc bd 9a 76 42 3e 45 f4 68 be c2 51 80 be
       -0.12312887 0.18990555 -0.22749431 -0.25062376
000110 3e b8 83 be 44 c9 48 be fe ca 9b 3e c2 be b6 3c
       -0.25726503 -0.19608027 0.30428308 0.022307757
000120 3a 95 5b bd 8b 48 b8 bd 5b cc 85 be bb c0 d4 bd
       -0.05360911 -0.089982115 -0.26132473 -0.10388323
000130 40 13 d1 3d 2d e7 53 3e 13 3b 50 3e fb 92 b2 3c
       0.1020875 0.20693655 0.20335035 0.021798601
000140 5e f0 2a be e5 7c 50 be ae f7 91 3e 7f ef 93 be
       -0.16693255 -0.20360143 0.28509277 -0.2889366
000150 f9 58 86 3d a2 d2 ec bc 0f dd 3c 3e e6 a7 37 3e
       0.06559939 -0.028909031 0.18443702 0.17935142
000160 69 db b3 bd 32 4a 6a be 35 4c af 3c 7b 4c 5b be
       -0.087820835 -0.22879866 0.021398643 -0.21415894
000170 a2 71 8c bd 82 01 9d 3d 77 4b 0e 3e 6d 80 c5 bd
       -0.06857611 0.07666303 0.13895975 -0.09643636
000180 e0 fe 47 be ec 2d 80 be 26 de 90 be 75 39 37 3d
       -0.19530821 -0.25035036 -0.28294486 0.04473253
000190 46 77 2c be e1 b2 20 3c 56 48 28 3d 21 f8 3e be
       -0.16842374 0.009808273 0.04108461 -0.18649341
0001a0 06 6a 53 3e 54 6f 31 3e ad 0b 4d 3e 4a 61 96 3e
       0.20645913 0.17327625 0.20023985 0.293711
0001b0 db 8b 5a be 31 e6 26 be 60 71 5d be 07 88 52 3e
       -0.21342413 -0.16298749 -0.2162528 0.20559703
0001c0 9e bc 38 3e a7 ce b0 3e 51 cd 4f be 23 96 20 be
       0.18040702 0.34532663 -0.20293166 -0.15682273
0001d0 78 30 9c 3e 7e f8 78 be 29 b8 8b bd 26 db e6 3d
       0.3050573 -0.24313542 -0.06822235 0.11272268
0001e0 9c bb 67 be c7 02 3e bc 0c e9 1d 3e e0 6d 80 3e
       -0.22630161 -0.011597342 0.15420932 0.25083828
0001f0 6d 52 2f 3c d4 ba 8a be 4b 87 4f 3e c5 52 a1 3e
       0.010700804 -0.27095664 0.20266454 0.3150846
000200 b4 c3 75 be 0c c3 d4 bc 65 3c 62 be 13 78 2b be
       -0.24000436 -0.025971912 -0.22093351 -0.16745023
000210 96 1f b9 3d bb 23 02 3e b7 48 fd 3d df 3f 9a be
       0.09039228 0.12708943 0.12367385 -0.30126855
000220 b1 04 98 bd 5a a0 05 3e af 7c 12 bd 28 dc c1 bd
       -0.0742277 0.1304945 -0.03576344 -0.094658196
000230 ec 2a 24 be ae a4 94 3e b6 bd 84 be 14 fa 76 be
       -0.16031998 0.2903189 -0.25925988 -0.24118835
000240 2e 7a 64 3e 7e bb 44 be a2 7e 30 3e 18 8b 3a be
       0.22312233 -0.19212148 0.17235807 -0.18217123
000250 75 60 57 bd 43 7d 17 be e1 1b 5a 3e c8 5c 59 3e
       -0.052582223 -0.14793877 0.21299697 0.212268
000260 3e d9 69 3d d3 84 1b 3d ee 34 03 be 41 97 27 be
       0.057091944 0.037968468 -0.1281316 -0.16366293
000270 42 ae c2 bd c9 55 cd 3d 22 a1 82 bd a3 71 47 3e
       -0.09505893 0.10026128 -0.0637839 0.19476943
000280 ef e4 63 3d 15 d4 80 3c b8 be 34 be 89 21 0e 3e
       0.05563825 0.015726129 -0.17650878 0.1387998
000290 c1 cc 8c be 97 cd a9 3d e5 4d 22 3d cc 21 88 3d
       -0.27499965 0.08291166 0.039625067 0.06647071
0002a0 4a a8 5c 3e 33 80 96 3d 0a f5 a9 bd c0 65 5b be
       0.21548572 0.07348671 -0.082986906 -0.21425533
0002b0 b5 77 99 be 47 3c 1e 3e 62 93 34 3e 3c 28 6f be
       -0.29974142 0.15452681 0.17634347 -0.23355192
0002c0 19 e2 a7 3d 80 0a 00 be 00 55 8a 3e 74 82 be bd
       0.081974216 -0.12504005 0.27017975 -0.09302226
0002d0 a2 3d 89 3e 84 c4 5d 3e ce 2d d2 3d 66 45 56 3e
       0.26804835 0.21656996 0.10262643 0.20924911
0002e0 9a bc ca 3d 90 b0 b4 3d d2 d4 80 be 99 28 8f bd
       0.09899254 0.08822739 -0.2516237 -0.06990165
0002f0 48 a7 20 bd 14 21 18 3e 75 84 db bd 37 81 1b 3e
       -0.03922203 0.14856368 -0.107186235 0.1518601
000300 ec 19 44 3e fa ee e9 3d f8 7c 6e 3e d2 a5 72 bd
       0.19150513 0.11422534 0.2328986 -0.05924017
000310 f6 2d 44 3e c4 74 1e be 1e 3c 81 3e 24 f3 08 bd
       0.19158158 -0.1547423 0.25241178 -0.033435002
000320 11 50 92 bc 1c 05 8a be bb c0 4d 3e 33 78 2f bd
       -0.017860444 -0.26957023 0.20093052 -0.04283924
000330 96 07 6a 3e b4 1d 4d be 1c bf 93 be d6 bd 48 bd
       0.22854456 -0.20030862 -0.28856742 -0.049009167
000340 cf b3 7a be da 3d 02 3c c8 6d 7b bc 59 38 0f be
       -0.24482654 0.007949317 -0.015345998 -0.13986339
000350 29 4f 2f 3e 84 20 4b 3e d5 fc ac be db 2d 7b be
       0.17120041 0.19836622 -0.33786646 -0.24529211
000360 af 80 41 3e 0f fe 33 be d3 c4 92 3d 17 01 a7 bd
       0.18896745 -0.17577384 0.071664475 -0.08154505
000370 90 dd 46 3d bd 04 2d be 55 30 54 3d 03 59 07 be
       0.048551142 -0.16896339 0.051803906 -0.13217549
000380 5c c4 2a be e8 d3 2f be 35 5c 4a 3d f2 c2 45 3e
       -0.16676468 -0.1717068 0.04940434 0.19312647
000390 e1 7d 75 bd 19 ad 35 bd 22 ee 95 3e c5 49 57 3e
       -0.0599345 -0.044354532 0.29283243 0.21024235
0003a0 17 10 36 bd 6b 5e 80 be e7 1b 02 ba c2 3a bb 3d
       -0.04444894 -0.25072035 -0.0004963264 0.091420665
0003b0 ca 24 b2 be c9 a1 8c be 1f 9d 51 bc 04 15 99 3e
       -0.34793693 -0.27467182 -0.012793808 0.29898846
0003c0 72 38 8c be 5f 74 9a bd 2c 33 05 be b2 31 98 be
       -0.27386814 -0.07541727 -0.13007802 -0.29725415
0003d0 cb 78 46 be 09 1a 76 3e 8e 27 57 3e 30 aa 66 be
       -0.19382016 0.24033369 0.21011183 -0.22525859
0003e0 52 5b 9a 3d ff 5a ee bd bd 6c a5 3d ed 25 56 be
       0.07536949 -0.1163845 0.08077381 -0.20912905
0003f0 62 32 65 be a3 53 11 be 47 d7 18 3d 89 9b 31 3e
       -0.22382501 -0.14192061 0.03731468 0.17344488

recurrent._temporal_conv2.conv_1.weight f4 [16, 32, 1, 3]
000000 6f cf c3 bc 55 dc ce bd 07 d7 90 3d af fc 8e 3d
       -0.023902623 -0.10100619 0.07072263 0.06981789
000010 3b 10 8a bd cc 26 94 3b 0b 1c 7b 3d 22 94 d3 bd
       -0.06741377 0.0045212265 0.06130604 -0.103309885
000020 05 c2 c5 bd 8f 0d 4f 3d 0b 77 04 bc fd 6b d8 3c
       -0.09656147 0.05055004 -0.008085023 0.02641868
000030 64 2c 47 bd 4c ab 49 3c 16 df 7b 3d c1 74 fe bc
       -0.04862632 0.012308907 0.06149205 -0.031061532
000040 fd e7 1f bd c6 78 d3 bd 84 0d 27 bc e7 b0 8e 3d
       -0.0390396 -0.1032577 -0.0101960935 0.06967335
000050 b9 0d bc bd cb 2b b0 bc f6 c2 6f 3d 03 ad 2f bd
       -0.09182305 -0.021505257 0.05853554 -0.042889606
000060 35 ec 32 bd 1f 73 16 bd 7e de 41 bd b6 fa 4b 3b
       -0.043682296 -0.03673088 -0.047331326 0.0031124777
000070 e6 29 da bd 39 25 f1 3c bb 1a 02 bd 0c 46 9b bc
       -0.10652523 0.029436694 -0.031763773 -0.0189543
000080 3d e9 52 bc fb 88 69 3d 78 d6 81 bd 29 35 be bd
       -0.012872991 0.0570154 -0.06339735 -0.09287483
000090 54 b1 a3 bd 5c c7 a5 bd fe 7c 64 bd 5f 99 98 3d
       -0.07992807 -0.080946654 -0.055783264 0.07451128
0000a0 f5 2d ae bd d1 5d 87 bd 7c 65 aa bd ce 02 52 bd
       -0.08504859 -0.06609691 -0.08320138 -0.051272206
0000b0 38 c6 3b bb 06 e9 7e bd 90 66 8d 3a 2b 46 0d 3d
       -0.0028652083 -0.062233947 0.0010788012 0.034490746
0000c0 09 b6 c0 bc ff 24 1b 3d 02 6d 8d 3c 5d 66 c1 3d
       -0.023524301 0.03787708 0.017263893 0.09443352
0000d0 06 be aa bb 39 2c b5 3d 5f e6 91 3d e8 be 5c 3d
       -0.005210641 0.088463254 0.07124018 0.053893
0000e0 20 96 6c 3d 39 df 96 bd 70 7f 9e bd c6 8f 1d 3d
       0.057760358 -0.07366795 -0.077391505 0.03846719
0000f0 71 72 0f 3d a4 de bf 3d 2c 07 f8 bc 3e f6 ca bc
       0.03502125 0.09368637 -0.030276857 -0.02477562
000100 9c 11 83 3d ca 8b 37 bb 50 3c c4 3d f7 3b 55 bd
       0.06399843 -0.0028006905 0.09581816 -0.05205914
000110 6d 29 09 bd a3 2f e4 ba 00 d5 45 3d b0 d2 c3 bd
       -0.033486772 -0.0017409216 0.048298836 -0.0956167
000120 b4 74 0d bd 92 da 8a 3d 65 26 7b 3c 60 c6 93 3d
       -0.034535125 0.0677997 0.015328978 0.072155714
000130 5a 9b 0d bd b0 c3 83 bd aa c8 9b bd e1 c1 82 bd
       -0.034571983 -0.06433809 -0.07606633 -0.06384636
000140 29 34 aa bd c1 2b 4f 3d c2 ba e0 3c f4 bc 85 bd
       -0.0831073 0.050578836 0.027432803 -0.065301806
000150 b7 78 b7 3d bf ea 27 3d bf 12 ef 3c b5 88 49 bd
       0.089585714 0.040995356 0.029183744 -0.04920264
000160 87 06 84 3d 38 27 a0 bd 1b 8f 8b 3d ce d4 7c bd
       0.064465575 -0.078199804 0.068144046 -0.061726384
000170 94 fe 17 3d 3e c5 2f bd f8 4c 77 3d e2 78 bb bd
       0.03710802 -0.042912714 0.060376137 -0.09153916
000180 6f bc 98 bb 72 2f 49 bc 72 41 3b bd eb 54 03 bd
       -0.004661135 -0.012279378 -0.04571671 -0.032063406
000190 71 53 2f bc a7 17 e9 3c 51 93 aa 3d 6a fd a2 bb
       -0.010701046 0.028453661 0.083288796 -0.004974057
0001a0 aa 2c e7 3d 8d 82 00 bd 13 d3 10 bd 1c 52 42 3c
       0.11287816 -0.031374503 -0.035357546 0.011860397
0001b0 4a ce 8e bb 42 ea 3f 3d 9a 58 df 3d 71 b6 4f 3d
       -0.0043580877 0.046854265 0.10905571 0.0507111
0001c0 ea 8e 8e bd 94 9e 9b bc 43 ce 7b 3d f2 26 54 3b
       -0.069608524 -0.018996514 0.061476003 0.0032371846
0001d0 e3 11 e3 3d 53 b2 aa 3d 37 04 44 3d 0a dc ed ba
       0.11087396 0.08334794 0.047855582 -0.0018147242
0001e0 9a 35 c6 ba fc 20 28 bd dd 75 89 bb 41 73 9b 3d
       -0.0015122176 -0.04104708 -0.0041949586 0.07590342
0001f0 b0 02 97 bd b7 68 a5 bb 4b 32 72 bd 5e 66 47 bc
       -0.073735595 -0.0050478834 -0.059129994 -0.012170402
000200 79 56 b1 3c 4e d5 9d bd 5c 2a e3 3c 3e 7e b3 bd
       0.021647679 -0.077067 0.02773016 -0.08764313
000210 30 df db bc 86 fe af 3d 2e c2 e2 3d a3 44 e6 3b
       -0.026839823 0.08593468 0.11072193 0.007027225
000220 2b df 6c bd 59 73 8c bd 5a 88 b5 bc 92 73 48 bd
       -0.057830017 -0.06857938 -0.022159744 -0.04893834
000230 5e 5a ae 3d 90 01 95 bd d4 a2 7b 3d 29 f7 9e 3c
       0.0851333 -0.07275689 0.061434582 0.019404965
000240 6e 13 88 bc 70 70 c8 3d f3 e8 92 3d 29 c6 cd 3a
       -0.016610827 0.09787071 0.07173338 0.0015699315
000250 f2 2b 83 bd 5f a2 ce bc 24 b3 9f 3d df b1 05 3e
       -0.06404866 -0.025223909 0.0779784 0.13056134
000260 11 b9 c3 3b 8c 46 6f bc d3 86 9f bd be 7b a3 3d
       0.0059729894 -0.014604222 -0.077893876 0.07982586
000270 0d cb e9 3d 00 53 9f 3d 31 c8 71 bd f3 40 b5 3d
       0.11415682 0.07779503 -0.059028808 0.08850279
000280 08 2f 7e bc de 9c 8c 3d 26 70 74 3d 5c 6a aa bd
       -0.015514143 0.068658575 0.059677266 -0.08321068
000290 0c e8 ce 3c 20 fd 5f 3d 32 83 41 bd 2a 81 de 3d
       0.025257133 0.05468476 -0.04724426 0.1086448
0002a0 22 e5 e5 3d 4a 86 f1 3d 2f fe fa 3c bf ab 5f bd
       0.11225344 0.11793192 0.030638782 -0.05460715
0002b0 1c 74 64 bd e4 c1 13 3d 6d 6f 2a bb 9e b2 ca 3d
       -0.055774793 0.03607358 -0.0026006356 0.0989735
0002c0 ae fe d3 3d 7c 0a 01 3c c3 1f ab bd 6c ef 25 3d
       0.10351311 0.007876035 -0.083556674 0.040511534
0002d0 4f 8c b8 3d 26 55 f6 bc c8 c4 7a bd 7a ce 25 bc
       0.09011137 -0.030069899 -0.06122282 -0.010120029
0002e0 c3 15 ec 3c 0b 29 7a bd 8c d4 90 3d 3d 03 76 3d
       0.02881897 -0.061074298 0.0707179 0.060061682
0002f0 b7 a7 b6 bc 84 ce 98 bc c6 8f f2 bc f7 8e c9 3d
       -0.02229677 -0.018653162 -0.029609572 0.098417215
000300 4e a2 99 3d 4c 27 32 3d 13 4d 22 3c 6d d2 e7 3c
       0.0750166 0.043494508 0.009906071 0.028298581
000310 35 e2 cf 3d f4 f3 0f 3d e2 6b 4f bd 2c 1c 22 3d
       0.101505674 0.03514476 -0.050639994 0.039577648
000320 e6 0a 25 bd a1 af a3 ba b9 d1 81 bd 64 d6 1e ba
       -0.040293597 -0.0012488255 -0.063388295 -0.00060591684
000330 3d f7 b6 3b 03 51 7c bd 28 ec 86 3d 30 02 cb 3d
       0.0055836723 -0.061600696 0.06588012 0.099125266
000340 e5 f5 a4 bd 0d 04 0d 3d d0 20 92 bd d2 c7 90 bc
       -0.08054713 0.03442769 -0.07135165 -0.017673407
000350 59 bd 49 3d 83 5c 60 bc 8e fd 9c 3c c1 2e 38 bd
       0.04925284 -0.0136939315 0.019163873 -0.044966463
000360 60 c9 d9 3d 99 dc 1f bd cd ac e5 3c f4 e7 d7 ba
       0.10634112 -0.039028738 0.0280365 -0.0016472326
000370 fb d7 69 3d 4f e7 ac ba a9 ba 88 3d c3 e2 00 3d
       0.05709074 -0.0013191494 0.066762276 0.031466257
000380 a2 00 90 3d 4d 13 a9 3a a4 7e 0b 3d 41 2f ce 3d
       0.07031371 0.0012899429 0.03405632 0.10067607
000390 80 e2 f5 bc 22 1f 1d bd de 5c 9e 3d fb a8 2f 3d
       -0.03001523 -0.03835977 0.07732557 0.04288576
0003a0 16 6d bd bd 4d 7e 24 3d 15 00 cd bd 82 f7 62 bd
       -0.09249322 0.040159512 -0.10009781 -0.055411823
0003b0 92 99 23 3d 61 37 5c 3d 13 c9 bc bc 57 ee b0 3d
       0.039941378 0.05376375 -0.023045098 0.0863921
0003c0 4e ab d6 3d 65 ea a9 3d 8d 0c b9 bd 0b ca 04 bd
       0.104818925 0.0829666 -0.09035597 -0.032419246
0003d0 d1 36 67 3b 86 5f b4 3d 16 ab d4 bc 5e 93 da 3c
       0.0035280476 0.08807282 -0.025960486 0.026681598
0003e0 00 df 53 3d 71 b0 8b bd 64 56 9c bd 75 7c b0 3d
       0.05172634 -0.06820763 -0.07633665 0.08617488
0003f0 e8 6b 7d bc 2f 5b 6e 3d c9 de e5 bd 8b db 24 bd
       -0.015467621 0.05819243 -0.112241335 -0.040248435

recurrent._temporal_conv2.conv_1.bias f4 [16]
000000 f3 f3 7f 3b c0 96 57 3d 46 a2 37 bd d2 8c 87 3d
       0.0039055317 0.052634 -0.04483249 0.06618656
000010 0e 2e d6 bb 92 18 af bd 70 39 28 3d c5 85 d4 bd
       -0.006536252 -0.08549608 0.0410704 -0.10377077
000020 be 85 d9 3a 89 56 8b bd 12 46 fb bc e2 77 96 bc
       0.0016595644 -0.06803615 -0.03067306 -0.018367711
000030 12 20 8e bd c3 a3 2c bd da 5e f8 39 ea a7 6c bd
       -0.06939711 -0.042148363 0.00047372916 -0.057777323

recurrent._temporal_conv2.conv_2.weight f4 [16, 32, 1, 3]
000000 c7 95 a7 3c a9 3b 75 3d 29 94 93 3c 35 29 c1 bd
       0.020457162 0.05987135 0.018014984 -0.09431688
000010 c1 15 b6 3b 88 ec 2b bd 11 e2 11 3d b5 7a 9a bd
       0.0055567925 -0.04197362 0.035615984 -0.07542936
000020 6e 63 83 bd 2a d3 33 3b cb 0e 85 3d 99 20 ad bc
       -0.06415449 0.0027439096 0.06496962 -0.021133708
000030 95 96 64 3a e8 e3 7b bb b9 b5 96 bd 99 d9 fc ba
       0.0008719948 -0.0038435403 -0.073588796 -0.0019290923
000040 53 6a 55 3b 21 9a bc 3c 61 86 24 3d 04 f6 ce 3c
       0.0032564595 0.023022713 0.040167216 0.025263794
000050 bd 67 54 3d 4f c2 c1 bb d0 0f e8 bc 4f 8f cd 3d
       0.051856745 -0.005913056 -0.028327852 0.100370996
000060 2e f4 b2 3d e2 68 7c 3d 0d 92 a4 3d 32 f1 73 3d
       0.0873798 0.06162346 0.080356695 0.059556194
000070 c6 f4 cb 3d 70 ad c9 3d bb 9d 9d bd 70 b2 b8 bd
       0.09958796 0.09847534 -0.076961 -0.09018409
000080 81 3b 40 bd c8 d0 9f 3d 50 bb bc 3d 4f 2a da 3b
       -0.046931747 0.07803494 0.092154145 0.0066578756
000090 8d f0 8d bd 1d 5d 2b bd 14 e8 5f 3d c0 4e cf 3d
       -0.06930647 -0.041836847 0.054664686 0.10122442
0000a0 40 4d d4 3c 3b b8 79 bd 1e 52 c6 3d fa 8a b7 3d
       0.025915742 -0.06096671 0.09683631 0.089620546
0000b0 0d 65 37 bd c7 e2 61 bd a5 56 70 3d ff 0b 97 bd
       -0.044774104 -0.055147912 0.05867638 -0.07375335
0000c0 19 37 bb 3d 2f a6 6b bc 55 34 9e 3b 36 7f 56 bd
       0.091413684 -0.014382883 0.004828016 -0.05236741
0000d0 62 a4 ce bd 78 29 bd 3c 12 c0 ff bc 22 84 84 bd
       -0.10089947 0.023091063 -0.031219516 -0.06470515
0000e0 66 9d a6 3d ea cc c7 3c 98 23 95 bc d4 11 b6 bd
       0.0813549 0.024389703 -0.018205449 -0.08890119
0000f0 48 7e 66 bd 66 cb 0f bd a5 b2 4f 3d 46 25 b2 bd
       -0.056272775 -0.035106085 0.050707478 -0.086985156
000100 fe fe 84 3d af a3 ca 3d 07 5d 01 3d 9b 88 cf bd
       0.064939484 0.098945014 0.03158286 -0.10133477
000110 d4 28 5a 3c 53 45 0f bd 6d 9d 1d 3d de 51 1c 3b
       0.013315398 -0.034978222 0.03848021 0.0023852508
000120 30 08 65 3d 50 65 06 bb 08 80 c7 3c bf 8d 26 3d
       0.05591601 -0.0020507164 0.024353042 0.040662523
000130 58 dd 9a bd e9 6e 8b 3c 58 96 c7 3d 2f 6a 9f 3d
       -0.07561749 0.01702066 0.09745473 0.07783925
000140 b3 06 53 3c 1e 07 93 bc 56 db 2c 3d f1 ce b7 bd
       0.012880015 -0.01794773 0.042201363 -0.08975018
000150 83 fb d6 bc e1 3a 9d 3d d0 57 b6 3c 2a 03 a2 3b
       -0.026242977 0.07677246 0.02225867 0.004944225
000160 93 b3 97 bd 4b 42 75 bd 1c 7a a7 3c 9f 22 90 bd
       -0.07407298 -0.059877675 0.020443968 -0.070378534
000170 c6 00 be bc 79 46 35 bd c0 47 19 3d f6 ab b0 3c
       -0.023193728 -0.04425666 0.03742194 0.021566372
000180 9c c0 9f bd e1 c4 5e 3d d0 d7 3f 3c 1c 4a 10 3c
       -0.07800409 0.054386977 0.011709169 0.008806732
000190 51 fa 06 3e af f4 20 bc dd 30 bf bd 2c 85 47 3c
       0.13181426 -0.009823962 -0.09335492 0.012177747
0001a0 3f 6c 52 bd 1a 3e b8 bc 75 3e 90 bd 2c 44 d2 bb
       -0.051372763 -0.02249055 -0.07043163 -0.006416818
0001b0 b4 f0 b3 3d 5e c5 ad bd 44 6c 77 bd 1f e9 f9 bb
       0.08786145 -0.084849104 -0.060405985 -0.007626667
0001c0 c0 85 87 bd f9 d0 0b 3d 49 a4 b2 3d 35 df 3d 3e
       -0.06617308 0.03413484 0.08722741 0.18542178
0001d0 be 5c 8e 3b 24 0c 84 bc ba 52 ec 3c 80 4a 2a b9
       0.004344552 -0.01611907 0.02884804 -0.00016240217
0001e0 b1 58 3a bd 83 2f a3 3d b1 c2 be bd fa 76 b3 3d
       -0.04549474 0.079680465 -0.09314478 0.08762927
0001f0 bf 61 15 3c 71 be 03 3d ad b5 b2 3d bd 80 cf 3c
       0.009117543 0.03216404 0.08726058 0.025329942
000200 fc 5f d5 3c 6b 88 a9 bc 0f 9e bd bd 4d 1a 30 3d
       0.026046745 -0.020694932 -0.09258663 0.042993832
000210 64 d3 b2 3d 09 70 5b 3d 49 22 93 bb 4d 6d a3 bd
       0.08731726 0.053573642 -0.004490171 -0.07979832
000220 1d 05 27 3c 7f 32 1f 3d 90 60 a1 bd a5 fa b3 3d
       0.01019409 0.038866516 -0.07879746 0.08788041
000230 0b fb ca ba 86 5b e4 3c a6 65 b8 3d 38 7b 35 3d
       -0.0015486194 0.027875673 0.09003763 0.044306964
000240 11 36 41 bd 01 8d 3e 3d ef cc 8e 3d a6 4d 65 3d
       -0.047170702 0.04652119 0.06972682 0.055982254
000250 4a cc 30 bd e2 1f 57 3c 9b 79 0d bc 72 49 50 3d
       -0.043163575 0.01313016 -0.00863495 0.050851293
000260 6c 28 75 bb 11 e0 bc 3d bb 8f 02 3e 40 6c 9f bd
       -0.0037408127 0.09222425 0.12750141 -0.07784319
000270 7a ec aa 3b e8 7b 33 ba 2d 77 21 bd ed 2c e7 3d
       0.0052161785 -0.00068467716 -0.039420296 0.11287866
000280 df e5 70 bd a3 fc 07 bd 6c a4 ad bd d6 87 b1 b9
       -0.058812972 -0.033199918 -0.084786266 -0.00033861276
000290 88 b7 9a bd b3 79 7a bd 22 49 e0 3d 30 5f 5e 3d
       -0.07554537 -0.061151218 0.10951449 0.054289997
0002a0 8d 6b 0a 3e c4 8d 28 3e ef ea e6 3d a5 ac 87 3c
       0.1351759 0.1646033 0.11275279 0.016561816
0002b0 6d fe 9c bd b0 e2 ea 3c 95 ae 88 bd 9e f4 5b 3c
       -0.07665715 0.028672546 -0.06673924 0.0134250205
0002c0 f3 f4 28 bd c3 f4 6c bd 0b c4 74 bd c9 5e 4a bd
       -0.041249227 -0.05785061 -0.059757274 -0.0494068
0002d0 ce fa 44 bd c9 6f 4e bd 86 69 fe bc af ff b2 bd
       -0.04809075 -0.050399575 -0.031056177 -0.08740174
0002e0 2c e8 b5 3d 98 9d 2f 3d f0 ac b7 bd ba 43 b7 bd
       0.08882174 0.042874902 -0.08968532 -0.08948465
0002f0 a4 6b 1c bd 89 26 98 3d e3 07 02 3e ac 35 8a 3c
       -0.03818859 0.07429225 0.12698321 0.016871296
000300 7b cd 92 3d 5c a4 34 bd b9 41 28 bc ea d1 0b bd
       0.071680985 -0.044102058 -0.010269576 -0.034135737
000310 08 74 f0 bd 2a e0 90 bc 76 ad af 3c 59 e4 5d 3d
       -0.11740881 -0.017685015 0.021445017 0.054172847
000320 54 db b1 bd 3e 99 2c bd 04 98 f9 bb 72 93 0f ba
       -0.08684412 -0.04213833 -0.0076169986 -0.0005476988
000330 8a bb ac 3b 81 88 b3 bd a7 ea 89 3d 12 10 cf bd
       0.00527138 -0.087662704 0.067342095 -0.10110487
000340 91 d9 35 bd 8a c5 2b 3d e5 0b 1b bd 60 ce 61 bd
       -0.04439694 0.041936435 -0.03785314 -0.055128455
000350 10 ea e5 bd 97 86 60 3d cf 9f 60 bc ae b7 0a 3d
       -0.112262845 0.054815855 -0.013709976 0.033866577
000360 ee 00 40 3c 42 49 a5 bd 0d c9 25 bd 97 5f 5d 3d
       0.011718972 -0.080706134 -0.04047494 0.05404624
000370 58 34 8d bd 47 af 84 bd 73 fe 39 3d 09 01 61 bd
       -0.068947494 -0.06478744 0.045408677 -0.054932628
000380 87 df ca 3b 4b 3b 4b bd 7d ae 00 3d 44 1a 2a 3c
       0.0061911973 -0.049617093 0.031416405 0.010382239
000390 61 1f bb bd 7a 04 b4 bd bc 9d de 3c e3 b6 31 bd
       -0.091368444 -0.08789916 0.027174823 -0.043387305
0003a0 c6 18 3c 3d 72 7f 97 bb ad f5 0e bd 8a 7d 91 bc
       0.045922063 -0.004623347 -0.034902263 -0.017760057
0003b0 f8 76 3e bd 65 49 4e 3d 69 cc a5 3d 8a 54 50 bb
       -0.046500176 0.050362963 0.08095629 -0.003178867
0003c0 26 d9 99 bd 48 24 83 3d 83 ee 96 3d 0d e9 90 3d
       -0.07512121 0.064034045 0.07369711 0.07075701
0003d0 63 ae bd ba fd 23 b1 3c 90 3d 20 bb 69 5a 0c bd
       -0.0014471527 0.021623606 -0.0024450757 -0.03426591
0003e0 d1 5f c6 bd 8f 7b 15 bd 59 d1 a5 3c 06 c7 11 3d
       -0.09686244 -0.036494788 0.020241426 0.035590194
0003f0 e6 f7 70 3b 6f 05 8b 3c fd 89 0c 3d de a9 f5 bc
       0.0036768853 0.016970364 0.034311283 -0.029988226

recurrent._temporal_conv2.conv_2.bias f4 [16]
000000 1c 06 af bd 06 e6 4a 3d 00 b6 19 3d 0a db 50 bd
       -0.08546087 0.049535774 0.037527084 -0.050990142
000010 ac 90 df 3c cf 1c 8f bc e5 43 8d 3d bc f8 a9 3c
       0.027290665 -0.017469792 0.068977155 0.020748489
000020 a2 e5 b4 bc f1 db 1e 3d 5e 11 cb bd 08 a0 8b 3d
       -0.022082154 0.03878397 -0.09915422 0.06817633
000030 9d d8 e2 3d 32 2c 97 3d 42 80 66 bd e2 2f 29 bd
       0.11076472 0.073814765 -0.05627466 -0.04130543

recurrent._temporal_conv2.conv_3.weight f4 [16, 32, 1, 3]
000000 90 81 4f bd fa cf 1c 3c f9 88 9e bd de f6 a8 bd
       -0.05066067 0.00957107 -0.07740969 -0.08250211
000010 9e b0 3a bd 21 fa aa 3d d2 74 a7 3c c0 51 ca bd
       -0.04557859 0.083484896 0.020441446 -0.09878874
000020 81 17 5d bd 21 06 b2 bd 37 de 9c bc e4 a4 39 bb
       -0.053977493 -0.08692575 -0.019148929 -0.0028327042
000030 88 36 98 bd 6b af af bd 2f 82 d7 bc a7 73 04 b9
       -0.07432276 -0.0857838 -0.026307194 -0.00012631585
000040 32 3d 8d 3d c1 bf fd 3c 91 b0 5c bd 52 de b6 bd
       0.06896438 0.030975224 -0.053879324 -0.08929123
000050 0e 75 c8 3c 04 bd e7 bc 30 12 34 3d aa d7 ac bd
       0.024469879 -0.028288372 0.043962657 -0.08439572
000060 f9 ec 32 bc 34 a1 a4 bd d1 1e 6a bd 31 bf 8d bd
       -0.0109207565 -0.080385596 -0.057158295 -0.069212325
000070 5d 47 f1 bc 39 13 94 bc d2 10 b6 3d a2 11 ad 3d
       -0.029452974 -0.018075572 0.08889927 0.08450629
000080 0f 93 96 3d 3e e4 c7 3c d0 8d d3 3a c9 fd c6 3d
       0.07352268 0.024400827 0.0016140286 0.097163744
000090 69 bf 9c bd 0b 7f cd bd af cc 7a bd 72 1a 90 3d
       -0.07653696 -0.10033997 -0.061230358 0.07036294
0000a0 2c 32 c0 3d ba bc 44 bd d2 47 87 bd 40 b1 b9 bd
       0.093845695 -0.048031546 -0.066054955 -0.09067011
0000b0 4a b4 41 3d 53 5d 28 bd 7b 3c 9c 3d 03 d0 13 bd
       0.047291078 -0.041104626 0.07628723 -0.036087047
0000c0 8a a4 b2 3d 39 58 74 3d 07 39 7a 3d 3f 42 4b 3d
       0.087227896 0.05965445 0.06108954 0.049623724
0000d0 a7 f6 a7 bd 92 70 65 3c f3 41 87 bd 72 df d6 bc
       -0.08201342 0.01400389 -0.06604376 -0.026229594
0000e0 1a 77 81 3d 80 03 6a bd 82 c2 62 3d 19 94 2e 39
       0.06321545 -0.057132244 0.05536128 0.00016649104
0000f0 b7 0c 4e bd 39 9a 44 bd dc a6 f2 bd e4 92 ed 3c
       -0.050305095 -0.04799864 -0.11848232 0.029000707
000100 35 f9 05 bb c3 9f ad 3d 23 ad 16 3d c8 d4 01 3d
       -0.0020442728 0.08477738 0.03678621 0.031697065
000110 7f a8 b1 bb ac 3a 2a 3d cf 34 ae bc 09 80 0e 3d
       -0.0054216976 0.04155986 -0.021265415 0.034790073
000120 66 88 56 bd 56 75 6e 3d 4a c4 b4 3c 64 d6 5c 3d
       -0.052376173 0.05821737 0.022066254 0.053915396
000130 30 db e1 3b 87 69 46 3d 36 de af 3d 77 cb 17 3c
       0.0068925843 0.048440482 0.08587305 0.009264818
000140 ff 41 84 3d 17 61 bf bd 7c 51 04 bc f0 a9 b5 bd
       0.064579 -0.0934469 -0.008076068 -0.08870304
000150 10 53 5c 3b 8d 84 fd 3c 0e 6e a4 3c 6a 46 4b bd
       0.0033618845 0.030946994 0.02007201 -0.0496277
000160 31 5e 2a 3d 3b 43 49 bd 16 e3 03 bd da f6 8f 3d
       0.041593734 -0.04913638 -0.032198988 0.07029505
000170 4e 1c cd bd 5e 56 71 3c 06 f8 bf bd 77 56 1b 3d
       -0.10015164 0.014730064 -0.093734786 0.037924256
000180 50 9e 8f bd 25 3b a5 bd 7d 3d 59 bc 63 63 ca 3d
       -0.070126176 -0.080679215 -0.013259289 0.09882238
000190 54 8d 8c 3d 6a 31 a9 3d 0c 64 44 bc e6 7d d2 3d
       0.06862894 0.08261378 -0.011986744 0.102779195
0001a0 31 d9 06 bd 2c a4 22 3c 26 ff 9c bd 55 ed b5 3c
       -0.032921974 0.009926837 -0.07665853 0.022207895
0001b0 7c 2b 1b 3d 4e 58 aa bd 10 95 ce 3d 85 6a 0f 3d
       0.037883267 -0.08317624 0.10087025 0.035013694
0001c0 c9 c2 e7 3d d5 98 e5 bc 33 e0 ac 3d a0 e4 7c 3d
       0.11316449 -0.028026978 0.084412 0.06174147
0001d0 7c 18 26 3e 51 4c 7b bd 40 22 6b 3d 0c 47 8f bd
       0.16220278 -0.061352078 0.05740571 -0.06995973
0001e0 b9 bd ab 3d e5 07 b3 bd 09 26 2f bd 00 40 70 bd
       0.08385796 -0.0874174 -0.042760883 -0.058654785
0001f0 79 b7 18 bd d4 8e b0 bc 6c 39 47 3d 2a 7b db 3d
       -0.03728435 -0.02155248 0.048638746 0.10716851
000200 87 2a 9b 3d fa 93 49 bd 7e 68 c4 3d 56 3e 76 bc
       0.07576471 -0.049213387 0.09590243 -0.0150295105
000210 55 ba 2b bd 03 d8 59 3d 36 5e 2f bb 5c 75 e6 3d
       -0.041925747 0.05318452 -0.0026759035 0.11252853
000220 e7 01 da 3c 98 b9 a9 3d 9f dd fb 3c 0d 1f 7e bd
       0.026612235 0.08287352 0.030745326 -0.06204133
000230 06 d5 de 3c 02 ec 71 bd 5c e3 df bc 21 ab 06 bd
       0.027201187 -0.059062965 -0.027330093 -0.032878045
000240 cf 90 87 bd b9 cd 5e 3d 33 e8 b2 3d 6a 6f c3 bd
       -0.06619417 0.05439541 0.08735695 -0.09542735
000250 af 9f 78 3d 76 d3 9a bd b4 1f 64 bd 7f 47 9a 3d
       0.06069916 -0.07559864 -0.055694297 0.07533168
000260 5c 74 11 3d 2e 3a 10 bd 96 fa e6 3d fb a2 cb 3c
       0.03551136 -0.035211734 0.11278264 0.024857989
000270 01 66 50 bd 34 16 58 3d ae 52 68 3b 6e a6 8e ba
       -0.05087853 0.05275555 0.0035449672 -0.001088334
000280 e8 df 6a bd 69 8f ff 3b 6e ec 71 3d 5a 3b 4c bd
       -0.05734244 0.0077990782 0.059063368 -0.04986129
000290 ae 8c 40 3d 01 46 b0 bd 30 7f c6 bc 05 d8 8f bc
       0.047009163 -0.08607102 -0.02423057 -0.01755906
0002a0 0a fb 73 bd 5c ee 88 3d e8 32 4f bd a1 f2 71 3d
       -0.05956558 0.066860884 -0.050585657 0.05906928
0002b0 c6 2f ab 3c 59 97 b1 3a 5e ce 15 bd 03 f6 88 bc
       0.020896804 0.0013549133 -0.03657376 -0.01671887
0002c0 87 e1 2f 3d 46 f4 c8 3d c1 3c 48 bd 36 38 8e bd
       0.04293969 0.098122165 -0.048886064 -0.06944315
0002d0 c4 3f 43 bd 5f 98 a1 bd 66 d9 b6 bc 41 16 70 bd
       -0.047668234 -0.078903906 -0.02232046 -0.058614973
0002e0 a3 54 b5 3d a7 fe b2 3d 30 dd 46 bd f0 54 da 3d
       0.08854034 0.08739977 -0.048550785 0.10660732
0002f0 3e b6 1b 3d 1e 71 3d bd b7 17 56 3d 37 69 98 bd
       0.038015597 -0.046250455 0.05226871 -0.07441943
000300 d9 cc 22 bd b4 37 72 bd 22 f9 2c bd 09 05 9c bc
       -0.03974614 -0.059135154 -0.04222978 -0.01904537
000310 44 41 d9 3c 66 c1 b8 3c c4 69 cb bd a7 82 c7 bd
       0.026520379 0.022553157 -0.099322826 -0.09741717
000320 c0 5c 77 bc 37 b2 b7 3d 6b 58 25 3d 94 e2 bf 3d
       -0.015097797 0.08969539 0.040367525 0.09369388
000330 fd 4a 44 bd b4 f3 ec 3c 84 12 b5 bd fd 45 6e 3d
       -0.047923077 0.0289248 -0.08841422 0.058172215
000340 13 08 24 3b 97 72 30 bb bd 97 64 bd 98 d9 b0 bd
       0.0025029227 -0.002692377 -0.05580877 -0.08635253
000350 f7 b2 17 bd d3 76 b2 bc ba 93 87 bd 0e 08 fa 3c
       -0.03703591 -0.021785175 -0.066199735 0.030521419
000360 64 49 0c bc b1 e4 9c 3c d1 f0 af bd 80 95 87 3c
       -0.00856242 0.019152017 -0.08590854 0.01655078
000370 b3 d9 7f bd 7e 20 b6 bd 5c 71 11 bd 7e 0b b3 bd
       -0.062463474 -0.08892916 -0.0355085 -0.08742426
000380 f1 5b 94 bd bf d7 9b 3d 94 17 ab 3d c9 2f 91 bd
       -0.07244099 0.0760951 0.083541065 -0.070891924
000390 97 6e d1 3c 18 87 49 bd 49 a0 ca 3d 14 ed 87 3d
       0.025565429 -0.0492011 0.09893853 0.06637016
0003a0 7a cd 36 3d 6e 18 a2 bd c1 9f 4d bd a9 b6 af bc
       0.04462955 -0.07914816 -0.05020118 -0.021449404
0003b0 06 e1 ba bd 7b 50 74 bd 04 21 dc 3c 0f 29 aa bd
       -0.09124951 -0.059647065 0.026871212 -0.083086126
0003c0 65 36 fc 3c 6b 0a a9 3a 3c a5 9c bb c1 f4 cb bc
       0.030787656 0.0012896782 -0.0047804397 -0.024896981
0003d0 af fd 6e bd f4 e5 b8 bd 5d 6e a0 bd 89 e5 a8 3d
       -0.0583474 -0.09028235 -0.0783355 0.08246905
0003e0 fb ec 1b bc 9a 0a ad 3d 69 e6 16 bc 25 0b dc bc
       -0.00951695 0.08449288 -0.0092102075 -0.026860783
0003f0 7b 88 45 3d 35 13 e1 bd 51 23 9b bd bf a0 6a 3d
       0.04822586 -0.109899916 -0.075750954 0.057282206

recurrent._temporal_conv2.conv_3.bias f4 [16]
000000 c7 cb 0d bd 35 2f 71 bc fa 84 05 3c d3 a8 d0 bd
       -0.034618165 -0.014720728 0.00814938 -0.10188451
000010 3a 2b 87 bd af fa d7 bb 48 17 0e 3d 7b 00 8b 3d
       -0.06600042 -0.006591163 0.03469017 0.06787201
000020 91 93 9a bd 90 6e 6a 3d 71 6c 3b 3d e4 92 4c bd
       -0.07547677 0.057234347 0.045757715 -0.049944773
000030 f7 61 1f 3d 26 da 88 bd f8 f9 be bb f1 87 68 bd
       0.038911786 -0.066822335 -0.0058281384 -0.05677027

recurrent._batch_norm.weight f4 [23]
000000 41 e6 8f 3f dc 4c 90 3f df 3b 90 3f c1 ba 92 3f
       1.1242143 1.1273456 1.1268271 1.1463243
000010 96 06 94 3f 19 13 92 3f 23 f2 92 3f 04 4a 92 3f
       1.156451 1.1412078 1.1480144 1.1428838
000020 f3 44 91 3f 9a fa 91 3f f7 1e 92 3f 11 d5 90 3f
       1.1349167 1.1404603 1.14157 1.1315023
000030 6d 0d 92 3f 3b 99 91 3f 04 05 93 3f 77 9b 92 3f
       1.1410347 1.1374887 1.1485906 1.1453694
000040 50 f3 92 3f 3b bc 92 3f ea 2e 94 3f 96 6b 92 3f
       1.1480503 1.1463693 1.1576817 1.1439083
000050 aa 4e 92 3f aa 69 92 3f bb 00 91 3f
       1.1430256 1.1438496 1.1328348

recurrent._batch_norm.bias f4 [23]
000000 10 fa 0b 3e c4 bf 0e 3e 24 fc 0b 3e 3d 78 21 3e
       0.1366961 0.1394034 0.13670403 0.15768524
000010 1b e1 28 3e a1 b3 1a 3e c1 24 23 3e 0a 9f 1c 3e
       0.16492121 0.15107585 0.15931989 0.15295044
000020 04 1e 16 3e 9f f4 1a 3e 63 27 1c 3e 32 7c 10 3e
       0.14659888 0.15132378 0.152494 0.14109877
000030 ba b9 1d 3e 99 06 17 3e 8e 9c 23 3e 84 75 1f 3e
       0.1540288 0.1474861 0.1597769 0.15572172
000040 bd 85 21 3e 29 83 20 3e 53 36 2c 3e e6 2f 1f 3e
       0.15773673 0.15675034 0.16817598 0.15545616
000050 44 30 1f 3e 09 72 1e 3e 08 da 14 3e
       0.15545756 0.15473188 0.14536297

recurrent._batch_norm.running_mean f4 [23]
000000 8e eb af 3e e1 e7 af 3e 10 01 c0 3e 8f 3b a7 3e
       0.343594 0.34356597 0.3750081 0.32662627
000010 f0 49 a7 3e cc 4e a7 3e 26 7b a7 3e 54 05 a8 3e
       0.32673597 0.32677305 0.32711142 0.32816565
000020 da 45 a8 3e 5b 61 a7 3e 14 0c a9 3e a4 3a a7 3e
       0.32865793 0.32691464 0.33017027 0.32661927
000030 1c ca a7 3e 5a df a7 3e 8e 6e a8 3e 73 26 a8 3e
       0.32771385 0.3278759 0.32896847 0.32841834
000040 9a 9c a8 3e 46 46 a8 3e 90 aa a6 3e 7c 7f a7 3e
       0.32931978 0.32866114 0.32552004 0.3271445
000050 be e9 a8 3e d6 82 a8 3e b3 4b aa 3e
       0.3299083 0.3291232 0.3326088

recurrent._batch_norm.running_var f4 [23]
000000 ba eb 1e 3e 7a d5 1e 3e a5 1e 8b 3e b7 79 31 3e
       0.1551961 0.15511122 0.27171817 0.17331587
000010 c7 49 38 3e f6 fb 33 3e 35 51 36 3e 14 34 35 3e
       0.17996894 0.17576584 0.17804416 0.17695647
000020 fc 24 33 3e 53 fc 30 3e 58 68 37 3e 22 3b 2c 3e
       0.17494577 0.17283754 0.17910898 0.16819432
000030 55 d1 2b 3e df 5a 2d 3e 96 52 30 3e 98 6c 2f 3e
       0.16779073 0.16929196 0.17219004 0.17131269
000040 97 b8 35 3e 56 bb 33 3e 14 ee 34 3e d7 81 30 3e
       0.17746197 0.17551932 0.17668945 0.1723703
000050 80 8f 33 3e a4 28 2c 3e be de 26 3e
       0.1753521 0.16812378 0.16295907
