TFM/experimentos_split/results/clasificacion/MPNN_LSTM.pt (torch, 582278 bytes, 22 tensors)

recurrent._convolution_1.bias f4 [64]
0	0x3c86e7f9	0.016468035
1	0xbc1aa236	-0.009438088
2	0xbbaff462	-0.005369709
3	0x3bc6823f	0.006058007
4	0xbd1dc678	-0.038519353
5	0xbc135159	-0.008991563
6	0xbc06726c	-0.008205991
7	0x3c8bbea4	0.017058678
8	0xbc08eece	-0.008357717
9	0x3c487be7	0.012236572
10	0xbc869467	-0.016428186
11	0xbb435638	-0.002980603
12	0xbc3c46ef	-0.011491521
13	0xbc79ae6b	-0.015239338
14	0x3b8a0100	0.004211545
15	0x3afb08b7	0.0019152377
16	0xbbdde702	-0.006771923
17	0xbc704964	-0.014665935
18	0x3beb6f49	0.007184897
19	0xbc984c1c	-0.01859098
20	0xbd37e25b	-0.044893604
21	0x3ca550e3	0.020180171
22	0xbc82a516	-0.01594786
23	0x3cae0037	0.021240337
24	0x3b320ec4	0.0027169446
25	0x3c1ec22e	0.009689851
26	0x3bcfb83e	0.006339102
27	0xbc95fc5c	-0.01830881
28	0x3c961f42	0.018325452
29	0x3cca8a76	0.024724226
30	0xbc9c2391	-0.019059928
31	0x3b9eb268	0.004843045
32	0xbb2a44a8	-0.0025980864
33	0xbcded213	-0.02719978
34	0x3bb90595	0.0056464174
35	0xbbe427fe	-0.0069627753
36	0x3ca8ac8a	0.020590086
37	0x3d228413	0.039676737
38	0xbc039d14	-0.008033056
39	0xbc7d0160	-0.015442222
40	0x3bd12ff1	0.006383889
41	0x3c87fe41	0.01660073
42	0x3c6ee73b	0.014581497
43	0xbcf96c37	-0.030447109
44	0xbd12c554	-0.035832718
45	0x3cdda214	0.027054824
46	0xbc24e0db	-0.010063375
47	0x3aeff7e5	0.0018308131
48	0x3cf5100e	0.029914882
49	0xbcba7f9c	-0.022765927
50	0x3bba57ac	0.005686721
51	0x3c8d381e	0.017238673
52	0xbb17c1fd	-0.0023156398
53	0x3d824f84	0.06362823
54	0x3a34008c	0.00068665366
55	0x3c7a2e74	0.015269864
56	0x3c0ee4fc	0.008721586
57	0x3c9bb0cf	0.019005207
58	0x3ab86137	0.0014067058
59	0xbc531318	-0.01288297
60	0x3c88bc28	0.016691282
61	0x3cc223e4	0.023698755
62	0xbcf9dcb6	-0.030500751
63	0xbc261697	-0.010137222

recurrent._convolution_1.lin.weight f4 [64, 800]
0	0x3c809283	0.015694862
1	0x3b8e6155	0.004345099
2	0x3dff27a1	0.124587305
3	0xbbeaba0e	-0.0071632927
4	0x3d24d1d3	0.040239166
5	0x3c79f99a	0.015257264
6	0x3d949754	0.07255426
7	0xbbc643b4	-0.0060505513
8	0xbadffa43	-0.0017088134
9	0x3dcfcb34	0.1014618
10	0xbce210ec	-0.02759596
11	0x3d3c7e15	0.04601868
12	0x3d927f77	0.07153218
13	0xbd0080b5	-0.031372745
14	0x3da25da7	0.07928019
15	0xbb99ac91	-0.004689761
16	0x3d4a21a0	0.049348474
17	0xbd260c3f	-0.040539023
18	0x3dbf6222	0.09344889
19	0x3df27d66	0.11840324
20	0x3e01724e	0.1264126
21	0xba96f3c2	-0.0011516737
22	0x3d08efe9	0.03343192
23	0x3ddf3916	0.1089956
24	0x3d2fbad8	0.042902797
25	0x3da6df45	0.08148054
26	0x3dd91437	0.10599559
27	0xbceb3183	-0.028710132
28	0xbcc6ade5	-0.024252841
29	0x3de95ad9	0.11394281
30	0x3bd91f67	0.006626058
31	0xbc46be7d	-0.012130377
32	0x3d76d405	0.06026079
33	0x3cdf61e5	0.02726836
34	0x3c085c72	0.008322822
35	0xbcd1a02a	-0.025589067
36	0x3d482c27	0.048870232
37	0x3c34ecff	0.011042832
38	0xbcf70ccc	-0.03015747
39	0x3ca83741	0.02053416
40	0x3cc222af	0.023698179
41	0xbd3ea57c	-0.046544537
42	0x3db4d622	0.08829905
43	0xbd2c641a	-0.04208765
44	0x3cdc8be7	0.02692218
45	0x3cce4abe	0.025182124
46	0xbc52d34f	-0.012867763
47	0xbd3bb846	-0.045830034
48	0xbb125a21	-0.0022331553
49	0x3c174f15	0.009235163
50	0x3c2102b8	0.009827308
51	0xbb6a5cc3	-0.0035760857
52	0x3d30c739	0.043158744
53	0x3d08bfee	0.033386163
54	0xbd82689e	-0.063676104
55	0xbd3182ca	-0.04333762
56	0xbcae42e7	-0.021272136
57	0x3cb20ead	0.021735514
58	0xbd32242f	-0.04349154
59	0x3d96297e	0.07332133
60	0x3ccb8039	0.024841415
61	0x3d7f5200	0.06233406
62	0x3cf4a597	0.029864116
63	0x3c49519a	0.012287522
64	0x3d03ee22	0.032209523
65	0xbca2c4a1	-0.01986915
66	0x3c1ef039	0.009700828
67	0xbc3e47c5	-0.011613791
68	0x3d9a12d9	0.07523126
69	0x3d0efc60	0.034908652
70	0xbb921500	-0.00445807
71	0x3d8e5f3f	0.069517605
72	0xbd6c936d	-0.057757784
73	0xbd5e2a8a	-0.054239787
74	0xbce19ba3	-0.027540034
75	0x3d336a45	0.04380252
76	0x3c2e4992	0.010637658
77	0xbce495a1	-0.02790338
78	0x3d9aff24	0.075681955
79	0xbb7a30e0	-0.0038176104
80	0x3d084f68	0.033278853
81	0xbc9d3579	-0.019190537
82	0xbc48c008	-0.012252815
83	0xbcc4c908	-0.02402164
84	0xbd8405a8	-0.06446391
85	0x3d3bca9d	0.045847524
86	0xbcdd3ad9	-0.0270056
87	0x3d3a5b21	0.045497064
88	0xbd471fed	-0.04861443
89	0xbd8967f6	-0.06709282
90	0xbd50e13c	-0.05099605
91	0x3c7911a4	0.01520196
92	0x3cb4b1ca	0.022057433
93	0xbd6d421e	-0.057924382
94	0x3d81a4ef	0.06330287
95	0x3d6dd922	0.058068402
96	0xbc91b805	-0.017787943
97	0x3db02e4a	0.08602579
98	0xbceea129	-0.029129582
99	0x3da47b47	0.08031326
100	0xbd996892	-0.07490648
101	0x3dbea290	0.0930835
102	0x3d9beaa6	0.07613115
103	0x3d316b19	0.043315027
104	0x3d6dc2b6	0.05804702
105	0xbd1f30ed	-0.03886502
106	0x3d9cd809	0.07658393
107	0x3d07d435	0.03316136
108	0x3d56d87a	0.052452542
109	0x3d92dff6	0.071716234
110	0xbd814bca	-0.06313284
111	0x3cf012a9	0.029305773
112	0x3cf14c9a	0.029455472
113	0x3d91c325	0.07117299
114	0x3c976204	0.018479355
115	0x3ac3526e	0.0014901885
116	0x3d8ea88f	0.06965744
117	0x3d47025f	0.048586246
118	0x3d184c6b	0.037182253
119	0xbc8b2847	-0.01698698
120	0x3d93447c	0.07190797
121	0xbc69dc98	-0.014273785
122	0x3c1a5ee1	0.009422035
123	0x3ddde73a	0.108351186
124	0x3d3438c2	0.04399944
125	0x3d04a296	0.032381617
126	0x3da1af1b	0.07894727
127	0xbb938297	-0.0045016515
128	0x3d3e52f7	0.04646584
129	0xbd096be5	-0.033550162
130	0x3d79e06f	0.061005052
131	0x3d649bcc	0.055812642
132	0xbccb68c0	-0.024830222
133	0xbdac52b6	-0.08414213
134	0x3d8e27de	0.06941198
135	0xbdb43cf2	-0.08800687
136	0xbbbbe5e7	-0.0057341936
137	0xbcc78ce8	-0.024359182
138	0xbd9c18a1	-0.07621885
139	0xbc959578	-0.018259749
140	0xbd8d8fef	-0.06912219
141	0xbd2387d5	-0.03992446
142	0x3d557cfa	0.05212114
143	0x3a0c4e04	0.00053522014
144	0x3c760da9	0.015017905
145	0xbd62e13f	-0.055390593
146	0x3d01462e	0.03156107
147	0x3d614b5a	0.0550035
148	0xbba4b719	-0.0050267098
149	0xbd82a68e	-0.06379424
150	0x3cf4c7ea	0.029880483
151	0x3cfb8b62	0.030706111
152	0xbde815cc	-0.113322824
153	0xbd839dc8	-0.06426579
154	0xbd3edce8	-0.04659739
155	0xbd843726	-0.06455831
156	0xbde691fd	-0.11258314
157	0x3c0043c0	0.007828653
158	0xbce0adab	-0.027426561
159	0xbbda0c1d	-0.006654276
160	0xbd435d63	-0.047696482
161	0x3d5731c3	0.05253769
162	0xbcf0d136	-0.029396635
163	0x3c4207e9	0.011842706
164	0xbdbafd92	-0.09130396
165	0xb9c0abec	-0.00036749186
166	0x3cd20c8f	0.025640754
167	0xbd2db741	-0.042411093
168	0x3d6d0619	0.057867143
169	0x3da0fb50	0.07860434
170	0xba73b355	-0.0009296437
171	0xbd9db285	-0.077000655
172	0x3d485075	0.048904855
173	0xbd8e0d87	-0.06936174
174	0x3db274be	0.08713673
175	0x3d240f29	0.04005352
176	0xbdc6c0e8	-0.09704763
177	0x3c6cd618	0.014455341
178	0xbc868731	-0.016421886
179	0xbdbfbec3	-0.09362557
180	0xbdc32e23	-0.09530284
181	0xbd9ed0eb	-0.07754692
182	0x3b45667d	0.0030120902
183	0xbd801cb8	-0.06255478
184	0x3d7a3ccd	0.06109314
185	0x3d47191e	0.048607938
186	0x3da504d5	0.08057562
187	0x3cc36eae	0.023856487
188	0x3c4f5f3d	0.012656984
189	0xbc6307ef	-0.013856872
190	0xbc0b4569	-0.008500435
191	0xbd6be9c0	-0.05759597
192	0x3d2a4eda	0.041579105
193	0x3d365332	0.044512935
194	0xbd518264	-0.05114974
195	0x3d47ff82	0.048827656
196	0x3d2a4e36	0.041578494
197	0x3d552aa6	0.052042626
198	0xbd0d1087	-0.03443959
199	0xbd88322c	-0.066501945
200	0x3d88f52d	0.066873886
201	0x3cd480bf	0.025940297
202	0xbd863378	-0.06552786
203	0x3d029dc1	0.031888727
204	0xbb36b8cb	-0.0027881141
205	0x3b8f9e19	0.0043828604
206	0x3a622ffa	0.0008628365
207	0xbd5fa0df	-0.054596778
208	0xbcbf505f	-0.023353754
209	0xbc969a17	-0.018384023
210	0x3cec185b	0.028820207
211	0xbcbe6939	-0.023243533
212	0x3d97187e	0.073777184
213	0xbd772908	-0.060341865
214	0xbbcb9741	-0.006213099
215	0x3cfd5e80	0.03092885
216	0x3d3b953a	0.04579661
217	0xbcc9488c	-0.024570726
218	0x3d98390b	0.07432755
219	0x3da240c8	0.07922512
220	0x3d3aa68a	0.04556898
221	0x3d805532	0.0626625
222	0xbc668731	-0.014070318
223	0x3ca53aa6	0.020169567
224	0x3def165e	0.11674188
225	0x3cd52afa	0.02602147
226	0xbb9d8887	-0.004807535
227	0x3d90e7ae	0.070754394
228	0x3cfe3854	0.031032719
229	0x3d04858e	0.03235393
230	0x3de526f2	0.11189069
231	0xbcdd96a8	-0.027049378
232	0x3dbd70d2	0.092500344
233	0x3d94cffc	0.07266232
234	0x3d10eddd	0.035383094
235	0x3c2983b5	0.010346343
236	0x3daa7d60	0.08324695
237	0x3da954fd	0.08268163
238	0x3cc2b026	0.023765635
239	0x3d408081	0.04699755
240	0x3d9d93a4	0.07694176
241	0x3dad0817	0.08448809
242	0x3cba1fe7	0.02272029
243	0x3cda4ac7	0.026646985
244	0x3df1a8bf	0.11799764
245	0x3d8766ea	0.06611426
246	0xbc9f5462	-0.019449417
247	0x3dd1f7ea	0.10252364
248	0xbd36025e	-0.04443585
249	0x3cb0abef	0.02156636
250	0x3d1f6edb	0.03892408
251	0x3cb2c981	0.0218246
252	0x3d958b34	0.073019415
253	0x3cede77e	0.029041048
254	0x3de66189	0.11249072
255	0x3cf4bc02	0.029874805

recurrent._convolution_2.bias f4 [64]
0	0xbcabe3e8	-0.020982698
1	0xbe347d25	-0.17625864
2	0xbdacf7ff	-0.08445739
3	0xbddae1ec	-0.106876224
4	0xbdd339b3	-0.1031374
5	0xbe0b8354	-0.13624316
6	0xbd836162	-0.06415059
7	0xbdc6842f	-0.09693181
8	0xbc5d725d	-0.013516036
9	0x3b6a8244	0.003578321
10	0x3e8a3e3a	0.270006
11	0xbdfc5757	-0.12321346
12	0xbe2b004e	-0.16699335
13	0xbdcb8a75	-0.09938518
14	0xbd8b9fa1	-0.06817556
15	0xbc856896	-0.016285222
16	0xbe3f9e8b	-0.18712823
17	0xbe3faa49	-0.18717302
18	0xbda85002	-0.08218385
19	0xbda8a559	-0.082346626
20	0xbddfecb9	-0.10933823
21	0xbdb001bc	-0.08594081
22	0xba4b6b40	-0.0007759817
23	0xbcec8fd9	-0.028877186
24	0xbcf43d75	-0.029814461
25	0xbe041149	-0.12897219
26	0xbca4dae4	-0.020123906
27	0xbe1ccbed	-0.15312167
28	0xbdf6cce8	-0.120508015
29	0xbcc308b5	-0.023807863
30	0xbe37f910	-0.17966104
31	0x3b5a4e9e	0.003331102
32	0xbd06f9fd	-0.03295325
33	0x3e5d82c1	0.2163191
34	0xbda65dbd	-0.08123348
35	0xbc44ffb1	-0.012023852
36	0xbd52401e	-0.05133068
37	0xbd9012cf	-0.070348375
38	0xbe14ab60	-0.145185
39	0xbe3a1cc9	-0.18175043
40	0xbd23ee6e	-0.040022306
41	0xbdb8f14f	-0.09030401
42	0xbd661013	-0.056167673
43	0xbd59eaa6	-0.053202294
44	0x3e5b0c78	0.21391475
45	0x3abcbd32	0.0014399646
46	0xbd0d3752	-0.034476586
47	0xbe04c25d	-0.12964769
48	0xbccd05ea	-0.025027234
49	0xbd3c692f	-0.04599875
50	0xbdd44094	-0.1036388
51	0xbda7ea2d	-0.08198962
52	0xbdb62f8a	-0.08895786
53	0x3bd31753	0.0064419894
54	0x3d4aa1b8	0.049470633
55	0xbdeda52a	-0.11603768
56	0x3e5db478	0.21650875
57	0xbd2c9e28	-0.042143017
58	0xbddabdd9	-0.10680742
59	0xbd3515c7	-0.04421022
60	0xbdb2b7a0	-0.0872643
61	0xbe1b9583	-0.15193753
62	0xbbd145ec	-0.006386509
63	0xbe0d97e8	-0.13827479

recurrent._convolution_2.lin.weight f4 [64, 64]
0	0xbe175e0b	-0.14781968
1	0xbd970e6c	-0.07375798
2	0xbc8a7c31	-0.016904922
3	0xbd46f791	-0.04857594
4	0xbd411a77	-0.04714438
5	0xbdba26a7	-0.090894036
6	0x3dfe6c68	0.124230206
7	0xbe343476	-0.17598137
8	0xbe01639c	-0.12635654
9	0x3d850b1a	0.06496258
10	0x3e09791a	0.13425103
11	0xbdce7eeb	-0.100828014
12	0x3c8c087d	0.017093891
13	0xbe4b3de2	-0.19847825
14	0x3e2740ad	0.16333266
15	0x3e23c5c2	0.15993407
16	0x3d7537df	0.059867736
17	0x3d97d033	0.07412758
18	0x3e17feee	0.14843342
19	0xbd3a8244	-0.045534387
20	0x3d46730c	0.04844956
21	0xbe273cf0	-0.1633184
22	0x3d3bde68	0.0458664
23	0xbd236fb3	-0.039901447
24	0x3d09dac8	0.03365591
25	0x3e354652	0.17702606
26	0xbdb22268	-0.08697969
27	0x3e499a48	0.1968776
28	0x3e34a612	0.17641476
29	0x3cb93988	0.02261044
30	0x3e2406d7	0.16018234
31	0x3e0ca290	0.13733888
32	0xbda38eed	-0.07986245
33	0xbdf3f2c7	-0.119115405
34	0xbd37002a	-0.04467789
35	0xbd304891	-0.043037955
36	0xbdf0a7ba	-0.11750741
37	0x3db93116	0.090425655
38	0xbe55b327	-0.20869122
39	0xbd8cc785	-0.06873993
40	0xbe63c272	-0.22242144
41	0xbe696138	-0.22790992
42	0xbe3d6e4a	-0.18499103
43	0xbe0c1852	-0.13681152
44	0x3d6560ef	0.056000646
45	0xbe20dc53	-0.15709047
46	0x3dc92e28	0.09823257
47	0xbe0ce705	-0.13760002
48	0x3e3bd3cc	0.18342513
49	0xbd5410f1	-0.05177397
50	0x3c039ddc	0.008033242
51	0xbdcc8001	-0.09985352
52	0xbe3297c0	-0.174407
53	0x3e157919	0.14596976
54	0xbe331c27	-0.17491208
55	0x3e4ff64c	0.20308799
56	0x3dad7c7f	0.08471011
57	0xbd61b5d5	-0.05510505
58	0xbe0d62cd	-0.13807221
59	0xbe01f657	-0.12691627
60	0x3d0fa958	0.03507361
61	0x3d1d77a3	0.038444173
62	0x3dcf367f	0.10117816
63	0xbde1529b	-0.11002084
64	0x3d6ec357	0.05829176
65	0xbddc5c60	-0.10759807
66	0x3da783d7	0.08179443
67	0xbdc7b18f	-0.097506635
68	0x3de86dcf	0.11349069
69	0x3b982e79	0.004644212
70	0xbdabcba0	-0.08388448
71	0x3d193e59	0.037412975
72	0xbe1906c6	-0.1494399
73	0x3e1b2fca	0.15154949
74	0xbe20aa15	-0.15689881
75	0x3cc0f6a9	0.023555117
76	0xbe497cc4	-0.196765
77	0x3e14bfaa	0.14526239
78	0xbddc5ba7	-0.10759669
79	0x3dcb0a1e	0.09914039
80	0x3d529cfd	0.051419247
81	0xbe0e0902	-0.13870624
82	0xbd3e097c	-0.046395764
83	0x3bd98589	0.006638233
84	0x3e6dccd9	0.23222674
85	0x3dda9a2f	0.106739394
86	0xbc9f5f6a	-0.019454677
87	0x3dc70e97	0.0971958
88	0x3e0e94ed	0.13923998
89	0xbdcf5dc9	-0.1012531
90	0x3ca290ed	0.019844497
91	0xba1f27b6	-0.0006071286
92	0xbe1883b4	-0.14893991
93	0x3cb5b8e7	0.022182895
94	0xbd9ba214	-0.07599273
95	0xbd76a944	-0.060220018
96	0xbe3801d7	-0.17969452
97	0x3e083796	0.13302454
98	0xbd42fb1d	-0.04760276
99	0x3e5f3dea	0.21800962
100	0x3d812594	0.063059956
101	0xbdee39b0	-0.11632097
102	0x3df12f24	0.117765695
103	0x3e46d46f	0.19416974
104	0x3e25cd38	0.16191566
105	0xbe408875	-0.18802054
106	0xbe471df1	-0.19445015
107	0xbd4d5366	-0.050128363
108	0x3dd8d5ee	0.10587679
109	0x3dddeba3	0.1083596
110	0x3da82b18	0.082113445
111	0x3cc8ebe5	0.024526546
112	0x3d80db7e	0.06291865
113	0xbdb8b59e	-0.09019016
114	0x3dd42457	0.10358494
115	0xbdb30e13	-0.08742919
116	0x3d1ee4bc	0.038792357
117	0x3dbebcaa	0.093133286
118	0xbd71a49d	-0.058994878
119	0x3cbe98cb	0.023266217
120	0x3d60c497	0.054874983
121	0x3dfcf3c2	0.123511806
122	0xbda83f1c	-0.08215162
123	0x3dea3f7b	0.11437889
124	0xbdd50a99	-0.10402412
125	0xbe040e73	-0.12896137
126	0xbdd2a30e	-0.102850065
127	0x3dd0d704	0.10197261
128	0xbe5bf3a9	-0.21479668
129	0xbe3c997d	-0.18417926
130	0xbd87761e	-0.06614326
131	0xbdb7ae6b	-0.089688145
132	0x3e0c7c0c	0.13719195
133	0x3d3fe69d	0.04685079
134	0xbe78b92a	-0.24289384
135	0x3d9f9c83	0.07793524
136	0x3df8a921	0.12141634
137	0xbdf37bd6	-0.11888854
138	0xbe3757f4	-0.17904645
139	0xbd4a4e7d	-0.04939126
140	0x3c7962dd	0.015221325
141	0xbe386317	-0.1800655
142	0xbdc55fd0	-0.096374154
143	0x3e038f75	0.12847693
144	0xbde3f53a	-0.11130758
145	0xbe73fc9f	-0.23826836
146	0xbe6e2adf	-0.23258542
147	0x3dddc708	0.10828978
148	0xbca00d40	-0.019537568
149	0xbe1f90e6	-0.15582618
150	0x3cf9649a	0.030443478
151	0xbdddfa49	-0.10838754
152	0x3d52bb9a	0.051448442
153	0xbe20f8ca	-0.15719905
154	0xbd956084	-0.072937995
155	0xbe080fd5	-0.1328729
156	0x3e2ae0a9	0.16687264
157	0xbe5d46fd	-0.21609111
158	0xbd1bf8fe	-0.038079254
159	0x3ca7ed45	0.020498881
160	0xbca17699	-0.019709872
161	0x3e27219e	0.16321418
162	0x3e2d54cf	0.16926883
163	0xbdd328b9	-0.103105016
164	0x3e33e501	0.17567827
165	0x3e074daf	0.13213228
166	0x3e2802f9	0.16407384
167	0xbe6d379b	-0.23165743
168	0x3dbd2e06	0.09237294
169	0xbd9e0a19	-0.0771677
170	0xbe4624f5	-0.19350035
171	0x3d842cfb	0.06453892
172	0xbe4c97af	-0.19979738
173	0x3e248b1d	0.16068693
174	0xbe752f39	-0.23943795
175	0x3a12a16c	0.0005593512
176	0xbcdcd8cc	-0.026958846
177	0x3c2359ad	0.009970111
178	0xbd7ce933	-0.061745834
179	0x3e4d488a	0.20047203
180	0xbdd62807	-0.10456853
181	0x3df9d1d3	0.12198224
182	0xbe32d66b	-0.17464606
183	0xbcb24c3f	-0.021764873
184	0x3e1b8f30	0.1519134
185	0x3c46814b	0.012115787
186	0xbd561207	-0.052263286
187	0xbca29c72	-0.01984999
188	0x3d0d3594	0.034474924
189	0x3d7df176	0.061997853
190	0x3d8c8813	0.068618916
191	0x3c1da4e6	0.009621834
192	0xbde14ad7	-0.11000603
193	0xbe3c1cc9	-0.18370356
194	0x3d9954c3	0.0748687
195	0xbd68d387	-0.056842353
196	0x3e13bc81	0.14427377
197	0xbe719f81	-0.23596002
198	0xbdb5fea9	-0.08886463
199	0x3de39396	0.11112134
200	0x3de20aaa	0.1103719
201	0x3e1caf07	0.15301143
202	0xbe1024df	-0.14076565
203	0x3d588369	0.052859697
204	0x3de6c7d0	0.1126858
205	0x3e1d2b6d	0.15348597
206	0x3e29ee51	0.16594817
207	0xbe19b1b8	-0.150092
208	0x3e36b85d	0.17843767
209	0xbe207e51	-0.15673186
210	0x3cee09bd	0.029057378
211	0x3e21c3bb	0.15797321
212	0x3dc631cd	0.096774675
213	0xbd8eb480	-0.069680214
214	0x3ddc8a04	0.10768512
215	0x3dbf069c	0.093274325
216	0x3d897f77	0.06713765
217	0xbcc89179	-0.02448343
218	0x3e171b42	0.14756492
219	0x3d7bbe66	0.061460875
220	0xbe175406	-0.14778146
221	0x3e1085e8	0.14113581
222	0x3d22a035	0.039703567
223	0x3d4a939f	0.04945719
224	0xbe0a9025	-0.1353155
225	0x3de0ab39	0.10970158
226	0x3e669256	0.2251676
227	0xbe14c64d	-0.1452877
228	0x3dba5c82	0.09099676
229	0xbe25240c	-0.16127032
230	0xbe2ee415	-0.17079194
231	0xbe02a671	-0.12758805
232	0x3e50ffc3	0.20410065
233	0xbd2e9e50	-0.042631447
234	0x3dd6c0bd	0.10485981
235	0x3e095dab	0.13414638
236	0x3e5e1b73	0.21690159
237	0x3e5327db	0.20620672
238	0x3c06ae19	0.008220219
239	0x3e38be54	0.18041354
240	0x3d1f12f3	0.03883643
241	0x3d3f1efa	0.0466604
242	0xbe39f6b5	-0.18160518
243	0xbc41ff3c	-0.011840638
244	0x3e3ac8e1	0.18240692
245	0xbd4347bf	-0.047675844
246	0x3c8985cc	0.016787432
247	0x3deabd17	0.11461847
248	0x3e2c3518	0.16817129
249	0xbd71d003	-0.059036266
250	0x3d4fb7fc	0.05071257
251	0xbd024386	-0.031802677
252	0xbe0fb8dd	-0.14035363
253	0x3e45b525	0.19307382
254	0x3dbaadb3	0.09115162
255	0x3cef6922	0.029224936

recurrent._batch_norm_1.weight f4 [64]
0	0x3f88dbab	1.0692037
1	0x3f82160b	1.0162977
2	0x3f806731	1.0031492
3	0x3f7da2cf	0.9907655
4	0x3f835b4b	1.0262235
5	0x3f7d854d	0.99031526
6	0x3f8925a5	1.0714613
7	0x3f85b343	1.0445331
8	0x3f8ace5e	1.0844228
9	0x3f86d358	1.0533247
10	0x3f829626	1.0202072
11	0x3f6b55ec	0.9192798
12	0x3f8897b5	1.0671297
13	0x3f758d7a	0.95919
14	0x3f888548	1.0665674
15	0x3f81c8f6	1.0139453
16	0x3f871f11	1.0556356
17	0x3f77b286	0.9675678
18	0x3f808a89	1.0042278
19	0x3f841459	1.031871
20	0x3f849af3	1.0359787
21	0x3f834700	1.0256042
22	0x3f8603e2	1.0469935
23	0x3f8b6c70	1.0892467
24	0x3f82cae3	1.0218166
25	0x3f8d316f	1.1030711
26	0x3f803889	1.0017253
27	0x3f784e1d	0.9699419
28	0x3f8101ca	1.0078671
29	0x3f888348	1.0665064
30	0x3f8245b1	1.0177518
31	0x3f7c2b8c	0.9850395
32	0x3f79c093	0.9755947
33	0x3f816db8	1.0111609
34	0x3f810db1	1.0082303
35	0x3f830fb2	1.0239165
36	0x3f82f726	1.0231674
37	0x3f8d3c99	1.1034118
38	0x3f878f62	1.0590632
39	0x3f8601ff	1.0469359
40	0x3f825f4d	1.0185333
41	0x3f877c32	1.0584776
42	0x3f8d8595	1.1056391
43	0x3f85dbda	1.0457718
44	0x3f7bdb5e	0.983816
45	0x3f766ce7	0.9625992
46	0x3f7ce449	0.98785836
47	0x3f892f89	1.0717632
48	0x3f86dfe1	1.0537072
49	0x3f8759f5	1.0574328
50	0x3f8ac928	1.0842638
51	0x3f87c6c4	1.0607533
52	0x3f84e936	1.038367
53	0x3f712131	0.9419127
54	0x3f818c62	1.0120966
55	0x3f880251	1.0625707
56	0x3f86a5e1	1.0519372
57	0x3f82095e	1.0159109
58	0x3f87372d	1.0563713
59	0x3f83c81c	1.0295444
60	0x3f89c286	1.0762489
61	0x3f859810	1.0437031
62	0x3f815ec7	1.0107049
63	0x3f83a815	1.028567

recurrent._batch_norm_1.bias f4 [64]
0	0xbd4cc364	-0.049991027
1	0xbd3d2ed8	-0.04618725
2	0xbdcb1c90	-0.09917557
3	0x3c350194	0.01104774
4	0xbdb0d19d	-0.086337306
5	0xbc3c5821	-0.011495621
6	0xbd905692	-0.07047762
7	0xbd6b94c0	-0.057514906
8	0xbdd7601b	-0.105163775
9	0xbd51a357	-0.051181164
10	0xbd30c330	-0.043154895
11	0x3cb37990	0.021908551
12	0xbd129f6a	-0.03579656
13	0xbd8f52d7	-0.06998222
14	0xbd335af1	-0.0437879
15	0x3d37a968	0.044839293
16	0xbdb5ffe4	-0.08886698
17	0xbda4a43a	-0.08039136
18	0x3c4468e4	0.0119878985
19	0xbd2a2a09	-0.041543994
20	0xbd916f78	-0.07101339
21	0xbcd82a31	-0.026387306
22	0xbe00865e	-0.12551257
23	0xbdd5276e	-0.10407911
24	0x3d475e5f	0.048673984
25	0x3d2f68ab	0.04282443
26	0xbde00065	-0.10937575
27	0x3d0a0cb3	0.033703517
28	0x3da4ad5c	0.08040878
29	0x3ce9d246	0.028542649
30	0x3d8b72ca	0.06809004
31	0xbd984502	-0.07435037
32	0xbd16056b	-0.03662626
33	0xbdc992af	-0.09842431
34	0xbd584215	-0.052797396
35	0xbda7e477	-0.08197873
36	0x3c19af88	0.009380229
37	0x3d91cb55	0.07118861
38	0xbd2b9bae	-0.041896515
39	0xbdb0aa5e	-0.08626245
40	0xbcdd5f8f	-0.027023105
41	0xbd59c258	-0.053163856
42	0x3e018ae6	0.12650642
43	0x3ba9ff4e	0.0051879054
44	0xbd87a65d	-0.06623528
45	0xbdb09958	-0.08622998
46	0x3c1e925b	0.009678449
47	0xbd819705	-0.06327633
48	0xbd6495b5	-0.055806834
49	0xbda08b99	-0.07839126
50	0xbd5bbaba	-0.053644873
51	0xba60a6d9	-0.0008569784
52	0xbdb7834d	-0.089605905
53	0xbc3eb944	-0.01164085
54	0xbd405fb1	-0.04696626
55	0x3d9a3f41	0.07531596
56	0xbd757d62	-0.059934027
57	0xbce01e95	-0.027358333
58	0xbc7cd1c5	-0.015430872
59	0xbdc71c00	-0.097221375
60	0xbc4f8144	-0.012665097
61	0xbd49ff36	-0.049315654
62	0xba991276	-0.0011678475
63	0xbd70af86	-0.058761142

recurrent._batch_norm_1.running_mean f4 [64]
0	0x413763f2	11.461901
1	0x3b4ed391	0.003155921
2	0x3b01fc4d	0.001983422
3	0x41a4917e	20.571041
4	0x3b56fd92	0.0032804948
5	0x3ae2eab6	0.0017312381
6	0x42233053	40.79719
7	0x3b71dc07	0.0036904828
8	0x41e879c7	29.059462
9	0x419d8863	19.691595
10	0x3bde6fc8	0.0067882277
11	0x42279351	41.893864
12	0x3b8f5d30	0.0043751225
13	0x41bff638	23.995224
14	0x420e5636	35.58419
15	0x3ae5563d	0.0017497014
16	0x41b75734	22.91758
17	0x41d7c8ed	26.973108
18	0x40e4d6d3	7.1512237
19	0x41dcd953	27.606115
20	0x3b2e7e1b	0.0026625458
21	0x3b4b43f7	0.0031015852
22	0x41b62c6b	22.771688
23	0x3b8ff85c	0.0043936204
24	0x3b02e8c8	0.0019975174
25	0x3b45907f	0.003014594
26	0x41691d34	14.56963
27	0x41c40f87	24.507582
28	0x3af34358	0.0018559499
29	0x3b1d0813	0.0023961111
30	0x3a7ce389	0.00096469425
31	0x3b2edd09	0.002668204
32	0x3b4c17ca	0.003114211
33	0x3b4e5d48	0.0031488705
34	0x410116e0	8.068085
35	0x3aa33ea1	0.0012454578
36	0x3ab29051	0.0013623332
37	0x3ba115be	0.004915922
38	0x413dd6b2	11.864916
39	0x3b8c75b4	0.0042864922
40	0x421a8c64	38.6371
41	0x3b914f16	0.0044344766
42	0x3b31c1d2	0.0027123583
43	0x419b8d2f	19.443937
44	0x41a7c9f0	20.973602
45	0x3ba0551c	0.0048929583
46	0x41e0f39c	28.11895
47	0x420429f2	33.040962
48	0x3bbac16f	0.0056993286
49	0x3b7a1f86	0.0038165762
50	0x3be82c9a	0.007085395
51	0x3b1bc1bd	0.00237666
52	0x3b527dbf	0.0032118408
53	0x41b520bf	22.64099
54	0x3b902f55	0.0044001737
55	0x3b7ad258	0.0038272347
56	0x422c5563	43.083385
57	0x3b039e63	0.002008342
58	0x3b7b563e	0.0038350965
59	0x3b49e367	0.0030805708
60	0x3b230ce8	0.002487952
61	0x4202576c	32.585373
62	0x41ffa0b5	31.95347
63	0x41acb4d8	21.588303

recurrent._batch_norm_1.running_var f4 [64]
0	0x44267613	665.8449
1	0x3b930db0	0.0044877157
2	0x3ae2bbd8	0.0017298413
3	0x44d436ba	1697.7102
4	0x3ba2bc48	0.0049662925
5	0x3aafc636	0.0013410512
6	0x45ced2bf	6618.3433
7	0x3bca586f	0.006175093
8	0x454fd34a	3325.2056
9	0x44c1cac2	1550.3362
10	0x3c3218b1	0.010870145
11	0x45d96b0d	6957.3813
12	0x3c0a4c08	0.008440979
13	0x4511ee6c	2334.9014
14	0x459b928c	4978.3184
15	0x3abb0d4a	0.0014270928
16	0x44fede23	2038.9418
17	0x452f1e8b	2801.909
18	0x4358f936	216.97348
19	0x453af9d1	2991.6135
20	0x3af1a0bd	0.0018434745
21	0x3b972047	0.004612002
22	0x45015385	2069.22
23	0x3c198abf	0.009371459
24	0x3ae98f0c	0.001781912
25	0x3b9cd924	0.0047866274
26	0x4453c3c0	847.0586
27	0x451633e3	2403.243
28	0x3ac991f6	0.0015378583
29	0x3b205011	0.0024461786
30	0x39e0b7b8	0.0004286149
31	0x3b4cff63	0.0031280152
32	0x3b950de0	0.004548773
33	0x3b964d22	0.0045868317
34	0x437f052a	255.02017
35	0x3a3ef306	0.0007284138
36	0x3a67f323	0.0008848181
37	0x3c2556b1	0.01009147
38	0x441acf73	619.2414
39	0x3c0e59a1	0.008688361
40	0x45b61acf	5827.351
41	0x3c0df03e	0.008663235
42	0x3b53623e	0.0032254602
43	0x44c0956f	1540.6698
44	0x44d430b2	1697.5217
45	0x3c14c0cc	0.0090791695
46	0x4540a686	3082.4077
47	0x45894967	4393.1753
48	0x3c63ae5a	0.013896549
49	0x3bd3ae45	0.0064599835
50	0x3c425f51	0.0118635455
51	0x3b25f3c5	0.00253223
52	0x3b9f61dc	0.0048639607
53	0x450688a1	2152.5393
54	0x3c0b7921	0.008512766
55	0x3bd24701	0.0064171557
56	0x45e3a757	7284.9175
57	0x3b01988a	0.0019774758
58	0x3bdd9cea	0.0067630904
59	0x3b8d1246	0.004305157
60	0x3b385c3f	0.0028131155
61	0x45830c3c	4193.5293
62	0x457d2eaf	4050.9177
63	0x44e1db4f	1806.8534

recurrent._batch_norm_2.weight f4 [64]
0	0x3f8bda64	1.0926023
1	0x3fa146fc	1.2599788
2	0x3f8f46d4	1.119349
3	0x3f94b26a	1.1616948
4	0x3f8dc3cf	1.1075381
5	0x3f9cc766	1.2248352
6	0x3f92c184	1.1465306
7	0x3f9f3c7a	1.2440331
8	0x3f9180aa	1.136739
9	0x3f8dbde9	1.1073581
10	0x3faf2fa1	1.368641
11	0x3f96bc42	1.1776202
12	0x3f9d8e63	1.2309078
13	0x3f883c52	1.0643408
14	0x3f994a32	1.1975768
15	0x3f9085e8	1.1290865
16	0x3fa837d0	1.3142033
17	0x3faad459	1.3346053
18	0x3f8fa1ae	1.1221216
19	0x3f9a8e4b	1.2074674
20	0x3f94bd89	1.1620342
21	0x3f92bd3a	1.1463997
22	0x3f8bd6a0	1.0924873
23	0x3f929dea	1.1454442
24	0x3f8b3d8f	1.0878161
25	0x3f9df324	1.2339826
26	0x3f941295	1.1568171
27	0x3fa6b975	1.3025347
28	0x3f911fe8	1.1337862
29	0x3f91c101	1.1387025
30	0x3f9deb2b	1.2337393
31	0x3f899cfa	1.075103
32	0x3f92a730	1.1457272
33	0x3f92376b	1.1423162
34	0x3f8e7473	1.1129287
35	0x3f91a842	1.1379473
36	0x3f925e1b	1.1434969
37	0x3f92a131	1.1455442
38	0x3fa0451b	1.2521089
39	0x3fa7990e	1.3093584
40	0x3f93809e	1.1523626
41	0x3f9afb7d	1.2107998
42	0x3f94137d	1.1568447
43	0x3f907dfe	1.128845
44	0x3f9628c9	1.1731197
45	0x3f93bf45	1.1542746
46	0x3f8912a4	1.0708814
47	0x3f96c6f9	1.1779472
48	0x3f954a86	1.1663368
49	0x3f963efd	1.1737972
50	0x3f8e0a6f	1.1096934
51	0x3f90b5f2	1.1305525
52	0x3f93077d	1.148666
53	0x3f8c5cfc	1.0965877
54	0x3f8e7880	1.1130524
55	0x3f91dad9	1.1394912
56	0x3f96d2eb	1.1783117
57	0x3f8d721a	1.1050446
58	0x3f9b35b0	1.2125759
59	0x3f8eff67	1.1171693
60	0x3f9bd8d4	1.2175546
61	0x3fa5e51b	1.2960542
62	0x3f87f978	1.0623007
63	0x3f9dd43d	1.2330395

recurrent._batch_norm_2.bias f4 [64]
0	0xbd4a01ce	-0.049318127
1	0xbdc936dd	-0.098249175
2	0xbd744751	-0.059638325
3	0xbdf16071	-0.11785973
4	0xbdf8adc1	-0.12142516
5	0xbda4b728	-0.08042747
6	0xbde43c8f	-0.11144363
7	0xbde439fc	-0.11143872
8	0xbd7e15dc	-0.062032565
9	0xbd977c16	-0.073967144
10	0xbd185613	-0.03719146
11	0xbdfbca0e	-0.12294398
12	0xbd237df1	-0.03991503
13	0xbba03a4a	-0.004889761
14	0xbde40000	-0.111328125
15	0xbdd465b9	-0.103709646
16	0xbd822b65	-0.06355933
17	0xbdcd0bf8	-0.100120485
18	0xbdeb9564	-0.115031034
19	0xbdc6bdcc	-0.0970417
20	0xbe1a0ffa	-0.15045157
21	0xbe0fc2ea	-0.14039198
22	0xbe23ff10	-0.16015267
23	0xbe1488f2	-0.14505365
24	0xbd9b6aa6	-0.07588701
25	0xbde3157c	-0.11088082
26	0xbe2c5d77	-0.16832529
27	0xbdaceb29	-0.08443291
28	0xbdd66c33	-0.10469856
29	0xbdabd330	-0.0838989
30	0xbdbfbeb9	-0.09362549
31	0xbdf265da	-0.11835833
32	0xbd989fea	-0.07452376
33	0xbd95a0f1	-0.07306088
34	0xbdb0fd55	-0.08642069
35	0xbde9b0fb	-0.114107095
36	0xbe11d2f7	-0.14240633
37	0xbe02efee	-0.12786838
38	0xbd225114	-0.039628103
39	0xbdc67ab9	-0.09691376
40	0xbddc1c6d	-0.10747609
41	0xbdf6605e	-0.12030099
42	0xbe056cce	-0.13029787
43	0xbdd21ddc	-0.102596015
44	0xbe05ca39	-0.13065423
45	0xbdae33d8	-0.08505982
46	0xbdbb7937	-0.09153979
47	0xbdfe04e7	-0.12403279
48	0xbde4c715	-0.111707844
49	0xbe07f0b6	-0.13275418
50	0xbd9c7191	-0.076388486
51	0xbe0c497d	-0.13699909
52	0xbde634b3	-0.1124052
53	0xbe0920da	-0.13391438
54	0xbe01f9bb	-0.12692921
55	0xbd8e157a	-0.0693769
56	0xbdf141a3	-0.11780097
57	0xbde82620	-0.11335397
58	0xbe0f9663	-0.14022212
59	0xbe149ac4	-0.14512163
60	0xbe02be67	-0.12767945
61	0xbd97e067	-0.07415848
62	0xbd8785f4	-0.066173464
63	0xbdacc344	-0.084356815

recurrent._batch_norm_2.running_mean f4 [64]
0	0x3f240db5	0.64083415
1	0x3cedbaf3	0.029019808
2	0x3f813862	1.0095332
3	0x3d9103ad	0.07080779
4	0x3fe69d25	1.8016707
5	0x3d4626d9	0.04837689
6	0x3d018cee	0.03162854
7	0x3d2c7dbb	0.042112093
8	0x3f83bc31	1.0291806
9	0x3f47da97	0.78067917
10	0x3e062bb1	0.13102604
11	0x3eb1b878	0.3471105
12	0x3db820c8	0.089906275
13	0x3edecc40	0.43515205
14	0x3f8bdba6	1.0926406
15	0x3d72590f	0.059166964
16	0x3c7d466c	0.015458684
17	0x3b217152	0.0024634195
18	0x3f8a79aa	1.0818379
19	0x3d0cabc0	0.03434348
20	0x3fc35f43	1.5263447
21	0x3faa8540	1.3321915
22	0x3f40affb	0.75268525
23	0x3f556387	0.8335499
24	0x3f8a07e7	1.0783662
25	0x3dd0dac2	0.10197975
26	0x3f410ee4	0.75413346
27	0x3c0bf7fd	0.008543012
28	0x3fe77ed8	1.8085585
29	0x3f0e40a0	0.5556736
30	0x3d98a425	0.07453183
31	0x3ea8f626	0.33000296
32	0x3fe8ac60	1.8177605
33	0x3f8e0b02	1.1097109
34	0x3f84d1c0	1.0376511
35	0x3fd6724e	1.6753633
36	0x3f7c835f	0.98637956
37	0x3fb85d27	1.4403428
38	0x3cf5d9e2	0.030011121
39	0x3cbb1660	0.022837818
40	0x3fe5acb4	1.794333
41	0x3d64a8e2	0.05582512
42	0x3f85dc3d	1.0457836
43	0x4029b3da	2.6516023
44	0x3e30cb60	0.17265081
45	0x3fa7d305	1.3111273
46	0x3f5b050e	0.8555459
47	0x3d6f976c	0.058494017
48	0x3f36caa7	0.7140297
49	0x3f946d53	1.1595863
50	0x3d8581cc	0.065188974
51	0x3fde5b74	1.7371659
52	0x3f8fef02	1.1244814
53	0x3f2ee40b	0.68316716
54	0x3f75cddc	0.9601724
55	0x3facabbc	1.3489909
56	0x3e0bca50	0.13651395
57	0x3d0d915d	0.034562457
58	0x3cc7cf82	0.02439094
59	0x3f8a2479	1.079238
60	0x3d081d06	0.033230804
61	0x3c281fbf	0.010261475
62	0x3f862ff7	1.0483388
63	0x3c88177e	0.016612764

recurrent._batch_norm_2.running_var f4 [64]
0	0x3ffefb88	1.9920511
1	0x3e7247de	0.23660228
2	0x409c3382	4.8812876
3	0x3d538e9e	0.051649682
4	0x415a01d5	13.625447
5	0x3d4bb4eb	0.049733084
6	0x3df7651c	0.12079832
7	0x3e1b0a3f	0.15140627
8	0x40934df5	4.6032662
9	0x402a8dc4	2.6649027
10	0x3d32da71	0.043665353
11	0x3f55baeb	0.8348834
12	0x3fd75bcd	1.682489
13	0x3fcef77b	1.6169275
14	0x40b8f85b	5.780317
15	0x3d08e90b	0.033425372
16	0x3bbf64c6	0.0058408706
17	0x39fce577	0.0004823615
18	0x40c61068	6.1895027
19	0x3c90baed	0.017667258
20	0x412ace55	10.675374
21	0x40fc9925	7.8936944
22	0x4031ff01	2.7811892
23	0x405008e8	3.2505436
24	0x409f6b47	4.9818454
25	0x3f21befb	0.6318204
26	0x40691126	3.6416717
27	0x3b21e48e	0.002470288
28	0x4164ee77	14.308219
29	0x3fd06807	1.6281747
30	0x3f9b6251	1.2139379
31	0x3f14e8cb	0.58167714
32	0x415c971c	13.786892
33	0x406d1a78	3.7047405
34	0x40afe9bf	5.4972835
35	0x413d0bbb	11.815364
36	0x408ca15f	4.3946986
37	0x4117ed25	9.495397
38	0x3c51a8b7	0.012796572
39	0x3e360b1f	0.1777768
40	0x4157982c	13.474651
41	0x3e7a5455	0.24446233
42	0x409e1b14	4.9408054
43	0x41dff88d	27.996363
44	0x3dac4a4a	0.08412607
45	0x40d56ea8	6.669758
46	0x40514646	3.2699142
47	0x3f45ce78	0.7726817
48	0x401dd502	2.466126
49	0x40da42e7	6.820667
50	0x3fac4853	1.3459572
51	0x41537962	13.217134
52	0x40c85f1b	6.2616096
53	0x40166955	2.350179
54	0x4065711e	3.5850291
55	0x41126b70	9.15123
56	0x3da2a77c	0.07942101
57	0x3c55f192	0.013058083
58	0x3c0904bc	0.008362945
59	0x40adca02	5.430909
60	0x3c762880	0.015024304
61	0x3b5f732f	0.0034095754
62	0x40945561	4.635422
63	0x3bac80bd	0.0052643702

recurrent._recurrent_1.weight_ih_l0 f4 [256, 128]
0	0x3dda56f8	0.10661119
1	0x3e156db3	0.14592628
2	0xbd6982d8	-0.057009548
3	0x3a5a89d6	0.0008336579
4	0xbbeb7cde	-0.007186516
5	0xbc8118d9	-0.015758919
6	0xbd06179d	-0.032737363
7	0xbd113937	-0.035454955
8	0xbd5a01dc	-0.05322443
9	0x3d637e5c	0.055540428
10	0xbd95e5dc	-0.07319233
11	0x3e397b84	0.18113524
12	0x3d4a7d21	0.04943574
13	0x3e042f35	0.12908633
14	0x3def9565	0.116984166
15	0x3bd06300	0.006359458
16	0x3dc9d4e8	0.09855062
17	0x3e2fd5b6	0.17171368
18	0xbd9f4046	-0.07775931
19	0x3bb8c850	0.0056391135
20	0x3dc27cb4	0.094964415
21	0x3d6bed73	0.057599496
22	0x3dee9901	0.11650277
23	0x3c8a8a1d	0.01691156
24	0xbc8e640c	-0.01738169
25	0x3daf2f19	0.08553905
26	0xbd288ab1	-0.04114789
27	0xbd9610d5	-0.07327429
28	0x3c4ad698	0.012380265
29	0x3d8f0dd0	0.069850564
30	0x3d2cdcef	0.042202886
31	0x3df9f2d6	0.122045204
32	0x3e20b85a	0.15695325
33	0x3de13db8	0.109981
34	0x3dea092e	0.11427532
35	0xbd80b584	-0.06284621
36	0x3e0bd6a6	0.136561
37	0x3db54323	0.08850696
38	0xbcdde9ce	-0.027089026
39	0x3d2e0b81	0.04249144
40	0x3dc1d208	0.094638884
41	0x3d40d0cb	0.04707412
42	0x3e0cbdf1	0.13744332
43	0x3d450933	0.048104476
44	0x3d7fb986	0.06243279
45	0x3d3e45fd	0.046453465
46	0x3d08b38c	0.033374354
47	0x3ce4b9e0	0.027920663
48	0xbd4bf33e	-0.04979252
49	0x3daa7083	0.08322241
50	0x3e11fcad	0.14256544
51	0x3cc69c4c	0.02424445
52	0x3d4a448c	0.049381778
53	0xbd19b2f6	-0.037524186
54	0xbd99364e	-0.07481061
55	0x3d7de559	0.0619863
56	0x3e0de007	0.13854991
57	0xbce90ed3	-0.028449452
58	0x3d6f4289	0.058413062
59	0x3da91945	0.08256773
60	0xbcec8723	-0.028873032
61	0xbd4c9fd8	-0.049957126
62	0x3d9588e5	0.07301501
63	0x3dce402b	0.10070833
64	0x3cb68852	0.0222818
65	0x3d88a8e4	0.06672838
66	0xbc58f062	-0.0132409055
67	0x3e2bcc5c	0.16777176
68	0x3db8753f	0.09006738
69	0x3d52623e	0.051363222
70	0x3dd612ad	0.10452781
71	0xbdc0a6a9	-0.09406788
72	0x3c760b0e	0.015017284
73	0x3c3a775c	0.011380997
74	0x3da071a4	0.07834175
75	0x3ba1a2cb	0.0049327365
76	0xbe0f1c6d	-0.13975687
77	0x3cbf14cc	0.023325346
78	0x3d47e36c	0.04880087
79	0x3e02c2ed	0.12769671
80	0x3d9cb5a2	0.07651831
81	0xbdb15b0f	-0.08659946
82	0x3dd4a741	0.10383464
83	0xbc8ab774	-0.01693318
84	0x3e097a29	0.13425507
85	0x3db5bfca	0.088744715
86	0xbd91cd9f	-0.07119297
87	0xbcf81795	-0.030284682
88	0xbd658bea	-0.056041636
89	0x3c32563e	0.01088482
90	0xbdbf9c14	-0.093559414
91	0xbdc85db1	-0.09783495
92	0x3b451441	0.0030071887
93	0x3d8801e0	0.06640983
94	0x3dc13c39	0.09435315
95	0x3dec2819	0.115310855
96	0x3d19553d	0.037434805
97	0x3da91f10	0.08257878
98	0x3dda4be0	0.10659003
99	0x3e03509a	0.12823716
100	0x3db9657b	0.09052559
101	0x3d4b8b24	0.04969324
102	0x3c8f705a	0.017509628
103	0xbd4ae97a	-0.049539067
104	0xbdb4a0a4	-0.08819702
105	0x3d89a582	0.06721021
106	0x3ccf7f71	0.025329323
107	0x3dc5e383	0.09662535
108	0xbda39080	-0.079865456
109	0xbce3f45a	-0.027826477
110	0xbdcf89d3	-0.1013371
111	0xbc2e6cf7	-0.010646096
112	0x3d94d1c1	0.0726657
113	0xba983a57	-0.0011614066
114	0x3c931d0d	0.017958188
115	0xbc4ea696	-0.012612959
116	0xbd03c01c	-0.03216563
117	0xbc6dd3c8	-0.014515825
118	0x3d9e1d41	0.077204235
119	0x3d9dd40f	0.077064626
120	0x3de5dc83	0.112237
121	0xbd189e50	-0.037260354
122	0x3ab3e1b0	0.0013723876
123	0xbcfbf822	-0.030757967
124	0xbd24c43e	-0.040226214
125	0x3c129a14	0.008947868
126	0x3d89bb6a	0.067251995
127	0x3d02a43a	0.0318949
128	0xbcc566bd	-0.024096841
129	0x3d72d6d9	0.059286926
130	0xbd4a7564	-0.04942836
131	0x3bd704ef	0.0065618674
132	0xbc655b69	-0.013998845
133	0xbe8a7cc7	-0.27048323
134	0x3df29f3e	0.11846779
135	0xbc41bafa	-0.011824364
136	0xbd2ac0b9	-0.0416877
137	0xbc0c1218	-0.008549236
138	0xbdca594e	-0.09880315
139	0x3dd2c03d	0.10290573
140	0x3d6723f6	0.05643078
141	0xbda5b9a3	-0.08092048
142	0xbdb67a39	-0.08910031
143	0xbd9b8ddb	-0.07595416
144	0xbd64c55f	-0.05585229
145	0xbd8afb39	-0.06786198
146	0xbd40932b	-0.04701535
147	0xbcbc8101	-0.023010733
148	0x3d91c930	0.071184516
149	0xbdf82ea1	-0.12118269
150	0xbdfded99	-0.12398834
151	0x3d169e49	0.036772046
152	0xbd4deb34	-0.050273135
153	0xbe3e9a27	-0.18613492
154	0x3d43fa48	0.04784611
155	0xbd2d648e	-0.042332225
156	0xbe3c971c	-0.18417019
157	0xbe763d71	-0.24046876
158	0xbd43ecff	-0.04783344
159	0x3b41de71	0.0029582048
160	0xbe3d0c20	-0.18461657
161	0xbdca11cc	-0.09866676
162	0x3dab9eab	0.08379873
163	0xbe0c32af	-0.1369121
164	0xbd556aff	-0.052103993
165	0xbd9260b1	-0.07147349
166	0x3d422499	0.047398183
167	0x3d244ed4	0.04011424
168	0x3d2a7eed	0.041624952
169	0x3d88a622	0.06672312
170	0xbdbc16bb	-0.09184023
171	0xbd764318	-0.06012258
172	0xbbff7988	-0.00779647
173	0xbd8afbfa	-0.06786342
174	0xbc0324c6	-0.008004373
175	0x3d792fc2	0.06083656
176	0xbe91d26a	-0.28480846
177	0x3db60528	0.08887702
178	0xbb6fddb1	-0.0036600644
179	0xbe10a716	-0.14126238
180	0xbd7ba5ab	-0.06143729
181	0x3d510fb8	0.05104038
182	0xbd2739ed	-0.040826727
183	0xbe35c2df	-0.17750119
184	0x3d22c084	0.03973438
185	0xbdefa313	-0.11701026
186	0xbe41cbb6	-0.18925366
187	0x3dc3b862	0.095566526
188	0xbdac5114	-0.08413902
189	0xbd31010c	-0.04321389
190	0x3dadddcb	0.08489569
191	0xbd66866c	-0.05628054
192	0xbde67bdc	-0.11254093
193	0xbd4b3a57	-0.049616184
194	0xbda70e48	-0.08157021
195	0x3d845582	0.06461622
196	0xbd7b17de	-0.06130206
197	0xbc85fd0a	-0.01635601
198	0xbcd58736	-0.02606545
199	0x3e3d89d0	0.18509603
200	0xba869b57	-0.0010269684
201	0xbd2e3b21	-0.04253686
202	0xbcd7e88e	-0.026356008
203	0xbd05ad80	-0.032636166
204	0x3db94862	0.09047009
205	0x3e4b7712	0.1986964
206	0x3d79d3ca	0.060992993
207	0x3cece328	0.02891691
208	0x3e245d51	0.16051222
209	0x3dfdd5ca	0.12394293
210	0x3a2205c0	0.00061806664
211	0xbcdf5e1c	-0.027266555
212	0x3dd71a92	0.10503115
213	0x3cfc2814	0.03078083
214	0x3dd4b74a	0.10386522
215	0x3dd46009	0.1036988
216	0x3de48d8b	0.1115981
217	0x3df6fd75	0.12060062
218	0xbc2f83aa	-0.0107125435
219	0x3e49077b	0.1963176
220	0x3d27edc8	0.04099825
221	0xbba34acf	-0.004983283
222	0x3de1be24	0.110225946
223	0x3dacd49b	0.08438989
224	0x3d024205	0.031801242
225	0xbe02265c	-0.12709945
226	0x3d3cf2a4	0.046129838
227	0xbd80e834	-0.06294289
228	0xbdbaac7f	-0.09114932
229	0x3d9be22b	0.076114975
230	0x3e2eaa40	0.17057133
231	0x3e894783	0.26812372
232	0x3cc1944a	0.02363028
233	0xbe04a313	-0.12952833
234	0x3d762599	0.06009445
235	0xbe053476	-0.13008294
236	0xbdde1e15	-0.108455814
237	0x3d682a59	0.05668101
238	0x3c9523fd	0.018205637
239	0xbe004df9	-0.12529744
240	0xbcf81642	-0.03028405
241	0x3d951a2b	0.07280382
242	0x3d60a408	0.054843932
243	0x3debb69d	0.1150944
244	0xbdd29d41	-0.102839
245	0x3cf9e999	0.030506896
246	0xbb8e8280	-0.004349053
247	0xbe0e4677	-0.13894068
248	0xbc08373c	-0.00831395
249	0x3dd15d3f	0.102228634
250	0x3e3d01d1	0.18457724
251	0x3d35f672	0.04442448
252	0xbd4a45a7	-0.049382832
253	0x3e3023e3	0.1720119
254	0x3c997c58	0.01873605
255	0xbd89c888	-0.067277014

recurrent._recurrent_1.weight_hh_l0 f4 [256, 64]
0	0x3d9b3c74	0.0757989
1	0xbddedb4a	-0.1088167
2	0xbb2f0500	-0.002670586
3	0x3cff9bd8	0.031202242
4	0x3d0c39cc	0.034234807
5	0x3d9998ac	0.07499823
6	0x3c071a20	0.008245975
7	0x3db85876	0.090012476
8	0xbd7c2578	-0.06155917
9	0x3c281fa0	0.010261446
10	0xbd1f15c0	-0.0388391
11	0x3a38a600	0.0007043779
12	0xbd16a858	-0.03678164
13	0x3d8eb106	0.06967358
14	0xbcfe5a88	-0.031049028
15	0x3ca1ee30	0.019766897
16	0x3df36c5e	0.11885904
17	0x3d2c0544	0.04199721
18	0x3da2dbe8	0.079521
19	0x3d98b6d6	0.07456748
20	0x3d84c07a	0.064820245
21	0x3d1df1f8	0.038560838
22	0x3dbce02c	0.09222445
23	0xbc14b450	-0.009076193
24	0xbcb90b28	-0.022588328
25	0x3d3f71a0	0.04673922
26	0x3da72252	0.08160843
27	0x3bdedc60	0.006801173
28	0x3c9c2528	0.019060686
29	0x3d31ed48	0.04343918
30	0x3d8097e2	0.06278969
31	0x3ddaa072	0.10675134
32	0xbdf4002a	-0.11914094
33	0x3db3837c	0.08765313
34	0x3de49374	0.11160937
35	0x3c96df88	0.018417135
36	0x3d4a17f8	0.049339265
37	0xbdb2e3d8	-0.08734864
38	0x3d4baf88	0.049727947
39	0xbda6339e	-0.08115314
40	0x3ce25c08	0.027631775
41	0xbdc95a1c	-0.0983164
42	0x3dc472a0	0.095921755
43	0xbde9416c	-0.11389431
44	0x3bc62180	0.006046474
45	0x3d87b06e	0.06625448
46	0x3daaf7d0	0.08348048
47	0xbdf75e4a	-0.12078531
48	0xbcd59f80	-0.026077032
49	0xbcd386a0	-0.02582103
50	0xbdd36598	-0.10322112
51	0xbd0e1ea4	-0.03469719
52	0xbc374140	-0.01118499
53	0x3dbe93c2	0.09305526
54	0xbd879020	-0.066192865
55	0x3d7e9090	0.062149584
56	0xbd4e55cc	-0.05037479
57	0xbd906720	-0.070509195
58	0x3dc4f18a	0.096163824
59	0xbc88a2c0	-0.016679168
60	0xbd074d24	-0.03303255
61	0xbddcc0aa	-0.10778935
62	0x3d467e54	0.04846032
63	0x3ddc16a6	0.10746507
64	0xbacb3500	-0.0015503466
65	0x3ba2d560	0.004969284
66	0xbb8fcc20	-0.0043883473
67	0xbd49a4ac	-0.04922931
68	0x3dd3e5cc	0.10346565
69	0x3d25d1c4	0.04048325
70	0x3b135580	0.0022481382
71	0xbd64da08	-0.055871993
72	0xbcf61038	-0.03003703
73	0xbd4c3eb4	-0.049864486
74	0xbde382b8	-0.11108917
75	0xbdb01c2c	-0.08599123
76	0x3c875968	0.016522124
77	0xbdeb9002	-0.11502077
78	0x3d2fa898	0.042885393
79	0xbc627070	-0.0138207525
80	0x3d5a09a8	0.053231865
81	0xbd19297c	-0.03739308
82	0x3dfb7aa0	0.12279248
83	0xbdfcb464	-0.12339094
84	0xbdcf7b58	-0.10130948
85	0x3defe8f2	0.11714353
86	0xbd936600	-0.07197189
87	0xbda78d28	-0.0818122
88	0x3b592940	0.003313616
89	0xbdcfe13e	-0.101503834
90	0x3c971ce0	0.018446386
91	0xbca4c9f8	-0.020115837
92	0x3dd12726	0.10212545
93	0xbca71eb8	-0.02040039
94	0x3ccfff88	0.025390401
95	0xbda55390	-0.08072579
96	0xbd62ec54	-0.05540116
97	0x3d8086e4	0.06275728
98	0xbd5372d0	-0.051623166
99	0x3df07c0e	0.117424116
100	0xba959500	-0.0011412203
101	0x3d29a0e8	0.041413218
102	0x3dd655de	0.104655966
103	0x3cb12c50	0.021627575
104	0x3df9d2ac	0.121983856
105	0x3d0d73cc	0.03453426
106	0x3d02a88c	0.03189902
107	0xbdd7ddca	-0.1054035
108	0x3d9c80a0	0.07641721
109	0xbdfceb72	-0.12349595
110	0xbd9dcc00	-0.077049255
111	0x3dcdaab8	0.10042328
112	0xbdc1bc9a	-0.09459801
113	0xbd7ff3f8	-0.062488526
114	0x3dfe0a18	0.12404269
115	0x3d9f0ec0	0.07766485
116	0xbc376ea0	-0.011195809
117	0xbc7bd2a0	-0.015370041
118	0xbd8545be	-0.06507443
119	0xbd66e59c	-0.056371316
120	0x3b91e080	0.0044518113
121	0xbd96b0f2	-0.073579684
122	0x3ddab4a0	0.10678983
123	0xbcf2a420	-0.029619277
124	0xbdab42d0	-0.08362353
125	0x3de823ac	0.11334929
126	0xbd063928	-0.032769352
127	0x3d5d986c	0.05410044
128	0x3d039f84	0.032134548
129	0xbd2bc3e4	-0.041934863
130	0xbcd4c8b0	-0.025974602
131	0x3dce96f6	0.10087387
132	0xbdfa75dc	-0.12229511
133	0x3d5b2230	0.0534994
134	0xbdbe20ce	-0.09283601
135	0x3dafb54c	0.085795015
136	0xbd3f4b38	-0.046702594
137	0x3c07b050	0.008281782
138	0x3d3ca430	0.04605502
139	0xbded6420	-0.11591363
140	0xb9af9a00	-0.0003349334
141	0x3cd84fc0	0.026405215
142	0xbdd55e14	-0.104183346
143	0xbcf7a550	-0.030230194
144	0x3d8b1046	0.06790213
145	0xbdd9210e	-0.10602008
146	0xbcfe7cb0	-0.031065315
147	0xbd3841c0	-0.04498458
148	0xbaf62000	-0.0018777847
149	0x3dfcfc54	0.12352815
150	0x3af3f900	0.0018613636
151	0xbd11cdd0	-0.03559667
152	0x3dcb40b6	0.09924452
153	0xbdde0684	-0.108410865
154	0xbdfa3694	-0.12217441
155	0xbde65e66	-0.11248474
156	0xbd2a5244	-0.04158236
157	0xbd5005cc	-0.05078678
158	0xbdeeca74	-0.116597086
159	0x3d3a3990	0.045465052
160	0x3d18a0a0	0.03726256
161	0xbcbc52b0	-0.022988647
162	0xbd7ff508	-0.06248954
163	0xbdef655e	-0.11689256
164	0xbdf042b0	-0.1173147
165	0xbcaaafc0	-0.020835757
166	0x3dd455ca	0.103679255
167	0x3d004a4c	0.031320855
168	0xb5d80000	-1.6093254e-06
169	0x3c1c2650	0.009530619
170	0x3d877ec6	0.06615977
171	0x3d733860	0.059379935
172	0x3d8f4dd4	0.069972664
173	0x3d83df82	0.06439115
174	0xbd88d02a	-0.06680329
175	0xbdfbedc6	-0.12301211
176	0x3d1555fc	0.036458954
177	0x3dea848e	0.11451064
178	0xbde3e3d0	-0.11127436
179	0x3c638ff0	0.013889298
180	0xbd8fbf46	-0.070189044
181	0x3d468a74	0.048471883
182	0x3d850b98	0.06496352
183	0xbdf7dfc4	-0.12103227
184	0x3d24897c	0.040170178
185	0xbda4b5ba	-0.08042474
186	0xbd789560	-0.06068933
187	0xbde11b88	-0.10991579
188	0x3d8b0738	0.06788486
189	0x3de44fde	0.11148046
190	0x3dd12f42	0.10214092
191	0xbd6387b8	-0.055549353
192	0x3ba2fb20	0.004973784
193	0xbd7853f0	-0.060626924
194	0x3dd55526	0.104166314
195	0x3dfe779a	0.12425156
196	0x3cc12750	0.023578316
197	0xbd74bb90	-0.059749186
198	0xbd841bfc	-0.0645065
199	0xbd66bab4	-0.056330398
200	0x3de6a430	0.11261785
201	0xbcf4f8c0	-0.02990377
202	0xbd293af0	-0.041315973
203	0x3d4650d8	0.048416942
204	0x3d5056dc	0.050864086
205	0xbd2e1190	-0.042497218
206	0x3d75d3c4	0.06001641
207	0x3cbe93e0	0.023263872
208	0xbbe10300	-0.0068668127
209	0xbd2feb60	-0.04294908
210	0x3d850102	0.06494333
211	0xbced4fd8	-0.028968737
212	0x3d9a41c6	0.075320765
213	0x3dbc2174	0.09186068
214	0x3c614c00	0.01375103
215	0x3d1c7478	0.03819701
216	0xbd34c298	-0.04413089
217	0x3dec8ad8	0.1154992
218	0xbd93a738	-0.07209629
219	0xbd7b8f4c	-0.061415955
220	0x3dfd5476	0.12369625
221	0x3ddd0c5a	0.107933715
222	0x3b8e2240	0.004337579
223	0x3d8caa00	0.068683624
224	0x3af16f00	0.0018419921
225	0x3b140440	0.002258554
226	0xbdb710f4	-0.089387804
227	0x3d3b3dc0	0.045713186
228	0x3d34c67c	0.044134602
229	0x3da6d1c4	0.08145478
230	0x3d76937c	0.060199246
231	0x3c9349d0	0.017979532
232	0xbd105f00	-0.03524685
233	0x3c9a1f00	0.01881361
234	0xbce3e7a8	-0.027820423
235	0xbd1a5d50	-0.037686646
236	0x3db8ed2e	0.090296134
237	0xbd891c96	-0.066949055
238	0x3cbd7818	0.023128554
239	0x3d53b138	0.05168268
240	0xbc8a3908	-0.016872898
241	0x3da51a2e	0.08061634
242	0xbce1bf50	-0.027557045
243	0xbcc27540	-0.02373755
244	0xbd5e0140	-0.05420041
245	0x3d18cb64	0.037303343
246	0x3de43228	0.11142379
247	0x3de60d8a	0.11233051
248	0x3d98712a	0.07443459
249	0x3a4a7900	0.0007723719
250	0xbdbaef28	-0.09127647
251	0x3d343b98	0.044002146
252	0xbdae4238	-0.08508724
253	0x3ca55650	0.020182759
254	0x3bece480	0.0072293878
255	0xbdcc6dc6	-0.09981875

recurrent._recurrent_1.bias_ih_l0 f4 [256]
0	0xbd8f6e43	-0.07003453
1	0x3daa1344	0.08304456
2	0x3e66a2ef	0.22523092
3	0x3e3247af	0.17410158
4	0x3e0480b4	0.12939721
5	0x3d0ace26	0.033888005
6	0x3cf58ac2	0.029973391
7	0x3b5daca4	0.0033824826
8	0x3d632213	0.055452418
9	0xbd4e2c46	-0.05033519
10	0x3e6b1936	0.22958836
11	0x3e2e7534	0.17036897
12	0x3db2b303	0.0872555
13	0x3d998d41	0.07497645
14	0x3d6431f7	0.055711713
15	0x3decee86	0.11568932
16	0x3d8834fe	0.066507325
17	0x3dc36f5b	0.09542724
18	0x3df12cc5	0.11776117
19	0x3e4681f3	0.19385509
20	0x3e3d14be	0.18464944
21	0x3e79756e	0.24361202
22	0x3e0eca40	0.1394434
23	0xbd955bdf	-0.07292914
24	0x3dc32bbc	0.09529826
25	0x3e808f67	0.25109407
26	0xb7d8a76e	-2.5827172e-05
27	0x3dc0b76a	0.094099835
28	0x3e0f86fc	0.14016336
29	0x3e917bce	0.28414768
30	0x3e3d5eb4	0.18493158
31	0x3e153f9e	0.1457505
32	0x3de771e2	0.11301018
33	0x3e8347ec	0.2564081
34	0x3b8d2992	0.004307934
35	0xbd7ae230	-0.061250865
36	0x3d2f19a1	0.04274905
37	0xbd0c2aa1	-0.03422034
38	0x3d3a245c	0.04544483
39	0x3d80181c	0.062545985
40	0x3e6530e3	0.2238193
41	0x3dbc50cd	0.09195099
42	0x3ebd5f10	0.3698659
43	0x3eced62b	0.40397772
44	0x3e377804	0.17916876
45	0xbb8be115	-0.004268775
46	0xbd9df435	-0.077125944
47	0x3e999f7a	0.30004483
48	0x3e12e1c3	0.14343934
49	0x3eb01d58	0.34397388
50	0x3d50160e	0.050802283
51	0x3e432107	0.19055568
52	0x3e525f30	0.20544124
53	0x3e287a7c	0.16452974
54	0x3d2508a3	0.04029144
55	0x3cdc2c4d	0.026876593
56	0x3de960d1	0.113954194
57	0x3e975642	0.29557997
58	0xbd7d6f7a	-0.06187389
59	0x3eae70ba	0.3407038
60	0x3e1c138b	0.1524183
61	0x3e2f2273	0.17102985
62	0x3d8b7227	0.06808882
63	0x3e0cb8f8	0.13742435
64	0x3da64fe2	0.08120705
65	0x3db194c4	0.08670953
66	0x3cb33d28	0.021879748
67	0x3b97c4e0	0.0046316236
68	0xbdc6029c	-0.096684664
69	0x3d199784	0.037498012
70	0xbcb20de0	-0.021735132
71	0xbd0110a4	-0.03151001
72	0x3de65110	0.1124593
73	0x3affc500	0.0019513667
74	0x3d95eede	0.07320951
75	0x3d36044c	0.04443769
76	0xbd502b7c	-0.05082272
77	0x3d8805cc	0.06641731
78	0x3db8b088	0.09018046
79	0xbdb40710	-0.087904096
80	0xbdf7e6c0	-0.12104559
81	0x3cd504d8	0.026003286
82	0x3c308b40	0.010775387
83	0xbbc4aba0	-0.0060019046
84	0x3c89f940	0.016842484
85	0xbcbc4b18	-0.022985026
86	0x3db0e9dc	0.08638355
87	0x3c1341a0	0.008987814
88	0xbdafc69e	-0.08582805
89	0x3df2cfd2	0.11856045
90	0xbd406414	-0.046970442
91	0xbd66a5d8	-0.056310505
92	0xbcf2c380	-0.029634237
93	0xbd95cb0e	-0.0731412
94	0x3d833562	0.06406666
95	0x3d85a4d6	0.065255806
96	0x3d25207c	0.040314183
97	0xbc891f50	-0.016738564
98	0x39b15800	0.00033825636
99	0x3de9cc22	0.11415888
100	0x3c7e9950	0.015539482
101	0x3d826036	0.06366007
102	0x3df0de60	0.11761165
103	0x3df59e52	0.11993088
104	0x3d74b438	0.059742182
105	0x3d71e44c	0.05905561
106	0x3dbe0b3e	0.09279488
107	0xbb3c8a80	-0.0028769076
108	0xbdec6392	-0.11542429
109	0x3cd56e38	0.026053533
110	0xbdc4ed98	-0.0961563
111	0xbd9bd4ac	-0.07608923
112	0xbd89e95e	-0.067339644
113	0xbd6a2e74	-0.057173207
114	0x3d673dc8	0.056455404
115	0x3db705f8	0.08936685
116	0x3d390158	0.045167297
117	0xbdb5e5d6	-0.08881728
118	0x3d8710c2	0.06594993
119	0x3d8cff26	0.06884603
120	0x3d8d17c4	0.068892986
121	0xbde4f462	-0.11179425
122	0xbd608600	-0.054815292
123	0x3da6a7e0	0.08137488
124	0xbcc01ca8	-0.023451164
125	0xbdabe09c	-0.0839245
126	0xbde12390	-0.10993111
127	0x3d4a50a4	0.04939331
128	0xbd5d9860	-0.054100394
129	0xbdd414a8	-0.10355502
130	0x3c4edcd7	0.0126258945
131	0x3e2bc595	0.1677459
132	0x3ddcd2d6	0.10782401
133	0xbc8e3009	-0.01735689
134	0xbdcb21ff	-0.099185936
135	0x3cef3e2d	0.029204452
136	0xbd371994	-0.044702128
137	0x3dc1021c	0.094242305
138	0x3e1bf5ec	0.1523053
139	0x3e16b4c8	0.147174
140	0x3df8c9e8	0.121478856
141	0x3e1ceaa4	0.15323883
142	0x3d6ec1e4	0.058290377
143	0x3da13559	0.078715034
144	0x3e39c972	0.18143252
145	0xbb914c2c	-0.004434129
146	0x3e1bcf64	0.15215832
147	0x3e2f20a4	0.17102295
148	0x3dddbb67	0.1082676
149	0x3d92bd35	0.071649946
150	0x3dc05f2d	0.09393153
151	0xbd9da0c3	-0.076966785
152	0xbd177049	-0.036972318
153	0x3e249063	0.16070704
154	0x3ce6f241	0.028191688
155	0xbc031816	-0.008001348
156	0x3e2b64c3	0.16737656
157	0x3e254036	0.16137776
158	0x3d2b5d8b	0.041837256
159	0xbe1172b5	-0.14203914
160	0xbe2eb1f0	-0.17060065
161	0xbd21439a	-0.03937111
162	0x3de77eb5	0.11303464
163	0xbd952144	-0.072817355
164	0xbdfc55ba	-0.123210385
165	0x3dfd850e	0.12378894
166	0x3d6bd194	0.057572916
167	0xbd9da4e4	-0.07697466
168	0x3d5be2d7	0.05368313
169	0x3dec7ab1	0.11546839
170	0x3d56f7f1	0.05248255
171	0x3d319ce4	0.043362513
172	0x3e27bd98	0.16380918
173	0x3e18a8b4	0.14908105
174	0x3db407ee	0.08790575
175	0xbc5b13a7	-0.013371385
176	0xbdbc9f14	-0.09210029
177	0xbc0eff7f	-0.008727907
178	0x3d711db6	0.058866225
179	0x3e111ea4	0.14171845
180	0xbcc3334b	-0.02382817
181	0x3cbdf112	0.02318624
182	0x3db0fb46	0.086416766
183	0x3e31712e	0.17328331
184	0x3e2bb251	0.16767241
185	0xbb3c8f19	-0.0028771816
186	0x3d09b7e3	0.033622634
187	0x3e2587b4	0.16165048
188	0xbd1e2914	-0.038613394
189	0x3daf2001	0.08551026
190	0x3dc4f978	0.09617895
191	0x3db0d261	0.086338766
192	0x3e1f70d8	0.1557039
193	0x3cdb496b	0.026768407
194	0x3e763064	0.24041897
195	0x3e976dfa	0.29576093
196	0xbd1f441f	-0.038883325
197	0x3db19e99	0.08672828
198	0x3e49dccb	0.19713132
199	0x3cea9c5b	0.02863901
200	0x3e1f61ce	0.15564653
201	0x3c3c0973	0.011476862
202	0x3ce9925f	0.028512178
203	0x3ddadf38	0.10687107
204	0xbbba6994	-0.0056888554
205	0x3d9829e9	0.07429869
206	0xbd0fe1be	-0.035127394
207	0xbd1a84ae	-0.03772419
208	0x3d4d0a63	0.050058734
209	0x39d04fd0	0.00039732317
210	0xbbfd0301	-0.0077213054
211	0x3e4ebff6	0.20190415
212	0x3c0e32ca	0.008679101
213	0x3e308e36	0.17241749
214	0x3dff8dd0	0.124782205
215	0x3d92b37b	0.071631394
216	0x3e4a8208	0.19776165
217	0x3e3e2083	0.1856709
218	0x3e4a156a	0.19734731
219	0x3dec4328	0.115362465
220	0x3d8c37ef	0.06846606
221	0x3e80f6ef	0.25188395
222	0x3e047e90	0.12938905
223	0x3dafa59e	0.08576511
224	0x3b532e3b	0.00322236
225	0x3e1101a5	0.14160784
226	0x3c8a9543	0.016916877
227	0x3d2fa8a1	0.042885426
228	0x3d0e2b2e	0.034709148
229	0x3d592310	0.053011954
230	0x3df23239	0.118259855
231	0x3ddc4810	0.10755932
232	0x3e5dab24	0.21647316
233	0x3e44f2c4	0.19233233
234	0x3e28aded	0.16472597
235	0x3e95c856	0.29254407
236	0x3dda053c	0.1064553
237	0x3e5dd660	0.21663809
238	0x3e1cacdd	0.15300317
239	0x3eb632cc	0.3558563
240	0x3e483e24	0.19554955
241	0x3e852197	0.2600219
242	0xbca31fd6	-0.019912641
243	0x3ddc17d6	0.10746734
244	0x3e036abe	0.12833688
245	0x3dd37a3b	0.10326048
246	0x3db15138	0.08658069
247	0x3e4472c5	0.19184406
248	0x3e3e2f01	0.18572618
249	0x3e563b3a	0.2092103
250	0x3dc24f90	0.094878316
251	0x3e2638a3	0.16232543
252	0x3ca06084	0.019577272
253	0x3e1c720f	0.15277885
254	0x3d5604ae	0.052250557
255	0x3db64702	0.089002624
