TFM/experimentos_split/results/branch_trip/AGCRN.pt (torch, 267636 bytes, 6 tensors)

recurrent._gate.weights_pool f4 [2, 10, 110, 20]
00000000: 52dd bc3d b5fb c3bd b619 ff3c b031 85be
00000010: 86da 1d3e 9347 23bd 14b2 563e 9c56 263e
00000020: d3f1 cf3e aa25 1d3e ea7a 90be 991f 133e
00000030: a771 25be f14b c9bc 8abe 2fbe b240 edbd
00000040: 0a22 093d 6588 93bd 8eb3 bb3d 075d 8fbe
00000050: df4a 843e 6501 e9bd b4eb 033e 8ce7 93bd
00000060: f7d2 a43e f767 953e 8c05 563e 9814 6a3c
00000070: 0dff 853e a6ed 08bd a45d fabd 2536 31be
00000080: fc0b c93d 0a17 babd 6fd0 f13d e698 343e
00000090: 02af 0b3d 4fee 34be 51b4 4c3e 6412 ed3a
000000a0: 272e ea3d 4d81 11be 50e5 813e b472 e1bd
000000b0: 629a f93d 2e2a aa3e c1af 933d 9b31 943d
000000c0: 91ee dc3d 4976 913d fbf0 a73c 8d86 72bd
000000d0: bf43 6fbe 2c67 67bc 88f4 21be 9a6d 2e3e
000000e0: 92f5 0d3e e218 74be 33e1 673d 3e40 0fbd
000000f0: 3d94 153e 18d6 e3bc e42e 943e cdc5 76bc
00000100: d54d 983e 5246 ac3d 9748 d0bc d6a3 5c3e
00000110: 72c4 323e fa88 193c 4015 1a3d fef6 2f3e
00000120: 7b92 ebbd ca53 7c3c 14ae 003c dcd4 ae3d
00000130: 035f bd3c 2346 173c 0e1e 42be 2bc6 f2bd
00000140: 825b 8e3e e1f8 063e b69b 223e bd0a 5fbe
00000150: cb01 bf3d 680f 7fbd 49c1 1bbd 33f5 853e
00000160: 868c b53e 65fe 433e 3cf8 94be 1c71 07be
00000170: 240d 0fbe 9c37 853e 0158 0b3d e953 0d3d
00000180: bda9 813d 80ee f2bd 1f28 08be d519 6f3c
00000190: 3af4 8c3b 5714 f03a 3feb 2cbd 5cf5 1a3d
000001a0: dc10 c53e 5771 503e 769e f1bd 128f 82bc
000001b0: b752 2a3d 3aae 763e de19 083c 4787 343e
000001c0: ed53 133c cf03 db3d d29c 5238 f737 77bd
000001d0: c79f 5abe 64bc 73be 5fd9 be3d e611 57be
000001e0: f647 3c3d 10fa 9fbd 8a3b f93d 4c06 68be
000001f0: 3ca9 8b3d 371b 443e 0931 13bd 3c5f a03e
00000200: 9a65 0a3e fe8d bcbd 1fde 08be 6db4 e7bd
00000210: 7020 26be 6767 13be a023 f33d 46f4 47bd
00000220: 0be8 993d 5767 1f3d b785 1f3e 4a9c 4cbe
00000230: 050b 7b3e 9068 78bd 6fdf 753e 5a41 043e
00000240: 73b8 3e3e e9ca fd3d 33f4 54bc 291a f139
00000250: 3631 a03e 515e fcbd d955 1b3d ebde 233e
00000260: 5bc3 c93d c9d6 90bc f3e4 35be 4ec4 093e
00000270: 5d36 b83d 12df 72be 971e 37bd 407e 8abe
00000280: 94d1 b03d 2610 83bd 7055 b23d e869 15be
00000290: bc88 9c3c b18c 973e 0e2a 5e3e 0da0 1a3e
000002a0: 374f 453e f074 96bc a745 91be 93cc 6bbe
000002b0: 4bdc 7fbc 2851 4ebd f983 09be 1b60 ba3d
000002c0: 55b9 cabd c56e e1bd 0429 493c f6ac b4bd
000002d0: b4d4 d03c b9c5 6dbd eed9 16bc 6c1c bf3d
000002e0: 17ba 083e 7b9a 343e fffa 1fbd 22fa 5a3e
000002f0: 28de d43e 4e00 3d3e 8471 90be a5b2 a63d
00000300: accd c93d 567b e53d f382 193e 4f35 a03e
00000310: 8c5e 89bd d2d8 073c 2550 13be c949 38be
00000320: 2609 823e 1283 1b3e 608d 063d a8ec 6abe
00000330: 909b 9c3d f3ed bdbd cbf1 ecbd 1743 023e
00000340: 069a b83e f0f3 fe3d a370 85be 599e 41be
00000350: 53eb 7e3b a299 d5bd 0b0b babc 0f79 523e
00000360: f607 05be 4f92 62bd b283 6abc e096 1dbe
00000370: 2272 28bc fea2 16be 2979 5cbc 2ccb 45be
00000380: 7876 d73e a0cc 1c3c ba7f dbbd 3936 703e
00000390: 5fac 873e 232e 3d3e 1e27 7d3d 461f d33d
000003a0: 31d7 9cbe 9db3 c33d 19f4 063e d887 b63d
000003b0: 3aa5 21be 6f0e 243e 143d a1bd 7dbf 29be
000003c0: 58ef debd a36b 4e3d b9c8 823e 152f 0d3c
000003d0: 470b 893e 0e5d f5bc b2b3 16be 38f8 443e
000003e0: e4e3 d33e 7fcd 5b3e dcda 54be bec5 03bd
000003f0: 64d0 86be c90d 3dbd d7ca 3b3d e756 5f3e
0.09221901 -0.09569494 0.03114019 -0.2601447 0.15415391 -0.03986318 0.20966369 0.16243976
0.40614185 0.15346399 -0.28218776 0.14367522 -0.16156636 -0.024572344 -0.17162529 -0.11584605
0.033479728 -0.072037496 0.09165107 -0.28000662 0.25838372 -0.11377219 0.12882882 -0.072218984
0.32192203 0.2918088 0.20900553 0.0142871365 0.2617115 -0.033429764 -0.12224892 -0.17305811
0.09816739 -0.090864256 0.11807334 0.17636451 0.034102447 -0.17669033 0.1999066 0.0018087146
0.11434584 -0.1420948 0.25370264 -0.11008206 0.12187649 0.33235306 0.07211257 0.07236024
0.107876904 0.07102639 0.02050065 -0.05921035 -0.23365687 -0.014123719 -0.15815938 0.17033997
0.13863209 -0.23837617 0.05661125 -0.034973375 0.1460733 -0.027812049 0.28942025 -0.015061808
0.2974688 0.0841185 -0.025425239 0.21546873 0.1745775 0.009371037 0.03761792 0.17184064
-0.11502548 0.015400836 0.007854003 0.085366935 0.023116594 0.0092330305 -0.18956777 -0.11854204
0.2780419 0.13180877 0.15879712 -0.2178144 0.09326514 -0.062270552 -0.038026128 0.26163635
0.35458773 0.19140013 -0.29095638 -0.13226742 -0.13969857 0.2601899 0.034019474 0.03450385
0.06331203 -0.118618965 -0.13296555 0.014593561 0.004301575 0.0018316609 -0.042216536 0.03783165
0.38489425 0.20355736 -0.11797802 -0.015937362 0.04158279 0.240899 0.0083069485 0.17629729
0.008992177 0.10694086 5.0213952e-05 -0.060356107 -0.21350013 -0.23802334 0.09318804 -0.21002921
0.045967065 -0.078113675 0.12169559 -0.22658652 0.06819388 0.19151007 -0.035935435 0.31322658
0.1351532 -0.0920677 -0.13365982 -0.1131371 -0.16223311 -0.14394914 0.11872029 -0.04881694
0.07514962 0.038916912 0.15578352 -0.19981495 0.24515922 -0.060646594 0.24011014 0.12915555
0.1862505 0.12392218 -0.012997675 0.00045986593 0.31287545 -0.12322677 0.037923668 0.16003005
0.09851714 -0.017680543 -0.17763118 0.1345379 0.08994744 -0.23717907 -0.044706907 -0.27049446
0.08633724 -0.063995644 0.08707702 -0.14591181 0.019108169 0.29599527 0.2169573 0.15100117
0.192685 -0.018366307 -0.28373453 -0.23027258 -0.015616487 -0.050370365 -0.1342925 0.09100362
-0.098986305 -0.11007456 0.012277845 -0.08822052 0.02549205 -0.05804989 -0.009207232 0.09331593
0.13352238 0.17637055 -0.039057728 0.2138448 0.41575742 0.18457147 -0.28211606 0.081395425
0.09853682 0.11205165 0.1499136 0.3129067 -0.067074865 0.00829144 -0.14386041 -0.17996897
0.25397605 0.15186718 0.03284967 -0.2294184 0.07646859 -0.09273901 -0.11569556 0.12720905
0.3605501 0.12448871 -0.26062497 -0.18908061 0.0038897588 -0.10429694 -0.022710344 0.20553993
-0.12991318 -0.055315312 -0.014313625 -0.15389585 -0.010281118 -0.14710614 -0.013456621 -0.19315785
0.42082572 0.009570271 -0.10717721 0.23458184 0.26498696 0.18474631 0.061804883 0.10308699
-0.30632928 0.09555743 0.13179053 0.08912629 -0.15785685 0.16021131 -0.07872978 -0.16576953
-0.10885495 0.05039562 0.25543764 0.008617182 0.26766416 -0.029951598 -0.14716986 0.19235313
0.41384804 0.2146511 -0.20786613 -0.032171004 -0.26330864 -0.046155725 0.04584774 0.21810494

recurrent._gate.bias_pool f4 [2, 20]
00000000: da60 853e 716c b83d 8155 a03e 2574 f8be
00000010: a99d b23e 333e 343e f290 983d ec77 9d3e
00000020: 0f45 b73e d133 0d3e e5fb e0bc c5be c6bc
00000030: f930 8dbd b851 303d 5a07 6f3d a747 b73d
00000040: 03e9 98bd 0007 cb3d a68e 303d f5e4 2ebe
00000050: fe10 c7ba 0ca5 503d f9f1 1bbd 9eff b9bc
00000060: 35b6 88bd 761b 67be f082 9cbd 88dd a33d
00000070: babf 9d3d 70d8 6d3d 2276 d13d aa76 48be
00000080: 691f da3d 460a 0ebe e507 96bd edc2 93bd
00000090: 1c3d fdbd 07e1 66be ce1b b2bd d5f0 99bc
0.26050454 0.090050586 0.31315234 -0.4852611 0.3488591 0.17601852 0.07449521 0.30755556
0.35794875 0.13789298 -0.027463863 -0.024260888 -0.068941064 0.043046683 0.05835662 0.089492135
-0.074663185 0.099134445 0.04310479 -0.17079528 -0.0015187559 0.05093865 -0.03807256 -0.022704896
-0.06675378 -0.2256907 -0.07642162 0.08001238 0.077025846 0.05806774 0.1022761 -0.19576517
0.10650522 -0.13871107 -0.073257245 -0.072149135 -0.12365171 -0.22546779 -0.086967096 -0.018791595

recurrent._update.weights_pool f4 [2, 10, 110, 10]
00000000: a358 bd3d cda8 003e bd45 9dbd fb46 1c3c
00000010: d409 133e 1952 913e 720a cb3d 9c8a 12bd
00000020: bdb9 6f3d 0b1d 033e 113e 243e ecb1 223e
00000030: 2e11 393e d147 763d 6373 1e3e 1792 303e
00000040: e7ce 09be ab01 133e 3830 823e b900 dc3d
00000050: fc27 39be 4113 d8bd bb74 633e e25c a13d
00000060: 1a43 793e b0a4 abbd 2f3e 383e 3812 383e
00000070: 0fd6 173e 50a3 4c3e 5f4d 6ebe e69f 483e
00000080: 610d 13bd c6af 0e3d c6ca a3bd 1db3 bebd
00000090: 5fd2 6abd afa9 963d 6699 a43d a1eb 69be
000000a0: dd29 083e 9941 bcbd ec2c 973e 8293 fa3d
000000b0: 113c 263c 09cb 183e c367 b6bd 8cea a0bd
000000c0: f6b3 6b3e 9b6d 22be 6fa7 d3bd 3be4 bd3d
000000d0: fe00 ddbd 4154 05be 3c7a 6e3e a443 74bd
000000e0: 15f6 86be 4260 043e 0d08 473e df6a 853d
000000f0: fdd6 76be ffe7 18be a1f2 3d3e 3aaf cc3a
00000100: bac1 8b3e 0e6a 683e 7801 763d b889 043e
00000110: 5409 763e aec8 e53d 5dee a6bd 358e e4bd
00000120: 2dbc 7d3c be35 863c fb83 0dbe 2521 3b3e
00000130: 546b 3cbe fd0d 3fbe 605b 3c3e 9211 4dbe
00000140: dd5c 1fbd 27e2 5b3d 3735 983e a19b e83d
00000150: 5bee 4c3e 12a5 81bb 76c6 6abe b00a cc3d
00000160: e43d 99bd 5aab 3d3c d53d 62be 1f71 ef3d
00000170: 612a 293e fc01 ddbd 7cff 71bd 06cf 9c3d
00000180: 84e4 0f3e 9f21 5bbd abc2 54bd f00f 1b3e
00000190: 3d5f 6ebe 5037 153e 9206 09bd 5522 ca3d
000001a0: de4d 523d 4828 753e a555 b5bd 152f 6dbe
000001b0: dc3a a33d 30ca 15be a885 273e 7d37 0a3e
000001c0: b5f6 0ebd be1d fa3c a711 153d c1bb ad3d
000001d0: 0be5 363e ea0e ba3d 07f7 f73c 9002 423e
000001e0: b3e7 ce3d d021 1fbd 46ed 94bc aa76 f6bd
000001f0: 8e02 91bd 9d1a 05be d16e 0b3d d2e3 3ebe
00000200: b7ca 8b3e 0cc5 e7bd e703 e8bc bba1 403e
00000210: 1756 373b 1abb cb3d f389 99bd 542d dabd
00000220: fdcf 123e 643d 10be c52c d2bd 20de 0a3e
00000230: c966 17be ec19 383e caab 3c3e e2a2 003e
00000240: e25a 93bd f9eb 193e 4a0b 5e3b 2a8e 78be
00000250: b029 6b3e 00bc 083e 0529 b93d 4676 543e
00000260: f865 03bd cfe2 0f3e 0c94 8a3e 75b3 8d3d
00000270: c752 a4bd 9609 dc3d 7250 9e3b 4691 443e
00000280: ea83 dfbd 0e7a 4a3e 41c5 373e f7d9 91bd
00000290: dc78 b23d 1606 0cbe efbb a03d 1a22 72be
000002a0: 55d2 6a3d 61c9 fdbd 8d56 80bd 66e6 5bbe
000002b0: b785 963e d98d 6dbc 0092 973d a57c d53d
000002c0: dcd3 b53c 5062 79be a586 8b3c 66a2 4c3e
000002d0: a3bc 92bd 4b7b 34be 903c 843e e3c9 33be
000002e0: b9da 20bd 1709 793d e94f babd e912 503d
000002f0: fde3 773d 99aa 45bd b184 65be 7420 fc3d
00000300: 9dd7 ca3d 2d93 b2bd 7e35 f33d 25f8 6ebd
00000310: 5f0c 963d 3211 b73d df7f b73c 66b7 183e
00000320: 8894 e2bd d7ca 9fbd d381 a3bd 646e 403e
00000330: 6678 063e 1771 fa3d 539f 9f3d 5fbb cd3d
00000340: 04cc eb3d 1368 333c f3ef f9bd 43ca 253e
00000350: edf8 413e dcc9 b43d 89ca 153e b44b f0bc
00000360: dc96 15be 93ad fabc 9ef1 633e a0a6 883c
00000370: 6545 02be a36a 56be 93f6 ab3d 46b2 f53c
00000380: 5a75 493e 17cb 5bbe a1d5 19bc 3df1 333c
00000390: 964c 85bd 1e52 f9bd d243 17be 8cfc 3f3e
000003a0: 1e89 9fbd 94e9 3abe befa e23d 5484 25be
000003b0: b6c6 5ebc 1727 fa3d bd1a 8f3b 7bd2 d6bd
000003c0: 62c7 85bc 9fca b53d 09de a4bd 4e53 35bd
000003d0: 2857 833e ef25 583e 5ebf edba 1954 3ebb
000003e0: 7739 923e 1617 20bd 565d efbd 1dfe 06bd
000003f0: 9305 833e 4cca b13d 95cd c0bd 74df 0bbe
0.09245422 0.12564392 -0.07679317 0.009538407 0.14359218 0.28382948 0.09914102 -0.03577672
0.058526743 0.12804048 0.16039301 0.15888184 0.1807296 0.060127083 0.15473704 0.17243229
-0.13457833 0.14356105 0.25427413 0.10742325 -0.18081659 -0.105505474 0.22212498 0.07879044
0.24342003 -0.08381021 0.17992471 0.179757 0.1482775 0.19984174 -0.23271702 0.19592246
-0.03590143 0.0348356 -0.0799766 -0.09311507 -0.05732953 0.07356583 0.08037071 -0.22843792
0.1329722 -0.09192199 0.2952646 0.12235166 0.010146157 0.14921202 -0.0890651 -0.07857236
0.23017868 -0.15862124 -0.1033467 0.09272047 -0.10791205 -0.13020422 0.23288816 -0.05963482
-0.2635962 0.12927344 0.19436665 0.06514525 -0.24105449 -0.1493225 0.18549587 0.0015616186
0.2729624 0.22696707 0.060059994 0.1294316 0.24026996 0.11219917 -0.08150933 -0.11159936
0.015486759 0.016383048 -0.13819878 0.18274362 -0.18400317 -0.1865768 0.18394232 -0.20026234
-0.03890692 0.053682473 0.297281 0.11357809 0.200128 -0.0039564455 -0.2292727 0.09962976
-0.07482508 0.011576498 -0.220939 0.11691498 0.16520073 -0.10791394 -0.05908154 0.07656674
0.14052016 -0.05349886 -0.051943462 0.15142798 -0.23278518 0.14571881 -0.03345353 0.098698296
0.05134379 0.23941147 -0.08854226 -0.23162492 0.07970211 -0.1462791 0.1635958 0.1349773
-0.034903247 0.03053176 0.036393788 0.08483077 0.1786081 0.09084876 0.030269159 0.1894629
0.10102787 -0.038850605 -0.018179547 -0.12034352 -0.070805654 -0.12998433 0.03404123 -0.18641594
0.27303097 -0.113168806 -0.028322173 0.18811695 0.0027974898 0.09947796 -0.07497015 -0.10653177
0.14337154 -0.14085919 -0.10262445 0.13561296 -0.14785303 0.17978638 0.18424907 0.12562135
-0.07195069 0.15031423 0.003388124 -0.24272981 0.22965121 0.13352966 0.09041027 0.20748243
-0.032079667 0.14051364 0.27066076 0.06918994 -0.08023601 0.10744016 0.004831367 0.19196042
-0.109138325 0.19773123 0.1794634 -0.071216516 0.08714458 -0.13674197 0.078483455 -0.23645821
0.057329495 -0.123919256 -0.06266508 -0.21474609 0.2939889 -0.014499151 0.07400894 0.10424165
0.022195749 -0.2435391 0.017031977 0.19983825 -0.07164886 -0.17625158 0.25827456 -0.17557482
-0.03927109 0.060799684 -0.09097273 0.050799284 0.06052016 -0.048258398 -0.22413899 0.123108774
0.09904406 -0.08719478 0.11875437 -0.058342118 0.07326578 0.089388266 0.02239984 0.14913711
-0.11063486 -0.078023605 -0.079837464 0.1879211 0.13131866 0.122286014 0.077940606 0.10045504
0.11513522 0.010950106 -0.1220397 0.16190438 0.18942614 0.08827564 0.14628042 -0.029332973
-0.1460833 -0.030600345 0.22260138 0.016681015 -0.12721784 -0.20939116 0.0839664 0.029992234
0.19673672 -0.21464191 -0.009389312 0.010982809 -0.06508748 -0.12173866 -0.14771965 0.18748683
-0.07789825 -0.18253165 0.110829815 -0.1616376 -0.013597181 0.12214487 0.004367201 -0.10489365
-0.016330425 0.088765375 -0.08050162 -0.0442689 0.25652432 0.2110822 -0.0018138697 -0.0029041825
0.28559467 -0.039084516 -0.11687724 -0.032957185 0.2559019 0.08681163 -0.09414212 -0.1365946

recurrent._update.bias_pool f4 [2, 10]
00000000: 3888 a7be 33f4 7cbe df61 343d e00a 013f
00000010: caaa 553d 58b2 91bc 1c6d f6be 721a 07bf
00000020: 57f3 fa3d 346b bebe 2120 ee3d 6edc 22bf
00000030: ee25 073c 56c4 97be 0d13 9fbd 7ef8 56be
00000040: b89c c4be bd72 bbbe a397 97bd 6579 bf3e
-0.32721114 -0.2470253 0.04403865 0.5040722 0.05216483 -0.017785236 -0.4813012 -0.5277473
0.12253445 -0.37191164 0.11627222 -0.636176 0.008248789 -0.2964198 -0.077673055 -0.2099323
-0.38400817 -0.36610976 -0.07401969 0.37397304

linear.weight f4 [20, 10]
00000000: 99eb a23e faf4 433e 4e70 6f3e e93a bb3e
00000010: 11fa b5bd 145e 043f ca23 5f3d 2823 4e3e
00000020: 2c88 cc3d 4e51 e53e c980 a73e a56a 403e
00000030: 65a1 943e da2a ba3e e645 f5bd df62 153f
00000040: 22e3 653d c6db 4c3e f035 073e 2344 e53e
00000050: 99f7 a63e c9f9 463e efe2 113e 9c06 be3e
00000060: 2ebc 783e e66a dc3e 4ba2 5e3d aa22 4f3e
00000070: db5b 70be d1c0 e53e 0d13 a43e ec75 443e
00000080: 1f20 3f3e 2ec3 bc3e fabd 95bd b07e f03e
00000090: 32f7 613d f9ae 4d3e 23e8 ac3d 57c7 e53e
000000a0: 345a a43e 78d2 443e 8670 6e3e 820f bd3e
000000b0: e932 b8bb bfba 043f 1d04 653d f24b 503e
000000c0: 4bc6 823c 6a6f e73e f129 a53e 5460 483e
000000d0: 329d d93d 4f02 c03e d12e 56bc d606 c73e
000000e0: 0286 613d 75d4 4f3e e9df b83c 8e43 e73e
000000f0: 6009 a73e 3348 3f3e e96b 9d3e cbeb bb3e
00000100: 2635 d1bd 5438 193f c1ed 703d 32ee 4d3e
00000110: a503 ee3d 7a59 e73e c91b a13e 60d8 453e
00000120: 4943 3b3e b7b0 be3e 7d60 0d3e 2491 eb3e
00000130: 1aed 663d 0f86 503e 5960 03be 709f e73e
00000140: a218 983e c0e7 433e dfbc 623e 1cef ba3e
00000150: 9fd4 f23d 4261 f73e 40ea 663d 93f1 4e3e
00000160: 0375 ddbd 87a1 e53e 3205 9f3e 0942 453e
00000170: 68db 333e ed82 bd3e f2a1 dbbd 74bd e53e
00000180: 04da 673d cb73 503e df02 f03d 1275 e63e
00000190: d51b 9e3e ed26 453e 901a 1e3e 7832 be3e
000001a0: 2c56 88bd 7127 d93e 0465 6b3d bdee 4f3e
000001b0: acdd 9c3d e554 e63e 627d a23e 90db 403e
000001c0: 53ac 4d3e aa3b bc3e 2394 283e 99a6 f53e
000001d0: 21cd 713d 2f7d 4e3e 711b 1cbe 2042 e53e
000001e0: 1ca4 973e 3277 3c3e 291a a43e be96 b93e
000001f0: 89f6 113e 0457 153f a52b 733d 2fef 4d3e
00000200: 5ae4 05be 38e8 e43e 5516 a43e 88dd 3a3e
00000210: 237c 853e ddb4 ba3e a4fd 0ebe 1139 0b3f
00000220: 33c7 783d 3eb1 4b3e 1d99 1c3e 73b1 e33e
00000230: fef8 943e 3d86 3b3e 3b1e b63e 332b b83e
00000240: 93bd 0ebe 831d 1d3f 2bcf 783d 3a9d 4d3e
00000250: a926 1c3e 9c5e e43e 319b 9c3e c627 3a3e
00000260: 6f62 873e 3e54 b83e 23a9 aa3c adcf 083f
00000270: 1c6e 773d 41c4 4b3e 3ec3 0dbc df02 e23e
00000280: 1f43 a23e 9aab 3f3e 5ab4 a43d 017c bc3e
00000290: f753 e23d 4e5f b53e 99f6 713d 1001 4b3e
000002a0: fc26 cebd 7953 e13e b847 9a3e c601 3b3e
000002b0: 0296 683e 3584 b93e 2329 0cbe 614e fb3e
000002c0: e8a2 793d 1b0a 4c3e 0416 183e e4cb e13e
000002d0: d4fa 9c3e ada6 3a3e 549a 323e ff9f b93e
000002e0: 27c7 aa3d a4b8 e13e 4579 793d b8eb 493e
000002f0: 054f 93bd 5239 e03e d830 993e 704e 363e
00000300: a20e 913e 5072 b73e e45f d2bd 29e3 0b3f
00000310: d33f 7e3d 482e 4a3e de92 ec3d 2414 e03e
0.31820372 0.1913642 0.23382685 0.36568382 -0.08885587 0.5170605 0.05447749 0.20130599
0.0998691 0.44788593 0.32715443 0.18790682 0.29029384 0.36360818 -0.11976223 0.5835399
0.056124814 0.20005712 0.1320417 0.44778547 0.32610777 0.19431223 0.14246725 0.37114418
0.24290535 0.43050307 0.054353993 0.20228067 -0.2347254 0.4487367 0.32045785 0.19185609
0.18664597 0.3686766 -0.07311626 0.46971655 0.055167384 0.20086278 0.08442714 0.44878647
0.3210007 0.19220912 0.23285112 0.36925894 -0.0056213033 0.5184745 0.055912126 0.20341471
0.015963694 0.4520219 0.3225856 0.19567996 0.10625686 0.3750176 -0.013072685 0.38872403
0.05505944 0.2029589 0.022567706 0.45168728 0.3262434 0.18679886 0.3074639 0.36703333
-0.102152154 0.59851575 0.05882049 0.20110396 0.11621789 0.45185453 0.3146651 0.19320822
0.18287386 0.37244198 0.13806339 0.4600917 0.05637846 0.2036364 -0.12829722 0.4523883
0.29706293 0.19131374 0.22142361 0.3651055 0.118569605 0.4831639 0.056375742 0.20209341
-0.10813334 0.44849798 0.3105865 0.19263472 0.17564166 0.3701395 -0.10724248 0.44871104
0.0566044 0.20356672 0.117192976 0.45011193 0.3088061 0.1925313 0.1543982 0.3714788
-0.06657061 0.42412904 0.057469383 0.20305915 0.07659468 0.44986644 0.31736284 0.18833756
0.20085268 0.3676427 0.1646276 0.47978666 0.059033517 0.20164941 -0.15244843 0.44777012
0.29617393 0.18404844 0.3205121 0.3624782 0.14254202 0.583359 0.059367795 0.20110773
-0.1307539 0.4470842 0.32048288 0.1824857 0.2607127 0.36466113 -0.13963944 0.5438395
0.060736846 0.19891831 0.15292783 0.4447132 0.29096216 0.18312927 0.3556994 0.35970458
-0.13939504 0.61373156 0.060744446 0.20079508 0.15249123 0.4460343 0.30587152 0.18179235
0.26442286 0.36001772 0.020832604 0.5344189 0.060407743 0.19899084 -0.008652506 0.44142815
0.31691834 0.18717805 0.08042212 0.36813357 0.11051171 0.35424274 0.059073064 0.19824624
-0.100660294 0.44008997 0.30132842 0.18262395 0.22713473 0.36233678 -0.13687567 0.49083236
0.060946375 0.1992573 0.14852148 0.4410087 0.30660117 0.18227644 0.17441684 0.3625488
0.083387665 0.44086182 0.060906667 0.19718826 -0.07192806 0.43793732 0.29920077 0.17803359
0.28331476 0.358294 -0.10272196 0.54643494 0.062072586 0.19744217 0.1155145 0.43765366

linear.bias f4 [20]
00000000: 643a 873e 9291 4b3e 0d8b b23e 803b 9e3e
00000010: 93d7 853e 2913 c63e 6151 393e 2cf8 a23e
00000020: 7093 983e da24 a93e 0d21 b53e 1ebd 983e
00000030: 1958 4e3e 9937 733e 7c3a 2f3e ec31 803e
00000040: 9737 d93e bcb3 953e 8155 ae3e cf73 753e
0.26411736 0.1987975 0.34871712 0.3090477 0.26141033 0.38686493 0.1809745 0.31829965
0.29799986 0.33035928 0.35376778 0.29831785 0.20150794 0.23751678 0.17112154 0.25038087
0.42425224 0.2923869 0.3404961 0.23969959
