TFM/experimentos_split/results/branch_trip/ASTGCN.pt (torch, 108482 bytes, 18 tensors)

recurrent._blocklist.0._temporal_attention._U1 f4 [23]
0	0x3e2c2c36	0.1681374
1	0x3eda4044	0.42627156
2	0x3eb10699	0.34575346
3	0x3e29aa0b	0.16568772
4	0x3f459d99	0.771936
5	0x3ef0c687	0.47026464
6	0x3e20a641	0.15688421
7	0x3bb109e2	0.0054027895
8	0x3f50908f	0.8147058
9	0x3dbcef10	0.09225285
10	0x3f4ae8fe	0.7926177
11	0x3ed19eca	0.4094146
12	0x3f444bb5	0.7667802
13	0x3eb57a1e	0.3544473
14	0x3f5929a6	0.84829175
15	0x3f537606	0.82601964
16	0x3f553d36	0.83296525
17	0x3f17dbd8	0.5931983
18	0x3f42d024	0.7609885
19	0x3f6fe26a	0.93704855
20	0x3df1b737	0.118025236
21	0x3ee025a1	0.4377871
22	0x3f6528d7	0.8951544

recurrent._blocklist.0._temporal_attention._U2 f4 [1, 23]
0	0xbedacba2	-0.42733485
1	0xbd861ea1	-0.06548811
2	0xbbecdf15	-0.007228742
3	0xbed8530d	-0.42250863
4	0xbec9024a	-0.3925956
5	0x3e841fcd	0.25805512
6	0xbe061f27	-0.13097821
7	0xbec80935	-0.39069524
8	0x3ed6c585	0.4194757
9	0x3e8325ff	0.25614926
10	0x3eef8db0	0.46787786
11	0xbe9c1707	-0.30486318
12	0xbe0ea7b6	-0.13931164
13	0x3de6aadd	0.11263058
14	0xbef5e307	-0.4802477
15	0x3cf2d652	0.029643212
16	0xbd832641	-0.06403781
17	0x3e840e1f	0.25792024
18	0xbe818a7c	-0.25300968
19	0xbe557751	-0.20846297
20	0x3ec538ae	0.38519806
21	0xbe621a3c	-0.2208032
22	0xbe5984ee	-0.21242115

recurrent._blocklist.0._temporal_attention._be f4 [1, 100, 100]
0	0x3c25ecb2	0.010127233
1	0x3bcb4c3c	0.006204156
2	0x3c2bf687	0.010495788
3	0xbbb0e0a3	-0.0053978725
4	0xbc89afdd	-0.016807491
5	0xbb8d4804	-0.0043115634
6	0xbbb35ed2	-0.00547395
7	0x3c51cca6	0.01280514
8	0xbc29cfaf	-0.010364457
9	0xbb986d4f	-0.0046517025
10	0x3c99ad4d	0.018759394
11	0xbb67a0bb	-0.0035343606
12	0xba6e3e06	-0.00090882217
13	0xbc51eb06	-0.012812382
14	0xbb766c96	-0.0037601343
15	0xbb9e327c	-0.0048277956
16	0x3c678c0e	0.014132513
17	0xbcb36489	-0.021898525
18	0xbc7a0b77	-0.0152615225
19	0xbb25edb4	-0.0025318684
20	0xbcc145db	-0.02359288
21	0xbc816b01	-0.015798094
22	0x39dc67dc	0.0004203905
23	0x3cb43f20	0.022002757
24	0xba751a35	-0.00093499135
25	0x3884ee7b	6.338671e-05
26	0x3c857525	0.01629121
27	0xbbaf54cd	-0.005350685
28	0x3cc65777	0.024211628
29	0xbb0d8c20	-0.0021598414
30	0xbbe99ba1	-0.007129148
31	0xbc807328	-0.01567991
32	0xbc8a837c	-0.0169084
33	0xbc79444d	-0.015214038
34	0xbbbbfaa9	-0.005736668
35	0xba69ab6f	-0.000891379
36	0x3c558d47	0.013034171
37	0x3c25b4ce	0.010113908
38	0x3c247799	0.01003828
39	0x3ba78a02	0.0051128874
40	0x3c6a247c	0.014290925
41	0xbc8af80e	-0.016963985
42	0xbc14090f	-0.009035363
43	0xbb909028	-0.004411716
44	0x3c168ac8	0.0091883615
45	0x3a99bed1	0.0011729841
46	0x3c8bc03b	0.017059436
47	0x3c41e683	0.011834743
48	0x3ca1e0c8	0.019760504
49	0x3b198680	0.0023426116
50	0xbcc1ad98	-0.023642346
51	0x3c329dc6	0.010901874
52	0xbc9ee9ae	-0.019398537
53	0x39388b90	0.00017599599
54	0x3ca49fcd	0.02009573
55	0xba9fcef5	-0.0012192415
56	0xbc1a772f	-0.00942783
57	0x3cab8ee4	0.020942159
58	0xbc00fdae	-0.007872982
59	0x3c4d97bf	0.012548386
60	0x3cadf705	0.021235952
61	0x3c09f485	0.008420114
62	0x3c574edb	0.013141359
63	0xbcc70cc6	-0.024298083
64	0xbbfa2115	-0.007633338
65	0xbb57030c	-0.0032808213
66	0x3cbcf172	0.023064349
67	0x3baf12b2	0.005342805
68	0xbc87eb60	-0.016591728
69	0xbbaa6f1a	-0.0052012326
70	0xba69f902	-0.00089253497
71	0x3c0034e4	0.00782511
72	0xbca44b0c	-0.020055316
73	0x3cba62a2	0.02275211
74	0xbca0d757	-0.019633932
75	0xbcac3a57	-0.021023912
76	0x3c89a148	0.016800538
77	0x3b89db4b	0.00420705
78	0xb8d2b56d	-0.000100473735
79	0xbca151e2	-0.019692365
80	0x3cc2ecda	0.02379458
81	0x3be2ca64	0.0069210995
82	0xbb315b96	-0.0027062646
83	0xbbc4ffc1	-0.0060119336
84	0x3b582935	0.0032983546
85	0x3c798866	0.015230274
86	0xbc94445e	-0.018099006
87	0xbbf0cb43	-0.0073484494
88	0x39a8c7ac	0.00032192224
89	0x3ca6f91b	0.020382455
90	0xbb228fcc	-0.0024804948
91	0x3c85baae	0.016324367
92	0x3cb60e61	0.022223653
93	0x3c3a6055	0.011375506
94	0xbc8b0a35	-0.01697264
95	0xbc43c14c	-0.011947941
96	0xb97b60ec	-0.00023973332
97	0xbbd717a3	-0.006564097
98	0x3ca72ed9	0.02040808
99	0x3c20eb67	0.009821749
100	0xba85984f	-0.0010192486
101	0x3c8f0771	0.017459603
102	0x3cc30d75	0.023810128
103	0xbc34ba5f	-0.011030762
104	0x3c68c94f	0.014208152
105	0xbb9b4f80	-0.0047397017
106	0x3cc4c25b	0.024018457
107	0x3b32cccc	0.0027282713
108	0x3bc7d411	0.0060982783
109	0xbcbcc0a4	-0.023041077
110	0x3c6c2ed1	0.014415459
111	0x3b8d3b4a	0.0043100463
112	0x3a469ef9	0.00075767894
113	0x3bd19b03	0.0063966527
114	0x3c79a0dc	0.015236106
115	0xbc1d6271	-0.00960599
116	0x3cbd3635	0.023097137
117	0x3bc36915	0.0059634545
118	0x3bdc18f1	0.0067168404
119	0x3cb60f97	0.02222423
120	0xbb90e08d	-0.0044213
121	0xbb7634b1	-0.0037568028
122	0x3c953dd2	0.018217955
123	0xbc05bbfd	-0.008162496
124	0x3b9620ea	0.0045815604
125	0x3cac0314	0.020997562
126	0x3c6bd1a5	0.014393245
127	0x3cc139f6	0.023587208
128	0x3c3ecc24	0.011645351
129	0x3c97acf3	0.018515086
130	0x3c70005d	0.014648524
131	0x3cc21385	0.023690948
132	0xbc20a893	-0.009805816
133	0xbc7d7524	-0.015469823
134	0x3b791fce	0.0038013342
135	0x3c252f55	0.010082086
136	0xbc954eb4	-0.018226005
137	0xbc03c3f7	-0.008042327
138	0x3c3faae3	0.011698457
139	0xbbbc0754	-0.0057381783
140	0xbc00b5a6	-0.007855808
141	0x3c52c1ad	0.012863559
142	0xbb8b784c	-0.004256284
143	0xbbcf5ba2	-0.006328062
144	0xbc6e4122	-0.014541896
145	0x396a0948	0.00022319437
146	0xbbd8c8a1	-0.0066157137
147	0xbc290c8f	-0.010317936
148	0xbbdec6b4	-0.0067985896
149	0xbc2d2e9b	-0.010570194
150	0xbb5e7594	-0.0033944594
151	0x3cac0566	0.020998668
152	0xbb8acfd0	-0.004236199
153	0xbc2d2b59	-0.010569417
154	0xbbf6801a	-0.007522595
155	0xbc0fe72a	-0.008783141
156	0xbc2e4e96	-0.010638854
157	0xbca6b529	-0.020350056
158	0x3c9dcb73	0.019262051
159	0xbc6843aa	-0.014176289
160	0x3c5f4c1b	0.013628985
161	0x3c96bbcc	0.018400095
162	0x3c33060f	0.010926737
163	0x3c24c8df	0.010057657
164	0x3c47129d	0.012150434
165	0xbc952990	-0.018208295
166	0xbcb939e3	-0.02261061
167	0xbcb26416	-0.02177624
168	0x3bb2aaa2	0.00545247
169	0x3c166d24	0.009181295
170	0x3bbfef9e	0.005857422
171	0xbc96651e	-0.018358763
172	0xbbaac103	-0.005210997
173	0xbacf6367	-0.0015822471
174	0x3cb7aeca	0.022422213
175	0x3c0fce28	0.008777179
176	0xbbdd2374	-0.006748611
177	0xbc720c5b	-0.014773454
178	0xbcb2c2a6	-0.021821331
179	0xbac4ecc3	-0.0015024174
180	0x3c7e05c6	0.015504306
181	0xbb7a1175	-0.0038157378
182	0x3c059855	0.008153995
183	0xbb0e1bc2	-0.0021684025
184	0xbc5572ca	-0.013027856
185	0x3c388dc8	0.011264272
186	0x3c5d0026	0.013488805
187	0x3cb21875	0.021740178
188	0xbc8fdc6f	-0.017561166
189	0xbbd955ce	-0.006632543
190	0x3c9a6b57	0.018850012
191	0xb8805d7a	-6.120927e-05
192	0x3c988061	0.018615903
193	0x3c30fab7	0.010801963
194	0x3bfab23c	0.0076506417
195	0xbc923953	-0.0178496
196	0x3cb738a8	0.022365883
197	0xbc0d4bd4	-0.008624036
198	0xbcb637dd	-0.022243435
199	0xbc89e595	-0.016833106
200	0x3ba7eff6	0.005125041
201	0x3cc43046	0.0239488
202	0x3c91f4aa	0.01781686
203	0xbb818fe3	-0.00395392
204	0x3bda3ee9	0.0066603315
205	0xbbccb1ab	-0.0062467656
206	0xbb57551a	-0.003285712
207	0xba26ce58	-0.0006363145
208	0x3cbdd18e	0.023171213
209	0xbc92cb57	-0.017919226
210	0xbbf313f5	-0.0074181505
211	0xb9cf13ca	-0.0003949686
212	0xbc1714cf	-0.00922127
213	0xbbbd7b3c	-0.005782513
214	0xbc2dfdb6	-0.010619571
215	0x3bf44a89	0.0074551743
216	0xbcb644d2	-0.022249613
217	0x3ab1764b	0.0013539282
218	0x3bd38b04	0.006455781
219	0x3c92a25c	0.017899685
220	0x3bc9a78a	0.0061540054
221	0x3b2d7b51	0.0026471207
222	0xbc01d5a3	-0.00792447
223	0xbcbd3a7a	-0.023099173
224	0xbc330d65	-0.0109284865
225	0x3b646169	0.00348481
226	0x3b7758af	0.0037742069
227	0xbca1ef5f	-0.019767461
228	0x3a8e4067	0.0010852934
229	0x3ad1c3eb	0.0016003823
230	0x3c4a15d0	0.012334302
231	0x3c828003	0.015930181
232	0x3abc755b	0.0014378236
233	0xbb8bffde	-0.004272445
234	0x3c818417	0.015810056
235	0x3c5d619f	0.013512044
236	0xbc94e544	-0.018175729
237	0x3ca2d565	0.019877145
238	0xbaffaec2	-0.0019507038
239	0x3cb3d253	0.021950876
240	0x3c821efb	0.015883913
241	0xbc94b069	-0.018150525
242	0x3c9bdf81	0.019027473
243	0xbcc19dbb	-0.023634782
244	0x3c8ecf62	0.017432872
245	0xbc80b32e	-0.01571044
246	0xb9d91421	-0.00041404463
247	0x3c45acf9	0.012065166
248	0x3c8971a7	0.016777826
249	0x3be00665	0.0068367
250	0xbb8da71e	-0.0043229004
251	0xbc9eed4b	-0.01940026
252	0x3cc366b1	0.023852678
253	0x3c8fb46c	0.017542087
254	0xbc87d3ff	-0.01658058
255	0xbc0a0307	-0.008423573

recurrent._blocklist.0._temporal_attention._Ve f4 [100, 100]
0	0x3e172980	0.14761925
1	0xbe195e3d	-0.14977355
2	0xbd245a21	-0.040125016
3	0xbd05a0b5	-0.032623965
4	0xbd2eed28	-0.04270664
5	0x3c6cf09f	0.014461665
6	0xbda0b8a7	-0.0784772
7	0x3aa92b12	0.0012906513
8	0x3c281eb5	0.010261227
9	0xbc928415	-0.017885247
10	0xbc9fe689	-0.019519107
11	0xbe1accce	-0.1511719
12	0xbd3c8995	-0.046029646
13	0xbe1b0861	-0.15139915
14	0xbe2047c2	-0.15652373
15	0x3ddac176	0.10681431
16	0xbdd8616f	-0.10565459
17	0xbe2f1a20	-0.1709981
18	0xbd07c78e	-0.033149295
19	0xbcf43f44	-0.029815324
20	0xbd87fe8c	-0.06640348
21	0x3d64184c	0.055687234
22	0x3d8f58bb	0.06999346
23	0xbe0ba96c	-0.13638848
24	0x3e0ef4a5	0.13960512
25	0x3d7a607e	0.06112718
26	0xbdf45923	-0.11931064
27	0xbd100311	-0.035159174
28	0xbd4659ea	-0.048425592
29	0xbdf37952	-0.118883744
30	0x3da7644d	0.08173428
31	0x3dc17e1d	0.09447882
32	0xbd132585	-0.035924453
33	0xbe181655	-0.14852269
34	0x3db651f9	0.08902354
35	0x3d86d5c3	0.065837406
36	0xbd747234	-0.059679225
37	0x3dc07a13	0.09398284
38	0x3d99a997	0.0750305
39	0xbdfe8040	-0.124268055
40	0x3d824e9a	0.06362648
41	0xbcadb95d	-0.021206552
42	0x3b6fa7dc	0.0036568558
43	0x3dd81ae6	0.105520055
44	0xbcc0dd4f	-0.023543028
45	0xbd996b6e	-0.07491194
46	0xbe2f84e9	-0.17140545
47	0x3d58b2dd	0.052904952
48	0xbdecd4db	-0.115640365
49	0x3e00a555	0.12563069
50	0xbda522b7	-0.08063262
51	0xbcfeb83f	-0.031093715
52	0xbd8b0ad6	-0.06789176
53	0x3cc48b0f	0.02399209
54	0x3dbbda1e	0.09172462
55	0xbdbd6b0c	-0.09248933
56	0xbe251510	-0.16121316
57	0x3e200f46	0.15630826
58	0xbdef99c8	-0.11699253
59	0xbdc43b19	-0.095815845
60	0xbd16eb8f	-0.03684574
61	0xbdda5599	-0.10660858
62	0x3db28ea3	0.08718612
63	0x3e0fada6	0.14031085
64	0xbe2779e7	-0.16355096
65	0x3decb577	0.11558049
66	0x3c9e759d	0.019343192
67	0x3d544aa5	0.051829
68	0xbdb5f3a4	-0.088843614
69	0x3bbb57c4	0.0057172496
70	0x3db37b65	0.0876377
71	0x3d747658	0.059683174
72	0x3e14aba3	0.14518599
73	0xbdfc1e0b	-0.12310418
74	0xbdcec48a	-0.100960806
75	0xbd905d72	-0.07049073
76	0x3e143480	0.14473152
77	0xbdfc05ac	-0.12305769
78	0x3df4abf6	0.119468614
79	0xbc7709d3	-0.015078026
80	0x3dd5662d	0.10419879
81	0xbe2a68c9	-0.16641535
82	0x3cd9c870	0.026584834
83	0x3dcd0777	0.100111894
84	0xbd49a87e	-0.049232952
85	0xbdabd345	-0.08389906
86	0xbe271c9d	-0.16319509
87	0x3db2301c	0.087005824
88	0x3cb41bca	0.021985907
89	0x3e2e55f4	0.17024976
90	0xbe0f6d6c	-0.14006585
91	0x3e00218f	0.12512802
92	0xbccf6070	-0.02531454
93	0xbde6e139	-0.112734266
94	0xbdfc3e86	-0.12316613
95	0x3e125c3f	0.14293002
96	0x3dc4f43e	0.09616898
97	0x3e2fc777	0.17165934
98	0x3c811bdb	0.015760353
99	0x3db5c360	0.088751554
100	0x3ce27673	0.027644372
101	0xbe1664c5	-0.14686878
102	0x3ca5c251	0.020234259
103	0x3ddde926	0.10835485
104	0x3da212d9	0.07913751
105	0x3d56d1a0	0.052446008
106	0xbcfe96f3	-0.031077838
107	0x3d3950a3	0.045242917
108	0x3d6404bf	0.05566859
109	0xbde23bdb	-0.11046573
110	0xbd4a6c76	-0.049419843
111	0x3e0de666	0.13857421
112	0xbd6cb7f7	-0.05779263
113	0x3dcc921d	0.099888064
114	0x3d7424a3	0.059605252
115	0x3dc39233	0.0954937
116	0xbe227fcf	-0.15869068
117	0xbe0ad1a9	-0.13556542
118	0xbde58fde	-0.11209081
119	0xbe246974	-0.16055852
120	0x3d9ca50c	0.07648668
121	0xbe2ed7be	-0.17074487
122	0x3cb1abc7	0.021688355
123	0x3dfea064	0.12432936
124	0x3ca3c4ca	0.019991297
125	0x3dd494c6	0.10379939
126	0x3cfb5820	0.03068167
127	0xbe1e413b	-0.15454571
128	0xbd549e1a	-0.05190859
129	0x3d358d58	0.04432425
130	0xbcca0c52	-0.024664078
131	0xbe0be71c	-0.1366238
132	0xbdf3d051	-0.119049676
133	0x3e004e3e	0.12529847
134	0xbe30c240	-0.172616
135	0xbd27089a	-0.040779687
136	0x3d451902	0.048119552
137	0x3ba3ceea	0.0049990313
138	0xbdff0853	-0.124527596
139	0x3e05d27f	0.13068579
140	0x3d56c9a2	0.052438386
141	0xbc815fec	-0.01579281
142	0xbe30950b	-0.17244355
143	0x3d1d55ab	0.038411777
144	0xbdc5bd7d	-0.09655283
145	0x3d561247	0.052263524
146	0x3e117155	0.14203389
147	0x3e10d6fc	0.1414451
148	0x3cab0305	0.020875463
149	0xbdb15ad8	-0.08659905
150	0x3bf2831f	0.0074008848
151	0x3e079a55	0.13242467
152	0xbde7fa93	-0.1132709
153	0xbd8dc756	-0.06922786
154	0x3e2bcb69	0.16776814
155	0x3daf5aa3	0.085622095
156	0x3db1dfad	0.08685241
157	0xbcd548b4	-0.026035644
158	0x3e103f5e	0.14086673
159	0x3d8983d6	0.06714599
160	0x3e127cf6	0.14305481
161	0x3c954f5a	0.018226314
162	0xbd582b42	-0.05277563
163	0x3e2ab316	0.16669878
164	0x3d9312f9	0.07181353
165	0xbd9c6884	-0.07637122
166	0x3cf27645	0.029597411
167	0xbd943241	-0.07236148
168	0xbe0422b2	-0.1290386
169	0x3e1e9825	0.15487726
170	0x3d3db943	0.046319257
171	0x3dd62736	0.10456698
172	0xbe23badd	-0.15989251
173	0xbe29ca77	-0.1658114
174	0xbd40a147	-0.047028806
175	0x3e1fcf55	0.15606435
176	0x3e0c468c	0.13698786
177	0x3dd2d81c	0.10295126
178	0xbe24a9e5	-0.16080435
179	0x3d973d40	0.073847294
180	0x3e27fa87	0.16404162
181	0x3e0a345f	0.1349654
182	0xbd19b043	-0.037521612
183	0xbd0044ce	-0.031315617
184	0x3dfa02cf	0.12207567
185	0xbdcc27d2	-0.099685326
186	0x3d7115a0	0.058858514
187	0xbdb3e770	-0.087843776
188	0x3d9d20b4	0.07672253
189	0x3dfd66c8	0.123731196
190	0x3d6e57c3	0.058189165
191	0xbc628883	-0.013826492
192	0xbd9319aa	-0.071826294
193	0xbd460936	-0.048348628
194	0xbb7fe1bb	-0.0039044458
195	0x3e297c55	0.16551335
196	0x3e0693c1	0.13142301
197	0x3dad5319	0.08463115
198	0x3ccd0fa0	0.025031865
199	0xbdf4e973	-0.119585894
200	0xbdcef92f	-0.10106122
201	0xbde5c932	-0.112200156
202	0x3ddd96af	0.10819756
203	0x3d7d1ad5	0.061793167
204	0xbe07e262	-0.13269952
205	0x3d324922	0.043526776
206	0xbe2d6023	-0.16931204
207	0xbe09a309	-0.13441099
208	0xbdcf9761	-0.10136295
209	0xbd63ed92	-0.055646487
210	0x3d06468a	0.032782115
211	0x3e2d80f7	0.16943727
212	0x3e03efc8	0.12884438
213	0x3dd58cdb	0.10427257
214	0xbd609d74	-0.05483766
215	0x3d3aad18	0.04557523
216	0xbd6ff659	-0.058584545
217	0x3d7214a4	0.059101716
218	0xbe0baa0d	-0.13639088
219	0x3e025918	0.12729299
220	0xbd0eecf9	-0.034893963
221	0x3e15b072	0.1461809
222	0xbdc4fb94	-0.09618297
223	0x3dacd1e1	0.08438469
224	0x3d86b60e	0.06577693
225	0x3e1acb90	0.15116715
226	0xbe280e80	-0.16411781
227	0x3d62607b	0.055267792
228	0xbb880697	-0.004151176
229	0x3cd2c1bb	0.025727144
230	0xbcca0218	-0.024659202
231	0xbcbcd15e	-0.023049053
232	0xbe1c659e	-0.15273139
233	0x3c934773	0.017978406
234	0x3bb28f26	0.0054491935
235	0xbde19dcd	-0.11016426
236	0x3dc5b517	0.09653681
237	0x3dbf2f97	0.09335249
238	0x3e24d591	0.16097094
239	0xbda23733	-0.07920685
240	0xbdb235d2	-0.08701672
241	0xbe265b9d	-0.16245885
242	0xbddc0ccd	-0.10744629
243	0x3e308c0f	0.17240928
244	0x3ce51f9b	0.027969172
245	0xbcb626a0	-0.022235215
246	0x3b43d751	0.0029882977
247	0x3db99a37	0.09062617
248	0xbdce60d4	-0.10077062
249	0xbdda6e48	-0.10665566
250	0x3da15a74	0.07878581
251	0xbb048ccb	-0.002022552
252	0x3dce5395	0.10074536
253	0xbdc1918b	-0.09451588
254	0xbda5d68a	-0.08097561
255	0xbd8aa014	-0.06768814

recurrent._blocklist.0._spatial_attention._W1 f4 [100]
0	0x3e551ac4	0.20810992
1	0x3f814266	1.0098388
2	0x3e024ddb	0.12725012
3	0x3e93bf4d	0.28856888
4	0x3e0d181f	0.13778733
5	0x3efa8820	0.4893198
6	0x3e019b79	0.12656964
7	0x3ea67f32	0.32518917
8	0x3dbf9308	0.09354216
9	0x3f79de70	0.9760504
10	0x3c8e0b1b	0.01733928
11	0x3e913f96	0.28368825
12	0x3f4fd973	0.81191176
13	0x3f51ca6c	0.81949496
14	0x3e9a052b	0.30082068
15	0x3ee5b48d	0.44864312
16	0x3ec7c012	0.39013726
17	0x3f3cc711	0.7374125
18	0x3ec8e141	0.39234355
19	0x3eceb007	0.40368673
20	0x3e3c7278	0.18403041
21	0x3e0649cd	0.1311409
22	0x3f4e19c0	0.8050804
23	0x3f572192	0.840356
24	0x3cdc5171	0.026894303
25	0x3f0923aa	0.53570044
26	0x3f6abd4e	0.91695106
27	0x3f14c695	0.5811551
28	0x3f4b119a	0.7932373
29	0x3f13d80b	0.5775153
30	0x3f51953d	0.81868345
31	0x3ed322f4	0.41237605
32	0x3f29d23c	0.6633642
33	0x3f264793	0.64952964
34	0x3e34d49c	0.17659229
35	0x3e2bb8f2	0.1676977
36	0x3f653ce9	0.89546067
37	0x3f2d57f3	0.67712325
38	0x3dc2b20b	0.09506615
39	0x3e085ac5	0.13315876
40	0x3f7079fc	0.93936133
41	0x3f77a163	0.9673063
42	0x3d018986	0.031625293
43	0x3e390f85	0.18072326
44	0x3f1b598e	0.60683525
45	0x3e6583a6	0.22413501
46	0x3eeeddc2	0.46653563
47	0x3f0f3831	0.55945116
48	0x3f77f664	0.9686034
49	0x3ed41f90	0.4143033
50	0x3f4859c4	0.7826197
51	0x3f10dc9f	0.5658664
52	0x3f7cb8f3	0.9871971
53	0x3f18954c	0.5960281
54	0x3d87edfa	0.06637187
55	0x3f41deb6	0.75730455
56	0x3d6e2ee2	0.05815018
57	0x3efdeb31	0.495935
58	0x3f4b72dc	0.79472136
59	0x3f40934c	0.7522476
60	0x3f65c94e	0.8976029
61	0x3f2c5976	0.67324007
62	0x3df81268	0.12112886
63	0x3f55d0be	0.8352164
64	0x3e6c5502	0.23079303
65	0x3e8b0f13	0.27159938
66	0x3f4f5497	0.8098845
67	0x3cb23853	0.021755373
68	0x3eab836b	0.334987
69	0x3ed7cd4b	0.42148814
70	0x3f7c2cbc	0.9850576
71	0x3e941db5	0.28928915
72	0x3e986fb5	0.29772726
73	0x3ebb2d57	0.3655803
74	0x3e70cda9	0.23515953
75	0x3f0a3328	0.5398431
76	0x3e1af98d	0.15134259
77	0x3eb41e22	0.3517924
78	0x3f7e2788	0.9927907
79	0x3f3b3999	0.7313476
80	0x3f1870e9	0.5954729
81	0x3e529b44	0.20567042
82	0x3f7a4310	0.9775858
83	0x3f0f7cf8	0.5605006
84	0x3f255fa4	0.6459906
85	0x3f3a9ba4	0.7289374
86	0x3e78815e	0.242681
87	0x3ebea186	0.37232608
88	0x3f2bf23d	0.671665
89	0x3f7680d7	0.96290344
90	0x3f6653a3	0.8997137
91	0x3f1e0b54	0.61736035
92	0x3f16ef56	0.5895895
93	0x3eaf0ef7	0.34191105
94	0x3f22a973	0.6353981
95	0x3da85570	0.08219421
96	0x3f3a77ea	0.72839224
97	0x3f5d6fe9	0.86498886
98	0x3eb85b1c	0.3600701
99	0x3f2316fb	0.6370694

recurrent._blocklist.0._spatial_attention._W2 f4 [1, 100]
0	0x3ca814d4	0.020517744
1	0xbe61c4da	-0.22047749
2	0x3da73ca7	0.081658654
3	0xbdf904d4	-0.12159124
4	0x3dd359d4	0.10319868
5	0x3e4a0ec6	0.19732198
6	0x3dd33317	0.10312479
7	0xbe4beb3d	-0.19913955
8	0xbccad111	-0.024757894
9	0x3dae4079	0.08508391
10	0xbdb652ef	-0.08902537
11	0x3ca1ac36	0.019735437
12	0x3e5584d2	0.20851448
13	0xbe286ce1	-0.16447784
14	0xbe151dc7	-0.1456214
15	0x3de0d4a3	0.10978057
16	0xbe33935e	-0.17536685
17	0x3c96afb9	0.018394338
18	0x3e42a3e2	0.19007829
19	0xbe2f7b80	-0.17136955
20	0xbe3472ae	-0.17621872
21	0x3e06d1ff	0.13166045
22	0xbe59ee17	-0.2128223
23	0xbd80b165	-0.06283835
24	0xbd9c63dc	-0.07636234
25	0x3e420d5a	0.18950406
26	0xbd1f1dc6	-0.038846754
27	0x3d659f89	0.056060348
28	0x3e390a93	0.1807044
29	0x3d7fdbae	0.062465362
30	0x3c762952	0.0150245
31	0xbd8a2d03	-0.067468666
32	0xbe6a3f8a	-0.228758
33	0x3e00471d	0.12527128
34	0xbe5622ca	-0.20911708
35	0xbe5e21a7	-0.21692525
36	0x3dcd27bd	0.10017345
37	0xbd249221	-0.040178422
38	0xbd5a3dc2	-0.053281553
39	0xbe77c171	-0.24194886
40	0xbe011ca4	-0.12608582
41	0xbcbddd43	-0.023176795
42	0xbdcaf28d	-0.09909544
43	0x3ceb3f27	0.028716637
44	0x3e520618	0.20510137
45	0xbd8cac8e	-0.0686885
46	0x3e629152	0.22125748
47	0xbddf8dba	-0.10915704
48	0x3dffab2c	0.1248382
49	0xbdeee7b6	-0.11665289
50	0xbcf9f8a3	-0.030514067
51	0xbab4e67f	-0.0013801603
52	0x3e094ee0	0.13408995
53	0x3cc1b631	0.023646446
54	0xbe3bdd75	-0.18346198
55	0x3d58834a	0.052859582
56	0xbe73daf3	-0.23813991
57	0xbe58096b	-0.21097343
58	0xbe3ecb85	-0.18632324
59	0x3cb22395	0.021745482
60	0x3ddf25a2	0.1089585
61	0x3d47d9c1	0.04879165
62	0x3e4a1607	0.19734965
63	0x3df48a49	0.11940438
64	0xbe621045	-0.22076519
65	0x3e274eb9	0.16338624
66	0x3dde02e7	0.10840397
67	0x3dc1326d	0.09433446
68	0x3dc9044b	0.09815272
69	0xbdb82f48	-0.08993393
70	0xbe2ea109	-0.17053618
71	0xbe3df3ed	-0.18550082
72	0xbe0d2821	-0.13784839
73	0xbe4d7237	-0.20063101
74	0xbd6ab0c2	-0.057297476
75	0x3e3f841b	0.18702738
76	0xbe678788	-0.22610295
77	0xbdb41517	-0.08793085
78	0x3db29561	0.08719898
79	0x3e1bdf97	0.15222012
80	0x3d62827d	0.055300225
81	0x3d0e738e	0.03477817
82	0x3cacae91	0.021079333
83	0x3e6569c6	0.2240363
84	0xbde1089a	-0.10987969
85	0xbe073b6d	-0.13206263
86	0x3db79cbe	0.08965443
87	0xbd00d02d	-0.031448532
88	0xbe447edc	-0.19189018
89	0xbe35e277	-0.1776217
90	0xbe25530c	-0.16144961
91	0x3d399659	0.0453094
92	0xbe6b4aed	-0.229778
93	0x3dd64279	0.104618974
94	0x3e1e70dc	0.1547274
95	0xbe844b7a	-0.25838834
96	0x3e5b7b6f	0.21433805
97	0xbdbe74b1	-0.09299601
98	0x3e232798	0.15933073
99	0xbd4fea9a	-0.050760843

recurrent._blocklist.0._spatial_attention._bs f4 [1, 23, 23]
0	0x3ccf1871	0.02528021
1	0x3da75a15	0.08171479
2	0xbca68473	-0.020326829
3	0xbdd5092b	-0.10402139
4	0x3d81fdc7	0.06347232
5	0xbd950128	-0.07275611
6	0x3cffcaea	0.031224687
7	0x3d13d3ea	0.03609077
8	0xbdac16d4	-0.084027916
9	0xbbef9ae4	-0.0073121656
10	0x3dddb3c3	0.108253025
11	0x3d453d99	0.048154447
12	0xba85e16b	-0.0010214275
13	0x3d07d05b	0.033157688
14	0x3c5df81f	0.013547926
15	0xbd868488	-0.06568247
16	0xbdd0bf57	-0.10192745
17	0x3dcf5fd4	0.101257
18	0xbcbafde9	-0.022826152
19	0xbd8765f1	-0.06611241
20	0xbd6a2e54	-0.05717309
21	0xbdb87b69	-0.090079136
22	0xbd4b3a82	-0.049616344
23	0xbc9a1320	-0.018807948
24	0xbdaa1d36	-0.08306353
25	0x3ce1e2d6	0.027573984
26	0xbc9a760e	-0.018855121
27	0xbcc0a343	-0.02351535
28	0x3d52dcc5	0.051480073
29	0xbdc53f3b	-0.09631201
30	0x3d9fcdb4	0.07802907
31	0x3cbba6ee	0.022906747
32	0xbbd89a62	-0.0066102007
33	0x3c8fc9d2	0.01755229
34	0xbde2595a	-0.11052199
35	0x3dac6b31	0.08418883
36	0xbd870844	-0.065933734
37	0x3daa2a07	0.08308797
38	0xbd2f3fe9	-0.04278556
39	0x3d0f8e1b	0.03504763
40	0x3d189347	0.03724983
41	0xbc7bdba7	-0.015372193
42	0x3cdbacd0	0.026815802
43	0xbc80b857	-0.0157129
44	0x3d02b447	0.031910207
45	0xbcf57c83	-0.029966598
46	0x3d89b171	0.067232974
47	0x3cb3587d	0.02189278
48	0xbdc856f8	-0.09782213
49	0xbd1fc3ce	-0.039005093
50	0xbcdec850	-0.027195126
51	0xbdaf3b21	-0.085562
52	0xbdb9c85a	-0.09071417
53	0x3d74cf74	0.059768155
54	0x3c94f2c9	0.018182175
55	0xbdac801c	-0.084228724
56	0xbd4308fe	-0.047615997
57	0x3db6ee1e	0.08932136
58	0x3dabed1b	0.08394834
59	0x3c8cffc7	0.017211808
60	0x3dde620e	0.10858546
61	0x3dcf35ec	0.10117707
62	0xbc77b3a5	-0.015118514
63	0x3d998309	0.07495696
64	0x3daac74b	0.08338793
65	0x3ddd805d	0.10815499
66	0x3d1dfbb9	0.03857014
67	0xbd87fd14	-0.06640068
68	0xbc5cf4a2	-0.013486059
69	0xbd41051c	-0.047124013
70	0x3d4a36d0	0.04936868
71	0x3cfe9dd7	0.031081123
72	0xbd483e13	-0.048887324
73	0x3db4036c	0.08789715
74	0x3c7b57d0	0.01534076
75	0x3b138fc7	0.0022516118
76	0xbd3269b1	-0.043557826
77	0xbd6f74b3	-0.058460902
78	0x3d7f3223	0.062303673
79	0xbc5e8e23	-0.013583693
80	0x3d8887f7	0.06666558
81	0x3c94b923	0.018154686
82	0x3d67f0f5	0.05662628
83	0x3dcb49c1	0.09926177
84	0xbb0de207	-0.0021649615
85	0x3c8e0efa	0.017341126
86	0x3c2c096c	0.010500293
87	0x3d53de70	0.051725805
88	0x3c547b5b	0.012968863
89	0x3cd55b75	0.026044587
90	0xbc294e11	-0.010333554
91	0xbc688f76	-0.01419436
92	0xbd411dc6	-0.047147535
93	0xbd7b57ec	-0.061363146
94	0x3d89dea7	0.06731921
95	0xbd644239	-0.055727217
96	0x3d27afcb	0.040939134
97	0x3d86c46f	0.065804355
98	0xbdbd4739	-0.092421
99	0xbcfcedaa	-0.030875046
100	0x3d30abc0	0.043132544
101	0xbc8b30e7	-0.016991092
102	0x3dbdaadb	0.09261104
103	0x3dcd2b68	0.10018045
104	0x3cd9921a	0.026558924
105	0xbda45aac	-0.08025107
106	0xbdbc11d1	-0.09183086
107	0x3d83aaba	0.06429048
108	0xbd136cc3	-0.035992395
109	0x3daf7d31	0.085688
110	0x3cd3b42b	0.025842747
111	0xbd15aaae	-0.036539726
112	0x3c6c23b6	0.014412811
113	0x3c52b628	0.012860812
114	0x3d7b8538	0.061406344
115	0x3ddac3e8	0.106818974
116	0x3ca6462d	0.020297134
117	0x3da9fb65	0.08299903
118	0x3cfac860	0.030613124
119	0xbd1af66a	-0.037832655
120	0xbd1c14bf	-0.038105723
121	0x3d5afa50	0.053461373
122	0x3d92311c	0.07138273
123	0xbdb2aa7d	-0.08723924
124	0x3d93947f	0.07206058
125	0xbc5282ca	-0.012848565
126	0x3d3813ce	0.044940762
127	0x3de03510	0.10947621
128	0x3dd6cd49	0.10488374
129	0x3c56cf18	0.013110898
130	0x3aeeb389	0.0018211465
131	0xbdb2f9fb	-0.08739086
132	0x3daabedc	0.08337185
133	0xbc305647	-0.010762758
134	0x3d8cccd5	0.06875006
135	0xbd7c6a34	-0.06162472
136	0xbdd729b5	-0.10506002
137	0x3cad609b	0.02116423
138	0xbd9572f2	-0.07297315
139	0x3d2d32e8	0.042284876
140	0x3c818f56	0.015815418
141	0xbdbbd0f7	-0.09170716
142	0x3dbe45d1	0.0929066
143	0x3d2c17c9	0.04201487
144	0xbd902a7d	-0.07039354
145	0x3c956cef	0.01824042
146	0x3d59fad9	0.053217743
147	0x3d5c0ec6	0.053725027
148	0x3ce1d66a	0.02756806
149	0x3c1158ff	0.008871316
150	0x3ce29589	0.027659195
151	0x3d89ba6a	0.06725009
152	0xbdc6e02d	-0.09710727
153	0xbda2217c	-0.07916543
154	0xbd46b12f	-0.04850882
155	0x3d9f1f11	0.07769597
156	0x3da936a3	0.08262374
157	0xbd3ab315	-0.045580942
158	0xbdd06f95	-0.101775326
159	0xbcd5bbf6	-0.026090603
160	0xbd7dd316	-0.061968885
161	0x3d100f09	0.03517059
162	0xbd067ba0	-0.03283274
163	0xbc0731e3	-0.00825164
164	0xbdb5daf0	-0.0887965
165	0xbd962dc0	-0.07332945
166	0x3d3d8fe9	0.04627982
167	0xbd520a22	-0.051279195
168	0xbb97d8d3	-0.0046340018
169	0x3d92235e	0.07135652
170	0xbc8e1021	-0.017341675
171	0x3da187dd	0.07887242
172	0x3c8ea8cf	0.017414479
173	0x3dc743f7	0.0972976
174	0x3cd18fc2	0.025581244
175	0xbd8b20c3	-0.06793358
176	0xbdcfd17e	-0.10147379
177	0xbdb628c0	-0.08894491
178	0x3dbc7e5e	0.0920379
179	0x3de04dd3	0.10952344
180	0x3d0b1056	0.033951126
181	0x3d9272c7	0.07150798
182	0x3d5d8c3f	0.054088827
183	0x3d3c475b	0.045966487
184	0xbc8156dc	-0.015788488
185	0x3c19fb82	0.009398343
186	0x3d5a2af3	0.053263616
187	0x3cd2bdf2	0.025725339
188	0x3d60fbfd	0.054927815
189	0x3b8f9527	0.004381794
190	0xbdaa2b72	-0.08309068
191	0xbd7172b2	-0.058947273
192	0xbd2ce4c4	-0.042210355
193	0x3d888e9b	0.06667825
194	0x3cb96948	0.02263321
195	0xbda8f9d6	-0.082507774
196	0x3ccdae85	0.025107631
197	0x3d353bd2	0.044246502
198	0x3cbbceb8	0.02292572
199	0xbdb52477	-0.08844846
200	0xbc8d1356	-0.017221134
201	0x3d5c772d	0.053824592
202	0x3db4700f	0.08810436
203	0xbb67b1e3	-0.0035353831
204	0x3c9eaae1	0.01936859
205	0xbd326961	-0.04355753
206	0xbca828cb	-0.020527264
207	0x3c8cb75c	0.017177276
208	0x3d5ae865	0.053444285
209	0x3d98db3e	0.07463692
210	0x3cc5a367	0.024125768
211	0x3d0c22d8	0.034212917
212	0x3d514ff3	0.051101636
213	0x3d077f1f	0.033080216
214	0x3db59906	0.088670775
215	0x3c66643b	0.014061983
216	0xbd911c6f	-0.070855014
217	0x3c4fc81f	0.01268199
218	0xbdc883f8	-0.09790796
219	0x3d0f8d99	0.035047147
220	0xbc1cc9f0	-0.00956963
221	0xbdbd0bf9	-0.09230799
222	0xbdc998b2	-0.098435774
223	0x3d996c11	0.07491315
224	0x3d5b9725	0.05361094
225	0xbdcd89c3	-0.100360416
226	0xbc1d39b3	-0.009596276
227	0x3da431d6	0.08017318
228	0x3c9a2fd2	0.01882163
229	0x3ad5fba2	0.0016325603
230	0x3d8aebaf	0.06783234
231	0x3c68cff8	0.01420974
232	0x3da220cb	0.07916411
233	0x3dd6929f	0.104771845
234	0x3b3abe26	0.0028494685
235	0x3dcd5239	0.10025448
236	0xbda68239	-0.08130307
237	0xbd9a9425	-0.075477876
238	0xbddaf2bb	-0.106908284
239	0x3d838b7f	0.06423091
240	0x3da27fc6	0.07934527
241	0xbd3e8673	-0.04651494
242	0x3cfa6ab4	0.030568458
243	0xbc350fcd	-0.0110511305
244	0xbc93c84d	-0.018039847
245	0xbda2d47f	-0.07950687
246	0xbd82c731	-0.06385649
247	0x3d130f1d	0.035903085
248	0x3cf99c4b	0.030470034
249	0xbc731a92	-0.014837878
250	0xbd3ab8e9	-0.0455865
251	0xbd924f4f	-0.07144033
252	0xbda86814	-0.08222976
253	0xbd7e22b4	-0.062044814
254	0x3d8ec4b5	0.06971113
255	0xbd7a28d3	-0.06107409

recurrent._blocklist.0._spatial_attention._Vs f4 [23, 23]
0	0x3da97f37	0.082762174
1	0xbe9bd93f	-0.30439183
2	0xbe8f2dee	-0.2796473
3	0x3d15549b	0.03645764
4	0xbdc9d9d0	-0.098559976
5	0x3e018fe6	0.12652549
6	0x3d368fff	0.04457092
7	0x3e58f83b	0.21188442
8	0x3eae16ad	0.34001675
9	0xbe3641d7	-0.17798553
10	0x3c91d9f8	0.01780413
11	0x3e47d53f	0.1951494
12	0xbeaa2b75	-0.3323628
13	0x3df1fb91	0.118155606
14	0x3e31e922	0.1737409
15	0x3af7ac00	0.0018895864
16	0xbe75d105	-0.24005516
17	0x3e9f2613	0.31083736
18	0xbd8f771d	-0.07005141
19	0x3e97e499	0.29666594
20	0xbe3ebf05	-0.18627556
21	0xbe2c4364	-0.16822582
22	0x3e8a872b	0.2705625
23	0xbdeea5a1	-0.11652685
24	0x3e8d4252	0.2758966
25	0x3e01f04a	0.12689319
26	0xbe5ad410	-0.21369958
27	0x3eae10ee	0.3399729
28	0xbc747cd0	-0.014922336
29	0x3ce53128	0.027977541
30	0x3e6e4b3b	0.23270886
31	0x3ea1ebc2	0.3162518
32	0xbeb2fc8c	-0.34958303
33	0x3b2bf366	0.0026237606
34	0xbd224c98	-0.039623827
35	0xbe43ed5c	-0.19133514
36	0xbeb5d3d2	-0.3551317
37	0xbbcfa0fa	-0.0063363286
38	0xbe8d58e1	-0.27606872
39	0x3d556fb4	0.05210848
40	0xbe7ba128	-0.24573195
41	0xbe268cf1	-0.16264702
42	0x3e7cc53b	0.24684612
43	0x3ead4912	0.3384481
44	0xbe853633	-0.26017913
45	0x3e94b240	0.29042244
46	0xbe94f7be	-0.29095262
47	0x3d822263	0.06354215
48	0xbd6a73a8	-0.057239205
49	0xbe627ad2	-0.22117165
50	0xbdc5f5bf	-0.09666013
51	0xbdc52597	-0.0962631
52	0xbe48d100	-0.19610977
53	0xbd8de54e	-0.06928502
54	0x3b2f905c	0.0026788926
55	0xbe1586bf	-0.14602183
56	0xbd2f3ad6	-0.04278072
57	0xbd5bfd03	-0.053708088
58	0xbe305e75	-0.17223532
59	0xbe2953a7	-0.16535817
60	0x3dd3c6a1	0.1034062
61	0x3e4ba450	0.19886899
62	0x3dea1bc7	0.11431079
63	0xbd8a57d0	-0.0675503
64	0xbeb5fa2c	-0.35542428
65	0x3ccb6607	0.024828924
66	0x3c86d747	0.016460074
67	0xbe678c25	-0.22612055
68	0x3e87fa10	0.2655797
69	0xbe85ebe1	-0.26156524
70	0x3ea40a7b	0.32039246
71	0x3c0385c7	0.0080275005
72	0xbd2f7974	-0.042840436
73	0x3e8ddc87	0.27707312
74	0x3e5a7e0f	0.2133715
75	0x3ea0c20e	0.31398052
76	0x3e07580e	0.13217184
77	0xbe349388	-0.17634404
78	0x3e920ab4	0.2852379
79	0x3de16c4e	0.110069856
80	0x3ddd6253	0.108097695
81	0xbe9f9e8f	-0.31175658
82	0xbd0e11df	-0.034685012
83	0xbd82ecc5	-0.063928165
84	0x3e70af21	0.23504306
85	0x3e8d2389	0.27566174
86	0xbe8a201c	-0.26977623
87	0x3eabdc58	0.33566546
88	0xbcc041a8	-0.023468807
89	0xbea0bb8c	-0.31393087
90	0xbd6506a2	-0.05591453
91	0xbd8a47c6	-0.06751971
92	0xbdd65ccb	-0.104669176
93	0xbc8b462e	-0.017001238
94	0x3e714a60	0.23563528
95	0xbe2583d1	-0.16163565
96	0xbe1a8342	-0.15089133
97	0x3eaac80f	0.33355758
98	0xbe283db2	-0.16429785
99	0xbeb2c769	-0.34917763
100	0x3e29ca37	0.16581045
101	0x3ea77368	0.32705235
102	0x3e8cbff9	0.27490214
103	0xbe6d789d	-0.23190542
104	0xbe0016df	-0.12508725
105	0xbe68b7e3	-0.22726397
106	0x3d9d68e0	0.07686019
107	0x3c8a0d09	0.016851919
108	0xbe77eb29	-0.242108
109	0x3ea37e0e	0.3193211
110	0x3e579769	0.21053852
111	0xbcbfcefe	-0.023414131
112	0xbe06a44d	-0.13148613
113	0xbe1bb1d7	-0.1520456
114	0xbe9133df	-0.28359887
115	0x3df302e3	0.11865785
116	0x3da69986	0.08134751
117	0xbe8cf607	-0.27531454
118	0xbe2e2ebe	-0.17010018
119	0x3dbc5eb6	0.09197752
120	0xbe487b08	-0.19578183
121	0x3e137878	0.14401424
122	0x3d3441c1	0.04400802
123	0xbd8218a9	-0.0635236
124	0x3eb97016	0.36218327
125	0x3eb15d75	0.34641615
126	0x3e14e66c	0.14541024
127	0xbdacf7b8	-0.08445686
128	0xbe48ea3b	-0.19620602
129	0x3e4199c8	0.18906319
130	0x3d71181a	0.058860876
131	0x3dd9b00e	0.10629283
132	0xbea55065	-0.322879
133	0xbe42246b	-0.18959205
134	0xbe3e610b	-0.18591706
135	0x3ea42a44	0.32063496
136	0xbdd10f5d	-0.102080084
137	0x3e1494ec	0.14509934
138	0x3eb0ac5e	0.34506506
139	0x3d95d7e3	0.07316568
140	0xbb65f66c	-0.0035089506
141	0xbe8b9651	-0.2726312
142	0xbea814e2	-0.32828432
143	0xbe4fbd0e	-0.20286962
144	0xbea0ccc8	-0.31406236
145	0x3e86d2ce	0.26332706
146	0x3dec034f	0.115240686
147	0x3c1229d0	0.008921102
148	0x3ea8a111	0.32935384
149	0xbe61af3b	-0.22039501
150	0x3e9d4920	0.30719852
151	0x3e76cbee	0.2410123
152	0x3da907bf	0.082534306
153	0xbe9cbd04	-0.30612957
154	0xbe8554f8	-0.2604139
155	0xbdfafa5f	-0.12254786
156	0xbe82f177	-0.25574848
157	0x3e828672	0.254932
158	0x3cb7cf53	0.022437727
159	0xbdcd762b	-0.100323044
160	0xbe91bd06	-0.28464526
161	0x3d6304e9	0.055424605
162	0x3e9cfd55	0.30662027
163	0x3df3c3a7	0.11902552
164	0xbe9504db	-0.29105267
165	0x3dcd81d1	0.10034526
166	0x3e84b6f2	0.25920826
167	0x3eafcb89	0.34334973
168	0x3dc01a69	0.09380037
169	0x3ea38d44	0.31943715
170	0xbe11ef20	-0.14251375
171	0x3e9b008a	0.3027385
172	0xbe4b9f1d	-0.19884916
173	0x3e08d2a2	0.133616
174	0xbe9688f4	-0.29401362
175	0x3e673f36	0.22582707
176	0x3e003068	0.12518466
177	0xbe4ece63	-0.20195918
178	0x3c27ea31	0.010248707
179	0xbe858bce	-0.26083225
180	0x3e9b712e	0.30359787
181	0xbe5ed916	-0.21762499
182	0xbe1e9a7b	-0.15488617
183	0x3d91f89f	0.07127499
184	0xbe65d621	-0.22444965
185	0xbdb43a86	-0.08800225
186	0x3eb444eb	0.3520883
187	0xbe8cf83f	-0.27533147
188	0xbd9ef385	-0.077612914
189	0x3e095497	0.13411175
190	0xbd3f4add	-0.046702255
191	0x3d9a90c9	0.07547147
192	0x3e88f059	0.2674587
193	0xbe81c089	-0.25342205
194	0xbe850518	-0.2598045
195	0x3e6589ae	0.22415802
196	0x3d9f79ca	0.07786901
197	0x3ea7530c	0.32680547
198	0xbdd61d4e	-0.10454808
199	0xbe85a12e	-0.26099533
200	0xbe002959	-0.12515773
201	0xbeb47183	-0.35242853
202	0xbacbe602	-0.0015556219
203	0x3e99ae35	0.30015722
204	0x3e368ae1	0.17826416
205	0x3e7b2833	0.24527054
206	0xbd92de04	-0.07171252
207	0x3df2fd9e	0.1186478
208	0xbdd9999b	-0.10625001
209	0xbe490820	-0.19632006
210	0x3e0910f5	0.13385375
211	0x3e94f2ba	0.29091436
212	0x3d3f32e2	0.046679385
213	0xbe2f4522	-0.17116216
214	0xbe42d7a4	-0.19027573
215	0xbd606622	-0.0547849
216	0xbe659d0a	-0.22423187
217	0x3e880cb0	0.2657218
218	0x3e974acd	0.29549256
219	0x3e7f267b	0.24917023
220	0x3b1e95a3	0.0024198077
221	0xbdb01845	-0.08598379
222	0xbe3f61de	-0.18689677
223	0xbd28e92d	-0.041238
224	0x3d28a1c5	0.0411699
225	0xbdadfc86	-0.08495431
226	0x3e36b0ba	0.17840853
227	0x3dd07d9f	0.1018021
228	0x3da90640	0.08253145
229	0x3e0ce468	0.13759005
230	0x3e073fc9	0.13207926
231	0x3e189159	0.14899196
232	0x3e6309ba	0.22171679
233	0x3eba7229	0.36415222
234	0x3e555b3a	0.20835581
235	0xbddeaa4e	-0.10872327
236	0x3e1ff62f	0.15621255
237	0xbe3a8e98	-0.18218458
238	0x3d8f2f49	0.06991441
239	0xbe9994d4	-0.2999636
240	0x3e1fd066	0.15606841
241	0xbeb14abb	-0.34627327
242	0xbe4c1a54	-0.19931918
243	0x3e8c0705	0.27349105
244	0x3e83626d	0.2566103
245	0xbe99b6b8	-0.30022216
246	0xbe06ff7d	-0.13183399
247	0x3e8874d3	0.2665163
248	0xbe8d2291	-0.27565435
249	0x3c9d9819	0.019237565
250	0xbe59f629	-0.21285309
251	0x3eb33eb7	0.35008785
252	0xbd9a1d8c	-0.07525167
253	0x3a92dc70	0.0011204612
254	0xbe3c804d	-0.18408318
255	0xbe29d01d	-0.16583295

recurrent._blocklist.0._chebconv_attention._weight f4 [2, 1, 4]
0	0xbf3870a6	-0.7204689
1	0x3e358350	0.17725873
2	0xbf121c3c	-0.5707433
3	0xbea9c465	-0.3315765
4	0x3f177d36	0.5917543
5	0x3f221d37	0.6332583
6	0x3ee45a57	0.44600174
7	0x3ed83381	0.42226794

recurrent._blocklist.0._chebconv_attention._bias f4 [4]
0	0xbab6aaf4	-0.0013936446
1	0x3f1be016	0.60888803
2	0x3f25c105	0.6474765
3	0x3f722cd8	0.94599676

recurrent._blocklist.0._time_convolution.weight f4 [4, 4, 1, 3]
0	0xbef52314	-0.47878325
1	0xbe0e3317	-0.13886677
2	0xbebbe0fe	-0.36695093
3	0xbec87ee2	-0.39159304
4	0xbebd907c	-0.37024295
5	0xbea02655	-0.31279245
6	0x3d084d54	0.03327687
7	0x3e701a36	0.23447499
8	0xbed8b641	-0.4232655
9	0x3ea61901	0.3244095
10	0x3eadc658	0.33940387
11	0xbe8247e0	-0.2544546
12	0xbe87529c	-0.26430213
13	0xbeb727b3	-0.35772476
14	0x3f019c4c	0.50629115
15	0x3e777398	0.2416519
16	0xbe78a7b3	-0.24282722
17	0x3e432826	0.19058284
18	0xbec324f6	-0.38114136
19	0xbeae3cdc	-0.34030807
20	0x3e879dab	0.2648748
21	0xbde54cfd	-0.11196325
22	0x3ef3bef4	0.47606623
23	0xbd7b2ba0	-0.0613209
24	0xbef13380	-0.47109604
25	0x3ceab13c	0.028648965
26	0xbd56974b	-0.052390378
27	0x3ed35fd4	0.4128405
28	0xbdbfdb99	-0.09368057
29	0xbe15d51f	-0.1463208
30	0x3e529574	0.20564824
31	0x3f09ad76	0.53780305
32	0x3ee68bc4	0.45028508
33	0xbe92533f	-0.28579137
34	0xbd75f8d8	-0.06005177
35	0xbe6105e1	-0.21974899
36	0xbdd3e992	-0.103472844
37	0x3d87aab3	0.06624355
38	0xbdd18976	-0.10231297
39	0x3e38615c	0.1800589
40	0x3eacf942	0.3378392
41	0xbd977784	-0.07395843
42	0xbdb1011b	-0.08642789
43	0x3e9a9227	0.3018963
44	0x3bea197c	0.0071441513
45	0xbdbc831b	-0.09204694
46	0x3ccc6257	0.024949236
47	0xbe40deaf	-0.18834947

recurrent._blocklist.0._time_convolution.bias f4 [4]
0	0x3e57217d	0.21008869
1	0x3f37e16d	0.7182835
2	0x3ec40b4f	0.38289878
3	0x3c883a35	0.016629318

recurrent._blocklist.0._residual_convolution.weight f4 [4, 1, 1, 1]
0	0xbf8cb8f9	-1.0993949
1	0x3f802389	1.0010844
2	0xbf5788be	-0.84193027
3	0xbe88376f	-0.26604792

recurrent._blocklist.0._residual_convolution.bias f4 [4]
0	0x3e9c3514	0.30509245
1	0x3ce31bb2	0.027723167
2	0x3f40d8b6	0.75330675
3	0x3f6a7e92	0.9159938

recurrent._blocklist.0._layer_norm.weight f4 [4]
0	0x3f2cc845	0.6749309
1	0x3e77ffa1	0.24218608
2	0x3e9b0113	0.30274257
3	0x3e4adfd3	0.19811945

recurrent._blocklist.0._layer_norm.bias f4 [4]
0	0x3f2cc464	0.6748717
1	0x3ee7f9c7	0.45307752
2	0x3e812c1a	0.2522896
3	0x3e3104e2	0.17287019

recurrent._final_conv.weight f4 [20, 50, 1, 4]
0	0xbcd9b609	-0.026576059
1	0x3df87783	0.1213217
2	0x3deb4a6e	0.11488806
3	0x3db64139	0.08899159
4	0x3cc2fbe9	0.02380176
5	0xbdecd45a	-0.1156394
6	0xbde279f4	-0.11058417
7	0x3e0b77b2	0.13619879
8	0x3d3aabce	0.045574002
9	0x3c8b6a24	0.017018385
10	0xbcf53b58	-0.029935524
11	0x3d536023	0.051605355
12	0xbd6a517f	-0.057206627
13	0xbd48d5f2	-0.04903216
14	0xbdd25672	-0.102703944
15	0xbd699c3a	-0.057033755
16	0xbd55004a	-0.05200223
17	0xbd5fb4ac	-0.05461566
18	0xbd4cc7dc	-0.04999529
19	0x3c3c86da	0.0115067605
20	0xbe2c49ba	-0.16825
21	0x3e191c2d	0.14952154
22	0x3c6d2656	0.014474472
23	0x3d62b6cb	0.055350106
24	0xbcf07e04	-0.029356964
25	0xbddd920d	-0.108188726
26	0xbe01a1ed	-0.12659426
27	0x3e07a54f	0.13246654
28	0x3d723565	0.059132952
29	0x3daa6571	0.0832013
30	0xbcde0e61	-0.027106466
31	0x3e1c5c66	0.15269622
32	0x3d994bc0	0.07485151
33	0xbca3286b	-0.019916734
34	0xbda2df89	-0.07952792
35	0xbde8899e	-0.113543734
36	0xbcd92261	-0.026505651
37	0xbcc1c763	-0.023654645
38	0x3e0fbcac	0.14036816
39	0xbdadf01b	-0.08493062
40	0xbc8c2717	-0.017108483
41	0x3e1b4674	0.15163594
42	0x3e210e20	0.15728045
43	0x3e09968b	0.13436334
44	0x3d5f1e04	0.054471985
45	0xbcebfa58	-0.028805897
46	0x3de77589	0.11301715
47	0x3c6d4c86	0.014483577
48	0x3c5a1616	0.01331093
49	0xbdad2b5b	-0.08455535
50	0xbc0ba666	-0.008523559
51	0x3de6208a	0.11236675
52	0xbd80dc34	-0.062920004
53	0x3e14fabd	0.14548774
54	0x3ca73cbf	0.020414708
55	0x3d95b6bd	0.07310245
56	0xbdaa1af6	-0.08305924
57	0x3dc982f5	0.09839431
58	0xbcd3169b	-0.025767615
59	0x3d0af6f1	0.033926908
60	0x3d59c522	0.053166516
61	0x3deca4f5	0.115549006
62	0xbd9bcd51	-0.0760752
63	0xbdf72905	-0.12068371
64	0x3d92fc4b	0.07177027
65	0x3d79d07e	0.06098985
66	0x3de00a74	0.10939494
67	0x3c8efe54	0.017455257
68	0x3d2334a3	0.03984512
69	0xbdadc589	-0.084849425
70	0xbdd86a59	-0.10567159
71	0x3d6a6ca6	0.05723252
72	0x3da8a01d	0.08233664
73	0xbd21c29f	-0.039492246
74	0x3da42a7d	0.080159165
75	0x3dca0f9f	0.09866261
76	0xbb4fb019	-0.0031690656
77	0xbd523025	-0.051315445
78	0x3d72bd26	0.059262417
79	0x3d7fc5cb	0.06244449
80	0x3de8ad89	0.11361224
81	0x3e0556cc	0.13021392
82	0x3d1273d9	0.035755012
83	0x3e036cc1	0.12834455
84	0x3da414d8	0.08011788
85	0x3d290f9a	0.041274644
86	0xbd8ab0b8	-0.06771988
87	0x3dbc84a0	0.09204984
88	0xbdb1a0aa	-0.08673222
89	0xbda10a30	-0.07863271
90	0x3d02c7bb	0.03192876
91	0xbc1b5573	-0.009480822
92	0xbd3d92e2	-0.046282656
93	0xbcaf2229	-0.021378594
94	0x3dba004f	0.0908209
95	0xbe0bd12b	-0.1365401
96	0x3ca1ddc9	0.019759076
97	0x3bc9ab0c	0.0061544236
98	0x3c444c0d	0.011981023
99	0x3c078ff1	0.008274064
100	0x3da62530	0.08112562
101	0x3daeaa8e	0.085286245
102	0xbce0088a	-0.027347822
103	0x3dcdd922	0.100511804
104	0x3b3882ba	0.002815409
105	0x3cf19a6f	0.029492585
106	0x3d8b4a59	0.0680129
107	0xbe074aba	-0.132121
108	0xbdd4a854	-0.103836685
109	0xbd545862	-0.0518421
110	0x3d69222f	0.056917366
111	0x3d18b421	0.03728116
112	0x3d08aa24	0.033365384
113	0xbc8cff03	-0.017211443
114	0x3bdd3510	0.0067507103
115	0xbdfbe880	-0.12300205
116	0x3d9bd34b	0.0760866
117	0xbd0c4db0	-0.034253776
118	0x3e17b2d2	0.14814308
119	0xbca44ec9	-0.020057099
120	0xbde46ee2	-0.11153962
121	0x3d3346a0	0.043768525
122	0x3db0a434	0.08625069
123	0x3d34dc85	0.044155616
124	0x3d4c0466	0.049808882
125	0x3e06e7e1	0.13174392
126	0x3dd878dd	0.10569928
127	0x3e1b0e74	0.15142232
128	0xbdc9c75d	-0.09852479
129	0x3e13e924	0.14444405
130	0xbd779afb	-0.060450535
131	0xbd5c3bec	-0.053768083
132	0xbe08589f	-0.13315056
133	0x3de163e2	0.11005379
134	0xbdbde0cb	-0.092713915
135	0xbd5ad8a9	-0.05342928
136	0xbda32e8e	-0.07967864
137	0x3da76fd7	0.08175629
138	0x3c26d41f	0.01018241
139	0xbafeea27	-0.0019448445
140	0x3d277235	0.0408804
141	0xbd90ddac	-0.070735306
142	0xbd7f0547	-0.062260892
143	0xbd760706	-0.06006529
144	0xbdd54d66	-0.10415153
145	0x3cc9e16d	0.024643624
146	0xbd4eee7a	-0.050520398
147	0x3dbed5b0	0.093181014
148	0x3db86e51	0.09005416
149	0xbc36f7ff	-0.011167525
150	0xbbe0eeb1	-0.0068643917
151	0x3c9a310b	0.018822214
152	0xbd6271ef	-0.055284437
153	0xbe01c412	-0.12672451
154	0xbd60020d	-0.054689456
155	0xbdc6f070	-0.097138286
156	0x3cc4a813	0.024005925
157	0xbdb56c73	-0.08858576
158	0x3d3abca2	0.04559005
159	0xbe0abe44	-0.13549143
160	0xbd83031f	-0.0639708
161	0xbde145d3	-0.10999646
162	0x3dae9615	0.085247196
163	0xbd939498	-0.072060764
164	0x3e113078	0.14178646
165	0xbc4d12c1	-0.012516678
166	0xbcec4534	-0.028841592
167	0xbc5a9851	-0.013341979
168	0x3e2a6707	0.16640864
169	0xbdf7ed46	-0.12105803
170	0xbd0b534a	-0.034014978
171	0x3e03cddf	0.12871502
172	0x3dde5a5a	0.10857077
173	0xbc70d2b4	-0.014698673
174	0x3ca00076	0.01953147
175	0x3d7946c1	0.06085849
176	0x3ddfef79	0.10934348
177	0x3e2304bf	0.15919779
178	0x3c538102	0.012909176
179	0xbb837f71	-0.004012995
180	0x3e268f0d	0.16265507
181	0xbc458ad0	-0.012057021
182	0xbbad1477	-0.0052819806
183	0xbdaf490d	-0.08558855
184	0x3e8b7b59	0.27242544
185	0xbd397c2b	-0.04528443
186	0xbdd7cf6f	-0.10537612
187	0xbd03319a	-0.032029726
188	0x3e56bd96	0.20970759
189	0x3dd2003c	0.10253951
190	0x3ce4ea43	0.027943736
191	0x3d95ae79	0.07308669
192	0x3ec03f91	0.37548497
193	0xbc5c99f6	-0.0134644415
194	0xbd2099a3	-0.03920902
195	0xbe237239	-0.15961541
196	0x3ea0ca57	0.31404373
197	0xbd098ce3	-0.033581626
198	0xbe896d2f	-0.26841113
199	0xbe0ee904	-0.13956076
200	0x3b274aa5	0.002552667
201	0x3cde1277	0.027108414
202	0x3d35637b	0.044284325
203	0x3e038e64	0.12847286
204	0xbde6f437	-0.11277049
205	0xbe0ad429	-0.13557495
206	0xbda27f0f	-0.07934391
207	0xbcd4d05b	-0.025978258
208	0xbd44809f	-0.047974225
209	0x3bcb5c11	0.0062060435
210	0xbdd90701	-0.10597039
211	0xbdc38a4d	-0.09547863
212	0xbd9c8ba2	-0.0764382
213	0x3dfc0336	0.123053
214	0x3d45bba9	0.04827467
215	0x3df1e09d	0.1181042
216	0x3c0bfc3f	0.008544027
217	0x3e129b8f	0.14317153
218	0x3de89ddc	0.11358234
219	0x3dc72751	0.09724296
220	0x3d665b5b	0.056239467
221	0x3d79b1c4	0.060960546
222	0xbd739040	-0.05946374
223	0xbd097f8e	-0.03356891
224	0x3dd67725	0.10471944
225	0xbda5ce26	-0.0809596
226	0xbc717215	-0.014736672
227	0x3df2c22f	0.11853444
228	0xbdb4a785	-0.08821014
229	0x3dc6f059	0.097138114
230	0x3e1770bf	0.14789103
231	0xbdbad68e	-0.09122954
232	0x3d4ed425	0.050495286
233	0x3cce178d	0.025157714
234	0xbc83e1cf	-0.016098885
235	0x3dd172e2	0.1022699
236	0x3c8c8567	0.017153455
237	0x3d4f0bcb	0.050548356
238	0xbd9f4f16	-0.07778756
239	0x3d94df2f	0.072691314
240	0xbc808f86	-0.015693437
241	0x3cfcb0db	0.03084605
242	0x3cfdac8e	0.03096607
243	0xbd3ee8bd	-0.046608675
244	0xbd8f011f	-0.06982636
245	0xbcec3fa2	-0.028838936
246	0xbda7eede	-0.08199857
247	0x3d9b45d2	0.075816765
248	0x3ded630a	0.11591156
249	0xbdaba4bb	-0.08381029
250	0x3c969b1f	0.018384514
251	0xbdeba6f2	-0.11506452
252	0x3d2d1302	0.042254455
253	0x3d630e57	0.055433597
254	0x3cd3fddf	0.025877891
255	0x3dbafd21	0.09130312

recurrent._final_conv.bias f4 [20]
0	0x3f458179	0.77150685
1	0x3dafa760	0.08576846
2	0x3e00b5ef	0.12569402
3	0x3f23007f	0.6367263
4	0x3e7ae358	0.24500787
5	0x3f3744c0	0.7158928
6	0x3f6e3849	0.93054634
7	0x3eb80e6b	0.359485
8	0x3e94900c	0.2901615
9	0x3f2a3b83	0.6649706
10	0x3f23cff7	0.63989204
11	0x3d864f9e	0.065581545
12	0x3f1999bc	0.60000205
13	0x3f7cc81e	0.98742855
14	0x3da17601	0.078838356
15	0x3f5b9a2e	0.85782135
16	0x3f44ce23	0.7687704
17	0x3e5965fe	0.21230313
18	0x3f77fb87	0.96868175
19	0x3f2639b0	0.64931774
