TFM/experimentos_split/results/branch_trip/DCRNN.pt (torch, 239016 bytes, 8 tensors)

recurrent.conv_x_z.weight f4 [2, 1, 160, 60]
0	0x3c8b98f8	0.017040715
1	0x3d4da3ee	0.050205164
2	0x3d3fac99	0.04679546
3	0x3c9dd09e	0.019264515
4	0xba8f2bb9	-0.0010923065
5	0x3c6b95e7	0.014379001
6	0x3c0f789a	0.008756781
7	0x3d09162d	0.033468414
8	0x3cc02bf7	0.023458464
9	0xbba5d38c	-0.0050606187
10	0x3d75dfb7	0.060027804
11	0x3c0ea76b	0.008706908
12	0x3c2eb72a	0.010663787
13	0x3bf4f1a7	0.0074750963
14	0x3c546c5a	0.012965286
15	0x3a227d1f	0.0006198454
16	0x3cdf163a	0.027232278
17	0x3b0bd126	0.002133438
18	0xbbdccc91	-0.0067382534
19	0x3c1eac53	0.00968464
20	0x3ca8b138	0.020592317
21	0x3b11a36a	0.0022222647
22	0x3be3246a	0.006931831
23	0x3c1ce030	0.009574935
24	0xbbb08e6e	-0.0053880727
25	0xbbda0aba	-0.0066541107
26	0x3afcf084	0.0019297753
27	0xbb2ef36b	-0.0026695381
28	0x3bf16da1	0.007367805
29	0xbc036b1d	-0.008021143
30	0x3cd2d2f4	0.025735356
31	0xbbf722b4	-0.0075419787
32	0x3c88d19e	0.016701516
33	0x3cb11898	0.021618173
34	0x3ad0b38f	0.0015922653
35	0x3c75fc2d	0.015013737
36	0x3b4dc110	0.0031395592
37	0x3d0250bc	0.031815276
38	0x3c479123	0.012180599
39	0x3cd5607d	0.026046986
40	0x3c891965	0.016735742
41	0x3b090f44	0.002091364
42	0x3c83d841	0.016094329
43	0x3c80d1a3	0.015724963
44	0x3cff864d	0.03119197
45	0xb99faa66	-0.000304538
46	0x3c6395df	0.0138907125
47	0x3c0cb503	0.008588078
48	0x3bf03039	0.0073299673
49	0xbb3707cc	-0.0027928231
50	0xbbeb9fef	-0.0071906964
51	0x39e0d7c0	0.00042885356
52	0x3bea025b	0.007141394
53	0x3c893dd7	0.01675312
54	0x3d2f0c09	0.042736087
55	0x3c6a7865	0.014310931
56	0x3c25912b	0.0101054115
57	0x3bbc8f89	0.0057544154
58	0x3cd2528e	0.02567413
59	0xbc28062f	-0.0102553805
60	0x3be291d7	0.006914358
61	0x3ca75463	0.02042598
62	0x3d2cf280	0.042223454
63	0x3a87a149	0.0010347749
64	0xba9a00f5	-0.0011749553
65	0x3b320621	0.0027164298
66	0x3cac7ff3	0.021057105
67	0x3c00f50b	0.007870923
68	0xbb943f4b	-0.0045241467
69	0xbb49e46d	-0.0030806318
70	0x3d3d9552	0.04628498
71	0x3c3133c1	0.010815562
72	0x3c638e3d	0.013888893
73	0xbbd17044	-0.006391557
74	0xbc082ada	-0.008310998
75	0xbc69ef9b	-0.014278318
76	0xbb46a084	-0.0030308077
77	0x3bbf91e8	0.005846251
78	0x3ba95b83	0.0051683798
79	0x3c937258	0.01799886
80	0x3c297470	0.010342702
81	0xbbb65804	-0.0055646915
82	0x3c559839	0.013036781
83	0xbbbf2cba	-0.0058341892
84	0x3c71ebcd	0.014765692
85	0xbb60784e	-0.0034251395
86	0x3c69ac4e	0.014262272
87	0xbbaa9304	-0.005205514
88	0xbaa792f9	-0.001278489
89	0x3c2e410d	0.0106356265
90	0x3c0045a1	0.007829101
91	0xbc062c73	-0.008189308
92	0x3c6806e8	0.014161803
93	0x3cb7bc7e	0.022428747
94	0xbb89350a	-0.004187231
95	0xbad33979	-0.0016115151
96	0x3c117c40	0.008879721
97	0x3bf1654c	0.007366812
98	0xbb13df98	-0.0022563692
99	0x3c0b97e9	0.008520105
100	0xba217c11	-0.000616015
101	0x3c1d77e8	0.009611107
102	0x3c045f6b	0.00807939
103	0xbc7612b9	-0.015019112
104	0x3c671909	0.01410509
105	0xbb7c923c	-0.003853931
106	0xbbdb1e1f	-0.0066869403
107	0xbafe9fbe	-0.0019426269
108	0xbc4ef8f5	-0.012632598
109	0xbb50ca7e	-0.0031858976
110	0x3c6a484f	0.014299466
111	0x3c0f0f3f	0.008731662
112	0x3c624043	0.0138092665
113	0xbc0c217c	-0.008552905
114	0x3cb42dd3	0.021994507
115	0xbaf8972e	-0.0018965953
116	0x3bff8256	0.0077975197
117	0xbbdb624c	-0.0066950675
118	0x3a4711a0	0.0007593874
119	0xbc0d9322	-0.008641036
120	0x3bc619cb	0.006045555
121	0x3c81f2e7	0.015862895
122	0x3cbbbd1d	0.022917325
123	0xbb7769f4	-0.0037752362
124	0xbcc2b601	-0.023768427
125	0xbc16a6a0	-0.009195
126	0xbbb1f839	-0.005431202
127	0xbb32cf27	-0.0027284117
128	0x3c1ba92a	0.009500781
129	0x3b2e8c91	0.0026634077
130	0x3cf4dafc	0.029889576
131	0x3c2c13ed	0.010502798
132	0xbc4840b8	-0.012222461
133	0x3c7e192d	0.015508932
134	0x3b054efa	0.0020341263
135	0xbc78874e	-0.015168978
136	0xbc754a76	-0.014971366
137	0xbc6b1a0d	-0.014349473
138	0x3b875207	0.0041296515
139	0x3b3af19a	0.0028525353
140	0x3c7bece9	0.015376308
141	0xbbf7ef99	-0.007566404
142	0x3c044cbd	0.008074936
143	0xbc2d974b	-0.010595153
144	0x3b663d57	0.0035131776
145	0x3b459385	0.0030147743
146	0x3c5c7a8e	0.013456954
147	0x3c90aef9	0.017661558
148	0x3c9ce8fb	0.019154062
149	0xbbaab4b0	-0.005209528
150	0xba886ffb	-0.0010409349
151	0xbc99c2fd	-0.018769735
152	0x3b824dce	0.00397656
153	0xbb9b935b	-0.0047477908
154	0x3c9f2610	0.01942733
155	0xbb93713e	-0.0044995835
156	0xbb594167	-0.0033150555
157	0x3c1198de	0.008886544
158	0xb920070e	-0.00015261417
159	0x3b8d67e0	0.0043153614
160	0x3c81d419	0.015848206
161	0x3c165c7e	0.009177325
162	0x3c4260ea	0.011863926
163	0xbcd5f7de	-0.026119169
164	0x3c283950	0.010267571
165	0x3b7baae2	0.0038401415
166	0xba8a2107	-0.0010538407
167	0x3c96c291	0.018403323
168	0x3b52e4e4	0.0032179886
169	0xbb01d797	-0.001981234
170	0xbc78e7a6	-0.015191948
171	0x3bae3376	0.005316193
172	0x3bfe2bf1	0.007756703
173	0x3aa002d2	0.0012207872
174	0x3c8012a6	0.015633892
175	0xbc0687ae	-0.0082110595
176	0xbbabca93	-0.0052426546
177	0x3c36bb46	0.011153048
178	0x3c0d16e6	0.008611416
179	0xbc5ea263	-0.013588521
180	0x3c195178	0.009357803
181	0x3d29a451	0.04141647
182	0x3d3a61e0	0.045503497
183	0x3a62d48e	0.0008652889
184	0x3bd156cc	0.006388521
185	0x3c7ddf86	0.015495187
186	0x3c942a90	0.018086702
187	0x3c8cd872	0.017193053
188	0x3b5e2181	0.0033894482
189	0x3be7bbd8	0.0070719533
190	0x3d1d7960	0.03844583
191	0x3adf602e	0.0017042214
192	0x3c17294e	0.009226156
193	0x3c92d69f	0.017924605
194	0x3b95f748	0.0045765974
195	0xbb5dc2e6	-0.0033838092
196	0x3c327032	0.010891007
197	0xba61eb5f	-0.0008618142
198	0x3b636993	0.0034700378
199	0x3c24aa1d	0.010050324
200	0x3c14b57d	0.009076473
201	0xba899810	-0.0010497589
202	0x3caef362	0.021356288
203	0x3bb83efa	0.0056227418
204	0x3bad43a4	0.0052876044
205	0xbc0e93a6	-0.008702194
206	0xbb392607	-0.0028251426
207	0xbbe2c35a	-0.0069202604
208	0x3aaa7a43	0.0013006408
209	0x3c360616	0.011109849
210	0x3c961d86	0.018324625
211	0x3bf3d561	0.007441208
212	0xbbebf0ea	-0.00720035
213	0x3bd1ea28	0.0064060874
214	0x3b832a02	0.0040028105
215	0x3ca44d64	0.020056434
216	0x3a084c9d	0.00051994045
217	0x3c54f8b1	0.012998746
218	0x3c589d0b	0.013221036
219	0x3cb0d59a	0.021586228
220	0xb94cfe9a	-0.00019549803
221	0x3c877ff7	0.01654051
222	0x3b5d1584	0.0033734748
223	0xbb4b0ec1	-0.0030984136
224	0x3b3582c4	0.002769635
225	0x3c80551e	0.015665587
226	0x3c871eab	0.016494116
227	0x3c38946e	0.011265857
228	0xbc24e4ad	-0.010064286
229	0xbc0703ae	-0.008240623
230	0xbc052e3a	-0.008128697
231	0x3c895e94	0.016768731
232	0x3ca65513	0.020304238
233	0x3c8bb684	0.017054804
234	0x3d2af733	0.041739654
235	0x3c0e1091	0.008670942
236	0x3bb0ea6d	0.0053990395
237	0xbba2e799	-0.0049714562
238	0xbab57af4	-0.0013845847
239	0xbc5d3199	-0.0135005945
240	0x3c4333b6	0.011914184
241	0x3cb869c3	0.022511369
242	0x3cfb96af	0.0307115
243	0xbb16cfb2	-0.002301198
244	0xbbe144a3	-0.006874637
245	0xbbaf46cd	-0.0053490163
246	0xbb1dda83	-0.0024086542
247	0x3cadf174	0.021233298
248	0x3891b31e	6.947502e-05
249	0x3c6c8e49	0.01443822
250	0x3cd0fd39	0.025511371
251	0xbb9629ed	-0.0045826347
252	0xbb26e624	-0.0025466764
253	0xbac1865d	-0.0014764775
254	0x3ad05a94	0.0015896135
255	0xbc8a9fc4	-0.016921885

recurrent.conv_x_z.bias f4 [60]
0	0x3bc4cae4	0.0060056318
1	0x3dfcfcf6	0.12352936
2	0x3e1cdb67	0.1531807
3	0x3bc4c9d7	0.0060055065
4	0x3d3adfcc	0.045623586
5	0x3d93fa5a	0.07225485
6	0x3dd98702	0.10621454
7	0x3dbe370f	0.09287845
8	0x3da9cd8b	0.08291157
9	0x3bb51659	0.0055263457
10	0x3df76645	0.12080053
11	0x3bc4c9bf	0.0060054953
12	0x00000000	0.0
13	0x3bb58607	0.005539659
14	0x3bc4c9cb	0.006005501
15	0x3d3a5cf7	0.045498814
16	0x3dbb6655	0.09150378
17	0x00000000	0.0
18	0x00000000	0.0
19	0x3bc4c9cb	0.006005501
20	0x3dec87a1	0.11549307
21	0x3b9ea1fe	0.0048410883
22	0x3d9a0085	0.0751963
23	0x00000000	0.0
24	0x3bc4c9d4	0.006005505
25	0x00000000	0.0
26	0x3bc4c9d1	0.0060055037
27	0x3bc4e679	0.00600892
28	0x3bc4c9d1	0.0060055037
29	0x3bcc1190	0.0062276796
30	0x3d2597f1	0.040428106
31	0x3d49bf46	0.04925468
32	0x3bb6243e	0.0055585196
33	0x3dbe3ce3	0.09288957
34	0x3bce893e	0.0063029816
35	0x3bc77590	0.0060870126
36	0x3d431f96	0.047637545
37	0x3d51a82c	0.05118577
38	0x3da8d98d	0.082446195
39	0x3d89d0d8	0.06729287
40	0x3d87b376	0.06626026
41	0x3bc4c9ce	0.0060055023
42	0x3c125018	0.008930229
43	0x3cfe9ec1	0.03108156
44	0x3df48e67	0.119412236
45	0x3bc4c9d1	0.0060055037
46	0x3bb624d9	0.005558592
47	0x3bc4c9d2	0.006005504
48	0x00000000	0.0
49	0x3bc4c227	0.00600459
50	0x3d4c7f04	0.04992582
51	0x3bc4c9ab	0.006005486
52	0x3dec96d9	0.115522094
53	0x3ba2f3f7	0.0049729305
54	0x3dfc7b0c	0.12328157
55	0x3d9635e8	0.073345006
56	0x3bb5745b	0.0055375523
57	0x3bc4c9d1	0.0060055037
58	0x3d71b581	0.059010986
59	0x00000000	0.0

recurrent.conv_x_r.weight f4 [2, 1, 160, 60]
0	0x3c411853	0.0117855845
1	0xbc33f45f	-0.010983556
2	0x3bf56b57	0.0074896025
3	0x3bc95ddc	0.006145222
4	0x3bf7bbca	0.007560228
5	0xbba2d5c5	-0.004969331
6	0xbbf656cd	-0.0075176717
7	0xb8c03c6a	-9.1665264e-05
8	0xbb90da92	-0.004420587
9	0x3bd217c2	0.0064115236
10	0xbc301c19	-0.0107488865
11	0x3c489868	0.012243368
12	0xbb971aaf	-0.004611335
13	0x3c079db6	0.008277347
14	0xbb98e88d	-0.004666394
15	0xbb10462a	-0.0022014477
16	0x3b0c7ba3	0.0021435998
17	0xbc5093d9	-0.012730562
18	0x3bd9d578	0.006647762
19	0x3c55f759	0.013059461
20	0xbc30a144	-0.010780636
21	0x3bb4e2e6	0.0055202125
22	0xbc570da5	-0.013125812
23	0xba14d8a8	-0.0005678036
24	0xbbd74e8c	-0.006570643
25	0xbc4c840b	-0.012482653
26	0x3bcf3ef0	0.0063246414
27	0x3c13e396	0.009026429
28	0x3b01006f	0.0019684096
29	0x3b9f57e4	0.0048627723
30	0xbc02cdbd	-0.007983622
31	0x3c1c4517	0.009537957
32	0xbc3c36e7	-0.011487699
33	0xbb81f546	-0.0039660065
34	0xbbaa4b6a	-0.0051969783
35	0xbbcc0c71	-0.006227069
36	0x3c42b348	0.011883564
37	0x3c370ad6	0.011172017
38	0x3bf31871	0.007418685
39	0xbbb63f84	-0.005561771
40	0xbc11afc2	-0.008892002
41	0xbb83063f	-0.0039985473
42	0xbbb8ab8c	-0.0056356844
43	0x3ad2dfc0	0.0016088411
44	0x3beea858	0.0072832517
45	0x3c5dcae0	0.013537139
46	0x3c25b6dc	0.010114398
47	0xbc424776	-0.011857858
48	0x3c4b231b	0.0123985065
49	0xbc5b6907	-0.01339174
50	0x3ad144ad	0.0015965902
51	0x3ae0a6ab	0.0017139515
52	0xbb2840ba	-0.0025673346
53	0xbb91be01	-0.004447699
54	0xbbcbfaf3	-0.006224984
55	0x3c0799a5	0.008276378
56	0xbc16bc49	-0.009200164
57	0x3b3a8543	0.0028460778
58	0x3baaaca8	0.0052085705
59	0x3c34bd22	0.011031421
60	0x3991bd4c	0.00027797592
61	0x3c4bb0e2	0.012432309
62	0xbc676d94	-0.014125247
63	0xbc02ac97	-0.007975719
64	0xbc4d825d	-0.012543288
65	0xb9d9f2e6	-0.0004157044
66	0xbc123f7a	-0.008926267
67	0x3c1dd599	0.009633445
68	0xbbe0d81e	-0.0068617007
69	0x3aa0d65e	0.0012270918
70	0x3c47ec80	0.012202382
71	0xbc691045	-0.01422507
72	0x3bc319e8	0.005954016
73	0xbc4970a8	-0.012294926
74	0x3be530d1	0.0069943448
75	0xbb77ddc4	-0.0037821392
76	0xbc4ae93a	-0.012384707
77	0x3b1bdfe1	0.0023784565
78	0x3a8a2461	0.0010539406
79	0x3ba48a1e	0.0050213477
80	0x3c0dce1a	0.0086550955
81	0xbac34c48	-0.0014900053
82	0xbbdb559f	-0.0066935564
83	0x3c671f23	0.014106545
84	0xbb920eec	-0.004457345
85	0x3c4a54a4	0.012349281
86	0x3c1db190	0.009624854
87	0xbc67ecb2	-0.014155554
88	0xbb88f62e	-0.0041797375
89	0x3a746bf3	0.0009323947
90	0xbc3d82d4	-0.011566836
91	0x3b21b343	0.0024673499
92	0xbbc37f9f	-0.0059661414
93	0xbbf2b754	-0.0074071083
94	0x3c3003fe	0.010743139
95	0x3bcb5827	0.006205577
96	0x3c6b598c	0.014364611
97	0xbb4180c5	-0.0029526216
98	0xbb86850a	-0.004105215
99	0xbc170994	-0.009218592
100	0x3ad60759	0.0016329094
101	0x3c398a9b	0.01132455
102	0xbacf10aa	-0.0015797813
103	0xbba3d908	-0.0050002374
104	0x3c172a09	0.009226331
105	0x3a03f21c	0.00050333305
106	0x3b0659b5	0.0020500247
107	0x3c5edb15	0.013602038
108	0x3c627f6e	0.013824327
109	0x3c621925	0.01379994
110	0xbc55a0bf	-0.013038813
111	0x3b20a372	0.0024511483
112	0x3c404755	0.011735757
113	0x3c51a9a0	0.012796789
114	0xbc4d39fc	-0.012526032
115	0x3c2e6d01	0.010646106
116	0xbbda8708	-0.006668929
117	0xbbecdc87	-0.0072284373
118	0xbc053339	-0.008129888
119	0xbbfb682a	-0.0076723294
120	0xbb13ea36	-0.002257002
121	0xb987ba53	-0.0002588803
122	0xbbcf38a9	-0.006323893
123	0x3c17fd0b	0.009276639
124	0xbc07ceb1	-0.008289025
125	0x3c52abeb	0.012858371
126	0xbc556936	-0.0130255725
127	0x3b9bde2a	0.0047567086
128	0xbc10dbc0	-0.008841455
129	0xbc0381a4	-0.008026514
130	0x3b604416	0.003422027
131	0xbb311548	-0.0027020741
132	0xbc1ea881	-0.009683729
133	0xba5f87d7	-0.00085270166
134	0xbc2a75cb	-0.010404061
135	0xbc0ca52e	-0.008584304
136	0x3c0bc55d	0.008530942
137	0x3a6a6283	0.0008941071
138	0xbb859096	-0.004076074
139	0x3c3d5aeb	0.011557321
140	0x3ae8bf96	0.0017757292
141	0x3c2b061f	0.010438471
142	0x3bc3d609	0.0059764427
143	0x3a9b5362	0.0011850412
144	0xbbae4888	-0.005318705
145	0xbbcfd14c	-0.006342089
146	0x3c4f0f67	0.01263795
147	0x3b4a3daf	0.003085952
148	0x3c499c7c	0.012305375
149	0x3c0d5019	0.008625054
150	0xba55ae70	-0.00081512984
151	0xbc59eacf	-0.013300612
152	0x3bbebccb	0.0058208457
153	0xbb51dad1	-0.0032021294
154	0x3b3da5fd	0.0028938048
155	0xbbac4b56	-0.005258004
156	0x3c39d279	0.0113416845
157	0x3c63a1b7	0.013893536
158	0xbc0c405e	-0.008560268
159	0xbb60fb99	-0.0034329651
160	0xbc300a6b	-0.010744671
161	0x3be4f114	0.0069867466
162	0xbc2b591c	-0.010458257
163	0xbc36db8a	-0.011160741
164	0xbc2cdf92	-0.01055135
165	0xbc3ebb1c	-0.01164129
166	0x3c36ae6f	0.011149987
167	0xbbcba391	-0.006214567
168	0x3c122f78	0.00892245
169	0xbb82e29c	-0.003994299
170	0xbb8eb923	-0.004355566
171	0xbb818f42	-0.0039538452
172	0xbc3fd371	-0.011708126
173	0x3b87bf64	0.0041426886
174	0xbbbe3d63	-0.0058056577
175	0x3b8d937b	0.0043205596
176	0xbc497fb1	-0.01229851
177	0x3b13f5df	0.002257697
178	0x3c401290	0.011723176
179	0xbb9161fa	-0.0044367285
180	0x3b49a345	0.0030767482
181	0xbc69770e	-0.014249576
182	0xbbc12e40	-0.005895406
183	0x3c43df1e	0.011955051
184	0x3bbb9a7a	0.005725202
185	0x3bad497d	0.0052883015
186	0x3bcd43e5	0.006264197
187	0xbb4124d3	-0.0029471412
188	0xbbc8c2f8	-0.0061267577
189	0x3c5e8d1b	0.013583447
190	0xbbad6f97	-0.0052928436
191	0xba96e114	-0.001151117
192	0xbc33390d	-0.010938895
193	0x3c354597	0.011063955
194	0xbb9a84c3	-0.0047155335
195	0xbbb0559a	-0.0053812983
196	0xbc13167b	-0.008977528
197	0x3b5c2c2a	0.003359566
198	0xbc371c67	-0.011176205
199	0x3c4bb3fe	0.01243305
200	0x3c2dda15	0.010611077
201	0xbc33fa5b	-0.010984982
202	0xbc58fc92	-0.013243811
203	0x3b772d37	0.003771616
204	0xbc0c9cba	-0.008582288
205	0xbc6a6c29	-0.014308014
206	0x3c147a0b	0.0090623
207	0xbb6de13b	-0.0036297578
208	0x3b43b8a6	0.0029864698
209	0x3aca55d8	0.001543696
210	0xbc1398e2	-0.009008618
211	0xbbe802cf	-0.007080413
212	0x3ba46e90	0.005018063
213	0xbc50cdc7	-0.012744374
214	0xbb01e7d6	-0.0019822023
215	0xbaa67451	-0.001269946
216	0xbc031db2	-0.008002685
217	0x3c69bae6	0.0142657515
218	0xbc518fe0	-0.01279065
219	0xbc4ab54d	-0.012372327
220	0xbc2af7a5	-0.01043502
221	0x3c061b3f	0.008185207
222	0xbc494dc4	-0.012286607
223	0x3c0f8e13	0.0087619005
224	0x3c658be6	0.014010405
225	0x3c5df392	0.013546841
226	0x3c5c6456	0.013451656
227	0x3b19a75d	0.0023445704
228	0xbc4ec801	-0.012620927
229	0x3b67a723	0.0035347424
230	0x3bc2bb40	0.005942732
231	0xba8ef367	-0.001090628
232	0xbc4f3ea6	-0.012649214
233	0x3c3268ec	0.010889273
234	0x3b3645ff	0.0027812717
235	0x3c1f4cd5	0.009722908
236	0xbad1d831	-0.0016009865
237	0xbc535fdd	-0.012901274
238	0x3c496411	0.012291924
239	0xbc677388	-0.014126666
240	0xbc28f25e	-0.010311691
241	0x3c5810c8	0.013187595
242	0xbb881f89	-0.00415415
243	0x3c006977	0.007837645
244	0x3c10dbcb	0.008841465
245	0xbade2b10	-0.001695009
246	0xbb3e3525	-0.0029023376
247	0x3bd226fc	0.0064133387
248	0xbb3ff4e8	-0.0029290263
249	0x3bc37915	0.005965362
250	0xbb95dbdf	-0.00457333
251	0xbc01bceb	-0.007918577
252	0xbc155f5c	-0.009116974
253	0xbc6b11a1	-0.014347465
254	0xbb90009f	-0.0043946053
255	0xbbd8126a	-0.006593992

recurrent.conv_x_r.bias f4 [60]
0	0x00000000	0.0
1	0x00000000	0.0
2	0x00000000	0.0
3	0x00000000	0.0
4	0x00000000	0.0
5	0x00000000	0.0
6	0x00000000	0.0
7	0x00000000	0.0
8	0x00000000	0.0
9	0x00000000	0.0
10	0x00000000	0.0
11	0x00000000	0.0
12	0x00000000	0.0
13	0x00000000	0.0
14	0x00000000	0.0
15	0x00000000	0.0
16	0x00000000	0.0
17	0x00000000	0.0
18	0x00000000	0.0
19	0x00000000	0.0
20	0x00000000	0.0
21	0x00000000	0.0
22	0x00000000	0.0
23	0x00000000	0.0
24	0x00000000	0.0
25	0x00000000	0.0
26	0x00000000	0.0
27	0x00000000	0.0
28	0x00000000	0.0
29	0x00000000	0.0
30	0x00000000	0.0
31	0x00000000	0.0
32	0x00000000	0.0
33	0x00000000	0.0
34	0x00000000	0.0
35	0x00000000	0.0
36	0x00000000	0.0
37	0x00000000	0.0
38	0x00000000	0.0
39	0x00000000	0.0
40	0x00000000	0.0
41	0x00000000	0.0
42	0x00000000	0.0
43	0x00000000	0.0
44	0x00000000	0.0
45	0x00000000	0.0
46	0x00000000	0.0
47	0x00000000	0.0
48	0x00000000	0.0
49	0x00000000	0.0
50	0x00000000	0.0
51	0x00000000	0.0
52	0x00000000	0.0
53	0x00000000	0.0
54	0x00000000	0.0
55	0x00000000	0.0
56	0x00000000	0.0
57	0x00000000	0.0
58	0x00000000	0.0
59	0x00000000	0.0

recurrent.conv_x_h.weight f4 [2, 1, 160, 60]
0	0xba154918	-0.0005694791
1	0xbc1bdd0e	-0.009513153
2	0xbd36d215	-0.044633944
3	0xbbb86986	-0.0056278137
4	0x3bee046e	0.0072637117
5	0x3c5d109d	0.01349273
6	0xbc9bd85e	-0.01902407
7	0xbcae9db9	-0.021315442
8	0x3c2358d0	0.009969905
9	0xbc4f8f04	-0.012668375
10	0xbd477757	-0.048697796
11	0xbb183a1d	-0.0023227998
12	0xbc65825e	-0.014008133
13	0x3b361cbc	0.0027788123
14	0xbc49a430	-0.012307212
15	0x3c6f3cb1	0.014601872
16	0xbccf84ac	-0.025331818
17	0xbc616cda	-0.013758862
18	0xbbbeb83b	-0.005820302
19	0x3bcb2002	0.006198884
20	0xbcb6ca2b	-0.022313198
21	0xbc69aa82	-0.014261844
22	0x3be1a649	0.006886278
23	0x3c387dd8	0.011260472
24	0xbb9c2083	-0.004764618
25	0xbc46739b	-0.012112523
26	0x3ba063b7	0.0048946994
27	0x3ab72372	0.0013972356
28	0x3b9c8d22	0.0047775665
29	0xbbb10bc3	-0.0054030134
30	0x3bab04e5	0.0052190893
31	0xbc18e100	-0.009330988
32	0xbc854dd6	-0.016272467
33	0x3b316023	0.0027065359
34	0xbb9c9b11	-0.0047792275
35	0x3a111e37	0.00055358134
36	0xbb26b750	-0.0025438853
37	0x3ca23985	0.019802818
38	0xbb53a124	-0.0032292092
39	0x3be1aa0c	0.0068867262
40	0x3af82329	0.0018931377
41	0xbc6caac5	-0.0144450115
42	0x3bbe2706	0.005802992
43	0x3c467bcc	0.012114476
44	0xbba7636c	-0.0051082876
45	0xbbc08232	-0.0058748955
46	0xbc4a51b8	-0.012348585
47	0x3b464658	0.003025433
48	0x3be10917	0.0068675387
49	0xbb91ea9f	-0.004453018
50	0xbbc4fc2b	-0.006011506
51	0x3a8260f0	0.0009947103
52	0x3a48847f	0.0007649138
53	0xbc2703a7	-0.010193742
54	0xba0c09bb	-0.0005342026
55	0xbb6cd356	-0.0036136708
56	0x3b315939	0.0027061237
57	0xbc8b7de7	-0.017027808
58	0x3c6f53a8	0.014607348
59	0xbc362c66	-0.011118984
60	0xbb3040c1	-0.0026894065
61	0x3c3c0ed9	0.011478149
62	0xbcb93533	-0.022608375
63	0xbaa4d08c	-0.0012574359
64	0x3ced0efd	0.028937811
65	0xbb9b9c6e	-0.0047488725
66	0xbc01c3a9	-0.007920184
67	0xbba54d34	-0.0050446037
68	0x3cb9b420	0.022668898
69	0xb9e9fbe0	-0.00044628885
70	0xbd04171a	-0.032248594
71	0x3b8eadaf	0.004354201
72	0x3ac5f475	0.0015102761
73	0xbc9b9c9d	-0.018995577
74	0xbb826c58	-0.0039802007
75	0x3b4e1c3d	0.0031449937
76	0xbc571546	-0.013127631
77	0x3adea4e2	0.0016986395
78	0x3befb164	0.007314848
79	0xbc9e9f58	-0.01936309
80	0x3c53044e	0.012879444
81	0xbbb48094	-0.005508492
82	0x3aca01cc	0.0015411912
83	0xbc5d33bc	-0.013501104
84	0xbbcd4d1b	-0.006265295
85	0x3b819ec6	0.003955695
86	0xbc9481b6	-0.018128257
87	0xbc850483	-0.016237503
88	0xbb10d5d9	-0.002210012
89	0xbc16dcc0	-0.009207904
90	0x3cfa1356	0.030526798
91	0x3c55fde4	0.0130610205
92	0xbb884c7a	-0.0041595073
93	0xbc3b529c	-0.01143327
94	0xbc534c30	-0.0128965825
95	0x3abc8bd6	0.0014384936
96	0xbb896441	-0.0041928594
97	0x3c8cd9a6	0.017193627
98	0x3c311c5a	0.010809982
99	0xb8b76bc1	-8.746191e-05
100	0xbc521847	-0.012823171
101	0xbc99f110	-0.018791705
102	0xbc694862	-0.014238449
103	0x3ca82846	0.020527016
104	0x3b982f42	0.0046443054
105	0x3b8d4bf4	0.004312033
106	0xbb4117dc	-0.0029463684
107	0xbc3225e3	-0.010873291
108	0x3b3cf303	0.002883137
109	0xbba26ed0	-0.0049570575
110	0x3c1e4274	0.009659398
111	0xbb0912ab	-0.0020915668
112	0x3b2510d5	0.0025187035
113	0x3ba92ad5	0.0051625767
114	0x3c23cf7d	0.0099981995
115	0x3c998905	0.018742094
116	0xbb003d12	-0.001956765
117	0xbc20b377	-0.009808413
118	0xba5fa3e0	-0.0008531194
119	0xbc1e543d	-0.009663639
120	0xbc765ad2	-0.015036302
121	0x3ca69cb7	0.0203384
122	0xbce722cb	-0.028214833
123	0x3bd4f319	0.006498706
124	0x3c873f68	0.016509727
125	0x3b31137c	0.002701967
126	0x39d0389a	0.00039715023
127	0x3b1d9aa9	0.0024048483
128	0x3c0a98cd	0.008459282
129	0xbc524629	-0.01283411
130	0xbc1c152c	-0.009526532
131	0xbc3c62e9	-0.011498191
132	0xbbe92365	-0.007114815
133	0x3c02ce61	0.007983775
134	0xbc0051f1	-0.007832036
135	0x3c5bcd3d	0.013415632
136	0x3c68b1d7	0.014202557
137	0x3c4a4b31	0.012347029
138	0x3a9d957c	0.0012022699
139	0x3bfd04a1	0.007721499
140	0x3c18b406	0.009320265
141	0xbc85dede	-0.016341623
142	0x3c968473	0.018373704
143	0xbb8871d9	-0.0041639623
144	0xbc648961	-0.013948769
145	0xbc31207f	-0.01081097
146	0x3c09accd	0.008403015
147	0x3a0dcb26	0.00054089946
148	0xbbb5de60	-0.005550191
149	0xbc68d02b	-0.014209787
150	0x3b9a4946	0.004708442
151	0x3cc59786	0.024120104
152	0x3ba7e46e	0.0051236665
153	0x3b5ce84d	0.0033707798
154	0xbc49a96e	-0.012308462
155	0xbb45a0c0	-0.003015563
156	0x3c6a5dda	0.0143046025
157	0x3ce7f08f	0.02831295
158	0x3beb9be2	0.0071902135
159	0x3c21e898	0.009882115
160	0x3c204bc0	0.009783685
161	0x3b0b506a	0.0021257647
162	0xbc878fa1	-0.01654798
163	0x3c847ebc	0.016173713
164	0xbae625f0	-0.0017558914
165	0xbc286935	-0.01027899
166	0x3a810f79	0.000984653
167	0xbc24913c	-0.010044392
168	0x3b2f8569	0.00267824
169	0x3bfe098f	0.0077526043
170	0x3c0e733b	0.008694465
171	0x3bc07a66	0.005873966
172	0x3c390ebf	0.01129502
173	0xbbbeafa3	-0.0058192774
174	0x3ca5bc67	0.020231439
175	0x3c0e0935	0.008669187
176	0x3aef1878	0.0018241545
177	0xbc1a5373	-0.00941931
178	0x3c4acd32	0.012378024
179	0xbc297e8b	-0.010345112
180	0x3bc73e2d	0.00608041
181	0x3c3bfc00	0.011473656
182	0xbd2d5ad8	-0.042322963
183	0x3bfacfaf	0.0076541523
184	0x3c14ecf0	0.009089693
185	0xba3e4962	-0.00072588597
186	0xbc411534	-0.01178484
187	0x3c055bd5	0.00813957
188	0x3be0a94a	0.0068561183
189	0xba12d6d5	-0.00056014705
190	0xbcd6ed22	-0.02623612
191	0xbc38c890	-0.011278287
192	0xbb1abcfc	-0.0023611179
193	0xbc1509b1	-0.009096549
194	0xbb1ccc10	-0.0023925342
195	0x3c2b74f7	0.010464898
196	0xbc510067	-0.012756444
197	0xbc64e31b	-0.013970162
198	0x3c372876	0.01117908
199	0xbbfdfa56	-0.0077507896
200	0xbc579d32	-0.013160037
201	0xbc132599	-0.008981132
202	0xba753d1e	-0.00093551155
203	0xbc63b021	-0.013896973
204	0xbc4f0e0f	-0.012637629
205	0x3c37b21c	0.011211898
206	0xbc10eb60	-0.00884518
207	0x3b8057cb	0.0039167157
208	0xbc4bd6be	-0.012441335
209	0xbc2f182a	-0.0106869135
210	0x3bf51cd4	0.007480243
211	0x3c8249a7	0.01590426
212	0xbc862a46	-0.01637758
213	0xbbbcc309	-0.0057605547
214	0xbca02986	-0.01955105
215	0xbc27d154	-0.010242779
216	0x3ada0efc	0.0016636546
217	0x3c96052d	0.018313015
218	0xbb9c3f0d	-0.0047682584
219	0x3b75aa62	0.003748559
220	0xbc3426ad	-0.010995549
221	0xbc59a18d	-0.013283146
222	0xbb69ae4e	-0.0035656872
223	0x3cbccaee	0.023045983
224	0xbc5a31c9	-0.013317534
225	0xbc62c7e6	-0.013841605
226	0xbc04768f	-0.008084907
227	0xbb8fb686	-0.004385772
228	0x3ba489fd	0.0050213323
229	0xbb255e74	-0.00252333
230	0xbb87b606	-0.004141572
231	0x3a90f33e	0.001105882
232	0xbb795f4b	-0.0038051184
233	0xbc206227	-0.009789026
234	0xbbb5ca48	-0.0055477954
235	0x3ac270ca	0.0014834639
236	0x3c108bab	0.008822362
237	0xbc5f9a7a	-0.01364767
238	0xbb39f0b1	-0.0028372223
239	0x3bb57de7	0.0055386904
240	0xbca5eceb	-0.020254573
241	0x3c8fc9f9	0.017552363
242	0xbcae1b0f	-0.021253137
243	0x3bbe4b82	0.005807341
244	0x3b751c2a	0.003740082
245	0x3ca94984	0.020664938
246	0x3be6f732	0.007048511
247	0x3c3d4e8f	0.011554374
248	0x3ba872c5	0.0051406347
249	0xbc2b1e18	-0.010444187
250	0xbc53085c	-0.012880411
251	0xbc405588	-0.011739142
252	0x3a33d005	0.00068593054
253	0x3a505c9e	0.00079483713
254	0x3afb7a27	0.0019186185
255	0x3c2dc34a	0.010605643

recurrent.conv_x_h.bias f4 [60]
0	0xbbc528b4	-0.006016815
1	0xbd6ec1da	-0.05829034
2	0xbe3db9c0	-0.18527889
3	0xbbc4c9d9	-0.0060055074
4	0x3c3e133b	0.011601265
5	0xbcb693f2	-0.022287343
6	0xbdde47b2	-0.108535185
7	0xbdb58dd5	-0.08864943
8	0xbd8083e8	-0.06275159
9	0xbbb6267d	-0.0055587874
10	0xbe309a91	-0.17246462
11	0xbbc4c9da	-0.006005508
12	0x00000000	0.0
13	0xbbb6271e	-0.0055588624
14	0xbbc4c9d8	-0.006005507
15	0xba44173c	-0.0007480269
16	0xbde92e0d	-0.113857366
17	0x00000000	0.0
18	0x00000000	0.0
19	0xbbc4c9da	-0.006005508
20	0xbdf07b40	-0.11742258
21	0xbbb1986e	-0.0054197824
22	0xbda7a025	-0.08184842
23	0x00000000	0.0
24	0xbbc4c9d9	-0.0060055074
25	0x00000000	0.0
26	0xbbc4c9da	-0.006005508
27	0xbbc5c7f1	-0.0060357978
28	0xbbc4c9d8	-0.006005507
29	0xbc075625	-0.008260285
30	0x3cbe94f7	0.023264391
31	0x3cf00eaf	0.029303877
32	0xbbb62755	-0.005558888
33	0xbe0b3e9a	-0.135981
34	0xbc08b288	-0.008343346
35	0xbbdedf69	-0.006801535
36	0x3c118bba	0.008883411
37	0xbc8b4582	-0.017000917
38	0xbddac01b	-0.106811725
39	0xbd2b9d16	-0.041897856
40	0xbd6e3ede	-0.058165424
41	0xbbc4c9d7	-0.0060055065
42	0xbba4c93d	-0.0050288723
43	0x3ccc8bd8	0.024969026
44	0xbdf2ac68	-0.1184929
45	0xbbc4c9da	-0.006005508
46	0xbbb62756	-0.0055588884
47	0xbbc4c9d8	-0.006005507
48	0x00000000	0.0
49	0xbbc4c9d6	-0.006005506
50	0xbb966b9d	-0.004590465
51	0xbbc4c9d9	-0.0060055074
52	0xbdd1a52e	-0.10236584
53	0xbba7efdc	-0.005125029
54	0xbd8f6c4e	-0.07003079
55	0xbcfe3f93	-0.031036174
56	0xbbb626c2	-0.0055588195
57	0xbbc4c9d8	-0.006005507
58	0x3d0aa7ed	0.033851553
59	0x00000000	0.0

linear.weight f4 [20, 60]
0	0x3db5cf4c	0.08877429
1	0x3c3e5211	0.011616246
2	0x3c61512f	0.013752266
3	0x3da59ece	0.0808693
4	0xbd105cc0	-0.035244703
5	0x3e1695d1	0.14705588
6	0x3deee485	0.116646804
7	0x3e2cd8cb	0.16879575
8	0x3de6e8f6	0.112749025
9	0x3d56c2da	0.05243192
10	0x3da03cee	0.078241214
11	0x3ceffa32	0.029294107
12	0xbc942641	-0.018084647
13	0xbd7e56be	-0.062094443
14	0xbc432d7e	-0.011912702
15	0x3d892a07	0.06697469
16	0x3ca1c4af	0.019747106
17	0xbd81bff3	-0.063354395
18	0xbdbeb481	-0.09311772
19	0xbbd9ea2f	-0.0066502313
20	0x3debb63b	0.11509367
21	0x3db7e9fc	0.08980176
22	0x3dacd6db	0.08439418
23	0xbc671e99	-0.014106416
24	0x3df2a66e	0.1184815
25	0xbe02acd0	-0.12761235
26	0xbd698f32	-0.057021327
27	0xb9347531	-0.00017209795
28	0xbd4ed851	-0.050499264
29	0xbd945aa7	-0.07243853
30	0xbd9f5864	-0.07780531
31	0xbdaa8d82	-0.08327772
32	0x3d406b3f	0.046977278
33	0x3e24830a	0.16065612
34	0x3da80418	0.08203906
35	0x3e04e48f	0.12977813
36	0x3e2721e5	0.16321523
37	0xbd62d4d3	-0.055378746
38	0x3be08024	0.006851213
39	0xbd8ad1c0	-0.06778288
40	0x3e15dc0f	0.14634727
41	0x3d50d0de	0.05098044
42	0x3dfada9d	0.122487284
43	0x3d8c1124	0.06839207
44	0x3e521d87	0.20519076
45	0xbd319a57	-0.04336008
46	0x3dce2fdd	0.10067723
47	0x3d3f900d	0.046768237
48	0xbcbbad09	-0.022909658
49	0xbd4bd7bb	-0.049766283
50	0x3ddedbb8	0.10881752
51	0x3d915e43	0.07098057
52	0x3d8f3404	0.06992343
53	0xbdd69d92	-0.10479273
54	0x3d6d85d5	0.05798896
55	0x3d944b54	0.0724093
56	0xbdf64ad9	-0.12025995
57	0xbb64e98f	-0.003492925
58	0x3d164d58	0.036694854
59	0xbd2b1c48	-0.041775018
60	0xbd9a3a6e	-0.07530676
61	0xbd5617fe	-0.052268974
62	0x3d4b2ab9	0.04960129
63	0xbd07cf18	-0.033156484
64	0x3cc0c04c	0.023529194
65	0x3d26ca07	0.040720012
66	0x3e0e7402	0.13911441
67	0x3e03b8f6	0.12863526
68	0x3e2dfe87	0.16991626
69	0x3d87d5c4	0.066325694
70	0x3db47795	0.08811871
71	0xbd8c5831	-0.06852759
72	0x3d242403	0.040073406
73	0xbde40819	-0.11134357
74	0xbd8be726	-0.068311974
75	0x3c4d153c	0.01251727
76	0xbcdd3a01	-0.027005197
77	0xbdd39bbb	-0.103324376
78	0xbdea369f	-0.114361994
79	0xbdf147d1	-0.11781276
80	0xbcacdf13	-0.021102464
81	0x3da684af	0.08130776
82	0x3da569de	0.08076833
83	0x3da12f2b	0.07870325
84	0xbde90bf8	-0.11379236
85	0x3dcb27e1	0.09919716
86	0x3db16334	0.086614996
87	0x3d22d223	0.039751183
88	0xbd9085d8	-0.07056779
89	0x3b3a9ced	0.0028474883
90	0x3d4461a3	0.047944676
91	0xbccbfa3f	-0.0248996
92	0xbca6a32a	-0.020341475
93	0x3e350bae	0.17680237
94	0xbd38b7c8	-0.045097142
95	0xbd039f9b	-0.032134634
96	0xbd378f76	-0.04481455
97	0xbb5628b8	-0.003267808
98	0x3affb7cc	0.0019509732
99	0xbd7e0588	-0.062016994
100	0x3df3d7c9	0.11906392
101	0xbdc315b8	-0.09525627
102	0x3dd6a847	0.10481315
103	0xbc767537	-0.015042595
104	0x3e6faabc	0.23404974
105	0xbc04ce8b	-0.008105884
106	0x3df5066d	0.11964116
107	0xbdc2d819	-0.095138736
108	0x3c05259c	0.008126643
109	0xbc59001b	-0.013244654
110	0x3e02a191	0.12756945
111	0x3d58ba26	0.0529119
112	0x3e0eca33	0.1394432
113	0xbd020ad4	-0.031748608
114	0x3e160f26	0.14654216
115	0x3e2acf16	0.1668056
116	0x3dc4e0b7	0.096131735
117	0xbd6528f3	-0.055947255
118	0x3c4800c5	0.012207215
119	0xbdd077d7	-0.10179108
120	0x3cc0cd1b	0.023535302
121	0x3dcfcd2f	0.101465575
122	0x3e33a9cf	0.17545246
123	0xbdcdfe63	-0.10058286
124	0x3dc42bea	0.095786884
125	0x3db802ee	0.08984934
126	0xbc48aaa8	-0.012247719
127	0x3da2c684	0.0794802
128	0xbc5e7ba9	-0.013579288
129	0x3d10a880	0.035316944
130	0xbccb9368	-0.024850562
131	0xbdce4fe4	-0.10073832
132	0xbd53c83b	-0.051704627
133	0xbdabb353	-0.08383813
134	0x3dc97be2	0.09838082
135	0x3d148550	0.03625995
136	0x3e0d38b4	0.13791162
137	0x3cee63ec	0.02910038
138	0xbdce9d0b	-0.10088547
139	0x3d0b4317	0.03399953
140	0x3c588193	0.013214487
141	0xbc4f1e95	-0.012641569
142	0x3e1f0cdc	0.15532249
143	0xbdfa46b7	-0.12220519
144	0xbd8cae3c	-0.0686917
145	0xbdee4195	-0.116336025
146	0xbda82ed4	-0.08212057
147	0xbdc9b1c5	-0.0984836
148	0x3df1e76e	0.1181172
149	0xbdaa3ae8	-0.08312017
150	0x3da84359	0.082159705
151	0x3d810ead	0.06301627
152	0x3d9c99d1	0.07646526
153	0xbd8508e7	-0.064958386
154	0x3ac4def7	0.0015020062
155	0xbde83231	-0.11337698
156	0x3dcd215c	0.100161284
157	0x3e10e900	0.14151382
158	0xbd3b09e8	-0.045663744
159	0x3e283c07	0.16429149
160	0x3e37602c	0.1790778
161	0xbd1b8773	-0.03797097
162	0x3d73337c	0.05937527
163	0xbd9ce280	-0.07660389
164	0x3d9a5e2b	0.07537492
165	0x3c8e4025	0.01736457
166	0xbd6af56e	-0.057362966
167	0x3d3a86de	0.045538776
168	0xbd92c170	-0.071658015
169	0xbd69b093	-0.05705316
170	0x3d80ec5a	0.062950805
171	0x3dc34a86	0.095356986
172	0x3d798955	0.060921986
173	0x3d7da442	0.061924227
174	0x3cdf52fe	0.027261253
175	0x3e04162d	0.12899084
176	0xbd263229	-0.04057518
177	0x3db712de	0.089391455
178	0x3cfa7882	0.03057504
179	0x3e0224e4	0.12709385
180	0x3c99804a	0.01873793
181	0x3d96af80	0.07357693
182	0x3e0c091b	0.13675348
183	0xbce745b3	-0.028231477
184	0x3e2e6361	0.17030098
185	0x3b1dab9d	0.0024058588
186	0x3d514670	0.051092565
187	0xbc5f8633	-0.013642835
188	0x3dff9d9a	0.12481232
189	0x3dd3d4ff	0.1034336
190	0x3d563400	0.052295685
191	0xbc0923f5	-0.008370389
192	0x3cbb2dc7	0.022848977
193	0x3ca2f3c8	0.019891635
194	0xbb8ac827	-0.004235286
195	0x3e12a931	0.14322354
196	0x3a3430e7	0.0006873742
197	0xbd91e090	-0.0712291
198	0x3d2a453c	0.041569933
199	0x3d049ee9	0.03237811
200	0x3e09d376	0.13459572
201	0xbd8442b3	-0.06458034
202	0x3d63307d	0.055466164
203	0xbccaddee	-0.024764027
204	0x3d4fe400	0.050754547
205	0x3d573148	0.052537233
206	0x3cf937b0	0.030422062
207	0xbd987bec	-0.07445511
208	0xbdf0dd6a	-0.117609814
209	0xb9284f45	-0.00016051259
210	0xbc682a81	-0.01417029
211	0x3e04864c	0.12941855
212	0xbdbd966f	-0.092572086
213	0x3d6fbd96	0.058530413
214	0xbd5f4594	-0.054509714
215	0xbd843907	-0.064561896
216	0x3db3a67c	0.08771989
217	0x3d2dc8ad	0.042427707
218	0x3db7fc82	0.08983709
219	0xbc2f5e23	-0.010703596
220	0x3d0177aa	0.03160826
221	0xbd896729	-0.06709129
222	0xbcb9c622	-0.022677485
223	0x3e0a7746	0.13522062
224	0x3e3fa02b	0.18713443
225	0x3dcedf45	0.10101179
226	0xbd9b6c67	-0.075890355
227	0xbd9b0817	-0.075699024
228	0xbd48a181	-0.048982147
229	0x3ce6e125	0.02818353
230	0xbcbb68ed	-0.022877181
231	0xbce4253f	-0.027849792
232	0x3dbaa1a0	0.09112859
233	0x3de433db	0.11142703
234	0xbcbd9486	-0.02314211
235	0x3e3170e4	0.1732822
236	0x3dbebb92	0.0931312
237	0x3d0abe9f	0.033873197
238	0xbcfd78a7	-0.03094132
239	0x3c49bbf9	0.012312883
240	0x3d723731	0.059134666
241	0x3d1b661e	0.037939183
242	0x3c46527e	0.012104629
243	0x3d32b570	0.043630064
244	0xbd938c13	-0.072044514
245	0x3e1e365a	0.15450421
246	0x3d91c689	0.07117946
247	0x3c5be9b5	0.013422419
248	0x3aab276a	0.0013058011
249	0xbd58b8de	-0.052910678
250	0x3e1fe0d2	0.15613106
251	0x3dac8a57	0.08424824
252	0x3da1612b	0.078798614
253	0x3d118f80	0.035537243
254	0x3cf73a9d	0.030179316
255	0x3e0c70d6	0.13714918

linear.bias f4 [20]
0	0x3d85e6d5	0.06538168
1	0x3dd85534	0.10563126
2	0x3d024d2f	0.03181189
3	0xbd4155e9	-0.04720107
4	0x3d558e20	0.052137494
5	0x3bddd8db	0.006770236
6	0x3d0722ec	0.03299229
7	0x3d438049	0.047729764
8	0xbd6a5474	-0.057209447
9	0x3dfcd025	0.12344388
10	0x3ddcf44e	0.10788785
11	0x3c1df1b4	0.009640146
12	0xbcdcba60	-0.02694434
13	0x3de9f48e	0.11423598
14	0xbc9ae18a	-0.018906374
15	0x3dcd8776	0.10035603
16	0xbd00a09a	-0.03140316
17	0xbbdb983f	-0.0067014988
18	0x3e008d40	0.12553883
19	0x3d9d2c45	0.07674459
