TFM/experimentos_split/results/branch_trip/DyGrEncoder.pt (torch, 942261 bytes, 15 tensors)

recurrent.conv_layer.weight f4 [1, 100, 100]
000000 2f 15 99 bc 36 c1 84 3b 2d ba 24 bd d8 9b d1 3c
       -0.018686859 0.004051353 -0.040216614 0.025587007
000010 4c 44 66 bd ad 8a da 3b 25 65 a4 3c 8d 11 9f bd
       -0.056217477 0.0066693635 0.02006776 -0.077670194
000020 7c 8e 19 3d 2e c6 d4 3d bc d2 30 bd 21 dc 1e 3c
       0.0374894 0.10389362 -0.043169722 0.0096960375
000030 28 95 be 3c af 0e 05 bd be d3 f8 3c f7 b0 c3 3c
       0.023264483 -0.032484706 0.030374404 0.023888094
000040 4e 19 46 bd e1 64 9c 3d e2 8c 92 bc 33 2c 0a be
       -0.048363976 0.076364286 -0.017889444 -0.13493423
000050 8b 9d 26 3d 67 24 56 bc 05 62 9e bd a6 c3 48 3d
       0.04067759 -0.013070202 -0.077335395 0.04901471
000060 68 4a 03 3e 53 3f 04 be db ba 81 3b 0a 84 80 3d
       0.12821352 -0.12914781 0.0039590425 0.062751845
000070 13 69 de bd a4 bd 47 bd c6 c2 e3 3c 66 b2 04 bd
       -0.10859885 -0.04876484 0.027802836 -0.032396697
000080 c9 98 47 3d c7 cc 3a bc fe a7 de bb e7 5b 4c 3d
       0.04872969 -0.011401362 -0.0067949286 0.049892332
000090 68 be e3 3c f6 07 75 bd 0f c7 88 bb 31 1e ee ba
       0.027800754 -0.059822045 -0.0041741203 -0.0018166957
0000a0 ee 32 96 3d df ee b7 bd df 84 4f 3c 63 e5 de 3c
       0.07333933 -0.08981108 0.012665956 0.02720899
0000b0 3f aa 75 3d a4 ce c7 bd 74 18 62 3d ec c6 15 bd
       0.059976812 -0.097562104 0.0551991 -0.03656666
0000c0 54 34 6f 3d 01 06 4a bd 05 cd cc 3d 79 6b 78 bd
       0.058399513 -0.049322132 0.10000042 -0.06064937
0000d0 b3 cf ac 3c 9c 66 f8 bb f8 d8 e2 bc 61 f4 a5 bd
       0.021095132 -0.0075805914 -0.02769135 -0.08103252
0000e0 7a 90 bb 3d 6a 04 cc 3b 26 f4 ae 3d 43 cb 5a 3d
       0.09158416 0.006226112 0.08542661 0.0534165
0000f0 08 4b 81 3d 85 ca a4 bd f9 39 ba 3c e0 19 1f bd
       0.06313139 -0.0804644 0.022732722 -0.038843036
000100 e7 4f 53 3c b9 f4 ad 3d 27 34 f2 bc 25 30 d6 3c
       0.012897468 0.08493943 -0.029565884 0.026146004
000110 ca ca 1f 3d 46 2f 3e bd 54 f1 1f 3c a1 b7 ad bb
       0.039011754 -0.046431802 0.009762127 -0.0053014313
000120 73 f0 4c 3d a6 04 5f bd f1 d1 b4 bc ae 0b 05 bd
       0.050033998 -0.054447792 -0.022072764 -0.03248184
000130 eb c5 0b 3d 8d fc c2 bc fa c7 eb 3c 91 be 36 3d
       0.034124296 -0.023802066 0.02878188 0.044615332
000140 84 33 0c 3d 1c 21 ae 3d 00 23 ba 3d 8b d8 ca 3c
       0.034228817 0.08502409 0.09088707 0.024761459
000150 fd 74 81 bd b3 66 27 bd ab 36 7a bd 3a 4f 37 3d
       -0.06321142 -0.040869426 -0.06108729 0.04475329
000160 1c 08 7d 3d 7e 98 1e be 56 eb e3 3d c4 f7 c2 bd
       0.06177531 -0.15487859 0.11128871 -0.09519914
000170 2e dc eb 3d 10 0c 6e bd a4 51 3f 3d 65 9e 9f 3d
       0.11516605 -0.058116972 0.046708718 0.07793883
000180 7f 54 4a 3d 21 4c 49 3c 36 8c 8f 3d 25 40 10 3d
       0.049396988 0.012286217 0.07009165 0.035217423
000190 00 ee a2 bc 3a e9 26 bd 84 61 41 3c 8b 52 5c bd
       -0.019888878 -0.040749766 0.011803035 -0.053789657
0001a0 7e 09 8d bd 78 ec 3d bd 69 dd 7f bd 99 22 e7 3d
       -0.06886576 -0.046368092 -0.062467013 0.11285896
0001b0 04 a0 3c bd 01 84 8e 3d cc 78 5c 3d dd 7e 85 3d
       -0.04605104 0.069587715 0.05382614 0.06518338
0001c0 28 04 50 3c 2d b8 e8 3c 62 ee 6a bd 28 60 e6 bc
       0.012696303 0.028408134 -0.057356246 -0.028122023
0001d0 df 27 1a bd 3a bd 34 3c d9 ed 19 bd 5e c1 09 be
       -0.03763568 0.011031443 -0.037580345 -0.1345267
0001e0 ad be 3f 3d 45 e6 36 3d 2a 08 b4 3c 91 f5 75 bd
       0.046812702 0.044653196 0.02197655 -0.060048643
0001f0 d9 90 ca 3c 20 e5 cb bd 7d 8e b0 3d e3 d3 17 3d
       0.024727272 -0.099558115 0.086209275 0.037067305
000200 1e 30 12 bd 6e 1c 1e be 93 4c 80 bd 7c f6 24 3d
       -0.03569042 -0.15440533 -0.062646054 0.04027413
000210 c4 06 2d 3c 9f e6 ad bd bb 23 32 3d 0d ad 84 3b
       0.010560695 -0.08491253 0.043491106 0.0040489496
000220 61 c3 8c bd 5d 77 ad 3d 96 da 89 bc f4 f1 a7 bb
       -0.06873203 0.08470032 -0.016827863 -0.0051252786
000230 f3 18 29 bd a8 20 11 3d 33 e8 06 bd 7b 5a ae 3b
       -0.04128356 0.035431534 -0.032936286 0.0053208447
000240 f8 0d e4 bd dd 03 aa 3c ae 2e d3 3c 84 48 5e 3c
       -0.11135477 0.020753795 0.025779095 0.013567094
000250 2e a4 34 bd 25 7f c0 3c c1 51 e3 3d 09 3e c2 bd
       -0.044101886 0.023498127 0.11099578 -0.094844885
000260 7f 2d c5 3c 05 e5 e9 3b 48 dd 89 bd cd e5 f2 bd
       0.024069546 0.007137897 -0.06731659 -0.11860237
000270 d5 92 bb 3d 03 5b 0b 3e 40 12 37 3c 22 dc bb 3c
       0.09158865 0.13608937 0.011173785 0.022932116
000280 7c 64 90 3c 4c c3 1c 3d f6 c8 5b bd 0e ae 51 3d
       0.01762604 0.038272187 -0.05365845 0.051191382
000290 56 ed df 3d d2 a1 1e bd 78 19 08 3c f5 8c 88 3d
       0.1093394 -0.038728543 0.0083068535 0.066675104
0002a0 38 49 f3 3c 87 79 74 3d 45 c6 01 3d c5 82 84 3b
       0.029698 0.05968621 0.031683225 0.0040439093
0002b0 d2 d2 1e bd a1 50 e2 3d 75 0a a3 3d e2 68 73 3d
       -0.038775273 0.11050535 0.07960979 0.059426196
0002c0 b9 0a 21 3d 4c 9c 1c 3d 6a 5b 4c 3d a9 9a a9 3d
       0.039316867 0.038234994 0.049891867 0.08281452
0002d0 5f e4 ab 3d 18 69 b0 bc 55 b2 04 3d 7b f2 11 bd
       0.08393168 -0.021534488 0.032396633 -0.035631638
0002e0 46 ab bc 3d 49 5f 15 3b cb 2a 04 3d 34 3f 7b 3d
       0.09212355 0.002279239 0.032267373 0.061339572
0002f0 5f 29 15 3d 95 a3 3b bd 47 de b4 3d d1 6a 8a 3d
       0.036416408 -0.0458103 0.088314585 0.06758655
000300 25 4b eb 3d f5 43 8b bc a5 17 dd 3d 76 b6 c2 3d
       0.11488942 -0.017000178 0.107955255 0.09507458
000310 f2 65 b8 3d ed c0 94 3b 08 ea f6 bd cc f0 b0 bd
       0.090038195 0.0045396 -0.12056357 -0.08639678
000320 83 3c d4 bd 4e 75 57 bd 39 2b e3 bd 89 47 0a bc
       -0.10363104 -0.052602105 -0.110922284 -0.008439907
000330 dd a0 83 3d 2c 68 9d bd db 84 3f 3d 56 1f 36 3d
       0.064271666 -0.07685885 0.04675756 0.044463478
000340 48 b7 15 3c bb 69 20 3d af e4 7a 3c 21 7e 83 bc
       0.009137936 0.039163332 0.0153133115 -0.016051354
000350 44 fd af 3c a7 5e 54 3d 94 4b dc bd 9e 24 01 be
       0.021483071 0.05184808 -0.10756603 -0.12611625
000360 ca 9b ed 3c 9f fe da bd 02 80 b2 3c 28 6a 82 bc
       0.02900495 -0.10693096 0.021789555 -0.01591976
000370 6c 95 52 bd 0f 48 b8 3d e3 27 ef bd d0 d5 6f bd
       -0.05141203 0.08998119 -0.1167753 -0.058553517
000380 b0 27 d1 3d e4 cc 04 3d bc bc 26 3b 7d e6 39 bd
       0.10212648 0.03242196 0.0025442084 -0.045385826
000390 dd 00 11 bd e2 00 d7 bd 5d 3f d0 bd 70 57 00 bd
       -0.035401214 -0.10498215 -0.101683356 -0.031333387
0003a0 e1 80 e6 bc a0 60 8a bd 73 75 ae 3d 16 e3 70 3d
       -0.028137626 -0.06756711 0.085184954 0.058810316
0003b0 cf 08 a6 3c ae 94 a2 3d 14 68 cd bc 29 0c d2 3d
       0.020267872 0.07938515 -0.025074042 0.102562256
0003c0 bc 4d 9f bd cf f1 bc bd 27 22 15 bd 8b 77 2a 3d
       -0.077784985 -0.09225809 -0.036409523 0.04161791
0003d0 ba a9 0b bd 0f a7 0a 3d 12 ad 65 3b 99 d3 2d 3d
       -0.03409741 0.033850726 0.0035045785 0.042438123
0003e0 5c 27 18 bd 73 87 c5 bd da 96 a8 bd 7d e6 80 bd
       -0.03714691 -0.096449755 -0.08231898 -0.06293962
0003f0 0e f0 b2 bc df 86 a9 bd 3c 64 33 3d f0 4b 78 bd
       -0.021842983 -0.08277678 0.043796763 -0.060619295

recurrent.conv_layer.rnn.weight_ih f4 [300, 100]
000000 71 04 d3 bc 50 2d 31 3c ac dd c7 bc 45 d6 05 bd
       -0.025758954 0.010814026 -0.024397694 -0.032675046
000010 89 18 9d bd 09 71 a7 3c 9a 0e 6e 3d 48 cd 78 3d
       -0.07670695 0.020439642 0.058119394 0.060742646
000020 9b 12 42 bd 44 b9 f4 bc 51 3e 41 bd fe 18 50 3d
       -0.047381025 -0.029873498 -0.04717857 0.050805084
000030 ac 90 16 bd 37 95 46 bd 5d 6d 07 bd eb b5 7e bd
       -0.036759064 -0.048482146 -0.03306328 -0.06218521
000040 e8 15 fd bb 17 8a 20 3d e4 8f dd 3c 22 a6 ba 3d
       -0.0077235587 0.039194193 0.027046151 0.091137186
000050 2b 39 b0 bd 1f 0a 15 3c 9f ce 72 3d 24 0b ab 3c
       -0.08604654 0.009096651 0.05927908 0.020879336
000060 e8 e2 81 3c 85 bb f1 3d be c5 9f bd 44 4e 91 bc
       0.015855268 0.11803345 -0.07801388 -0.017737515
000070 c2 cd c9 3d 89 fb 80 3c 34 a3 81 3d b0 99 10 3c
       0.09853698 0.015744941 0.06329957 0.008825704
000080 dc 4b 4b 3d 30 12 c7 3c e7 13 ad 3b 0b 74 1d 3d
       0.049632892 0.024300665 0.0052819136 0.038440745
000090 d7 68 ae 3d dc 49 68 bd 65 4d 97 3c 12 f0 e5 3d
       0.0851609 -0.056711063 0.018469522 0.112274304
0000a0 e0 66 6c bd 1d 17 e1 ba 1f 38 82 3d 2b ee 53 3b
       -0.057715297 -0.0017173026 0.063583605 0.0032338004
0000b0 04 19 5b 3c 12 8e ae bd 8d b2 5a bc b4 4d df bc
       0.013372663 -0.085231915 -0.013348234 -0.027258731
0000c0 c1 36 b5 3c fd c1 ac 3c 22 ba 26 bd 11 5f e1 bd
       0.022120835 0.021088595 -0.040704854 -0.110044606
0000d0 c3 8d 98 3d 03 d5 46 3d 9f c3 86 3d e6 69 8f bd
       0.07448914 0.048542988 0.065802805 -0.070026204
0000e0 ce 88 c3 bd 36 4c a0 bb 52 b5 02 bd 78 71 75 bd
       -0.09547578 -0.0048918976 -0.0319112 -0.059922665
0000f0 a6 ef 8f 3d 24 bd 18 bc 38 63 4b bc 3a f6 53 bd
       0.07028131 -0.009322438 -0.012413792 -0.05174849
000100 ed 2e 5d 3d 2f 80 8b bd f9 8e 89 bc 97 62 16 3d
       0.05399983 -0.068115585 -0.016791807 0.036715116
000110 8f 7e a6 3d 31 2e 3b bb 7a 83 b0 3c 63 39 97 bd
       0.08129608 -0.0028561468 0.021547068 -0.073839925
000120 f3 c0 76 bd f1 4f 56 bc 60 43 10 bd 4b 46 5b bd
       -0.060242604 -0.013080583 -0.035220504 -0.053533833
000130 29 d6 c3 bd 17 16 7b bd 51 94 e4 3c 00 12 ba bc
       -0.09562332 -0.061300363 0.027902754 -0.022713661
000140 c0 c9 92 bd 8b f4 56 bc 7e 5e bd bc 4d d5 86 bd
       -0.07167387 -0.013119827 -0.023116346 -0.06583653
000150 0c 1d 98 3d b8 85 65 bd 34 f7 b7 3d fd 59 b7 3b
       0.07427415 -0.056035727 0.08982697 0.0055954442
000160 81 70 ac bd 4a b3 f1 bc f3 94 8a 3d 49 81 96 bb
       -0.08419896 -0.029504437 0.06766691 -0.0045930487
000170 9a 0c 9a 3d 85 32 78 3d 09 92 4d 3d 9c 6a 1c 39
       0.07521935 0.060595054 0.050188098 0.00014917034
000180 64 53 42 3c ff b1 63 3d 21 be 9b bd 09 29 d9 bd
       0.011860702 0.055589672 -0.076046236 -0.1060353
000190 0a 3b 22 3d 7d f8 37 3c bb 99 60 3d 33 9b b5 3d
       0.039607085 0.011228678 0.05483411 0.088674925
0001a0 24 32 4d 3d ac 85 83 bd 2b 59 8d bd 3c 6d 8d bd
       0.050096646 -0.0642198 -0.06901773 -0.069056004
0001b0 b9 13 ae 3c 95 4f f2 bc 29 39 d6 bc 6d f1 46 bc
       0.021249639 -0.029578963 -0.026150303 -0.012142521
0001c0 17 ef 03 3d 68 5c c5 bd 0d cf 14 bd 75 c8 88 3d
       0.032210436 -0.09636766 -0.03633027 0.06678859
0001d0 8e 91 f1 3c e6 d4 01 3b 21 0a cf 3d 49 38 33 3d
       0.029488351 0.0019810735 0.10109354 0.04375485
0001e0 95 c0 54 3d f1 75 b8 3c 51 5a c1 bd 51 8a 41 3d
       0.051941473 0.022517176 -0.094410546 0.04725105
0001f0 94 c1 fa bb f1 06 c5 3c 8a a7 73 3b ce 2b d9 3c
       -0.007652471 0.024051161 0.0037178718 0.026510146
000200 2a b5 05 3e 26 0b 09 3c 34 6f 12 bd ff 3f a4 3d
       0.1305739 0.008364474 -0.035750583 0.08020019
000210 cf 24 a7 3d 57 6e bb 3d c7 fd 87 3d 4b 77 44 3d
       0.081613176 0.09151905 0.06640201 0.04796533
000220 7e cc ca bd 70 ce 79 bc 59 2f 67 3d 84 ce 9a 3a
       -0.09902285 -0.015246972 0.05644164 0.0011810814
000230 f4 97 d5 bc a2 61 8c 3d c6 a9 61 bd 92 06 e2 3d
       -0.026073433 0.068545595 -0.05509355 0.110364094
000240 d0 22 b7 bd ed b3 ff 3c 59 cd de 3d 2b 08 80 3d
       -0.08942187 0.031213725 0.10879011 0.06251558
000250 ea 3c 02 bb 76 a4 90 bd 07 f6 c0 3d 25 67 60 bd
       -0.0019872733 -0.070626184 0.09421926 -0.054785866
000260 77 93 4c 3d 65 64 83 bd e9 61 8b bd 05 a8 8c bd
       0.04994532 -0.06415633 -0.06805784 -0.06867985
000270 35 67 bd bd 4a 35 50 bc 93 65 1e bd 17 bb 07 3d
       -0.09248201 -0.012708018 -0.038671087 0.033137407
000280 2e 04 47 3d 04 b9 8c bd 28 43 3f 3d 3a 36 17 3d
       0.04858797 -0.068712264 0.046694905 0.03691695
000290 0a 0f a3 3c 2d 28 c8 3d 80 f6 91 bd 08 d1 b0 bd
       0.019904632 0.09773288 -0.07127094 -0.086336195
0002a0 20 4f 20 3d bc 20 09 bb ee 23 ab bd c1 02 84 3c
       0.03913796 -0.0020924052 -0.083564624 0.016114594
0002b0 26 5d 09 3c 40 78 4e bc 94 77 29 3d a0 33 35 bd
       0.008384025 -0.012601912 0.041373804 -0.044238687
0002c0 c3 e8 25 3c 6d 9f 37 3c 8e 42 7b 3d 29 98 6e 3d
       0.0101262955 0.011207444 0.06134277 0.05825058
0002d0 39 fa b2 bc f6 6c 02 bd 0c 29 1e bd ee 09 2b 3d
       -0.021847831 -0.031842194 -0.038613364 0.041757517
0002e0 8d eb 14 3d cf f5 14 3c 4b ca 97 bd cc dc b1 bd
       0.03635745 0.009091808 -0.07411631 -0.08684692
0002f0 b7 9f 07 bd f9 7f 75 3c 40 2c a8 3d 1c b0 e7 bc
       -0.0331113 0.014984124 0.08211565 -0.028282218
000300 c6 da cc bd b1 28 59 3c 74 14 b6 3d b8 d7 9c bd
       -0.10002665 0.0132543305 0.0889062 -0.076583326
000310 14 75 81 3d 29 58 ca 3c 1d 90 77 3d ae ca b3 3d
       0.06321159 0.024700241 0.06044017 0.087788925
000320 f5 62 83 3d 9e 39 aa bc 2b 87 1e bd 2f 3f 8d bd
       0.06415359 -0.020779427 -0.038703125 -0.06896817
000330 dd 82 e3 bd 59 18 ab ba f2 1d 85 bd 7e 21 4b 3d
       -0.111089446 -0.0013053521 -0.06499852 0.049592488
000340 88 47 68 bd f8 43 a2 3d e8 55 90 bd d3 79 ce bc
       -0.056708843 0.0792312 -0.07047635 -0.025204575
000350 9b 37 24 bc 73 52 2c bd d0 8e 17 3d 21 b8 02 3e
       -0.010023023 -0.042070817 0.03700143 0.12765552
000360 31 bf 92 bd 88 08 ab 3d 6a 1b bb bb 44 81 ac 3d
       -0.07165373 0.083512366 -0.005710055 0.08423093
000370 28 48 8c bd 7a 2e 13 3d 07 1b be 3c 6d 4e 66 3d
       -0.068497 0.035932995 0.023206247 0.056227136
000380 01 3e ca 3c 75 f5 9e bd 75 c0 ae 3d a3 31 8b bd
       0.024687769 -0.07761661 0.08532802 -0.06796577
000390 b0 a5 be bd be 1c 67 3d 58 a7 bf b9 8a 0b 79 bd
       -0.09308946 0.056423895 -0.0003655504 -0.06080202
0003a0 98 28 9a bd 42 13 bd 3b b2 a3 37 bb b4 9b 0c 3c
       -0.07527274 0.005770118 -0.0028021154 0.008582044
0003b0 7f 7c 33 3d bb 29 07 3d c6 99 9f 3d 6f 42 f6 3c
       0.0438199 0.03299878 0.07793002 0.030060975
0003c0 d5 8e 43 3c 55 a4 af bd db f6 75 3d 90 af 17 bb
       0.011935909 -0.08576266 0.060049873 -0.0023145415
0003d0 ba dd 4c bd f6 9f 95 3d dc f2 e8 bc e5 88 f7 bc
       -0.050016142 0.07305901 -0.028436117 -0.030216644
0003e0 7e e7 8f 3c c4 1c 4f bd 03 b4 e6 3c 7f 11 5a bd
       0.017566439 -0.050564542 0.028162008 -0.05323934
0003f0 19 6b 1a 3d 6e c4 de bc 48 0d 99 bd 5d 33 52 bd
       0.037699793 -0.027193274 -0.07473236 -0.051318515

recurrent.conv_layer.rnn.weight_hh f4 [300, 100]
000000 85 b4 75 3a 89 69 5c bd 06 0f 07 3d 6c 0a b6 3d
       0.0009372908 -0.053811584 0.03297331 0.088887066
000010 03 23 0e 3d 1f 8b cd bc fe ee e3 3c 10 37 16 bc
       0.03470136 -0.025090752 0.027823921 -0.009168401
000020 32 9b cb 3d 3f bc 45 3d fd bd 91 bd b5 62 03 bd
       0.099417105 0.04827523 -0.071163155 -0.032076556
000030 03 83 9d bd e3 a0 62 3c cc a7 36 3d df cf 09 bd
       -0.07691004 0.013832304 0.044593617 -0.033645507
000040 a5 03 7e 3d 49 68 74 3d cf c4 a8 3c fd a4 d1 bc
       0.062015194 0.059669767 0.020601658 -0.025591368
000050 a3 a1 53 bd 4f be 80 3c cf 72 b8 3d 25 92 98 3d
       -0.05166782 0.015715746 0.09006273 0.0744975
000060 9c ae 2d bc 40 94 99 3d 21 c7 e3 3d 25 80 55 bd
       -0.010600712 0.074989796 0.11121965 -0.05212416
000070 ae 36 21 3d 76 48 7e bd 7e 1f 7f bd 77 d0 a5 3d
       0.039358787 -0.062080823 -0.062285893 0.08096402
000080 36 b7 82 bb 48 3a cd 3d b1 9b 7b 3b 6e dc a8 3d
       -0.0039891256 0.10020882 0.003839236 0.082451686
000090 e1 90 79 3d 2e ae b8 3c 43 9d f0 3b 80 4d ca 3d
       0.060929183 0.022543993 0.007342966 0.09878063
0000a0 e2 c7 9f 3d 01 1c 62 3a 2b ac 47 3d 60 8a f2 bc
       0.078017965 0.0008625389 0.048748177 -0.029606998
0000b0 cb de b8 3d b6 b0 18 3c 66 0a 52 3c 33 cc 0f 3d
       0.090268694 0.009319475 0.012819862 0.03510685
0000c0 31 f2 1e bd 95 fd 5b bd 32 c1 f5 3c e3 cb 8f bc
       -0.03880519 -0.05370863 0.02999935 -0.017553275
0000d0 3d fe 3b bd 0f c7 9d bd ff 78 a3 3d a6 cd a3 3c
       -0.045896757 -0.07703983 0.079820625 0.019995522
0000e0 33 72 f9 3c 76 64 a6 3d c5 b0 5c bc 7f 5e 97 bd
       0.030449962 0.0812463 -0.0134698795 -0.073910706
0000f0 79 ae 93 bd 47 bd 2f bd 4a 7a c0 bd b6 66 40 3c
       -0.072110124 -0.04290512 -0.09398325 0.011743238
000100 00 67 69 3c 8a e0 c6 bd d9 49 8d 3d 41 ed 99 bd
       0.0142457485 -0.09710796 0.06898851 -0.07515956
000110 61 1f be 3d 19 37 58 bd 37 57 bd 3d 14 c1 9c bd
       0.09283329 -0.05278692 0.092451505 -0.07654014
000120 af f4 ac bd 43 e6 fc bb f1 5a ca bd 80 b0 21 bd
       -0.08445107 -0.007717879 -0.09880627 -0.039474964
000130 d8 6d 44 3d 55 05 0e bd b2 0e 47 3d c5 58 b7 bc
       0.047956318 -0.034673054 0.048598 -0.022381196
000140 25 25 5c 3d 3e 4a b0 3c 28 3e f6 bd eb 1b 19 3d
       0.05374636 0.021519776 -0.12023574 0.03738014
000150 a4 d8 c6 bd 6b 72 d0 bc f5 68 ce bc 27 8d 53 bd
       -0.0970929 -0.025445184 -0.025196532 -0.051648285
000160 db 77 2f 3c 0b d3 01 be 34 f0 31 bc 60 3d 9e bd
       0.010709728 -0.12678163 -0.010860492 -0.0772655
000170 6c d4 16 be 57 de 02 bc 39 f6 ae 3b ad 02 0f bd
       -0.1472947 -0.00798758 0.0053394106 -0.03491466
000180 70 8f c6 bd 8d 20 01 bc a6 8f a3 bd 5a 6c 61 bd
       -0.09695327 -0.007881296 -0.07986383 -0.055034973
000190 a5 83 d9 3d 4a 6e fc bc 0e a9 21 bd f0 91 0d 3d
       0.10620812 -0.030814309 -0.039467864 0.034563005
0001a0 53 18 7f 3b ec be 7a bd 32 4d ac 3d 51 37 08 bd
       0.003892441 -0.061217234 0.08413161 -0.03325588
0001b0 a8 51 87 bd d9 7e f3 bc 7f c3 9d bd e4 e5 cb 3d
       -0.066073716 -0.029723572 -0.077033035 0.099559575
0001c0 bc 2e 8d 3d 2a 6b 47 bd 49 b5 be bb 5a 82 58 3c
       0.068936795 -0.048686184 -0.0058199507 0.013214672
0001d0 f2 30 7a 3d 78 13 a0 3d 1b c2 26 3d 24 b4 85 3c
       0.061081834 0.07816213 0.040712457 0.01632125
0001e0 a4 ec 93 bd b5 58 ca 3d 2e 74 34 3d d7 87 1c 3d
       -0.0722287 0.09880201 0.04405611 0.038215484
0001f0 63 06 a8 3d 64 6c d9 bc 0e b7 2b 3d b6 45 99 bc
       0.08204343 -0.026540942 0.04192262 -0.018709999
000200 73 75 35 bc a2 15 fa 3b ee 7f 93 3d f7 01 ce 3d
       -0.011075365 0.0076319734 0.07202135 0.100589685
000210 d9 1c 3b bd 05 ac 8d bd ef 5a 32 3c a3 6d 1e 3d
       -0.04568181 -0.06917576 0.010885938 0.038678776
000220 8e 2a 9e 3d ba 6a 83 bd 7c fe 8e bc f8 e8 e8 bc
       0.077229604 -0.06416841 -0.017455332 -0.0284314
000230 d1 03 8f bd 31 30 09 bd a0 1d 18 bd 19 c0 98 bd
       -0.0698315 -0.033493225 -0.037137628 -0.07458515
000240 1f 88 62 3c c5 70 8d bd 8c 0f b5 bc 9e 99 85 3d
       0.013826399 -0.06906275 -0.02210214 0.06523441
000250 4e 8b 08 3d f4 fa 4f 3d 99 b8 1f bd 1e 74 99 3d
       0.033335976 0.050776437 -0.038994405 0.07492851
000260 0b 57 ad 3c bc 5d 80 3d 03 f3 99 bd 8f 55 f9 3c
       0.02115967 0.062678784 -0.07517054 0.030436305
000270 8c 3a df 3b 5a 12 bb 3c 65 c9 71 3c 54 de a8 3b
       0.0068123993 0.0228359 0.014757489 0.0051534567
000280 bd d6 5f bd bc 7e c3 bc ad a0 c4 bd de 85 9f 3c
       -0.05464815 -0.023864143 -0.09600959 0.019473013
000290 ee 48 21 bc 1e 28 92 3d bc d0 93 bd 32 dd 42 bd
       -0.009844048 0.07136558 -0.07217547 -0.04757423
0002a0 a4 dc 22 3d 45 4c 2a bd 97 ef 5a bd 67 81 09 bd
       0.0397612 -0.041576643 -0.053451147 -0.033570673
0002b0 9b 37 0e 3d c9 b5 1d bd 63 89 8a bd c7 e5 54 bd
       0.034721 -0.038503442 -0.06764486 -0.051976945
0002c0 ab 68 68 bd 77 5e 53 bd 87 f7 68 3d 9b 64 2f bc
       -0.056740444 -0.05160376 0.056876685 -0.010705139
0002d0 83 41 08 3c c9 4f f4 3c db ef 05 bc 89 e9 d9 bd
       0.0083164 0.0298232 -0.008174862 -0.106402464
0002e0 32 07 a8 bd 41 da 13 be f4 21 f6 bc ce e5 30 be
       -0.082044974 -0.14438726 -0.030045487 -0.17275164
0002f0 d1 0b 08 be c5 cb 02 be 06 cc 8d bd f3 be 95 bd
       -0.13285758 -0.12773044 -0.0692368 -0.07311811
000300 90 f7 0e be 1b cf 11 bc 91 61 86 bd 20 11 4a be
       -0.13961625 -0.008899475 -0.06561578 -0.19733095
000310 2c 6e 0b be 62 99 7e bd 6b 47 41 bd 23 2e 8a bd
       -0.13616246 -0.062157996 -0.04718725 -0.06747081
000320 65 69 14 bd 68 c1 bf 3d 0e 23 ae bd f3 c9 a4 3d
       -0.036233325 0.09363061 -0.0850278 0.08046331
000330 30 f4 b7 3c 55 bb b0 3d ff e5 c9 3d 01 27 17 bd
       0.022455305 0.08629481 0.098583214 -0.03690243
000340 15 05 6a bd 6e 7f 00 3c c3 b5 a8 3d f7 a2 3e 3d
       -0.057133753 0.007842882 0.08237793 0.046542134
000350 6c 99 c5 bc 15 1c 86 bd a9 d6 fa bc 91 08 79 3d
       -0.024121009 -0.06548325 -0.030619936 0.060799185
000360 86 94 9d 3c 14 84 9a 3c d4 bb 10 bd 97 ec 8b bd
       0.01923586 0.018861808 -0.035335377 -0.06832235
000370 8a 84 05 3c f5 de 6b 3c e7 40 0e bc 54 71 a3 ba
       0.008149276 0.014396419 -0.008682466 -0.0012469687
000380 63 e4 42 bc f8 22 33 3d 3c dd c9 3d 33 db 83 3c
       -0.011895272 0.04373452 0.0985665 0.016095733
000390 31 65 55 bd 1d 9a 88 bd a3 9b 1d 3d c2 83 b3 3d
       -0.052098457 -0.0667002 0.038478505 0.08765365
0003a0 bc 5b 0c bd 8e 8f 9f bd dc 8e 51 3d 5a c5 b2 3d
       -0.034267172 -0.07791053 0.051161632 0.08729048
0003b0 4b 5c 86 3d 3b 59 c9 3d ef df da 3d 3d e4 27 bc
       0.06560572 0.098314725 0.10687243 -0.010247287
0003c0 3f d4 53 ba d4 0a 47 bd d1 ec 42 3d c2 2c 04 3d
       -0.00080806384 -0.04859431 0.047589127 0.032269247
0003d0 d9 d0 1b bd c3 8c 29 3d 0a 85 5a 3d e5 a8 83 bd
       -0.03804097 0.041394006 0.053349532 -0.064286985
0003e0 e0 93 b7 3d 30 79 a9 bd ce 7c 4c bc 71 10 bc 3d
       0.08963752 -0.08275068 -0.012480928 0.091828234
0003f0 84 12 c6 bc 0f 9e c1 bc e8 bc ec 3d e0 a8 aa 3c
       -0.02417875 -0.023634939 0.115594685 0.020832479

recurrent.conv_layer.rnn.bias_ih f4 [300]
000000 a5 80 2e bd 18 7b 90 bc 10 77 09 bd 3f f5 9d 3d
       -0.042603154 -0.01763682 -0.033560812 0.077127926
000010 d7 35 d2 3d 0d 62 10 bc 28 32 00 bd 47 a3 f9 3d
       0.102641754 -0.00881244 -0.031297833 0.12189346
000020 bf 7a b1 bd 28 89 db bd aa 1a 40 3d 25 e7 1a 3d
       -0.0866599 -0.1071952 0.04690043 0.037818093
000030 89 69 9c bd ef 94 82 3d 6b d2 5f bd 18 d1 bd 3d
       -0.07637317 0.06376063 -0.05464403 0.09268397
000040 36 f3 74 bd 9c 9c 4e 3d a5 b5 aa 3d 3c 31 81 bc
       -0.059802257 0.050442323 0.08335427 -0.015770547
000050 91 3f f8 bb 88 58 83 3c a6 77 af 3d 6a d9 4f 3d
       -0.007575937 0.016033426 0.08567743 0.05074445
000060 2f 31 85 3d 64 01 b4 3d e3 7d b5 3d 24 52 9c 3c
       0.06503522 0.08789328 0.088619016 0.019082136
000070 1f c6 01 bd 9b ee fc bd 8b c8 a2 3c fd 78 8b 3b
       -0.031683084 -0.12350198 0.019871017 0.0042563663
000080 a6 e6 66 3d 30 71 97 bd 36 d0 d0 bd 99 84 44 3c
       0.056372307 -0.07394636 -0.10195963 0.011994504
000090 16 3f 57 3d cc 11 f7 3c 2d f8 6c 3d c2 40 87 bd
       0.052550398 0.030159853 0.057853866 -0.066041484
0000a0 39 a1 3e bc 86 dd 0d bc d6 7d af 3d 17 25 c0 bc
       -0.011635118 -0.008658772 0.08568923 -0.023455186
0000b0 f5 07 ca bd 8a 72 bd 3d f6 94 26 bd 22 f5 5f 3d
       -0.09864799 0.09250362 -0.040669404 0.054677136
0000c0 f5 b9 5b bd e1 d5 19 3d ea 22 dc bc 95 a2 90 3b
       -0.05364414 0.037557486 -0.026872117 0.0044139125
0000d0 36 e2 98 3d 35 38 5e 3d 7d 1a 74 bb 80 58 4a bd
       0.07465021 0.054252822 -0.0037247234 -0.049400806
0000e0 2f 74 d8 bd e0 7f 96 3c 31 fc 89 3d 91 12 34 bc
       -0.10569035 0.018371522 0.06737555 -0.010990755
0000f0 f4 43 00 bd 46 df 8b bd a4 01 7e 3d 6f 8c e7 bd
       -0.031314805 -0.068296954 0.062013283 -0.113060825
000100 fc 4f e4 bc 47 f1 a8 3d e6 fa 8f 3d fe 84 8a bd
       -0.02787017 0.08249145 0.07030277 -0.067636475
000110 53 b4 0b bd 01 cb 98 3d 10 0e bf 3c 0d 5c 64 3d
       -0.034107517 0.07460595 0.023322135 0.05575185
000120 f1 77 7a 3d 6b 72 fa 3d cb c8 c7 3c d6 13 44 3d
       0.06114954 0.12228855 0.024387738 0.04787048
000130 39 e0 e2 3a c0 ca 70 bc 2d 04 a7 bc 56 91 a5 3d
       0.0017309255 -0.014696777 -0.020387733 0.08084361
000140 02 18 0e bd 74 51 13 3d 50 d2 ee 3d d7 8d a8 3d
       -0.034690864 0.03596635 0.11661208 0.08230179
000150 5c b3 e5 bd 10 7b 32 3d 2f 33 d7 bd 2e 2d f9 3d
       -0.11215851 0.043574393 -0.10507809 0.121668205
000160 86 e3 62 bd d1 a3 b1 bd 86 3f 96 bd b6 60 2e bd
       -0.055392765 -0.086738236 -0.07336335 -0.0425727
000170 02 7d 19 3c fb ac 9b bd ba b3 03 3d ca ef 56 3c
       0.009368183 -0.07601353 0.032153822 0.013118694
000180 d7 4b d4 3d 56 29 30 3d 01 e3 40 3c 38 e8 c7 3d
       0.10366028 0.04300817 0.011772872 0.09761089
000190 57 96 d4 3d fe 70 1d 3d 89 17 de bd 7a 9b a9 bc
       0.103802375 0.038437836 -0.10844333 -0.02070402
0001a0 a2 db 6a 3d 77 9c 94 3c e7 73 77 3d 96 65 15 bc
       0.057338364 0.018141015 0.060413267 -0.009118458
0001b0 c2 c5 76 bd b1 20 99 bd 61 af 66 bd 52 ed ca 3d
       -0.06024719 -0.074769385 -0.056319598 0.099085465
0001c0 17 f9 5f 3d 69 a5 e0 3d 36 cf a3 bd 27 83 cd 3a
       0.05468091 0.109690495 -0.07998507 0.0015679345
0001d0 3e 19 38 bd 33 2a b8 3d 87 5e a9 3d d3 e0 5f 3b
       -0.044945948 0.08992424 0.08269983 0.0034161105
0001e0 75 5e 1e bd b9 da c7 3d 2a 22 fe 3d 14 eb a2 bd
       -0.0386643 0.09758515 0.1240886 -0.07954994
0001f0 d9 ed 4e bd 7b 21 31 bb 77 51 3e bd 45 e1 c7 bb
       -0.050519798 -0.0027028013 -0.04646441 -0.0060998523
000200 47 31 30 bd 58 2d f2 bc fa 1d 4b 3d fb 9f f3 3c
       -0.043015745 -0.029562637 0.049589135 0.02973937
000210 38 0a c3 3d 6d 50 29 bd 65 ac 23 bc 8e 5b 88 bd
       0.095234334 -0.041336466 -0.0099898325 -0.06658088
000220 e1 b5 91 bd ad b6 9c bd 10 91 69 3c 76 fe 6b 3c
       -0.07114769 -0.0765203 0.014255777 0.01440393
000230 e7 b0 12 bd 12 01 14 bd 1d 8e 65 3c 86 f7 cf bd
       -0.03581324 -0.036133833 0.014010933 -0.10154633
000240 3d 31 e3 3d 82 2a 1b be 84 cf 27 bd 0e 1c 52 bc
       0.11093376 -0.15152934 -0.040969387 -0.012824072
000250 a0 2c c2 bd 71 1a a4 3d 86 86 95 bd 3b 1e bf ba
       -0.09481168 0.08012856 -0.07301049 -0.0014581153
000260 ad d1 41 bd 03 12 94 3d e4 c3 a0 bd ea a5 ee bd
       -0.047319103 0.07229998 -0.07849863 -0.11652739
000270 c3 cf 9a ba d5 a6 41 bd 8c 7d ca bd ab 4a aa bd
       -0.0011811185 -0.047278244 -0.098872274 -0.08315023
000280 98 34 8b bd 6f 82 80 3d 1b 14 16 bd 54 f8 a5 3d
       -0.06797141 0.06274878 -0.036640268 0.081040055
000290 4d b4 15 bd 38 4e 04 3d 5b f8 2b bc bb 31 1b 3a
       -0.0365489 0.032301158 -0.010496224 0.0005920191
0002a0 65 fc 73 3c 3a fd f4 bd 29 09 21 bd 58 ed 28 bd
       0.0148917185 -0.11962362 -0.039315376 -0.041241974
0002b0 ba 81 ac 3c bb 38 e3 bd 26 bb 42 3d 33 af 68 bd
       0.021057952 -0.11094805 0.04754176 -0.056807708
0002c0 71 08 f0 bd 44 9f 69 3d 6c c6 28 3d 46 8e 3c 3c
       -0.1172036 0.057036653 0.041204855 0.01150853
0002d0 ce 1a c9 bc 64 2b cb 3c 07 f3 c4 bd 58 2f 63 bd
       -0.024548914 0.024800964 -0.09616666 -0.055465072
0002e0 e1 24 38 bd 3a 63 43 3d ae 29 20 bd 12 8d 03 3b
       -0.044957045 0.04770205 -0.03910225 0.0020073098
0002f0 7d 3e a5 3d 1c bb 46 3d f6 1b ca 3c b3 ca be bc
       0.08068559 0.048518285 0.024671536 -0.023290014
000300 78 f2 1a be c8 a4 db 3d 47 fc b6 bd b0 74 5c 3c
       -0.15131557 0.10724789 -0.08934837 0.013455555
000310 77 3e 3e 3d f4 92 92 bd ab 4f 16 bd b1 f1 26 bc
       0.04644629 -0.07156935 -0.03669707 -0.01018946
000320 8d 4c df 3c 4e ae 14 be ed 52 f7 bc 64 41 8a 3c
       0.027258182 -0.14519617 -0.03019091 0.016876884
000330 da 0a db bc fc c2 20 bc c2 57 2f 3d 9e f1 61 3c
       -0.026738573 -0.009812113 0.0428083 0.013790516
000340 a9 13 6b bd 7c 40 72 3c e0 d3 15 3d 67 91 bd 3d
       -0.057391796 0.014785882 0.036579013 0.09256249
000350 b3 9c 03 3d d0 94 11 3d 56 f4 a6 bd 81 b5 9e 3c
       0.032131862 0.03554231 -0.08152072 0.019373657
000360 9a 02 93 3d 19 57 83 3b f0 f8 1d 3d 4f 44 91 bc
       0.071782306 0.0040081856 0.038567483 -0.017732767
000370 5a 09 b1 3c 93 b0 d1 bd 10 d4 7d 3d cf f0 44 bd
       0.021610904 -0.10238757 0.061969817 -0.048081215
000380 91 6d 2d 3d 1e 60 c6 3c 8b 9a c1 3d 36 ce 2a 3d
       0.04234082 0.024215754 0.09453305 0.041700564
000390 77 cf 64 bd 31 d4 55 3d c6 6b cf bb 20 c0 26 bd
       -0.055861916 0.052204315 -0.0063299863 -0.04071057
0003a0 61 85 62 bd 27 6a ae bd ce 8f 26 3d 4e a0 cd bd
       -0.05530298 -0.08516341 0.040664487 -0.10040341
0003b0 67 7f d7 3c c2 c2 37 3c 22 6d 11 be 5e 8b 0a bc
       0.026305867 0.0112158675 -0.14201787 -0.008456079
0003c0 3c 07 9e bd 09 a5 cb bd e1 59 86 3b 88 89 98 bd
       -0.077162236 -0.09943587 0.00410007 -0.07448107
0003d0 02 49 07 3e ab 12 a3 bd a1 64 9d 3c 9f f9 ee 3d
       0.13211444 -0.07962545 0.019213023 0.11668705
0003e0 3f 50 da bd 23 e2 ec bc ab b1 16 be 37 05 39 bd
       -0.10659837 -0.028916424 -0.14716212 -0.04517099
0003f0 42 b3 64 3d dd 21 59 3c cd 90 ea bd 44 00 4c 3c
       0.055835016 0.013252703 -0.114534 0.012451235

recurrent.conv_layer.rnn.bias_hh f4 [300]
000000 c9 22 15 bd c1 a2 78 bd e6 80 17 bd 24 7d 85 bc
       -0.036410127 -0.06070209 -0.03698816 -0.016295023
000010 a4 8b 53 3c cb b1 3f bd e9 28 43 3d 90 f3 f4 bc
       0.012911711 -0.046800416 0.047646437 -0.029901296
000020 66 cf 97 bd 7c 74 76 3d d0 ba 08 3d 44 d3 57 3d
       -0.07412605 0.060169682 0.033381283 0.052691713
000030 81 45 a3 bd 57 cc 4d 3c 08 54 9f 3c 8a ff 2f 3e
       -0.07972241 0.012560925 0.019449249 0.17187324
000040 e5 9d 30 3c 50 1f 59 bc 19 da 87 bd 61 90 83 bd
       0.0107798325 -0.013252094 -0.06633396 -0.064240225
000050 cf 06 b9 3b 21 cb d1 bd 5a 1f e5 bb 4e 95 21 3d
       0.0056465636 -0.10243822 -0.006992263 0.03944903
000060 2f 93 07 3e b5 c3 1e bd 6b 5d d6 3d 4e 70 9e bc
       0.1323974 -0.03876086 0.10467037 -0.01934066
000070 f3 a4 eb bc 50 56 92 bc e1 be 25 bd fb 09 4a bd
       -0.028765177 -0.017863423 -0.04046524 -0.049325924
000080 a0 f3 cb 3b ec fd a4 bc cc ec e6 bd 7c 38 d3 3d
       0.0062241107 -0.02014061 -0.11275634 0.10313508
000090 3a 55 66 3d 0a 14 a2 3c 89 11 4d 3d 07 ed 43 bd
       0.056233622 0.019784946 0.05006555 -0.04783347
0000a0 b4 e2 9c 3d 4b 53 ec 3d 1a 0e 64 3d b8 04 1d bd
       0.07660428 0.115393244 0.05567751 -0.03833458
0000b0 1d 95 c4 3c 52 84 e1 bc 7e f4 cd bb 2b da 81 bc
       0.023996884 -0.027528916 -0.0062852493 -0.0158511
0000c0 2c bd f6 bc f1 61 86 bd 76 d4 b1 3d 48 aa 4f 3d
       -0.030119501 -0.065616496 0.08683102 0.050699502
0000d0 02 59 a8 3d 61 df 2c 3d e6 86 1f 3d 04 f2 4a 3d
       0.08220102 0.04220522 0.03894701 0.04954721
0000e0 e5 97 46 bb 71 f5 9f 3d 29 94 74 bc 68 07 17 bd
       -0.0030302939 0.07810486 -0.014927902 -0.036872298
0000f0 9f e7 c7 3d c8 da 90 3d 54 bb 5e bd 6b df e8 bb
       0.09760975 0.07072979 -0.05437787 -0.0071067116
000100 c8 29 6b bd 0c 89 a0 3c 30 21 96 3d 17 0e 92 3c
       -0.057412893 0.019596599 0.07330549 0.017828984
000110 8c a0 af bd 85 20 1d bd 0d b9 fb bd d5 9b b6 3d
       -0.08575544 -0.03836109 -0.12291155 0.08916441
000120 49 e2 aa bd 7c 88 59 3c bd 5f 7e bd ac b2 59 3d
       -0.08343942 0.013277169 -0.062103022 0.05314891
000130 8c f1 53 bd 48 ad d2 bd 80 1c a4 bd ee a4 fa 3d
       -0.05174403 -0.10286957 -0.080132484 0.12238489
000140 c8 ce 8e bc e9 22 86 bd 66 06 90 bb 17 b2 70 bd
       -0.017432585 -0.06549627 -0.004395294 -0.05876359
000150 47 29 55 bc c0 81 4f 3d 62 5a bf bd 98 70 01 3e
       -0.01301033 0.05066085 -0.09343411 0.12640607
000160 9b 58 c2 bd 06 88 3e bd 9b 3d ee bc 38 27 a3 3c
       -0.094895564 -0.04651644 -0.02908211 0.019916162
000170 f1 c7 00 3e 28 90 82 bd 33 b6 00 3e c2 6f b8 3d
       0.12576272 -0.06375152 0.12569503 0.09005691
000180 40 58 a1 bb c2 a7 34 bd 08 dd 88 3c 4d d8 61 3d
       -0.0049238503 -0.0441053 0.016706958 0.05513792
000190 e7 5b 34 3d 18 63 04 be 2d 51 2d be a8 5d b1 bc
       0.044032957 -0.12928426 -0.16925497 -0.021651104
0001a0 b2 d9 65 bd bb 4b a7 bc c0 d5 d4 3d da 13 07 bd
       -0.056115814 -0.020421853 0.10392332 -0.032977916
0001b0 84 8b 49 bd c3 b6 20 bd 7c 4f de bc b1 bf 2c 3c
       -0.049205318 -0.039236795 -0.02713751 0.01054375
0001c0 21 5a 88 3d 04 9d 4c 3d 3c ce c0 3c 89 b5 08 be
       0.06657816 0.04995443 0.02353584 -0.133505
0001d0 0e de eb 3d 8f 8d d7 3c 6d cf ce 3d fb bf 30 3d
       0.11516963 0.026312618 0.10098157 0.043151837
0001e0 bb 96 56 bd cd fc 52 3d 46 1c af bc 2f de 8b 3d
       -0.05238984 0.05151062 -0.021375787 0.068294875
0001f0 f0 e7 f5 bd ff 73 45 bc 23 fd 29 3d 1d 75 81 bd
       -0.12007129 -0.012051581 0.041501176 -0.06321166
000200 8c af 09 bc 8f 05 2d bd c2 23 a0 3d 6d 89 f7 bc
       -0.00840367 -0.04224163 0.0781932 -0.030216897
000210 7a 28 df 3d c7 18 ab bd 36 2a a9 3c 9a c5 73 bd
       0.10896392 -0.08354335 0.02065001 -0.05951462
000220 58 c3 80 3d c0 01 57 bd 21 ee 08 be 15 ee 0c be
       0.06287259 -0.052491903 -0.13372089 -0.13762696
000230 55 25 85 3c 2c 24 42 3c 4e a6 ff bb 82 cb 30 bd
       0.016253153 0.011849444 -0.0078018075 -0.04316283
000240 4f 9e a1 3d af c2 99 bd 58 82 90 bd 53 0e 39 3d
       0.07891523 -0.07507836 -0.07056111 0.045179676
000250 37 61 70 3d 9a 98 98 bc 69 0d 9f 3c cb d5 b6 bd
       0.05868646 -0.018627454 0.019415574 -0.089274965
000260 05 e0 85 3d 10 3c 62 bd 2b 3a 4b 3d 42 36 f0 bc
       0.06536869 -0.05523306 0.04961602 -0.029322747
000270 94 43 7f 3d 99 78 6b bd 76 af c8 bd 46 46 83 bd
       0.062320307 -0.057488058 -0.097990915 -0.06409888
000280 5d 64 b2 3c 9b d4 da bd 09 39 df bd 61 6c 0a 3d
       0.021776373 -0.106850825 -0.108995505 0.033794764
000290 9a b8 c1 bd 2f dc 4e 3c 20 2e cb 3c 21 4e 8b bd
       -0.09459038 0.012625738 0.024802268 -0.06802011
0002a0 78 31 c0 3d e9 bf 2e bd d1 5a 1a bd 57 ee 69 bc
       0.093844354 -0.04266349 -0.037684266 -0.014278016
0002b0 22 b2 3c 3d 5d 01 9a 3a 3e 70 58 bd 28 a5 ec bd
       0.04606832 0.0011749674 -0.052841417 -0.115549386
0002c0 9f b9 84 bd ac 33 d5 bd 01 d0 89 bd f7 7c 3a 3d
       -0.06480717 -0.10410246 -0.06729127 0.045529332
0002d0 0a 5a 54 bd ac 5e 60 bd d0 ad ed bc 80 b7 ef bc
       -0.05184368 -0.054777786 -0.029013544 -0.029262304
0002e0 7f f3 12 3d f3 62 21 3d dc 7d f0 3d 12 5c c2 bd
       0.035876747 0.039401006 0.11742756 -0.09490217
0002f0 8f f9 95 bd ff 50 8c 3d a4 87 99 bd fe db 74 3d
       -0.0732299 0.06851386 -0.074965745 0.059780113
000300 e1 75 18 3d 2e e3 44 bd af 61 c3 bd fd 72 20 bd
       0.037221793 -0.048068218 -0.09540116 -0.03917216
000310 69 d1 67 3d 0a 99 e8 bd 19 5a 0a bd 02 6c b2 3d
       0.056596193 -0.11357315 -0.03377733 0.08712007
000320 24 35 ec 3d 2f 80 9e 3b 88 e4 9a bd 5e 7f 5e 3d
       0.11533573 0.004837058 -0.0756312 0.054320686
000330 05 7f 0a 3e 01 3f 88 3b a4 d8 9f bc eb ea 7c bd
       0.13525017 0.0041579013 -0.019512482 -0.061747473
000340 36 aa 01 3e aa ba 56 bd a8 5b 4e bd 1d 64 53 bd
       0.12662587 -0.05242411 -0.05038038 -0.051609147
000350 ff b3 85 bd 40 ad ff 3c d7 29 8c 3c 40 21 21 3d
       -0.06528472 0.031210542 0.017109795 0.03933835
000360 74 35 5f bd 44 86 2e bd 60 dd 10 3c 8a ed c8 3d
       -0.054494336 -0.042608514 0.008841842 0.09810932
000370 b0 45 db 3c fc 07 99 bb 3d 5e bf 3d 24 d3 30 bd
       0.026766628 -0.0046701413 0.093441464 -0.04317011
000380 0d 78 9e 3c 5c 30 d3 3d 95 db cd bc f0 bf d9 3d
       0.019344354 0.10311958 -0.025129119 0.10632312
000390 52 16 8a 3d 05 46 4e 3c aa ea 87 3d 7d c3 de bc
       0.067425385 0.012589936 0.066365555 -0.027192825
0003a0 76 2e 9c 3c 73 8d 4f bd 0f 0e a3 3d 27 81 87 bd
       0.019065123 -0.050672006 0.07961666 -0.06616431
0003b0 7b 62 04 3d e4 2e 3c 3c 0c 2a 71 3d 45 4e 8f bb
       0.03232048 0.011485789 0.05887799 -0.004373344
0003c0 a0 ae 44 bb 0e 26 eb bd fd d7 98 3d 51 aa 9e 3d
       -0.0030011311 -0.11481868 0.074630715 0.07747329
0003d0 03 66 81 bd 0b 4c 2a bd c1 b4 9b 3a e2 da 6a 3d
       -0.06318285 -0.041576426 0.001187943 0.05733765
0003e0 9d 86 cf 3b 59 60 74 bd 76 13 2d bd 8d a0 09 3d
       0.006333186 -0.059662197 -0.042254888 0.03360038
0003f0 fb 0b 80 3d a0 dd 88 bd 82 15 22 3d f7 48 a1 bd
       0.06252285 -0.066828966 0.039571293 -0.07875245

recurrent.recurrent_layer.weight_ih_l0 f4 [400, 100]
000000 86 a1 03 3c ce f4 db 3c 2a 90 31 bd c4 5c 16 3d
       0.008034116 0.02685013 -0.043350376 0.036709562
000010 92 60 ec 3a 15 da c6 3c e5 0f 82 3d 19 c6 b2 bc
       0.0018034151 0.024273911 0.06350688 -0.021822976
000020 66 d2 10 3d 12 59 bd bd 7f 06 77 3d 80 64 13 be
       0.0353569 -0.092455044 0.06030893 -0.14393806
000030 17 1d b4 bd 42 30 bd bd d1 4a d6 3d e8 ab 49 bd
       -0.08794611 -0.0923772 0.10463489 -0.04923621
000040 8a 17 e0 3d bb 46 af bd 6d 8a 78 3d 3a 79 f2 3c
       0.1094199 -0.08558413 0.060678888 0.029598821
000050 f5 50 7e 3c 91 b3 04 be 75 43 c7 bd 3e 3d 1b 3d
       0.015522231 -0.12959124 -0.09729663 0.037900202
000060 3b 1f 28 bd bd a8 90 bd ee 92 f3 bc ee 45 80 bc
       -0.04104541 -0.07063434 -0.029733147 -0.015658345
000070 8d 60 c5 bd b7 a0 e4 3d ba bb 51 bc 6a 61 c7 bd
       -0.09637556 0.111634664 -0.012801105 -0.09735377
000080 61 70 23 bd 88 bd f0 3d c4 f3 a0 3d 91 d8 0c be
       -0.039902095 0.117549 0.078589946 -0.13754489
000090 87 39 ea bc 0f b4 9c 3d a7 fc 61 3d c3 12 27 bb
       -0.028591884 0.07651531 0.05517259 -0.002549336
0000a0 96 8f 4f bc e3 0b b6 3d 75 f8 9d 3d 63 a6 69 bd
       -0.012668511 0.08888986 0.07713405 -0.057043444
0000b0 8b 3f b9 3c 96 6e 4b bd c6 d8 34 bc 0f 7f d3 3c
       0.022613307 -0.04966601 -0.011038011 0.025817422
0000c0 73 9e a3 bd 7b 24 9e bd f0 bd d4 bd 55 e6 a4 bd
       -0.07989206 -0.07721802 -0.1038779 -0.08051745
0000d0 15 51 3d 3d f9 85 a8 3d 65 99 d1 3d c0 02 7b 3d
       0.046219904 0.08228678 0.10234336 0.06128192
0000e0 ef 41 b4 3d c0 ce be 3c 7a 41 09 3d 85 ab d8 bd
       0.08801638 0.023291945 0.03350971 -0.1057959
0000f0 9e 83 3b bc 05 3d d5 3d 26 ff 18 be 35 b6 e1 3d
       -0.011444954 0.10412029 -0.14941081 0.11021081
000100 88 3b e4 3d 1f 51 10 3d 08 7b eb 3d c9 5a 94 3b
       0.11144167 0.035233613 0.11498076 0.004527424
000110 b6 26 04 3e 55 ff 05 be 48 3a bb bd 85 39 be 3d
       0.12905392 -0.13085683 -0.09141976 0.09288315
000120 9e 34 3d bd 69 20 06 be e8 27 9c bc ce 61 21 be
       -0.046192758 -0.13098301 -0.019061998 -0.15759966
000130 df 1a c3 bd b7 2e 55 3d 8d 67 9f 3d 0b 31 bc 3b
       -0.0952661 0.052046504 0.077834226 0.005743151
000140 5c 1f ed 3d 7b c0 aa bc 1a 7a 4d bd 54 8b c3 3d
       0.11578247 -0.020843735 -0.050165273 0.09548059
000150 fa 91 2b bc 76 4f 88 3c 3a 84 8c 3c 8c cb 9e bd
       -0.010471815 0.016639452 0.017152894 -0.07753667
000160 f0 a1 ea 3c 10 5f e5 3d 9b 99 3b bd 71 a7 9e bd
       0.028641671 0.11199772 -0.045800786 -0.07746781
000170 d1 c2 ca 3c 6e f4 e7 3d e2 d8 be 3d 5d d5 3e 3d
       0.024751099 0.11325918 0.09318711 0.046590198
000180 28 8f d0 3b a2 e1 04 be 9b 63 ab bd 98 85 c2 3d
       0.006364722 -0.12976697 -0.083686076 0.09498137
000190 52 8f 3c bd 30 dd 26 3d 2d 89 1b bd 21 c5 99 bc
       -0.04603512 0.040738285 -0.037972618 -0.018770756
0001a0 b6 d1 e6 bc 8c dd e9 3d 2a 1a 93 3d 4e d9 68 3d
       -0.02817617 0.1141921 0.07182725 0.056847863
0001b0 af a0 4d bd 3d 91 b7 3c 82 52 30 bc 96 76 a4 37
       -0.050202068 0.022408122 -0.010761859 1.9605544e-05
0001c0 7b 55 9a 3c 81 2f c4 bc 28 a0 0a bd c9 39 2b 3d
       0.018839588 -0.023948433 -0.033844143 0.041803155
0001d0 43 34 9e 3c fe 4a b8 3d 37 95 89 3c 60 d5 0b 3e
       0.01931203 0.089986786 0.016794784 0.13655615
0001e0 d8 03 f9 bb 08 45 92 bc 57 41 5d bd c9 50 d7 3b
       -0.007599335 -0.017855182 -0.05401739 0.0065709096
0001f0 f6 dd 4a 3c 70 2b 85 3d 5f fa 9a 3d d5 b8 7d bd
       0.012382021 0.06502426 0.07567286 -0.061943848
000200 6c bc 05 3e bd de b4 bd b4 bb 38 3d 7b 30 38 3d
       0.13060158 -0.088315465 0.045100883 0.04496811
000210 70 01 a6 bd 63 a1 00 3e a6 95 ae 3c 16 81 cd 3c
       -0.08105743 0.12561564 0.021311592 0.025085967
000220 1f 1d d5 3d a6 db 44 3d cd 41 a2 bc 13 f1 2f 3d
       0.10405945 0.048061036 -0.019806767 0.042954516
000230 99 0f 84 bb dc 26 00 3e 5c 42 04 3e 41 0c bf bc
       -0.0040301797 0.12514824 0.12915939 -0.023321273
000240 6d 3a c3 3c 18 40 a6 3d 4b 28 d0 3d fc 0c 13 3d
       0.02383157 0.08117694 0.10163935 0.035901055
000250 9d 91 18 bd 66 cc e0 bd af f3 da 3d e2 69 5a 3d
       -0.037248243 -0.10976486 0.1069101 0.053323634
000260 f3 59 e3 3d 11 e4 23 3d f3 41 6c bd b9 e9 0f 3e
       0.11101141 0.040012423 -0.05768008 0.14054002
000270 df f6 de 3d 01 1b 1d 3d 5c 15 df 3d cf 75 35 3d
       0.10886931 0.03835583 0.10892746 0.044301804
000280 99 96 4c bd 21 dc 9d 3d 8e 8c 07 bd 6f 97 01 3e
       -0.04994831 0.07708002 -0.033093028 0.12655424
000290 95 5c a7 3c 59 cf fc bc fd 84 d1 3c 04 27 0a bc
       0.020429889 -0.03086059 0.025576109 -0.008432154
0002a0 8a 14 ff 3d 81 59 76 3c c0 71 aa 3d 1c 23 db bc
       0.124550894 0.015035988 0.08322477 -0.02675014
0002b0 84 a4 63 bd 60 78 a3 3d 43 9c 7f 3d a7 11 19 bd
       -0.055576816 0.07981944 0.062404882 -0.03737035
0002c0 9f 47 0a bd 8d 78 df 3d 3a 51 22 3d 60 e5 0b 3d
       -0.03375971 0.10911665 0.039628245 0.034154296
0002d0 d8 17 43 bc 83 4a 1a 3d 22 58 82 bd c5 39 9c 3b
       -0.01190754 0.037668716 -0.06364466 0.004767629
0002e0 c6 e4 56 bd f3 ad c3 3d 7e 7e 36 3d f1 84 2e 3d
       -0.05246427 0.095546626 0.044554226 0.04260725
0002f0 26 fc bd 3d fa ca 32 bd cf 2c 7a bd e4 2e 01 bc
       0.09276609 -0.043650605 -0.06107789 -0.007884715
000300 c3 87 27 bd f9 1d 60 bc 32 eb e3 3d c3 0b b4 bc
       -0.040900957 -0.013679021 0.11128844 -0.021978265
000310 b8 74 d5 bc 76 84 a7 3d f1 25 30 3d d8 4a d0 bc
       -0.026056632 0.08179562 0.043004934 -0.025426313
000320 4f dd 06 be 14 cb b6 3c 36 16 e3 bc 1b 80 6b 3b
       -0.1317036 0.022313632 -0.027720552 0.003593451
000330 ec 71 03 bd db 36 36 3c 6d 77 8a bc 9b a0 ba bd
       -0.032091066 0.011121477 -0.01690265 -0.09112664
000340 3d ad 93 3d ca d5 a6 3c ea 1b 27 3e 6a 43 a5 3d
       0.07210777 0.020365614 0.16319242 0.08069499
000350 13 14 ce bb 96 dc 57 bd 6b 26 eb 3d c3 50 55 bd
       -0.006289014 -0.0527006 0.11481937 -0.052078974
000360 43 7b 52 3d 5c 8a 26 3d ab 9c 29 3d 53 96 80 3d
       0.051387083 0.040659294 0.041409176 0.06278672
000370 30 06 02 3e 6a 81 9c bd 2b 42 ff 3d 95 41 9b 3d
       0.12697673 -0.07641871 0.124637924 0.07580868
000380 ce 25 c6 3d 12 3c 08 3e ac d9 aa 3c 09 ba e4 bd
       0.096751794 0.13304165 0.020855747 -0.11168296
000390 a2 9b f4 bc c6 5d ba 3c ea a3 30 3d ee 25 c3 3b
       -0.029859368 0.022749793 0.04312507 0.0059554493
0003a0 8e b8 a1 bd b9 6c fc 3d a7 0d 31 3e 54 fc 62 3c
       -0.07896529 0.12325425 0.17290364 0.013854105
0003b0 42 ce 87 3d bb 36 08 3e aa 56 38 3d 83 48 55 bc
       0.066311374 0.13302128 0.045004524 -0.013017776
0003c0 3a 1d ef bd d3 ac d5 ba a3 b1 bf bc d6 84 0a 3d
       -0.116754964 -0.0016302116 -0.023400133 0.03381809
0003d0 40 d4 27 3d f1 21 b0 3c b9 66 aa 3d cc 43 fc 3d
       0.0409739 0.02150056 0.08320374 0.12317619
0003e0 72 6e 1b bd 16 4c 17 bd 36 13 d7 bc 01 0d e5 3d
       -0.037947126 -0.036937796 -0.026254278 0.11184121
0003f0 5a 83 1c 3c ff 79 5e 3a 30 b9 7e bb d5 56 d0 3d
       0.009552801 0.0008486807 -0.0038867705 0.10172812

recurrent.recurrent_layer.weight_hh_l0 f4 [400, 100]
000000 ab c7 2a bd 59 e9 ae bd f8 67 0c 3d 04 2a 98 bc
       -0.041694324 -0.08540601 0.03427884 -0.018574722
000010 22 9d 22 3c 88 2f 88 bd 46 84 df 3d 42 d1 f7 3c
       0.009925159 -0.06649691 0.10913901 0.03025115
000020 1b 77 bd bd 78 98 a9 3d d1 d6 70 3d 76 b6 82 3c
       -0.09251233 0.08281034 0.058798615 0.015956145
000030 17 44 9c 3c 50 00 bc 3d 6c a7 34 3d e4 ce 2b 3e
       0.019075437 0.09179747 0.04410498 0.16778141
000040 53 6d 8d 3d ea b2 c4 3d c0 18 4a bd 4c 37 80 3d
       0.069056176 0.09604438 -0.04934001 0.06260547
000050 94 fb a1 bd e0 0a ac 3c e0 9f 98 3d 37 bb 9c bd
       -0.07909313 0.02100128 0.07452369 -0.07652896
000060 1d 6b 1d 3d 18 ae 44 3d 12 f2 9e 3d c2 77 2d 3c
       0.03843223 0.04801759 0.07761015 0.0105876345
000070 46 93 ff bc a8 e5 cd 3d b7 48 63 bd 63 6d 62 bc
       -0.031198155 0.10053569 -0.05548927 -0.013820025
000080 15 8f b5 3d 53 50 9d bd 48 07 ba 3d 02 87 97 bc
       0.08865181 -0.07681336 0.0908342 -0.018496994
000090 1d f1 83 3d 55 9a 13 3d 87 36 68 bd 25 86 c0 bd
       0.06442473 0.036035854 -0.056692626 -0.09400586
0000a0 bd b8 c5 3d 96 59 2b bd 92 f2 25 3c 2f df f6 bb
       0.09654377 -0.041833483 0.010128634 -0.00753393
0000b0 97 82 93 bd c5 09 dc 3b 8f 83 ca 3d 9f 9b de 3d
       -0.072026424 0.006715032 0.09888374 0.10869526
0000c0 f2 87 24 bc 71 fb c1 3d 49 ae ce 3d 4a 18 d7 3d
       -0.0100421775 0.09471787 0.10091836 0.1050268
0000d0 3b 6f 70 bc 7b 85 76 bc 0e 96 48 3d 14 12 01 3e
       -0.014674957 -0.015046473 0.04897123 0.12604553
0000e0 b4 f8 46 bd c6 f6 7c 3c a8 fa 80 bd da ab 65 bd
       -0.048577026 0.015439695 -0.06297809 -0.056072094
0000f0 11 71 93 3d a2 52 3d 3d ac 1b 34 bd 3e 65 01 bd
       0.071993 0.046221383 -0.043971702 -0.031590693
000100 b4 f7 27 3e 14 01 04 3e 7d d4 87 3d 97 80 0f bd
       0.16403085 0.12891036 0.06632326 -0.035034742
000110 b2 f2 54 bd d2 8a 3d bd ae 2f f7 3c 97 22 99 bd
       -0.051989265 -0.046274967 0.030174103 -0.074773006
000120 3f bc bf bd 4b 18 b1 3b 92 61 19 bc b6 8e d4 bd
       -0.09362077 0.0054045073 -0.0093616415 -0.103787825
000130 52 22 45 3d f1 e7 79 3d 8c 5c 99 bc 82 c6 87 bb
       0.048128434 0.061012212 -0.018720888 -0.004143537
000140 7d a7 8f bd a1 eb 98 3d ab 48 6c 3c dc 99 ec bd
       -0.07014368 0.07466818 0.014421622 -0.11552784
000150 60 34 98 bc 8e db 19 bd 22 c1 2f bd bc ac 48 bd
       -0.018579662 -0.0375629 -0.042908795 -0.048992857
000160 d2 d0 e5 bd 83 9a c0 3d b2 55 bc 3d 31 0e 22 3d
       -0.1122147 0.09404471 0.091960326 0.039564315
000170 44 99 ef bc 8b a5 c4 bd c9 59 de bc b6 67 3a 3d
       -0.029247887 -0.09601887 -0.027142422 0.045509063
000180 77 a3 1a bd 01 37 84 3c ef 63 3a bb bd 84 6b 3d
       -0.03775355 0.01613951 -0.0028440913 0.057499636
000190 9e e2 ba bd b7 a7 9b bd 1a 37 8a 3d 85 3c 86 3d
       -0.09125255 -0.076003484 0.06748791 0.06554512
0001a0 e6 f9 45 3d 77 0c c4 3d c6 c5 5d bd 40 e3 b9 bd
       0.048334025 0.0957269 -0.05414369 -0.090765476
0001b0 70 29 82 3d 9c 65 db 3d 5a 46 9c 3b f2 b2 64 3c
       0.0635556 0.1071274 0.0047691287 0.0139586795
0001c0 b3 0a 48 3a ff b8 c0 3d e4 db 73 bd cf 35 4b 3d
       0.0007630989 0.09410285 -0.059535876 0.049611863
0001d0 ad 1e 0f bd d8 d8 ac bd f4 80 37 bd 0f a8 81 bd
       -0.034941364 -0.08439797 -0.044800714 -0.06330883
0001e0 5b ab 4e 3d 09 4f 25 3b 6b 1e 13 bd 04 ac 98 bd
       0.050456386 0.002522411 -0.03591768 -0.074546844
0001f0 6c 17 44 bc f0 bd 1b 3d 49 9e 00 bd 98 9a 51 3c
       -0.011968475 0.038022935 -0.031400952 0.012793206
000200 2b 3c 8d bd b7 d3 26 3d 61 78 04 bc 5c f8 54 3d
       -0.06896242 0.04072925 -0.008085341 0.051994666
000210 62 de db bd 2d 90 7e 3d ff 04 69 bb f6 bc 0a 3d
       -0.107357755 0.062149215 -0.0035555956 0.033871613
000220 b1 f3 bb bc d3 cc 7a bd 9b 91 54 bd a0 ec 83 bd
       -0.02294335 -0.06123049 -0.051896673 -0.06441617
000230 bf 37 91 bd dd 28 3f bd dc ea 9d 3c ce b3 53 3d
       -0.07090711 -0.04666983 0.019277029 0.051685147
000240 72 b1 00 3d a4 78 6c bd 34 10 58 3d 69 26 ad bc
       0.031419225 -0.05773224 0.052749828 -0.02113648
000250 ec 3a 0c bd 5f 80 40 3d a1 eb 2f bd 7a 8c ef 3b
       -0.03423588 0.046997424 -0.042949323 0.0073104473
000260 69 57 d8 3d 3c e2 6a 3d 18 79 b8 bb ba be 65 bd
       0.10563547 0.05734466 -0.00562967 -0.056090094
000270 39 46 e3 bc c2 88 e9 bd 75 5e 42 bc a4 f2 bf bd
       -0.027743446 -0.114030376 -0.011863341 -0.09372452
000280 07 38 cd 3d f1 52 9d 3b 62 c8 81 bd 03 53 3e 3d
       0.10020452 0.004801147 -0.06337048 0.046465885
000290 64 a1 8a bd 5a 4a 8b bd 72 2c c9 3d b0 65 9a 3d
       -0.06769064 -0.06801291 0.098229304 0.075389266
0002a0 54 8c a8 3c 31 56 db 3d 1e f9 9d 3d bf 63 7a bc
       0.020574726 0.10709799 0.07713531 -0.01528257
0002b0 86 2c 5a 3d 8d db a1 3d ad 73 2a 3c c1 8e 34 bc
       0.053265117 0.07903204 0.010403556 -0.011020363
0002c0 70 2d f4 bd 4e cf 56 bd 01 2b 43 3c 78 77 04 3c
       -0.11922729 -0.052443795 0.011912108 0.008085124
0002d0 6d ce bf 3d ad 6a d4 bc a4 17 a3 bb dd bc bf 3d
       0.093655445 -0.025929773 -0.0049771834 0.09362195
0002e0 52 eb 63 3d 3f 93 ab 3b 03 8c 26 bd 8f 66 83 3d
       0.05564434 0.005236059 -0.04066087 0.06416046
0002f0 93 74 01 bd fb 54 ae bd ff 2a 99 3d d6 e5 94 38
       -0.031605314 -0.085123025 0.07478904 7.1e-05
000300 0b 5a 43 3d fd 3a 86 bd e7 d8 56 3d 0f 53 0a 3d
       0.047693294 -0.0655422 0.052452948 0.033770617
000310 9f 23 1e 3d 83 91 35 3d 86 ae 6a bd 92 24 5c bd
       0.03860819 0.044328224 -0.057295345 -0.053745814
000320 b9 a9 34 bd bc a0 87 bd 08 05 66 bd 9c ff 42 bc
       -0.044107173 -0.066224545 -0.056157142 -0.011901762
000330 22 66 bb bd 0f a5 ab bd b1 7b 56 bd 8d fb fd 3d
       -0.0915034 -0.08381092 -0.052364055 0.12401495
000340 4e 76 0c bd 07 6c 0c bd 6a 04 2e 3c c6 16 79 3d
       -0.03429251 -0.03428271 0.01062117 0.060812734
000350 f5 a0 57 3d ed 53 d9 bd 12 9a 89 bd 52 b8 c2 3c
       0.052643735 -0.10611711 -0.0671884 0.023769531
000360 3e 67 98 3d a3 08 18 bd 74 2a 87 3d 45 4e 67 3d
       0.07441567 -0.03711761 0.06599894 0.056471128
000370 4b 6b 44 bd 0e 74 0a 3d 9a 4a e0 3c 90 a2 aa bd
       -0.047953885 0.033802085 0.027379323 -0.083317876
000380 ce e5 81 3c b1 76 c1 bc 1b 34 11 3d a9 5d c5 bc
       0.01585665 -0.023616167 0.035450082 -0.024092512
000390 4d 3d 20 3d 66 cf 08 3d 58 d4 75 bd 52 92 8c bd
       0.03912096 0.033400916 -0.06001696 -0.06863846
0003a0 7a 53 3e bd 17 dc 92 3d 54 99 9e 3c 80 63 42 bc
       -0.04646633 0.07170885 0.019360222 -0.011864543
0003b0 7a 53 d5 3c da dd 82 bd f1 6e cb 3d 9d 2e ce 3d
       0.026040781 -0.06389971 0.0993327 0.100674845
0003c0 be fe 19 3d 02 70 f3 3c e5 54 80 bd ac 6d ca bd
       0.037596457 0.029716495 -0.06266192 -0.098841995
0003d0 59 53 6b bd ab 78 5b bd 3d c1 69 3d a4 49 5d bd
       -0.057452533 -0.053581875 0.057069052 -0.054025307
0003e0 37 4d b3 3d 43 b8 b2 bd d0 a9 70 bd c4 f3 aa 3a
       0.08754962 -0.087265514 -0.058755696 0.0013042619
0003f0 4f b9 0c 3d e2 3f b5 bd 9c 8b cf bd b0 57 97 3d
       0.03435641 -0.08850075 -0.1013405 0.07389772
