TFM/experimentos_split/results/branch_trip/MPNN_LSTM.pt (torch, 123526 bytes, 22 tensors)

recurrent._convolution_1.bias f4 [32]
0.020367604 -0.018547699 -0.03923601 -0.043492444 -0.005393129 0.0033321306 -0.001622317 0.005871389
0.00017016396 0.009927493 -0.025684414 -0.0007383098 0.006017958 -0.027523844 -0.011492997 0.0018059069
0.05021805 -0.032374624 0.03149505 0.02651162 0.01927863 -0.019787904 0.0080123 -0.013571618
0.0072310884 -0.022185115 0.07173555 -0.014204922 -0.0007779742 -0.043097027 -0.04123076 0.016094156
00000000: f6d9 a63c 58f1 97bc f0b5 20bd 2225 32bd
00000010: d8b8 b0bb e05f 5a3b eda3 d4ba c864 c03b
00000020: 0a6e 3239 eca6 223c 1f68 d2bc 228b 41ba
00000030: 4a32 c53b af79 e1bc 204d 3cbc 2eb4 ec3a
00000040: 71b1 4d3d 419b 04bd f400 013d e62e d93c
00000050: 38ee 9d3c 3e1a a2bc 0646 033c 7e5b 5ebc
00000060: c4f2 ec3b 8fbd b5bc 17ea 923d c3bb 68bc
00000070: f7f0 4bba 8286 30bd 96e1 28bd e4d7 833c

recurrent._convolution_1.lin.weight f4 [32, 100]
-0.16293807 0.08719421 0.12126939 0.18764709 -0.20266895 0.1924248 0.16197191 0.20956858
0.11670342 -0.100705124 0.16181937 0.19830598 -0.08143944 -0.0349226 0.1665911 0.17105857
0.14020278 0.16281694 -0.11026863 -0.037279002 -0.08556225 0.11049759 0.05291459 -0.16491975
-0.026920374 -0.17395781 -0.20076331 0.19465753 -0.10774255 0.09496173 -0.047565907 -0.043252055
-0.00019408329 0.16613753 -0.029606652 0.17634606 0.12456287 0.14621861 -0.19351427 -0.09967586
-0.1737845 -0.045369234 -0.044110574 0.0433138 0.19120917 0.09564509 -0.14849046 -0.1335705
0.16087888 0.021590509 0.06028336 -0.111685105 -0.025952294 0.060899254 -0.139142 0.13938025
0.10605771 -0.12413527 -0.087858394 -0.0503298 0.033175934 -0.078780465 0.20384358 -0.20609361
-0.12090611 -0.12976815 0.057444874 0.0296176 -0.061007474 0.1810102 -0.18467852 0.07439503
-0.11792164 -0.04889643 -0.20596202 -0.16002741 -0.1817345 0.0923754 -0.0806198 0.11089494
-0.11639495 -0.053793717 0.024992159 0.18091543 -0.05797835 0.12377719 0.058338832 0.13157028
0.1344956 0.08762391 -0.063685946 -0.058880996 0.082692206 0.116389014 -0.010562408 0.10788513
-0.12718171 0.12141526 -0.024997417 -0.14568119 -0.106768765 -0.16482794 0.04063295 -0.12360204
-0.06464021 -0.016905045 -0.13316955 0.0066704294 -0.03020098 0.06758994 0.15339561 -0.13245036
0.113141365 -0.008816627 -0.12695782 -0.10068857 0.050128292 0.03930663 -0.0107176555 -0.11151626
0.103599206 0.02920707 -0.21219541 -0.0395084 -0.062313277 -0.09422361 -0.12328459 -0.17659888
0.2140402 -0.19969316 0.19494224 -0.17027153 -0.058755945 -0.092914015 -0.11914697 0.071359456
0.117357954 -0.14630109 -0.10437486 0.10463218 -0.028881691 0.046405222 0.10558332 -0.084380314
-0.12453312 0.07427442 -0.08032755 -0.14411484 -0.11020183 -0.10386462 0.20850915 0.03855837
0.09023806 0.02640535 -0.14652291 0.1514032 -0.035754472 -0.058250073 0.17075399 -0.11015654
0.040903475 -0.1835045 0.10653738 0.07884108 -0.17635697 0.117897436 0.020484565 -0.11399058
0.17729867 0.08493172 0.07305596 -0.08129547 -0.11977902 -0.11788418 0.080387175 0.05420556
-0.13072939 0.19271256 0.12259879 -0.08377875 0.107031025 -0.09245929 0.06557821 0.17422712
-0.19191277 -0.10860949 -0.012885043 0.030715022 -0.180068 -0.14307046 -0.022908742 -0.032423597
0.045116257 0.024856979 0.041232977 0.011409865 0.021573165 -0.014598822 0.07455817 0.14394543
-0.115503 -0.118269175 0.08238268 -0.15909815 0.13130158 0.09256161 0.0241723 -0.10541869
0.00060538045 -0.17769636 -0.20380415 0.19422507 -0.19935751 -0.18462482 -0.08850323 0.008325021
0.04472596 -0.11180452 -0.027226726 -0.056435376 0.1728936 0.18078437 0.08293602 -0.012551987
0.15271547 -0.1771317 0.08636515 -0.13350649 0.16517547 -0.20022158 0.068940036 -0.17275526
0.11566722 0.032639947 0.18222307 -0.16165176 0.14274555 -0.14654815 -0.11375261 0.07402801
-0.0374576 -0.1626586 -0.18527898 -0.052923966 0.05355648 0.1853296 0.15617323 -0.0040202616
-0.13132095 -0.19462782 0.18835399 -0.115718134 -0.04378367 -0.16911107 -0.15326205 0.039786406
00000000: 3dd9 26be e192 b23d 165c f83d 8f26 403e
00000010: 7388 4fbe 020b 453e f7db 253e 2599 563e
00000020: 3402 ef3d 7d3e cebd fab3 253e b910 4b3e
00000030: b9c9 a6bd 000b 0fbd db96 2a3e fa29 2f3e
00000040: 5191 0f3e 7cb9 263e 85d4 e1bd deb1 18bd
00000050: 433b afbd 8f4c e23d f8bc 583d b9e0 28be
00000060: 1e88 dcbc ff21 32be e694 4dbe 4e54 473e
00000070: 20a8 dcbd 4c7b c23d 78d4 42bd 1129 31bd
00000080: d682 4bb9 f51f 2a3e a689 f2bc 1094 343e
00000090: d11a ff3d 55ba 153e 9b28 46be db22 ccbd
000000a0: 90f4 31be 17d5 39bd 4aad 34bd d069 313d
000000b0: 56cc 433e 93e1 c33d e20d 18be b5c6 08be
000000c0: 6fbd 243e 94de b03c afeb 763d 29bb e4bd
000000d0: e899 d4bc 7f71 793d 3e7b 0ebe b2b9 0e3e
000000e0: c934 d93d a23a febd 1aef b3bd 9f26 4ebd
000000f0: 7de3 073d a757 a1bd 5fbc 503e 340a 53be
00000100: 9f9d f7bd f1e1 04be 514b 6b3d 9ca0 f23c
00000110: f9e2 79bd bd5a 393e 5e1c 3dbe 6c5c 983d
00000120: e780 f1bd 9f47 48bd b5e7 52be 3ade 23be
00000130: 9c18 3abe 502f bd3d fe1b a5bd e31c e33d
00000140: 7a60 eebd cd56 5cbd 5bbc cc3c e541 393e
00000150: b57a 6dbd e57e fd3d b3f4 6e3d 5cba 063e
00000160: 37b9 093e 2a74 b33d c76d 82bd 332d 71bd
00000170: 885a a93d 5d5d ee3d f30d 2dbc e1f2 dc3d
00000180: ec3b 02be 90a8 f83d 62c7 ccbc 732d 15be
00000190: 95a9 dabd a8c8 28be bc6e 263d 1123 fdbd
000001a0: 1662 84bd 737c 8abc 995d 08be 9e93 da3b
000001b0: 0c68 f7bc 986c 8a3d bd13 1d3e 11a1 07be
000001c0: a9b6 e73d 9d73 10bc 3b01 02be cf35 cebd
000001d0: 5353 4d3d fdff 203d 1b99 2fbc a362 e4bd
000001e0: d22b d43d aa43 ef3c c149 59be 8fd3 21bd
000001f0: 353c 7fbd 4ff8 c0bd a27c fcbd 56d6 34be
00000200: 5b2d 5b3e 5d7c 4cbe f09e 473e a95b 2ebe
00000210: 13aa 70bd b449 bebd 5403 f4bd e824 923d
00000220: 5e59 f03d f4cf 15be 7dc2 d5bd 6549 d63d
00000230: 4c99 ecbc 6713 3e3d 113c d83d 96cf acbd
00000240: 380b ffbd 301d 983d c582 a4bd d792 13be
00000250: 7fb1 e1bd f9b6 d4bd 6c83 553e 62ef 1d3d
00000260: bbce b83d 0850 d83c 1a0a 16be 7109 1b3e
00000270: 4873 12bd a197 6ebd 22da 2e3e c199 e1bd
00000280: 678a 273d 9be8 3bbe 4530 da3d 6f77 a13d
00000290: ec96 34be 3674 f13d 3fcf a73c e573 e9bd
000002a0: c88d 353e aef0 ad3d 5d9e 953d 3d7e a6bd
000002b0: b44e f5bd 436d f1bd 08a2 a43d a606 5e3d
000002c0: eddd 05be 7156 453e 1315 fb3d 3194 abbd
000002d0: 1533 db3d 4c5b bdbd de4d 863d 9868 323e
000002e0: c884 44be a76e debd ca1b 53bc 129e fb3c
000002f0: bf63 38be 1081 12be 1dab bbbc 9bce 04bd
00000300: d3cb 383d dda0 cb3c e9e3 283d 71f0 3a3c
00000310: 35ba b03c e62f 6fbc f4b1 983d 6e66 133e
00000320: d68c ecbd 1c37 f2bd 40b8 a83d a0ea 22be
00000330: ec73 063e f190 bd3d fd04 c63c c1e5 d7bd
00000340: 65b2 1e3a 09f6 35be 09b2 50be f0e2 463e
00000350: 6024 4cbe 4a0e 3dbe 2e41 b5bd ab65 083c
00000360: 9132 373d c5f9 e4bd 950a dfbc c828 67bd
00000370: 050b 313e 8a1f 393e 5cda a93d d9a6 4dbc
00000380: 7261 1c3e 0362 35be 36e0 b03d edb5 08be
00000390: c223 293e e306 4dbe 6f30 8d3d c1e6 30be
000003a0: efe2 ec3d 77b1 053d af98 3a3e 0a88 25be
000003b0: e42b 123e b810 16be 21f7 e8bd ff9b 973d
000003c0: 246d 19bd fa8f 26be c6b9 3dbe cdc6 58bd
000003d0: 0a5e 5b3d 0bc7 3d3e e0eb 1f3e 66bc 83bb
000003e0: 0079 06be 844c 47be dedf 403e a1fd ecbd
000003f0: 8156 33bd 742b 2dbe baf0 1cbe 12f7 223d

recurrent._convolution_2.bias f4 [32]
-0.016246777 0.0045230216 -0.054127414 -0.026338898 -0.014226339 -0.017621942 -0.028712314 -0.06722516
-0.01568099 -0.009305276 -0.04333118 -0.008578745 -0.012549931 -0.076467134 -0.073955 -0.03947115
-0.04530874 -0.001289872 -0.06770897 -0.046558015 -0.0132926125 -0.053929493 -0.017927695 -0.012610254
-0.05206432 -0.020504689 0.0048237354 0.006054105 -0.028123433 -0.031298507 -0.053532142 -0.030399965
00000000: f617 85bc db35 943b b5b4 5dbd acc4 d7bc
00000010: 9715 69bc e45b 90bc 1636 ebbc 58ad 89bd
00000020: 6b75 80bc 2875 18bc 097c 31bd dd8d 0cbc
00000030: 3a9e 4dbc cd9a 9cbd b875 97bd 80ac 21bd
00000040: a895 39bd ec10 a9ba 00ab 8abd 9eb3 3ebd
00000050: 42c9 59bc 2ce5 5cbd 1add 92bc 3d9b 4ebc
00000060: 6541 55bd 73f9 a7bc 6d10 9e3b 8361 c63b
00000070: 1d63 e6bc dd32 00bd 8544 5bbd 5909 f9bc

recurrent._convolution_2.lin.weight f4 [32, 32]
0.17125139 0.20831718 -0.0460999 0.024595488 -0.007860909 -0.10171546 0.21338102 -0.20818321
-0.30735266 -0.08192809 -0.14641142 -0.19797108 -0.058377482 0.0053996183 0.17782822 0.18752234
0.25025588 0.21805198 0.0625746 0.01827046 -0.015486858 -0.22741817 0.04314523 -0.088640295
-0.06992194 0.25781757 0.11606886 0.18176116 0.2024496 -0.17170647 0.12482442 -0.042095568
0.0886421 0.1524544 -0.07685733 0.19843163 0.015520423 -0.0466561 0.22149317 0.23904103
-0.05736773 0.17500277 -0.07094769 0.008995955 -0.18466999 -0.05451106 0.022216804 -0.085763
-0.04121254 0.0548573 -0.11992652 0.17163168 0.31221512 0.27731335 0.26965714 -0.079938956
0.019719644 -0.0970023 -0.1606898 -0.054339744 0.20720796 -0.29232806 -0.15427132 0.17533383
0.15100655 -0.11401652 -0.06722848 -0.07222341 0.20750988 0.21211936 -0.14998864 0.049281064
-0.3011673 -0.2540339 -0.05711201 -0.10508552 -0.15264155 0.24237353 0.13213634 0.031217273
-0.070400804 0.005687042 0.23963055 -0.069507174 0.013026572 0.08163745 0.16775197 0.1212221
-0.19491127 0.09711878 0.021344554 0.014682519 -0.28475043 0.28423053 0.116429284 0.014295342
0.10939435 -0.04533176 -0.25774026 -0.13638294 -0.29210588 0.24314632 0.1472396 0.08643523
-0.19321299 -0.20227993 0.1266961 -0.22115852 0.04350767 0.29554132 -0.25196108 0.21108171
-0.26668295 -0.020201659 0.20723943 0.23794547 0.30436394 0.25039515 -0.27317894 0.068087496
-0.2672841 0.18492182 0.101603225 0.20449767 0.07548896 0.1838557 -0.029647702 -0.22829089
-0.2213831 -0.009617544 -0.29196563 0.22723901 -0.16029634 -0.21328291 0.26145592 -0.19964021
-0.17965847 -0.049900442 0.1048817 -0.10476122 0.15340346 -0.23322764 0.030000158 -0.32374507
-0.27496853 0.071833506 0.103664406 -0.15256546 0.05764141 -0.123453684 0.13783342 -0.0015873263
-0.118093856 0.043786064 -0.33647346 0.15648828 0.30888587 0.2466966 -0.17292438 -0.102048814
-0.14707069 0.05599708 -0.23590812 -0.20534506 -0.12324868 0.22328763 0.055019222 -0.28696728
-0.16125402 -0.23904167 -0.06788419 -0.01808554 -0.21295542 -0.22174385 -0.07130704 0.0015257087
0.16730724 0.08906604 -0.20312697 -0.32459012 0.030283038 -0.07539331 0.15529749 -0.21321931
-0.063746855 -0.23199034 -0.17740083 -0.16392553 -0.04975393 -0.02597725 0.28569117 0.29114446
0.25483978 0.07898679 0.0262968 0.28623113 -0.22322936 -0.28831828 -0.16790994 0.2444352
0.29238477 -0.11833788 -0.19869016 -0.29155543 0.13291912 -0.115293354 0.22668892 -0.10120388
0.28434908 0.17953081 0.2032027 0.12318368 -0.23364986 0.03315639 -0.19833127 -0.103315204
0.15570593 -0.17707288 0.1909954 0.008299851 -0.17409076 -0.13945457 -0.32888812 0.122661695
0.018224578 0.25778633 0.10687521 0.09049866 -0.026578303 0.1461414 -0.056051895 0.13499272
-0.1311931 0.17250401 0.06992431 0.21452913 0.014394588 0.15705483 0.30810383 0.042885564
0.23369534 -0.27367407 -0.0135544045 -0.21300001 0.036852304 0.06398553 0.07092959 -0.123943694
0.1356899 -0.12565462 -0.060217652 0.2700415 -0.29282716 0.05334062 -0.24489388 0.10801814
00000000: 865c 2f3e 1951 553e 40d3 3cbd 7a7c c93c
00000010: 0bcb 00bc 3250 d0bd 8e80 5a3e fb2d 55be
00000020: 545d 9dbe eac9 a7bd e0ec 15be eeb8 4abe
00000030: 3a1d 6fbd 48ef b03b 9a18 363e db05 403e
00000040: 8a21 803e 0549 5f3e 1d27 803d efab 953c
00000050: 97bc 7dbc 4fe0 68be 0db9 303d 0b89 b5bd
00000060: 3c33 8fbd aa00 843e 83b5 ed3d 991f 3a3e
00000070: f34e 4f3e d2d3 2fbe f2a3 ff3d 676c 2cbd
00000080: fd89 b53d 021d 1c3e 6067 9dbd a931 4b3e
00000090: 5f49 7e3c 771a 3fbd 1bcf 623e 2cc7 743e
000000a0: 6dfa 6abd ed33 333e 064d 91bd c563 133c
000000b0: 211a 3dbe fd46 5fbd 0400 b63c 83a4 afbd
000000c0: 7bce 28bd 0cb2 603d 099c f5bd 37c0 2f3e
000000d0: a9da 9f3e 04fc 8d3e 8010 8a3e 09b7 a3bd
000000e0: 178b a13c 24a9 c6bd de8b 24be 5a93 5ebd
000000f0: 532e 543e 06ac 95be 4df9 1dbe b68a 333e
00000100: 76a1 1a3e 7e81 e9bd 16af 89bd dee9 93bd
00000110: 787d 543e d135 593e 9f96 19be f1da 493d
00000120: 9a32 9abe bb10 82be 48ee 69bd 1437 d7bd
00000130: 114e 1cbe c430 783e c04e 073e 5ebb ff3c
00000140: 4c2e 90bd 5e5a ba3b b661 753e c759 8ebd
00000150: 676d 553c 8931 a73d 2cc7 2b3e 4b43 f83d
00000160: d296 47be 36e6 c63d c6da ae3c f38e 703c
00000170: cfca 91be aa86 913e 7a72 ee3d 0337 6a3c
00000180: 250a e03d ccad 39bd 88f6 83be f8a7 0bbe
00000190: e78e 95be 59fb 783e fac5 163e f404 b13d
000001a0: a0d9 45be 7822 4fbe 9fbc 013e 6177 62be
000001b0: 1935 323d 3151 973e 0b01 81be ce25 583e
000001c0: ab8a 88be f37d a5bc 9336 543e faa7 733e
000001d0: 97d5 9b3e cb33 803e 1cde 8bbe 7571 8b3d
000001e0: 76d9 88be 255c 3d3e 5a15 d03d d667 513e
000001f0: f599 9a3d ab44 3c3e bddf f2bc 16c5 69be
00000200: 40b2 62be e792 1dbc 857c 95be 58b1 683e
00000210: b924 24be d666 5abe 8ddd 853e 7c6e 4cbe
00000220: 64f8 37be 6864 4cbd 37cc d63d 0d8d d6bd
00000230: cc15 1d3e 3ad3 6ebe e4c2 f53c eac1 a5be
00000240: adc8 8cbe 721d 933d 014e d43d 1f3a 1cbe
00000250: 6619 6c3d 49d5 fcbd 3424 0d3e d50d d0ba
00000260: 31db f1bd 0459 333d 4046 acbe 773e 203e
00000270: 4a26 9e3e 099e 7c3e 1713 31be f8fe d0bd
00000280: b399 16be 325d 653d e691 71be fa45 52be
00000290: ce69 fcbd 83a5 643e d65b 613d 60ed 92be
000002a0: c61f 25be 57c7 74be de06 8bbd 2028 94bc
000002b0: fc10 5abe d210 63be 6d09 92bd 4afa c73a
000002c0: 9752 2b3e 4268 b63d 8400 50be ad30 a6be
000002d0: 2214 f83c cf67 9abd 4e06 1f3e 2a56 5abe
000002e0: b68d 82bd e08e 6dbe 90a8 35be 18dc 27be
000002f0: c7ca 4bbd 3ece d4bc 1d46 923e e310 953e
00000300: 5c7a 823e d3c3 a13d 636c d73c e38c 923e
00000310: 3d96 64be 749e 93be 95f0 2bbe 394d 7a3e
00000320: 75b3 953e 215b f2bd 6f75 4bbe c146 95be
00000330: f31b 083e ec1e ecbd 2421 683e fb43 cfbd
00000340: 3496 913e edd6 373e 5e14 503e ba47 fc3d
00000350: e941 6fbe ffce 073d 5a17 4bbe ec96 d3bd
00000360: 6071 1f3e 9852 35be 4c94 433e 19fc 073c
00000370: d944 32be 2ecd 0ebe 0664 a8be 0e36 fb3d
00000380: b64b 953c 92fc 833e 64e1 da3d 5d57 b93d
00000390: beba d9bc 17a6 153e ac96 65bd 883b 0a3e
000003a0: 7c57 06be e4a4 303e 7a34 8f3d 86ad 5b3e
000003b0: 47d7 6b3c fbd2 203e c9bf 9d3e c6a8 2f3d
000003c0: d54d 6f3e 021f 8cbe 4b13 5ebc ad1c 5abe
000003d0: 71f2 163d d80a 833d 8843 913d 31d6 fdbd
000003e0: 4bf2 0a3e 9bab 00be c9a6 76bd e142 8a3e
000003f0: 71ed 95be b27b 5a3d 76c5 7abe 9d38 dd3d

recurrent._batch_norm_1.weight f4 [32]
0.9265236 0.9982447 0.9754844 1.0028143 0.9794212 0.97391564 0.971867 0.9786665
0.99824965 1.0152433 0.96778274 1.075275 0.9765621 0.9900375 0.99133843 0.96797836
0.9419055 0.95658803 0.92802864 1.0042645 0.93270004 1.0102338 1.0136585 1.0069574
0.95738745 0.9702991 0.991446 1.0049765 1.0015658 0.9725992 0.9601849 0.9604916
00000000: a730 6d3f f78c 7f3f 58b9 793f 385c 803f
00000010: 59bb 7a3f 8952 793f 47cc 783f e389 7a3f
00000020: 4a8d 7f3f 7ef3 813f 9cc0 773f 9ca2 893f
00000030: f9ff 793f 1973 7d3f 5bc8 7d3f 6ecd 773f
00000040: b820 713f f4e2 743f 4993 6d3f bd8b 803f
00000050: 6ec5 6e3f 574f 813f 90bf 813f fbe3 803f
00000060: 5817 753f 8665 783f 68cf 7d3f 12a3 803f
00000070: 4f33 803f 43fc 783f adce 753f c7e2 753f

recurrent._batch_norm_1.bias f4 [32]
0.025504814 0.07387006 -0.0014190348 0.02605449 0.012261124 -0.0066698217 -0.005095234 0.003545719
-0.028364798 -0.00035549508 0.025767643 -0.069925226 -0.04081066 0.009179426 0.004303818 0.019683216
0.02133821 0.011538022 0.031064726 -0.03757815 0.025538934 -0.0046082377 -0.0071976264 -0.008559306
0.032532383 -0.041080415 0.0037151196 0.020363117 0.032796796 0.04284679 -0.031770345 0.045933146
00000000: 79ef d03c 3049 973d e8fe b9ba 3a70 d53c
00000010: e2e2 483c 858e dabb ecf5 a6bb 4b5f 683b
00000020: 4b5d e8bc be61 bab9 aa16 d33c f534 8fbd
00000030: 1429 27bd 4e65 163c 0b07 8d3b b23e a13c
00000040: 78cd ae3c f909 3d3c 747b fe3c 8ceb 19bd
00000050: 0737 d13c b300 97bb 11da ebbb 553c 0cbc
00000060: ad40 053d f043 28bd 5d79 733b 8dd0 a63c
00000070: ef55 063d 1e80 2f3d 9f21 02bd 6524 3c3d

recurrent._batch_norm_1.running_mean f4 [32]
2.1518295 0.0022963695 0.0020514582 0.0026147056 0.0013218604 2.8527339 1.7850257 5.4921274
4.2588177 1.3674064 0.0006381234 0.003055752 0.00956101 3.1467385 5.154645 0.002026559
5.336731 2.1560009 4.1242547 5.7095437 3.766066 5.252427 0.0062206183 7.0415516
3.1136158 0.0017421221 11.01548 2.1118147 0.0050102905 0.0022250633 0.0021482895 0.0021886993
00000000: 93b7 0940 b07e 163b c271 063b 7b5b 2b3b
00000010: 4642 ad3a 3193 3640 b97b e43f 82bf af40
00000020: 3c48 8840 2c07 af3f bd47 273a 0343 483b
00000030: c8a5 1c3c 2a64 4940 daf2 a440 05d0 043b
00000040: 80c6 aa40 ebfb 0940 e5f9 8340 95b4 b640
00000050: 3a07 7140 e213 a840 54d6 cb3b 6454 e140
00000060: 7b45 4740 eb57 e43a 683f 3041 f927 0740
00000070: 5d2d a43b 5ed2 113b 51ca 0c3b 4870 0f3b

recurrent._batch_norm_1.running_var f4 [32]
15.855004 0.0063369265 0.006633989 0.010120872 0.002353106 28.778975 11.442612 108.384125
64.59178 7.166931 0.0008546501 0.010554661 0.09594604 36.82683 95.27885 0.0047030183
100.496124 17.397089 60.165768 113.55967 50.537308 100.1617 0.039189782 176.5584
33.801865 0.004589988 422.5902 15.939813 0.026662748 0.007887059 0.0066182436 0.003981357
00000000: 19ae 7d41 fea5 cf3b ef61 d93b 04d2 253c
00000010: 9136 1a3b 573b e641 f014 3741 acc4 d842
00000020: fe2e 8142 8057 e540 990a 603a 75ed 2c3c
00000030: 5b7f c43d ad4e 1342 c58e be42 c71b 9a3b
00000040: 04fe c842 3d2d 8b41 bfa9 7042 8d1e e342
00000050: 3426 4a42 ca52 c842 7785 203d f38e 3043
00000060: 1c35 0742 9c67 963b 8c4b d343 7909 7f41
00000070: d66b da3c b938 013c dadd d83b 0b76 823b

recurrent._batch_norm_2.weight f4 [32]
0.900945 0.94799507 0.83784425 0.9512614 0.9894318 0.93983775 0.9638675 0.91353476
0.89514905 0.9145627 0.9741109 0.96060604 0.9225061 1.0063759 0.94148684 0.9287032
0.8596213 0.8671993 0.9550453 0.89396197 0.9426324 0.9359998 0.9423844 0.9454182
0.9468681 0.96407187 0.9162786 0.9704376 0.9384919 0.88266665 0.9097465 0.9224549
00000000: 55a4 663f ceaf 723f f67c 563f de85 733f
00000010: 674b 7d3f 3599 703f 05c0 763f 6add 693f
00000020: 7d28 653f c820 6a3f 555f 793f 47ea 753f
00000030: 5c29 6c3f edd0 803f 4805 713f 7ebf 6d3f
00000040: 2410 5c3f c600 5e3f d97d 743f b1da 643f
00000050: 5b50 713f af9d 6f3f 1b40 713f ed06 723f
00000060: f365 723f 6acd 763f 3c91 6a3f 996e 783f
00000070: 0141 703f 71f6 613f 26e5 683f 0126 6c3f

recurrent._batch_norm_2.bias f4 [32]
0.015306518 -0.064481184 0.040150285 0.013506318 0.0009573207 -0.034269225 -0.0064947503 -0.03122237
0.008963503 -0.020334901 0.018758448 -0.0138426395 0.03360031 0.01313485 -0.020814905 0.00228571
0.0044307257 0.038285773 0.013007867 0.034448612 -0.0074355374 0.03568332 -0.018149422 0.0011927071
-0.028143654 0.011744706 0.03282299 0.008539533 -0.01030409 0.02329968 0.014103631 -0.018658113
00000000: 31c8 7a3c b60e 84bd a074 243d 9b49 5d3c
00000010: b4f4 7a3a e35d 0cbd ead1 d4bb 0ec6 ffbc
00000020: a8db 123c 6195 a6bc 51ab 993c 3dcc 62bc
00000030: 7ba0 093d 8e33 573c 0584 aabc dacb 153b
00000040: 9f2f 913b 8bd1 1c3d f31e 553c fd19 0d3d
00000050: cfa5 f3bb ac28 123d 19ae 94bc 9c54 9c3a
00000060: 858d e6bc de6c 403c 6671 063d 66e9 0b3c
00000070: 7cd2 28bc f8de be3c ea12 673c e6d8 98bc

recurrent._batch_norm_2.running_mean f4 [32]
0.4774888 0.30061695 0.46218506 0.5339545 1.2482919 1.6715757 0.3911498 0.38308996
0.5852317 0.72024465 1.5426784 1.7769341 1.0421207 0.51566935 0.7228501 0.9275438
0.29820368 1.1772891 0.63765967 0.7165032 1.2821159 0.43063685 0.3289992 0.8676231
0.850256 0.45470446 0.85293746 0.83098674 0.72794324 1.0435688 0.33585474 0.83249146
00000000: 6979 f43e 77ea 993e 85a3 ec3e 3eb1 083f
00000010: 07c8 9f3f 31f6 d53f c944 c83e 5e24 c43e
00000020: bfd1 153f f461 383f 7c76 c53f 9472 e33f
00000030: 3664 853f e802 043f b40c 393f 8373 6d3f
00000040: 27ae 983e 69b1 963f aa3d 233f c16c 373f
00000050: 601c a43f 6f7c dc3e 9572 a83e 8c1c 5e3f
00000060: 61aa 593f 06cf e83e 1c5a 5a3f 8cbb 543f
00000070: 7d5a 3a3f aa93 853f 27f5 ab3e 291e 553f

recurrent._batch_norm_2.running_var f4 [32]
3.1901212 3.263058 2.2584314 9.949506 11.795241 15.117473 1.4166511 2.7825518
2.86058 5.7770557 14.918785 16.740738 8.263249 3.0549374 4.211652 5.960076
1.7367761 8.639786 3.9364016 7.535475 10.617304 2.9843936 1.6604576 4.8691454
6.06705 2.1323304 6.7653527 25.140154 4.1642575 7.16861 0.9928907 5.2183547
00000000: f22a 4c40 f1d5 5040 248a 1040 2d31 1f41
00000010: 4fb9 3c41 2be1 7141 d354 b53f 5415 3240
00000020: be13 3740 a4dd b840 58b3 6e41 08ed 8541
00000030: 4536 0441 1884 4340 dac5 8640 f1b8 be40
00000040: ae4e de3f 903c 0a41 01ee 7b40 9c22 f140
00000050: 7ae0 2941 4e00 3f40 e089 d43f 0ad0 9b40
00000060: 4625 c240 1a78 0840 c57d d840 091f c941
00000070: 9941 8540 4165 e540 162e 7e3f c3fc a640

recurrent._recurrent_1.weight_ih_l0 f4 [128, 64]
-0.1296028 0.117373504 0.18883422 0.15442286 -0.0150991315 -0.041017365 -0.056374207 0.009046375
0.012066321 -0.0055467943 0.06073693 -0.021682043 0.110943824 -0.102599345 -0.10552375 -0.051770885
-0.036167454 -0.1558636 -0.010528762 0.0069265566 0.026952408 -0.1333256 0.19446775 0.0028077075
0.08151035 0.13331237 -0.17034367 -0.025887014 0.14813156 0.082970046 0.16798168 0.0131478375
0.07632534 -0.052283082 -0.10850812 -0.04653384 -0.044678815 -0.08215483 -0.09661013 -0.053036496
-0.000110594614 -0.06708633 -0.15092275 0.12745595 -0.019504733 -0.09083538 -0.038679272 0.03443917
-0.037373696 0.058811318 -0.020528186 -0.06280823 0.027617935 0.15714341 -0.021273589 -0.012796054
0.08633424 0.11763634 0.025166137 0.012876138 -0.009034933 -0.028496403 -0.0040467633 -0.047694366
-0.09418157 -0.040546343 0.009139266 -0.19015607 0.117247276 -0.013408991 0.053661563 -0.059643447
-0.045147758 -0.035710473 -0.16498807 -0.10854984 -0.038888417 -0.16092467 -0.118076846 -0.13585469
0.042264502 0.08868615 -0.1831217 -0.1534848 0.09973375 -0.068716966 0.002373694 -0.07346599
-0.07290239 -0.05437249 0.014819895 -0.24151193 -0.17143096 -0.031543594 0.005730022 -0.07241129
0.1290054 -0.06796171 -0.07196543 -0.039853353 -0.165052 -0.094981536 0.105937704 -0.00013737445
-0.041153442 -0.071098216 -0.044644367 -0.069774576 0.03012901 -0.014606204 -0.115654245 0.047058355
0.03484147 0.03932609 0.10130969 0.03148541 -0.032216083 0.048807558 0.09496372 -0.20036519
-0.03828466 0.09458176 -0.024002152 -0.18149798 -0.084742434 -0.058620133 0.043470595 0.014590838
0.08436698 -0.05587874 0.05456362 0.036813077 -0.10334119 0.065974295 0.009148764 0.111306936
0.13603081 0.04832412 -0.019642835 0.19660859 0.033959568 -0.016550038 0.20869167 0.1395148
0.03859737 0.225269 0.043690227 0.0982605 0.17461771 -0.04051575 0.0035433108 -0.0045896466
0.04710268 -0.084071815 0.020510705 0.103128366 -0.14620693 -0.073959686 -0.046592627 -0.02321975
-0.18678282 0.0017010866 0.018022824 0.04858185 -0.17753182 0.052244533 -0.13647883 0.056170203
-0.013813949 -0.10176219 0.051654194 0.09893626 0.027460618 0.16879565 0.16336507 0.12285481
0.016071498 0.105775215 -0.09343115 0.066621915 0.07619401 0.061294314 -0.024947383 0.20348102
0.18332095 0.0042082234 0.014199362 -0.019473134 0.15818131 -0.108154334 -0.018633345 -0.18065709
-0.02452806 0.09769752 0.08193891 0.1275661 -0.16740277 -0.057001337 -0.15088029 0.009442642
-0.10972058 -0.1411835 -0.016773002 -0.078999445 0.079583876 -0.07081898 -0.05853547 0.06660381
-0.20878582 -0.07429304 -0.096599236 -0.17469512 -0.027939433 -0.11291798 0.06577037 0.18498902
0.020312577 -0.09608691 0.010494657 -0.15470453 0.09203566 0.11262487 0.20910646 -0.004323556
-0.06344943 0.065395676 -0.17016564 0.0042407946 -0.16075023 -0.01764626 0.049907472 0.17606702
-0.054066896 0.15181537 -0.029034998 0.04868245 -0.099530436 0.20656367 -0.02110501 -0.031535927
0.110034876 0.05528851 -0.0911513 0.034613665 -0.02171043 -0.06574598 0.111248985 0.002065736
0.05744204 -0.0071744802 0.019331189 -0.0018337462 -0.017188635 -0.05773588 -0.02435344 0.059467476
00000000: 99b6 04be 8561 f03d c25d 413e 0721 1e3e
00000010: 5962 77bc d301 28bd a4e8 66bd 3f37 143c
00000020: d2b1 453c e2c1 b5bb 4ac7 783d 8a9e b1bc
00000030: 8436 e33d 9b1f d2bd d61c d8bd b50d 54bd
00000040: 5324 14bd b59a 1fbe d480 2cbc 2bf8 e23b
00000050: 4ccb dc3c 8286 08be 8e22 473e 8401 383b
00000060: e6ee a63d 0a83 083e 926e 2ebe 0111 d4bc
00000070: cdaf 173e 33ec a93d 6403 2c3e 076a 573c
00000080: 7650 9c3d c926 56bd 8139 debd 459a 3ebd
00000090: 2201 37bd cb40 a8bd 88db c5bd cc3c 59bd
000000a0: 08ef e7b8 8f64 89bd 7e8b 1abe d083 023e
000000b0: 64c8 9fbc e607 babd 286e 1ebd 1610 0d3d
000000c0: 2915 19bd 23e4 703d ba2a a8bc 9aa1 80bd
000000d0: 023f e23c 34ea 203e f345 aebc 8aa6 51bc
000000e0: 02d0 b03d 52eb f03d 3729 ce3c 70f6 523c
000000f0: 4107 14bc 4a71 e9bc b69a 84bb 2b5b 43bd
00000100: 44e2 c0bd ec13 26bd dcbc 153c 46b8 42be
00000110: 571f f03d 62b1 5bbc 3acc 5b3d b04c 74bd
00000120: dbec 38bd 2545 12bd a2f2 28be 614f debd
00000130: 7649 1fbd 70c9 24be 46d2 f1bd 7e1d 0bbe
00000140: 8b1d 2d3d 16a1 b53d 4184 3bbe 1f2b 1dbe
00000150: 3541 cc3d 7bbb 8cbd fa8f 1b3b 5675 96bd
00000160: d94d 95bd b0b5 5ebd 25cf 723c e74e 77be
00000170: 998b 2fbe db33 01bd e9c2 bb3b 5f4c 94bd
00000180: fe19 043e 822f 8bbd 9d62 93bd 453d 23bd
00000190: 6403 29be ae85 c2bd def5 d83d 2c0c 10b9
000001a0: 8390 28bd f19b 91bd 03dd 36bd f9e5 8ebd
000001b0: 1dd1 f63c dc4e 6fbc 22dc ecbd 43c0 403d
000001c0: eeb5 0e3d 6514 213d 747b cf3d d8f6 003d
000001d0: 03f5 03bd 6fea 473d 577c c23d 882c 4dbe
000001e0: 60d0 1cbd 15b4 c13d 29a0 c4bc 9bda 39be
000001f0: 718d adbd aa1b 70bd 390e 323d 690e 6f3c
00000200: 98c8 ac3d 1be1 64bd 1a7e 5f3d 4fc9 163d
00000210: 8ca4 d3bd 881d 873d b3e4 153c e4f4 e33d
00000220: a94b 0b3e 83ef 453d 03ea a0bc c353 493e
00000230: 3019 0b3d f293 87bc 45b3 553e f8dc 0e3e
00000240: 4718 1e3d ebac 663e 86f4 323d cd3c c93d
00000250: fcce 323e d8f3 25bd e436 683b bf64 96bb
00000260: bdee 403d d82d acbd 1106 a83c f734 d33d
00000270: 45b7 15be 2d78 97bd e9d7 3ebd 5837 bebc
00000280: ff43 3fbe fff6 de3a 9aa4 933c c3fd 463d
00000290: e7ca 35be 5dfe 553d 1bc1 0bbe ba12 663d
000002a0: e753 62bc b268 d0bd 5993 533d 189f ca3d
000002b0: 17f5 e03c c4d8 2c3e 2c49 273e 4d9b fb3d
000002c0: 60a8 833c ada0 d83d d558 bfbd 1271 883d
000002d0: 9b0b 9c3d bf0f 7b3d 745e ccbc 545d 503e
000002e0: 7db8 3b3e 23e5 893b 71a4 683c 1f86 9fbc
000002f0: 48fa 213e 0580 ddbd f5a4 98bc 2cfe 38be
00000300: 12ef c8bc a315 c83d 96cf a73d b0a0 023e
00000310: a26b 2bbe 3c7a 69bd 5d80 1abe 50b5 1a3c
00000320: 2fb5 e0bd 6892 10be 8967 89bc 76ca a1bd
00000330: dffc a23d 8b09 91bd e4c2 6fbd 9467 883d
00000340: f3cb 55be f326 98bd d2d5 c5bd 47e3 32be
00000350: 3de1 e4bc 8b41 e7bd 9eb2 863d c36d 3d3e
00000360: 9066 a63c 37c9 c4bd c8f1 2b3c dd6a 1ebe
00000370: 317d bc3d dea7 e63d 0120 563e 9eac 8dbb
00000380: c6f1 81bd 2bee 853d e73f 2ebe 5df6 8a3b
00000390: b59b 24be e48e 90bc c76b 4c3d ea4a 343e
000003a0: 4075 5dbd 7d75 1b3e ceda edbc 4067 473d
000003b0: 9dd6 cbbd 6d85 533e 6ae4 acbc d12b 01bd
000003c0: f759 e13d 3476 623d 88ad babd 0fc7 0d3d
000003d0: 12da b1bc d4a5 86bd 82d6 e33d 4d61 073b
000003e0: 5848 6b3d e717 ebbb 715c 9e3c 505a f0ba
000003f0: 2ecf 8cbc 757c 6cbd de80 c7bc 2b94 733d

recurrent._recurrent_1.weight_hh_l0 f4 [128, 32]
0.006505577 -0.081063055 -0.094508804 -0.06358798 0.09011618 -0.12510516 0.16079421 -0.10938683
0.04956935 0.17585662 -0.07815269 -0.118180014 -0.09163974 -0.074132115 -0.108554535 -0.17418946
-0.09085168 -0.0614567 0.15315503 -0.03016808 0.020598618 -0.055474754 0.027555378 0.0842142
0.030888181 -0.021757467 0.01488652 0.16681068 -0.1177431 0.1734251 -0.03926337 0.12604949
0.13691065 0.006149204 0.0039802217 0.12253775 -0.024560127 0.04864665 0.16913883 -0.034996867
-0.062264506 0.13708816 0.15882102 0.16951892 -0.16679172 0.116407886 0.08701246 -0.11280062
0.115456484 -0.09493965 0.093503244 0.015113164 0.055729218 -0.10868077 -0.034179177 -0.09610141
0.096174516 -0.14042856 0.012377918 0.068293825 -0.0041132583 -0.053186983 0.040324293 0.013964157
-0.09745548 -0.04800136 -0.038664527 -0.09962942 0.0043754117 -0.054916352 -0.09993715 -0.14322338
-0.115271084 -0.038485635 0.14139062 -0.020799048 -0.09491729 -0.13481474 0.030142583 0.15031505
-0.15930432 0.13631621 0.15790485 0.03999464 0.08819251 0.052493036 -0.15454733 -0.07051193
-0.04138441 -0.10541696 -0.0055572935 0.037296146 0.0060456493 0.096435525 -0.104177 0.14869846
-0.07189348 0.14174436 0.16034862 -0.14442034 -0.16940606 0.1311845 0.13457428 -0.018925663
0.036658254 0.026060745 -0.053975992 0.09301609 0.059646934 -0.17053522 -0.048765652 -0.10499149
0.075884074 -0.17650405 -0.15192232 -0.15582551 -0.060719065 -0.1363284 -0.035237316 -0.10059707
0.11364714 0.155102 0.06838537 -0.068590306 0.072125435 -0.15179157 -0.08841778 -0.037058543
-0.16528112 0.16576925 0.11583899 0.08189345 0.08308347 0.17396253 -0.06721514 0.042404704
-0.059444755 -0.030008998 -0.14492206 0.105699845 -0.12733595 -0.07900452 0.15759021 -0.10374685
0.022723263 -0.16224138 -0.1026582 0.16038431 0.095072664 0.007490317 -0.088134915 0.1348194
0.16639383 0.035425752 -0.11395981 0.0060899667 0.08612032 0.0516238 0.15907498 0.15919648
0.089541234 -0.122949 -0.009556018 0.03423247 -0.0589642 0.052877013 0.11538309 -0.0955092
-0.05388917 -0.13446741 0.02745924 0.10581634 0.1598884 0.009269019 0.11511526 -0.17072338
-0.0038419801 -0.033351075 -0.0814067 0.16364968 0.11038563 -0.14731699 -0.16053325 -0.08281461
0.060007293 0.08386822 0.09151105 0.1366548 -0.113143824 0.014902304 -0.07877914 -0.08575573
0.0017100452 -0.015558446 -0.14322647 -0.002571084 0.08500478 0.15854043 -0.047773577 0.1195426
-0.03953973 -0.13003713 0.15290229 -0.041782804 -0.041073978 -0.029908225 0.15933225 -0.075496025
-0.04694295 0.01029717 -0.115740575 0.068938226 0.1488327 0.06391472 -0.04251091 -0.033823773
-0.17325594 -0.13935402 -0.048461456 0.097995386 0.16442797 -0.012388033 -0.016961029 0.12094974
-0.037072893 -0.120597474 0.10010397 -0.076432824 -0.12589383 0.0015219016 -0.11761303 -0.13786983
-0.09744347 -0.015338018 0.058838326 -0.0732452 -0.16906293 -0.060169116 0.16442762 -0.04082348
-0.12905844 -0.06616663 0.15920559 0.028194133 -0.024781503 0.1729429 0.018229524 0.026892576
0.17422353 -0.01814719 -0.031139165 0.1414455 0.056039397 -0.12401261 0.11315331 -0.074099235
00000000: bc2c d53b 6304 a6bd d58d c1bd 6a3a 82bd
00000010: d58e b83d 911b 00be 3da7 243e 3406 e0bd
00000020: 3b09 4b3d c213 343e 840e a0bd 5d08 f2bd
00000030: 9ead bbbd 94d2 97bd d751 debd b95e 32be
00000040: 7210 babd 05ba 7bbd acd4 1c3e 0d23 f7bc
00000050: 6fbe a83c 7f39 63bd d1bb e13c 7f78 ac3d
00000060: 3609 fd3c b73c b2bc 97e6 733c 6bd0 2a3e
00000070: 4b23 f1bd 5996 313e a1d2 20bd 1e13 013e
00000080: 4e32 0c3e 437f c93b 856c 823b 12f5 fa3d
00000090: 5232 c9bc b641 473d bb32 2d3e e058 0fbd
000000a0: 1109 7fbd d760 0c3e faa1 223e 5e96 2d3e
000000b0: 73cb 2abe 4267 ee3d 9733 b23d 0304 e7bd
000000c0: 7374 ec3d b86f c2bd a17e bf3d 349d 773c
000000d0: 5244 643d 0694 debd 77ff 0bbd d1d0 c4bd
000000e0: 25f7 c43d 81cc 0fbe c0cc 4a3c a2dd 8b3d
000000f0: 83c8 86bb 98da 59bd 162b 253d ebc9 643c
00000100: bd96 c7bd 139d 44bd b25e 1ebd 820a ccbd
00000110: 9d5f 8f3b f8ef 60bd d9ab ccbd 26a9 12be
00000120: 3f13 ecbd 1da3 1dbd b4c8 103e c462 aabc
00000130: ff63 c2bd e00c 0abe 94ed f63c 30ec 193e
00000140: ac20 23be 7a96 0b3e cfb1 213e 6bd1 233d
00000150: 469e b43d f002 573d a841 1ebe 8f68 90bd
00000160: b382 29bd d9e4 d7bd f519 b6bb d8c3 183d
00000170: 951a c63b fd7f c53d c05a d5bd 6944 183e
00000180: e43c 93bd 6f25 113e 6e32 243e ede2 13be
00000190: c878 2dbe 3b55 063e d7cd 093e fe09 9bbc
000001a0: f726 163d 587d d53c ee15 5dbd 387f be3d
000001b0: 5850 743d c9a0 2ebe 7ebe 47bd c705 d7bd
000001c0: 1c69 9b3d 7abd 34be 8691 1bbe b990 1fbe
000001d0: 8eb4 78bd ac99 0bbe 0155 10bd d605 cebd
000001e0: d5bf e83d 0fd3 1e3e a10d 8c3d 1379 8cbd
000001f0: 80b6 933d 406f 1bbe 6214 b5bd b3ca 17bd
00000200: 743f 29be 6abf 293e fe3c ed3d c1b7 a73d
00000210: ab27 aa3d 3c23 323e 17a8 89bd 8eb0 2d3d
00000220: 587c 73bd 6ed5 f5bc 7366 14be 2979 d83d
00000230: 5b64 02be 1fcd a1bd 545f 213e 3a79 d4bd
00000240: 2326 ba3c 9b22 26be 763e d2bd c93b 243e
00000250: 75b5 c23d 5571 f53b 1480 b4bd 190e 0a3e
00000260: 2563 2a3e 981a 113d c363 e9bd 588e c73b
00000270: da5f b03d 7a73 533d 8de4 223e 6704 233e
00000280: 6561 b73d afcc fbbd d890 1cbc 5937 0c3d
00000290: 7284 71bd 9195 583d f84d ec3d 549a c3bd
000002a0: e4ba 5cbd d3b1 09be 33f2 e03c 3db6 d83d
000002b0: c9b9 233e 15dd 173c 8dc1 eb3d 1cd2 2ebe
000002c0: bbc9 7bbb 239b 08bd 8eb8 a6bd c893 273e
000002d0: dc11 e23d 44da 16be d462 24be b59a a9bd
000002e0: 35ca 753d 1ac3 ab3d 256a bb3d 3cef 0b3e
000002f0: f3b7 e7bd cb28 743c f556 a1bd b3a0 afbd
00000300: 9823 e03a dae8 7ebc f6a9 12be a27f 28bb
00000310: fc16 ae3d 6c58 223e 3aae 43bd c0d2 f43d
00000320: 69f4 21bd 7428 05be 6b92 1c3e 7224 2bbd
00000330: 303d 28bd 1802 f5bc fe27 233e a99d 9abd
00000340: 4047 40bd 76b5 283c 6509 edbd 7c2f 8d3d
00000350: 9967 183e b9e5 823d ec1f 2ebd cc8a 0abd
00000360: 016a 31be d2b2 0ebe 857f 46bd ceb1 c83d
00000370: ce5f 283e 2df7 4abc dbf1 8abc 7fb4 f73d
00000380: bfd9 17bd cffb f6bd 4f03 cd3d d088 9cbd
00000390: 50ea 00be 8b7a c73a 1adf f0bd c02d 0dbe
000003a0: 7190 c7bd 4f4c 7bbc 7500 713d 9401 96bd
000003b0: d51e 2dbe e473 76bd b75f 283e 8536 27bd
000003c0: e527 04be 5f82 87bd ca06 233e 62f7 e63c
000003d0: 9402 cbbc f217 313e 1556 953c d24d dc3c
000003e0: a767 323e 6aa9 94bc 9017 ffbc 17d7 103e
000003f0: 9189 653d 53fa fdbd ecbc e73d 57c1 97bd

recurrent._recurrent_1.bias_ih_l0 f4 [128]
0.11563621 0.13149081 -0.16897818 0.07932153 -0.00723495 -0.046874084 0.031050878 -0.15879989
0.11603744 0.071588226 0.16415812 0.019408355 -0.07306941 -0.06528739 -0.0536874 -0.18779139
0.042871166 -0.023112241 -0.102850005 -0.12991028 -0.09581491 0.009261351 0.104549855 0.08924579
0.10145799 0.10465582 -0.116598405 -0.0029732957 -0.17329533 -0.13725539 0.053216863 0.01100595
0.078322075 0.15122724 0.07180276 -0.08661112 -0.03654172 0.013008624 0.090111054 -0.0909518
-0.07391556 0.067665145 0.05955786 0.16762151 0.14578907 -0.08203922 0.060749624 -0.10897784
-0.007479527 -0.014951257 0.0399122 0.15492733 -0.13830128 0.16269022 0.123315796 -0.085544236
-0.04772962 -0.03878336 0.11084737 -0.045381553 0.06215124 -0.07002465 0.14272943 -0.028387608
0.122272946 -0.24238966 -0.08162481 0.036285788 0.12758586 -0.13965736 -0.22386609 -0.2422161
-0.15382305 -0.1602234 -0.20010339 -0.06299871 -0.008174419 -0.088411555 -0.2003136 -0.10860027
-0.10142704 -0.18010631 -0.045361526 -0.107936636 -0.15739304 -0.24633661 -0.25615886 -0.17513429
0.064160354 -0.02837565 0.23599961 0.06436996 -0.17783901 -0.052665602 0.03808214 -0.05268985
-0.011628763 0.15497243 -0.22668229 -0.13496108 -0.14537704 -0.009209528 -0.10266345 -0.093048334
0.17275673 -0.09661962 0.07074971 0.09756308 0.11216059 0.09743939 0.10106849 -0.027629895
0.12650311 0.11460309 -0.16834804 0.0035906823 0.06380761 -0.14756782 0.03673069 0.10864922
-0.028387966 -0.0905197 -0.050663315 0.15269195 -0.16645809 0.030833194 -0.11549571 0.056862693
00000000: add2 ec3d 87a5 063e 9e08 2dbe 5473 a23d
00000010: 2913 edbb 0aff 3fbd 695e fe3c 709c 22be
00000020: 0aa5 ed3d d99c 923d 1119 283e 45fe 9e3c
00000030: 6aa5 95bd 65b5 85bd 52e7 5bbd 634c 40be
00000040: ad99 2f3d e255 bdbc 06a3 d2bd 3307 05be
00000050: 9c3a c4bd ecbc 173c 3c1e d63d 7fc6 b63d
00000060: 35c9 cf3d ca55 d63d 25cb eebd a0db 42bb
00000070: 5574 31be ad8c 0cbe edf9 593d 4d52 343c
00000080: 5367 a03d 50db 1a3e 530d 933d 2c61 b1bd
00000090: c5ac 15bd 2022 553c 258c b83d f044 babd
000000a0: 0b61 97bd 0694 8a3d f1f2 733d f9a4 2b3e
000000b0: bb49 153e 2e04 a8bd 99d4 783d c62f dfbd
000000c0: d216 f5bb 1ef6 74bc fa7a 233d 45a5 1e3e
000000d0: da9e 0dbe 4498 263e fe8c fc3d d131 afbd
000000e0: 2280 43bd 4ddb 1ebd f203 e33d 02e2 39bd
000000f0: 4c92 7e3d 1569 8fbd aa27 123e 218d e8bc
00000100: 3d6a fa3d ff34 78be e92a a7bd 68a0 143d
00000110: dea5 023e 5702 0fbe 273d 65be 7f07 78be
00000120: ca83 1dbe 9a11 24be e7e7 4cbe 7805 81bd
00000130: 00ee 05bc 1e11 b5bd 021f 4dbe d169 debd
00000140: fbb8 cfbd ca6d 38be 02cd 39bd e20d ddbd
00000150: a42b 21be aa3f 7cbe 4127 83be 6756 33be
00000160: 8166 833d 0d74 e8bc e2a9 713e 66d4 833d
00000170: 6e1b 36be e3b7 57bd 05fc 1b3d 50d1 57bd
00000180: 9186 3ebc 18b1 1e3e 671f 68be 3d33 0abe
00000190: b8dd 14be 8fe3 16bc 3741 d2bd 2090 bebd
000001a0: 24e7 303e 82e0 c5bd 39e5 903d 27cf c73d
000001b0: 74b4 e53d 4e8e c73d fffc ce3d 1758 e2bc
000001c0: 088a 013e 06b5 ea3d 6e63 2cbe a751 6b3b
000001d0: 90ad 823d 051c 17be ec72 163d 7b83 de3d
000001e0: e18d e8bc 6462 b9bd 5684 4fbd 475b 1c3e
000001f0: fd73 2abe e595 fc3c 0489 ecbd dbe8 683d

recurrent._recurrent_1.bias_hh_l0 f4 [128]
-0.13252743 0.040503673 0.04273828 -0.07564394 -0.016598836 0.122036226 0.18347056 0.089864895
0.004499576 -0.04600624 -0.11749006 0.10727708 0.053752307 0.10169213 -0.11114505 0.015907496
0.01735119 -0.102125764 -0.066768035 0.00856712 -0.10443704 0.12786385 -0.18711512 -0.008237192
-0.11525116 0.09662957 -0.09331929 -0.039929144 0.1273468 -0.19001114 -0.07425384 0.09684294
0.12420794 -0.050345294 -0.03326381 -0.084248744 0.034982916 0.051822647 0.11942103 0.07759711
0.089167476 -0.028151944 -0.12633888 0.097608246 -0.0030703768 -0.11567369 0.01581689 0.1749097
-0.0149042215 -0.14767064 0.10676092 0.13145174 -0.11296889 -0.15461528 -0.12648353 0.0726827
-0.07255032 -0.17364965 -0.01268559 -0.08981586 -0.05232801 -0.069769405 -0.059317686 -0.11509986
-0.08262517 -0.22219758 -0.05220398 -0.18810947 0.080383845 0.07520098 -0.15108532 -0.13199833
-0.03617527 -0.12104226 -0.21544744 0.032796614 -0.17635123 -0.03239461 -0.13649145 -0.3075767
-0.061867557 -0.00073680957 0.10623306 -0.14261782 0.04429954 -0.20714174 -0.09362497 -0.25972655
-0.05011277 0.008960162 0.20285204 0.09557244 0.03818 -0.10724583 0.25724992 -0.29942188
-0.09955811 -0.047765348 0.05059437 -0.016351465 0.17729548 -0.14418556 0.068752535 -0.16827977
0.060063455 -0.11848991 -0.09376316 0.0033259436 0.0015231238 0.12708217 0.13372456 -0.0360372
0.037695408 -0.020088252 -0.08432706 -0.16113277 -0.19982928 -0.011006958 -0.101431035 0.15999703
-0.11144434 0.008655703 -0.121446475 0.17498188 0.049366776 0.057793003 0.028160319 -0.08803791
00000000: 45b5 07be 2ee7 253d 560e 2f3d 36eb 9abd
00000010: 48fa 87bc 21ee f93d b5df 3b3e 160b b83d
00000020: 2e71 933b 0a71 3cbd a19e f0bd 16b4 db3d
00000030: 612b 5c3d f743 d03d 04a0 e3bd 7050 823c
00000040: 1524 8e3c 5027 d1bd aebd 88bd 1b5d 0c3c
00000050: 16e3 d5bd beee 023e 1b9b 3fbe 4af5 06bc
00000060: cd08 ecbd b9e5 c53d 2f1e bfbd be8c 23bd
00000070: 3367 023e 4892 42be 6612 98bd 9755 c63d
00000080: bc60 fe3d de36 4ebd a23f 08bd 9b8a acbd
00000090: 3f4a 0f3d fc43 543d 0393 f43d 3ceb 9e3d
000000a0: 709d b63d e89e e6bc fb5e 01be d5e6 c73d
000000b0: 6038 49bb 54e6 ecbd 6c92 813c 871b 333e
000000c0: d630 74bc f936 17be 78a5 da3d 499b 063e
000000d0: 3c5c e7bd 7853 1ebe e684 01be abda 943d
000000e0: 4395 94bd 37d1 31be 39d7 4fbc 61f1 b7bd
000000f0: e555 56bd 43e3 8ebd 1af7 72bd 7ab9 ebbd
00000100: 6337 a9bd c387 63be d7d3 55bd c59f 40be
00000110: 49a0 a43d f902 9a3d 1cb6 1abe 922a 07be
00000120: 852c 14bd 01e5 f7bd 419e 5cbe be55 063d
00000130: 6b95 34be 36b0 04bd 6ac4 0bbe b17a 9dbe
00000140: d668 7dbd 7426 41ba b890 d93d 680a 12be
00000150: 6f73 353d f71c 54be 73be bfbd e1fa 84be
00000160: 0c43 4dbd a5cd 123c 72b8 4f3e 7cbb c33d
00000170: a262 1c3d b4a3 dbbd 43b6 833e d34d 99be
00000180: 1fe5 cbbd 99a5 43bd 0b3c 4f3d 82f3 85bc
00000190: f28c 353e 61a5 13be 21ce 8c3d 8851 2cbe
000001a0: 1905 763d d7aa f2bd e606 c0bd 13f8 593b
000001b0: 8ea3 c73a d421 023e 17ef 083e be9b 13bd
000001c0: 8066 1a3d 1e90 a4bc aab3 acbd fdff 24be
000001d0: 0ca0 4cbe 8756 34bc 13bb cfbd 43d6 233e
000001e0: ee3c e4bd a6d0 0d3c eeb8 f8bd 732e 333e
000001f0: d134 4a3d 5bb8 6c3d 78b0 e63c 384d b4bd

recurrent._recurrent_2.weight_ih_l0 f4 [128, 32]
0.060755923 -0.01782197 -0.074185096 -0.058392428 0.01455177 0.18791905 0.3627563 -0.08540502
0.11522051 -0.109539375 0.36199713 0.13073872 -0.04112672 -0.060301714 0.061452016 0.25563076
0.13339698 0.07510154 -0.023071764 -0.032590985 0.22420184 0.19888641 0.027541628 0.161488
0.024820354 -0.11323305 -0.12722717 0.042998504 -0.28118604 0.15774293 -0.11324551 0.18599425
0.0916281 0.06720249 -0.064768426 0.05272156 -0.013417413 0.021852354 0.0966896 -0.019376082
0.19344822 0.08949953 -0.09490732 0.106249794 0.03842462 -0.04667183 0.030501788 0.20160921
0.15873992 -0.09381894 0.18337068 0.19516107 0.12296718 0.11779831 0.020497935 0.0503489
-0.054533076 -0.030000824 0.03564967 0.063998245 -0.10101516 -0.12608393 -0.07881973 0.022829376
-0.02771884 -0.17700417 0.1336028 -0.2055835 0.06518395 0.13106762 -0.062355585 -0.011442741
0.1561764 0.13893794 0.16782181 -0.03371351 0.1072476 0.07502774 -0.02916042 0.16721274
0.048483863 0.13987482 -0.12236888 0.026631806 -0.14132077 0.04682882 0.051261656 0.1281833
0.1227605 -0.062290467 0.05464013 -0.14173974 0.15656163 0.086475596 -0.016744718 0.022884194
0.036837537 -0.05545058 0.12170548 0.08130078 0.14452393 0.07282377 0.018119853 0.22716261
0.21126403 -0.100397035 0.1361219 0.25145704 0.06910828 -0.016552188 0.10904208 0.16281267
0.07364941 0.13554342 -0.020194976 0.02365831 0.238628 0.15387265 0.1086259 0.136051
0.15286967 0.1928739 0.1190992 -0.11085982 0.004283824 0.12327156 0.11818001 0.18485616
-0.04245904 -0.0028878034 0.024152325 0.1852587 -0.025814652 0.21935381 0.026316563 0.04282387
0.27299184 0.03524068 0.11818106 0.002807775 0.18562476 -0.04381782 -0.017746663 0.060814366
0.08651768 0.14850903 -0.0625965 0.044691198 0.17973572 0.28899807 0.092773445 0.16793029
0.35608068 0.07328149 0.019630715 0.047517885 0.26846 0.10690776 -0.008840986 -0.122260705
0.18260762 -0.11700724 0.14687413 -0.108654104 0.07325199 0.022120051 0.15521593 -0.13044068
0.11519092 0.1846808 0.035025716 0.13899747 0.14066707 0.0056304494 0.11488141 -0.014972198
0.101575054 -0.14179265 -0.05059292 -0.07528353 -0.11570773 -0.07851466 -0.055895057 -0.007018237
-0.009950763 0.13026255 0.09845111 -0.056896858 0.12307659 -0.09638538 -0.054814436 0.1642799
0.19043724 0.08826907 -0.11600493 0.10027581 -0.13751121 0.08630232 -0.08472684 0.12553422
-0.041380886 -0.1823009 -0.111138575 -0.08816932 -0.011737827 -0.05080913 -0.16208817 0.01451074
0.10549362 0.114452064 0.018893953 0.1239366 -0.08927485 0.13848819 -0.07459885 -0.130826
-0.077443145 0.0058428007 -0.047761437 0.15586232 -0.030843653 0.034335095 -0.009725891 -0.096267775
0.06452153 0.013805944 -0.010657428 0.034631874 0.035188 -0.06077263 -0.0037067644 0.097551286
0.19959952 -0.0925415 -0.11080358 0.07629888 0.11155056 -0.09786769 0.20731443 0.15704802
0.19122794 -0.0016579446 0.12145528 -0.056199655 0.015382749 0.182921 -0.07754134 -0.025691198
0.05928089 0.083475694 0.017881444 -0.11248638 -0.00349957 0.15516645 -0.12531418 -0.015267666
00000000: 34db 783d 61ff 91bc 5bee 97bd e62c 6fbd
00000010: 8c6a 6e3c da6d 403e 32bb b93e d4e8 aebd
00000020: bbf8 eb3d 2e56 e0bd b057 b93e 5fe0 053e
00000030: 7e74 28bd eefe 76bd 1cb5 7b3d 09e2 823e
00000040: 3899 083e d6ce 993d ff00 bdbc 207e 05bd
00000050: 2b95 653e e1a8 4b3e fb9e e13c 1c5d 253e
00000060: 0e54 cb3c bbe6 e7bd d747 02be 331f 303d
00000070: 9ef7 8fbe 5d87 213e 43ed e7bd 4775 3e3e
00000080: 83a7 bb3d 76a1 893d 4fa5 84bd 90f2 573d
00000090: b6d4 5bbc b503 b33c 3205 c63d 97ba 9ebc
000000a0: 4a17 463e 884b b73d c55e c2bd 7e99 d93d
000000b0: 2263 1d3d f62a 3fbd e3de f93c a572 4e3e
000000c0: b88c 223e 2524 c0bd 86c5 3b3e 4ed8 473e
000000d0: 38d6 fb3d 3e40 f13d 49eb a73c a63a 4e3d
000000e0: 135e 5fbd 4ac4 f5bc 6305 123d 8311 833d
000000f0: 09e1 cebd 251c 01be 3d6c a1bd ac04 bb3c
00000100: 9f12 e3bc 9540 35be 2ccf 083e 7b84 52be
00000110: 2a7f 853d 9736 063e 9268 7fbd 567a 3bbc
00000120: b5ec 1f3e bf45 0e3e 7bd9 2b3e 2d17 0abd
00000130: a1a4 db3d 25a8 993d d5e1 eebc d139 2b3e
00000140: 0497 463d 583b 0f3e 899c fabd f22a da3c
00000150: 64b6 10be 94cf 3f3d bef7 513d 7c42 033e
00000160: db69 fb3d 4a24 7fbd 54ce 5f3d 3924 11be
00000170: b151 203e 1e1a b13d 382c 89bc a277 bb3c
00000180: f5e2 163d 2620 63bd b940 f93d 0681 a63d
00000190: 15fe 133e a124 953d 1670 943c 519d 683e
000001a0: 9955 583e f69c cdbd 8a63 0b3e fabe 803e
000001b0: a488 8d3d 7498 87bc 7451 df3d 5db8 263e
000001c0: 80d5 963d e5cb 0a3e ef6f a5bc 12cf c13c
000001d0: e65a 743e cb90 1d3e 4177 de3d f450 0b3e
000001e0: de89 1c3e bc80 453e 48ea f33d 790a e3bd
000001f0: 525f 8c3b cd75 fc3d 5c08 f23d ef4a 3d3e
00000200: 88e9 2dbd 4d41 3dbb 19db c53c 75b4 3d3e
00000210: 4079 d3bc 499e 603e d595 d73c 1568 2f3d
00000220: 96c5 8b3e 8858 103d e908 f23d a602 383b
00000230: 6b14 3e3e 507a 33bd 7361 91bc 7c18 793d
00000240: 2e30 b13d c012 183e 9832 80bd 1e0e 373d
00000250: a40c 383e 8ef7 933e 0100 be3d ebf5 2b3e
00000260: 3550 b63e 9b14 963d 98d0 a03c 1da2 423d
00000270: 9773 893e 75f2 da3d c8d9 10bc d263 fabd
00000280: 7efd 3a3e 7ea1 efbd 2c66 163e 0b86 debd
00000290: 2405 963d 1c35 b53c edf0 1e3e 3e92 05be
000002a0: 38e9 eb3d f71c 3d3e 2077 0f3d 5a55 0e3e
000002b0: 070b 103e a27f b83b f246 eb3d f34d 75bc
000002c0: 9506 d03d 1832 11be 863a 4fbd 402e 9abd
000002d0: 2df8 ecbd 4bcc a0bd 37f2 64bd 3df9 e5bb
000002e0: 8608 23bc 8c63 053e bca0 c93d ae0c 69bd
000002f0: 940f fc3d b365 c5bd 1a85 60bd fd38 283e
00000300: fb01 433e 6ac6 b43d fe93 edbd 675d cd3d
00000310: bdcf 0cbe 45bf b03d 4485 adbd 0b8c 003e
00000320: 017f 29bd 16ad 3abe 9f9c e3bd 1e92 b4bd
00000330: 0450 40bc 3c1d 50bd 71fa 25be 74be 6d3c
00000340: 0a0d d83d d865 ea3d 7ec7 9a3c 79d2 fd3d
00000350: bcd5 b6bd d9cf 0d3e 48c7 98bd 40f7 05be
00000360: 839a 9ebd f774 bf3b 7fa1 43bd 5f9a 1f3e
00000370: d4ab fcbc f5a2 0c3d 5859 1fbc 0a28 c5bd
00000380: dd23 843d 5332 623c 7e9c 2ebc 27da 0d3d
00000390: 4b21 103d b9ec 78bd 30ed 72bb f8c8 c73d
000003a0: d163 4c3e 6686 bdbd fdec e2bd 9642 9c3d
000003b0: 9f74 e43d db6e c8bd 3c4a 543e 32d1 203e
000003c0: 42d1 433e 644f d9ba 8cbd f83d 9c31 66bd
000003d0: ed07 7c3c a54f 3b3e fecd 9ebd 5976 d2bc
000003e0: 85d0 723d 4ef5 aa3d 1b7c 923c 425f e6bd
000003f0: 0b59 65bb f4e3 1e3e 5c52 00be 3c25 7abc
