TFM/experimentos_split/results/branch_trip/MSTGCN.pt (torch, 41730 bytes, 20 tensors)

recurrent._blocklist.0._cheb_conv.bias f4 [8]
1.0312432 0.4430324 -0.0276478 0.017599007 0.9928776 -0.032309342 0.30781397 0.78668284
00000000: c7ff 833f 25d5 e23e a47d e2bc cb2b 903c
00000010: 3a2d 7e3f cd56 04bd cb99 9d3e 0c64 493f

recurrent._blocklist.0._cheb_conv.lins.0.weight f4 [8, 1]
-0.6095979 0.79134786 -0.04474583 0.309066 0.06725877 0.08283338 0.52056944 -0.7444429
00000000: 9c0e 1cbf c695 4a3f 6747 37bd e63d 9e3e
00000010: f7be 893d 8ca4 a93d 0a44 053f cf93 3ebf

recurrent._blocklist.0._cheb_conv.lins.1.weight f4 [8, 1]
0.012770045 -0.3199814 0.6471975 0.58004904 -0.31507453 0.46133146 -0.13729948 0.48791075
00000000: 7339 513c 9ad4 a3be bcae 253f 187e 143f
00000010: 7351 a1be a333 ec3e 3c98 0cbe 70cf f93e

recurrent._blocklist.0._time_conv.weight f4 [8, 8, 1, 3]
-0.19347487 -0.3152494 0.026723394 0.19538921 0.3452955 0.14418064 -0.12838803 0.10218699
0.0392772 0.3486057 0.17407025 0.33880487 0.023730196 -0.26701924 -0.22334324 0.35149267
0.3327187 0.13014762 -0.23066908 0.2860761 0.17949091 -0.3194645 0.02683937 0.25071746
-0.10301106 0.17786108 0.26712173 -0.18641302 0.1694247 0.24714312 0.30490595 -0.32894668
0.0029238535 0.22465248 0.25792193 -0.13973366 0.20186113 0.22971864 -0.058259 0.20067662
0.18733627 -0.073673315 -0.20892292 -0.2521345 -0.3533798 -0.17294377 0.1756738 0.22365168
-0.18860586 -0.13287762 0.12489752 0.08073992 -0.20958291 0.3400811 0.22834642 0.034110527
0.1678947 -0.26169318 0.23000005 0.11650681 -0.023112046 -0.10064766 0.30032703 0.08780772
-0.20724145 0.15698616 0.09428949 -0.08518046 0.29314283 0.40601465 -0.0009593201 -0.1520205
-0.12871687 -0.16165045 0.188245 0.22652124 -0.21408099 0.20185572 -0.022445047 -0.04682458
-0.1452467 -0.57646114 -0.48951524 0.076595254 -0.049900547 -0.016039433 -0.21135166 -0.12694235
-0.1905949 -0.017431565 -0.32993978 0.036300346 -0.3051268 -0.15472773 0.08783764 0.05834288
-0.25992748 0.042942278 -0.14930801 0.066715136 0.14158486 0.020035937 -0.28508836 -0.0782005
0.28041458 0.23339967 0.17548051 0.37120605 -0.2113975 -0.1306855 -0.07681585 -0.056606937
0.36130568 -0.29077026 0.0611129 0.34483534 -0.19562447 0.26571047 -0.28613058 0.056396503
-0.23586673 0.085355975 0.0675354 0.047260135 -0.10807375 -0.14226812 -0.34069964 0.075957686
0.35094956 -0.25302216 -0.1077269 0.1139626 0.14936967 0.0995463 0.19864286 0.05232483
-0.06228578 -0.2756706 -0.3837647 -0.29780272 0.14551067 0.24098422 0.27463162 0.2278593
0.11285326 0.3513087 0.25790197 -0.21053024 -0.045361053 -0.31245536 0.22252515 0.0006750102
0.24233073 -0.12592234 0.19567771 0.07231962 0.0030274019 0.030003803 0.2915662 -0.1400704
0.18380421 -0.021208575 -0.114888 -0.14812936 -0.16143978 0.24537356 0.30788392 -0.10213285
-0.18756798 0.34178725 0.06606024 -0.30741706 0.08684653 -0.024495501 0.31329075 0.11602916
-0.178917 0.010775743 -0.1934955 0.22237842 0.13797052 0.24090363 -0.23018628 -0.1331353
-0.16922422 -0.25013524 -0.31025586 -0.27029616 0.25924164 -0.008744209 0.046544924 0.21349417
00000000: 471e 46be 5f68 a1be 05eb da3c 1c14 483e
00000010: 92ca b03e 17a4 133e 2778 03be 6a47 d13d
00000020: 21e1 203d 727c b23e 793f 323e d577 ad3e
00000030: d465 c23c bfb6 88be 17b4 64be d9f6 b33e
00000040: 1b5a aa3e 6b45 053e 8434 6cbe 9178 923e
00000050: 77cc 373e da90 a3be 3dde db3c 0a5e 803e
00000060: 76f7 d2bd 3721 363e 2ec4 883e 0ee3 3ebe
00000070: ab7d 2d3e 1613 7d3e a21c 9c3e b36b a8be
00000080: 1f9e 3f3b 4d0b 663e 580e 843e 5716 0fbe
00000090: afb4 4e3e 5d3b 6b3e fda0 6ebd 2c7e 4d3e
000000a0: 14d5 3f3e 09e2 96bd e4ef 55be c617 81be
000000b0: 32ee b4be 2c18 31be d5e3 333e f204 653e
000000c0: e521 41be 1211 08be 45ca ff3d f95a a53d
000000d0: e79c 56be 1c1f ae3e a5d3 693e 7bb7 0b3d
000000e0: 97ec 2b3e a6fc 85be 2285 6b3e 1f9b ee3d
000000f0: 7955 bdbc 5c20 cebd 77c4 993e 89d4 b33d
00000100: 1a37 54be fbc0 203e d91a c13d 1873 aebd
00000110: d116 963e 27e1 cf3e e27a 7bba 43ab 1bbe
00000120: 5bce 03be b287 25be 4cc3 403e 2ff5 673e
00000130: 0c38 5bbe 44b3 4e3e adde b7bc 21cb 3fbd
00000140: 8dbb 14be f592 13bf bea1 fabe f9dd 9c3d
00000150: 8464 4cbd 2165 83bc 926c 58be 2dfd 01be
00000160: 4f2b 43be a4cc 8ebc deed a8be acaf 143d
00000170: 9439 9cbe f270 1ebe 38e4 b33d f2f8 6e3d
00000180: 3715 85be 3ee4 2f3d 33e4 18be f2a1 883d
00000190: 9ffb 103e 6822 a43c 1af7 91be 9527 a0bd
000001a0: 8092 8f3e 5300 6f3e 2ab1 333e b80e be3e
000001b0: 9678 58be 6bd2 05be a151 9dbd addc 67bd
000001c0: 0ffd b83e d7df 94be 8551 7a3d 428e b03e
000001d0: c851 48be 340b 883e b57f 92be 0500 673d
000001e0: 0c87 71be 1dcf ae3d 0050 8a3d d893 413d
000001f0: c555 ddbd bcae 11be 2f70 aebe b48f 9b3d
00000200: a9af b33e 1f8c 81be ec9f dcbd 3965 e93d
00000210: 5df4 183e eede cb3d 0969 4b3e 9052 563d
00000220: 601f 7fbd b224 8dbe cf7c c4be 9979 98be
00000230: c000 153e 91c4 763e 849c 8c3e f353 693e
00000240: 9c1f e73d bcde b33e ba0b 843e 3d95 57be
00000250: 83cc 39bd 26fa 9fbe a2dd 633e 2bf3 303a
00000260: 8c25 783e c9f1 00be bd5f 483e 4f1c 943d
00000270: 6067 463b 89ca f53c 2a48 953e 9d6e 0fbe
00000280: 2c37 3c3e 9bbd adbc 664a ebbd 39af 17be
00000290: 7850 25be 3543 7b3e f6a2 9d3e 072b d1bd
000002a0: d211 40be bdfe ae3e 974a 873d c565 9dbe
000002b0: 98dc b13d caaa c8bc a567 a03e b2a0 ed3d
000002c0: 0536 37be be8c 303c af23 46be 2bb7 633e
000002d0: 2548 0d3e 71af 763e f4b5 6bbe 9f54 08be
000002e0: 1d49 2dbe ba11 80be dbd9 9ebe 4264 8abe
000002f0: 52bb 843e df43 0fbc e4a5 3e3d 379e 5a3e

recurrent._blocklist.0._time_conv.bias f4 [8]
0.62428707 0.70209014 0.15900016 0.94777113 0.42871708 0.23716392 0.8545124 0.12882654
00000000: 47d1 1f3f 2ebc 333f f0d0 223e 21a1 723f
00000010: ce80 db3e 19db 723e 53c1 5a3f 1beb 033e

recurrent._blocklist.0._residual_conv.weight f4 [8, 1, 1, 1]
-0.432883 0.3690419 0.38316634 -0.319349 -0.044130072 -0.17143883 0.31191236 0.16254787
00000000: d7a2 ddbe 0ff3 bc3e 612e c43e b681 a3be
00000010: bcc1 34bd a98d 2fbe fab2 9f3e f372 263e

recurrent._blocklist.0._residual_conv.bias f4 [8]
0.6759165 0.8902919 0.16815698 0.11886926 0.3500415 0.24691263 0.17620258 1.0085766
00000000: dd08 2d3f 2cea 633f 5831 2c3e ba71 f33d
00000010: a438 b33e aad6 7c3e 736e 343e 0a19 813f

recurrent._blocklist.0._layer_norm.weight f4 [8]
0.9506424 0.8967609 0.25019148 0.38072953 0.15761462 0.26595998 0.95649517 0.54447424
00000000: 4d5d 733f 1f92 653f 1919 803e fbee c23e
00000010: ba65 213e e82b 883e dedc 743f aa62 0b3f

recurrent._blocklist.0._layer_norm.bias f4 [8]
0.6964863 -0.014108388 0.71460956 0.911774 0.3021073 0.8972619 0.7252711 0.16852318
00000000: ed4c 323f de26 67bc a7f0 363f 056a 693f
00000010: cfad 9a3e f5b2 653f 5eab 393f 5791 2c3e

recurrent._blocklist.1._cheb_conv.bias f4 [8]
0.09720343 0.48545298 0.07228274 0.13386692 0.61618286 0.41615552 0.48377898 0.27326083
00000000: 9812 c73d 4b8d f83e f908 943d 6914 093e
00000010: 29be 1d3f 5612 d53e e1b1 f73e d8e8 8b3e

recurrent._blocklist.1._cheb_conv.lins.0.weight f4 [8, 8]
0.35697493 0.45237803 0.4026157 -0.58114195 -0.20170422 0.26486552 0.36231148 -0.11363497
0.30771318 -0.03777956 0.034136176 0.3757721 0.3849067 -0.45385265 -0.43991736 0.14882246
0.39569512 -0.11029325 0.56955063 -0.040780123 -0.2914445 -0.023467861 -0.4899027 0.20641033
-0.5477837 0.5763969 -0.39552903 0.46596506 -0.29687637 -0.014831337 -0.24297446 0.38593203
0.2801821 -0.6335159 -0.5898571 0.02701451 -0.07736091 -0.04902733 0.1259357 -0.19942993
0.58358884 0.0973553 -0.20231733 0.280312 -0.39555386 -0.21870396 0.28811532 -0.1424129
-0.6736693 0.17644574 0.024364855 0.057701647 0.015488521 -0.69067895 -0.38089383 -0.3689688
0.50572544 -0.3298322 -0.48023257 -0.2916487 -0.037857484 0.1940976 0.3759285 0.3486643
00000000: 6bc5 b63e 189e e73e a523 ce3e b8c5 14bf
00000010: 8d8b 4ebe 749c 873e e480 b93e 73b9 e8bd
00000020: 958c 9d3e bdbe 1abd 60d2 0b3d 3365 c03e
00000030: 7e12 c53e 605f e8be d93c e1be ea64 183e
00000040: 8d98 ca3e 6de1 e1bd 12ce 113f 0f09 27bd
00000050: 3738 95be ac3f c0bc 87d4 fabe 3b5d 533e
00000060: 8d3b 0cbf bf8e 133f c882 cabe f992 ee3e
00000070: 2e00 98be 23ff 72bc 4cce 78be e298 c53e
00000080: 0774 8f3e 192e 22bf e000 17bf 894d dd3c
00000090: 666f 9ebd e2d0 48bd 4af5 003e 5c37 4cbe
000000a0: 1466 153f 3762 c73d 462c 4fbe 0e85 8f3e
000000b0: 0986 cabe eef3 5fbe da83 933e b0d4 11be
000000c0: 9775 2cbf 31ae 343e ce98 c73c 9058 6c3d
000000d0: 91c3 7d3c 56d0 30bf 8404 c3be 7be9 bcbe
000000e0: 3977 013f c4df a8be 0be1 f5be fa52 95be
000000f0: 7310 1bbd 85c1 463e b379 c03e 2184 b23e

recurrent._blocklist.1._cheb_conv.lins.1.weight f4 [8, 8]
0.070648044 0.5875566 0.38712585 0.37258196 -0.4753954 0.08757438 -0.078564875 -0.5196432
-0.26301396 0.48857766 0.18299064 0.5428813 0.39352214 -0.051801965 0.49955863 0.08317018
-0.08931788 -0.26338246 0.35296857 0.25611207 0.38446912 -0.110553674 -0.57752675 0.07655708
0.021710409 -0.44621614 0.19457708 -0.08622767 0.5161681 0.05640572 -0.34288752 0.497494
0.034762174 -0.14173546 0.2631815 0.5465067 0.23727457 -0.0042887283 0.46293312 -0.19310673
0.47142783 -0.35530993 0.045296554 0.5891961 0.28879476 -0.08757775 0.38254857 0.34640235
-0.48749444 0.0058463933 -0.40157923 -0.06459255 0.05328728 -0.18944736 -0.13593459 0.35899845
0.102463745 -0.49705365 0.20482202 -0.50453544 -0.30448824 0.46098977 0.5745664 -0.1353792
00000000: ecaf 903d 1c6a 163f 5c35 c63e 10c3 be3e
00000010: 0767 f3be 325a b33d 9fe6 a0bd 5607 05bf
00000020: c4a9 86be da26 fa3e e661 3b3e 45fa 0a3f
00000030: bc7b c93e 4c2e 54bd 26c6 ff3e 2155 aa3d
00000040: 4bec b6bd 11da 86be 4cb8 b43e 1f21 833e
00000050: 23d9 c43e f769 e2bd cbd8 13bf f5c9 9c3d
00000060: 07da b13c 7176 e4be 373f 473e 2298 b0bd
00000070: 9823 043f af09 673d f48e afbe 89b7 fe3e
00000080: c862 0e3d 1a23 11be babf 863e dde7 0b3f
00000090: 1bf8 723e 7688 8cbb 9205 ed3e c5bd 45be
000000a0: fd5e f13e 2feb b5be e188 393d 8ed5 163f
000000b0: e8dc 933e f75b b3bd 68dd c33e a65b b13e
000000c0: df98 f9be 1a93 bf3b cb9b cdbe 1949 84bd
000000d0: c343 5a3d 7dfe 41be 7032 0bbe a5ce b73e
000000e0: 83d8 d13d d17d febe ddbc 513e 3c29 01bf
000000f0: e2e5 9bbe da06 ec3e c916 133f d8a0 0abe

recurrent._blocklist.1._time_conv.weight f4 [8, 8, 1, 3]
-0.20541216 0.16698432 -0.3395852 0.19314909 0.21880792 0.1228227 0.0966765 0.05716088
-0.30398723 -0.1880107 0.17303722 0.24296251 0.005463057 0.086648695 -0.3401027 0.20117866
-0.253137 -0.23679075 0.28816047 -0.16192487 -0.2370448 0.01702951 0.24674082 0.28691328
-0.011811803 0.19513 0.20929976 -0.06233123 -0.27833307 0.016676806 -0.104506835 0.11467882
-0.25608793 -0.17008711 -0.16640715 -0.17362589 0.26184803 -0.33237517 0.0069484077 -0.18947445
-0.1152245 -0.060704987 0.14828984 0.21918899 -0.08771193 -0.018967254 -0.037748456 0.29128873
0.15075535 -0.07435581 0.2381426 -0.29147193 0.14155929 0.2753667 -0.19016452 0.1368045
0.16547088 -0.29662076 0.6039371 0.6357884 0.04260592 -0.086006284 -0.15485764 -0.26108438
0.092453964 -0.32325202 -0.30263746 -0.12792575 -0.33480334 0.3071021 -0.14258534 -0.21621154
0.10500941 0.16731916 0.26787904 -0.13892385 -0.060891535 -0.2775752 -0.24769823 -0.11130741
0.047822796 -0.22257708 -0.15421593 0.07044725 0.05108829 0.19071646 0.14004491 0.22124478
-0.14970495 0.2013989 -0.3157218 0.104416795 -0.22411415 0.093750216 -0.32368279 -0.06650392
0.1894353 -0.20869145 0.17099097 -0.059199855 0.32442036 0.31020972 -0.27736568 -0.15442708
-0.17580828 -0.06011837 0.19662942 -0.28865594 -0.20779614 -0.047487903 -0.30761918 -0.29823774
0.17571095 -0.29439783 0.2602618 -0.18358453 -0.053882074 0.19235249 -0.37137255 -0.38369733
0.01865951 -0.13384482 0.19158852 0.12195817 0.051279284 0.1589803 0.2436626 0.012951572
0.22189859 -0.16559128 0.33844936 0.012279482 0.20463918 -0.27562642 -0.18105362 -0.21420088
0.18966457 0.017178623 -0.3162398 0.3561579 0.111462176 0.3208143 0.042543624 0.062305525
0.2421759 -0.25424394 0.32601318 -0.19822256 0.05344918 -0.20819217 -0.2376241 0.27009085
-0.0902828 -0.0413155 0.28972515 0.35383174 -0.3036404 -1.5918815e-05 0.098169245 0.36234456
-0.12874588 -0.10134394 -0.17877018 0.11687798 0.102231644 0.03958596 0.00979569 -0.20139419
-0.11769508 -0.104320854 0.13171098 0.16489293 0.17850804 -0.24785379 -0.06548805 -0.101081185
0.3453717 0.2611052 -0.25570637 -0.17431659 -0.24752098 -0.07131407 -0.28836763 0.1850265
-0.12531398 -0.13613595 0.013335983 -0.11280036 0.27251035 0.3220398 -0.3105414 0.17069964
00000000: 9157 52be f0fd 2a3e 1dde adbe e0c8 453e
00000010: 2f0f 603e 788a fb3d 54fe c53d 8721 6a3d
00000020: 37a4 9bbe e085 40be ab30 313e 2acb 783e
00000030: 7203 b33b df74 b13d f121 aebe c701 4e3e
00000040: 2c9b 81be 4679 72be c589 933e a2cf 25be
00000050: dfbb 72be 7981 8b3c a0a9 7c3e 4ce6 923e
00000060: 4b86 41bc 29d0 473e ad52 563e 084f 7fbd
00000070: ac81 8ebe cc9d 883c ae07 d6bd bbdc ea3d
00000080: f51d 83be 512b 2ebe a366 2abe fcca 31be
00000090: f210 863e 142d aabe 78af e33b 9705 42be
000000a0: d3fa ebbd cba5 78bd 4bd9 173e 1473 603e
000000b0: 50a2 b3bd 3761 9bbc 209e 1abd cc23 953e
000000c0: 9c5f 1a3e dc47 98bd a7db 733e cf3b 95be
000000d0: ebf4 103e ddfc 8c3e 7dba 42be 7b16 0c3e
000000e0: 3371 293e adde 97be 9f9b 1a3f 07c3 223f
000000f0: 8c83 2e3d 1024 b0bd 0093 1ebe daac 85be
00000100: 8158 bd3d 4a81 a5be 4cf3 9abe f8fe 02be
00000110: 586b abbe 7d3c 9d3e e401 12be 8f66 5dbe
00000120: 2c0f d73d b755 2b3e 7127 893e 0e42 0ebe
00000130: 6769 79bd 561e 8ebe 9ba4 7dbe 24f5 e3bd
00000140: d6e1 433d 3feb 63be c8ea 1dbe a646 903d
00000150: f441 513d 2d4b 433e ef67 0f3e fe8d 623e
00000160: 414c 19be 833b 4e3e 4aa6 a1be 79d8 d53d
00000170: 2e7e 65be 1d00 c03d c0b9 a5be 3533 88bd
00000180: 54fb 413e 36b3 55be 4218 2f3e 8c7b 72bd
00000190: 6d1a a63e cfd3 9e3e e002 8ebe 2222 1ebe
000001a0: 1607 34be ae3e 76bd 3959 493e b6ca 93be
000001b0: 83c8 54be ad82 42bd 4380 9dbe 9eb2 98be
000001c0: 92ed 333e 50bb 96be 0941 853e 95fd 3bbe
000001d0: 73b3 5cbd 0df8 443e 8b24 bebe fa73 c4be
000001e0: d4db 983c 9e0e 09be c82f 443e 34c5 f93d
000001f0: 3a0a 523d bbcb 223e b082 793e d532 543c
00000200: 6239 633e c390 29be 3c49 ad3e e12f 493c
00000210: ef8c 513e e81e 8dbe 1f66 39be 7a57 5bbe
00000220: 6e37 423e 2fba 8c3c 2fea a1be 545a b63e
00000230: 4846 e43d c641 a43e 3942 2e3d 1434 7f3d
00000240: f6fc 773e 432c 82be 33eb a63e dbfa 4abe
00000250: 87ed 5a3d 5430 55be bb53 73be 5949 8a3e
00000260: 30e6 b8bd 713a 29bd db56 943e 6f29 b53e
00000270: c176 9bbe 6589 85b7 f50c c93d 3a85 b93e
00000280: f6d5 03be 698d cfbd 880f 37be b95d ef3d
00000290: d35e d13d e324 223d 1a7e 203c 473a 4ebe
000002a0: 1e0a f1bd 2ca6 d5bd 3edf 063e b1d9 283e
000002b0: d0ca 363e 62cd 7dbe 991e 86bd a703 cfbd
000002c0: 8fd4 b03e 95af 853e f2eb 82be 0c80 32be
000002d0: 2476 7dbe 1c0d 92bd eca4 93be 9677 3d3e
000002e0: 4f52 00be 3967 0bbe 2b7f 5a3c e003 e7bd
000002f0: 7a86 8b3e 67e2 a43e 48ff 9ebe e3cb 2e3e

recurrent._blocklist.1._time_conv.bias f4 [8]
0.48181 0.744157 0.3142224 0.44547155 0.45360774 0.68837464 0.7503603 0.6937067
00000000: cdaf f63e 1381 3e3f c2e1 a03e d914 e43e
00000010: 463f e83e 5239 303f 9d17 403f c396 313f

recurrent._blocklist.1._residual_conv.weight f4 [8, 8, 1, 1]
0.043092165 -0.51638806 -0.38339657 -0.3807255 -0.63743323 0.55663395 -0.26369834 -0.38840458
-0.2997312 0.3168718 -0.4058097 -0.52709734 -0.4796022 0.11831584 -0.02897485 -0.524666
-0.41461784 -0.532532 0.21224086 0.27057916 0.10681109 -0.19370176 -0.32045767 0.2591152
-0.15435456 -0.115288004 -0.21435408 0.09906126 0.13215081 0.49015203 0.4554594 -0.15669163
0.0595468 -0.44569924 -0.49910071 0.48093343 0.038851306 -0.3364079 0.2627102 0.23370203
0.2241287 0.28765908 0.038675897 -0.45119268 -0.53418195 0.61521167 0.56507313 -0.43394446
0.4918212 -0.5816502 0.4219633 0.45850065 0.3938842 0.2505662 -0.4784559 -0.3255527
0.119950935 0.2480978 0.5250777 0.011284858 0.24632989 -0.46168497 0.004778628 0.38766167
00000000: 6981 303d 0232 04bf 8e4c c4be 74ee c2be
00000010: d32e 23bf 907f 0e3f 7803 87be f7dc c6be
00000020: 5e76 99be 053d a23e 4ac6 cfbe daef 06bf
00000030: 6b8e f5be 934f f23d aa5c edbc 8350 06bf
00000040: ca48 d4be 0454 08bf ab55 593e 5a89 8a3e
00000050: c6bf da3d c159 46be 0713 a4be bfaa 843e
00000060: 1f0f 1ebe 1e1c ecbd a37f 5bbe a1e0 ca3d
00000070: 8b52 073e 35f5 fa3e f931 e93e c573 20be
00000080: 58e7 733d b132 e4be 218a ffbe e83c f63e
00000090: 8c22 1f3d a83d acbe f481 863e 964f 6f3e
000000a0: fe81 653e 0d48 933e 9e6a 1e3d ba02 e7be
000000b0: 26c0 08bf 837e 1d3f a2a8 103f f82d debe
000000c0: fdcf fb3e 07e7 14bf 930b d83e 99c0 ea3e
000000d0: 31ab c93e 374a 803e 2cf8 f4be d8ae a6be
000000e0: d6a8 f53d 5a0d 7e3e 7e6b 063f 20e4 383c
000000f0: e73d 7c3e f961 ecbe 0996 9c3b 977b c63e

recurrent._blocklist.1._residual_conv.bias f4 [8]
0.51224285 0.87699187 0.10045776 0.1496999 0.620149 0.49602765 0.07383911 0.7120456
00000000: 5922 033f 8a82 603f ccbc cd3d ee4a 193e
00000010: 16c2 1e3f 56f7 fd3e f638 973d 9f48 363f

recurrent._blocklist.1._layer_norm.weight f4 [8]
0.5146561 0.58306915 0.60737526 0.13650514 0.16595054 0.08234163 0.9221926 0.2038629
00000000: 81c0 033f 0544 153f f27c 1b3f 01c8 0b3e
00000010: f0ee 293e baa2 a83d d014 6c3f 70c1 503e

recurrent._blocklist.1._layer_norm.bias f4 [8]
0.9247052 0.31695816 0.6149291 0.9497903 0.22312611 0.010365697 0.55484915 0.1289211
00000000: 7bb9 6c3f 5748 a23e fe6b 1d3f 7525 733f
00000010: 2c7b 643e e2d4 293c 980a 0e3f e503 043e

recurrent._final_conv.weight f4 [20, 50, 1, 8]
0.05841067 0.04230123 0.071747825 -0.012813336 -0.06826023 -0.094216086 0.014584791 0.08543318
-0.018207561 0.001934565 -0.02581733 -0.054530773 0.07765909 -0.02868599 -0.039091192 0.093337886
0.06477848 0.058569614 0.06349843 -0.06723557 0.026778165 -0.030134816 0.026507065 0.0455119
-0.031545874 0.10485751 -0.0114871515 0.058053598 0.0023585716 -0.10129544 -0.034167055 -0.08917173
0.015048214 -0.06594038 -0.09335937 0.020656897 -0.09764909 -0.05768781 -0.042786732 0.047255304
0.09784421 0.039726634 -0.0680408 0.076867506 0.08934026 -0.02943103 0.096286595 0.022982595
-0.06897715 -0.023584908 -0.09361459 0.029677782 0.05013451 -0.10323886 -0.018900067 -0.0008164599
0.08593427 -0.05294734 -0.017163321 -0.0044816406 -0.05900865 -0.047832012 -0.0049741846 -0.033977408
-0.030244227 0.013430475 -0.018830122 -0.051969755 0.055702776 0.07256491 0.0053849453 -0.022374386
-0.097762555 -0.07219673 -0.014819213 -0.02128981 0.023428326 -0.052948643 -0.0012726019 0.012588451
0.10478834 0.084838696 -0.079124115 -0.010213882 -0.023931539 -0.004835127 0.06473839 -0.044347454
-0.018785054 -0.099146426 -0.048595864 -0.10319624 0.029340234 -0.08125091 -0.02660659 -0.077630036
0.08202571 -0.027011791 0.077917084 -0.053122766 0.07115171 -0.021900494 -0.05354702 0.08399366
-0.06704157 -0.0573836 0.046260636 -0.011348345 -0.008548256 0.101096414 -0.061792694 -0.03986484
0.045605853 -0.016441599 -0.0076866555 -0.036616214 -0.022766544 0.08118453 -0.0034198782 0.03902552
0.08168807 0.08364804 0.040073104 0.06952558 -0.033515006 0.0068325964 -0.031177007 -0.10287551
0.09085546 -0.09531934 -0.07299212 -0.038496107 -0.10123675 -0.08158726 -0.04545702 0.0096106585
-0.08661452 -0.070799544 -0.06761739 -0.079420395 0.018019058 0.0022808553 0.027942842 0.09077557
-0.04135252 -0.03511426 0.027751284 0.08919916 0.026933651 -0.010055961 0.034569032 -0.1044508
-0.06668635 -0.03988751 -0.0981226 -0.07969569 -0.08543893 0.0286011 0.028013881 -0.0050469865
-0.019691112 0.0063550333 0.057522945 -0.079483286 0.06764455 0.043923467 -0.03935415 0.07013362
0.004269211 -0.043777693 0.0895525 0.029030696 0.072366886 -0.029085696 -0.09518965 0.08052
0.010479474 0.05287873 -0.028566785 0.04746886 -0.08707505 0.0028386135 0.06471281 -0.030430421
0.09349533 0.041772127 0.05058378 0.10079191 -0.03026204 -0.02491124 0.047527384 -0.054812714
-0.071552716 0.0710903 -0.09065329 -0.0504795 0.02008955 0.0145111745 -0.081915386 -0.028718986
0.07127066 -0.06351491 0.05921636 -0.012552449 -0.04191673 -0.099330105 -0.047735002 0.082728274
-0.05169455 -0.07866883 -0.008340202 0.07186957 -0.03296343 0.100801 0.078706376 0.092525795
-0.0541213 -0.07034895 -0.09705192 -0.021659004 -0.072195254 0.047564235 -0.011274187 0.07987826
-0.09081243 -0.08383572 -0.019637495 0.025702788 0.08238885 -0.009409756 0.06889263 -0.029950984
-0.009316361 -0.036901616 -0.04605072 -0.040831763 -0.09443724 -0.013486074 -0.050765797 -0.06888066
-0.071421646 -0.096930586 -0.02520178 -0.085882895 0.08825427 -0.028519806 0.010581296 -0.07606185
0.015991908 -0.09458335 0.043865997 0.047194377 -0.10552406 0.044376228 -0.001417965 -0.06625723
00000000: 0740 6f3d 0e44 2d3d 86f0 923d 07ef 51bc
00000010: 05cc 8bbd 5df4 c0bd 0cf5 6e3c 97f7 ae3d
00000020: 0628 95bc 3b91 fd3a de7e d3bc a95b 5fbd
00000030: bb0b 9f3d e2fe eabc 161e 20bd ef27 bf3d
00000040: 94aa 843d b1e6 6f3d 770b 823d cdb2 89bd
00000050: e25d db3c 4add f6bc 5825 d93c b06a 3a3d
00000060: 3f36 01bd 89bf d63d 9b34 3cbc 9cc9 6d3d
00000070: 4492 1a3b fc73 cfbd c1f2 0bbd ab9f b6bd
00000080: c98c 763c c00b 87bd 3333 bfbd a738 a93c
00000090: 3ffc c7bd 0e4a 6cbd 2441 2fbd c78e 413d
000000a0: 8c62 c83d 65b8 223d fa58 8bbd b66c 9d3d
000000b0: 07f8 b63d 5819 f1bc e831 c53d ff45 bc3c
000000c0: e443 8dbd 2335 c1bc 02b9 bfbd d21e f33c
000000d0: d859 4d3d e56e d3bd 50d4 9abc b207 56ba
000000e0: 4efe af3d 4fdf 58bd 189a 8cbc bada 92bb
000000f0: 0eb3 71bd 80eb 43bd 7cfe a2bb e52b 0bbd
00000100: bec2 f7bc 7f0b 5c3c a141 9abc 3dde 54bd
00000110: 9828 643d e99c 943d 3274 b03b 7d4a b7bc
00000120: bc37 c8bd e1db 93bd 49cc 72bc f867 aebc
00000130: c3ec bf3c ade0 58bd 6fcd a6ba ca3f 4e3c
00000140: 459b d63d e9bf ad3d d30b a2bd 2058 27bc
00000150: 130c c4bc fc6f 9ebb 9095 843d ada5 35bd
00000160: 1de3 99bc 480d cbbd 750c 47bd 8d58 d3bd
00000170: ee5a f03c e166 a6bd 10f6 d9bc 7ffc 9ebd
00000180: 18fd a73d d547 ddbc fe92 9f3d 4297 59bd
00000190: fdb7 913d aa68 b3bc 1f54 5bbd de04 ac3d
000001a0: 174d 89bd 110b 6bbd cb7b 3d3d 69ee 39bc
000001b0: fc0d 0cbc a30b cf3d 561a 7dbd 5149 23bd
000001c0: 34cd 3a3d 88b0 86bc 57e0 fbbb e2fa 15bd
000001d0: e780 babc 1344 a63d 0920 60bb 39d9 1f3d
000001e0: 134c a73d aa4f ab3d b223 243d 6d63 8e3d
000001f0: 0847 09bd f9e3 df3b ec66 ffbc 65b0 d2bd
00000200: 6d12 ba3d c936 c3bd e57c 95bd 18ae 1dbd
00000210: 3755 cfbd 3917 a7bd 2431 3abd 0676 1d3c
00000220: f462 b1bd 5aff 90bd fc7a 8abd 29a7 a2bd
00000230: b49c 933c 677a 153b 63e8 e43c 8be8 b93d
00000240: 4361 29bd f8d3 0fbd a956 e33c 0dae b63d
00000250: f6a3 dc3c c2c1 24bc 4298 0d3d 4dea d5bd
00000260: da92 88bd 1661 23bd 80f4 c8bd 7e37 a3bd
00000270: 9bfa aebd db4c ea3c 5e7d e53c 3161 a5bb
00000280: 414f a1bc e23d d03b 2e9d 6b3d 22c8 a2bd
00000290: 3a89 8a3d 18e9 333d d131 21bd 37a2 8f3d
000002a0: bde4 8b3b 3d50 33bd 4d67 b73d c8d1 ed3c
000002b0: 1735 943d 2045 eebc cbf2 c2bd abe7 a43d
000002c0: 1ab2 2b3c 5e97 583d e404 eabc b56e 423d
000002d0: 6754 b2bd 0808 3a3b 2688 843d 3849 f9bc
000002e0: 7b7a bf3d 4019 2b3d f030 4f3d fd6b ce3d
000002f0: 19e8 f7bc a812 ccbc 13ac 423d 4c83 60bd
00000300: 3b8a 92bd cb97 913d 6fa8 b9bd 98c3 4ebd
00000310: d792 a43c 47c0 6d3c 41c3 a7bd 1444 ebbc
00000320: 5af6 913d 1b14 82bd db8c 723d c9a8 4dbc
00000330: e1b0 2bbd 956d cbbd c785 43bd 716d a93d
00000340: aabd 53bd 201d a1bd 58a5 08bc 5a30 933d
00000350: a904 07bd c170 ce3d cf30 a13d 2a7e bd3d
00000360: 4cae 5dbd 1c13 90bd 28c3 c6bd 396e b1bc
00000370: 1bdb 93bd b7d2 423d 5eb7 38bc 3797 a33d
00000380: defb b9bd 10b2 abbd d0de a0bc a78e d23c
00000390: 7cbb a83d 612b 1abc 9417 8d3d c45b f5bc
000003a0: a6a3 18bc 2626 17bd ae9f 3cbd 353f 27bd
000003b0: 5068 c1bd b2f4 5cbc ccef 4fbd 4e11 8dbd
000003c0: 8345 92bd 8b83 c6bd f773 cebc 5fe3 afbd
000003d0: a8be b43d 5ea2 e9bc 2c5d 2d3c 51c6 9bbd
000003e0: 7601 833c eab4 c1bd d5ac 333d e44e 413d
000003f0: 001d d8bd d9c3 353d 03db b9ba dfb1 87bd

recurrent._final_conv.bias f4 [20]
0.9877415 0.96250576 0.35558605 0.60556287 0.5205078 0.94772243 0.27932766 0.44081104
0.6869049 0.41718987 0.26709035 0.93153685 0.31650874 0.8068135 0.38429806 0.0075373217
0.16276954 0.6316413 0.8592596 0.43266544
00000000: a0dc 7c3f c766 763f 600f b63e 2b06 1b3f
00000010: 0040 053f f09d 723f 0904 8f3e fcb1 e13e
00000020: 00d9 2f3f e999 d53e 11c0 883e 3379 6e3f
00000030: 6f0d a23e 548b 4e3f b7c2 c43e a3fb f63b
00000040: 0fad 263e 3fb3 213f 70f8 5b3f 5386 dd3e
