TFM/regresion/results/bus_fault/ASTGCN.pt (torch, 108482 bytes, 18 tensors)

recurrent._blocklist.0._temporal_attention._U1 f4 [23]
00000000: a352 4abe dbf2 8d3d ada1 a6bb e961 3abe
00000010: 2572 db3e df11 d43d ba70 45be 97d6 afbe
00000020: fe08 eb3e 2ea2 76be f051 df3e c8c5 853d
00000030: c0d4 cd3e 00d6 c1ba 98da fb3e 59a9 f33e
00000040: aed6 f63e 77c1 783e 54dc d13e 2b39 123f
00000050: 274c 80be a516 9e3d 0909 063f
-0.19758086 0.06931087 -0.005085191 -0.18201412 0.42860523 0.10354971 -0.19281283 -0.34343407
0.45905298 -0.24085304 0.436172 0.065318644 0.40201378 -0.0014788508 0.4919021 0.4759014
0.48210663 0.24292551 0.4098841 0.5711848 -0.250581 0.07719163 0.52357537

recurrent._blocklist.0._temporal_attention._U2 f4 [1, 23]
00000000: 55a4 9dbe 0c64 423d 785b 9a3d 51f7 c6be
00000010: 1254 bfbe 96e5 8e3e f237 75bd 3069 b4be
00000020: 8d19 e33e 475f 903e 655b fa3e 650c 88be
00000030: 97b2 f5bc 1de5 5f3e 9a74 c3be 4b46 f83d
00000040: b874 97bb 6069 a03e b402 64be 42cd 33be
00000050: 9ee6 d13e 1565 c4bd e2f9 1abe
-0.30789438 0.047458693 0.075369775 -0.38860562 -0.37368828 0.27909535 -0.059867807 -0.35236502
0.4435543 0.2819769 0.48897853 -0.26571956 -0.029992385 0.21864744 -0.38174897 0.12122782
-0.0046220683 0.31330395 -0.22266656 -0.17558768 0.4099626 -0.09589592 -0.15134385

recurrent._blocklist.0._temporal_attention._be f4 [1, 100, 100]
00000000: a566 653e ae93 6abe 8865 3d3e e775 7fbe
00000010: aca2 1d3e 980c 4e3e ca61 5d3e a035 46be
00000020: 9b41 50be 769d 253e 2572 56be 2b1f 813e
00000030: fe49 423e 6171 84be 5214 52be f6ab 5c3e
00000040: 63cc 59be f69f 313e b3f3 583e 6360 56be
00000050: 9af4 86be 7393 543e 2b0d 68be 2cc1 77be
00000060: 8a2f 7cbe cf96 593e 377d 80be 625f 523e
00000070: 635f 743e 733b 643e afc3 3a3e d404 6fbe
00000080: 0f8a 5bbe 0880 333e 8861 52be 0c13 53be
00000090: 1d87 703e 409c 44be 8fa5 4dbe 57c4 44be
000000a0: 43c7 4abe 67cc 31be 5414 30be 3f44 2e3e
000000b0: cdc9 3e3e 261c 2cbe 9a8c 3d3e 3769 1abe
000000c0: 9022 193e d200 22be 97ce 32be c61a 383e
000000d0: b775 1b3e f9fa 353e e5a8 2abe fc13 323e
000000e0: 056a 58be 702b 13be 5e36 49be 7cbe 353e
000000f0: 5cd5 603e 8c14 1a3e dcae 0e3e 929d 143e
00000100: 3b6c 0fbe 1854 033e 98a3 473e ecc9 dc3d
00000110: 4fd9 193e f760 b8bd 7b02 ffbd 140e edbd
00000120: b73e c6bd 9638 eabd 343f bbbd db6d 023e
00000130: 757a 15be 6a3f 3dbd d0b1 393e 1ec8 a93d
00000140: 7f06 383e 1f2c 4b3e 5261 f83d 2583 2a3e
00000150: 7d44 3bbd cc3d 83bd acb9 073e 1a17 6ebd
00000160: fc7b edbd e361 24bd dace d7bd 85aa 413e
00000170: fa08 a3bd d030 443e b048 013e f5e2 26be
00000180: 6571 3c3e 507d 0bbe 9b79 543e 8712 06be
00000190: ec1d 083e 2a9b 08bd 0029 113e fa1d 8dbd
000001a0: 6497 153e c954 ae3d e878 f83d dac2 55bd
000001b0: 94a0 febd 179d a43d d465 8ebd c3bd 343e
000001c0: 742b f63d e12d 82bd b136 64bd 0114 033e
000001d0: ec9d 31bd e8e4 1f3e 6de1 053e 1ceb 89bd
000001e0: df6f debd 3a74 0d3e eaa4 87bd e4c6 12be
000001f0: 0fb8 e6bd 9a34 173e e599 1dbe 613f 303e
00000200: 4cb0 193e 42e0 3d3e c2e0 033e fc82 eabd
00000210: fa4a 13be 9ccf 033e 6816 f6bd 091e c9bd
00000220: 40f8 103e ba61 32be 6abc adbd 9f69 cabd
00000230: d767 07be 345d 55be d775 8dbd 4c79 293e
00000240: 1dbb 043e a45a d4bd 369d 013e e664 00be
00000250: 5881 dd3d 65b5 08be a9f8 3ebe 940d 053e
00000260: 8a46 333e dde0 0e3e f979 f1bd d1d0 203e
00000270: 9226 35be ab70 1abe 5117 cdbd 163b 253e
00000280: 323d 403e 08c0 313e bee2 333e ec17 333e
00000290: 0c3e febd 0fe7 1a3e f850 233e 3190 1d3e
000002a0: 71f1 3c3e 6e0e 21be 7cf2 22be e9cc fabd
000002b0: 825d 11be c1df 13be 8031 d8bd fd56 553e
000002c0: cc9a 23be 2830 16be f268 253e ad91 3a3e
000002d0: adac 5b3e 6c35 433e b9dc 243e c5e3 263e
000002e0: 2ae2 1fbe 088f 18be 36a2 4e3e 79a2 2fbe
000002f0: 94c2 31be 7594 2abe d644 1cbe 7ada 343e
00000300: 1c0f 10be 1f32 3c3e ced7 3a3e 189f 24be
00000310: 784e 393e 38cd 4fbe 8ce4 fa3d 5baa 57be
00000320: bef0 f13d 5777 853c b510 de3d ca6b b4bc
00000330: 7e6c f23d 6cc0 423d 48fa 8a3d 8568 4c3b
00000340: e967 f4bd 1090 813d 6fb0 41bd 54cc 113e
00000350: a97b 9d3d 0325 0dbd a640 febc 9a29 f93d
00000360: 3da0 1ebd 26a5 ec3d 3afa ac3d 67cb 04bd
00000370: b71b 73bd bd22 e83d 3c92 a4bd 6e60 f1bd
00000380: 26b7 d7bd f7b5 fe3d f1e5 ffbd 7763 013e
00000390: 9091 fe3d b05c 1e3e 8039 fc3d e537 bebd
000003a0: 852d fcbd b3aa f93d 2114 8fbd 87d6 8ebd
000003b0: 92ee e73d 5c4d dbbd fbf2 9dbd 5ae1 96bd
000003c0: 7f24 acbd 81a0 15be 5117 22bd 9fed df3d
000003d0: bb7f 183e 7fba c0bd f56a c63d d089 91bd
000003e0: d40a c83d b787 a9bd df6a ffbd eb18 983d
000003f0: f6d1 1f3e 0f27 0c3e e566 bebd 82e7 003e
0.22402437 -0.22907898 0.18495762 -0.2494732 0.15394086 0.20121992 0.21619335 -0.19356394
-0.20337527 0.16173348 -0.2094198 0.25219092 0.18973538 -0.2586775 -0.20515564 0.21549973
-0.21269374 0.17346177 0.21186714 -0.20935206 -0.2635849 0.20759372 -0.22661273 -0.24194783
-0.2462751 0.21248935 -0.2509553 0.20544198 0.23864512 0.22288303 0.1823871 -0.23341686
-0.21439384 0.17529309 -0.20545018 -0.20612735 0.23489042 -0.1920023 -0.20082687 -0.19215523
-0.19802575 -0.1736313 -0.17195255 0.17018221 0.18631668 -0.16807613 0.18510666 -0.15079199
0.14954591 -0.15820625 -0.1746162 0.17978963 0.15181623 0.1777152 -0.1666599 0.17390436
-0.21134193 -0.14372039 -0.19649646 0.17748445 0.2195639 0.150469 0.13933891 0.14513233
-0.1400613 0.12825048 0.19496 0.10780701 0.15024303 -0.090028696 -0.12451645 -0.11574951
-0.09679931 -0.11436574 -0.091429144 0.12737219 -0.14597495 -0.046203054 0.18134236 0.082901224
0.17971228 0.1984105 0.121279374 0.1665159 -0.045719612 -0.06408271 0.13254422 -0.0581275
-0.11595914 -0.040132415 -0.10537501 0.18912704 -0.079606965 0.19159245 0.12625384 -0.16297515
0.18402632 -0.13622022 0.20749514 -0.13093005 0.13292664 -0.0333511 0.14175797 -0.06890483
0.14608532 0.08512265 0.12132436 -0.052187778 -0.124329716 0.08037775 -0.06953016 0.17650513
0.12020007 -0.06356407 -0.05571622 0.128006 -0.043363497 0.15614665 0.13074274 -0.06734297
-0.108611815 0.13813868 -0.06623252 -0.14333683 -0.11265575 0.1476616 -0.15390737 0.17211677
0.15008658 0.18542579 0.12878707 -0.114507645 -0.1438407 0.12872165 -0.120159924 -0.09820182
0.141572 -0.17420092 -0.08483203 -0.09883427 -0.13223206 -0.20836335 -0.06907242 0.16550177
0.12962003 -0.10368851 0.12657627 -0.1253849 0.10815686 -0.13350447 -0.18649544 0.12993461
0.17507377 0.13952966 -0.117908426 0.15704657 -0.17690495 -0.15082042 -0.10014213 0.16135821
0.18773344 0.1735841 0.17566964 0.17489594 -0.12414178 0.15127204 0.15948856 0.15387036
0.18451478 -0.1572816 -0.15912813 -0.12246115 -0.14195827 -0.14440824 -0.105563164 0.20833965
-0.15977019 -0.14666808 0.16153315 0.18219633 0.2145259 0.19063348 0.16099824 0.16297825
-0.15613618 -0.14898312 0.20179066 -0.17151822 -0.17359382 -0.16658194 -0.15260634 0.17661467
-0.14068264 0.18378495 0.18246385 -0.16076314 0.1809634 -0.20293128 0.12250623 -0.21061079
0.11813496 0.016292257 0.1084303 -0.022024054 0.118370995 0.04754679 0.067860186 0.0031190228
-0.11933882 0.06326306 -0.0472874 0.14238101 0.07689602 -0.034459125 -0.031036686 0.12166138
-0.038727034 0.11554937 0.084461644 -0.032420542 -0.059352603 0.11334751 -0.080357045 -0.11785971
-0.1053298 0.12437051 -0.1249503 0.12635599 0.124301076 0.15465045 0.12315655 -0.09288005
-0.1231337 0.121907614 -0.06986261 -0.069745116 0.113248006 -0.107081145 -0.077123605 -0.07367201
-0.084053986 -0.14612009 -0.039573018 0.109339945 0.14892475 -0.09410571 0.09688369 -0.07106364
0.0976769 -0.08277839 -0.12471556 0.07426628 0.15607437 0.13686775 -0.09296969 0.12588313

recurrent._blocklist.0._temporal_attention._Ve f4 [100, 100]
00000000: 26bd a23b 1d0f 82be b33a 1cbe 7076 4bbe
00000010: b594 1c3d 99f3 43be aa21 75be 5e4e 17be
00000020: 2a2e 713c 1e4d 91bd fc3b 18be 79ca aabd
00000030: 390b 3dbd dd50 2ebe 842c 4ebe 10ac 2e3e
00000040: 7880 a3be 5ecd fabd b231 e3bd d28c 3cbe
00000050: 35d6 73be 07c8 193e ed51 a93d 2786 30be
00000060: b95d 0ebd 777d edbd 058b 27bd 8409 81bd
00000070: dc16 123d 5a59 66be c776 97bd 9457 113e
00000080: b17f dfbd 3b27 09be b38c 2f3b 8dba 14be
00000090: 3139 6fbb 05ad 153d 6ee4 05be f55c 04be
000000a0: 8b9c b1bd e5ed 22bd b8b1 db39 3034 233e
000000b0: 7969 0c3c 0a67 89be d256 8cbd 4a49 8abd
000000c0: e13a 0dbe 45b7 bbbd 9244 44be 7c09 d4bd
000000d0: c6bd 03bd 44fa e13c 4762 21bc 5e80 68be
000000e0: e873 58be ad6b 803e cde4 a5be ae8f 20bd
000000f0: 51ef 5c3d ed74 a1be 0467 cabd ff4c 563e
00000100: 8bdb 76be 66c9 59bd d03f 0f3e 6142 3d3e
00000110: c943 81bd 2d0c e33d 9332 54bd c9cb 3b3e
00000120: 23fe 583c e056 60be 2a90 83be ddae c7bd
00000130: c26a 6e3e aeeb 2ebe b0f5 2c3e 6684 7b3d
00000140: 8813 b1bd 02a3 03be 3e13 ea3d 274e 633d
00000150: 7db3 683d 3d3d 9dbd 38f9 7fbe a76e 793d
00000160: 730b 8f3d e5ce 5f3e 307c e0bd 1ccd 493e
00000170: 7183 513d f62a 9dbd a9c6 1dbe 6cb6 cf3d
00000180: eb55 babd 2721 d43c a6e2 b03d 7d88 9abd
00000190: 12cf 723d d044 34bd 8c68 9b3d 684a 1c3e
000001a0: 81a5 2f3e 5070 323d 03b0 a43b aeb6 483d
000001b0: 689a da3d 13e4 86bd 46bd 97bc 2522 653e
000001c0: 23af d83b 189b 1c3e 5a14 db3d 4e6d 2e3e
000001d0: d6f2 97be 8e8f 65bd dc0e 3fbd e0cf 1abe
000001e0: 265e c73d 3aa1 5fbd 175e e03d 85a6 4f3e
000001f0: 7c89 72bb 7cc2 f63d 8da2 043e e293 bdbd
00000200: b7ff 183d 7def dd3d e03b 3dbb bad9 1dbd
00000210: d3f8 9fbd ce2f 623e 21de b4bd fe1a f2bd
00000220: 4b54 163e 69a6 893d b821 1dbe 4f69 613e
00000230: 9252 d83d 6a93 373d 9663 c6bd 2fc6 143e
00000240: 77cd 013c 3ada 3e3d b593 863e b84a 553e
00000250: 8000 973d e314 02be 3952 7a3d e468 363e
00000260: f8b1 dabc abf3 1a3c 43dd 553e f846 043e
00000270: c7b2 293e 9fc1 9f3d 665a a33d 0826 393e
00000280: 150d 823e f1a5 323d b812 c2bc ebf0 8f3e
00000290: afd8 183e 9835 27bd cf81 383e 4fb8 893d
000002a0: bb28 1abd 4e3c 8f3e 7c76 f53d 23b4 7f3e
000002b0: 8e9d 96bd 5b78 f6bd 1585 003d 1a54 793e
000002c0: b42c 7e3e 04d5 3f3e 97df 2ebd 0df2 433e
000002d0: 6904 473e 1dab 783e 5f5f ba3d 6345 423d
000002e0: f284 8d3e 5ec2 9c3b 8127 f13d 5ae3 b9ba
000002f0: 0ed1 3e3e 11db 723e 1c88 2a3e 69f3 d23d
00000300: 9c15 143d fe3d 343d 06c8 b43d 89e6 763e
00000310: 7be1 aa3d 6e71 c73d c114 0b3e 258c 1abe
00000320: e97e 40be 2fef 20be f97e f73d 540b d8bc
00000330: 1a6a 54bd fa6b 8cbd 3c2d 71be 3d01 52be
00000340: 3c3c b8bd 52b1 5abd 8f8e febc 3f75 7f3e
00000350: bcfb 2a3e e64e d53d 5e4a f7bc 21e5 db3d
00000360: dcd5 2fbe a75b 113e 0c7b 1ebe f468 713d
00000370: b525 d9bd 5e20 793e 48ff 7bbd ca98 ed3d
00000380: eab8 1ebc 6b91 913d 3781 acbd 8315 353d
00000390: fbee 913d 5705 b93c 4d07 aebd 00ea 383d
000003a0: 33d7 2dbe f1b2 943d e641 25bc 44c9 75be
000003b0: 1c3f 293e 6a40 c53d a29d 7e3d bd94 44bd
000003c0: 06bd 0abe 45c1 16be cb6b a3bd 58db 833e
000003d0: 13ce ab3d 5e54 00be 10b1 ba3d 165d 563d
000003e0: 1b56 cbbd 168e 71be c0b9 0e3d 8f83 31bd
000003f0: d56f 103e 75fc 87bd ded2 04be ac56 0bbe
0.004966396 -0.25402156 -0.15256767 -0.19869399 0.038227756 -0.19135894 -0.23938623 -0.14775988
0.014720479 -0.07094787 -0.14866632 -0.083394 -0.04615328 -0.17023034 -0.20134169 0.17057824
-0.3193395 -0.12246202 -0.11093463 -0.18413094 -0.23812182 0.1501771 0.08267579 -0.17238675
-0.03475735 -0.11596196 -0.040904064 -0.06300643 0.03566633 -0.22495022 -0.07395702 0.14193565
-0.10913027 -0.13393871 0.0026786744 -0.14524288 -0.0036502595 0.036541957 -0.1307542 -0.12926085
-0.08672436 -0.039777655 0.00041903346 0.15937877 0.0085700685 -0.26836425 -0.06852497 -0.0675226
-0.13791992 -0.09165815 -0.19166782 -0.103533715 -0.032163404 0.027585156 -0.009850091 -0.22705218
-0.21137965 0.2508215 -0.32401124 -0.039199524 0.053939167 -0.3153452 -0.0988293 0.20927809
-0.24107186 -0.053170584 0.13989186 0.18482353 -0.06311757 0.11086307 -0.051806044 0.18339457
0.013244185 -0.2190814 -0.25695926 -0.097501494 0.23282912 -0.17082092 0.16890597 0.061405562
-0.086463034 -0.12855151 0.114294514 0.055494454 0.0568118 -0.07677696 -0.24997413 0.060896542
0.06984606 0.21856268 -0.10961187 0.1970715 0.051150743 -0.0767421 -0.15407814 0.10142216
-0.09098419 0.025894715 0.0863698 -0.07545564 0.05927951 -0.044010937 0.075883 0.15262759
0.17152978 0.04356414 0.005025865 0.049002342 0.10673982 -0.065864705 -0.01852287 0.22376306
0.006612675 0.15293539 0.10697241 0.17033884 -0.29677457 -0.056045108 -0.04664503 -0.1511836
0.09734754 -0.054597117 0.10955446 0.20278366 -0.0037008217 0.12048814 0.12952633 -0.09256722
0.037353244 0.108366944 -0.00288748 -0.03853772 -0.07811131 0.22088549 -0.0883143 -0.118215546
0.14680593 0.06721193 -0.15344894 0.22012828 0.10562624 0.04481832 -0.09686963 0.14528726
0.007922522 0.046594836 0.26284567 0.20829284 0.07373142 -0.1270328 0.06111357 0.1781345
-0.02669619 0.009457509 0.20885186 0.12917697 0.16572104 0.07800602 0.079762265 0.18080914
0.25400606 0.043615285 -0.023690566 0.28113493 0.14926408 -0.040822595 0.18018268 0.06724607
-0.0376365 0.27975696 0.1198549 0.2497106 -0.0735427 -0.12034675 0.031376917 0.24348488
0.2482174 0.18733603 -0.0426937 0.19135304 0.19435276 0.24284025 0.09100222 0.047429454
0.27640492 0.0047839126 0.11775113 -0.0014182136 0.18634436 0.2371638 0.16653484 0.10300333
0.03615342 0.044004433 0.08827214 0.2411138 0.08343788 0.09738432 0.13582136 -0.15092523
-0.18798412 -0.15716241 0.12084765 -0.02637259 -0.051859 -0.068565324 -0.23552412 -0.20508285
-0.08995864 -0.053391762 -0.031073837 0.2494707 0.16697592 0.10415439 -0.030186828 0.10737062
-0.17171425 0.14195119 -0.15476626 0.05893798 -0.10602895 0.24328753 -0.061522752 0.11601408
-0.009687642 0.071078144 -0.08423083 0.04420997 0.0712566 0.022585554 -0.08497486 0.045145035
-0.16976623 0.07260693 -0.010086512 -0.24002558 0.1652798 0.09631427 0.06216205 -0.04799341
-0.13548669 -0.14722164 -0.07979544 0.25753284 0.08388915 -0.12532184 0.09115803 0.052334867
-0.09928533 -0.23589358 0.034845114 -0.043338355 0.1410516 -0.06639949 -0.12971064 -0.13607281

recurrent._blocklist.0._spatial_attention._W1 f4 [100]
00000000: 8e19 14bd 9d06 453f ca5a f8bd d1df 383d
00000010: 35dd debd 301a 6b3e 1c7b 00be 7d61 b43d
00000020: 12a9 1bbe 1bd1 393f dd7a 56be 60d3 013d
00000030: 0542 113f 8688 153f 1edb 923d 29cd 4f3e
00000040: 5fe9 213e 72bf fb3e db75 103e 4814 323e
00000050: 511a 2cbd 0641 eebd 3284 123f 5f6c 1d3f
00000060: 6732 48be cf54 973e 6b50 323f 8370 af3e
00000070: c7af 0e3f 6d99 b13e 8309 173f 562c 463e
00000080: c9ee e53e 039f d43e a81e 21bd c185 4ebd
00000090: 94a7 2b3f 5a56 f03e 46d5 f4bd 788a 9bbd
000000a0: ddc6 3a3f 896a 403f 7ef3 3bbe 779b 4cbd
000000b0: 0bcd c03e 8010 0b3c e80b 6f3e e0d8 ae3e
000000c0: 97b6 3d3f 3828 513e 267e 113f 21ca ab3e
000000d0: 91c8 413f 9dd6 b63e c8f0 18be fb19 053f
000000e0: dd55 1bbe 8ee0 8f3e 0f33 143f d581 053f
000000f0: 1acc 293f eb91 dd3e 615d e7bd c9de 183f
00000100: 54ac b33c aec9 1d3d 212c 153f 41cb 5abe
00000110: 6ce1 dd3d 6010 5f3e dfaa 473f 567e 983d
00000120: 995c bb3d 67c6 203e acc6 c03c ef81 9c3e
00000130: 2cee 67bd f7a2 113e 5adb 433f df3d 003f
00000140: b4c5 bd3e 32b4 c2bc f96e 413f 7ce8 ab3e
00000150: a5c8 df3e 34ce 053f e669 853c e9ee 293e
00000160: 2560 ed3e 3cd9 423f 79b6 313f 5a84 cc3e
00000170: 67df c63e 11a8 033e 729e d63e 5c97 f7bd
00000180: e012 043f 2e5d 2c3f 0525 143e ab0a e33e
-0.036157183 0.76963216 -0.12126692 0.045135323 -0.10882036 0.22959208 -0.12546962 0.08807657
-0.15201214 0.72584695 -0.20945306 0.031695724 0.5674136 0.58411443 0.071706995 0.20293106
0.1581168 0.491695 0.14107458 0.17390549 -0.042017285 -0.11633496 0.57232964 0.61493486
-0.19550477 0.2955689 0.6965396 0.34265527 0.55736965 0.34687367 0.5899889 0.1935285
0.4490874 0.41527566 -0.039335877 -0.050420526 0.6705258 0.4694088 -0.11954741 -0.0759477
0.7295969 0.7516256 -0.18354604 -0.04995295 0.37656435 0.008487821 0.23344386 0.34149837
0.74106735 0.20425498 0.5683311 0.3355265 0.75696665 0.35710612 -0.14935601 0.5199277
-0.15169473 0.2810101 0.5789041 0.5215123 0.6632706 0.4327539 -0.112971075 0.59714943
0.021932758 0.038522415 0.5827046 -0.21366598 0.108340114 0.2178359 0.77995104 0.07445972
0.09148521 0.15700684 0.023532234 0.3056788 -0.056623623 0.14222322 0.7650658 0.5009441
0.37064898 -0.023767564 0.75559956 0.3357581 0.43707767 0.52267766 0.016285848 0.16595043
0.46362415 0.76112723 0.69419056 0.39944726 0.38842317 0.12857081 0.4191776 -0.120894164
0.515913 0.6732968 0.14467247 0.44344077

recurrent._blocklist.0._spatial_attention._W2 f4 [1, 100]
00000000: f7e8 223d b7db 55be d37c d33d 0200 e3bd
00000010: 0808 fe3d 91ad 653e 76ad 033e 37dd 41be
00000020: 1aeb 06bc 9c16 e13d c73d a6bd 774a 283d
00000030: 1e83 6c3e 5b61 1fbe d9ac 0ebe 60d6 053e
00000040: bd8d 2cbe 3a35 1a3d a31b 5d3e abe4 2bbe
00000050: 5a13 31be 8828 1b3e 8649 57be a8c8 74bd
00000060: 116c 9cbd 60b0 523e c32c 17bd 656c 8e3d
00000070: 23eb 483e 6dce 943d eb06 d03c 4e02 87bd
00000080: 2a77 6cbe 8125 113e 41bc 57be 8f8b 5dbe
00000090: 0e7b e73d 5396 30bd f892 4fbd c915 79be
000000a0: 4108 02be 2ec4 9bbc 847e c7bd 349a 323d
000000b0: 0eb8 613e ef65 88bd e288 763e 5269 dbbd
000000c0: 7c14 133e 7646 f1bd 70a0 e9bc acb8 623c
000000d0: 1ff8 1a3e 7a7c 363d 4d0f 3abe 707a 913d
000000e0: 17b3 73be 1ecc 55be 950b 3cbe f5ad 0c3d
000000f0: 263f 023e 01bd 933d cdc9 5d3e 454e 123e
00000100: 4504 63be 18ff 3e3e 2c0e 013e 734f f03d
00000110: 5961 f33d ce62 b9bd 87b1 2fbe 5363 3abe
00000120: 0e4b 0cbe 19f4 4cbe 3024 5fbd 4dbb 543e
00000130: 9bd6 65be 0609 b7bd 2b27 cf3d e16c 313e
00000140: d111 8b3d 2161 4b3d 880c 0b3d 2b2d 743e
00000150: 5ccf e7bd 3d5e 0cbe 57db d53d 0ef6 11bd
00000160: d490 48be 6b11 3abe 4623 2bbe 5d95 4f3d
00000170: 3988 71be 143d e53d ac56 243e f926 88be
00000180: 6693 5f3e 44e7 d0bd ad47 283e 58d8 7bbd
0.039772954 -0.20884596 0.10326543 -0.11083986 0.124038756 0.22429492 0.12859139 -0.18932043
-0.0082347635 0.109906405 -0.08117252 0.04108664 0.23096892 -0.15564482 -0.13933124 0.13070059
-0.16850944 0.037648417 0.21592574 -0.16786449 -0.17292538 0.1515218 -0.2102414 -0.059761673
-0.076377995 0.20575094 -0.036907922 0.06954268 0.19620948 0.07265935 0.025393924 -0.065922365
-0.23092332 0.14174463 -0.21067907 -0.21635269 0.11302768 -0.04311211 -0.05067727 -0.24324717
-0.12698461 -0.019014444 -0.09740928 0.04360409 0.22042868 -0.06660067 0.24075654 -0.10713448
0.14363283 -0.117810175 -0.028518885 0.0138379745 0.15133713 0.044552304 -0.181699 0.07103431
-0.23798786 -0.20878646 -0.18363793 0.034345586 0.12719402 0.07213784 0.21659012 0.1428767
-0.22169597 0.18651998 0.12603062 0.11733904 0.11883802 -0.090520486 -0.17157565 -0.18201952
-0.13700506 -0.20014991 -0.05447787 0.20774575 -0.22445147 -0.08937268 0.101148926 0.1732669
0.067905076 0.049653176 0.033947498 0.23845355 -0.113188475 -0.13707824 0.104422264 -0.035635047
-0.19586498 -0.18170707 -0.16712674 0.050679553 -0.23587121 0.1119329 0.16048688 -0.26592234
0.21833572 -0.102003604 0.16433592 -0.06148562

recurrent._blocklist.0._spatial_attention._bs f4 [1, 23, 23]
00000000: 636f bcbd a6f4 e93d 5687 673d 2d52 a8be
00000010: 518a 283e 8ebd ecbd afbf 01bd 640f c53d
00000020: 4362 ccbd 6e1d 19be 6b73 4f3b e1e8 26be
00000030: 39e4 90bc 2b76 05be 23dc e83d 2176 b73d
00000040: b12a ef3d 79b4 dd3c 7d3e 92bd 2ee2 e6bd
00000050: d082 0dbe f50b 863d 173f ebbd 704a 0c3d
00000060: 4839 0cbe 0a41 a93d d490 963e 5dc0 923c
00000070: f78b 173e 7fc7 8dbd ef9f cb3d 7d41 9abd
00000080: 0fa9 ffbd 3b3a 623e 7218 91be 807b 90bd
00000090: dbd9 31be 8b38 5a3d e34d e5bd 1021 27be
000000a0: 3bc3 97bc 78f6 55bd 0bf7 b93c 8b3d 2abe
000000b0: fb94 5dbd 14e5 a4bd e2c2 bb3d 09e6 f2bd
000000c0: b288 29be 8cec bc3e 084b 1cbe a9db 043d
000000d0: beec fcbd 3358 38bd bcbe a13a b3d6 4cbd
000000e0: 8ff3 eabd 2a40 063e 5844 863d ca94 c1bd
000000f0: 58b3 72bc 9beb 423d 753d 37be fd79 893d
00000100: 9752 793e acfb 513e cb90 f43d 248d 8cbd
00000110: 1abb c93c f8b2 57bd d21a a03c ed28 e1ba
00000120: afc1 d13e 6da2 ed3d 50d4 1d3e bc0d 90bd
00000130: f4d6 c6bb 483b 3c3c 8001 b7bd 0232 23be
00000140: a527 07be de7e debd 30e2 c53d 2260 fc3d
00000150: f1bb b7bd 9369 333e 3763 ccbd 5de1 023e
00000160: 8821 ecbc 256c 2bbd ae16 c53d da4e aebd
00000170: 2be2 3cbe 6cbb 2b3c d1c2 2d3d 2505 c53e
00000180: 938c 763d 6044 233e ed95 5ebe 602b c1bd
00000190: 2f4f 043e 8b89 1bbe 33c4 f7bc 0745 b3bc
000001a0: 6cc1 543e fe1d 67be 2387 45be 02f4 22bd
000001b0: 5579 c9be 9ba1 e73d a67e 8e3d e035 973c
000001c0: ebf4 29bd 46ce 3abe 53a6 c03d 9cd4 943e
000001d0: a815 783d c24b e33c 1a04 a33e b25a 3bbe
000001e0: 3ffb 363e 8eeb 29be 3f76 8ebd ef1c 513d
000001f0: f251 4a3d 09f6 473e 3a00 f1bc b03b aa3e
00000200: 82ad db3e 06bc 75be 58d9 8f3e 125b 213d
00000210: 1d2e bf3d 78f6 153d 3ad3 40bd e1ac 423d
00000220: 37ed c3be e587 99bd 2cee 23be 9de5 8d3b
00000230: ea5a 113d d3ac 963e de43 4a3e 43b3 d9bc
00000240: 8c6e 93bd 0047 83bd d59a 943d 5646 9b3d
00000250: 802d 3dbd a341 71bc 54b2 943b 34dd 56bd
00000260: e86e 40be 3d93 1fbe 6831 86be 0e25 8ebb
00000270: dc88 393d d3bc dc3b c22d 08bd 5498 bdbc
00000280: 4d17 94bd 3ad6 683d f20e a0bc 1e66 343c
00000290: 0599 b63e 0566 d0bc f852 7e3e 0a54 98bc
000002a0: 0169 37bd dea8 023e 10b8 23bd 7ce3 553e
000002b0: 28fb 00bd 7588 473e 70d7 eb3d edc8 2bbb
000002c0: c33e 5ebe a070 a6be f343 863d bf64 1b3e
000002d0: 0d95 23bb 87a3 a63d 15f1 e83d 3b0e c7bc
000002e0: 9a82 b23d a6a5 103e 8ab9 d33b c901 abbe
000002f0: 431f 7e3d 6bfe 5b3e 695e 643d 5e12 53be
00000300: 53fb d3bd 59db 5e3d 3798 753e 8a84 1cbe
00000310: e09e 253e eb25 923e 56a3 35be e6b7 8cbe
00000320: d00d 2d3e 16f7 883d c534 283e 23cd 7c3d
00000330: d000 083e 4349 893e 1137 06be 7510 e0bd
00000340: 38e7 8bbd 68b1 36bc cc4a de3e fe5a 32bd
00000350: 8491 7fbd 6adc a23d 36f8 363e f3bb 163e
00000360: d6aa d5bd dcec 303e bc17 0dbe e9e0 a5bd
00000370: 6b38 5a3e 4a02 823d 742c 7fbe 6dd2 853c
00000380: 311d f33d b724 abbc 20cd 56bc d469 3f3b
00000390: b00b 623e e0ae 573c 464b 3d3e e669 483e
000003a0: c63a 933e 479e 013f 53af f5bd 1784 56bd
000003b0: 64fe e53d 69c6 49be d084 403d bdb3 18bd
000003c0: 50c2 3e3d 66c0 efbd a2f0 683e 1bdf 93be
000003d0: e29d 1a3e ffb5 a9be 1792 8abe d3b6 393d
000003e0: 01d0 e13d d5b0 633d 75da aabd fd14 c2be
000003f0: 9d90 0fbe b5bd d5bd a555 efbc 2871 41be
-0.09200933 0.11423616 0.05652555 -0.32875195 0.16459014 -0.11559592 -0.031676944 0.09622076
-0.099796794 -0.14952633 0.0031654488 -0.16299774 -0.01768695 -0.13033359 0.11370113 0.08958078
0.116780646 0.027063595 -0.07140825 -0.11273609 -0.13819432 0.065452494 -0.11486643 0.034250677
-0.13693726 0.08264358 0.2940737 0.017913992 0.14799486 -0.069228165 0.09942614 -0.07532022
-0.12483417 0.22092526 -0.28338963 -0.07054806 -0.17368262 0.05327658 -0.11196496 -0.16321206
-0.01852571 -0.052237004 0.022700807 -0.1662504 -0.054097157 -0.08051506 0.0916803 -0.11860282
-0.16556051 0.3689922 -0.15262997 0.032436047 -0.123498425 -0.04500599 0.0012340168 -0.05000944
-0.11472236 0.13110414 0.06556004 -0.094522074 -0.014813267 0.047587972 -0.17894538 0.067127205
0.24347912 0.20506161 0.119416796 -0.06862858 0.02462535 -0.052660912 0.019544039 -0.0017178335
0.4096808 0.11603246 0.15413022 -0.070338696 -0.006068105 0.011488743 -0.08935833 -0.15937045
-0.13198717 -0.10864042 0.096622825 0.123230234 -0.08971394 0.17520742 -0.09979861 0.12781282
-0.028824583 -0.04185118 0.096234664 -0.085111335 -0.18445651 0.010481697 0.04242212 0.38480487
0.060192656 0.15944052 -0.2173688 -0.09432101 0.12920831 -0.15189187 -0.030244922 -0.0218835
0.2077691 -0.22570035 -0.19289832 -0.039783485 -0.39350381 0.11310121 0.0695775 0.018458307
-0.041493338 -0.1824275 0.09406724 0.29068458 0.060567528 0.027746085 0.31839067 -0.18296316
0.1786928 -0.16593763 -0.069561474 0.051052984 0.049394555 0.19527449 -0.029419053 0.33248663
0.42905813 -0.23997506 0.28095508 0.039393492 0.09334967 0.036612004 -0.04707644 0.04752815
-0.38266918 -0.07496623 -0.16008824 0.0043303506 0.035487093 0.2942873 0.19752452 -0.026574736
-0.071988195 -0.064100266 0.07256094 0.07581775 -0.04618597 -0.014725122 0.00453786 -0.05245705
-0.18792307 -0.1558351 -0.2620957 -0.0043379134 0.045296535 0.006736377 -0.033246763 -0.023143925
-0.07231007 0.056844927 -0.019538376 0.011010675 0.3566362 -0.025439272 0.24836338 -0.01859476
-0.044777874 0.1275973 -0.039970458 0.2088756 -0.03148952 0.19485648 0.11515701 -0.002621229
-0.21703629 -0.325078 0.06555929 0.1517515 -0.0024960667 0.08136659 0.11374108 -0.024298778
0.087163165 0.1412569 0.006461327 -0.333998 0.062041532 0.21483772 0.0557541 -0.20612475
-0.10350671 0.054408405 0.23983847 -0.15284935 0.16173887 0.28544554 -0.17738089 -0.27484053
0.168998 0.06687753 0.1642638 0.06171907 0.1328156 0.26813707 -0.13106944 -0.10940639
-0.06831211 -0.011150695 0.4341644 -0.04354381 -0.062394634 0.07952197 0.17868122 0.14720134
-0.10432975 0.17277855 -0.13778585 -0.08099539 0.21310584 0.06348093 -0.24919301 0.01633569
0.11870802 -0.02089153 -0.013110429 0.0029207366 0.22074771 0.013164252 0.18485746 0.19571647
0.28755778 0.5063214 -0.11996331 -0.052372064 0.11230162 -0.19704594 0.04700166 -0.037280787
0.04657203 -0.11706619 0.22748044 -0.28881153 0.1509929 -0.33146665 -0.27064583 0.04534037
0.11026002 0.055588562 -0.083424486 -0.37906638 -0.1402001 -0.10436574 -0.029215643 -0.18890822

recurrent._blocklist.0._spatial_attention._Vs f4 [23, 23]
00000000: 3579 5abd 09c0 e7be 67cf a9be 98ca fbbc
00000010: 8d90 c2bd 5986 183e f6d5 eb3b 770c 283e
00000020: 8d47 893e d000 51be 5c0f cbba 30e3 a33d
00000030: 7695 debe 19f2 cd3d 5625 683e 0af8 f33c
00000040: f84b f8bd b19e 993e f71d 89bd 0893 883e
00000050: bcba 85be c076 6ebe 4954 4e3e cb2b 8abe
00000060: e014 343e 63b8 a13d 05d8 a3be 5f14 9d3e
00000070: 7b28 9dbb 6531 833b cd71 233e 002d 853e
00000080: 46c0 bebe 7fae 613c fb68 22be 339a 9dbe
00000090: c961 8ebe 8c81 4b3e 14d1 81bd ff97 2e3e
000000a0: c5be 24be 3daf 72be 65be 873e 2c06 9d3e
000000b0: 4a10 95be 31fc 563e d1e0 e9be c9ae 1bbe
000000c0: 89b8 78bd 8333 89be bc0a 8bbd 089c 973d
000000d0: a19e 60be ccde c3bd 1805 9e3d 45e4 a7bd
000000e0: 8f63 f93d 6303 d8bd bc6a 99be f9f8 33be
000000f0: a107 2d3e 04eb 653e eb58 9a3e 2f62 b13d
00000100: 2bbd a7be 578e 1b3e f03f 103e 5971 91be
00000110: f009 863e 56ff 76bd 0e8c 053f 221a a93e
00000120: 6ae5 933e ccc7 153f 4f73 b73e 5e82 1d3f
00000130: f161 e63e d862 8b3d 4b1e 103f eee1 a03e
00000140: d0be e83e 02d7 1bbd e30f 923e 61b1 453e
00000150: 361f de3e 37fe f83e 2b03 01bd 1ed0 2c3f
00000160: ea83 613e dc9e 94bd e5ff 7d3e da6f 833e
00000170: 4a0a 79be 2350 26bd a977 6d3e d199 11be
00000180: 506e 47be ffcc 3c3d 1d43 9cbe 6f74 cdbe
00000190: 9158 b33c dc72 273e 3868 d63c cdca 9cbe
000001a0: 410f 41be 564b a8be a539 b5bd 1366 52be
000001b0: 7f0e d3be ead5 173e c387 3f3e 9f81 55be
000001c0: 1130 a7be b0c2 62be 09c4 a0be 2a3f 48bc
000001d0: 38fe 273e aacd 9cbe 77d8 b5be 2121 24be
000001e0: b63b 08bf 5a0b 393c 36da 46be f145 b5be
000001f0: 0d28 ae3d 8888 1e3d af80 dfbc 3561 f8bd
00000200: 8d31 afbe 57e4 63bd 2712 cdbd 7712 b4bd
00000210: b8b2 18bf e239 e3be 9ecc 00bf 633b 243d
00000220: 98ac 42be 5022 92bd 8e33 2d3e 46f0 62bd
00000230: 1f2e 82bd b61b a8be e8d3 bfbe c011 2bbe
00000240: 9f1e dcbe 902c 1c3e ad57 113e c1eb e2bc
00000250: 8d67 a73e 5a90 9bbe 8147 323e a3b4 9d3e
00000260: 3eea 823e 34fe 3abe b014 2abc 23da d03d
00000270: 76a2 6ebe 4ca8 d93e ac1c 193e 589c 16be
00000280: 9e0a 96be aea0 b0bd 6c33 523e 1fb4 b93d
00000290: f13c a8be 77d1 88ba 31d2 8e3b 415d 3c3e
000002a0: d645 173c a99b 253e 53aa 9dbe e8fb 593d
000002b0: 127c abbe 4ffa 7f3d baa5 c2be a1c1 e83d
000002c0: 2ad2 bfbb ac96 a4be 800a f8bd e831 b2be
000002d0: 03ae e13d 20c9 d7be ba1e 69be 052c 17bd
000002e0: eef7 77be abd1 a33d 403d ea3e 3fb8 c0be
000002f0: 5c60 7ebe f47d 5ebe ecd7 b5bd ed87 85bd
00000300: b193 a73c aed1 fdbe 9d45 13bf ef8b 613d
00000310: 2c2c dd3d 23d3 8f3e b5e5 82be d81b b4be
00000320: 3c5e 8fbe 3b19 0bbf 5493 2fbe 969b 213d
00000330: 628b b4bd b7ad 7e3e 01e3 68be cc9a fc3c
00000340: 0f15 023d b910 0abe fbb8 fb3d 2f61 4a3e
00000350: 3e6b 37be a677 80be 8f04 77be ed7b 1bbe
00000360: 179b a7be c908 ae3d d78e 753e 0474 693e
00000370: fc98 cd3c 51fc e9bd a211 84be e210 1fbd
00000380: a5f6 08bd 7d43 05be 308c da3c 4a52 aabd
00000390: a763 e13d 9355 593d ea26 923d 41f7 7b3e
000003a0: 1785 883e d284 523e f711 0d3c 71e3 e3be
000003b0: d49a e63d 04c1 b5be 39f8 4ebe ea5a 0dbf
000003c0: 2739 26be e169 f6be 606b 2abe cb8b 6c3e
000003d0: 7948 b13d 1b7a d7be 15f1 4dbe 94c5 ce3d
000003e0: 9fa0 ecbe d7c2 82be c8ef febe c054 c83e
000003f0: 86d3 87be f9c4 8b3d 2537 d0bc 2c92 53be
-0.05333825 -0.452637 -0.33166048 -0.030736253 -0.09500227 0.14895 0.007197137 0.16411005
0.268124 -0.20410466 -0.0015492248 0.08002317 -0.43473405 0.10055942 0.22670493 0.02978136
-0.12123865 0.30003884 -0.066951685 0.26674676 -0.2611903 -0.23287487 0.2014934 -0.26986536
0.17586088 0.07896497 -0.32000747 0.30679604 -0.0047960854 0.004003691 0.1596138 0.26010895
-0.37256068 0.013774513 -0.1586036 -0.30781707 -0.2780898 0.19873637 -0.063387066 0.1705017
-0.16088398 -0.2369966 0.26512447 0.3066877 -0.2911399 0.20994641 -0.45679334 -0.15203394
-0.06072286 -0.26797113 -0.06789157 0.074028075 -0.21935512 -0.095639795 0.07715815 -0.08197836
0.121771924 -0.10547521 -0.29964244 -0.17575444 0.16897441 0.22452933 0.30145964 0.08661305
-0.3276151 0.15191017 0.1408689 -0.2840679 0.26179457 -0.0603021 0.5216683 0.3302775
0.28885967 0.5850799 0.3583016 0.6152705 0.44996598 0.06805962 0.56296223 0.3142237
0.45458078 -0.038046844 0.28527746 0.19305946 0.43383187 0.4863145 -0.03149716 0.6750506
0.22022977 -0.072568625 0.24804647 0.25671273 -0.24320331 -0.040603768 0.23190178 -0.14218833
-0.19475675 0.046093937 -0.30519953 -0.40127894 0.021892818 0.16352409 0.026172742 -0.30623475
-0.18853475 -0.32869977 -0.088488854 -0.2054675 -0.41221997 0.14827695 0.18704133 -0.20850228
-0.3265386 -0.2214458 -0.31399563 -0.012222091 0.1640557 -0.3062566 -0.35516712 -0.16028263
-0.5321611 0.01129421 -0.19419178 -0.35404924 0.08503733 0.038704425 -0.02728304 -0.12127916
-0.34217492 -0.055637684 -0.10013228 -0.087925844 -0.59647703 -0.443801 -0.5031222 0.040095698
-0.19011152 -0.07135451 0.16914198 -0.055404924 -0.06356453 -0.32833642 -0.3746636 -0.1670599
-0.42992112 0.15251374 0.14193602 -0.027700307 0.3269619 -0.3038357 0.17410089 0.30801877
0.25569338 -0.18261033 -0.010380909 0.10197856 -0.23304161 0.42511213 0.14952344 -0.14708078
-0.29304975 -0.08624397 0.20527428 0.090675585 -0.32858995 -0.0010438402 0.004358553 0.18394949
0.009232959 0.16172661 -0.3079401 0.053218752 -0.33493096 0.062494572 -0.38017064 0.11365057
-0.005853911 -0.32146204 -0.12111378 -0.348037 0.11019518 -0.42145634 -0.22765628 -0.036907215
-0.24215671 0.07998975 0.45749855 -0.3764057 -0.24841446 -0.21727735 -0.088790745 -0.065200664
0.020456167 -0.49574035 -0.57528096 0.05506509 0.10799441 0.28090772 -0.25565878 -0.35177493
-0.28001583 -0.54335374 -0.17146045 0.03945502 -0.08815648 0.24870954 -0.22742845 0.030835532
0.031758364 -0.13482942 0.122911416 0.19763635 -0.17912003 -0.25091285 -0.24122833 -0.15183993
-0.32735512 0.084977694 0.2398027 0.22798163 0.025097363 -0.11425079 -0.25794703 -0.03883446
-0.033438344 -0.13014026 0.026678175 -0.08316477 0.11005335 0.053060126 0.071363285 0.24606039
0.2666404 0.2055848 0.00861024 -0.44509462 0.1126 -0.35498822 -0.20211877 -0.5521685
-0.1623274 -0.48127654 -0.16642523 0.23100202 0.08656401 -0.42085347 -0.20111497 0.10096279
-0.46216294 -0.25539276 -0.49792314 0.3912716 -0.26528567 0.06824679 -0.02541692 -0.20661229

recurrent._blocklist.0._chebconv_attention._weight f4 [2, 1, 4]
00000000: de82 99bf a206 6e3e 921a f6be f430 d4be
00000010: 9449 8c3f 63da e03e 5f95 543e ab3b 2c3f
-1.1993062 0.23244718 -0.48067147 -0.41443598 1.0959954 0.43916616 0.20760106 0.67278546

recurrent._blocklist.0._chebconv_attention._bias f4 [4]
00000000: 8e68 633d 1e53 2e3f dfe1 253f 2d11 733f
0.055519633 0.68095577 0.64797777 0.94948083

recurrent._blocklist.0._time_convolution.weight f4 [4, 4, 1, 3]
00000000: 6d7b 10bf a79c 66be 486a e7be 19b5 cabe
00000010: c0d5 bfbe 3669 a2be 3abd 013d 6e44 6e3e
00000020: 35ad d9be 04be a43e c555 ac3e 21bd 83be
00000030: db9a df3b 0e5c c9bd a9a8 393f 2d5c 913e
00000040: 65ac 51be dbac 693e af8a adbe 7f53 9bbe
00000050: 4293 9b3e 5062 8ebd 7c81 033f 2756 bcbc
00000060: 90d8 5abf 33fb b4be cdf2 b9be 791d d83e
00000070: 2e3b 9dbd 525b 04be 3a85 543e a15a 0c3f
00000080: ad3c eb3e a183 90be 26fa 45bd ea59 55be
00000090: ab6b cebe dd0b 66be d569 bcbe 820c 493e
000000a0: 047b b23e 2dac 80bd 5835 93bd b1af 9f3e
000000b0: 2075 803c 2888 9ebd 089f 0e3d f153 37be
-0.5643833 -0.22520696 -0.45198274 -0.39591292 -0.37467766 -0.31720895 0.0316746 0.23268291
-0.4251496 0.3217622 0.33659187 -0.2573023 0.00682388 -0.09832011 0.7252298 0.28390637
-0.2047592 0.22819845 -0.3389487 -0.3033714 0.30385786 -0.06952345 0.5136945 -0.0229903
-0.854867 -0.353479 -0.36318055 0.42209986 -0.07677303 -0.12925461 0.20753947 0.5482579
0.4594473 -0.28225425 -0.048334263 -0.2083508 -0.4031652 -0.22465463 -0.36799493 0.19633678
0.34859478 -0.0628284 -0.07187909 0.3118873 0.01568085 -0.077408135 0.034819633 -0.17903115

recurrent._blocklist.0._time_convolution.bias f4 [4]
00000000: 198f 543e 93b1 413f be5b cb3e 731c e13c
0.20757712 0.7566158 0.3971843 0.027479386

recurrent._blocklist.0._residual_convolution.weight f4 [4, 1, 1, 1]
00000000: b0ab 8bbf 9b1f 803f 9e34 3ebf a8b6 6cbe
-1.091177 1.0009645 -0.7429904 -0.23116553

recurrent._blocklist.0._residual_convolution.bias f4 [4]
00000000: e0eb 9a3e 8d47 873d ec80 443f 9e45 6d3f
0.30258083 0.06605444 0.7675922 0.9268435

recurrent._blocklist.0._layer_norm.weight f4 [4]
00000000: 835f 213f 91f9 8a3e 3e9c ca3e 0f7e 653e
0.63036364 0.2714353 0.39572328 0.22411369

recurrent._blocklist.0._layer_norm.bias f4 [4]
00000000: 571b 2a3f 973b ed3e 04d9 6c3e 2122 3a3e
0.6644797 0.46334526 0.2312966 0.18177082

recurrent._final_conv.weight f4 [20, 50, 1, 4]
00000000: e062 18bc ef86 f43d 9c52 dc3d c2a5 a23d
00000010: 9890 b0bc 519f eebd 65b1 d7bd 0308 023e
00000020: b970 be3c 4c4b 7b3c cfde e8bc 30d9 293d
00000030: b46a c5bd 8f58 55bd 2e3f c4bd dd8d 85bd
00000040: 06e1 14bc 15f7 5dbd ea69 83bd 8f75 53bb
00000050: 289c 32be a291 1a3e a000 b33b ddea 2e3d
00000060: b71d 96bd cca3 dabd c27d 05be a1a2 f93d
00000070: 9e03 0c3d 6544 ac3d 0f6f 02bd 88ae 103e
00000080: 1ede bf3d e860 b2bc a14d aabd e2c3 00be
00000090: 9b67 55bd 1a10 c2bc 7fa0 0b3e 619b c3bd
000000a0: 6268 30bd b8b3 1a3e dedc 1f3e 2acb fd3d
000000b0: 3701 6d3d 0784 d9bc 176c c93d 244a 1c3a
000000c0: dc43 65bc 7d4d abbd 921c 6cbc c23f cf3d
000000d0: 14ad a7bd 265b 103e 22ba ed3c d400 843d
000000e0: ec90 b7bd e001 c23d 209f a9bc 2c3f c23c
000000f0: 8b6b 433d b460 e93d 7b74 9bbd c6da 06be
00000100: d8ab df3d c6eb 823d 49ac b83d 869f 833a
00000110: 8c95 e63c 8cea acbd 13b2 debd d115 3a3d
00000120: 8e7b d53d e53c 25bd bd60 943d 432f b03d
00000130: 3cfd 43bc 48e1 5cbd 377d 833d e5ed 573d
00000140: b627 e33d 0c6f 063e 5ca4 013d 0519 ed3d
00000150: 15d2 8c3d 8f8f 2f3d d3bb 90bd c2ad a23d
00000160: 0a80 b6bd e7a6 97bd 7d79 983c 93f5 c2bc
00000170: 03ec 24bd b616 b3bc 952e bb3d 48b1 17be
00000180: 2404 f83c 4123 eb3b eb97 0e3c 7dff 9dbb
00000190: 76c1 983d b8f7 b23d a05d f5bc 3683 b43d
000001a0: 22c7 3cba 3cd9 0f3d 9733 623d 1b44 16be
000001b0: 0379 d2bd 9b88 39bd fa2c 193d 4154 b63c
000001c0: 04b2 813d 7ade 98bc a442 103c ab9e 0abe
000001d0: d8c3 d63d 1588 04bd 90e1 0e3e e871 0bbd
000001e0: dfaa d3bd 8f6d 453d 8659 9d3d 9abc f53c
000001f0: 808c 503d 6df1 0a3e d384 d03d 364a 0d3e
00000200: 9f85 a8bd c715 193e d790 91bd 71d0 8cbd
00000210: ca6b e0bd 89da dc3d 3f18 a8bd 07fd 83bd
00000220: 0c63 fabc 5af2 a63d 9028 493c 4e6b 88bc
00000230: 7914 9a3d f9d0 87bd ebcc 96bd dee2 9abd
00000240: 82fb 91bd 7be2 f13c 48ad 77bd a260 9e3d
00000250: 4429 053e 51c8 8abb 4f72 d0bc ed82 c63a
00000260: 2208 96bc f715 00be b5f4 6bbd 071d e2bd
00000270: 58b4 f43c ecb6 b3bd aaa3 503d 5a64 15be
00000280: 65d4 debc d168 cfbd 5023 733d bf64 b6bd
00000290: 48c0 333e a0fc f4ba 7c71 6dbd d283 01bd
000002a0: f46c 3e3e 9fc8 e2bd 789d 80bd 8be7 e63d
000002b0: c982 eb3d fc8e f9bb 76c8 cfbb 6676 433d
000002c0: 24e3 a53d d358 2c3e 911a 99bc 227b 57bc
000002d0: bf0c 443e f190 223c 6c3c bdbd 2722 e0bd
000002e0: e9d8 4d3e 5c0f 16bd 7a18 0abe 7fbd 1fbd
000002f0: f6a0 313e 5d98 f63d 165d 38bd d413 6a3d
00000300: 182a 9c3e dc07 16bb 7415 c9bd 2e06 2dbe
00000310: 8ef1 8f3e b81d 49bc f94b bfbe 080d 23be
00000320: cded c93c 4cd1 ca3c 0777 283d 32a9 fd3d
00000330: 1939 2dbe a02e 0abe 45ab a4bd 094e f9bc
00000340: a4b9 91bd 184f 4a3b c38e ccbd 4bb5 ccbd
00000350: cb62 b4bd fa7a f53d 996f 503d b3b6 e73d
00000360: 99f6 f33c c926 113e 7665 dc3d 3e4f b83d
00000370: 7fcd 533d 4e75 743d 0aba 74bd c751 23bd
00000380: ef35 933d 2c69 aabd dd98 20bc 220b e93d
00000390: ebb4 debd 6db6 c43d 0853 163e 99fd c6bd
000003a0: 12ab 913d aaac c03c 3cee a8bc 2fbb c13d
000003b0: 7705 9c3b b71a 3b3d aa2e 8bbd 8483 8b3d
000003c0: c000 0fbd 8f1c e93c 5be5 093d ba10 56bd
000003d0: a642 b5bd 9944 f5bc ed85 acbd b492 8d3d
000003e0: 33f6 c03d 31b0 aabd 4365 1d3c f9df fabd
000003f0: cf17 103d 6939 603d 9fd6 8d3c a23c ab3d
-0.009300917 0.11939799 0.10757944 0.07941772 -0.021553323 -0.11651481 -0.10531882 0.12698369
0.02324711 0.015337776 -0.028426556 0.04146689 -0.09639493 -0.05208641 -0.09582363 -0.06521199
-0.009086853 -0.054190714 -0.06416686 -0.0032266115 -0.17442381 0.15094617 0.005462721 0.04270445
-0.073298864 -0.10675773 -0.13036254 0.12189222 0.034183137 0.08411483 -0.031844195 0.14129078
0.09368537 -0.021774724 -0.08315588 -0.12574723 -0.05210076 -0.023689318 0.13635443 -0.095511205
-0.043068297 0.1510762 0.15611598 0.12392266 0.057862487 -0.026552213 0.098350696 0.00059619755
-0.01399323 -0.08364389 -0.014411109 0.10119583 -0.08187309 0.1409727 0.02901942 0.064454705
-0.089631885 0.09473014 -0.02070576 0.023711763 0.047709983 0.11395398 -0.07590576 -0.13169393
0.109214485 0.063926265 0.09017236 0.0010042049 0.028147481 -0.08443174 -0.10873809 0.045430962
0.10423957 -0.040341277 0.07245014 0.086027645 -0.011962231 -0.053925782 0.06420367 0.05271711
0.11091559 0.13128299 0.031650886 0.11577038 0.068760075 0.042861518 -0.070670746 0.07943298
-0.0891114 -0.07404881 0.018612618 -0.02379874 -0.04026414 -0.021861415 0.09139744 -0.14813721
0.030275412 0.0071758335 0.008703212 -0.0048217163 0.07458775 0.08738655 -0.02995187 0.08814089
-0.0007201304 0.03511928 0.05522498 -0.14674418 -0.102769874 -0.045296293 0.03739641 0.022256972
0.06332782 -0.018660773 0.008804951 -0.1353709 0.10486573 -0.03235634 0.13953233 -0.034044176
-0.103353254 0.048200186 0.07683091 0.029997159 0.05091524 0.13568659 0.10181584 0.1379784
-0.08228611 0.14949714 -0.07107704 -0.068756945 -0.10958059 0.1078387 -0.082077496 -0.064447455
-0.030564807 0.08151694 0.012277737 -0.01665273 0.07523436 -0.06631655 -0.07363304 -0.07562803
-0.071280494 0.02952694 -0.06046799 0.07733275 0.13004023 -0.0042353054 -0.025445132 0.001514522
-0.018314425 -0.12508379 -0.057606418 -0.11040693 0.02987115 -0.08775124 0.050937332 -0.14589062
-0.027200887 -0.10127414 0.05935985 -0.089059345 0.17553818 -0.0018691011 -0.057969555 -0.031619854
0.1859625 -0.11073422 -0.06280035 0.11274632 0.11499555 -0.007615922 -0.0063410355 0.047720335
0.08099964 0.16830759 -0.018689426 -0.013151916 0.19145487 0.009922252 -0.0924004 -0.10944014
0.20102276 -0.03663574 -0.134859 -0.038999077 0.17346558 0.1204078 -0.04501065 0.057147816
0.30500865 -0.0022892868 -0.09818545 -0.16896889 0.2811398 -0.012275152 -0.3736265 -0.1592294
0.024649525 0.024758004 0.04112914 0.12385787 -0.16916312 -0.13494349 -0.080404796 -0.030432718
-0.07115486 0.0030869897 -0.09988167 -0.099955164 -0.08807906 0.119863465 0.050887678 0.11314144
0.029780673 0.14174952 0.1076154 0.08999489 0.05170965 0.059682183 -0.059747733 -0.03987291
0.071880214 -0.08320841 -0.00980207 0.113790765 -0.10874351 0.096051075 0.14680111 -0.09716339
0.07112707 0.023519833 -0.020621412 0.094595306 0.0047613936 0.045679774 -0.0679601 0.06812194
-0.034912825 0.028456 0.033665996 -0.052262045 -0.08850603 -0.029939936 -0.08423982 0.06912747
0.09421959 -0.08334387 0.009606662 -0.12249751 0.035178956 0.05474225 0.017314253 0.08361174

recurrent._final_conv.bias f4 [20]
00000000: bcda 433f 64db a43d b911 f73d 5e04 213f
00000010: 550a 763e 4283 353f 03c8 6c3f 494b b33e
00000020: 5d55 923e a8fb 283f f442 223f b97b 7b3d
00000030: 07e8 173f 8579 7b3f 5928 953d 0c5c 5a3f
00000040: e4a5 433f 86f9 513e ef9e 763f b77b 243f
0.7650564 0.08049658 0.12063927 0.6289729 0.24027379 0.7090341 0.92492694 0.35018376
0.28580752 0.66008997 0.6338341 0.061397288 0.5933842 0.982323 0.07283086 0.852967
0.76425004 0.20505342 0.96336263 0.64251274
