TFM/regresion/results/bus_fault/DCRNN.pt (torch, 141224 bytes, 8 tensors)

recurrent.conv_x_z.weight f4 [2, 1, 140, 40]
00000000: 44c8 a73c 20d8 b13c 9b12 8e3a 2477 bf3c
00000010: 1056 de39 0e04 b43c 410a 313d eb59 8c3c
00000020: a8cd ce3c 9be6 003b f4a3 a13c e3ea 1c3c
00000030: c2c0 d43c eb86 803d df35 6e3c fadb 4b3c
00000040: f086 a83c 8e35 103c 358e 38bb 8148 5e3c
00000050: b59d 30bb a01c 573c fe0e e1ba 7f2b e13c
00000060: 4740 253b a3ec 0bb9 e7f1 af3c 9182 c2ba
00000070: bc07 173c 1d55 4fbc 421f 8e3c 2264 24bc
00000080: c205 ae3c 0821 1b3c 3ebe 413c 0a34 f03c
00000090: 66a6 123c da36 853d f3f3 dd3b ce10 303c
000000a0: f7fc 353c 4de0 663a d479 653c e172 bb3c
000000b0: a8bd 7d3c a5d5 a63c 136b 8b3d d03d 1a3c
000000c0: fba9 ff3b e97c a5bb f142 81bb 4045 a5ba
000000d0: 14f9 9ebb 4b43 a73d ecd7 313c 83b6 b63c
000000e0: 334a 443c 0c1e ba3b f05c aa3c ce67 f438
000000f0: 4203 ec3b 8ae8 bf3b 731a 413c 803a 0f3c
00000100: beaa f13c 2564 9c3b 1938 5e3d c496 973c
00000110: bc68 7bbb 8f62 acbb 6806 8f3c 43d0 493c
00000120: 7d8d cb3c b4c3 17bc b935 0c3c d8bd 5b3b
00000130: 70c7 dbbb c997 543d 58c5 143c 0758 263d
00000140: 717d 74bb df5d e1bb abb9 833c 1385 d5ba
00000150: 6253 833c 1948 083c 5bbd 6d3d ffb8 0dbc
00000160: 3fc3 703c ce95 f73c 6ea2 6a3b 700b a03a
00000170: fe3e 143d 4901 8e3d a901 08bc cfd5 233c
00000180: d4f0 be3c 5908 c1b9 44c4 35ba 474e f2bb
00000190: 6b96 9dbb 597f ad3c 240b 633b b104 5b3a
000001a0: 95a4 8f3c a7e0 90bb fd81 cb3a ca57 28bc
000001b0: d82d 15bc 3859 c5bb 9d36 9f3c 7a1f 1d3c
000001c0: 3f03 4c3c 7ecf 39bc dcfa 64bb 94ef 833c
000001d0: a5cf 123c 6632 2e3d b059 173c 5a5a 2c3b
000001e0: 083e c73b d18d 86ba f476 9b3b 67b5 debb
000001f0: a380 09bc 731e 5c3c 1460 3e3d 2087 11bc
00000200: 3f17 413c bc8a 04ba 2762 e93c a868 433c
00000210: f325 3bbc d23b 983d fc18 4d39 c3f9 6b3b
00000220: 9aa5 1ebc 3d61 51bc 07ff 3a3c 28be a63b
00000230: dc12 5b3c 9a6e 26ba ecc0 a33c b2c2 a93a
00000240: 3dcd 8c3c 390b 4f3c 1c98 343d 3c06 063d
00000250: b2ef c93c 4708 13bc b4e1 f83b 0638 0abb
00000260: e402 963b 953d 00bc fb9c 2f3d f27a 83ba
00000270: 0ef0 833c e41d 433d 412e 983b 712e 1f3c
00000280: 1318 be3c 516f 263c 3305 0b3c 0869 2ebc
00000290: 5afc 4c3c 46e5 fe3b 016a 233d b668 b63c
000002a0: f760 d23c 971c 883c 49fe 2fbc 0250 a83b
000002b0: 24a4 073d 7f82 573d 39cb b0bb 4324 753c
000002c0: ecf2 04bc 4edf 503c 5709 a93c 5b64 f8bb
000002d0: f662 2a3c cecc dc3c 48c6 193c 8635 fe3b
000002e0: 58cb c53c 32e7 963c 9aa8 db3c db6f f2bb
000002f0: 5b4d 1f3b e299 033c b27c 9438 f441 cb39
00000300: 1e46 993c 2c73 b83c ca7c 003c 03cd 933c
00000310: 26d3 cd3b cb20 643d 565a 903c 26d5 923c
00000320: 597c 36bc 43eb 7dba a5e4 b33c dd13 5b3c
00000330: c189 6e3b 65eb 4d3b 293a 153d 327a 32bc
00000340: ea21 f63a 067b af3c 5d78 823c a5e4 713c
00000350: 64f2 64bb 378e 323d 5ede 1c3b 2f3d 063d
00000360: 3528 0f3c d90f 923a 9081 623c d522 8b3a
00000370: 4ed3 cbbb ee8c ff3c 6ba4 2cbb e61c 363c
00000380: 691a 73bb 661e ae3c d85c 1d3d f87f 523c
00000390: a527 bcbb 9a1b 4fbc 189a 26bc 86c3 a43c
000003a0: 41bc 803c c6c8 b53c 9b96 c43c cffb 9d3c
000003b0: 64b9 be3b 0506 073d 2edf 62bc cd25 8ebb
000003c0: 8879 613c 8e7e 56bb 75ef 123b 2c6a 9fbb
000003d0: b46a 943a 13fe 9ebb ea4f c43c e497 493c
000003e0: a2cb 9fbc 2f7f a9bb 8a98 02bc 7537 00bc
000003f0: f00a 30bc 8e87 153d f287 dab9 d263 acbc
0.020481236 0.021709502 0.0010839285 0.02337224 0.0004240726 0.02197459 0.04322267 0.01713272
0.025244549 0.0019668702 0.0197315 0.009577486 0.02597082 0.062757336 0.014539211 0.012442583
0.020572156 0.008801831 -0.0028160934 0.013567091 -0.002694947 0.013129383 -0.0017170606 0.02748656
0.0025215314 -0.00013344227 0.021477653 -0.0014839937 0.009218153 -0.01265457 0.01734889 -0.010033639
0.02124298 0.0094683245 0.011825142 0.02932169 0.008950805 0.06504603 0.006773466 0.010746194
0.011107675 0.0008807227 0.014006097 0.022881927 0.015487112 0.020365546 0.06807532 0.009414151
0.0078022457 -0.005050291 -0.0039447476 -0.0012609139 -0.00485147 0.08167132 0.010854702 0.022303825
0.011980581 0.0056798514 0.02079627 0.00011654162 0.007202537 0.0058565782 0.011786091 0.008741975
0.029500362 0.0047726803 0.054252718 0.018504508 -0.0038361987 -0.0052607725 0.01745911 0.01231772
0.02484774 -0.009262968 0.00855773 0.0033529904 -0.0067071244 0.051902566 0.009080254 0.040611293
-0.0037306214 -0.0068776454 0.016079744 -0.001629027 0.016030971 0.008317971 0.05804191 -0.008650064
0.014694988 0.0302228 0.0035802382 0.001221044 0.036192887 0.06933839 -0.008301177 0.009999706
0.023308195 -0.00036818048 -0.0006933848 -0.0073945853 -0.004809191 0.021178888 0.0034644092 0.0008354886
0.017534534 -0.004421312 0.001552641 -0.010274837 -0.009105168 -0.0060225986 0.019435221 0.009590024
0.012451946 -0.011340974 -0.0034939563 0.01610545 0.008960639 0.042528532 0.009237692 0.002629897
0.0060803927 -0.0010265653 0.004744405 -0.006796527 -0.008392486 0.013434994 0.046478346 -0.008882314
0.011785327 -0.00050560734 0.028489185 0.011926807 -0.011422622 0.07433285 0.00019559631 0.0036007024
-0.009683037 -0.012779531 0.011413342 0.0050885864 0.013371196 -0.00063488784 0.019989453 0.00129517
0.017187709 0.012636953 0.044090375 0.03272079 0.024650428 -0.008974141 0.0075952653 -0.0021090521
0.0045779813 -0.007827182 0.042874318 -0.0010031147 0.016105678 0.047635928 0.004644186 0.009715662
0.023204839 0.010158376 0.008485126 -0.010645159 0.012511337 0.0077787964 0.039896015 0.022266727
0.025681002 0.016615195 -0.010741779 0.005136491 0.03311552 0.052614685 -0.00539532 0.014962259
-0.008114558 0.0127485525 0.020634336 -0.0075803227 0.010399571 0.026953127 0.009385653 0.0077578453
0.024144813 0.01842079 0.026813794 -0.007398588 0.0024307582 0.008032294 7.080416e-05 0.00038768316
0.018710192 0.022515856 0.007842252 0.018042093 0.0062812744 0.055695336 0.0176212 0.017923903
-0.011138045 -0.0009686241 0.021959612 0.013371435 0.0036398026 0.0031420824 0.03643242 -0.010893391
0.0018778418 0.021420967 0.015926534 0.014763986 -0.0034934515 0.043592658 0.0023936252 0.032773193
0.008737613 0.0011143639 0.013824835 0.0010615239 -0.006220258 0.03119513 -0.0026343118 0.011115288
-0.00370946 0.02125473 0.03841862 0.012847893 -0.0057420307 -0.012640858 -0.010168575 0.020112764
0.015714766 0.022190463 0.023997596 0.01928511 0.00582044 0.032964725 -0.0138471555 -0.0043380023
0.013761885 -0.003272924 0.002242056 -0.0048649516 0.0011323304 -0.0048520654 0.023963887 0.01230428
-0.01950628 -0.005172632 -0.007970938 -0.007825722 -0.010744795 0.03650623 -0.00041681487 -0.021043692

recurrent.conv_x_z.bias f4 [40]
00000000: 21c4 c73b 5553 c53b f854 b63b 720e c53b
00000010: 23a4 d63b 34f4 0d3e 4320 9d3e b8a3 c93b
00000020: 2425 d43c 5dae 3c3e 0cd4 3e3d 3c9d c73b
00000030: a3f7 663d 3d74 833e 942e 963b ac4b 043e
00000040: b7c6 c43b 88ad c53b 0515 c53b f017 dd3d
00000050: 7dda c43b fe7c 993d f98b c43b 89f5 6e3c
00000060: 5157 fe3d fb0e 0a3c 9241 853e 6032 703d
00000070: 4ab0 f73b a4a3 c53b d359 5c3b f7a6 c63b
00000080: 8e47 de3b 777c de3b c2a5 1d3e 83ae 2a3e
00000090: d6c9 c43b 7a41 4c3e 01f2 f83d e44a e63d
0.0060963784 0.006021897 0.0055643283 0.006013685 0.0065503283 0.13862687 0.30688676 0.00615355
0.025896616 0.1842589 0.046588942 0.006091742 0.05638851 0.2567462 0.0045831893 0.12919492
0.006005134 0.0060326494 0.0060144686 0.10795581 0.006007491 0.074945435 0.0059981314 0.014584907
0.12418998 0.008426423 0.2602659 0.05864179 0.007558857 0.0060314704 0.0033622875 0.006062384
0.0067834323 0.0067897397 0.15395263 0.16668133 0.006005506 0.19946852 0.121555336 0.11244753

recurrent.conv_x_r.weight f4 [2, 1, 140, 40]
00000000: 2a2c b33b eada 8f3b 86ab 403c acee 463c
00000010: 7ae6 86bc 7de7 113c 1650 403c a660 1cbc
00000020: 0f2b 41bc ac05 8bbc 21bf 98bc 40c7 213c
00000030: d80c b03b 4831 28bc 0a65 8abc 51eb 8fbc
00000040: cd77 8c3c 51d0 cb3b ca7b 4a3b a4c9 ccba
00000050: 28cb fc3b 8c39 063b 14aa 053c 2200 9e3b
00000060: 8a83 1fbc 25b8 10bc f71a a33b 9dea 9c3b
00000070: 4c9d 5a3c 8708 65bc 0166 163c 2404 8ebc
00000080: e23a d43a ba67 7bbc 844a 18bc 74fa 30bc
00000090: ac1e 8a3c 65ca 893c 5652 09bc c7be 4fba
000000a0: d2be 81bc b3ae 7dbc 19c4 1cbc a6fc f03a
000000b0: 525b 8bbc 0ae6 80bb 38c1 2a3b 0421 5f39
000000c0: b9c4 1cba fee2 5e3b 2422 993c af39 84bc
000000d0: 3b60 5fbc 2fd3 213c 4fae bd3b f48a 833c
000000e0: a66e 763c 77f6 65bc 90a8 8cbb aa66 8bbc
000000f0: cd94 f93b 25cd 383c 189c 75bc bd8d 28bc
00000100: 9b61 253c fbdd 963b 748d 41bc d3a2 c4b8
00000110: 8ace 4dbc 9e1f f03b 3266 653b 332e a83b
00000120: bccb 69ba 39ae 863a 5ea9 65bc 3484 903c
00000130: 89b1 4aba 543e 0a3a 58e0 df3a 2c9f 91bc
00000140: 2a01 a03b f045 853c 6b23 343c 1f68 2c3b
00000150: c5c6 b33b bc0c 5c3b c1df 4b38 c495 073c
00000160: bffc cb3b 1e1f c93b dfb4 3abc 1fe4 16bb
00000170: 740c 413c 2fdb 4b3c f251 2ebc bc1e ca3b
00000180: 3b99 4ebc 5b63 a13b 41ed d63b eb74 3abc
00000190: 47d4 653c 5d14 5d3c ef5e 5e3c 8ed2 a93b
000001a0: 11df fe3b 8295 b6b9 fd02 24bc d397 bc3b
000001b0: 49a3 05bc 64bb 9f3b 70e7 1ebc 781f 03bc
000001c0: 23eb 73bc bafa a6bb eec8 3a3c 1087 c03b
000001d0: 406f c8ba 9c86 443c 34fd 5c3c af9c 04bc
000001e0: a729 65bc cb71 6e3c 806b 8cbc 7dfb 6ebc
000001f0: 5dfd 7dbc 02a4 47bc 2185 51bc 4229 163a
00000200: b4a3 07bc 254a 6e3c ca00 8abc eab3 69bc
00000210: 74bf 8ebc bf6c 88bc 4b3f 963b f857 56bc
00000220: da4b 87bb faf6 1dbc 8ad9 a6bb 7fa0 01bc
00000230: bc1c 453c 141b 09bc e675 1abc 9e06 303c
00000240: 10ba 8c3c 3c06 7c3c 3191 38bb 6925 5d3b
00000250: bfa3 20bc bf77 f2ba cbc9 0b3b 19f1 34bc
00000260: 23e6 34bb c603 143c 15b3 9a3b 4c13 903c
00000270: 5c90 d4bb 3ec3 01bc f32b 92bc 17c1 133c
00000280: f6c9 15bc 054a 90bc 7ff7 113b 4e87 edbb
00000290: fc2b 3bbc 3bbd 363c 9d78 3abc 739b 1a3c
000002a0: e4ba 833c 42b9 413c ba18 fabb d917 6a3c
000002b0: d769 53bc 576b 7a3c b39e 4dbb 383e 0bbc
000002c0: 6d19 a53a b510 8c3c f76f b0bb 771b 623c
000002d0: 4dfb 903b 302e 5fbc e2b5 64bc 9fdb 833c
000002e0: dcc9 8d3c 9333 393c b1a1 953c 9f9a 4cbc
000002f0: f096 23bc 5cb2 e8bb e0e4 2bbc 4511 97bb
00000300: 42da df3b e176 313b ab3d 3a3c 44cd bcbb
00000310: 732e 843c 6ecd 6a3b f184 433c 423b 6f3c
00000320: 05b6 84ba 56e6 913c 11b2 233c 3f81 3dbc
00000330: cac3 b23a f99e 16bc 6462 6a3b 46fa 3abc
00000340: f315 e6bb 0cec febb 9503 96bc 4127 8e3c
00000350: 9aff d3bb f3b9 bdbb 04cc cdb9 6c5f ae39
00000360: 1d07 82bc bb46 ac3b 0007 41bc 93e8 75bc
00000370: bedd 39bc 8272 71bc 4590 723c fac6 ec3b
00000380: 1fa9 873c 372b 79bc 9ecd 75bc 0aa9 f53b
00000390: c9f2 10bc 0dca bdbb 10ea 35bc 1343 82bc
000003a0: 5467 36bc 08b5 42bc c3a2 1e3c 33c2 02ba
000003b0: ce7d 413c 0398 863c 7f7a 4c3c b402 7cbc
000003c0: d57c 353c 9e57 303c 703b 0cbc f36d 82bb
000003d0: 5726 d03b 46fd fcba da5f 3dbc 027a 5bbb
000003e0: 4ee0 aabb c26c 3d3c 6be1 063c 428f 413c
000003f0: 75a0 51ba b7ef 8cbc bd26 973c ad35 193a
0.0054679113 0.0043901103 0.011759644 0.012141865 -0.016467322 0.008905289 0.011737844 -0.009544527
-0.011790051 -0.016970478 -0.018645825 0.009874165 0.005372625 -0.010265656 -0.016893882 -0.017568262
0.01714697 0.0062199016 0.0030896538 -0.0015624058 0.007714648 0.0020481078 0.008158226 0.004821793
-0.009735951 -0.008832966 0.0049775797 0.0047887103 0.013343167 -0.013979084 0.009179593 -0.017335959
0.0016191865 -0.015344555 -0.00929511 -0.0108019 0.016860329 0.016820142 -0.008381447 -0.00079248514
-0.01583806 -0.015483546 -0.009568238 0.0018385842 -0.017011318 -0.003933673 0.0026055109 0.00021279237
-0.00059802417 0.003400981 0.018693037 -0.016140787 -0.013633783 0.00987701 0.0057886015 0.016057469
0.015041029 -0.014035813 -0.004292555 -0.017016727 0.0076166154 0.011279379 -0.014990829 -0.010287699
0.010094072 0.004604099 -0.01181351 -9.376337e-05 -0.01256145 0.007327988 0.003500354 0.0051324605
-0.00089186034 0.0010275311 -0.014017431 0.017641164 -0.0007732143 0.000527357 0.001708041 -0.017776094
0.0048829513 0.0162687 0.010994772 0.0026307178 0.0054863417 0.0033576926 4.860736e-05 0.008275453
0.006225198 0.0061377427 -0.011395662 -0.0023024154 0.011782754 0.012442394 -0.0106396545 0.0061682146
-0.012609775 0.004925174 0.0065590446 -0.0113804145 0.014027662 0.0134936245 0.013572439 0.005182571
0.0077780564 -0.00034825137 -0.010010478 0.0057554035 -0.008156606 0.0048746336 -0.009698734 -0.008003108
-0.014887604 -0.005095807 0.011400444 0.0058754757 -0.0015291944 0.011994984 0.013488103 -0.008093997
-0.0139869815 0.014553498 -0.017141104 -0.014586327 -0.015502301 -0.012185099 -0.012788088 0.0005728194
-0.008278776 0.014544045 -0.01684608 -0.014264086 -0.017425276 -0.016653417 0.004585182 -0.013082497
-0.0041289153 -0.009641403 -0.0050918506 -0.0079118 0.012030777 -0.008368272 -0.009427523 0.010743765
0.017178565 0.015382346 -0.0028162713 0.0033744222 -0.009804665 -0.0018498822 0.0021329995 -0.01104381
-0.0027602992 0.009034103 0.0047210553 0.017587326 -0.0064869355 -0.0079200845 -0.017843222 0.009018204
-0.0091423895 -0.01761342 0.0022272763 -0.0072487956 -0.011424061 0.0111535145 -0.0113812955 0.009436476
0.016080327 0.011823954 -0.007632342 0.014287912 -0.012903652 0.015284381 -0.003137511 -0.008498721
0.0012596078 0.01709781 -0.005384441 0.013800493 0.0044244886 -0.013621852 -0.01395938 0.016095934
0.017308168 0.0113038 0.018265577 -0.012488036 -0.009984717 -0.00710134 -0.01049158 -0.004610213
0.0068314383 0.0027078914 0.011367242 -0.0057617743 0.01613543 0.0035828012 0.011933551 0.0146015305
-0.0010125047 0.017810028 0.009991185 -0.011566459 0.0013638672 -0.0091931755 0.0035764212 -0.011412209
-0.0070216595 -0.007779604 -0.018312255 0.017352702 -0.006469679 -0.005789989 -0.0003925265 0.0003325896
-0.015872533 0.005257455 -0.011781454 -0.015009063 -0.011344371 -0.014736773 0.014804904 0.0072258683
0.016560135 -0.015208057 -0.015002636 0.0074969577 -0.008846947 -0.0057919086 -0.011103168 -0.015901124
-0.011133034 -0.0118839815 0.00968236 -0.00049880444 0.011809779 0.016429907 0.012480377 -0.015381504
0.011077126 0.010763077 -0.008559093 -0.003980392 0.0063522267 -0.0019301556 -0.011558497 -0.003348947
-0.0052147275 0.011561574 0.008232455 0.0118139405 -0.0007996627 -0.017204149 0.018451089 0.0005844485

recurrent.conv_x_r.bias f4 [40]
00000000: 0000 0000 0000 0000 0000 0000 0000 0000
00000010: 0000 0000 0000 0000 0000 0000 0000 0000
00000020: 0000 0000 0000 0000 0000 0000 0000 0000
00000030: 0000 0000 0000 0000 0000 0000 0000 0000
00000040: 0000 0000 0000 0000 0000 0000 0000 0000
00000050: 0000 0000 0000 0000 0000 0000 0000 0000
00000060: 0000 0000 0000 0000 0000 0000 0000 0000
00000070: 0000 0000 0000 0000 0000 0000 0000 0000
00000080: 0000 0000 0000 0000 0000 0000 0000 0000
00000090: 0000 0000 0000 0000 0000 0000 0000 0000
0.0 0.0 0.0 0.0 0.0 0.0 0.0 0.0
0.0 0.0 0.0 0.0 0.0 0.0 0.0 0.0
0.0 0.0 0.0 0.0 0.0 0.0 0.0 0.0
0.0 0.0 0.0 0.0 0.0 0.0 0.0 0.0
0.0 0.0 0.0 0.0 0.0 0.0 0.0 0.0

recurrent.conv_x_h.weight f4 [2, 1, 140, 40]
00000000: 21b8 9dbc 9dff 3d3c 04e8 ba3b 8090 9d3b
00000010: e4aa 58bc e780 943c 3290 b5bc e6e1 213c
00000020: 2920 233c cece 28bc 0979 cc39 7189 4e3c
00000030: 87e9 393c 3e45 7abc 07a5 d0bb 70d8 223c
00000040: e28b 3ebc 57ee 40bc f2ae 7fbc 4e9a 5e3b
00000050: 69e5 82bc 96bb c1bb c624 f83b 18cf 783b
00000060: 0a7a a8bb 0f39 36bc 94c0 27bc 4159 9b3c
00000070: ff50 aabc d580 83bc 48ac 0f3c 6536 6cbb
00000080: 5974 2bbb 3f33 0cbc 76dd ba3c 5c47 c2ba
00000090: 6ca2 283c 05ae 65bc 5f38 ba3c ad3d acbb
000000a0: 14f4 ae3b f4d1 3dbc 5c82 8a3b e1ab aebc
000000b0: a09e f53b 9b8b 71bc 30f2 12bd 0dd6 54bc
000000c0: 3729 c43c 9f8d cd3b 027a 07bc 972f 363c
000000d0: db90 813c b786 c3bc bd1a 28bc 1be0 233c
000000e0: 0162 34bc 5284 2b3c f650 313a 3910 5e3c
000000f0: 44c8 873b 5fa5 f2ba f2c1 b2bc 5813 7bbc
00000100: e4c3 19bc 5f39 b0ba 5114 3dbc 878c e53c
00000110: 0c66 5c3b 3c8c 393c 80a7 c63b 404a a8bc
00000120: 8f25 27bc dc98 f6bb 3968 68bc 6079 36bc
00000130: 503a 21bc dca2 2bbb 3dad eb3b 0ac7 5c3c
00000140: 6cc1 a4bc 2fee b1bb 00b7 ba3b fdfd 01bb
00000150: 5d29 da3b a2f9 a53c 925f d0bc 0dda acbc
00000160: 62fb 95ba ba82 54bb 832e ca3c 7ef5 80bc
00000170: 410f 94bc fff1 88bc a843 283c 570f 9cbc
00000180: 669d 06bc f435 dd3a f864 98bc 7286 31bb
00000190: 9017 843b 2767 963b 7fc8 8e3b a76c 0abb
000001a0: ca61 083c d1e9 42bc 5806 c33c 6390 553b
000001b0: aae4 bfbc 85f4 64bb c2bd 653c 7047 453c
000001c0: 2e74 58bc b066 9d3a 5240 683c 60cd 4abc
000001d0: 9611 4fbc ef0a fdbc 57cc 72bc 828c 483c
000001e0: c56c 1a3c 04cb 8fbc 8bdf e9bb 0013 483b
000001f0: f609 a93b 84a1 16b9 7c5a 02bd 2d8b 85bc
00000200: a255 6ebb 5116 70bb eceb 89bc d75c 79bc
00000210: 2f4f 6a3c 197b acbb 7be1 2bbc d310 d03c
00000220: cd5b 853b 332a 1e3a 1889 fd3a 9f75 a83b
00000230: 12a3 31bc a4bd d93a a637 c2bc 3a47 7bbc
00000240: 22cb f7bb 4df8 c3bc 30dc ddbc 96ba 143d
00000250: 571a edbb 88f4 123c 8687 1d3c 87f0 713a
00000260: c1eb bebc 1720 57bc 2fcf 0b3b 4732 583c
00000270: 7e23 b1bc 4a93 153c 06e1 ec3c ee38 2b3c
00000280: 387f 8fbc d273 243b 7494 ac3b 94d6 1b3b
00000290: 9304 67bc 1567 573c 0bfa c6bc 5165 83bc
000002a0: 2e59 b0bc 2c0c 5a3c 46a3 0abb 3013 c739
000002b0: 92d0 20bc eeff 80bc 6e37 bf39 816c 89bc
000002c0: 2346 303b b944 f43b c6f8 c4bc 42e2 253c
000002d0: 7b7f 05bc 529f fe3b 94fa 24bc 04ea 70bb
000002e0: 7fb7 a63c 20a0 6abc 52ba cfbb c68d 673c
000002f0: 473a 943b f244 c2bc 889b 343c 09d1 d5bb
00000300: 543a 8cbc 2911 5abb cafe df3c b2c7 95bc
00000310: e1ac b5bc 1335 22bd 188b 353c 063a 18bc
00000320: 454f ba3b c2e0 ac3b f1cc 0abb c497 383c
00000330: 0871 ffbb 9ea3 8c3b 7694 cdbb 6644 9cbc
00000340: 1e34 993c d4e4 ddbb a682 29bc 7b8c be39
00000350: 9282 04bc 1690 9f3a 5665 f2bb 36be 6f3c
00000360: f6a0 32bc 9174 8ebc 8923 27bc c88b cd39
00000370: 9a9d 933a cb91 b53b 7961 6fbc 4b6d c0bc
00000380: 4cf9 53bc 5b37 2f3c 7b4d ad3b 79e3 923c
00000390: 38ee c53b 68bf 0dbb d5bc dfba 3605 92bc
000003a0: bade b3bc 3200 b8bc 789c 8a3b 7dce 5e3b
000003b0: 1bc0 93bc 2928 1fbb 75b6 013c 255a 533c
000003c0: e1ee 42bc 808c 55bc 7a35 81bc be9d 28bc
000003d0: 2534 1cbc d079 2ebb 871b d23b 6aeb 0d3c
000003e0: 94cc 2b3d 507e 2f3d 5183 093b 0f38 0a3b
000003f0: e873 553c 7f76 d93b 0024 29bc 0fb7 4e3b
-0.019252839 0.0115965875 0.005703928 0.0048084855 -0.013224337 0.018127872 -0.022163484 0.009880519
0.009956398 -0.010303212 0.0003900009 0.012606011 0.011347181 -0.015275298 -0.006367329 0.009939298
-0.01163003 -0.011775575 -0.015605675 0.0033966484 -0.015978532 -0.0059122546 0.007572743 0.0037965234
-0.0051415013 -0.011122002 -0.010238785 0.018963458 -0.020790575 -0.016052643 0.008769102 -0.0036043164
-0.0026161878 -0.00855714 0.022810679 -0.0014822292 0.010292631 -0.01401854 0.022731958 -0.0052563758
0.005339155 -0.011585701 0.004226966 -0.021322193 0.007495716 -0.014742757 -0.0358755 -0.012990487
0.023945434 0.006272986 -0.008268835 0.011119745 0.015816143 -0.023867948 -0.010260281 0.010002161
-0.011009694 0.010468559 0.0006764078 0.0135536725 0.0041437466 -0.0018512419 -0.021820996 -0.015324436
-0.009385083 -0.0013444832 -0.011540488 0.02802111 0.003363016 0.011324938 0.006062448 -0.020543218
-0.010201826 -0.0075255465 -0.014185005 -0.0111373365 -0.009840563 -0.00261896 0.0071922825 0.013475189
-0.020111762 -0.005430005 0.005698085 -0.0019835227 0.006657763 0.020260636 -0.025436196 -0.021100068
-0.0011442716 -0.0032426552 0.024680382 -0.01574206 -0.01807368 -0.016716955 0.010270037 -0.019050283
-0.008216238 0.0016877041 -0.018602833 -0.0027088192 0.004031129 0.0045899334 0.004357397 -0.002112189
0.008324096 -0.0118965665 0.023806736 0.0032587282 -0.023424465 -0.0034935784 0.014022293 0.012040958
-0.013211293 0.0012008753 0.014175491 -0.012378067 -0.01263847 -0.030889003 -0.014819226 0.012240531
0.009425347 -0.01755286 -0.007137244 0.0030528903 0.005158658 -0.00014365284 -0.031824574 -0.016301716
-0.003636696 -0.0036634395 -0.01683613 -0.015219889 0.014301105 -0.005263698 -0.01049077 0.025398647
0.0040697814 0.000603351 0.0019343225 0.0051409747 -0.010842102 0.0016612303 -0.023708176 -0.015336806
-0.007562057 -0.02392211 -0.027082533 0.036310755 -0.007235806 0.008969434 0.009614831 0.0009229262
-0.023305776 -0.013130209 0.0021333208 0.013195581 -0.02162337 0.009129355 0.028915893 0.010450585
-0.017516717 0.0025093448 0.0052667204 0.0023779022 -0.014100212 0.013147135 -0.024289152 -0.016039522
-0.0215269 0.013308566 -0.0021154447 0.00037970534 -0.009815352 -0.015747037 0.00036471657 -0.016775372
0.0026897273 0.0074544814 -0.024044406 0.010124745 -0.0081480695 0.0077704573 -0.010069508 -0.0036760578
0.02035117 -0.014320403 -0.00633935 0.0141329225 0.0045235488 -0.023714516 0.01102341 -0.006525163
-0.017117657 -0.0033274388 0.027343173 -0.018283699 -0.022177162 -0.039601397 0.011080526 -0.009291178
0.005685719 0.0052758167 -0.0021179284 0.0112666525 -0.007795457 0.0042919656 -0.0062738014 -0.019075584
0.01870161 -0.006771663 -0.01034609 0.0003634429 -0.008087771 0.0012173678 -0.007397334 0.014632752
-0.010902634 -0.017389568 -0.010201343 0.00039204792 0.0011262179 0.0055410615 -0.014610642 -0.023489615
-0.012937855 0.01069435 0.0052887774 0.017930733 0.006040361 -0.002162898 -0.0017069826 -0.01782475
-0.02195679 -0.02246103 0.0042300783 0.0033997588 -0.018035939 -0.0024285412 0.007917036 0.01289991
-0.0118977735 -0.013033986 -0.01577257 -0.010291515 -0.009533917 -0.00266229 0.006411973 0.008662084
0.041943148 0.04284507 0.0020982812 0.0021090542 0.0130281225 0.0066364403 -0.0103235245 0.0031542217

recurrent.conv_x_h.bias f4 [40]
00000000: 5cc7 c8bb be43 c6bb e979 88bb 4ded c5bb
00000010: f41a dfbb 424b 47bc 52a9 7cbe 9f14 ccbb
00000020: 3d9c 4f3d 13c1 aebd 9801 a83c 5be2 cebb
00000030: cb89 093d 215a d9bd c013 95bb f58c 87bd
00000040: cec9 c4bb 9be7 c7bb c986 c5bb 2feb c6bc
00000050: 0142 c4bb a3fa 1e3d 38c9 c4bb 7a29 b9bb
00000060: 8646 45bc a40a d2bb 5911 18be 753e ff3d
00000070: 026d 05bc 2cec c9bb 66ab 9cba 502a cebb
00000080: 6176 06bc 0a8d d1bb 0316 3ebd f173 e8bd
00000090: d9c9 c4bb f956 d3bd e122 28bd c77b 353d
-0.006127281 -0.006050556 -0.0041649234 -0.0060402513 -0.006808633 -0.012163939 -0.24673966 -0.006228044
0.05068611 -0.0853292 0.020508572 -0.006313605 0.033578675 -0.10612894 -0.0045494735 -0.06618682
-0.0060055023 -0.0061006076 -0.0060280305 -0.024282066 -0.0059893136 0.038813245 -0.0060054325 -0.0056506963
-0.01204074 -0.00640996 -0.14850368 0.124630846 -0.008143665 -0.006162187 -0.0011952936 -0.006291665
-0.008206935 -0.006394987 -0.04640771 -0.11350239 -0.0060055074 -0.10319323 -0.041048888 0.044307496

linear.weight f4 [20, 40]
00000000: 9e6b 64bc aeb3 783d 3fac bcbd 7e41 06be
00000010: bf84 273e c99c 0c3e d9a5 f03d da9d d4bd
00000020: 29bc 4b3e 98c1 b63d de31 923d 0c74 b8bd
00000030: 5a44 e73c 96cd a03d e179 7abd b3fc 963d
00000040: 5f74 cebd 89e0 8cbd db84 fcbd 9ea5 393e
00000050: addf 8f3c add2 9e3d 103e ce3d 105b 2c3e
00000060: 60c7 613e 1a6f d83d a50b 6b3d 263c 063e
00000070: deac a73d 14d0 bd3d 1527 ecbd 0317 f0bd
00000080: d23d 17be ec46 ea3d 4dd7 393e 7b7b 2e3e
00000090: 2974 193d 0d0a 933d 069d ee3b 8973 313e
000000a0: 45b2 ee3d 32d7 983c 3719 15be 55be 0a3e
000000b0: 3597 a3bd 795a 1b3d 2a71 733e dd28 a1bd
000000c0: 8a45 5e3e c869 523e e046 ca3c 8ffa 14be
000000d0: 4ab6 933d 7e42 d8bc b1f1 13be 3d96 843e
000000e0: 45cd 51bd b5ed 2ebd 5d35 ce3d 609b 9a3d
000000f0: 22ea d0bc 7efb 93bc ad5b 9cbc 9290 c2bd
00000100: 37f6 593e c0e9 10be f55e 0d3e 9cde 0cbd
00000110: 1d32 0b3e b4dd ca3d 1e5b d03c bc6f ad3b
00000120: ab8d 7d3d 3365 1b3e ed20 14bd c6ee 423e
00000130: 14fe 813c b269 503d 1105 893e 71a9 2a3e
00000140: 0f3c 1abe 6cab 47bd 99e7 973d 6045 b7bd
00000150: c27f f1bd 4684 5c3c 6378 8c3e 6330 00bd
00000160: dc84 8cbd e5df 103e c4ef 343e 36e2 f23d
00000170: 2c0b ef3c abad d13c ffdf 1b3d 58b7 873d
00000180: c70f 073e 12bc a53d 2724 98bd 5959 383e
00000190: 10ba 563d 6a32 a43c 7c3d fdbc 7eda 0ebd
000001a0: d76f 703e 997b a93d deae 1c3e 9e6e 5e3e
000001b0: f534 cc3d f94c fa3d 5f8d 65bc d595 bbbb
000001c0: 5f14 17be 94a7 b1bd 0c1c 6a3e 468b 523d
000001d0: 953c 973d fbd0 20bd 8197 2f3e ed0f 7a3e
000001e0: a0e4 bbbd a579 233e 0e56 053e 7609 3dbd
000001f0: df95 af3d ddee 31bd 9b74 0a3e d2b0 c53c
00000200: f729 7f3e ccb2 a03e e953 92bc 3076 3ebb
00000210: a606 783c e2c3 013e 117c 09be 0c01 3f3e
00000220: cefe 953d b254 773d 412d 9e3d 6dff 843e
00000230: cfb1 1c3d 1445 483e 8e16 873d 1c9a c8bd
00000240: 4855 023d b1a6 5a3d 228a ab3d ec29 963d
00000250: 157e 3cbd d779 6e3d b2c0 0fbe 96e4 38bc
00000260: e4d0 e0bc cdef 273e dcfd 403e 8c46 293e
00000270: 83d8 bcbd a1c6 b93c 66d7 aa3c b2b7 403d
00000280: 3804 0cbe 9d63 f23d 7f6c 243e 8657 08bd
00000290: 0dea b6bc ed2f 803e 6840 993d 440d 893d
000002a0: 5ffa 6ebd 11df 373e 3ae0 b13d f48a 1d3d
000002b0: 386e bdbd 5684 ab3d f440 b5bc 8128 28bd
000002c0: ecc5 16be 9ace 87bd d7bd 083e 81a0 6d3d
000002d0: 8cc0 033c 5f5d 5c3e 33fc ea3d 63fd 393e
000002e0: 3701 803e 5001 ac3c 5cd6 213e b022 863e
000002f0: d19f 90bd a9ea ed3a 23a5 90bc dedb 323d
00000300: 9ffb 273d 9109 87bd fefc 443e 7d1a a13d
00000310: 36e6 efbb bcc1 023e a94f 243e 01f4 d83d
00000320: f138 f7bd 37eb 12be cf31 b1bd f16c 16be
00000330: e802 1e3e 7b4d 0c3e 0c00 543d 99c7 bdbc
00000340: 83e9 1b3e 41fa d03d 53bc af3d e6a1 a5bd
00000350: 41ef 7e3e 89c6 203e 3ec2 113e cb41 023e
00000360: ec95 c73d 4f34 f9bd f9a7 973d 5200 963c
00000370: d150 0a3e 81f9 653a a3d0 e1bd fdfb abbd
00000380: d6ce 893c 5e80 0bbe 572e f33c 6a04 5f3e
00000390: bd3a 99bc 171b b83c 8080 213e 8e3c a4bd
000003a0: 695a 19bd d0ad e5bd 95a2 783e 2b93 2cbc
000003b0: e3db cfbd 3ba8 c63d ff59 203e 9ea8 783e
000003c0: 17f1 15bd d590 60bc 5b0f 863d 1489 a43d
000003d0: 5d84 243e 5d7d 493e 04e4 abbc bc06 b53d
000003e0: 722e 463e 47de 6a3c 3517 113e 56a1 bebd
000003f0: 1efc 373e cce8 e43d 7dbd 53bc b145 bc3d
-0.013941674 0.06071823 -0.09212541 -0.13110921 0.16359232 0.13731684 0.11750383 -0.1038167
0.19895996 0.08923644 0.07138418 -0.09006509 0.028230835 0.078517124 -0.06115139 0.07372417
-0.1008079 -0.06878764 -0.12330028 0.18129584 0.017562712 0.07755027 0.10070431 0.16831613
0.22048712 0.10568066 0.057384152 0.13108882 0.08187269 0.092682034 -0.11530892 -0.11723139
-0.14769676 0.114393085 0.18148537 0.17039292 0.037464295 0.071796514 0.0072819022 0.1732923
0.11655096 0.0186573 -0.145604 0.13549168 -0.07987825 0.03792808 0.23773637 -0.07869122
0.21706215 0.20548165 0.024691999 -0.14548706 0.07212503 -0.026398893 -0.14447667 0.25895873
-0.05122115 -0.042707164 0.10068772 0.07549167 -0.025502268 -0.018064257 -0.019086683 -0.09500231
0.2128533 -0.14151669 0.13805754 -0.034391984 0.13593335 0.09905568 0.025434073 0.005292861
0.061902683 0.15175323 -0.036164213 0.19036397 0.015868224 0.05088205 0.26761678 0.166662
-0.15061973 -0.048747465 0.074172206 -0.08948779 -0.11791946 0.013459271 0.27435598 -0.031296145
-0.068612784 0.14147909 0.17669588 0.118595526 0.029180132 0.025595507 0.038055416 0.06626767
0.13189612 0.08092512 -0.074287705 0.18002833 0.052423537 0.02004357 -0.030913107 -0.03487634
0.23480164 0.082755275 0.15301082 0.21721885 0.09971038 0.122217126 -0.014010756 -0.0057246485
-0.14753865 -0.08674541 0.22862262 0.051402353 0.07384602 -0.0392618 0.17147638 0.24420138
-0.09174466 0.15964372 0.13021109 -0.0461516 0.085735075 -0.04344069 0.13521044 0.024132166
0.24918352 0.3138641 -0.017862277 -0.0029062144 0.015138304 0.1267238 -0.13426234 0.18652743
0.07323991 0.060383506 0.07723475 0.25976124 0.03825551 0.19557601 0.06596099 -0.09795019
0.03181961 0.053381626 0.08375956 0.07332215 -0.04601868 0.058221664 -0.14038351 -0.011284968
-0.027443357 0.1640007 0.1884684 0.16530818 -0.09220984 0.022677721 0.020854663 0.047050186
-0.13673484 0.11835406 0.16057013 -0.033286594 -0.022328401 0.25036564 0.07482988 0.06691983
-0.05834424 0.17956187 0.08685346 0.038462594 -0.09249538 0.083748505 -0.022125699 -0.041054253
-0.14723939 -0.06631203 0.13353668 0.058014397 0.008041512 0.21519993 0.114738844 0.18163066
0.25000927 0.02099672 0.15804428 0.2619834 -0.070617326 0.0018151599 -0.017656868 0.043666713
0.04101145 -0.065936215 0.19237134 0.0786638 -0.0073211445 0.12769216 0.16046013 0.10593415
-0.120714076 -0.1434754 -0.08652078 -0.14689995 0.15430796 0.13701431 0.051757857 -0.023166465
0.15225796 0.10203982 0.08580842 -0.0808752 0.24895956 0.15700735 0.14234254 0.1272041
0.09745392 -0.1216818 0.07405085 0.0183107 0.13507392 0.0008772836 -0.110261224 -0.08397672
0.01682226 -0.13623187 0.029685182 0.21779028 -0.018704766 0.022473855 0.15771675 -0.080193624
-0.037439737 -0.11214793 0.2428077 -0.010533134 -0.10149362 0.09700056 0.15659331 0.24283072
-0.036606874 -0.013706406 0.065458976 0.08033958 0.16066118 0.19676729 -0.02098275 0.08839175
0.19353655 0.014335222 0.14169009 -0.09308116 0.17967269 0.11177215 -0.0129235955 0.0919298

linear.bias f4 [20]
00000000: 7db5 2fbc 4a9c ab3d 0da0 4ebc 7aca 123d
00000010: b424 b6bc 0879 26bd cef9 833d 7cd2 8b3d
00000020: 664e 65bc bd3f 4c3b 5d0b 6a3d 3d84 e03c
00000030: 4288 5e3d 3abe 253d 53c3 cb3d 06d2 b23d
00000040: 3fed a63d 3bb8 91bb 4132 113b 6a1a f33b
-0.0107244225 0.08379419 -0.012611401 0.035837628 -0.022234298 -0.04064277 0.06444131 0.06827256
-0.013995742 0.003116592 0.057139743 0.027406806 0.054329164 0.040464617 0.099493645 0.08731465
0.0815072 -0.004447011 0.0022155198 0.0074189203
