TFM/experimentos_split/results/bus_fault/AGCRN.pt (torch, 625332 bytes, 6 tensors)

recurrent._gate.weights_pool f4 [3, 10, 115, 30]
0.12051302 -0.08165941 -0.14505987 -0.27891487 -0.047985893 -0.024580698 0.080188 -0.24433404
0.048642885 0.16596857 -0.3238742 -0.08414788 -0.019891515 0.0035981773 -0.23325428 -0.24374586
-0.058915894 -0.032555986 0.01225022 -0.28361532 0.1966668 -0.2613309 -0.1755823 -0.010455259
0.24288666 0.3298833 0.11806301 -0.032429643 -0.08070383 -0.079261124 0.100810125 -0.11001867
0.17378761 -0.304568 0.13996455 0.20531458 -0.04948255 -0.29363406 0.052221175 0.14315918
-0.114924826 -0.41438237 0.12207412 0.036543425 -0.15281 0.14105591 -0.04021501 -0.07274422
-0.16098262 -0.12058975 0.1489978 -0.16636132 -0.26535103 -0.12934358 -3.7220612e-05 0.24266976
0.10368037 -0.049949642 -0.09548066 0.10606767 0.163696 -0.033945 0.10285546 -0.075404316
0.10076875 0.08949044 -0.1477097 -0.18188879 -0.1698123 0.040688682 -0.0057438016 -0.026011938
0.00064265926 0.029315973 -0.08011669 -0.069496706 -0.1067768 0.066455446 -0.25843266 -0.19633032
0.20102586 -0.033311892 -0.15633288 -0.18333362 0.0015387693 -0.009463071 -0.13594797 0.17439304
-0.0021421004 0.100504875 -0.079108275 -0.07703332 -0.038513456 0.03812112 0.04760092 0.06743954
-0.0026205839 -0.25348178 -0.26368663 0.23906957 -0.21626492 -0.26835498 -0.13995245 0.20688835
0.10448341 0.055710528 -0.21415214 -0.17918262 -0.22424173 0.04173687 0.13193922 0.06364696
-0.008711256 0.0045780498 0.14201377 0.012451678 -0.2304483 -0.04916838 -0.043845322 -0.099711
0.072369404 -0.07257802 -0.04468116 -0.30363548 -0.10954948 0.18857782 -0.13904051 -0.07947254
-0.2039413 -0.06874229 -0.18109663 -0.29310846 -0.027041866 -0.11694143 0.03845407 -0.19010654
-0.0191548 0.09059114 0.07700794 -0.27141467 0.1792223 -0.19102408 -0.045655273 0.12876213
0.08992131 0.1421925 -0.10917685 -0.06346628 -0.030739615 -0.2014278 0.23350407 0.19389923
0.17957866 -0.20770048 -0.15545098 0.16632022 0.015176978 -0.3936284 -0.18571414 -0.0396977
-0.15744534 -0.305044 -0.03808499 0.009310939 -0.25019047 0.12879905 0.06795712 -0.054499485
-0.07867849 -0.19771463 -0.15324374 -0.3025535 -0.040913634 -0.17313573 -0.0028851302 0.11582425
-0.13116118 0.058052402 -0.12512058 -0.04586244 0.038321704 -0.061232235 -0.17416424 0.010161716
-0.05073151 0.17057167 -0.19795246 -0.1493696 0.055812914 0.18194412 -0.31428304 -0.13880585
0.25022414 0.13040571 0.08293663 0.16295072 -0.16540293 0.060743526 -0.21170643 -0.17034467
0.18507132 -0.020645367 -0.2597021 -0.20844182 -0.02130369 -0.057541616 -0.2328989 0.07120613
0.010059287 0.026414743 -0.04258688 -0.1292934 0.07938688 -0.3193211 -0.008562563 0.20530647
-0.16798934 -0.22674373 -0.16927306 0.039710734 -0.24545296 -0.37538624 -0.1355237 -0.032630943
0.12898386 -0.15234888 -0.23899262 0.03537082 -0.01220607 -0.0089593865 0.18819803 0.008739573
-0.33162045 -0.038753614 0.23560703 0.09819024 -0.18813512 0.3190405 -0.19211896 -0.12488752
-0.08778586 0.024928616 0.07093345 -0.1081441 0.0808693 -0.041708026 -0.2848625 -0.16329974
0.061762318 0.20245907 -0.259854 -0.23385313 -0.08170711 -0.023375398 -0.012374402 0.08522149
00000000: 88cf f63d 0c3d a7bd 938a 14be eecd 8ebe
00000010: db8c 44bd 765d c9bc 9b39 a43d b432 7abe
00000020: c33d 473d aaf3 293e d7d2 a5be b955 acbd
00000030: 88f3 a2bc 66cf 6b3b 36da 6ebe 8498 79be
00000040: cb51 71bd 6d59 05bd 26b5 483c 0736 91be
00000050: 0663 493e 2acd 85be d9cb 33be 894c 2bbc
00000060: 48b7 783e 77e6 a83e 05cb f13d f2d4 04bd
00000070: 0d48 a5bd a853 a2bd 8a75 ce3d 7851 e1bd
00000080: 61f5 313e 56f0 9bbe de52 0f3e fc3d 523e
00000090: 37ae 4abd 3457 96be dfe5 553d 5298 123e
000000a0: b55d ebbd ed29 d4be ff01 fa3d 8fae 153d
000000b0: 3a7a 1cbe f670 103e 7fb8 24bd ecfa 94bd
000000c0: a1d8 24be c2f7 f6bd e192 183e 9f5a 2abe
000000d0: 17dc 87be a572 04be 541d 1cb8 6c7e 783e
000000e0: 6056 d43d ff97 4cbd 5d8b c3bd 023a d93d
000000f0: ed9f 273e ea09 0bbd e2a5 d23d 946d 9abd
00000100: d95f ce3d c446 b73d 3641 17be 0e41 3abe
00000110: 47e3 2dbe 2da9 263d 8036 bcbb fd16 d5bc
00000120: 2278 283a 0d28 f03c 3814 a4bd 4a54 8ebd
00000130: cbad dabd cb19 883d 4951 84be d10a 49be
00000140: b9d9 4d3e 0d72 08bd ba15 20be cfbb 3bbe
00000150: 88b0 c93a ff0a 1bbc f235 0bbe 1794 323e
00000160: 7b62 0cbb 80d5 cd3d 8503 a2bd a5c3 9dbd
00000170: 49c0 1dbd e424 1c3d 2ff9 423d be1d 8a3d
00000180: 1abe 2bbb 5dc8 81be ef01 87be a7ce 743e
00000190: 8d74 5dbe d365 89be b24f 0fbe 8ada 533e
000001a0: 66fb d53d b930 643d b34a 5bbe a67b 37be
000001b0: a09f 65be 48f4 2a3d 131b 073e 5659 823d
000001c0: a8b9 0ebc 7703 963b 0f6c 113e 1f02 4c3c
000001d0: a4fa 6bbe c964 49bd 2797 33bd 4835 ccbd
000001e0: 6936 943d c9a3 94bd 9803 37bd 1c76 9bbe
000001f0: 7a5b e0bd 8b1a 413e a360 0ebe 80c2 a2bd
00000200: fdd5 50be c2c8 8cbd 6571 39be 5012 96be
00000210: e786 ddbc fd7e efbd 0482 1d3d 4aab 42be
00000220: 87ea 9cbc d987 b93d 57b6 9d3d ddf6 8abe
00000230: 0d86 373e d19b 43be 0601 3bbd 38da 033e
00000240: aa28 b83d e99a 113e 1d98 dfbd 9cfa 81bd
00000250: a5d1 fbbc 1743 4ebe b11b 6f3e 858d 463e
00000260: 78e3 373e 6faf 54be 8b2e 1fbe d94f 2a3e
00000270: dca8 783c a989 c9be d92b 3ebe 0e9a 22bd
00000280: 5a39 21be ba2e 9cbe 02ff 1bbd e98c 183c
00000290: f718 80be e6e3 033e 1a2d 8b3d da3a 5fbd
000002a0: 3022 a1bd b475 4abe edeb 1cbe 4be8 9abe
000002b0: 0e95 27bd 7e4a 31be 7414 3dbb 4435 ed3d
000002c0: 1e4f 06be 5bc8 6d3d 9c1f 00be 41da 3bbd
000002d0: 38f7 1c3d a7ce 7abd 1c58 32be 537d 263c
000002e0: d8cb 4fbd 57aa 2e3e 0db4 4abe 58f4 18be
000002f0: 159c 643d 8f4f 3a3e b5e9 a0be 1f23 0ebe
00000300: 611d 803e 1389 053e aeda a93d 8edc 263e
00000310: 635f 29be 34ce 783d 92c9 58be d56e 2ebe
00000320: 5683 3d3e 7920 a9bc acf7 84be c671 55be
00000330: 1385 aebc c2b0 6bbd 0d7d 6ebe 85d4 913d
00000340: b5cf 243c bb63 d83c 956f 2ebd 7d65 04be
00000350: 9795 a23d 0e7e a3be fe49 0cbc dc3b 523e
00000360: 6605 2cbe 822f 68be eb55 2dbe b9a7 223d
00000370: 0558 7bbe a032 c0be bac6 0abe 06a8 05bd
00000380: 5814 043e 5801 1cbe 7bba 74be fee0 103d
00000390: f8fb 47bc 64ca 12bc fcb6 403e 6d30 0f3c
000003a0: 28ca a9be 1cbc 1ebd f842 713e f717 c93d
000003b0: 7ea6 40be 4759 a33e d5ba 44be 07c5 ffbd
000003c0: 13c9 b3bd 1937 cc3c 8e45 913d a77a ddbd
000003d0: ce9e a53d 09d6 2abd 7fd9 91be 0c38 27be
000003e0: 7cfa 7c3d 6e51 4f3e 950b 85be 3277 6fbe
000003f0: 0f56 a7bd c37d bfbc 01be 4abc 9b88 ae3d

recurrent._gate.bias_pool f4 [3, 30]
0.5980756 0.12093284 -0.2757953 -0.1252194 0.0046325037 0.3505644 -0.012078376 -0.38258818
-0.15509327 0.12752844 -0.3936786 -0.20806487 -0.08339163 0.42095253 -0.115950406 -0.07139685
-0.0174503 -0.060954906 -0.076541774 -0.21063703 -0.005632811 -0.07527104 -0.21591385 -0.13046198
0.21387023 -0.06600054 -0.14078996 0.2792805 -0.1400724 0.018846598 0.31806538 -0.06695295
-0.47727597 0.11130655 -0.17990014 -0.06625478 0.20436242 -0.109828204 0.20112349 0.0330358
0.08548544 0.18909973 -0.2353495 -0.29008827 0.2184318 0.016407745 0.16631097 0.011407499
0.08270019 -0.095700845 -0.18203136 -0.15441561 0.05946653 -0.029825484 -0.025786195 -0.005808044
-0.18334359 0.022434289 -0.02509639 -0.12870143 0.050053935 -0.20119935 0.16491716 0.30582455
0.017120203 -0.2781256 0.24607335 -0.14766246 -0.19090325 -0.23945075 0.17301884 0.20096073
0.23708983 0.0696348 0.27234605 0.09201971 0.07954591 0.011261707 0.109061144 0.09752312
-0.19703424 0.10114366 0.15391864 0.0433282 -0.12676883 0.005806709 0.050104883 -0.020783538
0.16995534 -0.1794544
00000000: 7c1b 193f a3ab f73d 0b35 8dbe 8439 00be
00000010: 42cc 973b 2d7d b33e 61e4 45bc 99e2 c3be
00000020: c5d0 1ebe d196 023e 3e90 c9be f50e 55be
00000030: 3bc9 aabd 1787 d73e 6877 edbd 8338 92bd
00000040: eef3 8ebc daab 79bd efc1 9cbd 3cb1 57be
00000050: 7293 b8bb b427 9abd 8518 5dbe d397 05be
00000060: cc00 5b3e 4b2b 87bd 3e2b 10be dbfd 8e3e
00000070: 246f 0fbe 2e64 9a3c 77d9 a23e a11e 89bd
00000080: 845d f4be b0f4 e33d be37 38be 96b0 87bd
00000090: 6244 513e 9ced e0bd 51f3 4d3e 8c50 073d
000000a0: fe12 af3d 5ca3 413e 76ff 70be 7386 94be
000000b0: 96ac 5f3e 8969 863c 6c4d 2a3e 85e6 3a3c
000000c0: b85e a93d cefe c3bd 6e66 3abe 201f 1ebe
000000d0: 2d93 733d 9354 f4bc 923d d3bc 6851 bebb
000000e0: 6cbe 3bbe 1dc8 b73c f296 cdbc 4fca 03be
000000f0: 5b05 4d3d 3407 4ebe 0be0 283e 0995 9c3e
00000100: ab3f 8c3c 7b66 8ebe a7fa 7b3e d434 17be
00000110: 247c 43be 9432 75be da2b 313e a6c8 4d3e
00000120: adc7 723e b19c 8e3d f170 8b3e d474 bc3d
00000130: f7e8 a23d 0683 383c 735b df3d 34ba c73d
00000140: 58c3 49be 6824 cf3d d99c 1d3e e978 313d
00000150: b0cf 01be 3546 be3b c73a 4d3d 3d42 aabc
00000160: c608 2e3e e5c2 37be

recurrent._update.weights_pool f4 [3, 10, 115, 15]
0.0058582067 0.05851113 0.03829058 -0.10110597 0.0039509204 -0.1310833 0.09611588 -0.22169618
0.20414889 0.050930098 -0.06582001 0.06916818 -0.087027505 -0.24737933 0.00790464 -0.19994043
-0.14411563 0.020968104 0.012135672 -0.24644569 -0.14956468 0.07932722 -0.03702731 0.1853129
0.085516304 -0.05892685 0.09832718 0.20021576 0.07506546 -0.14832537 -0.11597512 0.12240356
-0.044384036 -0.33957672 0.10820429 -0.08917051 0.024591632 -0.25794667 0.06427183 -0.07872241
-0.043802343 -0.22914986 -0.08885066 0.0113252085 -0.101204894 0.06575468 -0.24743189 0.09130534
-0.1405019 -0.028533705 -0.24589847 -0.10274872 -0.094948895 -0.13858758 0.1892098 -0.18116659
0.16329065 0.10067583 -0.2901121 -0.14924634 -0.07547522 -0.13216643 0.0011141127 -0.03256373
0.12660587 0.0245833 -0.22084396 -0.03531705 0.088260554 -0.09020113 -0.07216327 -0.019990783
0.12482602 0.09530334 0.0069251116 -0.10092199 -0.20214991 0.098779924 0.063833155 0.0350044
-0.18899839 -0.24150923 -0.0028045408 0.12748794 -0.05042434 0.15088207 -0.067924134 0.19992456
-0.20496237 -0.09147302 0.079899885 -0.06924842 0.07921223 0.051814158 -0.22565039 -0.039007537
-0.038648196 -0.02857661 -0.0014006153 -0.05655728 -0.18063256 -0.063503586 0.051218 -0.08483499
0.09314667 0.07223742 -0.086218804 -0.026547618 -0.14567414 -0.15858904 -0.062702976 -0.045922812
-0.10767266 -0.11514257 -0.09220883 0.04621222 0.03489645 0.15622886 0.052224826 -0.098697565
-0.25018412 -0.22474648 -0.13142034 -0.09162966 0.109510645 0.15803821 -0.24630533 -0.059498165
-0.1765053 -0.12879732 -0.03162916 0.013670772 0.110882394 -0.20178741 0.00093449606 -0.14889535
-0.11489124 -0.15509026 0.053743776 -0.08145265 -0.19609769 -0.21939638 0.120701425 -0.12993619
-0.008757931 -0.04551965 0.12011276 -0.073958255 -0.13865544 0.013337632 0.030972099 0.071743794
0.15743995 0.0042555616 -0.019831384 -0.041418448 0.045135316 -0.07100889 -0.087879956 -0.072109215
-0.2593879 0.17448664 0.060205642 -0.15637581 -0.032176938 -0.076497704 -0.23816416 -0.113278136
0.06658998 -0.23583552 0.013236314 -0.08105661 -0.1535224 -0.046069473 -0.029087408 -0.10935732
0.14946844 0.08467106 -0.19233735 -0.05375843 -0.20277418 -0.051865265 0.03924081 -0.16451724
-0.004686446 -0.04085171 -0.2140648 -0.20392735 0.071631804 -0.0021597082 -0.23262094 0.011685293
-0.09483003 -0.17389406 -0.08853457 -0.008798684 -0.10960207 -0.005813158 -0.0064698253 0.12357008
-0.08589813 -0.060120057 -0.08402918 0.053755186 0.13155004 -0.20385782 0.21325758 -0.14071313
0.060673684 0.12584496 0.11537914 -0.20352156 0.14361918 0.07805688 0.0626226 -0.15396678
-0.251591 -0.029786022 0.03783172 0.21202342 0.066241495 0.13393976 0.19329508 -0.24742869
0.05144921 0.07253511 0.07800369 -0.0928858 -0.05244251 -0.056119796 0.082637854 0.046812385
-0.12301533 -0.044442948 -0.085708395 -0.10193625 0.19245365 -0.16023159 -0.2110163 -0.13646883
0.07841257 0.052299384 -0.22582369 -0.05815727 -0.104210496 -0.19416748 0.0872067 -0.12841235
-0.029852562 -0.018147934 0.120932005 -0.015589886 0.022344753 -0.085396305 0.1304435 0.17872411
00000000: 33f6 bf3b 5ea9 6f3d 95d6 1c3d a610 cfbd
00000010: b976 813b b33a 06be 67d8 c43d 5304 63be
00000020: 680c 513e 149c 503d a4cc 86bd 0ca8 8d3d
00000030: 7a3b b2bd 0251 7dbe 7782 013c 2fbd 4cbe
00000040: 0c93 13be 4dc5 ab3c b3d4 463c 425c 7cbe
00000050: 7c27 19be 4f76 a23d f3a9 17bd aac2 3d3e
00000060: 2c23 af3d 485d 71bd c35f c93d 5c05 4d3e
00000070: ebbb 993d 9be2 17be 5d84 edbd b8ae fa3d
00000080: 09cc 35bd 00dd adbe 369a dd3d 079f b6bd
00000090: 6474 c93c 9611 84be f3a0 833d 3739 a1bd
000000a0: 166a 33bd 43a6 6abe 56f7 b5bd 5e8d 393c
000000b0: 8344 cfbd 64aa 863d c95e 7dbe 4bfe ba3d
000000c0: bbdf 0fbe 84bf e9bc cfcc 7bbe ec6d d2bd
000000d0: 9174 c2bd e7e9 0dbe 37c0 413e bc83 39be
000000e0: aa35 273e 212f ce3d 9389 94be 08d4 18be
000000f0: c192 9abd a356 07be 6b07 923a 8c61 05bd
00000100: f8a4 013e eb62 c93c eb24 62be 9ca8 10bd
00000110: f3c1 b43d 5fbb b8bd 56ca 93bd b6c3 a3bc
00000120: c9a4 ff3d 662e c33d 0cec e23b 30b0 cebd
00000130: 6300 4fbe 214d ca3d f5ba 823d c660 0f3d
00000140: cb88 41be 324e 77be 63cc 37bb 338c 023e
00000150: c189 4ebd d480 1a3e cf1b 8bbd 06b9 4c3e
00000160: a8e1 51be 3556 bbbd 8da2 a33d 1ed2 8dbd
00000170: 063a a23d 153b 543d e510 67be 5ec6 1fbd
00000180: 924d 1ebd 7f19 eabc da94 b7ba 9ba8 67bd
00000190: bef7 38be 2b0e 82bd f7c9 513d f8bd adbd
000001a0: aec3 be3d 36f1 933d 7c93 b0bd 647a d9bc
000001b0: 9a2b 15be 2a65 22be 6b6a 80bd 8f19 3cbd
000001c0: 7c83 dcbd decf ebbd fcd7 bcbd 0649 3d3d
000001d0: 94ef 0e3d 75fa 1f3e b3e9 553d f321 cabd
000001e0: 2218 80be f123 66be 0e93 06be 55a8 bbbd
000001f0: 1e47 e03d c5d4 213e 7737 7cbe 59b4 73bd
00000200: cebd 34be 72e3 03be 948d 01bd 60fb 5f3c
00000210: 4f16 e33d 5ca1 4ebe f8f8 743a 0678 18be
00000220: 194c ebbd fbcf 1ebe 6f22 5c3d a6d0 a6bd
00000230: d5cd 48be 72a9 60be 4f32 f73d fe0d 05be
00000240: 6d7d 0fbc d072 3abd aefd f53d 6d77 97bd
00000250: b1fb 0dbe 1586 5a3c 33b9 fd3c 69ee 923d
00000260: f037 213e 3d72 8b3b 6d75 a2bc 64a6 29bd
00000270: cfdf 383d 1c6d 91bd 68fa b3bd ffad 93bd
00000280: 7ece 84be a0ac 323e 319a 763d fb20 20be
00000290: f7cb 03bd d4aa 9cbd 4ee1 73be 5efe e7bd
000002a0: 5460 883d de7e 71be 20dd 583c 0201 a6bd
000002b0: fa34 1dbe 58b3 3cbd b748 eebc bbf6 dfbd
000002c0: 410e 193e 0568 ad3d 15f4 44be cd31 5cbd
000002d0: 09a4 4fbe ac70 54bd f9ba 203d 3577 28be
000002e0: c290 99bb 1f54 27bd ce33 5bbe 55d2 50be
000002f0: b2b3 923d e489 0dbb 2f34 6ebe ac73 3f3c
00000300: 3f36 c2bd 4911 32be 9d51 b5bd 5b28 10bc
00000310: 0d77 e0bd 4e7c bebb d400 d4bb 4f12 fd3d
00000320: 5ceb afbd 7340 76bd 7e17 acbd 662e 5c3d
00000330: 0eb5 063e 1bc0 50be 3260 5a3e 1a17 10be
00000340: f884 783d 80dd 003e e64b ec3d f567 50be
00000350: e810 133e 49dc 9f3d 4740 803d 78a9 1dbe
00000360: 89d0 80be d101 f4bc 6ff5 1a3d ab1c 593e
00000370: 9fa9 873d 8127 093e 25ef 453e f25d 7dbe
00000380: 68bc 523d 4a8d 943d 66c0 9f3d e93a bebd
00000390: f5cd 56bd dfdd 65bd 093e a93d 58be 3f3d
000003a0: 76ef fbbd cf09 36bd e287 afbd f4c3 d0bd
000003b0: 9212 453e c013 24be a814 58be 7cbe 0bbe
000003c0: c596 a03d e137 563d 533e 67be 5136 6ebd
000003d0: 506c d5bd d7d3 46be 6d99 b23d 877e 03be
000003e0: 5c8d f4bc faaa 94bc 33ab f73d b96c 7fbc
000003f0: 580c b73c 42e4 aebd fb92 053e 7403 373e

recurrent._update.bias_pool f4 [3, 15]
-0.9949898 -1.0166248 0.1770372 -1.0017428 -0.76643497 0.11862264 -0.9613673 -0.4389586
-0.07336294 0.6027907 0.26205832 -0.9177309 0.51693475 -0.7957964 0.2164874 0.066026315
0.32205677 -0.27499318 0.40503168 -0.37673962 -0.34076682 -0.794793 0.27147233 -0.68162996
0.72954726 -0.23777257 -0.4520305 -0.041013695 -0.7000093 -0.19313923 0.34389597 0.36336574
-0.47047013 0.32371256 0.6598116 -0.9898913 0.32704565 0.032889497 -0.03940794 -0.7229822
-0.71543145 0.24648607 -0.8348545 0.37533483 -0.9269394
00000000: a7b7 7ebf c320 82bf 3d49 353e 1c39 80bf
00000010: 1535 44bf 6df0 f23d 2b1c 76bf 2ebf e0be
00000020: 4f3f 96bd 7e50 1a3f 822c 863e 6af0 6abf
00000030: d655 043f 50b9 4bbf dfae 5d3e ce38 873d
00000040: a0e4 a43e e8cb 8cbe 5060 cf3e 04e4 c0be
00000050: fd78 aebe 8e77 4bbf 6cfe 8a3e 4d7f 2ebf
00000060: 9cc3 3a3f a77a 73be 8b70 e7be fafd 27bd
00000070: cf33 33bf 4ac6 45be 2213 b03e 130b ba3e
00000080: 76e1 f0be a7bd a53e 6ae9 283f 8469 7dbf
00000090: 8772 a73e 23b7 063d 386a 21bd 5d15 39bf
000000a0: 8426 37bf d866 7c3e 06b9 55bf e32b c03e
000000b0: e74b 6dbf

linear.weight f4 [20, 15]
0.17004894 0.18878593 0.20721065 0.21804704 0.131976 0.25268862 0.19649208 0.30969712
-0.053804107 0.29008874 0.21551242 0.19046254 0.24321927 0.16952991 0.22408201 0.16818804
0.19144683 0.21349114 0.21985827 0.13154693 0.25034556 0.19528358 0.30760857 -0.0553115
0.282067 0.21280158 0.19723865 0.24572934 0.1626641 0.22517225 0.16988346 0.18693914
0.204536 0.21601203 0.13104142 0.24914111 0.19757138 0.30676126 -0.052210532 0.29340184
0.21470366 0.18388568 0.24181557 0.17442006 0.22137888 0.16740291 0.18752153 0.21290103
0.21894136 0.1313203 0.24496089 0.19678743 0.30884272 -0.055232465 0.2785193 0.2140044
0.19156112 0.24672885 0.1606799 0.22279374 0.16952293 0.18397655 0.2019498 0.21432726
0.12955701 0.24659057 0.19704533 0.30698794 -0.051313322 0.28977597 0.21595463 0.17993021
0.24029051 0.17475349 0.21811654 0.1683253 0.18623812 0.20665169 0.21695387 0.13080329
0.24641941 0.19401792 0.30898073 -0.053355116 0.28292435 0.21618536 0.18572126 0.24250412
0.16812688 0.220074 0.1664358 0.1851451 0.2113664 0.21720979 0.1309823 0.24428329
0.19248335 0.3090467 -0.054380096 0.27444637 0.21480119 0.18870747 0.24368834 0.16167572
0.21998839 0.16858129 0.18134926 0.200721 0.21368782 0.12992494 0.24337797 0.19341749
0.3051942 -0.05041209 0.28667238 0.2159961 0.1776895 0.23929113 0.17274792 0.21481562
0.1669031 0.18547128 0.21203731 0.21679035 0.1318788 0.2431865 0.19113646 0.3072091
-0.053576328 0.27376044 0.21366534 0.18881711 0.24334422 0.16147275 0.2200501 0.1687245
0.18142135 0.20344204 0.21332407 0.12983666 0.24316354 0.19282582 0.30790874 -0.05038112
0.28495613 0.21757093 0.176006 0.23946844 0.1747893 0.21350822 0.1669354 0.18195735
0.20460358 0.2137585 0.13022521 0.24307586 0.19023004 0.30918765 -0.052523226 0.27837065
0.21774666 0.17900096 0.2398237 0.16880934 0.21432064 0.1669237 0.18413426 0.21211874
0.2169264 0.13071756 0.24183998 0.1900382 0.31103846 -0.052882124 0.2709331 0.21722741
0.1856265 0.24325839 0.16203925 0.21705057 0.17011407 0.17836504 0.20182252 0.21335223
0.1297783 0.24193197 0.1910479 0.30603215 -0.049407292 0.283159 0.21535563 0.17301191
0.23877144 0.17476143 0.21351586 0.16877618 0.18248558 0.21115753 0.21529429 0.13103259
0.24081199 0.18840496 0.31045172 -0.05350057 0.27085373 0.21830688 0.18363664 0.24339373
0.16170883 0.21557695 0.16928083 0.17762765 0.20050006 0.21100965 0.12973168 0.2392282
0.18893355 0.30709982 -0.048832446 0.2816282 0.2186262 0.17061538 0.2384538 0.17470665
0.20964105 0.16842331 0.1789094 0.20421444 0.21133408 0.12987313 0.23925234 0.1880372
0.31117597 -0.049875993 0.27534512 0.22066574 0.17532875 0.24034083 0.16824305 0.21065934
0.1687478 0.18072785 0.2120477 0.21285774 0.13233833 0.23914553 0.1861303 0.31151116
-0.04902796 0.26849616 0.21924724 0.18141466 0.24266799 0.16416824 0.21308096 0.1698621
00000000: 4f21 2e3e 1951 413e 072f 543e b947 5f3e
00000010: b724 073e 6760 813e 3835 493e 9f90 9e3e
00000020: b261 5cbd 8386 943e 4aaf 5c3e 9d08 433e
00000030: 790e 793e 4099 2d3e c175 653e 7c39 2c3e
00000040: a30a 443e 6c9d 5a3e 8722 613e 3db4 063e
00000050: 4b2d 803e 6bf8 473e df7e 9d3e 508e 62bd
00000060: 166b 903e a8e8 593e eef8 493e 79a0 7b3e
00000070: 6b91 263e 8e93 663e eef5 2d3e f96c 3f3e
00000080: e371 513e 4232 5d3e b92f 063e d91e 7f3e
00000090: 2750 4a3e d00f 9d3e b6da 55bd c438 963e
000000a0: 47db 5b3e 874c 3c3e 809e 773e 2c9b 323e
000000b0: 25b1 623e ab6b 2b3e a505 403e ba02 5a3e
000000c0: 2a32 603e d478 063e 07d7 7a3e a582 493e
000000d0: a220 9e3e 703b 62bd 159a 8e3e f823 5b3e
000000e0: 9928 443e 7da6 7c3e 4689 243e 0b24 643e
000000f0: 6b97 2d3e 5964 3c3e eecb 4e3e 9b78 5b3e
00000100: 98aa 043e 3d82 7c3e 40c6 493e 862d 9d3e
00000110: eb2d 52bd 845d 943e 3623 5d3e a03f 383e
00000120: b70e 763e 94f2 323e f159 5f3e 785d 2c3e
00000130: 35b5 3e3e 809c 533e 2829 5e3e 4cf1 053e
00000140: 5f55 7c3e a2ac 463e b932 9e3e e58a 5abd
00000150: 76db 903e b25f 5d3e b72d 3e3e 0053 783e
00000160: 7429 2c3e 145b 613e 256e 2a3e ad96 3d3e
00000170: 6f70 583e 3e6c 5e3e 3920 063e 6625 7a3e
00000180: 5b1a 453e 5e3b 9e3e aabd 5ebd 3c84 8c3e
00000190: d8f4 5b3e 883c 413e 7089 793e 528e 253e
000001a0: a344 613e 93a0 2c3e 9fb3 393e ce89 4d3e
000001b0: fbd0 5a3e 0b0b 053e 1338 793e 3c0f 463e
000001c0: 6a42 9c3e e87c 4ebd b9c6 923e 152e 5d3e
000001d0: 3cf4 353e bc08 753e d5e4 303e a0f8 5b3e
000001e0: a5e8 2a3e 2fec 3d3e 4f20 593e 4afe 5d3e
000001f0: 3c0b 073e e205 793e 47b9 433e 834a 9d3e
00000200: da72 5bbd 542a 8c3e 16cb 5a3e 4659 413e
00000210: 3a2f 793e 1d59 253e d054 613e 1ec6 2c3e
00000220: 85c6 393e 1c53 503e a071 5a3e e7f3 043e
00000230: ddff 783e 2274 453e 37a6 9d3e 6f5c 4ebd
00000240: c5e5 913e eaca 5e3e eb3a 343e 3737 753e
00000250: f7fb 323e e6a1 5a3e 1df1 2a3e 0753 3a3e
00000260: 9a83 513e 82e3 5a3e c259 053e e1e8 783e
00000270: aacb 423e d84d 9e3e 9822 57bd 9986 8e3e
00000280: fbf8 5e3e 074c 373e 5894 753e 5bdc 2c3e
00000290: df76 5b3e 0cee 2a3e b18d 3c3e a835 593e
000002a0: f421 5e3e d3da 053e e6a4 773e 6099 423e
000002b0: 6f40 9f3e ed9a 58bd beb7 8a3e dd70 5e3e
000002c0: e014 3e3e ba18 793e 9eed 253e 8142 5e3e
000002d0: 6232 2e3e 53a5 363e 90aa 4e3e 0279 5a3e
000002e0: 9ae4 043e 04bd 773e 10a2 433e 3fb0 9c3e
000002f0: 4d5f 4abd 37fa 903e 3086 5c3e 092a 313e
00000300: 8080 743e a9f4 323e e7a3 5a3e aad3 2c3e
00000310: 80dd 3a3e ae39 583e 1b76 5c3e 682d 063e
00000320: 6b97 763e 3bed 403e 87f3 9e3e 6a23 5bbd
00000330: 57ad 8a3e d78b 5f3e 3e0b 3c3e 353c 793e
00000340: 0097 253e 34c0 5c3e f457 2d3e 06e4 353e
00000350: e34f 4d3e ea12 583e 62d8 043e 3df8 743e
00000360: cc77 413e 303c 9d3e 8804 48bd 9231 903e
00000370: 8cdf 5f3e ccb5 2e3e 3c2d 743e 4de6 323e
00000380: 25ac 563e 2977 2c3e 0734 373e 971d 513e
00000390: f667 583e 76fd 043e 91fe 743e d38c 403e
000003a0: 7552 9f3e c54a 4cbd 09fa 8c3e 33f6 613e
000003b0: 6189 333e e81b 763e e847 2c3e 15b7 573e
000003c0: 39cc 2c3e b910 393e 0823 593e 61f7 593e
000003d0: b383 073e 91e2 743e f198 3e3e 647e 9f3e
000003e0: 8bd1 48bd 5478 893e 5982 603e c4c4 393e
000003f0: f57d 783e b81b 283e e531 5a3e 55f0 2d3e

linear.bias f4 [20]
0.10363404 0.10371968 0.10455698 0.10645467 0.11030728 0.1103357 0.11303109 0.11823786
0.11622131 0.11827327 0.12124828 0.11884342 0.1207834 0.11988038 0.123466685 0.12473161
0.12384817 0.12692572 0.12635182 0.12838945
00000000: 153e d43d fc6a d43d f821 d63d e804 da3d
00000010: c9e8 e13d aff7 e13d d87c e73d b126 f23d
00000020: 7005 ee3d 4239 f23d 0551 f83d 2e64 f33d
00000030: 4a5d f73d d883 f53d 1adc fc3d 4973 ff3d
00000040: 1ca4 fd3d d1f8 013e 5f62 013e 8678 033e
