TFM/experimentos_split/results/bus_fault/DyGrEncoder.pt (torch, 617905 bytes, 11 tensors)

recurrent.conv_layer.weight f4 [1, 100, 100]
000000 e2 ff ed 3c 67 58 57 bc f3 45 b2 bc d1 99 a1 3d
       0.029052678 -0.013143635 -0.02176187 0.07890666
000010 c5 0e 80 3c b3 af 8f 3c 09 46 ea ba fb 39 82 bd
       0.015632043 0.017539835 -0.0017873655 -0.06358715
000020 ff 8a 1f 3d 94 8d 75 3d 97 6e e5 bc 25 28 ed 3c
       0.038950916 0.059949473 -0.028006835 0.028949806
000030 41 28 5a 3c 2b 85 35 bc cd 5b 46 3d 37 a7 aa 3c
       0.013315261 -0.011079113 0.04842739 0.020831687
000040 89 b2 2b bd 11 0a 60 3d 35 2c 8c bc 6c 1c e1 bd
       -0.04191831 0.0546971 -0.017110923 -0.10991749
000050 33 7f 7c 3b f3 69 b3 3b ad 38 f4 bc b5 7b f8 3c
       0.0038527965 0.0054752766 -0.029812181 0.030332426
000060 55 7a 3d 3d 82 e3 a9 bd 24 7a 06 bd 2f ac 0e 3e
       0.046259243 -0.08295347 -0.032831326 0.1393287
000070 70 10 e7 bc 4a c3 fb bb 4f 88 8d 3d 84 ee 6c bc
       -0.02820608 -0.0076831924 0.069107644 -0.014461163
000080 b4 e1 b2 3d 79 a5 83 3b 49 60 d6 3b a7 5c 2f 3d
       0.08734456 0.0040175286 0.00654224 0.04281297
000090 99 c1 8b 3c cb 60 3d bd d2 73 bc bc b0 cf 54 bd
       0.017060088 -0.046234887 -0.023004446 -0.05195588
0000a0 a2 8f 0c 3e 22 25 12 be 0f 44 61 3d 7f 10 f2 ba
       0.13726667 -0.14271978 0.054996546 -0.0018468051
0000b0 b7 cb 9b 3d 4a 89 ab bd 35 cd 8c 3d f6 5f 69 bd
       0.07607215 -0.08375795 0.06875078 -0.05697628
0000c0 70 9d 6d 3d bb 1a 12 bd c7 0a e4 3d c0 11 61 bd
       0.058011472 -0.035670023 0.11134868 -0.05494857
0000d0 56 ca b1 3d e2 fe 9f 3c fb 13 90 bc 3e 25 a0 bd
       0.08681171 0.019530717 -0.017587652 -0.078196034
0000e0 96 53 9c 3d 24 a6 7c bd 17 22 c5 3d 82 8d 81 3d
       0.0763313 -0.06168188 0.09625643 0.063258186
0000f0 8a 65 9c 3d ad d0 9d bd cf 44 3c 3c 1f f9 28 bd
       0.076365545 -0.07705817 0.011491015 -0.041253205
000100 6c 35 02 3b 27 92 c6 3d 6b d9 c1 bc bb 19 f8 b9
       0.0019868268 0.09695845 -0.023663243 -0.00047321417
000110 60 49 dd 3b 05 3c 39 bd 41 fc 68 3b 32 71 3d 3d
       0.0067531317 -0.045223255 0.0035550746 0.04625053
000120 4a 58 a9 3c d7 a0 a0 bd ed b2 ba bc 4c 00 4d bd
       0.020671982 -0.07843178 -0.022790397 -0.05004911
000130 b2 07 27 3c 20 02 13 bd 40 04 4b bb bb 29 26 3d
       0.010194706 -0.0358907 -0.0030977875 0.04056714
000140 9a 2a de 3c 2d 67 a0 3d 31 5f 9e 3d df 4f 20 3d
       0.027119923 0.07832179 0.07733 0.03913867
000150 f5 52 e1 bd fc 7b 8c bd 5b 3f 00 bd 98 12 80 3b
       -0.11002151 -0.06859586 -0.03131042 0.0039084665
000160 bb 5e 34 3d 7f 81 e2 bd d0 47 c1 3d 27 1e 80 bd
       0.044035655 -0.11059856 0.09437525 -0.06255751
000170 89 1f 94 3d 2a 1d 9f bd 58 1a e2 3c 62 c8 5b 3d
       0.07232577 -0.077692345 0.027600452 0.053657897
000180 e6 85 0e 3d 50 fc a1 3d ea a6 8a 3d 49 ee 64 3d
       0.034795664 0.07909453 0.067701176 0.05589131
000190 1c f3 c3 3c c0 7c 58 bd 80 b6 12 3d ca ef 01 3a
       0.023919635 -0.052853346 0.035818577 0.0004956691
0001a0 8a c5 c7 39 84 26 26 bd fd 62 91 bd 72 78 03 3e
       0.00038103416 -0.040564075 -0.07098959 0.12838915
0001b0 ad 24 3d bd f9 ef e2 3c fd 90 8f 3d 23 81 b2 3d
       -0.046177555 0.027702319 0.07010076 0.08716037
0001c0 a7 70 4a 3b 25 ef 48 3d 2b 90 ec bc 8d 5f 87 bc
       0.00308899 0.04905619 -0.028877338 -0.016525054
0001d0 64 c1 9c bc 97 ff 7c bc ce b0 32 bd d0 86 e4 bd
       -0.019135185 -0.015441797 -0.043625645 -0.11158526
0001e0 94 d5 a1 3c df 7b 54 3d 16 51 9f 3d 36 ff a0 bd
       0.019755162 0.051875945 0.07779138 -0.078611776
0001f0 49 b6 63 bd 09 9f 71 bd 04 7a 92 3d 82 94 d9 3d
       -0.055593763 -0.05898956 0.07152179 0.10624029
000200 26 94 26 3d a9 bf cc bd 01 4f b7 bc bc a6 4b 3d
       0.04066863 -0.09997494 -0.02237654 0.049719557
000210 b3 e0 21 3d f6 f0 8c bd 2a bd 51 3d 7a e4 b8 bb
       0.03952093 -0.06881897 0.05120579 -0.005642471
000220 cb e6 9f bd a3 22 c4 3d e2 3a 29 bd 16 eb 88 bd
       -0.07807692 0.09576919 -0.04131592 -0.06685464
000230 55 14 9e 3c 1b f5 a4 bc 7d 3a e6 3c df ae b3 bc
       0.019296804 -0.020136407 0.028104061 -0.021933971
000240 9e e6 c2 bd 99 95 fd 3c f4 7a 0e 3d 86 a5 a6 bb
       -0.09516643 0.030955123 0.034785226 -0.00508565
000250 aa f9 50 bd 19 8a 1f 3d 90 45 fa 3d 9d 10 b0 bd
       -0.05101935 0.03895006 0.12220299 -0.08596919
000260 07 2d b7 3d 7f 2d 04 3d 38 c6 71 bd b5 08 f0 bd
       0.08944135 0.03226995 -0.059026927 -0.11720411
000270 f2 2a 9d 3d 5b 05 86 3d 09 a4 97 3c 97 ec d1 3c
       0.07674207 0.0654399 0.018510835 0.02562551
000280 71 60 09 3d a4 7f 22 3d ba 93 74 bd 36 f2 53 3d
       0.03353924 0.03967251 -0.059711196 0.051744662
000290 b1 db ca 3d 44 0f c8 bc 63 d1 82 3c 13 28 18 3d
       0.09905184 -0.024421342 0.015968984 0.037147593
0002a0 9f fe b8 b9 bc ef 8d 3d b0 2a c6 3c c9 a4 24 3d
       -0.00035284922 0.06930491 0.024190277 0.040196214
0002b0 14 35 86 bd 9b a0 b2 3d 50 84 a0 3d 41 aa 1a 3d
       -0.065530926 0.08722039 0.078377366 0.037760023
0002c0 20 f5 8f 3c 41 8d e4 3c 01 52 96 3c 26 23 9b 3d
       0.01757294 0.027899386 0.01834965 0.075750634
0002d0 e9 d7 a2 3d 50 e5 d3 bc 59 92 bd 3c fc 60 ca bc
       0.07951338 -0.02586618 0.023141073 -0.024704449
0002e0 3c 62 3b 3d db bd 10 bd 16 74 7f 3d ac 1c cc 3c
       0.04574798 -0.03533731 0.062366568 0.024916016
0002f0 f2 4b 07 3d ce bb a5 bb aa 4d 8d 3d 5c 03 ca 3d
       0.03303141 -0.0050577885 0.06899579 0.09863922
000300 cf 92 96 3d a0 d2 14 bd 26 0d b7 3d 3b 2a a1 3d
       0.0735222 -0.03633368 0.08938055 0.07869383
000310 10 cd ab 3d 27 0a 96 3d ee d1 f2 bd 67 e6 8d bd
       0.08388722 0.07326155 -0.11856447 -0.069287114
000320 84 05 69 bd 42 4d 93 bd a2 b0 be bd ab d0 2b 3d
       -0.056890026 -0.0719247 -0.09311034 0.04194705
000330 65 6e 05 3e 6f 87 87 bd 53 44 c7 3c ae a8 62 3d
       0.13030393 -0.06617629 0.024324572 0.055336647
000340 68 f5 46 3c 2d 2d 9e 3b 1e 02 f1 3c 4b 3b 97 bb
       0.01214347 0.0048271627 0.029419955 -0.0046152226
000350 13 00 f3 3b 42 1d a3 3d 43 b2 a8 bd 34 e2 d4 bd
       0.0074157803 0.07964565 -0.08237126 -0.10394707
000360 1f c8 19 3d 99 c2 01 be 31 f0 d8 3c 02 fc 4c 3c
       0.037544366 -0.1267189 0.02648172 0.012511255
000370 b1 8c ad bd d6 d3 ce 3d 34 96 77 bd 65 e2 9e bd
       -0.084741004 0.10098998 -0.06044598 -0.07758025
000380 73 36 ec 3c 86 46 93 3d 89 ca e7 bc 8f f2 00 3d
       0.028834557 0.07191186 -0.028294818 0.031481322
000390 54 f1 30 3d a9 68 57 bd 54 8b 76 bd 18 23 51 bc
       0.0431989 -0.052590046 -0.060191467 -0.012764715
0003a0 94 ca 19 3c d7 ec 0a bd 48 66 be 3d 26 de 66 3d
       0.009386677 -0.033917274 0.09296852 0.0563642
0003b0 45 f1 7f 3c ea bd b1 3d 8c d9 20 bd 52 1d 5c 3d
       0.015621488 0.08678801 -0.03926997 0.0537389
0003c0 2c 91 4a bc 26 33 20 be 57 07 cf 3b b6 8e 8c 3c
       -0.012363713 -0.15644512 0.0063180136 0.017157894
0003d0 68 4c b0 bc 73 72 21 3d ef 80 60 3c 36 8f 8c 3c
       -0.021520808 0.039415788 0.013702615 0.017158132
0003e0 3a 81 24 bd 36 bc 9a bd 5d 31 83 bd 2a d3 64 bd
       -0.040162303 -0.0755543 -0.064059 -0.055865444
0003f0 77 1e 51 3d dc a9 63 bd 13 92 62 3d 81 68 81 bd
       0.051054444 -0.055581912 0.05531509 -0.06318761

recurrent.conv_layer.rnn.weight_ih f4 [300, 100]
000000 1c b5 ed bc 87 a9 0a 3d db ca a1 bc af 95 6c bd
       -0.029017024 0.03385308 -0.01975005 -0.057759937
000010 8b a7 c6 bd c5 0c 99 3b 9c 9c 33 3d 52 cb 99 3d
       -0.09699925 0.0046707117 0.043850526 0.075094834
000020 37 74 ae bd d9 be 57 bd 01 01 5a bd 65 da 4b 3d
       -0.0851826 -0.05267224 -0.053223614 0.049768824
000030 ee a7 12 bd 68 ab 63 bd d9 84 63 3c eb b0 af bd
       -0.03580468 -0.055583388 0.013886654 -0.08578666
000040 43 fc 1f 3d b9 81 41 3d 42 8f d8 3c 20 27 d2 3d
       0.039058935 0.047242854 0.026435498 0.10261369
000050 d5 b1 f0 bd 84 9e 43 bd f8 77 93 3d a8 83 0a 3d
       -0.11752669 -0.047758594 0.072006166 0.033816963
000060 e3 ac 16 3d 12 14 f7 3d b0 d6 1c bd 32 62 9f bc
       0.03678597 0.12064375 -0.03829068 -0.019456003
000070 ca a2 c0 3d c3 5a d8 3c 8a 02 de bb 44 b3 bb bc
       0.094060495 0.026410466 -0.006775205 -0.022912629
000080 00 c4 24 bc 68 59 94 bb 95 16 13 bd 42 be 69 3d
       -0.010056496 -0.0045272596 -0.035910208 0.05706621
000090 fc 77 44 3d 56 15 b2 bc 8a 0d 1a bc b5 b2 df 3d
       0.04796599 -0.02173869 -0.009402642 0.109227575
0000a0 48 60 ac bd 86 e6 31 3d 82 e3 b8 3d e0 d6 22 bd
       -0.08416802 0.043432735 0.09027769 -0.039755702
0000b0 52 12 f2 3a 5c 4f 78 bd 47 ee 2a bd f8 a6 47 bd
       0.0018468595 -0.060622558 -0.041731145 -0.04874322
0000c0 1c 5f 12 3c eb 2e 74 3d f6 d7 4a bd a7 cf ad bd
       0.008933809 0.059615057 -0.049522363 -0.08486872
0000d0 1c a6 94 3d d2 1a a3 3b d4 d9 ae 3d 8b 2d b6 bd
       0.07258245 0.0049775625 0.08537641 -0.088954054
0000e0 72 ed 1e bd db 38 b8 bc 09 2b 56 bd 5c 76 9c bd
       -0.038800664 -0.022488048 -0.052287135 -0.07639763
0000f0 7f a0 44 3d 80 d2 07 3d 76 d2 c5 3c e2 09 5a bd
       0.048004624 0.033159733 0.024148207 -0.05323208
000100 a4 27 de 3a 67 a8 c9 bd 74 0b 86 3c 13 17 28 3d
       0.001694907 -0.09846573 0.016362883 0.04103763
000110 dc 79 76 3d 48 a5 26 3c e9 22 9c 3c e1 1b b6 bd
       0.060174808 0.010171242 0.019059615 -0.08892036
000120 c8 d2 7e bd 8f c5 61 bd 0c 88 00 bd 88 cf 5c bd
       -0.062212735 -0.055120047 -0.031379744 -0.053908855
000130 59 45 e7 bd 34 5a 89 bd 26 52 84 3c ae a7 37 bd
       -0.11292524 -0.06706658 0.016152453 -0.044837646
000140 e5 a7 ae bd d6 a7 c3 bc 0d 1b 64 3b 71 00 87 bd
       -0.08528117 -0.023883741 0.0034806163 -0.06591881
000150 e4 b2 93 3d 3c 88 cd bd 97 85 7e 3d d6 6f 72 bb
       0.07211855 -0.1003575 0.06213912 -0.003699293
000160 8f 23 be bd e2 13 c9 bc 79 1b ee 3d 84 68 a1 bd
       -0.09284126 -0.024545614 0.11626334 -0.07881263
000170 b2 b6 0a 3e 1e 8e 50 3d 90 43 22 3d 99 aa d2 3c
       0.13546255 0.050916784 0.039615214 0.025716113
000180 3e 50 96 3d 63 1e 26 3d 68 e5 75 bd 71 96 c6 bd
       0.07339524 0.040556323 -0.060033232 -0.09696663
000190 0d d9 a8 3c 10 71 90 3b 75 55 3a 3d 84 96 a1 3d
       0.02061131 0.0044080094 0.045491654 0.07890037
0001a0 e9 04 43 3d 57 74 a6 bd f8 e9 be bd 44 0a 67 bd
       0.047612105 -0.08127659 -0.0932197 -0.056406274
0001b0 6a 6e ad 3c a1 1a 9d bd d3 11 3f bd 02 90 c8 3b
       0.021170814 -0.07671095 -0.046647858 0.0061206827
0001c0 81 75 df 3c e5 05 97 bd 7e 60 27 3c a1 25 83 3d
       0.02727771 -0.07374171 0.010215877 0.064036615
0001d0 f9 64 19 3d 16 00 ab 3c bc 14 c3 3d 08 44 45 3d
       0.03744981 0.020874064 0.09525439 0.048160583
0001e0 ce fe 0d 3d 50 15 2a 3d 88 04 a0 bd a4 94 40 3d
       0.03466683 0.04152423 -0.07813364 0.047016755
0001f0 1c b4 b0 3c a5 77 3a 3b 85 8e c3 bc 74 94 70 bc
       0.021570258 0.0028452661 -0.02387167 -0.0146838315
000200 ad 40 8b 3d 52 5a cf 3b 52 ce f8 bc 7c 80 51 3d
       0.06799445 0.0063279057 -0.030371819 0.051147923
000210 fc b3 5c 3d e7 73 90 3d 23 b3 ae 3d f1 40 14 3d
       0.053882584 0.070533566 0.08530261 0.036194745
000220 90 df cf bd 4c c8 86 3c 8d 3a 00 3d ff ea 5e bb
       -0.10150063 0.01645293 0.03130584 -0.003401458
000230 34 2a 0d 3a c9 d8 ba 3d 6d 9a b9 bd 5c 4d a4 3d
       0.0005385012 0.0912338 -0.090626575 0.08022568
000240 65 43 7d bd dd 75 9d 3d 31 2a c2 3d a5 e6 92 3d
       -0.06183185 0.07688496 0.094807036 0.07172898
000250 05 35 17 3c bc d3 b0 bd 2c 17 e1 3d d4 82 90 bd
       0.009228949 -0.08634135 0.10990748 -0.070562035
000260 36 20 9c 3d f9 ad 35 bc 76 9c 96 bd bd f4 71 bd
       0.07623331 -0.011088842 -0.07354061 -0.05907129
000270 d2 4a a8 bd 91 a0 0a bd 00 47 dc bc ad eb 1f 3d
       -0.08217396 -0.033844534 -0.026889324 0.039043117
000280 49 b5 2f 3d 54 9b 67 bd 47 94 3a 3d 65 88 10 3d
       0.042897496 -0.056544617 0.045551565 0.035286326
000290 c9 a9 88 3c 37 62 86 3d cc 47 c8 bc 63 be bf bd
       0.016682522 0.06561702 -0.024448298 -0.09362485
0002a0 84 cc 68 3d 22 71 df 3c 4a 10 cf bd ea eb bf b9
       0.056835666 0.027275626 -0.10110529 -0.0003660613
0002b0 2f 24 b2 3c f2 94 36 bd 60 38 15 3d 07 10 13 bd
       0.02174577 -0.04457564 0.036430717 -0.035903957
0002c0 87 56 77 3c 54 72 86 3c 05 44 55 3d 6e 2c 8e 3d
       0.015096313 0.016411938 0.05206682 0.06942068
0002d0 21 0f c2 ba 2c c1 c6 bc 7e 73 72 bd 67 b0 10 3d
       -0.0014805534 -0.024262033 -0.059192173 0.03532448
0002e0 73 07 f5 3c f7 ff bc bc e3 23 52 bd 17 25 4f bd
       0.029910779 -0.023071272 -0.051303755 -0.05057248
0002f0 e7 24 99 bd 4c 74 bd 3c 47 d1 66 3d 15 7d e6 bc
       -0.07477742 0.023126744 0.056351926 -0.028135816
000300 d5 c6 b7 bd 19 64 00 3d 9d 15 90 3d fe 22 a7 bd
       -0.08973471 0.03134546 0.070353724 -0.08160971
000310 cf d4 a6 3d 99 a2 cd bb d3 b5 53 3d 3d af ba 3d
       0.08146059 -0.0062754867 0.051687073 0.09115455
000320 79 97 99 3d a8 fe cf bc b6 83 cb bc 38 99 bf bd
       0.07499594 -0.025389984 -0.024843078 -0.09355396
000330 7c 6b cb bd 7f 52 0b 3b 14 2f 58 bd c9 d9 8a 3c
       -0.099326104 0.0021258888 -0.052779272 0.016949551
000340 8d 99 ae bd cb 3b b5 3d 60 c8 0d bd 9b 7a ce bc
       -0.08525381 0.08849295 -0.03461492 -0.025204947
000350 1f 6b 7a 3c ef 04 1a bd b7 38 b7 3c 15 db ea 3d
       0.015284329 -0.03760236 0.022365911 0.11467568
000360 7a 82 56 bd 64 2a 9a 3d a4 34 45 bd cb 04 83 3d
       -0.052370526 0.075276166 -0.048145905 0.063973986
000370 9a a3 21 bd 9b d3 3c 3d ef b2 de 3a e1 8a d3 3d
       -0.039462663 0.04610024 0.0016990582 0.103292234
000380 16 40 01 3d 59 38 a4 bd 62 f4 ce 3d 43 b5 06 bd
       0.031555258 -0.0801856 0.10105206 -0.03288771
000390 f8 03 89 bd 35 c3 86 3d d7 1e d1 3a c0 7e 8c bd
       -0.0669021 0.065802015 0.0015954626 -0.06860113
0003a0 5f d9 6d bd 38 0e a7 bc 77 63 3b bc eb 89 25 3d
       -0.05806863 -0.020392522 -0.0114372885 0.040414732
0003b0 70 d8 f0 3c 17 36 ec 3c c8 a2 ac 3d 76 25 c0 3c
       0.02940008 0.028834386 0.084294856 0.023455363
0003c0 28 ce 8a bb b2 10 2e bd 96 33 99 3c f6 46 af bc
       -0.0042360015 -0.04249639 0.018701356 -0.021396141
0003d0 59 47 1e bd 83 9b 31 3d 44 c6 a6 bc a4 dd b0 bc
       -0.03864226 0.0433612 -0.020358212 -0.021590061
0003e0 1e 40 d2 3d 51 3b 7c bd 19 29 ac 3c 21 33 25 bd
       0.10266136 -0.061580006 0.02101569 -0.040331963
0003f0 22 18 31 3d 04 a0 75 bc 7a cc ba bd 88 c5 05 bd
       0.043235905 -0.014991764 -0.09121032 -0.032659084

recurrent.conv_layer.rnn.weight_hh f4 [300, 100]
000000 10 e8 22 bd 35 99 b5 bd 23 b8 78 ba e0 57 4c 3d
       -0.039772093 -0.088671125 -0.0009487888 0.04988849
000010 70 85 83 bb 87 a7 7f bd a8 0d 70 bb 59 3e 3f bd
       -0.0040137097 -0.062415626 -0.0036629234 -0.04669032
000020 4f c9 81 3d 75 95 9a 3b 10 45 da bd 5a 4c 8e bd
       0.06337225 0.0047175237 -0.10657704 -0.06948157
000030 1e 8f e5 bd 36 17 96 bc e5 80 e3 3b 75 fe 8f bd
       -0.11208938 -0.018321615 0.0069428557 -0.07030956
000040 4c 67 ea 3c 0e 90 ae 3c ab e5 4a bc 56 c7 85 bd
       0.028613709 0.021308925 -0.012383859 -0.06532161
000050 23 e4 af bd dc 4f 8c bc f4 5f 60 3d a4 85 34 3d
       -0.085884355 -0.017127924 0.054779008 0.044072762
000060 e5 0a 2b bd 8c f5 3c 3d dc 92 ad 3d ce 6f a4 bd
       -0.041758437 0.04613261 0.08475277 -0.080291376
000070 4b 21 11 3c 3c b5 b9 bd 47 35 bc bd 1b 4c 70 3d
       0.008858035 -0.09067771 -0.09189849 0.05866633
000080 cb 1c fb bc f0 32 a0 3d 51 93 ad bc 28 04 7a 3d
       -0.030653378 0.078222156 -0.02118841 0.06103912
000090 77 37 27 3d 5d 15 10 bb 98 97 32 bc 3e f6 9b 3d
       0.04082438 -0.002198539 -0.010900401 0.07615326
0000a0 91 4a 75 3d 6f 08 4f bc 43 37 ea 3c 67 8a 38 bd
       0.059885565 -0.012636288 0.028590804 -0.045053866
0000b0 ca 06 93 3d 13 08 01 bc 14 07 4b bb fe 76 8d 3c
       0.07179029 -0.00787546 -0.003097956 0.017268654
0000c0 87 76 54 bd 0e e6 97 bd 55 92 37 3c 56 87 0b bd
       -0.05187085 -0.07416926 0.011204322 -0.034064613
0000d0 aa 21 87 bd 53 9c c4 bd 25 23 71 3d 74 98 e2 b9
       -0.06598218 -0.09600129 0.058871407 -0.00043219666
0000e0 26 18 12 3c ba bc 63 3d aa 52 13 bd 6b 96 c5 bd
       0.00891689 0.055599906 -0.035967506 -0.096478306
0000f0 a6 d3 c5 bd a6 b0 87 bd 12 4e f2 bd 1c a8 42 bc
       -0.09659509 -0.0662549 -0.11831297 -0.011880901
000100 5b 78 19 bc ed d5 f2 bd 12 bd 4b 3d f9 16 bc bd
       -0.009367074 -0.11857209 0.04974086 -0.09184069
000110 0a 08 9d 3d c3 9c 82 bd 06 e9 bd 3d 4b 1d 8b bd
       0.07667549 -0.06377556 0.09272961 -0.067926966
000120 05 b9 8e bd ba 55 33 3c c2 ae 9c bd 92 17 77 bc
       -0.069688834 0.010945732 -0.0765052 -0.015081303
000130 9f 4c 9f 3d 1d 8b 34 3b 87 22 a9 3d 0d a6 a2 3c
       0.07778286 0.0027548738 0.08258539 0.01985457
000140 79 e3 c2 3d 2e 96 79 3d ea a4 90 bd cf f4 a9 3d
       0.09516043 0.060934238 -0.07062705 0.08298647
000150 0e 37 3f bd f2 12 ce 3c 98 16 d9 3c b8 45 1f 3c
       -0.046683364 0.025155518 0.026500031 0.009721212
000160 4e 48 9c 3d 4d 5d 4a bd e8 bb 94 3d 26 4a 70 3c
       0.076309785 -0.049405385 0.07262403 0.014666116
000170 c0 d7 56 bd a0 0f b4 3d 96 49 d7 3d 9c 53 90 3d
       -0.05245185 0.08792043 0.10512082 0.07047197
000180 94 79 50 3c e1 6f e5 3d 75 e3 38 3d 18 5f a6 3d
       0.012724299 0.1120298 0.045138795 0.081236064
000190 4b e3 7b 3d c3 c6 9d bd 5e 47 96 bd 61 87 3c bc
       0.06149606 -0.077039264 -0.07337831 -0.011506886
0001a0 83 fb fa bc 98 8e d2 bd c3 9c 44 3d 69 d2 84 bd
       -0.030637508 -0.10281104 0.048001062 -0.06485445
0001b0 5a 18 d7 bd 9a 97 82 bd 3d 09 df bd 48 69 87 3d
       -0.105026916 -0.06376572 -0.10890434 0.06611878
0001c0 c6 6a 41 3d a7 1a a1 bd 40 f1 fa bc 0a eb 48 bc
       0.047220968 -0.07866412 -0.030632615 -0.012263069
0001d0 82 a3 0d 3d 4f 6a 74 3d 49 90 84 3c 33 84 38 bb
       0.03457976 0.059671696 0.016182082 -0.0028154969
0001e0 d9 a9 be bd d3 8a 9b 3d 15 89 e2 3c 67 9e 8d 3c
       -0.093097396 0.07594838 0.027653256 0.017287446
0001f0 08 92 89 3d ea a0 35 bd 33 db c9 3c 05 6c ed bc
       0.067173064 -0.044342913 0.024640655 -0.028982172
000200 c7 11 05 bd a4 53 88 bb 37 01 6f 3d c2 63 b0 3d
       -0.032487657 -0.0041603614 0.058350768 0.08612777
000210 46 db 5b bd e8 c0 a9 bd 8b b7 23 3b 92 d7 e4 3c
       -0.053675912 -0.08288747 0.0024981226 0.027934823
000220 4d 84 83 3d c5 17 94 bd 88 ea fe bc a1 c9 14 bd
       0.06421719 -0.07231096 -0.031117693 -0.0363251
000230 94 08 a5 bd cd 0f 3d bd 83 1e 2a bd 24 74 ae bd
       -0.08058277 -0.046157647 -0.041533004 -0.08518246
000240 4f fc 81 3c 5a c6 94 bd 47 72 e8 bc fb a7 85 3d
       0.01586738 -0.07264395 -0.028374804 0.0652618
000250 91 25 d2 3c 7f 21 5c 3d 46 df 1c bd da cd 95 3d
       0.025652679 0.053742882 -0.038298868 0.07314654
000260 fb d3 ed 3c 97 75 81 3d e8 55 87 bd f2 27 11 3d
       0.029031744 0.063212566 -0.06608182 0.035438485
000270 64 31 48 3c 44 bc 15 3d 06 bc a9 3c a3 32 a7 3c
       0.012218807 0.036556497 0.02071954 0.020409888
000280 91 c6 34 bd c9 7e 9f bc 6f 50 a3 bd 16 92 ed 3c
       -0.04413468 -0.019469636 -0.07974326 0.029000323
000290 c8 4d 6e 3c 4a 11 ba 3d 4d 00 59 bd f5 07 91 bc
       0.014544912 0.09085329 -0.052978802 -0.01770399
0002a0 fb bc 76 3d cf 9c b1 bb e9 c9 99 bc df 06 db 3b
       0.06023882 -0.0054203044 -0.018773036 0.0066841687
0002b0 0b 6e af 3d 17 95 b6 3b b2 a9 34 bc 6c 18 81 b9
       0.08565911 0.005571972 -0.011026787 -0.00024622993
0002c0 c7 a6 b1 bb 0f 58 6f 3c c9 8e e1 3d 7b ec 73 3d
       -0.0054214927 0.014608397 0.11013562 0.059551697
0002d0 d9 b6 97 3d a9 1b be 3d 2f 1a 8e 3d 70 13 0f bd
       0.07407922 0.092826195 0.06938588 -0.034930646
0002e0 4e 46 aa 3b 65 b5 65 bd 05 af 83 3d a4 e9 87 bd
       0.0051963693 -0.056081194 0.06429867 -0.0663636
0002f0 46 f8 fd bc ee 4a 87 bb c0 05 78 3d 50 6f 91 3d
       -0.031002175 -0.0041288054 0.06055236 0.07101309
000300 29 c5 c4 3c 73 b6 1d 3e 3b 14 f1 3d a2 94 d5 bb
       0.024019795 0.1540163 0.11771437 -0.0065179626
000310 f9 1c 90 3d e5 f2 2d 3e 88 1a 38 3e 83 a0 3a 3e
       0.07036776 0.16987188 0.17978871 0.18225293
000320 0d d5 8f bc 33 a3 eb 3d 8c e4 67 bd 1d 55 c2 3d
       -0.017557645 0.11505737 -0.056614444 0.0948889
000330 f3 2d 32 3d 60 b4 cc 3d 6b 1b ef 3d 03 f6 96 bc
       0.04350085 0.09995341 0.116751514 -0.018427854
000340 4b fd 16 bd a0 92 9c 3c 7a ed c6 3d 54 f1 52 3d
       -0.036862653 0.019112885 0.09713264 0.05149968
000350 d9 ca 07 bc ba 19 58 bd 0e ab 97 bc 5f 9e 90 3d
       -0.008288109 -0.05275891 -0.018514182 0.07061457
000360 3e 3f fa 3c 43 f8 0e 3d 17 73 01 bd 28 8c 70 bd
       0.030547734 0.03490473 -0.0316039 -0.058727413
000370 c9 0d ae 3c a2 c2 b7 3c 63 86 53 3b 19 a5 eb 3b
       0.021246808 0.022431675 0.0032276146 0.007191312
000380 9c 32 95 3b 70 0a 6e 3d 34 ff e3 3d 33 a3 02 3d
       0.0045531522 0.058115423 0.111326605 0.03189392
000390 09 35 2a bd 17 64 59 bd 21 17 44 3d 21 79 be 3d
       -0.041554485 -0.05307397 0.04787362 0.09300447
0003a0 ec 7c 0a bd 59 b9 9c bd ba 72 52 3d 4d df b4 3d
       -0.03381054 -0.0765254 0.051378943 0.08831654
0003b0 7a d5 88 3d e2 ee c8 3d f7 5c d1 3d c4 22 7f bc
       0.066813424 0.09811188 0.1022281 -0.015572254
0003c0 34 40 14 bb dc d4 5f bd 4b 85 29 3d 96 6e c3 3c
       -0.0022621276 -0.054646358 0.041386884 0.023856442
0003d0 72 ae 1e bd b5 58 21 3d 1f 88 3f 3d 02 a2 95 bd
       -0.038740583 0.03939124 0.046760675 -0.07306291
0003e0 74 dd b2 3d 5b 73 a7 bd 99 17 80 bc 24 65 b7 3d
       0.08733645 -0.08176299 -0.015636252 0.08954838
0003f0 68 11 0e bd 7e 35 e8 bc 3d 09 e1 3d e5 61 9d 3c
       -0.03468457 -0.02834582 0.1098809 0.019211719

recurrent.conv_layer.rnn.bias_ih f4 [300]
000000 f7 bc 0f bd 1d 9d 47 bd a3 7c cb bc b8 43 cb 3c
       -0.03509232 -0.04873382 -0.024839705 0.024812564
000010 35 66 ff 3d 37 30 db bc 22 0b 0c bd 49 64 9b 3d
       0.12470666 -0.026756389 -0.034190305 0.07587487
000020 8f a6 48 bd 47 7e 0d be 66 49 89 3d 4d 7e ef bc
       -0.048986968 -0.13817702 0.06703453 -0.02923503
000030 c3 b0 9a bc 56 66 0b 3d 2a c1 7e bd 9e f6 44 3d
       -0.018883115 0.034033142 -0.062195934 0.048086755
000040 fe 3e 8b bd fb dc 13 3d 9a d0 f5 3d c5 f4 94 bd
       -0.06799124 0.036099415 0.12002678 -0.072732486
000050 56 9a 36 bd f8 1a 3e 3d 82 24 a7 3d 80 5f 6e 3d
       -0.04458078 0.04641244 0.0816126 0.058196545
000060 4a 7d bf 3b c9 6c 3f 3d fc 1e 73 3d 33 5f a0 3b
       0.005843793 0.046734605 0.05935572 0.004894161
000070 07 d8 07 3d 76 15 8b bd 57 c0 69 3d 74 4c 13 bd
       0.033165004 -0.06791203 0.057068195 -0.035961583
000080 b2 e0 e1 3d 07 0c 7f bd 43 38 9c bd 65 e9 65 bd
       0.11029185 -0.06226733 -0.076279186 -0.056130785
000090 c9 76 e4 3a ba 6d 40 3c 58 cf 43 bb 06 3c 94 3c
       0.001743042 0.011744911 -0.0029878225 0.018095028
0000a0 77 dc b1 bd cf 2f 38 bd a0 7d 44 3d b8 d0 8f bd
       -0.086846285 -0.04496747 0.047971368 -0.07022232
0000b0 63 f5 a9 bd 80 ee c8 3d 9b 92 05 be db 7c 84 3d
       -0.08298757 0.09811115 -0.13044207 0.06469127
0000c0 0b aa f3 bc e5 1a a8 3c 3e 02 a4 bd ef 94 04 3d
       -0.029744169 0.020520637 -0.0800824 0.032368597
0000d0 be 4a b1 3d 50 15 ef 3c 01 43 02 3d 7a d1 f2 bc
       0.08656834 0.029184967 0.03180218 -0.029640902
0000e0 5e ad af bd b6 da 4c bc 69 08 15 3b a2 56 94 bd
       -0.08577989 -0.012503317 0.0022740609 -0.072430864
0000f0 bf 51 f9 bc 3f 7b e7 bd 29 47 89 3d 83 42 cc bc
       -0.030434487 -0.11302804 0.06703026 -0.024934059
000100 89 d3 48 bd c0 80 ea 3d 4b ac 8c 3d 84 69 b0 bd
       -0.04902986 0.11450338 0.068688 -0.086138755
000110 29 c9 43 bd 39 53 f0 3d 1a d5 83 3d 4f a9 a0 3c
       -0.047799263 0.117346235 0.0643713 0.019611983
000120 ac e0 25 3d aa b3 87 3d d6 35 aa 3d 65 08 0b 3d
       0.040497467 0.06626065 0.0831105 0.033943553
000130 1a f5 5d bd 28 39 85 3a ad 36 eb bc 94 73 1a 3b
       -0.054188825 0.0010164129 -0.028712595 0.0023567425
000140 5e a4 ee bd 1e 91 4b 3b dd cc 8f 3d 9e 53 40 3d
       -0.11652444 0.0031061838 0.070214964 0.046954744
000150 bb 83 e0 bd 09 32 6d 3b 9f 3e 93 bb dd 38 59 3d
       -0.109626256 0.0036193153 -0.004493549 0.053032745
000160 7c 5a 84 bc 12 dd 90 bd 7e db b9 bd ae ed 69 bd
       -0.016156428 -0.07073416 -0.09075068 -0.057111435
000170 87 27 a2 bb 3a ca fb bd 5a ff b3 3c 6a f5 59 bb
       -0.0049485597 -0.12294431 0.021972347 -0.003325785
000180 9b d0 f5 3d fe fa a1 3c 1e c9 8d 3d a3 a4 b6 3d
       0.12002679 0.019773003 0.06923126 0.08918121
000190 42 8a 99 3d d2 54 34 3d 5f 39 bf bd de 7f 9d bd
       0.07497074 0.044026203 -0.093371145 -0.07690404
0001a0 df 36 ae bc 3b 56 a9 bc 10 47 68 3d 91 64 63 3b
       -0.021266399 -0.020671 0.056708395 0.0034697393
0001b0 c9 21 98 bd a2 ad 9f bd aa 6d 8a bd 55 64 bb 3d
       -0.07428319 -0.0779679 -0.06759198 0.09149996
0001c0 e1 ee e1 3c 81 ce 48 3d ac 02 a4 bd b8 2b e3 bc
       0.027579727 0.049025062 -0.08008322 -0.027730808
0001d0 7b c7 ab bd f9 b0 c6 3d 6e ec 7b 3d f2 1b ce 3c
       -0.08387657 0.097017236 0.061504774 0.02515981
0001e0 19 2b d5 bc 6c 60 b8 3d c2 a6 05 3e 15 73 9c bd
       -0.026021527 0.09002766 0.13051894 -0.07639138
0001f0 31 0a f8 3c 29 77 24 3d d5 7f 99 bc b8 83 13 bd
       0.030278297 0.040152702 -0.018737713 -0.03601429
000200 65 1c 8e 3d 50 91 c9 bd 65 e7 9e bc 4b 63 92 3d
       0.069390096 -0.09842169 -0.019397447 0.07147845
000210 4c 65 ce 3a 31 c9 c2 3c 92 73 b6 3c 6d b9 c6 bd
       0.0015746742 0.023777576 0.022271905 -0.09703336
000220 e7 44 03 be fd 7a 54 bd 26 56 80 3d 7d e2 e0 3d
       -0.12819253 -0.051875103 0.062664315 0.10980699
000230 c7 31 91 3d 06 4a 6c 3c 62 b5 42 bd aa 27 d6 bd
       0.070895724 0.014421945 -0.04753626 -0.10456784
000240 8e fa 58 3d 38 fd cd bd d5 0f 64 bd ed a8 a8 3c
       0.052973323 -0.10058063 -0.05567916 0.020588363
000250 df 45 55 3d 57 e3 4b 3d 44 17 a6 bd ea 10 32 bc
       0.052068587 0.049777355 -0.08109906 -0.01086829
000260 07 53 41 bd b4 dd 6d 3d 5d 41 3a bd 5c d5 ae bd
       -0.04719832 0.05807276 -0.04547249 -0.08536789
000270 06 04 b1 bb 44 3a e0 bc dc 51 99 bc 8e a2 46 bd
       -0.005402091 -0.027371533 -0.018715791 -0.048494868
000280 a0 d7 6f 3d 4c 12 e3 3d 59 cf 40 3d 0e 7f ab 3d
       0.058555245 0.11087474 0.047072742 0.08373843
000290 2d 1e 54 bc 6f b4 07 3d 04 5a 9c bc cb fc 83 3d
       -0.012946648 0.03313106 -0.019085892 0.06444701
0002a0 0b 49 9b 3b a5 02 f4 bd 58 bd 9b 3c 4c c0 04 bd
       0.004738932 -0.11914567 0.019011185 -0.03240995
0002b0 d5 73 dd 3c a2 44 ab bd 9d 5a bb 3c 48 13 59 bd
       0.027032772 -0.083627 0.022870356 -0.052996904
0002c0 50 bb b6 bd c3 21 12 3d 0d 31 ed 3d d2 b6 70 3d
       -0.08922446 0.03567673 0.11581621 0.0587681
0002d0 02 e6 c7 3d f3 22 2c 3d 00 52 6d bd 14 84 c3 bc
       0.097606674 0.042025518 -0.05793953 -0.02386669
0002e0 29 4a 87 bd b9 28 84 bd 5e 47 e0 bd 5a 29 45 3d
       -0.06605942 -0.0645308 -0.10951112 0.04813514
0002f0 8d c7 a9 3d 7f 68 0f 3e 74 18 8a 3d 71 a5 46 3d
       0.082900144 0.14004706 0.06742945 0.04849762
000300 d1 1b 03 be ae 48 dc 3d 18 23 67 bd f6 61 7d 3d
       -0.1280358 0.1075605 -0.056429952 0.061861
000310 7a 4b 5d 3c 33 aa 40 3e fb 1c 3c 3d d0 ea b7 3d
       0.013506765 0.18814926 0.045926075 0.08980334
000320 84 d8 d5 3b 09 5a df bd fd e3 89 bd ce 2d 10 bd
       0.006526055 -0.10905845 -0.067329384 -0.035199933
000330 35 59 e0 bd 10 72 a5 bd b2 45 ba bc 35 02 82 3d
       -0.10954515 -0.08078396 -0.022738311 0.06348077
000340 80 6a e1 bd 62 a3 c4 3c d4 e8 3a 3c 37 0e 8e 3d
       -0.110066414 0.024003688 0.01140805 0.06936305
000350 37 0f 73 3c e8 0e 8c bc 9a 9e a4 bc 66 7e 26 bd
       0.0148351705 -0.017096952 -0.020095158 -0.040647887
000360 fb 3c 7d 3d c6 77 52 3b b1 9d 8e bd 14 3c 0e bd
       0.061825734 0.0032114848 -0.06963671 -0.034725264
000370 71 42 86 3b e8 95 8d bd 18 48 55 3d 41 cc 48 bd
       0.004097276 -0.06913358 0.052070707 -0.049022917
000380 21 a9 b3 3d 57 0f 6a bc 15 cf 25 3e f2 61 66 3d
       0.08772493 -0.014285884 0.16192277 0.05624575
000390 5b 3f 68 bd 85 9f 46 bd 5e 11 88 bc b9 14 f0 bb
       -0.056701045 -0.048491973 -0.016609844 -0.007326689
0003a0 ad c0 b7 bd d1 19 2a bd ce 32 52 3d df 6a a7 bd
       -0.08972297 -0.041528527 0.051317982 -0.08174681
0003b0 d0 80 3f 3c a8 45 e5 3c 68 67 7f bd 36 3c 93 3d
       0.011688426 0.027987316 -0.062354475 0.07189219
0003c0 5e 08 bc bb d5 86 f2 bc 7d 03 1b bd 75 ba fd bd
       -0.005738302 -0.029605309 -0.037845124 -0.123890795
0003d0 91 3f 2a 3e 46 ce 5f bc 67 2f 5b bd cd fa 2e 3d
       0.16625811 -0.013660019 -0.053512003 0.04271965
0003e0 94 64 00 bd 79 74 f2 bc 0a 90 eb bd 4d 19 48 bd
       -0.03134592 -0.029596554 -0.11502083 -0.048852254
0003f0 36 0a dc 3c b0 ee d6 3c 2c b9 9f bd 5a 01 b2 3c
       0.026860338 0.026236862 -0.077989906 0.02172916

recurrent.conv_layer.rnn.bias_hh f4 [300]
000000 3c be ec bc 23 01 bc bd 33 90 e7 bc 76 83 8c bd
       -0.028899305 -0.09179904 -0.028267002 -0.06861012
000010 69 43 0f 3d b1 98 84 bd 02 50 37 3d df 7b 9b bd
       0.034976397 -0.06474436 0.044754036 -0.07591986
000020 d5 4f 15 bd 6a 1b ef 3c f9 32 5b 3d e8 4b 6b bc
       -0.036453087 0.029187877 0.05351541 -0.014361359
000030 99 20 b6 bc c2 a0 8c bc af ec 42 3c b6 54 02 3e
       -0.02223234 -0.017166499 0.01189725 0.12727627
000040 48 c8 29 3b 00 0f e2 bc 66 fc f2 bc be 38 f8 bd
       0.002590673 -0.027595043 -0.029661369 -0.12120198
000050 89 71 00 bd cd 93 93 bd a5 28 35 bc 60 1b 40 3d
       -0.031358276 -0.07205925 -0.011057054 0.046901107
000060 ff ec 95 3d d9 ac a3 bd 10 6f 9a 3d 54 55 09 bd
       0.07320594 -0.079919524 0.07540715 -0.03352864
000070 a7 cb 13 3d f8 86 1a 3d 98 2c 56 bb c3 62 b7 bd
       0.03608289 0.037726372 -0.0032680389 -0.08954384
000080 33 59 76 3d 45 a2 0a bc d8 54 b2 bd 69 66 0f 3d
       0.06014366 -0.00846154 -0.08707589 0.035009775
000090 cd ce b1 3b 96 91 b3 3a 4d 8e 30 bc 81 b2 14 3d
       0.005426264 0.0013700004 -0.010776115 0.036303047
0000a0 e6 97 b6 3a 26 f7 a1 3d 5c 20 93 3c d5 49 ae bd
       0.0013930767 0.07908468 0.017959766 -0.08510176
0000b0 87 6f 22 3d 96 94 b3 bc ff b9 c4 bd 54 43 bf bb
       0.039657142 -0.021921437 -0.096057884 -0.0058368836
0000c0 21 cd cb bb 23 46 a9 bd de b5 09 3d 84 15 a1 3d
       -0.0062195216 -0.08265331 0.033620708 0.07865432
0000d0 8a c1 c0 3d cc 63 8c 3c dd 85 98 3d df f0 8d 3d
       0.09411915 0.01713743 0.074474074 0.06930708
0000e0 26 48 8a 3c 35 74 41 3d 70 e6 a3 bd 00 58 c9 bd
       0.016880106 0.047229964 -0.08002937 -0.09831238
0000f0 1e b5 c9 3d e7 fa d4 3c aa 2e 4a bd d2 ed a5 3d
       0.098489985 0.025998546 -0.04936091 0.08102001
000100 a5 ea a0 bd 8d 63 53 3d 97 d2 92 3d 17 82 30 ba
       -0.07857255 0.05160861 0.07169073 -0.0006733252
000110 f1 aa cb bd 9d 7e 8f 3b 7a a7 a7 bd 55 30 59 3d
       -0.09944714 0.004379107 -0.081862405 0.05302461
000120 fc 2d d5 bd 28 1b 2f bd dd 86 5d bb 3b a7 20 3d
       -0.104091614 -0.042750508 -0.0033802309 0.039221983
000130 c5 7e dc bd 14 7f b2 bd 1c 29 b5 bd 64 ce 33 3d
       -0.10766367 -0.087156445 -0.088457316 0.043898
000140 00 4c cb bd 19 6f c9 bd 91 0b 50 bd 0b bd c0 bd
       -0.09926605 -0.09835643 -0.05079228 -0.09411057
000150 0d ac 2b bc 22 67 2f 3c 5d 4e ea 3b cf a0 6c 3d
       -0.010478032 0.010705741 0.007150455 0.057770547
000160 dc fa 63 bd a7 f4 f9 bc 99 56 3e bd 98 34 b0 3b
       -0.05565916 -0.030512167 -0.046469305 0.0053773634
000170 b7 3d e4 3d 4a ad e2 bd 91 92 ec 3d 09 c2 96 3d
       0.11144584 -0.110682085 0.11551393 0.07361228
000180 04 7a 3b 3c d5 e9 89 bd f7 e3 97 3d 37 51 3f 3d
       0.011442665 -0.06734053 0.07416528 0.046708312
000190 69 0f 79 3c 4e 54 fd bd 06 e2 1d be 6a 70 9f bd
       0.015201428 -0.123695955 -0.15418252 -0.07785113
0001a0 2d f4 09 be 2e 9f 72 bd 55 3f cd 3d 6d 08 a7 bc
       -0.13472052 -0.059233837 0.10021845 -0.02038976
0001b0 a6 84 81 bd ad d0 2d bd a4 53 1d bd d4 df 41 3b
       -0.06324129 -0.042435337 -0.038409844 0.0029582875
0001c0 8a b2 21 3d f3 7c 2f bc 4f 00 c0 3c ff b5 26 be
       0.03947691 -0.010710943 0.023437647 -0.16280364
0001d0 3d 23 9c 3d 5d d4 08 3d 1c 67 a3 3d eb e7 84 3d
       0.07623909 0.03340565 0.07978651 0.06489547
0001e0 d4 cd 22 bd 0e 08 34 3d 91 dd 74 bc 2f 56 92 3d
       -0.039747074 0.043952994 -0.014945404 0.071453445
0001f0 ef dc 20 bd 76 58 fc 3c 6f c7 8d 3d e6 b8 be bd
       -0.0392732 0.0308039 0.069228046 -0.0931261
000200 14 ff d4 3d c6 88 e3 bd 43 d7 16 3c 72 c7 3c 3c
       0.10400215 -0.11110072 0.009206596 0.011522161
000210 ca be 7a 3c a1 f8 96 bc 10 ba 58 3d b6 40 b8 bd
       0.015304277 -0.018429102 0.052911818 -0.08996718
000220 a7 f6 be 3b e1 1e e4 bc 34 b8 ae bd 00 f3 2c bd
       0.005827743 -0.027846755 -0.08531228 -0.04222393
000230 8b d3 fb 3d 9d 9c 7f 3d d8 06 8e bd fb 2b 3d bd
       0.12296208 0.062405217 -0.06934899 -0.04618452
000240 48 a9 ab 3c 47 ab c5 bc 71 a2 ae bd ee f4 a0 3d
       0.020954743 -0.024129523 -0.08527077 0.07859217
000250 18 80 52 3e e7 9d 48 bd f7 95 39 3c 74 1b ca bd
       0.20556676 -0.048978712 0.011327258 -0.098685175
000260 5b 1f 86 3d 3d 41 8e bd 4b 40 a9 3d 42 c3 f0 3a
       0.06548949 -0.06946037 0.08264216 0.0018368738
000270 6c f9 6d 3d e6 ee 19 bd 80 19 92 bc ae 33 f1 bc
       0.058099195 -0.037581347 -0.017834425 -0.029443588
000280 d3 dc 17 3e 7c 89 70 bd 86 1d cf bc f3 79 15 3d
       0.14830332 -0.058724865 -0.025282633 0.036493253
000290 36 62 91 bd b5 75 5c 3c 6b d0 84 3c 99 7b 88 bb
       -0.070988104 0.013455798 0.016212663 -0.0041651246
0002a0 87 66 ab 3d b8 ca 2c bd 0e 1a a9 3c 13 74 b2 bb
       0.08369165 -0.042185515 0.020642307 -0.005445966
0002b0 5a 2b 55 3d 8c 70 e9 3c fa be 9e bd 30 d7 e4 bd
       0.052043296 0.02849605 -0.0775127 -0.11173856
0002c0 d7 d8 16 bd 38 79 00 be 5e dc ef 3b 28 08 be 3d
       -0.03682789 -0.12546241 0.007319971 0.092788994
0002d0 b2 ff 8f 3d 5f d1 19 bd 15 f5 16 3c 24 19 19 3b
       0.07031192 -0.037553187 0.009213706 0.0023360932
0002e0 13 10 72 3c d6 28 95 bd 8f 96 40 3d b3 c7 47 bd
       0.01477434 -0.072831795 0.047018584 -0.048774432
0002f0 7d 70 91 bd 36 e2 23 3e 19 ec 03 bd ad b9 06 3e
       -0.071015336 0.16004261 -0.032207582 0.13156767
000300 8a d0 77 3d 67 9b 43 bd e4 ed 7f bd 7f 47 17 3c
       0.060501613 -0.047755625 -0.06248273 0.009233355
000310 90 cb c1 3c 3b a7 15 3e ab 12 48 3d 71 9a 3f 3e
       0.023656636 0.14614575 0.04884593 0.18711258
000320 0e ee df 3d 8e 74 3b 3d bc 9a f5 bd 55 05 6d 3c
       0.10934077 0.045765452 -0.11992404 0.014466603
000330 9f 02 13 3d af 4d af bd a9 4a bb bd 17 20 84 bc
       0.03589117 -0.08559739 -0.091451 -0.016128583
000340 00 0e 97 3d 6e 20 53 bd 9e 77 bd bd 04 4c 97 bd
       0.07375717 -0.0515446 -0.09251331 -0.07387546
000350 e9 35 e2 bd 2b 93 15 bc ca b5 8c 3d 09 21 03 bd
       -0.11045439 -0.009129326 0.06870611 -0.032013927
000360 8a f0 0d bd 19 b2 54 bd cc 6d d9 bd 07 ca 9a 3d
       -0.034653224 -0.05192766 -0.10616645 0.07558065
000370 b0 5e da 3b 9f d9 9d 3c 2f 8c a8 3d 7e b5 34 bd
       0.0066641197 0.019268809 0.08229863 -0.044118397
000380 83 0f 8d 3d 50 87 7f 3d 5f 0f 57 3d d2 0f fd 3d
       0.06887724 0.062384903 0.052504893 0.12356533
000390 cd d1 91 3d 8d a0 6e bd ce 02 8e 3d 64 6a a8 3c
       0.071200944 -0.058258582 0.06934129 0.020558544
0003a0 e2 8b a4 bc 95 d3 21 bc fd d5 aa 3d fc bc 23 bd
       -0.020086233 -0.009877105 0.08341596 -0.03997515
0003b0 b3 7c 00 3d 10 19 88 3c 39 44 06 3e 82 a3 49 3d
       0.031368922 0.016613513 0.13111962 0.0492282
0003c0 7a a3 86 3d 67 42 ae bc e6 da 80 3d d5 ab c8 3c
       0.065741494 -0.021271897 0.062917516 0.024495998
0003d0 8d 65 13 bd 9b 99 08 3d 34 7d 82 bd f3 17 ba 3a
       -0.03598552 0.033349615 -0.06371537 0.0014197811
0003e0 10 a4 a2 3d 93 0c 1d bd e9 63 37 bc c7 50 0a 3d
       0.07941449 -0.03834207 -0.011193254 0.03376844
0003f0 f3 e7 1b 3d db b4 52 bd 3b d2 17 3d b2 18 88 bd
       0.038063 -0.05144201 0.037065726 -0.06645335

recurrent.recurrent_layer.weight_ih_l0 f4 [400, 100]
000000 17 0e c3 3d be dc 10 3b 3b f2 68 bc 87 5b 0d bc
       0.09524172 0.002210423 -0.0142179085 -0.008627779
000010 33 83 05 3e 2d 1c 8e 3d e7 98 c8 3d 23 56 2c 3e
       0.1303833 0.06938968 0.09794789 0.16829734
000020 bc 13 d0 b8 5b 9a 3c bd 1f c4 95 3d 58 3e 93 bd
       -9.921889e-05 -0.046045642 0.07312798 -0.071896255
000030 eb 16 9f bd 3a 8f 93 bd 5f c3 ed 3d 31 73 af bd
       -0.07768043 -0.07205053 0.1160953 -0.08566893
000040 1f bc 07 3e 6f af c9 bd 61 b0 4f 3d 3a 55 83 bb
       0.13255356 -0.098479144 0.050705317 -0.0040079625
000050 9d 7a cb 3c 6f cb 73 bd ff 14 e2 bc 89 f5 61 3d
       0.02483874 -0.05952018 -0.027597902 0.0551658
000060 ca 27 1b bc a8 63 37 bd 23 d9 cd bc 25 57 91 bd
       -0.009469936 -0.044772774 -0.025127953 -0.070966996
000070 2a c0 6d bd 26 be 04 3e ba 88 c4 3d 64 90 77 bc
       -0.05804459 0.12963161 0.09596391 -0.015110109
000080 66 58 18 bc b3 87 d6 3d c6 e4 c9 3d 92 29 70 3d
       -0.00929842 0.10475101 0.09858088 0.058633395
000090 99 a6 ac bc 01 0c c3 3d 87 9c 39 3d e4 b1 9c 3d
       -0.021075534 0.09523774 0.04531529 0.076511174
0000a0 61 05 a6 3d af a5 92 3d 09 21 69 3d 83 81 d7 3b
       0.08106495 0.07160508 0.05691627 0.0065767183
0000b0 4f 2f ac 3c 07 6b 82 bd 43 66 a6 3d 75 30 b9 bc
       0.021018652 -0.0636807 0.081249736 -0.022606114
0000c0 8d 7b 45 3c ef 63 22 bc e9 cb 21 bc ae 71 92 bd
       0.012053383 -0.009911521 -0.009875276 -0.07150589
0000d0 e3 6e 1f 3d 87 31 02 3d ba 06 c1 bd d8 ac 90 3d
       0.03892411 0.031785514 -0.09425111 0.07064217
0000e0 a7 db d2 3d 73 f6 c9 3d 73 b8 8e 3d 5f 75 ea 3c
       0.102958016 0.098614596 0.06968775 0.02862042
0000f0 56 37 2c 3d 45 6c e6 3d b8 8a f8 bc 57 c1 aa 3d
       0.04204496 0.112511195 -0.030339584 0.08337658
000100 db 2b 24 3e 24 11 72 3d f2 67 a4 3d 4c 06 30 3d
       0.16032355 0.059098378 0.080276385 0.042974755
000110 69 a9 fc 3d 32 56 20 bc 04 4a 18 bd ef ed c2 3d
       0.12337 -0.009786176 -0.03717996 0.095180385
000120 0b 69 68 bd 10 32 37 3d bb d3 31 bd 5c 29 2b bd
       -0.0567408 0.044725478 -0.043414813 -0.04178749
000130 e8 a1 d2 bd 75 77 ca 3d 9b 4b d7 3d 2c 27 e8 3d
       -0.102847874 0.09886066 0.105124675 0.113355964
000140 c7 cf 3f 3c c2 1b 34 bd 78 71 68 bd 66 7d 86 3d
       0.011707253 -0.043971784 -0.056748837 0.065668866
000150 b6 d9 ad 3c 08 32 b7 3c 85 0b 48 3c 42 fa 0b bd
       0.021221977 0.022362724 0.012209778 -0.03417421
000160 6b f2 57 3d 61 2b 1c 3e 01 c4 63 bd 55 cc 76 3c
       0.052721422 0.15250923 -0.055606846 0.015063365
000170 04 b1 04 3e 65 00 a7 3d b6 9a f4 3d 6f 25 0a 3e
       0.12958151 0.08154372 0.11943571 0.13490842
000180 da 08 90 3d 21 b6 c8 3d db e4 f2 3d 3a 0f 6f 3e
       0.07032938 0.09800363 0.11860057 0.23345652
000190 66 40 70 39 1b e2 1a 3d bc 06 1c bd 99 54 5c bd
       0.00022912174 0.037813287 -0.03809236 -0.053791616
0001a0 1c 32 67 bc 20 2e c6 3d 76 bc cc 3d b1 37 a5 3d
       -0.014111068 0.096767664 0.099968836 0.08067263
0001b0 87 6f 59 bd 98 a9 28 3d 37 89 24 bc e6 1e e1 3c
       -0.053084876 0.041177362 -0.01004248 0.027480554
0001c0 33 a2 e1 3c 49 01 c3 ba 84 a9 95 bd 81 24 5c 3c
       0.027543163 -0.0014877702 -0.07307723 0.013436438
0001d0 92 99 3d 3d ba e0 d3 3d 09 38 b6 bc e6 51 00 3e
       0.046289034 0.103455976 -0.022243517 0.12531242
0001e0 f6 7b 3f 3c 49 6c 1a 3d f3 c4 60 bd f0 e8 d1 3b
       0.011687269 0.037700925 -0.054875325 0.006405942
0001f0 df 16 2f 3b 25 eb 7b 3d ec 7b e3 3d 5e 45 c2 bd
       0.0026716513 0.06150355 0.111076206 -0.09485887
000200 84 8e 24 3e a7 66 fb bd f2 87 cb 3c 7d b5 8f 3d
       0.1606999 -0.12275439 0.024845097 0.07017038
000210 e6 dd a0 bd 62 ed 09 3e 7d 68 b5 bb b1 77 da 3d
       -0.07854824 0.1346946 -0.0055361376 0.106673606
000220 2b 25 fc 3d af c1 f9 3c 09 4c 62 bd 9c b6 82 3d
       0.12311777 0.030487863 -0.055248294 0.06382486
000230 f7 07 89 3c a1 27 d9 3d d8 78 ce 3d 25 1e 2f 3c
       0.01672743 0.10603262 0.10081643 0.010688339
000240 6b ae 99 3d fc 9d c2 3d f7 36 c7 3d 0e f6 93 bd
       0.07503971 0.095027894 0.097272806 -0.072246656
000250 ac 9d 01 bb 13 d6 02 be a1 03 a7 3d 2c a6 7a 3d
       -0.0019777818 -0.12776975 0.08154989 0.06119363
000260 21 30 be 3d cd e5 12 3c ad 9d 68 be ee 1a e5 3d
       0.092865236 0.008965922 -0.22716399 0.11186777
000270 54 3e f3 3d e7 61 50 3d 3b 38 07 3e 5a a0 4c 3d
       0.118771225 0.050874617 0.13205044 0.04995761
000280 be 6d d3 bc 1a 71 c3 3d 19 79 a0 ba bb 9b c8 3d
       -0.025809165 0.09543057 -0.0012243121 0.09795328
000290 29 13 98 3c 67 4d c6 ba 7a 44 db bc ba ed 5e bc
       0.018563824 -0.0015129269 -0.02676605 -0.013606483
0002a0 46 f9 0b 3e 23 25 ab 3d a5 01 00 3e 55 6e 74 bc
       0.13669309 0.08356693 0.12500627 -0.014918883
0002b0 73 59 5a bd e3 18 e0 3d c9 be 0e bd 3b 72 59 3d
       -0.05330796 0.10942247 -0.034849916 0.053087454
0002c0 10 6f 91 bd 85 d5 f2 3d 16 00 e9 3c 48 0c ba 3d
       -0.071012616 0.11857132 0.028442424 0.09084374
0002d0 ac 86 7c bc 97 33 1d 3d cb 21 0a bb 7f 4f 92 3c
       -0.015412968 0.038379278 -0.002107727 0.017860172
0002e0 d7 1c 61 bd b4 1d 56 3d e2 0b a3 3d c4 ca 0c 3e
       -0.054959144 0.05227442 0.07961251 0.13749224
0002f0 62 e1 06 3e 78 c2 22 3d 71 60 a3 bd 0d 8f 8b 3d
       0.13171914 0.03973624 -0.07977379 0.06814394
000300 b0 24 14 3c 95 11 0b bc 7a c1 0d 3e 4d fa 37 3d
       0.00904195 -0.008488079 0.13843337 0.04491644
000310 03 aa 43 3d 6a 86 69 3e 60 ce 6d 3e 35 5a d7 3d
       0.047769558 0.22805181 0.23223257 0.105152525
000320 a1 77 be bc 43 c1 f6 3c 1e c7 70 bd 1f 2d 94 bb
       -0.023250403 0.030121451 -0.058783643 -0.0045219804
000330 50 2e 01 3d 8a de 63 3a 46 29 eb bc e9 b2 40 bd
       0.031538308 0.00086925237 -0.028706204 -0.047045622
000340 d4 5d ae bc 58 0a 8a bc 08 58 05 3e 40 bd cf 3d
       -0.021284975 -0.016850635 0.13021863 0.101435184
000350 98 66 05 bd 3d 53 a1 bd 1c b3 42 3d 95 20 db bd
       -0.032568544 -0.078772046 0.047534093 -0.10699574
000360 7c ba 8b 3d 77 37 87 bd 9f 68 e9 3c a1 14 52 3c
       0.068226784 -0.06602376 0.02849227 0.012822301
000370 aa 90 00 3e 1e 30 4e bd 64 11 02 3e 6a a7 76 3d
       0.12555185 -0.050338857 0.12701946 0.060218252
000380 b8 c0 0e 3e c3 bc ba 3d 70 65 03 bc 16 81 b6 bd
       0.13940704 0.09118035 -0.00801979 -0.0891134
000390 82 d3 63 bd aa f0 e7 bc 04 7a b4 3d 4a 9d 34 3d
       -0.05562163 -0.028313 0.08812335 0.044095315
0003a0 8a fa 4e bd f5 7e 1e 3d 84 fa f7 3d 96 c6 0b 3e
       -0.0505319 0.038695294 0.12108329 0.13649973
0003b0 86 89 5a 3d b8 37 d6 3d 3c f3 8c 3c ff 8b 3e 3d
       0.05335381 0.10459846 0.017205827 0.04652023
0003c0 ab a1 79 bd 58 3a 47 bd a5 a3 dc bc 81 29 aa 3d
       -0.060945194 -0.048639625 -0.0269335 0.083086975
0003d0 f7 66 91 3d aa 44 5c 3c d2 34 a7 3d a4 1b 1c 3c
       0.07099717 0.013444105 0.081643716 0.009528074
0003e0 7a b8 3d 3d 34 8b ae 3c f3 56 74 3b ca e7 ef 3d
       0.04631851 0.021306612 0.003728327 0.11714132
0003f0 af 88 bd bc 00 7a 43 bd 6d eb 4c be 6b 46 9b 3d
       -0.023136465 -0.04772377 -0.20011683 0.075817905

recurrent.recurrent_layer.weight_hh_l0 f4 [400, 100]
000000 a8 53 5b bd 1a 22 e5 bd 79 93 b0 3d d9 5f 87 3d
       -0.053546578 -0.11188145 0.08621878 0.06610078
000010 3c 7c a6 3a 94 78 51 3d 80 63 87 bc a7 54 00 3e
       0.001270182 0.051140383 -0.016526937 0.12532292
000020 b2 b3 90 bd 0c 26 aa bc 2d 6b 02 3e 8c 22 3a 3d
       -0.07065524 -0.020770095 0.12736197 0.045443103
000030 53 4e 9d 3d 0e be 99 3c 1a 65 a0 3d 98 a8 e4 3d
       0.07680955 0.018767383 0.078317836 0.11164969
000040 43 ba d1 3c 94 19 0f 3d 57 8e d8 bc a9 45 6d 3d
       0.025601512 0.034936503 -0.02643506 0.05792776
000050 b7 30 e5 ba 14 82 50 3d de 71 fa 3c 6a 48 95 bd
       -0.0017485832 0.050905302 0.030571874 -0.072892025
000060 22 e1 77 3c ae 34 b6 3d 3b cc bd 3d c8 69 c7 3c
       0.015129359 0.088967666 0.092674695 0.024342433
000070 99 37 b8 3c 39 78 cc 3d b0 a8 a0 bd f6 26 14 bc
       0.022487449 0.09983868 -0.078446746 -0.009042492
000080 62 e2 d2 3d 6e 77 f9 bd 1b ad 52 3e 7c f1 70 bc
       0.10297085 -0.121809825 0.20573847 -0.014706012
000090 1b c5 8c 3d fd 1a ad 3c 7f 1c 68 bd 75 b0 1f bd
       0.068735324 0.021131033 -0.0566678 -0.038986642
0000a0 41 94 b7 3d 6c aa 7e bd 28 46 58 bb d9 6a a1 3d
       0.08963824 -0.062174246 -0.00330008 0.07881708
0000b0 6e ef e7 bd 40 96 ac 3c a8 90 04 3e 54 d3 f6 3d
       -0.113249645 0.021067739 0.12945807 0.120520264
0000c0 9a b9 1d 3d 27 89 11 3d a5 04 07 3e 18 f8 c9 3d
       0.03850708 0.03553119 0.13185365 0.09861773
0000d0 ec 55 92 3c 45 69 88 3d 00 da ea 3c d1 5f 1c 3d
       0.017863236 0.066607036 0.028668404 0.038177315
0000e0 f6 9e 2b bd 0a 6c ac 3c d6 cf 85 bd 00 ae 54 bd
       -0.041899644 0.02104761 -0.06533782 -0.05192375
0000f0 8c d8 19 3e 88 6d e7 3d 56 7c 9d 3c c8 e3 5c be
       0.15024012 0.11300188 0.019224327 -0.21571267
000100 de 13 01 3d 90 5a 63 3d 9f 84 10 3e fa a4 40 3d
       0.031513087 0.05550629 0.14113091 0.047032334
000110 72 a6 7f bd 08 4a 9c bb b6 f9 05 3e 0c 79 b5 bc
       -0.062414594 -0.0047695674 0.13083538 -0.022152446
000120 eb 00 ff bc 5e 7e ad 3d a4 92 8a bc bf 07 1f 3d
       -0.031128367 0.08471368 -0.016915627 0.038825747
000130 ab 7c b5 3b 82 a4 df 3d 17 87 c3 3d 55 b9 3d bd
       0.005538543 0.10920049 0.09547251 -0.046319325
000140 1f a0 91 3c 2b 60 55 3e 1b 09 d3 3b 17 60 c2 bd
       0.017776547 0.20837466 0.0064402944 -0.09490984
000150 a3 4e 93 3d 1c b3 39 bd e7 64 b0 bc 3e 61 00 bd
       0.07192733 -0.045336828 -0.021532489 -0.031342737
000160 a1 10 e2 3c 53 cd 18 3e a2 85 b5 3d 35 98 a3 bc
       0.02759582 0.14922075 0.08863379 -0.019970039
000170 b3 97 21 bd 89 17 a1 bd 46 ed 27 bd 16 0f 5c 3d
       -0.039451312 -0.07865817 -0.040997766 0.053725325
000180 ad dd c5 3c 21 5e 02 bd ae ee 8a 3b 1d 40 24 3e
       0.024153555 -0.03182805 0.0042398786 0.16040082
000190 e5 53 ed bc 83 fa 63 bd 86 7e 8a 3d a1 01 bc 3d
       -0.028970668 -0.05565883 0.06762414 0.09179998
0001a0 f1 de 52 3d c3 8f e0 3d 0d 77 57 bd fd 84 2b bd
       0.051482145 0.1096492 -0.05260377 -0.041874874
0001b0 62 6a 1e 3d 39 56 a5 3d b5 b6 0d 3d 72 5f b6 bd
       0.038675673 0.08073086 0.03459807 -0.089049235
0001c0 4b de 5f 3d 11 32 0a 3e 50 b2 43 bd 35 47 80 3d
       0.054655354 0.13495661 -0.047777474 0.06263582
0001d0 62 4a 14 3c dd ab cb bd bf 4b ae bd d1 f4 55 bd
       0.009050937 -0.0994489 -0.08510541 -0.05223543
0001e0 3f 62 ab 3c a9 ca 7d 3d 41 eb 0b bd 87 cc 8a bd
       0.02092087 0.06196085 -0.034159902 -0.06777292
0001f0 1c 98 84 3c 8f cb fb 3d 86 7e c8 3c 38 02 9c 3c
       0.016185813 0.12294685 0.024474394 0.019044027
000200 48 a9 30 3b b5 19 d0 3d f2 73 b3 bb 95 66 8a bc
       0.0026956368 0.10161153 -0.0054764682 -0.016894618
000210 13 d0 59 bd c9 2c c2 3d cf b9 73 3d eb 49 5e 3d
       -0.05317695 0.09481198 0.059503373 0.054269712
000220 12 6b c8 bc dd c7 5f bb fc f5 ed bd a0 f7 78 bd
       -0.024465118 -0.0034146227 -0.116191834 -0.06078303
000230 fe d3 97 bd 29 1f 00 bd 5c ee 10 3d ca 83 e6 3d
       -0.07413481 -0.031279717 0.035383567 0.112556055
000240 66 f2 aa 3c f1 7f 1d bd f8 ec a7 3d 93 0c 7d bd
       0.020867538 -0.038452093 0.08199495 -0.06177957
000250 6b 46 a5 bc f6 0c 29 bc 5b f2 07 bd 3e 1b 7e 3d
       -0.02017518 -0.010318032 -0.033190113 0.0620377
000260 0e a8 df 3d 6d e9 e7 3d 1e b6 02 3b 86 f7 98 bd
       0.10920726 0.11323819 0.0019944976 -0.07469086
000270 83 20 c9 bc 57 45 84 bd 60 97 bd bd 22 a2 2e bd
       -0.024551636 -0.06458538 -0.09257388 -0.04263509
000280 54 42 98 3d f3 3a fe 3c 72 9e c6 bd 51 98 83 bd
       0.07434526 0.031033969 -0.0969819 -0.064255364
000290 11 b5 f9 bc f9 b3 82 bd b0 93 e6 3d d8 48 dc 3d
       -0.030481847 -0.06381983 0.11258638 0.10756081
0002a0 a5 d8 8f 3d e3 f6 dc 3d d8 b9 8a 3d fd cf b1 bc
       0.070237435 0.107892774 0.06773728 -0.021705622
0002b0 d5 b9 8f 3d cd ce c4 3d bd ae 8f 3d 15 96 e5 3c
       0.070178665 0.096097566 0.070157506 0.028025666
0002c0 0e a7 cc bd 85 90 92 bd 56 94 45 3d 71 7a 80 3c
       -0.09992801 -0.07156471 0.048237167 0.015683385
0002d0 2a 85 03 3e 6a da 5a 3d c3 38 7d 3d 3a 9a 94 3c
       0.12843767 0.053430952 0.06182171 0.018139947
0002e0 13 83 ac 3d 02 0c 11 bd 6b 26 24 bd f6 ac 05 3e
       0.08423438 -0.035411842 -0.0400757 0.1305426
0002f0 46 84 4a 3b 2f 36 1b bc d7 c8 ff 3d 00 c3 7f 3c
       0.0030901595 -0.009473368 0.12489479 0.0156104565
000300 c6 92 49 3c 1d 65 7a bd 8c 01 f3 3d 11 46 a4 3d
       0.01230306 -0.061131585 0.118655294 0.080211766
000310 ef aa 83 3d f8 25 09 3d 25 59 02 be 46 95 e1 bc
       0.06429087 0.033483475 -0.12729318 -0.027537
000320 05 dd 74 bc 60 6e 8e bd 04 46 b2 bd 50 bd 15 3d
       -0.014945273 -0.06954646 -0.08704761 0.036557496
000330 bb b5 a9 bd c5 8c 9e bd c3 f8 75 bd 83 0a c9 3d
       -0.082866155 -0.077416934 -0.06005169 0.09816458
000340 9c 2e 4d bd 3f ec ab bd 6f 41 11 3c b8 2d 0c bc
       -0.05009328 -0.0839467 0.008865698 -0.008555822
000350 ed 03 6e 3d 59 70 18 bd 0d ef 45 bd 66 1b 57 3b
       0.058109213 -0.037216518 -0.04832368 0.0032822727
000360 03 d9 c3 3d 1b 09 5d bd 16 2f 31 3d d7 ee a7 3d
       0.09562876 -0.05396376 0.043257795 0.08199852
000370 3a 7e a9 bd 34 b4 88 3d f6 ea 28 bc 5e d5 51 bd
       -0.08276029 0.06674996 -0.010309925 -0.051228873
000380 97 0a 2e 3d 3e 17 d0 3c de d6 91 3d f2 c3 41 3d
       0.042490568 0.025401708 0.07121061 0.04730601
000390 47 24 3f 3d b3 6b 60 3d c2 33 5c bd a7 47 db bd
       0.046665456 0.05479021 -0.053760298 -0.10707026
0003a0 7e 7e 39 bc 40 17 b6 3d ce 08 9d 3d f3 bb c6 3b
       -0.011321662 0.08891153 0.07667695 0.0060648858
0003b0 91 1f 14 bd 4a d7 2c bd 74 48 90 3c 1a f9 d2 3d
       -0.036162917 -0.042197503 0.017612673 0.103014186
0003c0 5c 67 cc bb 65 a8 38 3d 87 6f 6c bd b9 76 71 bd
       -0.0062379073 0.04508247 -0.05772355 -0.058951113
0003d0 31 ab 9b bd f4 ad 92 bc a7 c7 ba 3d 96 fd cb bd
       -0.076010115 -0.017905213 0.09120112 -0.09960477
0003e0 07 4c e7 3d 64 fa 2f be 1d 36 62 bd 65 e9 02 3d
       0.11293798 -0.1718536 -0.055227388 0.031960864
0003f0 40 a3 37 3d c9 d9 31 bc 1d 3d 87 bd b1 d5 59 3d
       0.04483342 -0.010855147 -0.06603453 0.053182308
