TFM/experimentos_split/results/bus_fault/LSTM.pt (torch, 210446 bytes, 10 tensors)

lstm.weight_ih_l0 f4 [200, 100]
0.1042119 0.017007986 0.1271853 -0.14075519 -0.15054613 -0.13093872 -0.10801467 0.035523046
0.034781974 0.10325137 -0.08637316 -0.11472128 0.07519706 -0.07475229 0.07628406 -0.03717782
0.07371687 -0.10702399 -0.07553955 0.048964836 0.02230453 -0.043558113 0.09453834 0.09224041
-0.087318815 -0.059650064 0.13758413 -0.028123677 -0.029260099 -0.110473484 -0.06104845 0.04447584
0.008969623 -0.07581644 0.034700163 -0.07161492 -0.09269954 -0.038172774 -0.093032844 -0.053062167
0.17913656 0.051867016 0.08988749 -0.09817734 -0.035499707 -0.006437181 0.05224331 -0.07460107
-0.027958125 -0.031341974 0.043709077 -0.01238917 0.050072655 -0.04899317 -0.039378196 -0.031649403
0.0003071325 -0.05122578 0.16999535 0.03344366 0.17647338 0.086340174 -0.054712024 0.1425746
0.018079182 -0.012236596 -0.08887981 -0.10623112 0.06478873 0.0029374307 0.07270251 -0.10888631
0.122503445 -0.093170166 -0.0151704475 0.027855136 0.05324018 0.1048494 0.1036113 -0.13144714
0.016315233 -0.08765868 -0.034174006 -0.12530932 0.10866978 -0.11325275 0.065938145 0.056468625
0.06483523 -0.048841506 0.16857544 0.089672565 0.096583486 -0.04593276 0.16728304 0.103596695
0.075811215 0.30936822 0.22249697 0.14647298 -0.12106997 -0.052073356 0.05064378 -0.075764924
-0.11283587 -0.08186669 -0.12911087 0.012921817 0.08298983 -0.16160482 0.00866292 0.04989194
0.024382459 -0.07320216 0.0350845 0.061531268 0.048353296 -0.036902525 -0.040065255 0.015443408
-0.047450606 -0.060273506 0.07983026 0.09845591 -0.022582758 -0.041856065 -0.01752974 -0.0020500824
0.03224268 0.02136575 -0.13270755 -0.0581808 0.0878885 0.054710817 -0.045279425 -0.12776679
-0.10591321 -0.15949227 -0.079331554 0.0076353503 0.045805436 0.033619057 -0.1603147 -0.11575445
-0.04561916 0.12064321 -0.0076399487 -0.04890861 0.0393648 -0.053132735 -0.1074561 0.09555737
-0.08209627 -0.040513422 -0.15701966 0.084089234 0.12974124 0.06436406 -0.083718315 -0.14021508
-0.09971609 0.09537252 0.060485046 0.11225646 0.082750626 0.016894426 0.0015293229 -0.14138404
-0.13001129 -0.15143514 0.051413618 -0.067252934 -0.015784245 -0.050134487 -0.03599901 -0.087278634
-0.05286803 0.06797971 0.00395093 0.1182233 -0.0031652919 -0.059654225 0.0021448792 -0.04567039
-0.026864618 -0.09973215 0.1443722 -0.06684261 0.15562718 0.14337441 0.19482684 -0.013937035
0.18592599 0.04923158 0.16399272 0.28296754 0.16239496 0.20218733 0.21133043 0.14307064
0.08548796 -0.11487414 0.08038117 0.12506808 0.1355358 -0.01982871 -0.1000095 0.049868017
0.09368749 -0.11721385 -0.0031267535 -0.06356468 -0.00082847936 -0.038858064 -0.0055789645 -0.025336824
-0.10995704 0.14419316 0.13756858 -0.0022066708 0.02129082 -0.023056515 -0.117292106 -0.095728084
0.07388422 -0.059309993 -0.06909344 -0.017300747 -0.04386378 -0.03881412 -0.0015178296 -0.01979029
-0.028550228 -0.0647421 -0.08939747 0.1416242 -0.055490483 0.049237877 -0.03382969 0.024058592
0.14319797 0.06697215 -0.1375179 0.055649754 0.11227777 0.01260945 0.08737555 0.102172226
-0.039840247 -0.024563428 -0.12692027 -0.05758077 0.07944956 0.039735287 -0.113674164 -0.14540517
00000000: 0c6d d53d 5554 8b3c dd3c 023e 2122 10be
00000010: c428 1abe cd14 06be cc36 ddbd 9d80 113d
00000020: 8b77 0e3d 7475 d33d 69e4 b0bd fef2 eabd
00000030: eb00 9a3d bb17 99bd d13a 9c3d c547 18bd
00000040: dff8 963d 652f dbbd 7bb4 9abd 5a8f 483d
00000050: fdb7 b63c fe69 32bd 519d c13d 8ae8 bc3d
00000060: 35d4 b2bd a053 74bd dbe2 0c3e a063 e6bc
00000070: e0b2 efbc ec3f e2bd f10d 7abd 4c2c 363d
00000080: 53f5 123c a645 9bbd c221 0e3d d8aa 92bd
00000090: 42d9 bdbd 0e5b 1cbd 0188 bebd b757 59bd
000000a0: 936f 373e 8272 543d ef16 b83d 3411 c9bd
000000b0: 2468 11bd fdee d2bb 15fd 553d 72c8 98bd
000000c0: 7008 e5bc 7160 00bd 4a08 333d f2fb 4abc
000000d0: fc18 4d3d 10ad 48bd 084b 21bd cea2 01bd
000000e0: a006 a139 20d2 51bd 4313 2e3e 38fc 083d
000000f0: 70b5 343e 1ed3 b03d b719 60bd 13ff 113e
00000100: cb1a 943c 017c 48bc 9e06 b6bd b48f d9bd
00000110: f4af 843d e981 403b 0ee5 943d c9ff debd
00000120: 16e3 fa3d 00d0 bebd 788d 78bc 7430 e43c
00000130: 6012 5a3d 48bb d63d 2932 d43d 149a 06be
00000140: 86a7 853c 6586 b3bd 0bfa 0bbd 1651 00be
00000150: 438e de3d 0ff1 e7bd 940a 873d a54b 673d
00000160: 55c8 843d 080e 48bd 0a9f 2c3e 40a6 b73d
00000170: 90cd c53d fd23 3cbd 3f4c 2b3e 812a d43d
00000180: e942 9b3d 8365 9e3e 3fd6 633e 03fd 153e
00000190: 88f3 f7bd df4a 55bd da6f 4f3d a42a 9bbd
000001a0: 7e16 e7bd b9a9 a7bd a435 04be 07b6 533c
000001b0: 92f6 a93d bc7b 25be ecee 0d3c 7e5b 4c3d
000001c0: b9bd c73c 04eb 95bd c4b4 0f3d 3608 7c3d
000001d0: 1b0e 463d 1a27 17bd 771b 24bd 5906 7d3c
000001e0: 915b 42bd 5ae1 76bd 0c7e a33d 41a3 c93d
000001f0: 7aff b8bc 4471 2bbd 889a 8fbc ad5a 06bb
00000200: e710 043d 3a07 af3c 7de4 07be fe4e 6ebd
00000210: e3fe b33d 7318 603d eb76 39bd 4cd5 02be
00000220: 06e9 d8bd f151 23be 9578 a2bd f631 fa3b
00000230: 7b9e 3b3d 23b4 093d 8929 24be ab10 edbd
00000240: 28db 3abd ca13 f73d 8958 fabb 6554 48bd
00000250: fc3c 213d b6a1 59bd f211 dcbd 95b3 c33d
00000260: 1722 a8bd 67f1 25bd c3c9 20be fa36 ac3d
00000270: e3da 043e 4ed1 833d 8274 abbd 8b94 0fbe
00000280: f337 ccbd ab52 c33d 2bbf 773d b7e6 e53d
00000290: 2979 a93d 2e66 8a3c 9073 c83a fac6 10be
000002a0: ae21 05be d011 1bbe 1697 523d e8bb 89bd
000002b0: f64d 81bc d259 4dbd b373 13bd 24bf b2bd
000002c0: 268c 58bd f238 8b3d ce76 813b 0f1f f23d
000002d0: c970 4fbb fd57 74bd 1a91 0c3b e010 3bbd
000002e0: 3013 dcbc 5f40 ccbd 4ed6 133e c7e4 88bd
000002f0: bb5c 1f3e bed0 123e b080 473e 2958 64bc
00000300: 6263 3e3e 0ea7 493d b5ed 273e 1fe1 903e
00000310: dd4a 263e 320a 4f3e 0167 583e 1c81 123e
00000320: 5014 af3d 2243 ebbd e29e a43d d911 003e
00000330: e6c9 0a3e d26f a2bc c8d1 ccbd 6842 4c3d
00000340: 3adf bf3d d10d f0bd 38ea 4cbb 332e 82bd
00000350: 4f2e 59ba a229 1fbd bfcf b6bb 2c8f cfbc
00000360: 2831 e1bd 5fa7 133e c7de 0c3e cb9d 10bb
00000370: 166a ae3c 04e1 bcbc d836 f0bd 160d c4bd
00000380: 9c50 973d 09ef 72bd dd80 8dbd 4cba 8dbc
00000390: 82aa 33bd 8efb 1ebd e9f1 c6ba 3f1f a2bc
000003a0: 2be2 e9bc 8297 84bd 0516 b7bd ef05 113e
000003b0: fd49 63bd a8ad 493d 0091 0abd 8616 c53c
000003c0: 7da2 123e b228 893d 7ed1 0cbe fff0 633d
000003d0: e3f1 e53d de97 4e3c f4f1 b23d ac3f d13d
000003e0: 872f 23bd 3e39 c9bc 63f7 01be d0d9 6bbd
000003f0: 73b6 a23d 78c1 223d 00ce e8bd 18e5 14be

lstm.weight_hh_l0 f4 [200, 50]
-0.12583578 0.042901214 -0.014305424 0.11481371 0.0806143 -0.15453227 -0.17514905 0.03427475
0.07374936 -0.011903037 -0.12687014 -0.1276287 -0.232703 0.11161666 0.07337329 -0.0005336297
0.16679785 0.07708557 -0.03174697 -0.09111511 0.09332101 0.14566438 -0.06398203 -0.18539742
0.023549972 -0.0063087135 0.121584676 0.07912108 -0.085906066 -0.08903579 -0.15206794 0.04611545
0.10239126 -0.088837326 0.07507927 -0.07328429 0.07332672 -0.24216859 -0.052689526 -0.17222841
-0.16233341 0.11842649 0.05022892 -0.12606095 0.013748041 -0.083116814 0.035301797 -0.06254972
-0.16881682 -0.040921234 -0.14522123 -0.08778874 0.032623705 -0.20141843 -0.09854713 0.06812913
0.06923384 0.118069224 0.012583891 0.16580875 -0.016815636 -0.11097417 -0.001592049 -0.002858472
-0.012811897 -0.038059678 0.14612025 -0.045993652 0.08268229 -0.009512921 0.0045274203 0.023103734
0.06257073 0.032141615 0.045701824 -0.061333466 0.077002674 -0.0226827 0.050503187 -0.12561281
-0.030924061 0.011919004 0.14213996 -0.09418476 -0.06968588 -0.08921512 -0.027579531 -0.009123144
-0.021153085 0.043138836 0.068081915 -0.062387504 0.076793626 -0.16645846 0.013118196 -0.175671
-0.052732505 -0.051766094 -0.070729025 -0.026319878 -0.03737963 -0.12876455 -0.041061103 -0.16406448
-0.095290795 -0.20525981 0.1720699 0.02463959 0.02285589 0.052380398 -0.03309779 0.019984834
-0.18082912 -0.07692778 -0.17609754 0.100648284 0.0030658979 -0.06770344 0.00057506433 -0.14709456
-0.1444983 -0.030896291 0.046735138 0.2090462 0.009026924 -0.01118302 0.14967911 0.031426407
-0.07965299 0.01724131 0.17575867 -0.13884586 -0.1527867 -0.2138142 0.005978065 -0.055780407
0.10413338 -0.048796367 0.1721501 0.13311578 0.16071355 -0.033261742 0.036987912 0.07270586
-0.22414081 0.0045834016 0.16290869 -0.16915862 0.18034557 -0.010669303 -0.107604384 -0.1208691
-0.12006866 0.108583145 -0.23528965 -0.2722172 0.2275089 0.07798817 -0.23193876 0.3700253
-0.0012156682 -0.26329702 -0.38061267 0.25244427 -0.040417418 0.00738508 -0.31962144 -0.13773286
-0.3557241 -0.05349725 -0.44138393 -0.02203608 -0.05523507 0.13077849 -0.18116188 0.04477808
0.3458254 0.02709038 0.33952338 0.02417917 -0.016368669 -0.20222048 -0.030523567 -0.23520395
0.2708107 0.1600517 0.23878758 0.16030179 -0.002966473 0.1454078 0.27338812 0.036296807
0.037053693 -0.024426369 -0.14605194 0.088870876 0.13457161 -0.06983999 -0.04283192 -0.2458418
0.05829439 -0.1385002 0.023744944 0.02209729 -0.1512967 0.2202632 -0.041387748 0.11135549
0.21123831 0.064175606 -0.07916443 0.11695762 0.05113293 -0.005530813 0.07129767 -0.057368513
0.056142695 0.09594924 0.16194351 -0.1422493 -0.08565682 0.07657528 -0.03800413 0.06451505
0.14149088 0.037446264 0.016793035 -0.099438585 -0.021593852 0.14782119 0.0059275385 0.007848499
0.0093618315 -0.2206094 0.08913998 -0.0047529703 0.05453322 0.05770734 0.09119333 0.09982066
0.15343498 0.13412702 -0.015708541 0.07663098 -0.053481773 -0.070368774 0.1193899 0.03583357
0.012245722 0.0013948968 -0.027176397 -0.0459205 0.03091028 0.087723404 -0.02734572 -0.07445301
00000000: 18db 00be 2fb9 2f3d 4c61 6abc 7323 eb3d
00000010: 1c19 a53d b53d 1ebe 465a 33be ae63 0c3d
00000020: e809 973d f504 43bc 3fea 01be 19b1 02be
00000030: b249 6ebe 4797 e43d bc44 963d 48e3 0bba
00000040: 0ecd 2a3e 0adf 9d3d 1c09 02bd 8f9a babd
00000050: 161f bf3d 0b29 153e 0309 83bd d2d8 3dbe
00000060: dfeb c03c 53b9 cebb 6301 f93d 3c0a a23d
00000070: 85ef afbd 6558 b6bd b3b7 1bbe 8ee3 3c3d
00000080: 82b2 d13d 58f0 b5bd 29c3 993d 1316 96bd
00000090: 522c 963d 0bfb 77be f9d0 57bd a55c 30be
000000a0: bb3a 26be 9689 f23d d7bc 4d3d 1f16 01be
000000b0: 773f 613c 2639 aabd 9e98 103d 111a 80bd
000000c0: 51de 2cbe 069d 27bd e0b4 14be 95ca b3bd
000000d0: 6fa0 053d a240 4ebe 14d3 c9bd 4987 8b3d
000000e0: 79ca 8d3d 47ce f13d aa2c 4e3c c5c9 293e
000000f0: f2c0 89bc 6d46 e3bd 4dac d0ba 3455 3bbb
00000100: fee8 51bc 77e4 1bbd 8ca0 153e d763 3cbd
00000110: 5555 a93d 15dc 1bbc c15a 943b 0b44 bd3c
00000120: 1525 803d eda6 033d d631 3b3d cd38 7bbd
00000130: 94b3 9d3d 12d1 b9bc 6edc 4e3d a5a0 00be
00000140: 7554 fdbc ed47 433c 238d 113e f0e3 c0bd
00000150: 78b7 8ebd 6bb6 b6bd 78ee e1bc 3d79 15bc
00000160: 3c49 adbc 59b2 303d 886e 8b3d 0a8a 7fbd
00000170: fa45 9d3d 1674 2abe b4ed 563c 19e3 33be
00000180: 0afe 57bd af08 54bd 61da 90bd c99c d7bc
00000190: 621b 19bd dbda 03be b02f 28bd 8500 28be
000001a0: d227 c3bd a12f 52be 1833 303e f7d8 c93c
000001b0: 473c bb3c d48c 563d 8c91 07bd 3cb7 a33c
000001c0: 452b 39be 508c 9dbd ea52 34be b020 ce3d
000001d0: 3bed 483b 1aa8 8abd eabf 163a f59f 16be
000001e0: 5df7 13be 381a fdbc 586d 3f3d 3510 563e
000001f0: aae5 133c fc38 37bc 7b45 193e fab8 003d
00000200: 1b21 a3bd a63d 8d3c 15fa 333e 9c2d 0ebe
00000210: 1e74 1cbe 1cf2 5abe a5e3 c33b ff79 64bd
00000220: e243 d53d b3de 47bd 1e48 303e 814f 083e
00000230: 1892 243e 773d 08bd a380 173d cfe6 943d
00000240: 2b85 65be 5c30 963b 89d1 263e eb37 2dbe
00000250: 82ac 383e 4dce 2ebc b05f dcbd 388a f7bd
00000260: 8fe6 f5bd d760 de3d c5ef 70be 0e60 8bbe
00000270: 18f8 683e 43b8 9f3d 5b81 6dbe f573 bd3e
00000280: 0e57 9fba dece 86be aadf c2be 6040 813e
00000290: bc8c 25bd 8bfe f13b 6ca5 a3be d809 0dbe
000002a0: 7821 b6be ef1f 5bbd 13fd e1be 0285 b4bc
000002b0: 2b3e 62bd ccea 053e 8082 39be 3869 373d
000002c0: 0710 b13e a5ec dd3c 02d6 ad3e 6513 c63c
000002d0: 9617 86bc e312 4fbe 8f0c fabc 4ed9 70be
000002e0: b3a7 8a3e 98e4 233e bb84 743e 2726 243e
000002f0: 2969 42bb c8e5 143e 87f9 8b3e f6ab 143d
00000300: 9dc5 173d cf19 c8bc a48e 15be ef01 b63d
00000310: 24cd 093e 4508 8fbd 8670 2fbd f4bd 7bbe
00000320: 19c6 6e3d ffd2 0dbe c284 c23c 6005 b53c
00000330: 86ed 1abe ad8c 613e 3386 29bd 590e e43d
00000340: db4e 583e 806e 833d f620 a2bd 7a87 ef3d
00000350: c370 513d d23b b5bb 8304 923d 3ffb 6abd
00000360: e2f5 653d 0981 c43d 85d4 253e cda9 11be
00000370: d86c afbd 80d3 9c3d 38aa 1bbd 7720 843d
00000380: fce2 103e 4161 193d 8c91 893c 75a6 cbbd
00000390: 97e5 b0bc 705e 173e cc3b c23b fe96 003c
000003a0: 5e62 193c 6ee7 61be 068f b63d cebe 9bbb
000003b0: 3a5e 5f3d 885e 6c3d 92c3 ba3d c66e cc3d
000003c0: 0f1e 1d3e 9858 093e 33af 80bc b4f0 9c3d
000003d0: b40f 5bbd 811d 90bd b182 f43d 39c6 123d
000003e0: 48a2 483c f8d4 b63a 09a1 debc 2217 3cbd
000003f0: 8e37 fd3c 54a8 b33d 2204 e0bc d27a 98bd

lstm.bias_ih_l0 f4 [200]
-0.08209455 -0.18838869 0.032041963 -0.32017407 0.0340357 -0.16437659 -0.2205789 0.016272115
-0.008883799 -0.2096827 -0.0498864 -0.20114084 -0.31251577 -0.03586922 -0.30905747 -0.019734435
-0.3733527 -0.24259286 -0.25003418 -0.14755139 -0.08749005 -0.008456625 -0.058475193 -0.019864857
-0.09414689 0.11076608 -0.20705353 -0.26102862 -0.04610213 -0.027777003 -0.007833116 -0.31550914
0.3631514 -0.22392988 -0.111693785 0.17696209 -0.13826668 -0.10186489 0.26545554 -0.28115708
-0.13064992 -0.050333466 0.216417 0.11276232 -0.2776034 -0.043142173 0.061968658 -0.22443603
-0.28148994 -0.27574918 -0.20309657 -0.17803183 0.12884271 -0.26881242 -0.11651936 -0.064661935
-0.16222274 -0.044715047 -0.100868575 -0.11280994 -0.19994514 0.009256968 -0.1227425 -0.15404809
-0.19008659 -0.12427024 -0.32024366 -0.10431766 -0.04494554 -0.17833515 0.15575866 -0.17441182
-0.002151536 -0.030031953 -0.3409928 0.087310724 -0.2039662 0.054983594 -0.06494146 -0.22333524
-0.025201526 -0.25088978 -0.124602415 -0.19238701 0.007731603 0.1862476 -0.11164732 -0.210782
0.13853148 -0.23157832 -0.08524944 -0.123286456 0.009428517 -0.030937677 -0.13883856 -0.10624724
-0.1884939 -0.15539707 -0.08144715 -0.12902522 0.15829496 -0.035343535 0.12686251 0.00792058
0.19212173 0.11343489 -0.1281954 -0.017389273 -0.056288958 -0.23757887 0.30848378 0.1564668
0.2828702 -0.0854098 0.35124364 -0.021085318 0.09676036 0.037048113 0.22153209 -0.03677142
0.21966963 0.08298763 0.22815587 -0.08857876 0.005212491 -0.088868394 -0.20585297 0.0040918803
-0.073503785 -0.15849584 -0.17603937 0.015102797 -0.04191402 0.14367919 -0.10265006 -0.16508496
-0.14060749 -0.035643004 0.31029055 -0.014551118 0.0154063925 0.12153034 0.02772488 0.20688988
0.1452895 0.042562723 -0.15678886 0.2394135 -0.0029806003 0.07084117 -0.024192078 -0.055481266
0.09907505 -0.20900005 -0.07511289 -0.19433531 -0.24360019 0.084729545 0.100427836 0.06177408
-0.036770552 -0.004310608 -0.20891188 -0.11579836 0.010860792 -0.1295541 -0.14255798 -0.08797051
-0.028888857 -0.21232848 0.101372875 -0.11074837 -0.18529132 0.0066920975 -0.038449306 0.2067303
-0.2367845 -0.14814417 -0.009730812 -0.06675941 0.06266946 -0.16437268 0.22438715 -0.0142110875
0.010629036 -0.02742058 -0.14641088 -0.06381323 0.13470823 -0.31099322 -0.06633393 0.07010385
0.0003766837 0.17888077 -0.14375761 -0.052622076 -0.07336761 -0.14014378 -0.22624198 -0.09149832
00000000: 3021 a8bd f7e8 40be 6f3e 033d dbed a3be
00000010: 0569 0b3d 5652 28be 6fdf 61be 194d 853c
00000020: 5b8d 11bc 10b7 56be af55 4cbd ddf7 4dbe
00000030: 1102 a0be 9aeb 12bd c83c 9ebe 1caa a1bc
00000040: 1628 bfbe 436a 78be 7b04 80be b617 17be
00000050: fc2d b3bd a88d 0abc af83 6fbd a0bb a2bc
00000060: 16d0 c0bd 54d9 e23d d705 54be 8ba5 85be
00000070: 96d5 3cbd 998c e3bc 7856 00bc 6a8a a1be
00000080: fbee b93e e04d 65be b6bf e4bd 8d35 353e
00000090: c895 0dbe 8a9e d0bd cae9 873e d2f3 8fbe
000000a0: 18c9 05be 772a 4ebd 6b9c 5d3e eeef e63d
000000b0: 0822 8ebe d9b5 30bd d9d2 7d3d 8fd2 65be
000000c0: 731f 90be ff2e 8dbe 8cf8 4fbe fa4d 36be
000000d0: 58ef 033e c8a1 89be b4a1 eebd 7a6d 84bd
000000e0: b81d 26be 2027 37bd 2f94 cebd e608 e7bd
000000f0: 6bbe 4cbe 8aaa 173c 6b60 fbbd c8be 1dbe
00000100: 0fa6 42be 6581 febd faf6 a3be 7fa4 d5bd
00000110: d118 38bd 7d9d 36be 337f 1f3e 0399 32be
00000120: c900 0dbb 9205 f6bc 9c96 aebe f7cf b23d
00000130: 84dc 50be 7a36 613d 0700 85bd feb1 64be
00000140: 6e73 cebc a074 80be 8d2f ffbd 1a01 45be
00000150: 6359 fd3b b1b7 3e3e 5aa7 e4bd 3dd7 57be
00000160: 32db 0d3e de22 6dbe 4297 aebd 9c7d fcbd
00000170: 117a 1a3c 0371 fdbc b22b 0ebe 2798 d9bd
00000180: 8b04 41be 6920 1fbe c3cd a6bd 301f 04be
00000190: 1318 223e 62c4 10bd 3fe8 013e 52c5 013c
000001a0: 8fbb 443e 8d50 e83d a845 03be f373 8ebc
000001b0: 408f 66bd e047 73be 96f1 9d3e d538 203e
000001c0: 5dd4 903e 55eb aebd 35d6 b33e 1ebb acbc
000001d0: 4c2a c63d c3bf 173d 4fd9 623e a19d 16bd
000001e0: 13f1 603e 6bf5 a93d b1a1 693e c868 b5bd
000001f0: 8bcd aa3b a200 b6bd 1fcb 52be 2e15 863b
00000200: 2789 96bd bc4c 22be aa43 34be b971 773c
00000210: 09ae 2bbd a320 133e 323a d2bd 080c 29be
00000220: 69fb 0fbe 66fe 11bd 67de 9e3e d067 6ebc
00000230: 186b 7c3c e6e4 f83d 4a1f e33c f1da 533e
00000240: c5c6 143e 4056 2e3d 428d 20be d028 753e
00000250: 2d56 43bb 2d15 913d 772e c6bc 5340 63bd
00000260: dce7 ca3d 1c04 56be c9d4 99bd d6ff 46be
00000270: 5472 79be af86 ad3d 1cad cd3d d106 7d3d
00000280: b89c 16bd 0040 8dbb ffec 55be b127 edbd
00000290: 77f1 313c d4a9 04be b8fa 11be e229 b4bd
000002a0: 53a8 ecbc a36c 59be 959c cf3d 0bd0 e2bd
000002b0: 02bd 3dbe 6249 db3b 057d 1dbd 1cb1 533e
000002c0: a377 72be 1bb3 17be fc6d 1fbc 28b9 88bd
000002d0: d958 803d 5051 28be bfc5 653e 9fd5 68bc
000002e0: 6925 2e3c 20a1 e0bc bcec 15be 83b0 82bd
000002f0: f4f0 093e 813a 9fbe 15da 87bd 9b92 8f3d
00000300: a17d c539 852c 373e 3235 13be 3f8a 57bd
00000310: c241 96bd da81 0fbe faab 67be 7963 bbbd

lstm.bias_hh_l0 f4 [200]
-0.20280108 -0.08743369 -0.03464579 -0.2351153 -0.17123762 -0.19285944 -0.0715907 -0.17877279
0.14513081 -0.1888116 -0.03349104 -0.24183272 -0.27797624 0.0067713377 -0.4374075 -0.05105181
-0.42944723 -0.08668085 -0.14272454 -0.20931792 0.114935055 -0.23953839 -0.027658423 -0.2832271
0.17926033 0.010610268 -0.40018275 -0.109320804 -0.27084276 0.16618805 -0.11515877 -0.2060713
0.41570306 -0.06390055 -0.16271605 0.23853056 -0.3959406 -0.09655067 0.04863798 -0.18888469
-0.18910469 -0.051385224 0.07547427 0.025070876 -0.27283603 -0.111013636 0.18661864 -0.17722884
-0.24203713 -0.23369655 -0.2845853 -0.02556943 0.03277265 -0.05062902 -0.26782393 -0.05774565
-0.19516155 -0.109229185 -0.14779459 -0.0026523233 -0.039828457 -0.15534545 -0.2111648 -0.0013545932
-0.18188874 -0.20451044 -0.04974118 -0.22753736 -0.24739827 -0.06276001 0.0016951818 -0.24105367
0.015208197 -0.10914975 -0.1920817 -0.063605726 -0.21777716 -0.20211747 -0.051934354 -0.33299205
-0.0306744 -0.11472795 0.040697 -0.11402382 -0.14982703 0.113297194 -0.28324166 -0.28081977
0.044418003 -0.16586211 -0.19158548 -0.10721853 -0.06756053 0.22580642 -0.11158258 -0.07765623
-0.17625214 -0.018445203 -0.08122452 0.06635184 0.09707373 0.09602579 0.054740667 0.19209509
0.23647462 0.21009773 -0.015574657 -0.26851824 -0.1935507 -0.04508636 0.25552613 0.0052461
0.310566 -0.10389466 0.26363683 -0.069379516 0.031746924 0.2388122 0.1815124 0.22238916
0.2718021 -0.013073494 0.1557902 -0.24153495 0.16703714 -0.13401793 -0.09966662 0.03867696
-0.027758168 -0.00034668978 -0.23742267 0.054268606 -0.092567146 0.109310195 -0.2712899 -0.28614512
-0.23804788 -0.17994346 0.3781139 -0.1584119 -0.06584229 0.07134698 -0.040566802 0.19903164
0.19954266 0.04129433 -0.14151433 0.23931813 0.00012605227 0.2104831 -0.1552151 -0.23200333
-0.023700159 -0.05487019 0.021545798 0.033530142 -0.04157461 -0.058734268 0.19004133 -0.10243789
-0.22531644 -0.104215354 -0.3019029 0.09363309 0.017750395 -0.073055595 -0.16629648 -0.082894996
-0.24072886 -0.046883605 0.095573194 -0.09967344 -0.12264742 0.098955594 -0.13013268 0.15142632
-0.09074373 -0.31399193 -0.13700014 -0.04133194 -0.15201846 -0.18464568 0.18434383 0.029374052
-0.1523863 0.11893246 -0.20085251 0.04343069 0.09801083 -0.23974334 0.09339691 0.042848486
0.14415812 0.14459549 0.024226092 0.0028632584 0.009556332 -0.19570568 -0.16949555 -0.0006160651
00000000: 16ab 4fbe 6f10 b3bd bee8 0dbd 11c2 70be
00000010: ea58 2fbe f27c 45be 259e 92bd 3710 37be
00000020: 2c9d 143e d457 41be e72d 09bd ffa2 77be
00000030: e752 8ebe 19e2 dd3b e0f3 dfbe b41b 51bd
00000040: 82e0 dbbe bb85 b1bd 6226 12be 7057 56be
00000050: 1263 eb3d 8d49 75be eb93 e2bc 2403 91be
00000060: 0590 373e b1d6 2d3c c1e4 ccbe 96e3 dfbd
00000070: e7ab 8abe 332d 2a3e 5cd8 ebbd 5b04 53be
00000080: 08d7 d43e 4bde 82bd 099f 26be 5b41 743e
00000090: bab8 cabe 5cbc c5bd 9e38 473d fd6a 41be
000000a0: a9a4 41be 5079 52bd 4192 9a3d 7061 cd3c
000000b0: 2ab1 8bbe 1e5b e3bd f518 3f3e 7a7b 35be
000000c0: 95d8 77be 264e 6fbe 2ab5 91be fb76 d1bc
000000d0: 9d3c 063d 6060 4fbd 3820 89be b486 6cbd
000000e0: 6ed8 47be 8db3 dfbd 7757 17be 9ad2 2dbb
000000f0: 2a23 23bd e112 1fbe 963b 58be 9b8c b1ba
00000100: 0b41 3abe 2f6b 51be 68bd 4bbd 8eff 68be
00000110: f955 7dbe 5288 80bd dd30 de3a c6d6 76be
00000120: cd2b 793c e789 dfbd 11b1 44be b843 82bd
00000130: fa00 5fbe e2f7 4ebe 1eb9 54bd ef7d aabe
00000140: e148 fbbc 7df6 eabd e6b1 263d 5285 e9bd
00000150: 426c 19be 5c08 e83d 0d05 91be 9cc7 8fbe
00000160: a7ef 353d c2d7 29be fc2e 44be 6395 dbbd
00000170: 2d5d 8abd cc39 673e 6885 e4bd 3b0a 9fbd
00000180: 717b 34be 651a 97bc 0b59 a6bd 79e3 873d
00000190: 97ce c63d 2ba9 c43d c037 603d 93b4 443e
000001a0: 6726 723e dc23 573e d92c 7fbc 397b 89be
000001b0: 2832 46be 7aac 38bd 52d4 823e 7ae7 ab3b
000001c0: 8202 9f3e b9c6 d4bd 68fb 863e d916 8ebd
000001d0: 1009 023d 2f8b 743e 63de 393e fcb9 633e
000001e0: a529 8b3e 3532 56bc 7787 1f3e f054 77be
000001f0: c90b 2b3e ff3b 09be 031e ccbd bb6b 1e3d
00000200: 1965 e3bc eac3 b5b9 ee1e 73be c248 5e3d
00000210: d893 bdbd 06de df3d 83e6 8abe 9d81 92be
00000220: d3c2 73be 1943 38be 2598 c13e bb36 22be
00000230: 53d8 86bd 5e1e 923d 6029 26bd f3ce 4b3e
00000240: e954 4c3e 3e24 293d 22e9 10be d00f 753e
00000250: e62c 0439 e288 573e b5f0 1ebe 4892 6dbe
00000260: d626 c2bc 90bf 60bd d080 b03c e756 093d
00000270: 234a 2abd 5893 70bd 329a 423e f5ca d1bd
00000280: 5ab9 66be dc6e d5bd 0493 9abe b5c2 bf3d
00000290: 4769 913c 2c9e 95bd a049 2abe dac4 a9bd
000002a0: a081 76be 0609 40bd e1bb c33d 9721 ccbd
000002b0: 922e fbbd 3ba9 ca3d 8041 05be 800f 1b3e
000002c0: d9d7 b9bd 8dc3 a0be c449 0cbe ae4b 29bd
000002d0: baaa 1bbe c213 3dbe a1c4 3c3e daa1 f03c
000002e0: 270b 1cbe dd92 f33d 48ac 4dbe 61e4 313d
000002f0: e7b9 c83d 477f 75be e146 bf3d e581 2f3d
00000300: 309e 133e d710 143e cc75 c63c 81a5 3b3b
00000310: 2992 1c3c 1267 48be 3e90 2dbe 6e7f 21ba

lstm.weight_ih_l1 f4 [200, 50]
-0.13941035 -0.11752113 -0.16296096 0.010657701 -0.008725502 -0.08451128 -0.02450744 0.04600366
-0.07200858 0.10432973 -0.040742163 -0.08634601 -0.26646927 0.24599497 -0.10785553 0.030286329
-0.12503146 -0.06687032 -0.033994824 -0.13774426 -0.17607518 0.05939244 0.07839836 -0.01847659
0.018583272 0.17713924 0.1559196 0.02149359 0.06904524 0.1270925 0.012020329 0.048456743
0.003305691 -0.06892989 -0.019433977 -0.017799677 -0.0794963 0.011372099 -0.17160168 0.05637088
0.09875611 0.03375269 0.07273824 0.018149637 -0.07540918 -0.029869746 0.111082226 0.027367456
0.011133868 -0.05936574 0.03473469 0.02998073 -0.3212408 -0.06752784 0.4815847 0.1361045
0.036762375 -0.05678606 0.22699988 0.12803903 -0.11178688 0.10378817 -0.36284876 0.20604587
0.22674792 -0.14451332 -0.014050436 0.07210132 -0.07576436 0.002074236 -0.5218586 -0.018612752
0.036676038 -0.005614682 -0.068778224 0.20026805 0.13714309 0.030069867 -0.17778668 0.121478096
0.022017894 0.3782624 -0.036968652 -0.16185628 0.034384027 0.097954005 -0.07470868 0.15770552
-0.15688767 -0.09115172 0.2328512 0.025638472 -0.005140473 -0.3383997 0.055637006 0.09042901
0.10920782 -0.04402183 -0.017368253 -0.110286765 0.07898559 -0.14517044 -0.12809001 0.012974229
-0.28904676 0.09017221 0.00906246 0.018563557 -0.017109975 -0.08280003 -0.12351035 0.052581593
-0.18374126 0.03352118 -0.049583115 0.19997655 0.09643002 0.029131616 -0.13212958 0.036194474
-0.14389652 -0.17842935 -0.048082154 0.14114602 0.09823396 0.056210406 -0.012957643 -0.09494036
0.025101408 0.17584136 0.0068717287 -0.10857987 0.047937095 0.059133478 0.040829916 0.121628106
0.14753851 0.020627942 -0.082548164 -0.06310488 0.06625977 -0.14905678 0.065084554 -0.11744672
-0.10158405 -0.13622193 0.108693086 0.020002272 0.0055456134 -0.2585938 -0.092542365 0.058078315
0.12776932 -0.20738237 -0.03624856 0.0398431 -0.024338597 0.007856162 0.12400998 0.21666874
-0.0410634 -0.14935382 -0.036124602 0.09574539 -0.026917582 0.11230963 0.056888413 -0.11324527
-0.18891314 -0.14737374 -0.05733092 -0.13760263 -0.20628124 0.15510327 0.06335465 -0.0167605
0.07682862 -0.046417993 -0.051628314 -0.011478349 0.13993259 -0.19790635 0.09356618 -0.0086233
-0.048188493 -0.023925602 0.17664532 0.20170793 0.15875903 0.17719333 0.15323107 -0.033747297
0.12813783 0.107031725 -0.19517535 0.022072965 0.23304833 -0.109797634 0.055966433 -0.17823213
-0.016394446 0.10156621 -0.5883058 -0.03386666 -0.0769404 -0.21519628 -0.046229225 0.39375696
-0.45802003 0.21878693 0.018488139 -0.2532946 -0.22759908 0.052751686 0.018747643 0.055591587
-0.045469556 -0.08810765 -0.3028583 -0.1590966 -0.35198745 0.026169963 -0.11396631 0.05218693
0.035613194 0.5768892 0.061708227 0.0046940204 0.10063142 -0.0886672 -0.15090702 -0.15767491
0.3206979 0.0662917 0.16742556 0.46055037 -0.019677712 0.2097532 -0.49963826 0.15027694
0.23138867 0.023137107 0.4268216 -0.461255 -0.16613011 -0.16912992 0.022050234 -0.12755196
0.13398181 -0.27053013 0.2848569 0.10503946 0.03592656 0.1818192 0.43170595 -0.0812509
00000000: 96c1 0ebe ebae f0bd 3ddf 26be a39d 2e3c
00000010: 68f5 0ebc 4014 adbd d4c3 c8bc 556e 3c3d
00000020: 3c79 93bd d3aa d53d 41e1 26bd 2dd6 b0bd
00000030: a96e 88be 1be6 7b3e 5ce3 dcbd 091b f83c
00000040: 3f08 00be 4ef3 88bd 283e 0bbd d50c 0dbe
00000050: 0d4d 34be 7d45 733d 528f a03d 385c 97bc
00000060: f23b 983c fd63 353e 63a9 1f3e 5313 b03c
00000070: 9767 8d3d 8924 023e eaf0 443c 947a 463d
00000080: 4ba4 583b 1d2b 8dbd 0134 9fbc a1d0 91bc
00000090: f5ce a2bd 0a52 3a3c 5ab8 2fbe 27e5 663d
000000a0: a540 ca3d 4340 0a3d c9f7 943d 8cae 943c
000000b0: 2170 9abd 66b1 f4bc 147f e33d b731 e03c
000000c0: d46a 363c 7d29 73bd f645 0e3d 269a f53c
000000d0: ad79 a4be 094c 8abd 4592 f63e fa5e 0b3e
000000e0: 2594 163d 8098 68bd a872 683e aa1c 033e
000000f0: 85f0 e4bd e48e d43d 50c7 b9be b0fd 523e
00000100: 9b30 683e 4dfb 13be cd33 66bc dba9 933d
00000110: 582a 9bbd e8ef 073b 8698 05bf c579 98bc
00000120: 9d39 163d 5efb b7bb 99db 8cbd 1113 4d3e
00000130: 3d6f 0c3e 1555 f63c b60d 36be 82c9 f83d
00000140: df5e b43c 9cab c13e 716c 17bd a7bd 25be
00000150: 44d6 0c3d 1c9c c83d dd00 99bd 8e7d 213e
00000160: 29a7 20be c1ad babd 8c70 6e3e c607 d23c
00000170: 6a71 a8bb ba42 adbe a1e3 633d d832 b93d
00000180: 59a8 df3d 3c50 34bd de47 8ebc 07de e1bd
00000190: 32c3 a13d 8fa7 14be 072a 03be dc91 543c
000001a0: f0fd 93be 35ac b83d b67a 143c 9a12 983c
000001b0: 382a 8cbc 1093 a9bd fff2 fcbd cc5f 573d
000001c0: ab26 3cbe 814d 093d aa17 4bbd a7c6 4c3e
000001d0: 1a7d c53d 6da5 ee3c fa4c 07be a840 143d
000001e0: 9c59 13be 2fb6 36be cbf1 44bd 9588 103e
000001f0: e32e c93d e23c 663d 4b4c 54bc 1770 c2bd
00000200: 78a1 cd3c c20f 343e 3d2c e13b 1f5f debd
00000210: b059 443d f235 723d 453d 273d 2818 f93d
00000220: 5614 173e eefb a83c 030f a9bd 223d 81bd
00000230: 34b3 873d 57a2 18be 0d4b 853d e887 f0bd
00000240: 4c0b d0bd c37d 0bbe 7b9a de3d cedb a33c
00000250: fab7 b53b 6866 84be da86 bdbd 87e3 6d3d
00000260: f6d5 023e 0b5c 54be 5f79 14bd 8532 233d
00000270: bd61 c7bc 22b7 003c f2f8 fd3d 69de 5d3e
00000280: 1932 28bd 35f0 18be 64f7 13bd 2916 c43d
00000290: 4382 dcbc 9702 e63d d303 693d 23ed e7bd
000002a0: 7272 41be 24e9 16be d4d3 6abd b4e7 0cbe
000002b0: 643b 53be 64d3 1e3e 15c0 813d 514d 89bc
000002c0: 5358 9d3d cb20 3ebd 3678 53bd af0f 3cbc
000002d0: 7d4a 0f3e f6a7 4abe a09f bf3d be48 0dbc
000002e0: 4c61 45bd a0ff c3bc 83e2 343e 868c 4e3e
000002f0: ba91 223e 2b72 353e 9be8 1c3e 9b3a 0abd
00000300: 9036 033e 7333 db3d 0cdc 47be 5dd2 b43c
00000310: 39a4 6e3e 95dd e0bd 0f3d 653d 7c82 36be
00000320: a54d 86bc f201 d03d 359b 16bf c4b7 0abd
00000330: ee92 9dbd 6a5c 5cbe db5a 3dbd 839a c93e
00000340: 9a81 eabe ae09 603e 7074 973c d4af 81be
00000350: bc0f 69be 2712 583d a894 993c 01b4 633d
00000360: 493e 3abd c971 b4bd 3e10 9bbe 38ea 22be
00000370: b337 b4be 6462 d63c 2b67 e9bd f6c1 553d
00000380: 24df 113d 03af 133f c4c1 7c3d 4cd0 993b
00000390: d917 ce3d 2697 b5bd 5f87 1abe 8875 21be
000003a0: 8432 a43e f1c3 873d 9b71 2b3e 42cd eb3e
000003b0: 2733 a1bc 8bc9 563e 96d0 ffbe 33e2 193e
000003c0: 27f1 6c3e 088a bd3c 5c88 da3e 9e29 ecbe
000003d0: 031e 2abe 6530 2dbe b1a2 b43c fb9c 02be
000003e0: 8732 093e ed82 8abe c3d8 913e ee1e d73d
000003f0: bb27 133d d02e 3a3e 9008 dd3e df66 a6bd

lstm.weight_hh_l1 f4 [200, 50]
-0.052011475 0.03340539 -0.03988754 0.11471009 0.012377592 0.11521091 -0.11053821 0.017030649
0.17167388 -0.07551869 -0.14648998 0.10473375 0.09759926 0.15531567 -0.15597165 0.03331546
-0.020485127 -0.02414668 -0.12480162 -0.121776246 -0.17652865 0.102916814 0.02553161 0.070161566
0.06640101 -0.124160476 0.097758345 0.10599794 -0.08019052 0.1033328 0.02709847 -0.16658588
0.03829975 0.030575117 0.10750469 0.105841056 -0.04989143 0.03336303 -0.0010567759 0.05964484
-0.015976842 -0.16526447 0.20413823 0.022796063 0.07306774 -0.024958434 0.028188242 0.030765528
-0.15693001 0.033688195 -0.15826197 0.1460627 0.11168543 -0.17491446 -0.120316476 0.057516422
-0.08463294 0.2209222 0.25905302 0.08484043 0.25895688 0.08046717 -0.018701488 0.03141676
-0.041313697 -0.029553907 0.011295565 0.01091834 0.14500487 0.2151772 0.07516348 -0.014367915
-0.018159287 -0.112678476 0.14506646 0.05405937 -0.17352015 -0.08435679 -0.013511173 -0.0067342487
-0.118864015 -0.22904952 0.009344735 0.11851546 0.113185294 0.057849616 0.19115564 0.02913816
-0.014395274 -0.19319984 0.0025010174 -0.18764022 0.12397155 -0.009298603 0.017397162 -0.24628238
-0.28028575 0.2234355 -0.13932374 -0.17827454 0.0637064 0.033002317 0.10227205 0.10749483
-0.009825836 -0.13408442 0.016278327 0.014164491 0.01974897 -0.014223449 -0.06446654 -0.062292032
-0.053897597 -0.085142985 0.056194864 0.110926546 0.043107156 -0.0045085778 -0.0032597275 0.12760985
-0.16315562 0.09152451 -0.023756247 0.10973132 -0.16011244 0.02025697 0.056273054 -0.053289387
0.12577787 -0.10487777 0.17036687 -0.04723824 -0.11562167 0.12411139 0.0025311767 0.0667954
-0.08054142 0.11218583 -0.06548121 -0.16144268 0.04647866 -0.11659168 0.014008721 0.017953549
-0.0966587 -0.041612577 0.062757686 0.046245173 -0.07678872 -0.1448088 0.025820788 0.028415218
0.0618319 0.103182085 -0.09666624 -0.017683258 0.11926009 0.099295154 0.19296505 0.025834005
0.064696334 0.012046135 -0.12693284 0.06383358 -0.14866368 -0.12558684 0.18190137 0.092650585
-0.09628588 0.09877791 -0.022067217 0.030909104 -0.09091476 0.08202803 0.07996674 0.053974908
-0.16203552 0.045680992 0.051083922 0.12834197 -0.028003164 -0.05792932 -0.030495834 -0.11308171
-0.08741829 -0.016799146 -0.041006457 0.18267891 0.14625533 -0.060403753 0.15136975 0.076093026
0.15187217 0.10916543 0.14037707 0.06797733 -0.064008415 0.014262199 -0.12481411 -0.047354735
-0.028358528 -0.024236564 -0.11835172 -0.11292106 0.13554855 -0.39249226 -0.133638 -0.055663016
-0.049281273 -0.055461526 -0.029137619 -0.035332937 -0.107787505 -0.0748885 0.16826628 0.08262211
-0.12890522 0.0036906675 0.005078319 -0.07969117 0.09713287 -0.12298601 -0.0038661545 0.076641336
0.057202447 -0.0034590284 0.012537543 -0.1244228 0.017183062 0.12416294 -0.0073496075 -0.089995615
0.041544024 0.07664401 -0.055903886 0.035812896 -0.06296878 0.02927881 -0.20526135 0.05582384
-0.0019017605 0.08009822 0.10046955 -0.020123774 -0.04609736 0.18021706 0.11982942 0.123584084
0.044783633 0.12742434 0.2028114 0.06073445 0.16806406 -0.041787826 0.17356542 -0.41015452
00000000: fc09 55bd 17d4 083d 1e61 23bd 20ed ea3d
00000010: 62cb 4a3c b3f3 eb3d db61 e2bd dc83 8b3c
00000020: 47cb 2f3e 8ba9 9abd 7801 16be a67e d63d
00000030: 1fe2 c73d 120b 1f3e 08b7 1fbe cb75 083d
00000040: 6dd0 a7bc 42cf c5bc fe97 ffbd d365 f9bd
00000050: edc3 34be 0dc6 d23d ab27 d13c deb0 8f3d
00000060: 41fd 873d d947 febd 8735 c83d 7315 d93d
00000070: ed3a a4bd 26a0 d33d 9cfd dd3c 7d95 2abe
00000080: 33e0 1c3d ab78 fa3c 6b2b dc3d 32c3 d83d
00000090: f55a 4cbd aca7 083d 8483 8aba 264e 743d
000000a0: dee1 82bc 173b 29be 9d09 513e cfbe ba3c
000000b0: 8aa4 953d a175 ccbc 07eb e63c fd07 fc3c
000000c0: 43b2 20be a2fc 093d 6d0f 22be 7691 153e
000000d0: 55bb e43d c71c 33be 7c68 f6bd 5796 6b3d
000000e0: 0954 adbd 6e39 623e 99a2 843e d2c0 ad3d
000000f0: ff95 843e f9cb a43d dd33 99bc dcae 003d
00000100: 8d38 29bd 091b f2bc 0911 393c d6e2 323c
00000110: 287c 143e 6957 5c3e 50ef 993d 6767 6bbc
00000120: c9c2 94bc f9c3 e6bd 4d8c 143e 5c6d 5d3d
00000130: 44af 31be 41c3 acbd f85d 5dbc f9aa dcbb
00000140: fa6e f3bd f58b 6abe a91a 193c 3cb8 f23d
00000150: b1cd e73d b8f3 6c3d 4ebe 433e 27b3 ee3c
00000160: 28da 6bbc 2ed6 45be 1ce8 233b c224 40be
00000170: cce4 fd3d 2b59 18bc 7e84 8e3c 7331 7cbe
00000180: 9d81 8fbe 47cc 643e e2aa 0ebe 9a8d 36be
00000190: 8078 823d 702d 073d 0274 d13d 4026 dc3d
000001a0: 8bfc 20bc 6d4d 09be 205a 853c 2e12 683c
000001b0: 98c8 a13c 7809 69bc 0907 84bd ee25 7fbd
000001c0: bac3 5cbd 725f aebd 962c 663d 752d e33d
000001d0: 2191 303d b1bc 93bb 27a1 55bb 28ac 023e
000001e0: 4412 27be 3471 bb3d 769c c2bc d0ba e03d
000001f0: 84f4 23be f2f1 a53c 937e 663d f945 5abd
00000200: eacb 003e 28ca d6bd a774 2e3e e27c 41bd
00000210: 0ecb ecbd 1d2e fe3d 19e2 253b 07cc 883d
00000220: e6f2 a4bd afc1 e53d 031b 86bd 3b51 25be
00000230: 6860 3e3d 9ec7 eebd d684 653c 5213 933c
00000240: fff4 c5bd f371 2abd 1a87 803d 946b 3d3d
00000250: 6843 9dbd c248 14be 1e86 d33c 08c7 e83c
00000260: 7243 7d3d 2151 d33d f3f8 c5bd 7bdc 90bc
00000270: a23e f43d 425b cb3d a198 453e d6a1 d33c
00000280: 837f 843d 275d 453c affa 01be 2ebb 823d
00000290: 4b3b 18be d699 00be 5a44 3a3e 97bf bd3d
000002a0: 8831 c5bd 134c ca3d 4fc6 b4bc 1735 fd3c
000002b0: 8531 babd 50fe a73d 9ac5 a33d cb14 5d3d
000002c0: a4ec 25be fe1b 3b3d 603d 513d 146c 033e
000002d0: e466 e5bc 4b47 6dbd 66d2 f9bc 6297 e7bd
000002e0: 5c08 b3bd 5d9e 89bc 63f6 27bd 2e10 3b3e
000002f0: f5c3 153e ed69 77bd ac00 1b3e a9d6 9b3d
00000300: 6184 1b3e 2092 df3d 02bf 0f3e b337 8b3d
00000310: d816 83bd 00ac 693c 8a9e ffbd 0af7 41bd
00000320: 2550 e8bc c28b c6bc 6362 f2bd 2843 e7bd
00000330: 3dcd 0a3e bff4 c8be 66d8 08be e7fe 63bd
00000340: 29db 49bd a02b 63bd 04b2 eebc 45b9 10bd
00000350: b2bf dcbd 245f 99bd ff4d 2c3e c835 a93d
00000360: bbff 03be 20df 713b 0768 a63b 2035 a3bd
00000370: 99ed c63d 17e0 fbbd 4f5f 7dbb 22f6 9c3d
00000380: 1d4d 6a3d deb0 62bb 446a 4d3c 62d1 febd
00000390: 7ec3 8c3c 2449 fe3d fad4 f0bb 9f4f b8bd
000003a0: 112a 2a3d 89f7 9c3d 79fb 64bd 8bb0 123d
000003b0: c7f5 80bd 1dda ef3c 0830 52be 8aa7 643d
000003c0: 7e44 f9ba 890a a43d fbc2 cd3d 9dda a4bc
000003d0: 96d0 3cbd d28a 383e 2069 f53d a719 fd3d
000003e0: 0b6f 373d 877b 023e cbad 4f3e b0c4 783d
000003f0: fc18 2c3e b629 2bbd 22bb 313e c6ff d1be

lstm.bias_ih_l1 f4 [200]
-0.08959695 -0.21143302 0.048384823 0.13322899 -0.050859626 -0.13743256 0.17134878 -0.16860278
-0.013403963 -0.08474931 0.019325048 -0.059487686 0.09143658 0.010958899 -0.20359997 -0.15009172
-0.15883444 -0.20069411 -0.036721442 0.03879472 -0.18921365 -0.15551612 0.006920112 -0.025089145
-0.032625224 -0.176568 -0.20488411 -0.071427755 -0.1324374 -0.013309564 -0.20861806 -0.1903179
0.01922728 0.094984226 0.0248779 -0.008162847 -0.01708456 0.029322363 -0.15053792 -0.1636157
-0.07921682 -0.06397158 -0.21679531 0.04771739 0.0715224 -0.058902588 0.046742026 0.15601864
-0.10887739 -0.091200694 -0.16591609 -0.14437516 -0.15657237 -0.10825236 -0.14165547 -0.17119248
-0.021563804 -0.0069605894 -0.10242902 -0.043531 -0.14283375 0.00042385008 -0.12358184 -0.026206646
-0.008705299 0.055449788 0.050446175 -0.28080863 -0.025694827 0.096966185 -0.12331491 -0.16625482
0.08563359 -0.12188397 -0.13183786 -0.13498805 0.12309267 0.14154129 -0.04779007 0.013922309
-0.07663464 -0.17353801 -0.08361571 -0.12048309 -0.037765805 -0.08031726 0.108049154 -0.11236198
-0.100144506 -0.021787267 -0.08621206 -0.22569762 -0.24417368 0.070810184 0.083247624 -0.037042115
-0.07677944 0.13276464 -0.036646675 -0.102136634 -0.100761704 -0.0010914266 -0.11679905 0.117896825
-0.04996481 0.17964384 0.12559608 0.085363 0.030170863 -0.037426095 -0.027757425 -0.05720889
0.0779071 -0.05095918 -0.030179635 0.11754753 -0.082602195 0.30495167 -0.007621642 -0.114997156
0.03253425 -0.06159279 -0.08257285 -0.024119902 0.020664964 -0.12297913 0.021752844 0.083678044
-0.13472764 0.015374617 0.088247575 0.1421746 0.17162867 -0.05081537 -0.037692163 -0.17662668
-0.15917096 0.013623189 0.07710937 0.11501497 0.04584219 -0.007587306 0.10313265 0.014845226
0.19696079 0.06935453 -0.13253754 -0.18332629 0.00046766968 -0.010082652 -0.14739138 0.03195786
0.09297673 0.15101883 -0.025484933 0.04109832 -0.026531227 -0.055728793 -0.106222324 -0.0051100235
-0.034202732 -0.13165708 -0.048305545 -0.10801839 -0.060410626 0.059860483 -0.03775238 -0.22256379
-0.022139702 -0.07398337 0.042712748 0.035660975 -0.071510695 0.052694764 0.0011557699 -0.14168343
-0.09176517 0.041591436 0.045452207 -0.09777871 -0.11327693 -0.030670982 -0.10191417 -0.11950346
-0.015946293 0.04379183 0.051696204 -0.06951408 -0.084926985 -0.0077682324 0.0040086047 -0.06033644
0.029496444 0.01890961 -0.087683745 -0.024854336 0.02603997 0.036229603 -0.016570846 -0.101762116
00000000: 9b7e b7bd e681 58be 2a2f 463d 2e6d 083e
00000010: 2f52 50bd 1fbb 0cbe 0e76 2f3e 35a6 2cbe
00000020: 4c9c 5bbc 0c91 adbd 904f 9e3c 5ca9 73bd
00000030: 1a43 bb3d f48c 333c 837c 50be a5b1 19be
00000040: 7fa5 22be c282 4dbe 3969 16bd 36e7 1e3d
00000050: 39c1 41be 9e3f 1fbe 1bc2 e23b c087 cdbc
00000060: 07a2 05bd 3ece 34be 24cd 51be b748 92bd
00000070: ab9d 07be 5c10 5abc f99f 55be b2e2 42be
00000080: 8782 9d3c 1787 c23d bdcc cb3c 76bd 05bc
00000090: ebf4 8bbc 7435 f03c 9d26 1abe e08a 27be
000000a0: 6e3c a2bd 8803 83bd 97ff 5dbe 4f73 433d
000000b0: 567a 923d d743 71bd 9174 3f3d 5ac3 1f3e
000000c0: 1cfb debd 6ec7 babd e8e5 29be 15d7 13be
000000d0: 8254 20be 6ab3 ddbd 220e 11be 154d 2fbe
000000e0: 93a6 b0bc a815 e4bb 4ec6 d1bd 904d 32bd
000000f0: 0343 12be 3238 de39 7a18 fdbd 52af d6bc
00000100: aca0 0ebc 511f 633d a6a0 4e3d 26c6 8fbe
00000110: f57d d2bc 3596 c63d 878c fcbd b43e 2abe
00000120: aa60 af3d 4e9e f9bd 8100 07be 4f3a 0abe
00000130: 0318 fc3d 33f0 103e 85bf 43bd 651a 643c
00000140: 9ff2 9cbd f3b3 31be b73e abbd d7bf f6bd
00000150: 51b0 1abd 607d a4bd e048 dd3d 0a1e e6bd
00000160: 9018 cdbd 367b b2bc f38f b0bd 471d 67be
00000170: aa08 7abe ee04 913d bb7d aa3d 79b9 17bd
00000180: 8a3e 9dbd 74f3 073e d31a 16bd 032d d1bd
00000190: 275c cebd 330e 8fba 5734 efbd e473 f13d
000001a0: e7a7 4cbd 8ef4 373e 429c 003e ccd2 ae3d
000001b0: e328 f73c 1b4c 19bd 8a63 e3bc de53 6abd
000001c0: c28d 9f3d 93ba 50bd 483b f7bc c2bc f03d
000001d0: 572b a9bd a022 9c3e f8be f9bb a183 ebbd
000001e0: a242 053d b948 7cbd f41b a9bd 1a97 c5bc
000001f0: 9249 a93c 7bdc fbbd 0533 b23c 655f ab3d
00000200: 0bf6 09be d1e5 7b3c 25bb b43d 3896 113e
00000210: 6dbf 2f3e c723 50bd 1963 1abd a0dd 34be
00000220: b6fd 22be cc33 5f3c 84eb 9d3d f88c eb3d
00000230: 05c5 3b3d f09e f8bb 3637 d33d 6439 733c
00000240: 17b0 493e bf09 8e3d ecb7 07be e3b9 3bbe
00000250: 9031 f539 b531 25bc c4ed 16be 3fe6 023d
00000260: 956a be3d aea4 1a3e c7c5 d0bc b656 283d
00000270: 0458 d9bc e043 64bd 178b d9bd fc71 a7bb
00000280: 2a18 0cbd 1dd1 06be 09dc 45bd bf38 ddbd
00000290: 2271 77bd 4430 753d 3da2 1abd c3e7 63be
000002a0: 525e b5bc 9884 97bd 90f3 2e3d 3e11 123d
000002b0: 3374 92bd 77d6 573d 347d 973a 7615 11be
000002c0: 61ef bbbd c85b 2a3d 182c 3a3d 3440 c8bd
000002d0: bcfd e7bd b641 fbbc 60b8 d0bd 3bbe f4bd
000002e0: cda1 82bc 105f 333d 66bf 533d 665d 8ebd
000002f0: 33ee adbd a88c febb 9d5a 833b 5823 77bd
00000300: 87a2 f13c 54e8 9a3c 8993 b3bd 529b cbbc
00000310: c651 d53c 7e65 143d 95bf 87bc a868 d0bd

lstm.bias_hh_l1 f4 [200]
-0.07014469 0.011795623 0.10256769 -0.035189405 -0.11256674 0.014490842 0.039108705 -0.049091857
-0.1600423 -0.04723021 -0.22901237 0.009170281 0.13517734 0.08339037 -0.121221386 -0.070943564
-0.0051465486 -0.0764344 -0.01367179 -0.028011652 -0.18808286 -0.15191609 0.03073765 0.00087178906
-0.018502515 0.06962526 -0.024331946 -0.052990127 -0.16322748 0.04129926 -0.015919406 -0.19191578
0.089114 -0.10708728 -0.019133015 -0.06260898 0.20763135 0.13499644 -0.12708652 -0.18995115
-0.05416576 0.01641168 -0.08772094 -0.019191269 0.19571166 -0.1694772 0.12662056 0.041068103
-0.03876112 -0.07289248 -0.08303854 -0.09314926 0.01764656 0.028358778 -0.03534622 -0.028858734
-0.03161359 -0.11205547 -0.3282416 0.03578932 -0.24296473 0.022468673 -0.13666248 -0.11717436
-0.025326652 0.038832624 -0.19933487 -0.058980674 -0.1716794 -0.054685846 -0.18681166 -0.13134655
-0.12728462 -0.07810634 -0.14878987 -0.032312527 -0.105533004 -0.040966045 -0.07609197 0.0076433346
-0.15835081 0.04796532 0.08460275 -0.16569264 -0.06539111 -0.18127091 0.071969345 -0.05390446
0.009602783 0.011998575 0.051086895 -0.21771334 -0.21585694 0.12052736 -0.0058951997 -0.026578147
-0.061483517 -0.07291818 0.034651246 -0.16858922 0.05311978 -0.011719298 0.055753753 -0.032043993
0.087081715 0.24820577 0.057642877 -0.14941263 0.03507796 0.023164567 -0.17003173 -0.01231104
-0.022017399 -0.17219876 0.067303255 0.02108541 -0.03890878 0.3180381 -0.05057048 -0.022051217
-0.0646476 -0.13394421 -0.02949786 0.030465562 -0.03885344 0.07262145 0.012956558 0.041963357
0.122142725 -0.11893382 0.028250135 -0.074796446 -0.08867451 -0.0016610904 0.10998131 0.011840748
-0.19844776 0.076497704 -0.1378702 -0.09254514 0.1122186 -0.058363706 -0.006905682 -0.1209269
0.021723114 0.016093139 -0.12869172 -0.25723264 -0.0195097 0.011867843 -0.0027241686 -0.07739824
-0.13939773 -0.010108483 -0.15939106 -0.13182113 -0.10002682 -0.033015393 -0.14627808 -0.17443717
-0.012765945 -0.07989549 -0.010608712 0.039357796 -0.06521571 0.012502663 -0.17570865 0.0019694653
0.10954384 -0.08611025 0.063230306 -0.10024744 0.072810404 -0.058799673 -0.11107854 -0.122680046
0.054688208 -0.016079018 -0.13392706 -0.028108334 -0.2399378 -0.16515179 -0.06497769 -0.17262319
-0.14591241 0.0296099 -0.021107102 0.018059801 0.08459891 -0.033131715 0.08280627 0.07929707
-0.099170886 0.059556965 0.16447368 -0.12670074 -0.045498863 0.1663264 0.04962873 -0.016892165
00000000: 05a8 8fbd 6e42 413c 020f d23d c422 10bd
00000010: 6489 e6bd ff6a 6d3c 7330 203d 8b14 49bd
00000020: 21e2 23be 7774 41bd 3882 6abe f23e 163c
00000030: ee6b 0a3e 92c8 aa3d eb42 f8bd dc4a 91bd
00000040: 61a4 a8bb a489 9cbd a5ff 5fbc b178 e5bc
00000050: cb98 40be e48f 1bbe 86cd fb3c c688 643a
00000060: 9692 97bc b097 8e3d ca53 c7bc 2d0c 59bd
00000070: 1b25 27be 6a29 293d 6a69 82bc 9285 44be
00000080: 6781 b63d 9350 dbbd d7bc 9cbc 2339 80bd
00000090: 509d 543e 823c 0a3e f822 02be 8e82 42be
000000a0: eadc 5dbd ca71 863c 09a7 b3bd 0237 9dbc
000000b0: a368 483e 6e8b 2dbe d2a8 013e 0737 283d
000000c0: fbc3 1ebd a748 95bd 1c10 aabd 0ac5 bebd
000000d0: 858f 903c ab50 e83c 33c7 10bd 2769 ecbc
000000e0: 407d 01bd 577d e5bd 480f a8be d297 123d
000000f0: bfcb 78be 3910 b83c 40f1 0bbe 1cf9 efbd
00000100: d779 cfbc f50e 1f3d 711e 4cbe b895 71bd
00000110: bacc 2fbe 44fe 5fbd 8e4b 3fbe b67f 06be
00000120: e656 02be 37f6 9fbd 5f5c 18be 245a 04bd
00000130: b021 d8bd 03cc 27bd 1bd6 9bbd f074 fa3b
00000140: b726 22be 4977 443d 3544 ad3d 55ab 29be
00000150: c6eb 85bd 159f 39be aa64 933d ecca 5cbd
00000160: fe54 1d3c ac95 443c 7e40 513d 3ff0 5ebe
00000170: 9a09 5dbe 0cd7 f63d 852c c1bb 6aba d9bc
00000180: 24d6 7bbd 2056 95bd 77ee 0d3d a7a2 2cbe
00000190: 2094 593d 4c02 40bc 0c5e 643d 9040 03bd
000001a0: e657 b23d a729 7e3e f01a 6c3d a0ff 18be
000001b0: e8ad 0f3d 9ec3 bd3c cc1c 2ebe 3fb4 49bc
000001c0: d55d b4bc df54 30be 4ad6 893d 4fbb ac3c
000001d0: d05e 1fbd e4d5 a23e fe22 4fbd c1a4 b4bc
000001e0: f665 84bd ac28 09be 7fa5 f1bc ea92 f93c
000001f0: c924 1fbd 8eba 943d be47 543c c5e1 2b3d
00000200: f725 fa3d 9393 f3bd d46c e73c e12e 99bd
00000210: fb9a b5bd f2b8 d9ba e23d e13d b2ff 413c
00000220: e435 4bbe d4aa 9c3d d92d 0dbe 4e88 bdbd
00000230: ded2 e53d c80e 6fbd 0f49 e2bb 86a8 f7bd
00000240: acf4 b13c c2d5 833c c3c7 03be ffb3 83be
00000250: ced2 9fbc 5771 423c f787 32bb f882 9ebd
00000260: 47be 0ebe 0d9e 25bc 6937 23be 1efc 06be
00000270: ddda ccbd 263b 07bd ecc9 15be a89f 32be
00000280: 4128 51bc 3fa0 a3bd 2ad0 2dbc a435 213d
00000290: d08f 85bd f8d7 4c3c f8ec 33be 2512 013b
000002a0: 8558 e03d 925a b0bd e47e 813d 884e cdbd
000002b0: 9f1d 953d edd7 70bd 257d e3bd ad3f fbbd
000002c0: be00 603d 25b8 83bc 2d24 09be 7343 e6bc
000002d0: 41b2 75be 8d1d 29be 0613 85bd 22c4 30be
000002e0: 106a 15be 7690 f23c cde8 acbc 26f2 933c
000002f0: 3142 ad3d 1fb5 07bd 5596 a93d 8166 a23d
00000300: 1b1a cbbd 01f2 733d ca6b 283e d7bd 01be
00000310: 045d 3abd 7851 2a3e 7f47 4b3d 7061 8abc
