TFM/regresion/results/bus_trip/AGCRN.pt (torch, 548404 bytes, 6 tensors)

recurrent._gate.weights_pool f4 [3, 2, 150, 100]
000000 4c 24 17 3d 1b b8 6b 3c 91 8c 1e bd ff 7e d6 bd
       0.03689985 0.014387156 -0.038708273 -0.10473441
000010 9f 52 d4 bd ba cd 5b bd 60 8c 2f 3e 97 c0 16 bb
       -0.10367321 -0.053662993 0.17143393 -0.0023002976
000020 f1 ba 8c 3e c3 16 1e 3d 70 81 2b be 1a fd 22 3e
       0.27486375 0.038595926 -0.16748595 0.15916863
000030 8b e3 8c 3d 6d c9 11 be 2f fa fb bd 7e c8 22 be
       0.06879338 -0.14236994 -0.12303578 -0.15896794
000040 c2 dc 62 bb ce 31 01 39 25 fd d9 3c 07 f6 3d 3c
       -0.0034616445 0.00012320952 0.026609967 0.011594302
000050 24 73 b9 3d 50 04 91 bd 17 c6 72 3d 65 49 1c 3e
       0.090551645 -0.07080901 0.059270944 0.15262373
000060 ec 68 33 3d 38 b2 e0 3d db 2a 67 3e fd 91 78 be
       0.043801233 0.109714925 0.22574942 -0.2427444
000070 58 2f 52 3e 25 b2 ac bd 03 45 b9 bd fd 27 6f bd
       0.20525873 -0.08432416 -0.09046366 -0.058387745
000080 9d 59 ac 3d 48 e9 54 bd 0c 25 e0 3d 23 c6 e9 3d
       0.0841553 -0.051980287 0.10944566 0.11414745
000090 37 c9 11 3e dc 77 27 bc 0f fc 01 3e af af b8 bc
       0.14236914 -0.010221448 0.12693809 -0.02254471
0000a0 7b f9 cc 3c 70 c1 25 be db f3 00 3e ba aa 59 bd
       0.025021305 -0.16187072 0.12593023 -0.053141333
0000b0 09 d8 37 be ec d6 84 3e 3e 39 98 3d ae 4b 02 be
       -0.17953505 0.25945222 0.07432793 -0.12724182
0000c0 13 17 01 be 4d e7 ef bd 91 bf 82 3e 90 7a cd bd
       -0.12606458 -0.11714039 0.2553678 -0.100331426
0000d0 6a 6d d4 bd 58 45 00 be f2 ae 4a be ea a3 28 3d
       -0.103724316 -0.12526453 -0.19793299 0.041171946
0000e0 a5 b7 f6 3d db bb 15 be 1e fd 5e bb 86 c8 f7 3d
       0.12046746 -0.14622442 -0.0034025381 0.12098794
0000f0 6b 63 07 3c be 55 e3 bc 46 cc 60 3e f6 fe cd bd
       0.008263449 -0.027750846 0.21952924 -0.100583956
000100 37 30 57 3d ec 94 30 3d ec 00 c6 bd cf 53 ca 3d
       0.052536216 0.043110773 -0.096681446 0.098792665
000110 87 dd 60 3e ea 6e 01 be 0d 49 86 3e 5d 61 03 3e
       0.21959506 -0.12639967 0.26227608 0.1283011
000120 65 81 2a 3e cd 17 1d bd 92 32 1c 3d ee 91 7b bc
       0.16650923 -0.038352776 0.038134165 -0.015354617
000130 b2 56 83 bd 85 14 80 3d 8f 03 30 3d ae d5 77 bd
       -0.0641302 0.06253914 0.042972144 -0.060506515
000140 26 e4 0e 3e 06 a0 85 3d 54 c1 4f bc 2e d8 02 bd
       0.13954219 0.06524663 -0.01268037 -0.031944446
000150 24 05 58 be ed ec 80 be 41 d6 83 bd d4 1b 33 bc
       -0.21095711 -0.2518076 -0.0643735 -0.010931928
000160 89 b9 81 3d fe ee ec 3d 0a b6 41 be 9a 82 5b 3d
       0.06334216 0.11569022 -0.18917099 0.05359135
000170 0e 96 2f be fa 2d 91 3e 78 6d 19 3e 78 32 67 bc
       -0.17147085 0.2835539 0.14983165 -0.014111154
000180 07 ed b1 3d 49 05 41 bd e9 e9 69 be a2 28 d1 3d
       0.086877875 -0.04712418 -0.22843136 0.10212828
000190 92 45 1e bd 73 90 f4 3d 6d 0e ea bd 08 05 c5 3d
       -0.038640566 0.11941614 -0.11428533 0.096201
0001a0 05 75 c3 bb c0 7f d4 3d f5 91 91 bd af e1 de bd
       -0.0059648775 0.10375929 -0.07107917 -0.108828895
0001b0 d8 48 86 3c ff 8e d4 3d 6c eb e6 3c 95 b9 42 3e
       0.016392156 0.10378837 0.02818843 0.19016106
0001c0 16 3c 60 3e bd d8 35 bd 49 52 ee 3c 03 58 f9 bd
       0.21897921 -0.04439615 0.029091971 -0.1217499
0001d0 6a 23 4e be f6 b3 b8 bd cd f8 0d 3c 4d af ed 3d
       -0.20130697 -0.090187 0.008665276 0.116057016
0001e0 24 17 3e bd 43 6a 84 bd c5 64 65 3d bd 3e 1b bc
       -0.046408787 -0.0646558 0.056004304 -0.009475407
0001f0 bd a3 f8 bd 33 c5 fe 3c cd 54 1e 3d c6 f2 94 bb
       -0.121406056 0.031099891 0.03865509 -0.0045455424
000200 09 74 d7 3d 41 ba 0f be 2c 54 dd bd ed c7 a4 bc
       0.10520179 -0.14035894 -0.1080707 -0.020114863
000210 ad 7f c6 bd ed ad 4c bd e9 5e 15 3e 37 16 cf bd
       -0.09692321 -0.049970556 0.14586987 -0.10111659
000220 77 55 46 3e 17 dd 0e 3e 35 66 9c 3d 78 8f 32 be
       0.1936854 0.13951527 0.07636682 -0.17437541
000230 bc 98 c7 3d 06 1b c6 bd 47 57 d5 3d 71 b9 09 3e
       0.09745929 -0.09673123 0.104170375 0.13449647
000240 21 90 28 be 10 c1 04 3e 12 74 ee b9 e9 ae 4c be
       -0.16461231 0.12964272 -0.00045481377 -0.19988598
000250 f2 da 91 3c 04 3b 8c be 05 81 87 3e c8 ad af 3d
       0.017804597 -0.27388775 0.26465622 0.08578068
000260 3a f8 29 3e 33 ea 9e bd e2 f3 63 be e1 56 78 3d
       0.16598597 -0.07759514 -0.22261003 0.06062973
000270 74 c2 d9 3d 10 e9 17 be 7a c2 98 bd 47 f3 b5 bc
       0.10632792 -0.14835 -0.074589685 -0.02221073
000280 99 74 dc bc f6 fe 46 bd 5d 95 8c 3d 0d ac 70 be
       -0.026911067 -0.048582993 0.06864426 -0.23503132
000290 c7 73 04 be 55 db 52 3e 1a 6c 77 3d ad be e1 3c
       -0.1293479 0.20591481 0.060405828 0.027556742
0002a0 53 bb 65 3e fc fb 07 be 7a 69 b7 3c 6f e5 0b be
       0.2243474 -0.13279718 0.022389162 -0.1366174
0002b0 68 a1 77 3e e4 52 91 bd ce 69 65 bd ff 17 ae 3c
       0.24182665 -0.07095888 -0.056009106 0.021251677
0002c0 d3 aa 1f be 5c 93 a4 bc bf cf 50 3e 2f 53 99 bd
       -0.15592508 -0.020089798 0.20391749 -0.07486569
0002d0 c3 8f 20 bd f9 32 81 bd bd 05 0f be 4c 91 37 3e
       -0.0391996 -0.063085504 -0.13967033 0.1792652
0002e0 3b 65 2a be 75 29 81 bd 41 a3 6b bd 1e 2e 8d bd
       -0.16640179 -0.063067354 -0.057528738 -0.06893562
0002f0 bb 54 03 3e 12 a4 e5 3d 68 e2 3b be 23 6a 51 3e
       0.12825291 0.112129346 -0.18348086 0.20450644
000300 05 2a 16 3c 48 84 31 3e 75 40 6c 3e d1 b8 2b 3e
       0.009165292 0.17335618 0.23071463 0.1676972
000310 18 e5 cf bb 12 bc 6d 3d 16 0a 56 be 13 ea 22 bd
       -0.006344449 0.058040686 -0.20902285 -0.03977401
000320 f9 2a 1f 3e d6 05 5b 3e 27 c2 6a bd 73 e4 06 be
       0.15543737 0.21388945 -0.057314064 -0.13173084
000330 90 b5 74 be fe 99 a8 bd 28 0d 84 bd cf 8d 76 39
       -0.23897386 -0.08232497 -0.06447822 0.00023513216
000340 8d 1c 8b 3e ab d0 51 3d c5 4b 30 be 4f b2 9b bd
       0.2717022 0.051224392 -0.17216404 -0.07602369
000350 af 6a 54 3e 82 b8 48 be a1 2c bc 3c 61 fb a2 3d
       0.20743822 -0.19601634 0.0229705 0.07958103
000360 3c 4b 10 be 22 80 cb 3c c4 a4 96 bd a7 1d fa 3d
       -0.140912 0.024841372 -0.07355645 0.12212687
000370 6a 1a ca bd 9d 5f c5 bd 8d 17 7b bd c0 31 9c 3c
       -0.09868319 -0.096373774 -0.061301757 0.019066691
000380 94 b0 0c 3e 60 40 b6 bd 74 67 e2 bb d4 34 84 bd
       0.13739234 -0.08898997 -0.006909305 -0.06455389
000390 16 83 3c 3e 5a 60 84 3d b9 d8 01 3d a3 e3 2b 3e
       0.1840938 0.0646369 0.031700823 0.16786055
0003a0 9b bf 41 be 86 cd aa 3d 8a da 18 3e 7f a9 7d bc
       -0.18920748 0.08339982 0.14927116 -0.015482306
0003b0 4d f2 eb 3c 59 c4 61 3e c5 28 92 bd fd f6 ff bd
       0.028802061 0.22047557 -0.071366824 -0.12498281
0003c0 28 c8 1b be 9f 91 f9 bc b0 21 f8 3d cb 6b cf 3c
       -0.15213072 -0.030464945 0.121158004 0.025319954
0003d0 6e 16 01 be 13 4a 20 bc aa c8 c3 bd 1d 83 7f bd
       -0.12606212 -0.009783286 -0.09559758 -0.0623809
0003e0 53 1d b5 3d c1 07 58 bc a2 65 8b 3d 3b d9 6c bd
       0.08843484 -0.013185442 0.06806494 -0.057824355
0003f0 94 f4 ea bd a9 ad 28 be 1e c6 7b bd 7f 00 b0 3d
       -0.11472431 -0.16472496 -0.061468236 0.085938446

recurrent._gate.bias_pool f4 [3, 100]
000000 a8 d0 2d 3e c8 5a 14 3e 1e 4c ac 3d 4f 8f 65 3c
       0.16974127 0.14487755 0.08412956 0.014011218
000010 45 fb ad 3c 54 2b 0c 3e c5 02 91 3d 65 f7 e6 bd
       0.021237979 0.13688403 0.07080606 -0.112776555
000020 75 4d 0b 3e bf 87 79 3d 27 22 c5 bd 13 7b a4 bd
       0.13603766 0.060920473 -0.09625655 -0.08031287
000030 dc c8 06 3c 1b 56 f9 3c 6f 1f a1 3d c9 0d c1 3d
       0.0082266 0.030436566 0.078673236 0.094264574
000040 b4 ce 2e 3d c4 b2 87 bc 2f 40 89 bd 26 fd 09 3c
       0.042677596 -0.016564734 -0.06701695 0.008422172
000050 c4 25 36 be 8f 01 82 bb a2 e4 a3 3d 0e 86 6d bc
       -0.17787844 -0.003967471 0.080025926 -0.014497293
000060 4e cf 0d bb 4c 1e a2 bc bd b4 89 3e bc ef b0 3d
       -0.0021638456 -0.019789837 0.26895705 0.08639476
000070 57 cb 13 3e f8 f9 d5 bc 84 d9 23 be 93 cc 19 3e
       0.14433037 -0.026120171 -0.16000944 0.15019445
000080 ad a9 fa 3c ec 12 21 3e e6 14 a6 bd e5 1e 5a 3c
       0.030598486 0.15729874 -0.08109455 0.01331303
000090 62 3e ac 3d ae b1 85 bd 0c c7 db bd fa f5 1c 3d
       0.08410336 -0.0652803 -0.107313246 0.03832052
0000a0 56 1d b1 3d 42 5f 27 be 32 c3 08 3e 01 3b 29 bb
       0.086481735 -0.16344932 0.13355711 -0.0025822523
0000b0 de d8 08 be 9a 18 90 3e f2 9c fd 3d 8a aa 7e bd
       -0.13363978 0.2814377 0.123834506 -0.062174357
0000c0 5e 8f 3a be ae ce 89 be 8f 1f 1f 3e 37 63 a4 3d
       -0.18218753 -0.26915497 0.15539382 0.08026736
0000d0 41 a7 92 3d 32 21 3a be b3 1b f0 bd e9 02 de 3d
       0.071608074 -0.18176726 -0.11724033 0.10840399
0000e0 dd 30 24 3e d4 10 fb bd 78 b4 ce 3d 3d 0d 37 3d
       0.16034265 -0.12259069 0.100930154 0.04469036
0000f0 cc 91 2b 3d 02 0b bd 3d ce d5 44 3e 6a 29 75 bd
       0.04188709 0.09230615 0.19222185 -0.05985395
000100 01 eb 8f 3d 91 62 65 3e 46 b4 9c bd 1c 78 3e 3e
       0.07027245 0.22400881 -0.07651572 0.18600506
000110 58 d7 b2 3e 85 62 f2 bd 8e 55 8f 3e c0 f6 1c 3d
       0.3492992 -0.11835197 0.2799496 0.038321257
000120 97 a4 da 3b d8 25 4a bd 45 45 01 3e a7 bd de 3c
       0.0066724527 -0.049352497 0.1262408 0.027190043
000130 23 b1 f4 bd c6 48 df 3d ac ac 03 3e 72 c6 f3 bb
       -0.11947849 0.10902552 0.12858838 -0.007439428
000140 87 09 46 bd ec 1d 11 bd 78 e0 72 bd 8a ce 51 3e
       -0.04834893 -0.035428926 -0.0592961 0.20488945
000150 5c e8 41 be 62 a6 01 be e3 d6 ef bd 37 8f 9a bc
       -0.18936294 -0.12661126 -0.11710908 -0.018867118
000160 a5 2f 1f 3e 1d 22 ec 3d f8 d7 cb bd 89 7f 02 3e
       0.15545519 0.11529944 -0.09953302 0.12743963
000170 d9 34 51 be 9d 67 6d bc d4 67 57 3e 00 c5 91 bd
       -0.20430316 -0.014490035 0.21035701 -0.07117653
000180 cd 08 c5 3d cb ed 0f 3d ae eb c0 bd 43 fb b5 3d
       0.09620819 0.035138886 -0.09419952 0.08885815
000190 b2 d4 07 3e 40 93 20 be f6 2b f7 bd 0a 7a 51 3d
       0.1326473 -0.15681171 -0.12068932 0.051141776
0001a0 bc 3f 55 3d 08 62 80 3d da 11 42 3d ea 08 d1 bd
       0.052062735 0.06268698 0.047380306 -0.10206778
0001b0 27 f0 52 3c 68 3e aa 3d 71 ae c6 3d eb 1d e2 bd
       0.01287464 0.08312684 0.09701241 -0.11040863
0001c0 ef 7e fc 3d dd 8b b5 bd a7 8d b4 3d 91 2a 01 3e
       0.12328898 -0.088645674 0.088160805 0.12613894
0001d0 8b 2d 39 3d 1c af 12 3e 55 15 11 be da 1a af bd
       0.04520945 0.14324611 -0.14168294 -0.085500434
0001e0 11 93 08 be 19 c0 07 3e 6e 8a ec bc c9 ff ba bd
       -0.13337351 0.13256873 -0.028874602 -0.091308184
0001f0 19 9e 15 3e 7f 5b d8 bd 34 22 23 3e eb ed 46 be
       0.1461109 -0.105643265 0.15931016 -0.19426696
000200 7f ce b8 bd ef 86 2e be a9 43 02 3c bd 03 4c 3e
       -0.09023761 -0.1704366 0.007950702 0.19923301
000210 f2 50 81 bd 72 47 33 be d8 b3 c3 bc 13 ba 00 3e
       -0.06314267 -0.17507723 -0.023889467 0.12570982
000220 d7 a7 8a bd 42 6c fd bd 23 fb 80 bd 99 48 84 3d
       -0.06770294 -0.12374164 -0.062979005 0.064591594
000230 3c 44 df bd aa 44 21 3d bb 9f cc 3d fd cf 35 3e
       -0.109016865 0.039372124 0.09991404 0.17755122
000240 70 3c 17 bd 0f 9a 57 bd f5 f0 35 3d 1b 07 c0 3c
       -0.036922872 -0.052637156 0.044419248 0.023440888
000250 cc e2 98 bb 99 2b 9b 3d 92 bc 1f 3e de f5 b8 bd
       -0.004665708 0.07576675 0.15599278 -0.090312704
000260 7d 97 8c 3d 39 fc 81 bc b2 d5 e5 3d 08 a1 10 be
       0.068648316 -0.01586734 0.112224 -0.14123929
000270 9a 1b 80 3b c8 e9 88 3d 0d e2 8d b9 fd 82 c3 bd
       0.0039095404 0.06685215 -0.00027062037 -0.095464684
000280 3d 9c 99 3e 17 48 65 3e 54 36 73 3d 88 3e c0 bd
       0.30002013 0.22390781 0.059377983 -0.09386927
000290 92 ae 89 bd 27 01 25 bd f1 98 cc 3d cc f8 1c 3e
       -0.0672275 -0.040284302 0.09990109 0.15329283
0002a0 7a 9d 03 3e c6 0a 35 3e 17 c2 1f 3e cb 0d 31 be
       0.12853041 0.17679891 0.15601383 -0.17290418
0002b0 5f 17 1e 3c fa bd 0f be 58 23 7f 3e ea 3e 03 bc
       0.009649127 -0.14037314 0.24915826 -0.008010605
0002c0 d3 92 f4 3d ca 3e 37 3e d0 24 b6 bd 10 08 38 be
       0.11942067 0.17895046 -0.0889374 -0.17971826
0002d0 c2 12 67 bd d4 fe 9d bd 9a 8d 4b be 1c 39 26 be
       -0.056414373 -0.0771462 -0.19878235 -0.16232723
0002e0 bc 30 1c be 43 fb 2c 3e a9 07 9c bd c6 a2 89 bd
       -0.15252966 0.16892724 -0.076186486 -0.067205
0002f0 47 1f d3 bd b8 16 86 3d ec 65 36 3d da 23 cd 3d
       -0.103087 0.06547302 0.044530794 0.10016604
000300 fb f2 1a be 1b 88 2b 3d e4 24 c8 3d 99 f6 60 3c
       -0.15131752 0.041877847 0.09772661 0.013730668
000310 b9 bf e2 bd 7a 97 a3 3e 24 f7 53 be c0 6b 88 3e
       -0.110717244 0.31951505 -0.20699745 0.26644707
000320 7c 99 11 be e7 b0 a2 bd 27 e1 ff bd b8 2d 27 bd
       -0.14218706 -0.07943898 -0.12494116 -0.040815085
000330 14 b9 ef 3c 02 01 b6 3c ee 8f 27 3d cb a2 26 3d
       0.029263057 0.022217277 0.040908746 0.040682595
000340 6e 5c 26 bd 33 92 0c 3d 92 b7 22 3e db 43 32 3e
       -0.04061549 0.034319114 0.15890339 0.17408697
000350 cf 4e cb bd d9 22 8e bd 99 49 a6 bc cf 5a ee bc
       -0.09927141 -0.069402404 -0.020298766 -0.029096035
000360 87 cf 86 bd 98 74 bb 3d b0 e5 8d bd 78 7e 3b 3e
       -0.065825514 0.09153098 -0.06928575 0.18309963
000370 cd 15 52 3e 98 18 30 3e 5f 83 dd 3c 98 9b 01 3e
       0.20516129 0.17196882 0.027040182 0.1265701
000380 d3 aa 9d 3d 2a bd a8 3c 2b b3 74 bd 49 81 2b bd
       0.07698598 0.020598013 -0.05974118 -0.041871343
000390 69 46 a9 3d f4 b4 9b 3b 26 86 96 3c e6 ee 05 be
       0.08265383 0.004751796 0.018374514 -0.13079414
0003a0 85 55 56 be 2e 47 56 3d ad 58 c1 3d 4f 86 69 3d
       -0.2093106 0.052313976 0.09440742 0.057012852
0003b0 97 d9 d0 bd a8 9d 11 3e 97 be 18 3e 5d dc b6 bd
       -0.10197752 0.14220297 0.14916454 -0.0892875
0003c0 5e 73 51 be 83 f0 e4 3d 1f fb 98 3c 7b a5 52 bd
       -0.20454165 0.111786865 0.018674431 -0.051427346
0003d0 58 dc e1 3d 55 a4 1a bd 7d e9 11 3d 1c 17 7f 3d
       0.11028355 -0.037754375 0.035623062 0.0622779
0003e0 0a e3 8b 3d 81 54 6b 3e 75 67 6a be 18 d1 a2 be
       0.06830414 0.22981454 -0.22891028 -0.3180015
0003f0 7d 80 cf 3d 13 07 af 3c 3c 2d d8 3d 01 b7 69 bd
       0.10131929 0.021365678 0.10555503 -0.05705929

recurrent._update.weights_pool f4 [3, 2, 150, 50]
000000 c3 db 9d 3d 0a 10 2d bd db 33 c2 bd ce 29 15 3d
       0.07707932 -0.042251624 -0.09482547 0.03641682
000010 29 e5 0a 3e 0b b6 c3 3d e3 29 b2 3c e9 e8 03 3e
       0.1356398 0.09556206 0.021748489 0.12881817
000020 b9 42 8e bd f8 9e d0 bd e0 86 36 bd cc 92 0b be
       -0.0694632 -0.10186571 -0.04456222 -0.13630217
000030 35 20 c0 bd be eb 61 3d 38 f6 93 bd e8 af d0 3c
       -0.09381143 0.055156462 -0.07224697 0.025474504
000040 ce 63 1d 3c d4 a5 0c 3e 77 f2 46 be 41 d7 e3 bd
       0.009606315 0.13735133 -0.1942843 -0.11125041
000050 d9 0e 49 be 67 6a ea 3d 44 01 1f bb 11 40 55 bc
       -0.1963457 0.11446076 -0.002426223 -0.013015763
000060 b7 93 59 3e 2e 2c cf 3d 12 35 f9 bd 55 74 30 3d
       0.21247755 0.101158485 -0.121683255 0.043079693
000070 a8 5d 4d 3d 68 b7 e0 bd d3 80 7d bd b9 6f 0e 3e
       0.050138146 -0.10972482 -0.061890434 0.13909806
000080 da 90 2d 3d 76 32 d7 bc 66 55 2e be d3 f5 66 3c
       0.04237447 -0.026269179 -0.17024764 0.014096695
000090 ba 3b fe 3d 4e fe 9b bc 64 02 01 3d 86 b2 bf bd
       0.12413736 -0.01904216 0.03149642 -0.093602225
0000a0 c0 44 a1 bd 39 24 70 bc c5 aa 1e be 25 c1 53 be
       -0.07874441 -0.014657074 -0.15494831 -0.20679148
0000b0 24 d0 9b bc 36 98 b5 bd af 21 64 3d a3 82 95 3d
       -0.019020148 -0.088669226 0.055696186 0.073003076
0000c0 cd bb f2 bc f0 30 fa bd 8a 4e d5 bd 45 b6 08 be
       -0.029630566 -0.12216365 -0.10415371 -0.1335078
0000d0 2a 65 88 bd 71 09 0d bd 4a 18 33 3e 5c c1 55 bd
       -0.066599205 -0.034432832 0.17489734 -0.052186355
0000e0 d6 4c ee bd 18 45 3b 3e 5e f8 8d bd 0d 88 9a 3c
       -0.11635749 0.18288076 -0.06932138 0.018863702
0000f0 6a 0e 70 3d 49 c4 10 3d 84 48 c4 3d ec 6c 1b 3e
       0.058607496 0.035343442 0.09584144 0.15178269
000100 c4 86 0a be d5 13 01 be 99 79 c9 bd 8b eb 05 be
       -0.13527972 -0.12605222 -0.09837646 -0.13078134
000110 e4 8e 71 3c e1 74 eb bd 28 9f 96 bd cb 2a 38 be
       0.01474354 -0.11496902 -0.073545754 -0.17985074
000120 d8 79 d5 3c 85 a9 df bd e1 cb 13 3e 85 99 32 3d
       0.026059076 -0.10921005 0.14433242 0.04360344
000130 25 c1 c6 3c ba d6 a2 bd 72 47 22 be 3e 65 23 bd
       0.02426202 -0.07951112 -0.15847567 -0.039891474
000140 c8 82 e0 bc 7a 2c ac 3d e3 5a 75 3d 56 75 4a 3d
       -0.027406111 0.08406921 0.05990113 0.049428307
000150 91 02 4f be 7f e4 8b 3d 80 1b 5e ba 13 87 09 3e
       -0.20215823 0.068306915 -0.0008472726 0.13430433
000160 b3 40 d3 bb d8 df 22 3e d8 3e 7c bc ba b8 11 3e
       -0.0064469217 0.15905702 -0.0153958425 0.14230624
000170 28 cc 0b 3c 89 78 27 bd 55 97 30 be 15 4a a8 3d
       0.008532561 -0.040886436 -0.17245229 0.08217255
000180 a0 38 1d 3e e1 28 39 bd 95 d0 a8 3d 06 ec 63 3d
       0.15353632 -0.045205 0.08242909 0.05564501
000190 05 1b e7 3d 09 95 15 3e 68 2c 61 bd 37 3a 1c 3e
       0.112844504 0.14607634 -0.05497399 0.15256582
0001a0 59 fc a5 3c 9e 2f 33 be 14 65 0b 3e 39 36 82 ba
       0.02026193 -0.17498633 0.13612777 -0.0009934373
0001b0 ab 18 d4 3d f0 5a 77 bd 27 39 8b bd 1c 75 0b 3e
       0.103562675 -0.06038946 -0.0679801 0.13618892
0001c0 66 87 3e bd e7 41 db bd 7e bd 24 3e ef f0 08 be
       -0.046515845 -0.10705929 0.1608791 -0.13373159
0001d0 35 52 82 3d a3 0a 88 bd bb c4 b3 3c 87 3a 46 ba
       0.06363336 -0.06642654 0.021944394 -0.0007561822
0001e0 5c 26 24 be 62 57 91 bd 6e c4 e0 3d 44 65 e0 bb
       -0.16030258 -0.07096745 0.10974966 -0.0068480093
0001f0 e2 43 6c bd ae 81 3a be d9 1d ef bd 1b 37 d6 bd
       -0.057681926 -0.18213531 -0.11675615 -0.10459729
000200 7a 9f 45 b9 e9 0e 37 be c2 3f 6c 3c 7f db df 3c
       -0.00018846794 -0.17876782 0.014419498 0.027326344
000210 ce 0e e7 bd 43 73 1d 3d 5f 30 5c bc fd fe cd 3d
       -0.11282121 0.03844 -0.013439267 0.10058401
000220 77 0c fc bd 3c 86 36 3e c1 58 b1 bc 70 f3 be bd
       -0.12307065 0.17824644 -0.021648766 -0.09323776
000230 49 66 11 be 83 4a d9 bd f2 a3 6e bd 30 fb 8a 3c
       -0.14199175 -0.10609915 -0.05826182 0.016965479
000240 f8 bc 6a bd a6 18 2d be d7 c0 08 3e 7f 0a c8 3d
       -0.05730912 -0.16903934 0.13354813 0.09767627
000250 cd 9c c3 3d f4 8e 96 bd af 2f dc bd 8e e8 f2 bd
       0.09551392 -0.07351485 -0.107512824 -0.118607625
000260 b6 c4 25 bd 46 56 da bd 6d 62 b3 3d a2 52 c7 bc
       -0.0404708 -0.106609866 0.087590076 -0.024331395
000270 cd 80 ac bd 8b fa d7 bd 92 72 f7 bd 53 3f 89 3d
       -0.08423004 -0.10545834 -0.120823994 0.06701531
000280 1c 36 e9 bd 50 95 97 bc ba 76 da 3b 51 b5 13 3e
       -0.11387274 -0.018503815 0.0066669853 0.14424635
000290 c2 79 15 3e 1a e9 cd 3d 78 f8 0f bd d4 54 0e be
       0.14597228 0.10054226 -0.035149068 -0.13899547
0002a0 00 a7 8b 3c 8f 77 d0 bd 4f 7d ee 3c 3b 68 39 be
       0.017047405 -0.10179054 0.029112486 -0.18106167
0002b0 80 85 49 3e 49 f4 f7 bd 78 5a bf bd 75 e1 c8 3d
       0.19679832 -0.121071406 -0.093434274 0.098086275
0002c0 95 f3 de 3d b4 f4 13 3e 0c 7f e4 bd 43 52 0b 3e
       0.10886303 0.14448816 -0.11157045 0.13605599
0002d0 a6 d6 93 3d 5b 63 2d bd 93 fe 0a be 33 f4 87 3d
       0.07218675 -0.04233108 -0.13573675 0.06638374
0002e0 43 19 a3 3d c9 06 5d 3d 73 30 4d 3c 59 df 13 3d
       0.07963803 0.05396155 0.012523758 0.036101673
0002f0 7d 55 3b be ae 49 08 be 67 e3 82 bc 25 7d c0 bd
       -0.1829433 -0.13309357 -0.015977575 -0.093988694
000300 a9 b1 2a bd ab d5 5c be bc 19 9e bd 05 5c 24 bd
       -0.041673336 -0.21565883 -0.07719752 -0.04012682
000310 41 80 3a bc b5 96 4c be d3 ac 8b bd 5d 4f 17 3e
       -0.011383117 -0.19979365 -0.06820073 0.14776368
000320 48 44 44 bd 40 b5 cb 3d d7 28 10 3e 3e 1d 83 bd
       -0.04791668 0.0994668 0.14078079 -0.06402062
000330 c5 3c 68 3d 60 f9 5f bd b1 5c 9b 3d 1c f5 1c bb
       0.05669858 -0.054681182 0.07586039 -0.0023949808
000340 a9 ae e3 bc e9 e1 10 be 7b e3 90 3d 00 67 04 be
       -0.027793245 -0.14148678 0.070746385 -0.12929916
000350 4f 73 31 be 79 e1 1b 3e 9b f0 08 3d 1a ff cb bd
       -0.17329143 0.1522273 0.033432584 -0.09960766
000360 e6 79 c6 bd 05 67 ea bd ee b3 90 bd 2b f2 01 3e
       -0.09691219 -0.11445431 -0.07065569 0.12690036
000370 dd 4c 07 bd d2 28 71 bd 94 28 b1 bc 20 9f c1 3d
       -0.033032287 -0.05887682 -0.021625794 0.09454179
000380 bc 42 0d bd b4 6f 3b bd 53 ad 14 3e 0e db d3 bd
       -0.03448747 -0.045760825 0.14519243 -0.10344516
000390 8b 93 b8 bd f8 da 3d 3d 36 c7 50 3d 8e 26 c8 3d
       -0.090125166 0.046351403 0.050971232 0.09772979
0003a0 6e ea 97 3d 81 33 89 3b a2 4b 29 be 9a ed 4d 3c
       0.07417761 0.004187048 -0.16532758 0.012568856
0003b0 59 76 9d bd 22 30 25 bc 35 5c 30 be 0e ba 18 be
       -0.07688589 -0.010082277 -0.17222674 -0.14914724
0003c0 f1 e2 85 3d 2c 20 fa bd 14 26 6a 3d 54 77 51 be
       0.06537426 -0.122131675 0.05716522 -0.20455676
0003d0 4e 5f a2 3b 79 65 4b bd 56 17 ab bd ae 67 3c be
       0.004955209 -0.04965732 -0.0835406 -0.18398926
0003e0 ff f3 1e 3e 5a ff b2 3c 51 02 8c 3d 00 75 01 3e
       0.15522765 0.021850277 0.06836379 0.12642288
0003f0 f2 0d 3b 3c 43 e7 35 3e bd e4 23 3e 74 67 23 3e
       0.011416899 0.17764 0.16005225 0.15957433

recurrent._update.bias_pool f4 [3, 50]
000000 80 7a 88 3e 10 32 76 3d 43 84 8b bc 48 76 e8 bd
       0.2665596 0.060106337 -0.01703084 -0.11350685
000010 c8 2e 6b 3c b7 a3 30 be f1 56 99 3d 82 6a 8d bc
       0.014354415 -0.17249952 0.07487286 -0.017262701
000020 0f aa 4d be 42 ca c1 3d 59 9f 2c 3e 22 99 39 be
       -0.20084403 0.09462406 0.16857661 -0.18124822
000030 7a e2 c3 bc f8 86 18 3d 9a 60 67 3c e2 b6 a6 3d
       -0.023911703 0.03723809 0.014122153 0.08140351
000040 33 79 81 bc d2 e9 1b be 4c dd ff bc af 9d d8 3d
       -0.015804863 -0.15225914 -0.031233452 0.10576951
000050 86 78 b6 3d 41 32 04 bc 63 5c 23 3e 28 60 10 be
       0.08909707 -0.008068622 0.15953211 -0.1409918
000060 ed 30 7d 3d 12 7c 3b bd d6 78 5f bd fa cd 2b 3e
       0.061814237 -0.04577262 -0.054558598 0.16777793
000070 96 fb d9 bd 78 3a 93 3d 1a ba c7 3c 51 23 29 3c
       -0.10643689 0.071888864 0.024380732 0.0103233615
000080 22 cb f2 bd 2f 91 00 be 48 cc 44 be b2 67 b7 bb
       -0.11855151 -0.12555383 -0.19218552 -0.0055970782
000090 91 71 9c 3d f1 25 45 3d 40 e9 0f 3e 3a 35 9e 3c
       0.076388486 0.048131887 0.14053822 0.01931249
0000a0 fe 60 82 be 45 90 31 bd 3e 94 bb bd f9 23 e8 bc
       -0.25464624 -0.043350477 -0.09159134 -0.028337466
0000b0 d9 59 64 3d 87 a7 90 bd 68 bc 13 3e e8 cc c8 bd
       0.055749748 -0.07063203 0.1442734 -0.09804708
0000c0 78 84 05 be bf 7b 47 3d e6 71 8d 3d 9f 71 8c bc
       -0.13038814 0.048701998 0.0690649 -0.017144023
0000d0 67 57 d4 3a ce 68 8e bd ac 0f d0 3d 17 88 7e be
       0.0016200364 -0.06953584 0.10159239 -0.24856602
0000e0 8e 06 10 be 3c c6 4b 3d 10 34 3e be 77 31 d8 bd
       -0.14065 0.049749598 -0.18574548 -0.1055631
0000f0 08 18 bd 3d 66 e5 70 3c 8d ec 09 bd d1 7f aa bd
       0.09233099 0.01470313 -0.033672858 -0.0832516
000100 d5 fc 65 3d c6 dd 42 bd 86 23 2b 3d 22 09 d3 bd
       0.056149323 -0.04757478 0.041781925 -0.10304476
000110 ab 60 98 bd 52 f2 dd 3c 3e 08 d5 3c e7 36 29 bc
       -0.07440313 0.027093086 0.026004907 -0.010328031
000120 fe 8f c8 3c 83 42 04 be 2e 57 01 3d 3e 0c b4 bc
       0.024482723 -0.12915997 0.03157728 -0.021978494
000130 00 64 44 3e 2a 37 77 3e 32 5c b0 bd 75 a3 85 bd
       0.19178772 0.24142137 -0.08611335 -0.065253176
000140 c5 70 4e 3b 8d db 5f 3c 5b de 44 be 0b a4 54 3e
       0.0031500321 0.013663185 -0.19225447 0.20765702
000150 e3 a1 55 be 10 23 2a 3d b6 d8 3a 3c ff 31 8e 3d
       -0.20862536 0.041537344 0.011404207 0.0694313
000160 40 a4 13 3d 9a e7 57 3d 03 a7 38 be ac d9 db bd
       0.036045313 0.052711107 -0.1803246 -0.10734877
000170 02 a5 38 be 3b 8a 77 bd f1 45 fb 3b 6f 96 cd bd
       -0.18031695 -0.06043456 0.00766825 -0.100384586
000180 d3 08 ee bd af 41 54 3e ac a5 15 be 25 2a ae 3d
       -0.11622777 0.20728181 -0.1461398 0.08504132
000190 88 bd 55 be 3b ce 3d bd 93 e2 d5 bd ad eb b8 3d
       -0.20873082 -0.046339255 -0.10443606 0.090293266
0001a0 59 d7 7d bd 59 44 ef 3d 48 70 fa bd cf ae 75 bd
       -0.06197295 0.11682958 -0.12228447 -0.059981164
0001b0 1e 9a 5c bd 6d d9 b4 bd 9a 64 f0 bd 51 63 11 3e
       -0.053857915 -0.08830533 -0.11737938 0.14198042
0001c0 61 14 22 3d 04 0e 22 be c9 e1 0e be 82 de 40 be
       0.039570216 -0.15825659 -0.13953318 -0.1883488
0001d0 11 33 96 bc 47 2f 1a 3e 83 20 11 3d c6 5a dc bc
       -0.018334897 0.15057097 0.035431396 -0.026898753
0001e0 9c c2 21 be ef 5c fa bd 50 12 ca bb 60 a1 22 be
       -0.15796894 -0.12224757 -0.006166734 -0.15881872
0001f0 50 ff 26 3d eb 9c 24 be 75 da 21 3e 51 78 89 be
       0.04077083 -0.16075484 0.15805991 -0.26849607
000200 1b 79 1c 3e 24 85 10 be e2 8c c2 bb f6 df 06 bc
       0.15280573 -0.14113289 -0.0059372047 -0.008232107
000210 06 6c 75 3b b7 ab 5d bd d6 72 3b 3c ca 85 04 3e
       0.003744842 -0.05411884 0.011440953 0.12941661
000220 9f a7 67 bd 2b 4d 22 bd e8 41 3a be 0c 8b 0c bb
       -0.05655634 -0.039624374 -0.18189204 -0.0021445183
000230 99 cc 69 3e b4 d7 f3 3c 7c 0e 3f 3d cd d6 74 bd
       0.22831954 0.029765941 0.046644673 -0.059775162
000240 cf 82 73 bd 13 16 7c bd 12 6f e9 bd 72 5c 6c 3d
       -0.05945092 -0.06154449 -0.11398138 0.05770535
000250 8f d4 be 3c 27 2f d6 bd
       0.023294715 -0.10458212

linear.weight f4 [20, 50]
000000 36 c8 f7 3d e0 25 74 3c 86 27 08 3e 4e d3 af 3d
       0.12098734 0.014901608 0.13296327 0.08585225
000010 01 84 90 3d 47 a2 ba 3d 45 62 a2 3d 8d 69 c4 3d
       0.07056428 0.09112983 0.079289 0.09590445
000020 63 51 1c 3e 34 df 8b 3d 8f fc d2 3c 53 d7 ac 3d
       0.15265422 0.06829682 0.025755195 0.08439507
000030 14 78 02 3e 4e 7b 0b 3e f6 b2 f0 3d 1a 28 e4 3d
       0.12741119 0.13621256 0.11752884 0.11140461
000040 e0 9b e4 3d ee 79 39 3d d4 87 c9 3c 78 fa d3 3d
       0.11162543 0.045282297 0.0246009 0.103505075
000050 b0 b1 ca 3d d6 71 88 3d d6 a9 96 bc 8d d2 d5 3d
       0.098971725 0.066623375 -0.018391531 0.1044055
000060 da a1 96 3d 63 8f 52 3c 9d e3 bd 3d cc 85 f9 3d
       0.073550895 0.012851569 0.092719294 0.12183723
000070 eb 6c 2f bd 60 3f fe 3c 3d b8 3b 3e d3 95 ed 3c
       -0.04282848 0.031036079 0.18332 0.029002106
000080 f9 04 3b 3d 44 93 a5 3d 3e 40 b2 3d ba e2 69 3d
       0.04565904 0.08084729 0.087036595 0.05710099
000090 23 46 7c bc e9 12 63 3d fb ae aa 3d 43 54 c2 3d
       -0.015397581 0.055437956 0.08334156 0.09488728
0000a0 99 e9 ec 3d 2f b3 c4 3d 2e 38 99 3d a1 4b 05 bc
       0.11567993 0.09604489 0.074814186 -0.008135707
0000b0 db 55 11 3e dd 33 07 3e be af 85 3d 25 71 03 3e
       0.14192908 0.13203378 0.06527661 0.1283613
0000c0 f6 ce 68 3d ee f8 43 3d b1 12 04 3e 0c 4a 6d 3c
       0.056838 0.04784482 0.12897755 0.014482986
0000d0 ad 6f 36 3e ab 54 ab 3d 2e f0 74 3d 95 ca b2 3d
       0.17816038 0.083657585 0.059799366 0.08730046
0000e0 e1 c1 da 3d a7 a9 b8 3d f6 ca d7 3d b1 78 3f 3d
       0.10681511 0.090167336 0.105367586 0.04674596
0000f0 45 b5 3f 3d ed 9c f2 3d 98 14 ca 3d 80 8a 03 3e
       0.04680373 0.118463375 0.09867209 0.12845802
000100 89 5d f8 3c da 5f 05 3e 7b 24 1f 3e 21 f4 59 3d
       0.030318039 0.13024846 0.1554126 0.053211335
000110 1c 28 5b bc f5 11 c9 3d 0b 7c 89 3d 7d 78 58 3d
       -0.013376262 0.09817878 0.067131124 0.05284928
000120 25 a2 a2 bc e5 31 d0 3d c0 98 88 3d bc 63 92 3d
       -0.019852707 0.101657666 0.0666976 0.07147929
000130 98 df cb 3d 45 a0 fc 3d 19 5b 34 bd 2b 87 a5 3c
       0.099547565 0.123352565 -0.04403219 0.020206055
000140 c8 9c 70 3c 04 38 08 3d 28 f7 00 3d 6f 48 7a 3d
       0.014685817 0.033256546 0.031485707 0.061104234
000150 df d7 d1 3d 9b ec 52 3d 23 7c 3d 3e dd 08 4e 3d
       0.10246252 0.051495176 0.18504386 0.05030142
000160 6c e3 b2 3d 12 bb 44 3d 16 5e da 3d 65 52 2d 3e
       0.087347835 0.048029967 0.10662477 0.16925962
000170 24 e0 ac 3d 1e be 5c bc 2e 9e 1a 3e 74 46 09 3e
       0.08441189 -0.013473062 0.15099403 0.13405782
000180 e7 ef 93 3d 72 8e 09 3e 1c 33 81 3d 54 17 23 3d
       0.07223492 0.13433245 0.063085765 0.03981717
000190 ab a4 01 3e d0 ad de 3c 17 25 e6 3c 44 8b ce 3d
       0.12660472 0.02718249 0.028093858 0.100851566
0001a0 81 ea b0 3d aa 36 b9 3d 0e 40 81 3d e4 78 d3 3d
       0.08638478 0.090436295 0.063110456 0.103257924
0001b0 02 68 19 3e 33 2f 95 3d 9a a0 37 3c 3f 9e 3d 3d
       0.14981082 0.07284393 0.011207724 0.046293493
0001c0 8e 14 7d 3d e6 ca 08 3e f2 3f d0 3d 15 e6 a0 3d
       0.06178718 0.1335865 0.101684466 0.07856385
0001d0 ec 76 cb 3d a3 89 1f 3d e9 e4 b3 3d 38 1c c0 3d
       0.09934792 0.03894962 0.087838955 0.09380382
0001e0 60 63 e4 3d 79 0a f3 bc 98 57 9e bc 35 70 ec 3d
       0.11151767 -0.02966808 -0.019328877 0.11544839
0001f0 ba 4f c1 3d 5a d3 00 3e 18 c5 b1 3d 14 ab ed 3d
       0.09439035 0.12580624 0.08680171 0.11604896
000200 4a 2a 30 bd e7 80 94 3d 5f ec 40 3e 96 27 cf 3d
       -0.04300908 0.07251149 0.18840168 0.10114972
000210 c2 57 08 3d 06 ae a4 3d a9 35 a4 3d bf ac 8b 3d
       0.033286817 0.08041005 0.08018047 0.06820058
000220 06 0d 43 3b 72 aa 64 3d 1e f4 96 3d 23 f4 c0 3d
       0.0029762401 0.05582661 0.073707804 0.094215654
000230 f7 5a f6 3d 5f 35 bc 3d 1d cd b6 3d 97 71 a0 bc
       0.12029069 0.09189867 0.08925841 -0.019585414
000240 e5 7b 22 3e 8b eb 04 3e 31 c4 7e 3d 08 79 07 3e
       0.15867575 0.12980478 0.06219882 0.13229764
000250 13 77 71 3d ce 24 92 3d 9e a2 f4 3d ca 69 d5 3c
       0.05895145 0.07135926 0.11945079 0.02605142
000260 9f 9e 0b 3e 38 b7 5e 3d 97 47 a7 3d 05 b2 aa 3d
       0.13634728 0.05437395 0.081679516 0.08334736
000270 29 51 f3 3d d0 64 a0 3d 92 f4 b2 3d d4 f7 72 3d
       0.118807144 0.078317285 0.08738054 0.05931838
000280 c8 57 5d 3d 8e 95 d1 3d 53 c3 07 3e 46 d6 fa 3d
       0.054038793 0.102336034 0.13258104 0.12247901
000290 06 01 8b 3d c9 5b 02 3e eb c6 0d 3e 68 7e 46 3d
       0.067873046 0.12730326 0.13845412 0.048460394
0002a0 d9 91 87 3d 9c 51 dc 3d 0f ef 8a 3d 76 0c 1c 3d
       0.06619615 0.10757753 0.06783878 0.03809782
0002b0 78 33 9c bc e4 fa e1 3d 74 5b 44 3d 8a 45 8f 3d
       -0.019067511 0.11034182 0.04793878 0.069956854
0002c0 45 a8 d7 3d 55 06 ec 3d 0d 9d 46 bd 08 0c e6 3c
       0.10530142 0.11524645 -0.04848962 0.028081909
0002d0 68 35 ff 3d bb 3c 09 3d 6b 7e 0e 3d f1 38 6b 3d
       0.12461358 0.033505183 0.03478853 0.05742735
0002e0 3b c2 df 3d 42 10 6d 3d e8 ab bd 3d 93 7c 7c 3d
       0.109257184 0.057876833 0.09261304 0.06164224
0002f0 b7 af a9 3d 5e 5e c7 3d 83 b2 eb 3d 8e 02 29 3b
       0.08285468 0.09734796 0.11508658 0.0025788876
000300 d9 78 a2 3d 4c 4c a7 bc cc 6e 53 3e a8 79 0b 3e
       0.07933206 -0.020422123 0.20647734 0.13620627
000310 ea ee 72 3d a3 58 04 3e 73 c7 ac 3d aa c2 04 3d
       0.059309877 0.12924437 0.084364794 0.03241221
000320 22 df f0 3d 14 0a 1b 3d b5 de 9d bb a4 7d d3 3d
       0.11761309 0.037851408 -0.0048178085 0.103266984
000330 cc ad b5 3d 98 54 a7 3d 16 cb 82 3d 90 66 e2 3d
       0.0887104 0.08170432 0.06386392 0.110547185
000340 06 ab 2b 3e d2 6f 92 3d b9 89 cf 3c 94 82 39 3d
       0.16764459 0.07150234 0.025334226 0.045290545
000350 bf ea ae 3d 79 09 e3 3d 52 64 2f 3e 09 98 98 3d
       0.08540868 0.11085791 0.17128113 0.074508734
000360 64 34 95 3d 37 cf 18 3d 71 4e 5c bc 46 e2 c4 3d
       0.07285383 0.03730699 -0.013446436 0.09613471
000370 76 b8 de 3d 95 22 1d 3c e4 c8 95 bc 39 89 f5 3d
       0.10875027 0.0095907645 -0.018284269 0.11989064
000380 b8 7f cb 3d c6 f3 70 3d 39 2c b8 3d aa 77 cf 3d
       0.0993647 0.05882623 0.0899281 0.10130246
000390 8b 52 2c bd d2 0e 93 3d c2 a6 60 3e ec ee 2a 3d
       -0.042070907 0.07180561 0.21938613 0.04173176
0003a0 26 4f c9 3c f5 61 8e 3d 5a a0 9f 3d a2 c2 b2 3d
       0.024573874 0.069522776 0.077942565 0.087285295
0003b0 8a 85 47 bb 74 84 9a 3d e6 52 a6 3d 51 9f e6 3d
       -0.0030444586 0.07544795 0.0812128 0.11260856
0003c0 a1 1c f2 3d 54 dd 54 3e 4d 67 cd 3d 66 c3 92 bc
       0.11821867 0.20787555 0.10029469 -0.017915439
0003d0 e1 dc 00 3e 38 6e fa 3d 92 29 7d 3d 72 fc f5 3d
       0.12584259 0.12228054 0.061807223 0.12011041
0003e0 70 25 90 3d 00 7a 83 3d a4 d0 d4 3d c9 07 0f 3d
       0.07038391 0.06419754 0.103913575 0.034919534
0003f0 18 e8 25 3d 4d 3b 97 3d a3 c9 a2 3d 38 92 ad 3d
       0.040504545 0.073843576 0.079486154 0.08475155

linear.bias f4 [20]
000000 b0 72 8d bb bd 4e 00 3c 17 a2 95 3b e1 fb 95 3c
       -0.0043166503 0.007831273 0.0045664418 0.018308582
000010 55 b5 06 3b 19 01 08 3c 3a f7 69 3c 75 15 21 3c
       0.002055486 0.008301043 0.014280135 0.009831776
000020 47 e0 a3 3c 4d 2c fa 3b 02 0d 80 3c d3 6a b3 3c
       0.020004405 0.0076346756 0.015631203 0.021901524
000030 7d 68 a7 3c 3c 15 4e 3c 15 a2 03 3d 5d 9a 81 3c
       0.020435566 0.012578305 0.032136995 0.015820676
000040 e2 e9 dd 3c 0a 36 79 3c 97 0f 6c 3c 27 e4 1b 3d
       0.027089063 0.015210638 0.014408014 0.03805938
