TFM/regresion/results/bus_trip/EvolveGCN.pt (torch, 293466 bytes, 7 tensors)

recurrent.initial_weight f4 [100, 100]
0	0x3e1ce0b0	0.15320086
1	0xbe18c14e	-0.1491749
2	0xbd1111e6	-0.03541746
3	0x3cdeb9f1	0.027188273
4	0x3d9abe7e	0.07555865
5	0xbd60d481	-0.05489016
6	0xbd7f076d	-0.06226294
7	0xbe131368	-0.14362872
8	0xbe0745fb	-0.13210289
9	0x3d3056e5	0.04305162
10	0xbde5cdd7	-0.112209015
11	0xbe309ebb	-0.17248051
12	0xbe1b7ab3	-0.15183525
13	0xbdf5019e	-0.11963199
14	0xbdc47cd5	-0.09594122
15	0x3d4e6c1d	0.050396074
16	0xbe2f5e6a	-0.1712586
17	0x3d5a3fbc	0.053283438
18	0xbe020498	-0.12697065
19	0xbd8ab420	-0.06772637
20	0x3de0be84	0.10973838
21	0x3ce8f823	0.028438633
22	0xba66bf3f	-0.00088023016
23	0x3dd98f9e	0.10623096
24	0xbd054cee	-0.03254407
25	0x3cd47003	0.025932318
26	0x3d9d1425	0.07669858
27	0x3d95b12e	0.07309185
28	0xbe250738	-0.16116035
29	0xbe048fac	-0.12945431
30	0xbdb4895f	-0.08815264
31	0xbd4dcbf1	-0.05024332
32	0xbdeb7de1	-0.11498619
33	0xbde78f2e	-0.11306606
34	0xbd75866a	-0.05994264
35	0xbe0b4c2a	-0.13603273
36	0xbd326482	-0.043552883
37	0x3d591a1c	0.053003415
38	0xbd958799	-0.07301254
39	0x3df46b4c	0.11934528
40	0xbd8e5b3a	-0.06950994
41	0x3df00754	0.11720148
42	0xbddc4fa8	-0.10757381
43	0x3db7e767	0.08979683
44	0xbda68cdb	-0.08132335
45	0x3d3dc0dc	0.046326503
46	0x3d7d6001	0.061859135
47	0x3d11ce84	0.03559734
48	0x3e1ee4c6	0.15516958
49	0x3daa9399	0.08328933
50	0x3e038240	0.12842655
51	0x3deb493f	0.1148858
52	0x3daed35f	0.085364096
53	0xbc4d90d0	-0.012546733
54	0x3df87670	0.12131965
55	0xbdd424cc	-0.10358581
56	0xbc819891	-0.01581982
57	0x3dc2e2c0	0.095159054
58	0xbc83e85d	-0.01610201
59	0x3e2162e5	0.15760382
60	0x3e1b194f	0.15146373
61	0x3dc8d97f	0.09807109
62	0x3e11587e	0.14193913
63	0xbdb0a783	-0.086257
64	0xbdc062ee	-0.09393869
65	0xbd35d6c0	-0.044394255
66	0x3e0974a6	0.13423404
67	0xbcaa037e	-0.020753618
68	0xbd77270f	-0.060339984
69	0x3d2a599e	0.04158937
70	0xbd7955fd	-0.06087302
71	0xbd9026de	-0.07038663
72	0x3db8d7f4	0.09025565
73	0x3d08e5c6	0.033422254
74	0x3c3294ca	0.010899732
75	0xbdbc7af6	-0.092031404
76	0xbe1ece18	-0.15508306
77	0xbdf78c6d	-0.12087331
78	0x3db607ae	0.088881835
79	0xbcec5e73	-0.02885363
80	0x3db0bfc0	0.086303234
81	0x3e08fad0	0.13376927
82	0xbd8fdf7c	-0.07025048
83	0xbc9a14dc	-0.018808775
84	0x3d03deb0	0.032194793
85	0x3d2c507a	0.042068936
86	0x3e229a86	0.15879259
87	0xbe2c7a7a	-0.16843596
88	0x3df3cbd4	0.119041115
89	0xbd559b1e	-0.052149884
90	0x3db02b66	0.086020276
91	0x3d987d89	0.07445819
92	0x3e04da6f	0.12973951
93	0x3d8edc17	0.069755726
94	0x3e12cfcc	0.1433708
95	0x3caa597d	0.020794624
96	0x3ddfe30b	0.10931977
97	0xbe0551e5	-0.13019522
98	0x3e166d3b	0.14690106
99	0xbd89608b	-0.06707867
100	0x3e0c95fe	0.13729092
101	0xbd24d240	-0.040239573
102	0xbcbfa5e6	-0.023394536
103	0x3e09cd77	0.13457285
104	0x3dc2c7ea	0.09510787
105	0xbc477ea5	-0.0121761905
106	0x3d1fa067	0.03897133
107	0xbe241510	-0.1602366
108	0xbd82cb02	-0.06386377
109	0x3d4ec45c	0.05048023
110	0x3e1e0310	0.15430856
111	0x3780b0fe	1.5341207e-05
112	0x3cc1ad36	0.023642164
113	0x3d850bd3	0.06496396
114	0xbe141fb9	-0.14465226
115	0xbe27d60d	-0.16390248
116	0x3d52be70	0.051451147
117	0xbdb72bc4	-0.089438945
118	0x3e28831b	0.16456263
119	0x3d054cc2	0.032543905
120	0xbe086744	-0.13320643
121	0x3d2a9abe	0.04165148
122	0xbd892ba7	-0.06697779
123	0x3bd7e4e0	0.0065885633
124	0xbd392450	-0.045200646
125	0x3e21ae4b	0.15789144
126	0x3dd1dc44	0.102470905
127	0x3e07d7bd	0.13265891
128	0xbd1ee568	-0.038792998
129	0xbdb90906	-0.09034924
130	0x3d7ecbbc	0.062206015
131	0x3da8510d	0.08218584
132	0xbe051e1e	-0.1299977
133	0x3cc65775	0.024211625
134	0xbcce4441	-0.02517903
135	0x3da3a257	0.07989948
136	0x3df9ab96	0.121909305
137	0xbe21ced9	-0.15801562
138	0xbe1ea335	-0.15491946
139	0x3c458e10	0.012057796
140	0x3de01de1	0.10943199
141	0xbaa77d43	-0.001277842
142	0xbe2a99db	-0.16660254
143	0x3e0e1fee	0.13879368
144	0xbe254589	-0.16139807
145	0xbe1b0bea	-0.15141264
146	0x3da5209b	0.080628596
147	0xbe25b803	-0.16183476
148	0xbd97ec21	-0.07418085
149	0xbcd9c22f	-0.026581852
150	0xbe2d2ee4	-0.16912419
151	0xbd945969	-0.07243616
152	0x3e08f376	0.13374123
153	0xbde3cd32	-0.11123122
154	0xbd215347	-0.03938606
155	0x3e1820a9	0.14856209
156	0xbbe34a2b	-0.0069363317
157	0x3dea3baf	0.11437165
158	0x3d76bab8	0.060236663
159	0x3cfa466c	0.030551158
160	0x3e03a211	0.12854792
161	0x3e0e2ac3	0.138835
162	0x3cf9e051	0.03050247
163	0x3da11d59	0.07866926
164	0x3d52441c	0.051334485
165	0x3c4d9aaf	0.0125490865
166	0xbe0ccca4	-0.13749939
167	0x3e1636fc	0.14669412
168	0x3c671d36	0.0141060855
169	0x3b6a5cda	0.003576091
170	0xbd4e3133	-0.05033989
171	0x3e034a0b	0.12821214
172	0xbd90f8ef	-0.0707873
173	0x3d73df5c	0.059539184
174	0xbe0e3059	-0.1388563
175	0x3d486d52	0.04893238
176	0xbe0e96d0	-0.13924718
177	0xbe0ef47f	-0.13960455
178	0x3d0af925	0.03392901
179	0x3dbe67f2	0.0929717
180	0x3daaa54f	0.08332311
181	0x3ce524f7	0.027971728
182	0x3e2b83af	0.16749452
183	0x3b148ce8	0.0022666994
184	0xbde80f46	-0.11331038
185	0x3bb89e4c	0.005634105
186	0xbd78e6c0	-0.060766935
187	0xbdb0d9e4	-0.08635309
188	0xbe02415c	-0.12720245
189	0xbdf3a6be	-0.11897038
190	0x3d87213c	0.06598136
191	0x3d90ff7c	0.0707998
192	0xbde9e9bd	-0.11421535
193	0xbe197725	-0.14986856
194	0xbde8fc01	-0.11376191
195	0x39b38428	0.00034240005
196	0x3e2d40db	0.16919272
197	0xbe00b721	-0.12569858
198	0x3e185ca8	0.14879096
199	0xbe050eec	-0.12993973
200	0x3dad630c	0.08466157
201	0xbe2e2dac	-0.1700961
202	0x3d0f87ec	0.035041735
203	0xbcd0ea5a	-0.025502373
204	0x3e084c3c	0.13310331
205	0x3d65b07c	0.05607651
206	0xbdc38f03	-0.09548762
207	0xbe081a5c	-0.13291305
208	0x3d4bf9d8	0.049798816
209	0x3d6e28e7	0.058144476
210	0x3da1a7b2	0.078933135
211	0xbe002543	-0.12514214
212	0x3e2c57ca	0.16830364
213	0x3e244a3b	0.16043942
214	0xbe119993	-0.1421874
215	0xbc418f60	-0.011813968
216	0xbd18834e	-0.037234597
217	0xbdca76a8	-0.09885913
218	0x3dad90cf	0.08474886
219	0x3d98247c	0.07428834
220	0x3dd11717	0.10209482
221	0x3c52a6b5	0.012857129
222	0x3da8a36b	0.082342945
223	0x3df64dd9	0.12026567
224	0xbbe0c68a	-0.006859605
225	0x3df3ba51	0.119007714
226	0x3d364da2	0.04450763
227	0x3cd055d4	0.025431551
228	0xbd3ed6da	-0.046591617
229	0x3ccfe116	0.025375884
230	0x3e10d5a2	0.14143994
231	0xbd5bba25	-0.053644318
232	0xbdc8add1	-0.09798778
233	0x3d6201f2	0.055177636
234	0xbdbea54e	-0.09308873
235	0xbe0b917f	-0.13629721
236	0x3e061cf0	0.13096976
237	0xbda78303	-0.081792854
238	0xbd9d125c	-0.076695174
239	0xbe2e50df	-0.17023037
240	0x3e1e08b5	0.15433009
241	0x3ddd3887	0.10801797
242	0x3e0fe1cb	0.14050977
243	0xbdc1fd11	-0.09472097
244	0x3e126dc6	0.14299688
245	0x3d99bb5b	0.07506438
246	0x3be716b7	0.0070522684
247	0x3e0f7a54	0.14011508
248	0xbe0669c9	-0.13126291
249	0xbdd122ea	-0.102117375
250	0xbc97998b	-0.018505832
251	0x3d6f6345	0.05844428
252	0x3d638e69	0.055555735
253	0x3df6a8d0	0.12043917
254	0x3d267683	0.040640365
255	0xbd9c00e4	-0.076173574

recurrent.recurrent_layer.weight_ih_l0 f4 [300, 100]
0	0xbcb84116	-0.022491973
1	0xbd54bc02	-0.05193711
2	0xbcfd2096	-0.030899327
3	0xbc6da980	-0.014505744
4	0xbd31d801	-0.043418888
5	0xbbab39d5	-0.0052254
6	0xbe1a35b4	-0.15059549
7	0x3d85ee6f	0.06539618
8	0x3dfba15d	0.12286637
9	0xbc4e4aeb	-0.012591104
10	0xbd6a2092	-0.057159968
11	0x3de4d1f0	0.11172855
12	0x3d20acff	0.039227482
13	0xbdfeee23	-0.12447765
14	0x3d808e38	0.06277126
15	0xbc2697ac	-0.010167997
16	0x3c583b16	0.013197681
17	0x3846bef2	4.738471e-05
18	0x3d9aea03	0.075641654
19	0x3d4cd951	0.050011937
20	0x3e1c0520	0.1523633
21	0x3c9ad34f	0.018899588
22	0xbc07aa41	-0.008280338
23	0xbe24853a	-0.16066447
24	0x3d3b4b09	0.045725856
25	0xba787b93	-0.0009478863
26	0x3ce18225	0.027527878
27	0x3cf8e362	0.030381862
28	0x3c700899	0.014650487
29	0x3d0b9730	0.03407973
30	0xbdb2f206	-0.087375686
31	0x3e16d1af	0.14728425
32	0xbdd3bbc2	-0.10338546
33	0xbd9c9bc6	-0.07646899
34	0x3d2adcc7	0.041714456
35	0x3d72ecc7	0.05930784
36	0xbe116278	-0.14197719
37	0xbd36c6fa	-0.044623353
38	0x3cb11f7b	0.021621456
39	0x3da8abf6	0.08235924
40	0xbca16b2f	-0.01970443
41	0xbd332d87	-0.04374459
42	0xbca9cc04	-0.020727165
43	0xbd600db3	-0.054700565
44	0x3d90e0c8	0.070741236
45	0xbca0c1ad	-0.019623602
46	0x3d0ca808	0.034339935
47	0xbb695a2b	-0.0035606723
48	0x3dfa2078	0.12213224
49	0x3dabae86	0.08382897
50	0xbc876028	-0.016525343
51	0xbda1dbe0	-0.07903266
52	0xbdb5c5cb	-0.08875617
53	0x3d7defb4	0.061996177
54	0xbe026323	-0.1273313
55	0x3d21c522	0.03949464
56	0x3e02dd21	0.12779666
57	0x3d2ade4e	0.041715913
58	0x3d032a3c	0.0320227
59	0xbe2faf67	-0.17156754
60	0x3c22c792	0.009935277
61	0x3d9f29aa	0.07771619
62	0x3dd9759b	0.106181346
63	0xbd31a4dc	-0.043370113
64	0xbca4a97c	-0.020100348
65	0x3dd38092	0.10327257
66	0x3d80fff4	0.06298819
67	0xbdb0cd72	-0.086329356
68	0xbd920308	-0.071294844
69	0x3d9ff2f3	0.07810011
70	0xbdd80a6a	-0.10548861
71	0xbd2ede6a	-0.04269258
72	0xbd265f01	-0.040617947
73	0xbe20e4fb	-0.15712349
74	0xbc05ecdb	-0.0081741465
75	0xbd31de8b	-0.043425124
76	0xbdd47c06	-0.10375218
77	0xbd6a787f	-0.05724382
78	0xbd8b131a	-0.06790753
79	0xbdaae9fd	-0.08345411
80	0xbd848128	-0.06469947
81	0xbddac830	-0.10682714
82	0xbccbd53a	-0.024881948
83	0xbc2904e7	-0.01031611
84	0x3da8d7b4	0.08244267
85	0xbc0515ee	-0.008122904
86	0xbcf56078	-0.029953226
87	0xbc646ceb	-0.013941984
88	0x3ddaf563	0.10691335
89	0xbd89165f	-0.0669372
90	0x3d301b73	0.042994928
91	0xbc47cb5e	-0.012194483
92	0x3d983691	0.07432283
93	0x3d5a661a	0.053320028
94	0xbdf3dcd2	-0.119073525
95	0xbdb11c75	-0.08648006
96	0xbab27d23	-0.0013617616
97	0xbe42fa50	-0.19040799
98	0xbd8a3015	-0.06747452
99	0x3db87ce0	0.09008193
100	0x3db9683d	0.09053085
101	0x3b44b9eb	0.0030018042
102	0xbbeed9b5	-0.0072891363
103	0xbd90d22e	-0.070713386
104	0x3dab80ea	0.08374198
105	0x3cd21e3b	0.02564918
106	0x3da6b37f	0.08139705
107	0xbd948294	-0.07251468
108	0xbc2397fe	-0.009984968
109	0xbc5d911f	-0.013523369
110	0x3d17fc7a	0.037106015
111	0xbd9bff0e	-0.07617007
112	0xbd1c13c9	-0.038104806
113	0xbc8444d7	-0.016146107
114	0xbd646a8b	-0.05576567
115	0xbc70254b	-0.014657329
116	0xbdbdae76	-0.092617914
117	0xbd23dbc6	-0.040004514
118	0x3d6deb42	0.058085687
119	0x3d4be082	0.049774654
120	0x3dd01dc4	0.10161927
121	0xbdb02a2a	-0.08601792
122	0x3dbb5740	0.09147501
123	0x3d29dd37	0.041470733
124	0xbcbb6282	-0.02287412
125	0xbb307056	-0.0026922426
126	0x3cd4cfd6	0.02597801
127	0x3cbdddf7	0.02317713
128	0x3c40cf79	0.011768215
129	0xbbb07b22	-0.0053857723
130	0xbbd620f5	-0.0065346905
131	0xbc546add	-0.012964931
132	0xbd8cbd1c	-0.06872007
133	0x3db1683f	0.086624615
134	0xbd318342	-0.043338068
135	0x3d996cec	0.07491478
136	0xbda439fe	-0.08018874
137	0xbdb49c4d	-0.088188745
138	0x3c5fba0d	0.013655198
139	0xbdb62cc6	-0.088952586
140	0x3cdcf90b	0.026974222
141	0xbd81beda	-0.0633523
142	0x3d68e60e	0.056860022
143	0xbcaa4a2a	-0.020787317
144	0xbdbeb77e	-0.09312342
145	0xbdb990d2	-0.090608254
146	0x3bf806cb	0.007569169
147	0x3c448ec1	0.011996926
148	0x3cab1982	0.020886187
149	0xbce3cd0d	-0.027807737
150	0xbce8ef32	-0.02843437
151	0x3be48d68	0.0069748648
152	0xbdd6e6d7	-0.10493248
153	0x3caa9bd7	0.020826263
154	0xbbef1fa6	-0.007297474
155	0x3ca9a2cd	0.020707512
156	0xbdaee4f7	-0.08539765
157	0xbdb8b334	-0.09018555
158	0x3d073d9b	0.033017736
159	0xbb04ab81	-0.0020243826
160	0xbd8e676e	-0.069533214
161	0xbd8fa3eb	-0.07013687
162	0xbd6b540d	-0.057453204
163	0x3c3b94bb	0.011449034
164	0xbd33da05	-0.04390909
165	0x3c1c16c7	0.009526915
166	0xbd8bbebb	-0.06823488
167	0xbcfdb525	-0.030970166
168	0xbcc36240	-0.02385056
169	0x3d88db99	0.0668251
170	0xbcf9f8f2	-0.030514214
171	0xbd447fa0	-0.047973275
172	0x3d8e2ed1	0.06942523
173	0xbce07ab3	-0.027402258
174	0xbd9afc8d	-0.075677015
175	0x3d35aba9	0.04435316
176	0xbd5289cf	-0.051400956
177	0xbc87c6fb	-0.016574373
178	0xbcad81b1	-0.021180006
179	0x3d1e1e6a	0.038603224
180	0xbd36352a	-0.044484295
181	0xbd4b6bd2	-0.049663372
182	0xbd24d3d1	-0.040241066
183	0x3d3d49c1	0.046212915
184	0x3d3912cc	0.04518394
185	0x3d03852c	0.032109424
186	0xbc62928f	-0.013828888
187	0x3d48ed9d	0.04905473
188	0x3dd1e033	0.10247841
189	0xbd2abd51	-0.041684452
190	0xbdb6c87d	-0.08924959
191	0x3d22f7d5	0.039787132
192	0xbcfc6b8f	-0.030813007
193	0xbca0adc9	-0.019614117
194	0x3c876d1a	0.016531516
195	0x3dcec2ff	0.10095786
196	0xbc8298f0	-0.015942067
197	0x3d589862	0.0528797
198	0x3d5f3513	0.054493975
199	0xbd9140e9	-0.07092459
200	0x3d1cf830	0.038322628
201	0x3d5e6834	0.054298595
202	0x3c645048	0.013935156
203	0x3cec9832	0.028881166
204	0xbe020832	-0.12698439
205	0xbd6c57c8	-0.057700902
206	0x3d519c19	0.051174257
207	0xbdb08411	-0.0861894
208	0x3c2b26cc	0.010446262
209	0xbe15f42a	-0.14643922
210	0xbc70288b	-0.014658104
211	0xbcbb2bbe	-0.022848006
212	0x3d37a038	0.04483053
213	0xbc568129	-0.013092318
214	0x3c1c809c	0.009552147
215	0xbd0ec3ca	-0.034854688
216	0xbe00987c	-0.12558168
217	0xbd1b3945	-0.037896413
218	0xbd3c4f0d	-0.045973826
219	0x3d99ceed	0.07510171
220	0x3d893b0c	0.067007154
221	0x3cc66af5	0.024220923
222	0x3dc9dba8	0.09856349
223	0x3d0f1b15	0.034937937
224	0x3d50edc4	0.051008
225	0xbc9e1b27	-0.019300057
226	0x3ba5f20e	0.0050642556
227	0x3d7d8723	0.061896455
228	0xbd5699e7	-0.052392866
229	0x3d98114f	0.07425176
230	0x3c468286	0.01211608
231	0xbc2c36be	-0.010511098
232	0x3d2a87a5	0.041633267
233	0xbcb690ec	-0.022285901
234	0xbc7aee70	-0.015315637
235	0xbb0ca6b1	-0.002146166
236	0xbcf80e37	-0.030280216
237	0xbc1387f8	-0.009004585
238	0x3d276920	0.04087174
239	0x3c058084	0.008148316
240	0xbcfa0ffd	-0.030525202
241	0xbd4aac29	-0.04948059
242	0x3d790f29	0.060805473
243	0x3dd50140	0.10400629
244	0x3d8e1d7a	0.06939216
245	0xbd669405	-0.056293506
246	0x3d35f1e0	0.044420123
247	0x3cc82a60	0.024434268
248	0xbd2545fb	-0.04034994
249	0x3dcfbe83	0.10143759
250	0xbd958d16	-0.07302301
251	0xbd41e17a	-0.04733417
252	0xbda3f61e	-0.080059275
253	0xbd1148c7	-0.035469797
254	0x3d4bda7c	0.04976891
255	0x3d0c87bd	0.034309138

recurrent.recurrent_layer.weight_hh_l0 f4 [300, 100]
0	0x3d7065ff	0.05869102
1	0x3d27e080	0.040985584
2	0xbcce2845	-0.025165686
3	0x3db3b8e3	0.08775499
4	0x3cd96c89	0.026541011
5	0x3d62fd9d	0.055417646
6	0xba367652	-0.000696038
7	0xbcaea4b8	-0.021318778
8	0x3d6eac48	0.05826977
9	0xbd972c18	-0.07381457
10	0xbdbedd18	-0.09319514
11	0xbc2088eb	-0.009798269
12	0xbbd352c2	-0.0064490745
13	0xbde2c7d1	-0.11073268
14	0x3c18ff0b	0.009338151
15	0xbcb8faf0	-0.022580594
16	0xbe015b2d	-0.12632437
17	0x3d37759d	0.0447899
18	0x3b8cc185	0.0042955303
19	0x3da55461	0.080727346
20	0x3d5d689f	0.054054853
21	0x3d83c89a	0.06434746
22	0xbd1feddf	-0.03904521
23	0xbda58098	-0.08081168
24	0xbd2e98a3	-0.042626034
25	0x3d56ed2e	0.052472286
26	0xbd363b5d	-0.044490207
27	0x3bd5e9af	0.0065281014
28	0xbc170860	-0.009218305
29	0xbb5ddc46	-0.0033853217
30	0xbdc6e548	-0.09711701
31	0xbd3eb94e	-0.04656344
32	0x3c70bac3	0.014692965
33	0x3d949ea4	0.07256821
34	0x3d645c77	0.055752244
35	0x3d0a503f	0.033767935
36	0xbd53cd82	-0.05170966
37	0x3cef1a56	0.029187363
38	0x3cf28cb9	0.029608117
39	0xbd9de6d4	-0.077100426
40	0x3d7dddef	0.06197923
41	0xbd99e71b	-0.07514783
42	0x3d3e7008	0.04649356
43	0xbd3d67c7	-0.046241548
44	0x3ce4b89a	0.027920056
45	0x3c90c497	0.017671866
46	0x3da6930b	0.08133515
47	0x3daa480b	0.08314522
48	0x3daba618	0.08381289
49	0x3daba6aa	0.08381398
50	0xbdbf2e72	-0.093350306
51	0xbd9c6fb2	-0.07638492
52	0xbd909c43	-0.070610546
53	0xbd188ed0	-0.03724557
54	0xbd90f540	-0.07078028
55	0x3d5c0962	0.053719886
56	0x3d8f5cb1	0.07000101
57	0x3e14b9b3	0.14523964
58	0xbd95bb6b	-0.07311138
59	0xbd42223c	-0.04739593
60	0xbc7eba74	-0.015547384
61	0x3df41800	0.1191864
62	0x3bdd5c8f	0.0067554186
63	0x3c7d77f7	0.015470496
64	0xbd0e23ee	-0.034702234
65	0xbd55aa70	-0.052164495
66	0x3d96741f	0.07346367
67	0xbc030bdf	-0.007998436
68	0x3ddcc3d6	0.1077954
69	0x3c911a7c	0.017712824
70	0xbc80fcdb	-0.01574557
71	0xbb2c0c5d	-0.0026252486
72	0x3d382515	0.04495724
73	0x3c294b23	0.010332855
74	0x3c4a30dd	0.0123407515
75	0xbd652469	-0.055942927
76	0x3da2aaea	0.079427555
77	0x3d544693	0.051825117
78	0x3d012141	0.031525854
79	0xbdca6b85	-0.09883789
80	0xbd85fef2	-0.065427676
81	0xbdb742f2	-0.08948316
82	0xbb1f129d	-0.002427257
83	0xbd67dcb2	-0.056606956
84	0x3de2e55f	0.11078905
85	0xbaea0d1a	-0.0017856688
86	0xbcde0e60	-0.027106464
87	0xbe074f03	-0.13213734
88	0x3db6de29	0.089290924
89	0x3cf13c57	0.029447718
90	0xbc931365	-0.017953584
91	0x3d4ea10c	0.050446555
92	0x3d52f01e	0.051498525
93	0xbdb48c48	-0.08815819
94	0xbd096fc6	-0.03355386
95	0xbdc58d59	-0.096461006
96	0xbd9eb055	-0.077484764
97	0xbd90656a	-0.07050593
98	0xbd25e638	-0.040502757
99	0x3e2388da	0.15970173
100	0xbd567ea2	-0.05236686
101	0xbb836ff9	-0.004011151
102	0x3d42dd41	0.047574285
103	0x3d750d57	0.059827175
104	0x3c492cb4	0.012278724
105	0xbc031269	-0.007999995
106	0x3dac44a7	0.08411532
107	0xbcac2bfb	-0.021017065
108	0xbc48226a	-0.012215236
109	0xbd392f32	-0.045211025
110	0x3da44e05	0.080226935
111	0x3d904249	0.07043893
112	0xbd8da973	-0.069170855
113	0x3d5a7df4	0.053342775
114	0x3c97710f	0.018486528
115	0x3da092fb	0.07840534
116	0x3d96922c	0.07352099
117	0xbc9c71e7	-0.019097282
118	0x3cdc7a9b	0.026913932
119	0xbc0de1ae	-0.008659763
120	0x3d6174ef	0.055043157
121	0xbc5f5476	-0.013630977
122	0x3d348f78	0.044082135
123	0xbdce2466	-0.10065536
124	0x3d412b5f	0.047160503
125	0xbdbf2617	-0.09333437
126	0x3d0a31d7	0.033738937
127	0x3d8f4df7	0.069972925
128	0xbc9d6b9b	-0.01921635
129	0x3d08381d	0.03325664
130	0xbcba2bcd	-0.022725964
131	0xbc545dc5	-0.0129618095
132	0x3dc1f3fe	0.09470366
133	0xbda61963	-0.08110311
134	0x3d168e54	0.03675683
135	0xbd9868bc	-0.074418515
136	0xbd503048	-0.050827295
137	0x3cefd7b1	0.029277654
138	0xbdbf0a36	-0.093281195
139	0xbdb0a817	-0.086258106
140	0x3d30f755	0.043204624
141	0x3c70be93	0.014693874
142	0x3d73a616	0.059484564
143	0x3dcb895b	0.09938308
144	0xbc4cc05b	-0.012497033
145	0x3db1666e	0.08662115
146	0xbd3073af	-0.043079074
147	0xbba00fac	-0.0048846807
148	0x3c0f9c27	0.008765257
149	0x3daeb587	0.08530717
150	0xbdaaa470	-0.08332145
151	0x3cdbf6a3	0.026851004
152	0x3db52aab	0.08846029
153	0x3c24270f	0.010019078
154	0xbc83cc1e	-0.016088542
155	0xbc2a581b	-0.010396983
156	0xbcef5e1e	-0.029219683
157	0xbd0623d7	-0.032749023
158	0xbd5c6665	-0.05380859
159	0xbb84e56e	-0.0040556705
160	0xbd534f00	-0.051589012
161	0x3d8b1665	0.06791381
162	0xbd8bbe1f	-0.06823372
163	0x3d80d13f	0.062899105
164	0x3d89276d	0.06696973
165	0x3cc9489f	0.024570761
166	0x3cb03e04	0.021513946
167	0xbd15475a	-0.036445
168	0xbda8b343	-0.082373165
169	0xbcb4ad56	-0.02205531
170	0x3cb73c0c	0.0223675
171	0x3cf84176	0.030304652
172	0x3b9bc966	0.004754233
173	0xbd028519	-0.031865213
174	0xbdb9b798	-0.09068221
175	0xbbabf087	-0.005247179
176	0x3cd530a4	0.02602417
177	0xbda29555	-0.07938639
178	0xbb938b32	-0.0045026774
179	0x3d913faa	0.07092221
180	0xbd6e8486	-0.058231853
181	0xbd78738a	-0.06065706
182	0xbcde9998	-0.027172849
183	0xbd9f053f	-0.077646725
184	0xbd5f2520	-0.054478765
185	0x3d2c07dc	0.041999683
186	0xbd285e7e	-0.04110574
187	0xb9a2ac39	-0.00031027364
188	0x3c2917d8	0.010320626
189	0x3d611327	0.054949906
190	0x3c9e042b	0.019289097
191	0x3d659701	0.05605221
192	0x3d8b589e	0.06804012
193	0xbce493a1	-0.027902426
194	0xbc117e8c	-0.008880269
195	0x3de3d1e9	0.111240216
196	0x3da2c6cf	0.07948076
197	0x3d26d18a	0.040727176
198	0x3cf4537e	0.029824968
199	0xbd70d8d6	-0.05880054
200	0xbda2501f	-0.07925438
201	0x3d442516	0.04788693
202	0x3d1ff63d	0.03905319
203	0xbdfcafda	-0.123382285
204	0x3bb11501	0.005404115
205	0x3a8c9fb1	0.0010728744
206	0xbda2b7f8	-0.079452455
207	0xbcba2032	-0.02272043
208	0x3dfe5383	0.12418272
209	0x3cbbbe9a	0.022918034
210	0x3dd4b4a5	0.10386018
211	0x3bee42b5	0.0072711357
212	0x3c923d28	0.017851427
213	0x3cb9d1de	0.02268308
214	0x3dc82e21	0.097744234
215	0xbb91b267	-0.004446316
216	0x3d336f42	0.043807276
217	0x3d4bdcdb	0.04977117
218	0x3b54e56b	0.0032485377
219	0xbc5eeba3	-0.013605985
220	0xbcb11a2c	-0.021618925
221	0xbc7f596d	-0.015585286
222	0xbc2c1406	-0.010502821
223	0x3d1ca7f9	0.03824613
224	0xb922d4db	-0.00015528819
225	0xbded88c4	-0.115983516
226	0x3db34cc0	0.08754873
227	0xbd44e0ff	-0.048066135
228	0x3d218ea9	0.039442692
229	0x3d846e1e	0.06466316
230	0xbd1e87a3	-0.038703572
231	0x3c3ce490	0.011529103
232	0x3da250ac	0.07925543
233	0x3da39da8	0.07989055
234	0x3da845e2	0.08216454
235	0xbd40e787	-0.0470958
236	0xbcadf974	-0.021237113
237	0xbc9c090a	-0.019047279
238	0x3d39db2d	0.045375038
239	0xbe03b1be	-0.12860772
240	0x3cfae718	0.030627772
241	0xbc892b4d	-0.01674428
242	0x3d4a6df5	0.04942127
243	0xbd484014	-0.048889235
244	0xbdc2fd0e	-0.095209226
245	0xbd03268c	-0.032019183
246	0x3e04d5d0	0.12972188
247	0xbabbb4af	-0.0014320816
248	0x3c29ef7f	0.010372042
249	0x3ca768a6	0.020435642
250	0xbd943723	-0.07237079
251	0x3d67ba86	0.056574367
252	0x3d5771ed	0.052598882
253	0xbd813fec	-0.0631102
254	0x3d66377c	0.056205258
255	0x3b3ea685	0.0029090953

recurrent.recurrent_layer.bias_ih_l0 f4 [300]
0	0xbcb18b0d	-0.02167275
1	0x3d45ac7c	0.048260197
2	0x3d4efd2a	0.050534405
3	0x3dace671	0.08442391
4	0xbd97ee63	-0.074185155
5	0xbcc2bb22	-0.023770873
6	0xbdc1a65b	-0.09455558
7	0xbdce04db	-0.1005952
8	0x3d49f255	0.04930337
9	0xbda4fe2c	-0.08056292
10	0xbde25354	-0.1105105
11	0x3dd54513	0.104135655
12	0x3d3129e7	0.04325285
13	0x3d2c7581	0.042104248
14	0x3dc1f6a6	0.094708726
15	0xbdc032b2	-0.09384669
16	0xbd35d1bf	-0.044389483
17	0x3c85a7ae	0.016315307
18	0x3c5f0468	0.01361189
19	0xbdd98211	-0.10620511
20	0xbc5ebec6	-0.013595289
21	0xbdc5487f	-0.09632968
22	0xbe164257	-0.14673744
23	0x3d820fcb	0.063506685
24	0x3dab3a37	0.08360713
25	0xbde763ea	-0.11298354
26	0xbdbfc48c	-0.0936366
27	0xbce7660f	-0.028246908
28	0x3c7d8721	0.015474112
29	0xbc02f0ee	-0.007992012
30	0x3c8db91c	0.017300181
31	0xbdd33e63	-0.10314634
32	0x3c0117a4	0.0078791715
33	0xbdf37d94	-0.118891865
34	0x3d961633	0.07328453
35	0x3cc316a2	0.023814503
36	0xbc96ab2d	-0.01839217
37	0xbd0bc136	-0.034119807
38	0xbdaeeec2	-0.08541633
39	0x3bd3b6ee	0.006461016
40	0xbdc5747d	-0.09641359
41	0xbb516112	-0.0031948728
42	0xbd2b9f75	-0.041900117
43	0xbd90a347	-0.07062393
44	0xbd17ce26	-0.037061833
45	0xbe2007f9	-0.15628041
46	0xbc639444	-0.01389033
47	0xbdef860d	-0.1169549
48	0xbd1acc4c	-0.03779249
49	0x3da6c717	0.08143442
50	0x3ce73814	0.028224982
51	0x3b35e0f6	0.0027752495
52	0xbc23eb4b	-0.010004829
53	0xb982ce5a	-0.00024949276
54	0xbd76af09	-0.06022552
55	0x3d28a303	0.041171085
56	0x3c4b9ccb	0.012427519
57	0x3d8d38ba	0.06895585
58	0xbd3de89b	-0.046364408
59	0x3d9f9214	0.07791534
60	0x3d32fe11	0.043699328
61	0x3d1406bb	0.03613923
62	0x3d9a1c1a	0.07524891
63	0xbd5d07a4	-0.053962365
64	0xbdf83a7a	-0.121205285
65	0x3d8dbe16	0.06921022
66	0xbdcc4314	-0.09973732
67	0x3c9e5351	0.019326838
68	0xbd65ab81	-0.056071762
69	0xbdbaaf30	-0.091154456
70	0xbe03b991	-0.12863757
71	0xbc28f71d	-0.010312823
72	0xbd734175	-0.059388597
73	0xbe2f9b7b	-0.17149155
74	0x3bd512cb	0.0065024844
75	0xbddd3e7a	-0.10802932
76	0x3d42350f	0.047413882
77	0x3d20ee58	0.039289802
78	0xbda52feb	-0.0806578
79	0xbc083d97	-0.008315465
80	0x3dbf5f71	0.09344376
81	0xbc2e4f45	-0.0106390165
82	0xbdbbed0f	-0.09176075
83	0xbd183afc	-0.037165627
84	0x3ccf03ee	0.025270429
85	0xbcdc1d7c	-0.026869528
86	0xbdd1c331	-0.10242308
87	0x3d47a8a1	0.0487448
88	0xbcd593d1	-0.02607146
89	0x3c2c75bf	0.01052612
90	0xbd6de36b	-0.05807821
91	0xbd135a69	-0.035974894
92	0xbd082c60	-0.033245444
93	0xbd4122eb	-0.04715244
94	0xbd3e2a48	-0.04642704
95	0x3dc993ec	0.09842667
96	0x39bfaa10	0.00036557065
97	0xbdc53042	-0.09628345
98	0xbd765861	-0.06014288
99	0xbd4f79c6	-0.05065324
100	0xbacd1fa9	-0.0015649694
101	0x3d68a59a	0.056798555
102	0x3c925f39	0.017867671
103	0x3da8be56	0.08239429
104	0x3c3e9d3f	0.01163417
105	0x3df9947f	0.121865265
106	0xbd8bd4aa	-0.06827672
107	0xbb9f325b	-0.0048582978
108	0xbd827b16	-0.06371133
109	0xbcf7ff54	-0.030273117
110	0x3d6bd3b0	0.057574928
111	0xbd35c7d4	-0.044380024
112	0x3df2483f	0.11830186
113	0x3de0dede	0.109800085
114	0x3cb9b51c	0.022669367
115	0x3ccbe20d	0.024888063
116	0x3ddc3ec8	0.10754162
117	0xbd9eb618	-0.077495754
118	0x3dbc3ebc	0.09191653
119	0x3c157d4d	0.009124112
120	0x3d38966d	0.045065332
121	0x3d35d6e4	0.04439439
122	0x3d784bf6	0.060619317
123	0xbd9e4671	-0.077282794
124	0x3d3583e6	0.04431524
125	0x3c7e3626	0.01551584
126	0x3e15754a	0.14595523
127	0x3d24ce70	0.040235937
128	0x3da1820c	0.078861326
129	0x3da4086d	0.080094196
130	0x3c0837d0	0.008314088
131	0x3b31dd1d	0.002713985
132	0x3cbf782f	0.023372738
133	0x3c0d2ba7	0.008616365
134	0x3d4bddc8	0.049772054
135	0xbd195c9a	-0.037441827
136	0x3c9e9fbd	0.019363279
137	0x3ded966b	0.116009556
138	0x3df9b745	0.12193159
139	0xbcde5d50	-0.027144104
140	0xbc6382e7	-0.01388619
141	0xba2660c9	-0.00063468196
142	0x3b61a192	0.0034428579
143	0x3c156f64	0.009120796
144	0x3dfabe83	0.122433685
145	0x3dcc42e2	0.099736944
146	0xbd016be2	-0.031597026
147	0x3e12b74d	0.14327736
148	0xbbe652c7	-0.007028911
149	0x3d01d974	0.03170152
150	0x3d9fb6f4	0.077985674
151	0x3ddd5a09	0.108081885
152	0xbad07ad7	-0.001590575
153	0x3d13c7cd	0.036079217
154	0x3c8d5122	0.017250601
155	0x3df2347a	0.11826415
156	0x3d1c6594	0.03818281
157	0xbc2f1bff	-0.010687827
158	0x3d261503	0.040547382
159	0x3c3b6911	0.011438624
160	0xbca29282	-0.019845251
161	0x3daeb607	0.08530813
162	0x3c6e4034	0.014541674
163	0x3dec33b6	0.115333006
164	0x3d8cffa4	0.06884697
165	0xbd06e068	-0.032928854
166	0x3d770a5b	0.06031261
167	0xbc3e76da	-0.011625016
168	0xbc9163cd	-0.017747784
169	0xbd0074b3	-0.031361293
170	0x3d9a5bd0	0.07537043
171	0xbc4ef527	-0.012631691
172	0x3d52055e	0.05127465
173	0x3dbd1049	0.09231622
174	0xbd95e2d9	-0.073186584
175	0x3da1ad6c	0.07894406
176	0x3d83a419	0.064277835
177	0x3d879110	0.06619465
178	0x3d01f6d2	0.031729527
179	0x3d010907	0.03150275
180	0xbcf544f9	-0.029940115
181	0x3d1cf7ec	0.038322374
182	0x3df1ffd3	0.11816373
183	0x3d6e6f36	0.058211528
184	0x3d38a686	0.045080684
185	0x3dc3ad32	0.09554519
186	0xbd4a1c50	-0.049343407
187	0x3db47e01	0.08813096
188	0x3d18be9b	0.03729115
189	0xbc4a6dc2	-0.01235527
190	0xbd1ecc1a	-0.038768865
191	0x3db4d46b	0.08829578
192	0x3c6466c5	0.013940518
193	0xbce741cd	-0.028229618
194	0xbcb935b0	-0.022608608
195	0x3d8a8af6	0.06764786
196	0x3d8439f9	0.0645637
197	0xbbbb0098	-0.005706858
198	0xbcccc1c5	-0.02499474
199	0xbd9d8dd5	-0.07693068
200	0xbcfea7c8	-0.031085864
201	0x3d4f1189	0.050553832
202	0xbcaaa50e	-0.020830657
203	0x3d450424	0.048099652
204	0xbd1170d2	-0.035507984
205	0xbd83ab4c	-0.06429157
206	0x3cc1b147	0.023644103
207	0xbb9b81b5	-0.004745687
208	0xbcfab3a2	-0.030603234
209	0xbd274890	-0.040840685
210	0x3ce68f19	0.028144406
211	0xbce227fa	-0.027606953
212	0x3d9870a3	0.07443359
213	0xbd557671	-0.052114908
214	0x3d230836	0.039802752
215	0xbcc0e7db	-0.023548057
216	0x3d9e1f5d	0.07720826
217	0x3cac0a78	0.021001086
218	0x3d802883	0.06257727
219	0x3a17abfa	0.00057858194
220	0xbd168e5b	-0.036756855
221	0x3c37920e	0.011204256
222	0xbd362f5f	-0.04447877
223	0x3b455497	0.0030110234
224	0x3d31ee03	0.043439876
225	0xbb485e1a	-0.0030573667
226	0xbd5bcfbc	-0.053664908
227	0x3cc0618b	0.023484012
228	0xbd30b14f	-0.043137845
229	0xbcae6a3d	-0.021290893
230	0xbca40fc3	-0.020027047
231	0xbd2bfa71	-0.041986886
232	0x3da20d0f	0.07912647
233	0x3d453444	0.048145548
234	0x3da0c334	0.07849732
235	0xbab55342	-0.0013834017
236	0x3d90d796	0.0707237
237	0x3d6c98f2	0.057763048
238	0xbd4f3e11	-0.0505963
239	0x3cf78477	0.030214531
240	0x3d43a321	0.047762994
241	0x3cc221e7	0.023697807
242	0xbd096d7b	-0.033551674
243	0x3d794183	0.060853492
244	0xbda1b010	-0.078949094
245	0xbcb45828	-0.022014692
246	0xbd165378	-0.036700696
247	0xbcf024c9	-0.029314416
248	0xbd597cd0	-0.053097546
249	0x3c328fe7	0.010898567
250	0x3c301784	0.010747794
251	0xbcb8f26d	-0.022576535
252	0x3d62d2f0	0.055376947
253	0xbce57446	-0.028009545
254	0x3b272508	0.002550425
255	0x3d96a9d5	0.07356612

recurrent.recurrent_layer.bias_hh_l0 f4 [300]
0	0xbdaf241e	-0.08551811
1	0xbdd7ed93	-0.105433606
2	0xbdaa3e0c	-0.08312616
3	0xbd5c9d24	-0.0538608
4	0x3cd214ec	0.025644742
5	0xbda61e8c	-0.08111295
6	0x3d84a0d5	0.06475989
7	0x3d135097	0.03596553
8	0x3ca89755	0.020579973
9	0xbe07fc37	-0.13279806
10	0x3cfffa43	0.031247264
11	0x3c6fee31	0.014644192
12	0xbd6b2c7f	-0.05741548
13	0xbb2b6202	-0.0026150947
14	0x3d317409	0.04332355
15	0xbe1e69d0	-0.15470052
16	0xbd658e9c	-0.056044206
17	0xbcd5d78c	-0.026103757
18	0x3d3f0569	0.04663602
19	0xbcd5f5a0	-0.0261181
20	0xbd72a5a1	-0.059239987
21	0x3cc991ff	0.02460575
22	0xbe176cf3	-0.14787655
23	0x3cb39cde	0.021925386
24	0xbdd6affb	-0.10482784
25	0xbdc352e2	-0.09537293
26	0xbc793a7a	-0.015211696
27	0x3ce32e67	0.027732087
28	0xbd31a537	-0.04337045
29	0xbe40eddc	-0.18840736
30	0xbdfa6d22	-0.12227847
31	0x3bc934ad	0.0061403126
32	0x3d817e4e	0.06322919
33	0xbd367d1a	-0.0445529
34	0x3d9beb96	0.07613294
35	0xbc55bc15	-0.0130453305
36	0x3c8d1b45	0.017224917
37	0xbd12bd5a	-0.03582511
38	0xbd07cc36	-0.033153735
39	0x3d9d96bf	0.07694768
40	0xbbc1a44f	-0.0059094797
41	0xbd0899e2	-0.03334988
42	0x3c66bc2c	0.01408295
43	0xbd3c5bde	-0.04598605
44	0x3d8705e5	0.06592921
45	0xbddb14b0	-0.10697305
46	0x3cb7a1b0	0.022415966
47	0xbc8ae9c4	-0.016957171
48	0xbe039d0b	-0.12852876
49	0xbd66aab3	-0.056315135
50	0x3d9aa340	0.07550669
51	0xbc76ab2b	-0.015055458
52	0xbc671dd3	-0.014106232
53	0x3d012c64	0.031536475
54	0xbcc828b0	-0.024433464
55	0x3d2df0ae	0.04246586
56	0x3db5c166	0.088747784
57	0x3dd20207	0.10254293
58	0xbd09a919	-0.03360853
59	0x3c84b555	0.016199747
60	0x3c410d9f	0.011783033
61	0xbdb32677	-0.08747571
62	0xbcce5d2f	-0.025190918
63	0xbd121472	-0.03566403
64	0xbd2f6a40	-0.042825937
65	0xbdace45e	-0.08441995
66	0x3dbe8be8	0.09304029
67	0xbd28b2c8	-0.041186124
68	0xbd901979	-0.070361085
69	0xbd9eb2ae	-0.07748924
70	0xbd9697b0	-0.07353151
71	0xbc898b42	-0.016790036
72	0x3c195046	0.009357518
73	0xbddee41c	-0.10883352
74	0xbd81813c	-0.063234776
75	0x3b488aae	0.0030600238
76	0xbd5b1237	-0.053484168
77	0x3dbd9c52	0.09258331
78	0x3d7773e1	0.060413245
79	0xbd58a007	-0.05288699
80	0xbca29a35	-0.019848922
81	0xbc5f3bc1	-0.013625086
82	0xbdbadf2e	-0.091245994
83	0x3d47412c	0.048646137
84	0x3caafee2	0.02087349
85	0x3d7e28d6	0.062050663
86	0x3d05f26f	0.032701906
87	0x3c67717b	0.014126177
88	0xbc7e446b	-0.015519242
89	0x3bb88686	0.005631271
90	0x3cc6552b	0.024210533
91	0xbda3895f	-0.07985186
92	0xbda2f692	-0.07957186
93	0xbdca7cd5	-0.09887091
94	0xbdcc978f	-0.09989845
95	0x3cab381b	0.020900777
96	0xbd9e4b7b	-0.077292405
97	0xbd101756	-0.035178505
98	0x3d2d7a1b	0.042352777
99	0xbc36f0a5	-0.011165773
100	0x3d63f027	0.05564895
101	0x3d352af0	0.0442304
102	0x3e07253e	0.131978
103	0x3cee0f9d	0.02906018
104	0x3cf09465	0.029367635
105	0x3c937d35	0.01800404
106	0x3d0b2542	0.03397108
107	0x3de7528b	0.11295041
108	0xbcb2a593	-0.021807468
109	0x3d1aa38c	0.037753627
110	0x3d282e5c	0.041059837
111	0x3dbf5254	0.09341875
112	0xbd11a13d	-0.03555416
113	0x3ddbd729	0.10734398
114	0x3d96c2dd	0.07361386
115	0x3a266571	0.00063475134
116	0xbd9f146a	-0.077675655
117	0xbdb053e6	-0.08609752
118	0x3ded364a	0.115826204
119	0x3c6c9f19	0.014442229
120	0x3d986253	0.07440629
121	0xbb6bcd0c	-0.0035980372
122	0x3e014b85	0.12626465
123	0xbcbf0a1a	-0.023320246
124	0x3d2660d4	0.040619686
125	0x3deb19e1	0.114795454
126	0x3dee2b7c	0.11629388
127	0x3d20f56e	0.03929656
128	0x3dab9052	0.08377136
129	0xbb01bf2e	-0.001979779
130	0x3df52f1e	0.119718775
131	0x3e270e33	0.1631401
132	0x3d842608	0.064525664
133	0xbd1116b1	-0.03542203
134	0x3cd360b9	0.025802957
135	0xbc2e6cfd	-0.010646102
136	0x3d9d81d4	0.076907784
137	0xbd74c44d	-0.05975752
138	0x3c8fd1a5	0.017556021
139	0x3d7b0e21	0.06129277
140	0x3d1e3429	0.038623963
141	0x3ce6e19a	0.028183747
142	0x3da36dfe	0.07979964
143	0xbd219d96	-0.039456926
144	0xbd1851be	-0.03718733
145	0x3db1b308	0.086767256
146	0x3e251412	0.16120937
147	0x3da18acc	0.078878015
148	0x3e324d03	0.1741219
149	0xbb30af99	-0.0026960133
150	0x3dcb72b0	0.09933984
151	0xbd820c57	-0.0635001
152	0x3de9267c	0.113842934
153	0xbc5ca74f	-0.013467624
154	0xbd254e3c	-0.040357813
155	0x3d3edbcd	0.046596337
156	0x3da4a82f	0.08039891
157	0x3e05764a	0.13033405
158	0x3dad0bc2	0.08449508
159	0xbd962478	-0.073311746
160	0x3d164adf	0.036692496
161	0xbd5b9fc7	-0.053619172
162	0xbd850831	-0.06495703
163	0x3e0ac726	0.13552532
164	0x3d7ecd44	0.062207475
165	0x3c796151	0.015220956
166	0x3d56d7d7	0.052451935
167	0x3d2540bc	0.04034494
168	0xbc95826d	-0.018250668
169	0x3d956d90	0.07296288
170	0x3e337006	0.17523202
171	0x3dc0890b	0.09401139
172	0x3ce18e98	0.027533814
173	0xbd2afb04	-0.041743293
174	0xbd69afd1	-0.057052437
175	0x3e0d3451	0.13789488
176	0xbd00cd73	-0.03144593
177	0xbca9139e	-0.020639237
178	0xbc9cfc2a	-0.01916321
179	0x3e23a217	0.15979801
180	0x3dc7a2de	0.09747861
181	0xbbbb52f8	-0.0057166778
182	0x3c4b1d3e	0.012397109
183	0x3d258540	0.04041028
184	0x3cf9e2b6	0.030503612
185	0x3c8ce8fb	0.017200937
186	0x3d7895e0	0.060689807
187	0xbd27eeee	-0.040999345
188	0x3e2ad1eb	0.1668164
189	0x3d1bcdab	0.038037937
190	0x3ce305cb	0.027712723
191	0xbbf58588	-0.007492725
192	0xbd9749e0	-0.073871374
193	0x3db28312	0.08716406
194	0x3dd2cbf4	0.10292807
195	0x3e0f2ccf	0.13981937
196	0x3cb9b3b9	0.022668706
197	0xbba84dba	-0.005136219
198	0x3d68caeb	0.056834143
199	0xbd9457a9	-0.07243282
200	0xbc0c541a	-0.008564973
201	0xbac4411d	-0.0014973019
202	0xbcb061b4	-0.021530963
203	0xbd80aead	-0.06283317
204	0x3d086b97	0.03330573
205	0x3cd6c595	0.026217261
206	0x3d4cfc26	0.050045155
207	0x3c918869	0.01776524
208	0x3d6a4d95	0.057202894
209	0x3b799035	0.003808034
210	0xbd858353	-0.06519189
211	0x3d765b2f	0.060145553
212	0xbd24597b	-0.040124398
213	0x3c1586d5	0.009126385
214	0xbd9f4b56	-0.07778041
215	0xbc848283	-0.016175514
216	0xbdc4ddbd	-0.09612606
217	0xbd50ea5f	-0.051004764
218	0xbdad93f9	-0.08475489
219	0x3be15d54	0.0068775807
220	0xbcea7d57	-0.02862422
221	0xbcbc8e27	-0.023017002
222	0xbcc65e96	-0.024215024
223	0x3da0b3f4	0.07846823
224	0xbd52cb63	-0.051463496
225	0xbd1f921d	-0.038957704
226	0xb98b9052	-0.00026619673
227	0x3c8a1a7e	0.016858336
228	0x3dac5dcf	0.0841633
229	0x3c110f76	0.008853784
230	0xbd79da19	-0.06099901
231	0x3c0bcb19	0.008532309
232	0xbdce47da	-0.10072298
233	0x3bbcf95f	0.005767032
234	0x3d419a17	0.047266092
235	0xbcadefae	-0.021232452
236	0xbdb4242c	-0.08795962
237	0x3d7f4b76	0.062327825
238	0x3dcdbfa6	0.1004632
239	0xbd8bc8a6	-0.0682538
240	0xbd9bde52	-0.076107636
241	0xbd4cd0cc	-0.05000381
242	0x3d580d28	0.05274692
243	0xbcb8d585	-0.022562752
244	0x3db89f37	0.09014743
245	0xbc90c200	-0.017670631
246	0x3c8eda38	0.01743804
247	0xbd668852	-0.05628235
248	0x3c8021fc	0.015641205
249	0x3d9c3d9f	0.07628941
250	0xbd604e89	-0.054762397
251	0x3b752846	0.0037408038
252	0x3bc2aaac	0.005940756
253	0x3d2922dd	0.041293014
254	0xbcdd05f2	-0.026980374
255	0x3c8ed44f	0.017435221

linear.weight f4 [20, 100]
0	0xbc59dd51	-0.013297395
1	0xbc8b0dfa	-0.016974438
2	0x3db7be99	0.089719005
3	0x3d903a87	0.07042413
4	0x3d6b892e	0.05750387
5	0xbc608a0d	-0.013704789
6	0xbca9f4c1	-0.02074659
7	0xbd0d1836	-0.034446917
8	0xbd6d1d37	-0.05788919
9	0x3ce02007	0.027359022
10	0xbd3c9cdb	-0.046048027
11	0xbd861338	-0.065466344
12	0x3da78f12	0.08181585
13	0x3d945418	0.07242602
14	0xbd812194	-0.06305233
15	0xbd3b1b6b	-0.045680445
16	0xbd61ec28	-0.055156857
17	0x3d801a74	0.062550455
18	0x3c791655	0.015203078
19	0x3dc39f2c	0.09551844
20	0xbd6d4e60	-0.057936072
21	0xbc608649	-0.013703891
22	0xbd401876	-0.046898328
23	0x3d99e648	0.07514626
24	0xbbfd34f8	-0.0077272616
25	0x3d3d90c7	0.04628065
26	0xbd9a1173	-0.075228594
27	0x3c8cd058	0.01718919
28	0x3d0c7462	0.03429068
29	0xbc2e1002	-0.010623934
30	0x3c3ec78a	0.0116442535
31	0xbcdf9d2d	-0.027296627
32	0xbda0d513	-0.07853141
33	0xbcbfd233	-0.02341566
34	0x3d982622	0.07429148
35	0x3cd3a713	0.025836503
36	0xba1e781a	-0.0006045118
37	0xbc287d07	-0.010283715
38	0xbd5f53d7	-0.054523315
39	0x3db1f4d7	0.086892776
40	0x3ce92a88	0.028462663
41	0x3d61bf02	0.0551138
42	0x3ac30e30	0.0014881548
43	0xbd8db04b	-0.06918391
44	0x3d0f2016	0.03494271
45	0xbd525259	-0.051348064
46	0x3d178c4e	0.03699904
47	0x3cb6decd	0.022323037
48	0xbd699ea2	-0.05703605
49	0xbccd3bb2	-0.025052879
50	0xbd0094ed	-0.031392027
51	0xbd1dc84f	-0.038521107
52	0xbba4f115	-0.005033622
53	0xbd75c7ba	-0.060004927
54	0xbcea5a50	-0.028607517
55	0xbd60960e	-0.054830603
56	0x3da351dc	0.07974598
57	0xbc348dc3	-0.011020127
58	0x3d9b61b4	0.07586995
59	0xbd33e840	-0.043922663
60	0x3ca99b9e	0.020704087
61	0x3b9678b8	0.0045920275
62	0xbd0ee32f	-0.034884628
63	0xbd264906	-0.040596984
64	0x3dbd122e	0.09231983
65	0x3c0c7d0a	0.0085747335
66	0xbd667f49	-0.056273732
67	0xbb11c566	-0.0022242903
68	0xbcbd6e38	-0.023123845
69	0xbccb9668	-0.024851993
70	0x3ceca5d7	0.028887672
71	0xbd83ad1e	-0.06429504
72	0xbc5d6598	-0.013512991
73	0xbc66aa28	-0.014078654
74	0x3d2e9cb6	0.04262992
75	0x3d31cc5f	0.043407794
76	0x3c4088f9	0.011751407
77	0xbd06e293	-0.03293092
78	0x3cd5e296	0.026109021
79	0x3dbd4d10	0.09243214
80	0x3ce7ee5e	0.028311905
81	0x3c16d139	0.009205156
82	0x3c910d13	0.01770643
83	0x3d7d1190	0.061784327
84	0x3c9b32d3	0.018945133
85	0x3d9fe33b	0.07807013
86	0xbd1075fc	-0.03526877
87	0xbce972c7	-0.028497113
88	0xbd67ea90	-0.05662018
89	0x3ddcaab9	0.1077475
90	0xbb5e38aa	-0.0033908286
91	0xbd2145a2	-0.039373048
92	0xbaff7197	-0.0019488808
93	0x3d70311f	0.058640596
94	0xbd4c0bd3	-0.049815964
95	0xbc8b0182	-0.016968492
96	0xbac2b7dc	-0.001485582
97	0x3d51cdff	0.051221844
98	0xba01830a	-0.0004940486
99	0xbd2c2fa9	-0.04203764
100	0x3b9d5d89	0.00480241
101	0x3db96c6f	0.09053885
102	0x3b79608c	0.0038051931
103	0x3d915eb2	0.0709814
104	0xbc7f082e	-0.015565915
105	0xbd80333b	-0.062597714
106	0xbdae400a	-0.08508308
107	0xbcc3dcf0	-0.023909062
108	0xbc4abea2	-0.012374552
109	0x3d50d47a	0.050983883
110	0x3d0cadda	0.034345485
111	0xbcc36b97	-0.023855014
112	0xbd8dd673	-0.069256686
113	0x3d39bc4c	0.04534559
114	0xbc8ddae2	-0.017316286
115	0x3cec9971	0.02888176
116	0x3d2ed40a	0.042682685
117	0xbc8d4245	-0.017243514
118	0xbd4b11e9	-0.049577627
119	0x3d5c5213	0.05378921
120	0x3caa8aa6	0.020818066
121	0xbca1ea6d	-0.019765103
122	0x3cf63528	0.030054644
123	0xbd818feb	-0.06326278
124	0x3b2c0946	0.0026250645
125	0x3b110b81	0.00221321
126	0xbc30d74f	-0.010793521
127	0xbd520cbe	-0.051281683
128	0x3cd7f1f9	0.026360499
129	0x3d4cc040	0.04998803
130	0x3d0b3cee	0.033993654
131	0xbd79f87c	-0.06102799
132	0xbceab18b	-0.028649112
133	0xbdae5fcc	-0.085143656
134	0xbd8913f5	-0.066932596
135	0xbcc97abd	-0.024594659
136	0x3d8ac95c	0.067766875
137	0xbcc5d8ea	-0.024151284
138	0xbda5334c	-0.08066425
139	0xbd607118	-0.054795355
140	0x3cf30032	0.02966318
141	0xbd814dbd	-0.063136555
142	0x3d46b8ce	0.048516087
143	0x3bb26530	0.0054441914
144	0xbd366aeb	-0.04453556
145	0xbda3dfd4	-0.08001676
146	0xbc3574e4	-0.011075232
147	0xbd9e6dde	-0.07735799
148	0x3d3adb83	0.0456195
149	0x3beef156	0.007291953
150	0xbca26a05	-0.019825945
151	0x3c172ce9	0.009227016
152	0xbda5c47a	-0.080941156
153	0x3d8d8c80	0.06911564
154	0xbdbdd439	-0.09268994
155	0xbda1ae59	-0.07894582
156	0x3dac3777	0.084090166
157	0xbd646d5c	-0.055768356
158	0xba4327ab	-0.00074445707
159	0x3da5f07e	0.08102511
160	0x3d567091	0.052353445
161	0x3d907548	0.070536196
162	0x3d0cb79a	0.034354784
163	0x3d7f30e9	0.062302504
164	0xbcbb59fb	-0.022870054
165	0x3d430b5a	0.047618248
166	0xbd2711c8	-0.040788442
167	0x3d12ddb7	0.035855975
168	0x3ccbb052	0.02486435
169	0x3d6a9227	0.057268288
170	0x3c13c4b8	0.009019069
171	0x3c5bcd6f	0.013415678
172	0xbd0e9ef4	-0.03481956
173	0x3cb8f377	0.02257703
174	0xbba6caf1	-0.0050901105
175	0xbce81dd0	-0.028334528
176	0xbd8041f1	-0.06262577
177	0x3a82147d	0.0009924319
178	0x3d1cda84	0.03829433
179	0x3c0878fc	0.008329626
180	0xbce09134	-0.027412988
181	0x3caaf5c6	0.020869147
182	0xbd801a61	-0.062550314
183	0x3d8ff013	0.070282124
184	0x3c04d968	0.008108474
185	0xbcf51f0d	-0.029922033
186	0xbdd2112f	-0.10257184
187	0x3d10c5a9	0.035344753
188	0x3d59136b	0.052997034
189	0x3ce6e8b6	0.028187137
190	0x3c807301	0.015679838
191	0xbd0089d8	-0.031381458
192	0xbc0ead83	-0.008708361
193	0x3d58f528	0.052968174
194	0xbd26ec3f	-0.040752646
195	0x3c6bce3a	0.01439243
196	0x3c942eaa	0.018088657
197	0x3d3d1efa	0.04617212
198	0x3cd0844e	0.025453713
199	0xbd868fd0	-0.06570399
200	0x3d572134	0.0525219
201	0xbd94c083	-0.07263281
202	0xbbc804ad	-0.006104073
203	0xbca01fa5	-0.01954634
204	0xbd336594	-0.043798044
205	0x3d841536	0.06449358
206	0x3d0f4848	0.034981042
207	0x3da64eda	0.081205085
208	0x3d09839d	0.03357278
209	0xbb9b097e	-0.004731356
210	0x3d24de87	0.04025128
211	0x3d703faa	0.058654465
212	0xbbf21079	-0.0073872176
213	0x3d41d5ec	0.047323152
214	0xbd043059	-0.03227267
215	0xbd80cda0	-0.0628922
216	0x3ab07ffb	0.0013465876
217	0xbc99064a	-0.018679757
218	0xbd2e4b14	-0.04255207
219	0xbda6a458	-0.08136815
220	0x3c276e80	0.010219216
221	0xbd86d173	-0.06582918
222	0x3bbbc530	0.0057302937
223	0xbc8e6d21	-0.017386021
224	0xbd5f4476	-0.05450865
225	0xbcffde58	-0.031233951
226	0x3cd74156	0.026276272
227	0x3db2496f	0.087054126
228	0x3d850615	0.06495301
229	0x3b8a2dd9	0.0042168912
230	0xbd40e27b	-0.04709099
231	0xbcc5b1d2	-0.024132643
232	0xbdbc74d1	-0.092019685
233	0x3d52e078	0.0514836
234	0xbda378fa	-0.07982059
235	0xbc86aef7	-0.016440852
236	0x3d7b7c77	0.061397996
237	0xbd9a5f77	-0.0753774
238	0xbca0fd17	-0.019651933
239	0x3d97b877	0.07408231
240	0xbd01c3d4	-0.031680897
241	0x3d1f6b52	0.038920708
242	0xbd07829f	-0.033083554
243	0xbda6c67d	-0.081433274
244	0x3d8b5249	0.06802804
245	0x3d358efe	0.04432582
246	0x3d8b0ac4	0.06789163
247	0xbd7a8f48	-0.0611718
248	0xbd181f6c	-0.03713934
249	0x3d095f4f	0.03353816
250	0x3d1a507b	0.03767441
251	0xbd0986a9	-0.033575688
252	0xbda1b37f	-0.07895564
253	0x3da24f00	0.07925224
254	0x3b274c52	0.0025527668
255	0xbd083ebb	-0.03326295

linear.bias f4 [20]
0	0x3f73fd84	0.9530871
1	0x3f739bb3	0.95159453
2	0x3f748e0b	0.9552924
3	0x3f73de11	0.9526072
4	0x3f74ddec	0.95651126
5	0x3f7452d1	0.9543887
6	0x3f74bc4b	0.9559981
7	0x3f74d4bd	0.9563711
8	0x3f745309	0.954392
9	0x3f7554bd	0.95832425
10	0x3f74cb56	0.95622766
11	0x3f745dc4	0.95455575
12	0x3f754acd	0.9581726
13	0x3f7474b7	0.9549059
14	0x3f754fc0	0.95824814
15	0x3f74f8c1	0.9569207
16	0x3f749c23	0.95550746
17	0x3f75229c	0.95755935
18	0x3f749fc9	0.9555631
19	0x3f75a976	0.959617
