TFM/regresion/results/bus_trip/LSTM.pt (torch, 210446 bytes, 10 tensors)

lstm.weight_ih_l0 f4 [200, 100]
00000000: 4fb1 1d3e a3d0 853d 25be 233e 0f92 c9bd
00000010: 553e f8bd f3f5 b1bd 1067 9abd 2c36 b43d
00000020: 4216 943d 80e9 093e cf8e 3bbd e0ee 92bd
00000030: 9aef cb3d 6889 0cbd 261d ea3d 6261 29bb
00000040: 5a51 d83d efea b4bd b7ad 36bd 0441 943d
00000050: 27cb 803d ea52 07bc 3fe2 ee3d e091 f93d
00000060: c2b5 91bd d458 31bd dcdb 263e 8b8b 52bc
00000070: d5ce 59bc a8c0 d6bd 1995 55bd 7913 833d
00000080: eccb 303c 2b18 96bd 7006 413d 5764 7bbd
00000090: 5f15 bfbd 6c3c 24bd 8ce0 b0bd 4af1 4fbd
000000a0: 0a7a 363e 23e3 473d fbf5 b73d 1079 d0bd
000000b0: 27e6 3dbd 3a32 f7bb feed 563d 9856 a1bd
000000c0: c36f 99bc 49be 35bd 679b 213d c5c6 63bc
000000d0: 7801 0b3d 6a7c 6bbd 2600 51bd 98f3 08bd
000000e0: 2e9b acbb 2c69 74bd 2480 283e 7e7f 083d
000000f0: fc6b 353e 2d9a b23d e723 5bbd ee25 0e3e
00000100: f8e3 ee3c 7909 833b cd0a 8abd e7b8 94bd
00000110: 5778 bd3d 52a8 223d 4e98 ee3d 6cb2 76bd
00000120: 268d 353e 6f00 59bd 443e 6b3d f2cd be3d
00000130: c2d6 0a3e e2d3 4d3e f5d0 4b3e 1dc4 fcbc
00000140: d6bd ea3d d129 07bc 70e6 763d 1003 56bd
00000150: 1631 593e b32c e8bc 01d3 143e 1204 113e
00000160: 4d0e f93d f218 133c 0203 5d3e c0dc cd3d
00000170: 27df df3d 5b37 e1bc a8ea 2b3e 4366 b53d
00000180: 7b03 b43c 3357 6c3e 112e fa3d 2cbf 133d
00000190: 7fa4 a1bd ed2b 97bc 07d2 933d 6835 3dbd
000001a0: 8f05 aabd e289 50bd f5b2 e3bd d86c 5b3d
000001b0: b5eb db3d 360a 08be c653 103d a47e 9b3d
000001c0: 09f8 fd3c 1c02 3cbd 76f9 a63d a568 a93d
000001d0: 3032 743d 282c 86bc 3ab8 dbbc f865 e33c
000001e0: a262 48bc 2d2c febc 7e93 d03d a688 063e
000001f0: 45cf fbba a8b9 99bc fd3a 863c a3ef 813b
00000200: 64af 483d fbcc 543d 54ec e9bd 858d 14bd
00000210: 052f 053e 825e 923d 198d cf3b 1d1a 8ebd
00000220: 8b06 95bd c35c e6bd 4980 d2bc ed2d 823d
00000230: c120 da3d c763 a73d dc69 e1bd 4331 88bd
00000240: d5f3 cdbb 80fd 1c3e d154 143d 7491 b1bc
00000250: 2bfe 9d3d f9dc 28bd 846b 9dbd 12e1 f43d
00000260: fd52 55bd c3de 23bc 1e8f 06be 8af9 e03d
00000270: 3f80 fe3d d293 823d 1b1c a5bd e21f ffbd
00000280: aec4 cabd b393 f23d d140 a43d 5bae 063e
00000290: 8c72 b43d 921a 483d 599a 5c3c 67e7 c7bd
000002a0: d470 d9bd cb4d f8bd f66e 903d bd4e 60bd
000002b0: f1bf 97bc 3907 87bd 2c21 7cbc d72b b3bd
000002c0: 4669 9abd a624 873d 13c7 a5bc b92d d43d
000002d0: 7687 aebc dab8 acbd fc41 d1bb 2b31 34bd
000002e0: 4d6c 9bbc cf5c d5bd 9058 ee3d 5fca 79bd
000002f0: 8ef3 ed3d 6151 d43d 5b67 1e3e 9504 4abd
00000300: 53df 263e 068d 1f3c 16f3 023e ebbc 623e
00000310: ef9c a23d bea3 d33d c280 ad3d 1d58 fc3a
00000320: da09 8d3d fdac 08be 9624 b83d 6062 e93d
00000330: 3c36 143e a949 c4bc 0379 d3bd f36b 413d
00000340: 2ae3 c03d 2bcb ffbd 18de 4dbc 7917 83bd
00000350: 072b 0d3c a669 3dbd 8eda 16bd bb1b a8bc
00000360: 39ff dcbd 13bb 103e 544e 123e 3594 1b3b
00000370: 0def 053c 23e8 f7bc 12cc d4bd 9957 e2bd
00000380: f395 a53d ac7a 55bd 9178 83bd a276 8d3c
00000390: f79e 9abc c0a6 99bc a8bb 093d c582 b7b9
000003a0: 4dec abbc 4f04 21bd 585c b9bd 22cb 153e
000003b0: 578b debc 1dfb 833d 55b3 b8bc 0504 173d
000003c0: 2ee1 1f3e b75b ba3d 5b99 d0bd d043 a63d
000003d0: 032c 263e 466a 7c3d 865f f63d 987a 293e
000003e0: 0590 af3b 2e46 563d 8ffd 95bd 2077 20bb
000003f0: 9379 033e 9085 c93d 7101 89bd 02ff b5bd
0.15399669 0.06533935 0.15990503 -0.098423116 -0.12121264 -0.08689489 -0.07539189 0.08799395
0.07230808 0.1346798 -0.04579049 -0.07174468 0.0995781 -0.03431073 0.11431341 -0.0025845398
0.105623916 -0.088338725 -0.04459926 0.07238963 0.06288748 -0.008259514 0.11664247 0.121860266
-0.07114746 -0.043297604 0.16294807 -0.012850652 -0.0132939415 -0.10485965 -0.052144144 0.064001985
0.010790806 -0.073288284 0.04712528 -0.06137499 -0.09330248 -0.040096685 -0.08636579 -0.05076722
0.17819992 0.0488006 0.08982464 -0.10179341 -0.04636207 -0.0075438293 0.05247306 -0.078778446
-0.01873005 -0.044370923 0.039454844 -0.013902371 0.033936948 -0.057491697 -0.051025532 -0.033435434
-0.0052675223 -0.059670612 0.16455132 0.03332471 0.17716974 0.08720813 -0.053501036 0.13881657
0.029161438 0.003998932 -0.06740341 -0.0726183 0.09251469 0.039711304 0.116501436 -0.06022875
0.17729625 -0.05297893 0.057432428 0.09316625 0.13558486 0.20100358 0.1990393 -0.030855233
0.114619896 -0.008249716 0.060278356 -0.052249014 0.21210131 -0.028341627 0.14533617 0.14161709
0.12160931 0.008978115 0.21583179 0.1005187 0.10931235 -0.027492216 0.16788733 0.088573955
0.021974316 0.23080139 0.12215818 0.036070988 -0.07892703 -0.018453563 0.07217794 -0.04619351
-0.083018415 -0.050912745 -0.11118118 0.0535706 0.10738317 -0.13285145 0.035236143 0.07592514
0.031002061 -0.04590045 0.0815305 0.082719125 0.059618175 -0.016378477 -0.026821245 0.027758583
-0.012230547 -0.031026924 0.10184382 0.13138065 -0.0019211551 -0.018765286 0.01638555 0.0039653345
0.04899539 0.051953297 -0.11422029 -0.036267776 0.13006218 0.07146932 0.006333959 -0.069385745
-0.072766386 -0.11248162 -0.025695937 0.06356416 0.106507786 0.08173328 -0.11006519 -0.06650021
-0.0062851706 0.15331078 0.0362137 -0.021675803 0.07714494 -0.04122636 -0.076865226 0.11956991
-0.052081097 -0.010001841 -0.13140532 0.10985096 0.12426805 0.06375851 -0.08062001 -0.12457253
-0.09900795 0.11844578 0.08020175 0.13152449 0.088109106 0.048853464 0.013464534 -0.09760933
-0.106172234 -0.12124213 0.07052414 -0.05476259 -0.018524142 -0.065931745 -0.015388768 -0.08748596
-0.075396106 0.06598787 -0.020236528 0.103602834 -0.021304827 -0.08433695 -0.00638604 -0.043992203
-0.01897254 -0.104180925 0.11637986 -0.06098401 0.1161872 0.10367084 0.15469114 -0.049320776
0.16296129 0.009738212 0.12788042 0.22142379 0.07940089 0.10333966 0.08471824 0.0019252334
0.06886645 -0.1334724 0.08991353 0.11395717 0.14473814 -0.023960905 -0.103258155 0.04722209
0.09418328 -0.12489923 -0.012565158 -0.064009614 0.008616216 -0.046243332 -0.036829524 -0.020521035
-0.10790867 0.14133863 0.14287692 0.0023739461 0.00817467 -0.030262059 -0.10390486 -0.11051864
0.08085241 -0.052118942 -0.064194806 0.017268483 -0.018874628 -0.01875627 0.03362623 -0.0003500191
-0.0209867 -0.03931075 -0.09050816 0.1462827 -0.027166052 0.064443804 -0.02254645 0.036869068
0.15613243 0.090995245 -0.101855 0.08118403 0.16227727 0.061624788 0.120299384 0.16550672
0.0053577446 0.052313022 -0.07323753 -0.0024485067 0.12839346 0.09839928 -0.06689728 -0.088865295

lstm.weight_hh_l0 f4 [200, 50]
00000000: 7182 21bd 16fa a9bd 8448 fd3d 25b8 843c
00000010: 0a8f bd3c c316 31bd c6c5 03be a11e 2a3e
00000020: 3ecf e93c 4da6 fc3d 97ed 0abe de33 debd
00000030: a3bd a0be c77c f53d a637 873d 17b8 963d
00000040: ce8c d43d e8f6 57bc 880b a53c f7d8 34be
00000050: 73fd 2bbe ff72 b63d 3220 02bd 234e bdbd
00000060: d2f1 a9bd e625 b43d 9874 cf3d caee 853c
00000070: 88cc 9fbd 3f55 8f3c 8d60 ea3c 80d4 1fbc
00000080: 99a1 a33d 13c2 00be 3135 01bd 8d8e 6fbd
00000090: 3bb7 003e 2d16 04be e048 8cbc f661 edbd
000000a0: 6a9f c2bd 0c75 523d 98a1 8f3d 57fa 21bd
000000b0: ddc7 02bd 883e f8bd d40d cb3d 028b ecbd
000000c0: 1bf0 ddbd 92a3 843d 4e84 1fbe 5298 b0bd
000000d0: 4e18 06bd 0bb1 1ebe e832 99bd 2ae6 363d
000000e0: 5d55 0b3e 6ecf 1f3e 942d ee3d e328 023e
000000f0: 26ad 85bd 75b3 b0bd 05f3 f5bd ea85 b23d
00000100: a150 043c eb51 35bd 7688 af3d 662e 85bd
00000110: 54d3 573d 1d8d 173d 56fb 8fbd 17d7 16bd
00000120: ce5d 5a3c a815 86bd c8c7 a33c 1438 febd
00000130: c887 db3d 3bff b8bd fc3a 723d 1a76 adbd
00000140: 7ad4 b2bc 9195 b23d 66a3 8b3d 8c77 30be
00000150: 4249 17bd 0207 18be a102 283d d43b 21bd
00000160: 97ab 853d 91a1 963d 30a8 b13d 6187 acbd
00000170: 9a4b 983d 39db 0ebe 1b06 753d 4c1c 2cbe
00000180: a562 fcbc 58f8 89bd f0c7 30bd 3d93 4a3d
00000190: fca8 be3d c9c5 47bd ecc0 6939 0c62 b7bd
000001a0: 7ccd f63d 6af1 1bbe 296e bb3d deb1 d03d
000001b0: c58d 223e 41df f43a eadd 5b3d f20c 3c3d
000001c0: bfc1 f2bc de67 e3bd 8dc4 95bd dc94 01bd
000001d0: ae16 f93d 72c9 e2bb 0e2a 293e e013 d53c
000001e0: 827d ddbd 0929 f03d 5be7 bb3d 7ae0 ab3c
000001f0: 7448 123d a2cb 25bc c8b2 7a3d 9208 8a3d
00000200: 2762 01be 7566 0dbe cdde 263d a59b 62bd
00000210: eb1a 00bd deb4 20bd 841b c9bd d3ed 233e
00000220: 5432 89bd d81c 33be 497b 033e 8207 3b3c
00000230: 989d 093e bc9a 2fbd 68fc d33e dc54 083e
00000240: 0b07 fdbd 3c66 e13d d883 9b3d 4588 d5bd
00000250: 73c9 0e3e 9649 aebe ff06 633d 40b9 9abc
00000260: 29e8 78bd 5b86 ff3d 4994 53bc 23b1 213b
00000270: cba7 ad3d c9ea 75be 2313 bbbd aa76 85bd
00000280: 6626 f73d 2c29 d3bd 8316 80bd ed29 4dbd
00000290: 525b 9a3d 3472 28bb 4066 b8bd c8e3 97bd
000002a0: f0fc a1bd 31d3 633e 2e09 11be d34a 6f3d
000002b0: 33ea b43d 54b5 553d 9ffe c1bd a3c6 e53c
000002c0: 8355 eb3d b7e8 0d3e abaf 89bb 14b8 ccbc
000002d0: 7f69 4dbc b9d6 a6bd d44c 47bd cd38 1cbd
000002e0: 1819 413d fff5 f63d d3b8 6c3d 6c91 22be
000002f0: d53e a63d ca22 3cbd a9d5 1abd eed3 97bd
00000300: 0743 493d 2fc5 203d 5e9c 383d dc51 083d
00000310: 9371 8d3d 4089 253d 2aa4 ecbd 0839 9dbd
00000320: 734e da3c fb1f 18be 8f8c a8bd d7bd 8b3d
00000330: dd39 f3bd 3e9d a8bd 14e1 72bd a55f ba3d
00000340: bdc9 2a3d dcf1 a73d 1fcc f9bd 47b6 223d
00000350: 7421 10be b945 48bd 1a67 2d3d 034f 9fbd
00000360: dda3 743d 5e31 473d 85ba 80bb 5a64 f4bd
00000370: 62e0 023d c9f5 863d 3ec5 e33c 74a6 7cbb
00000380: a9ba c43d 3fef 593d f6af 803d 40a5 8abd
00000390: a759 81bd 7652 1b3e 265d 7c3a a994 2dbd
000003a0: 5d67 f5bc 3ccb cbbd bf85 d23d 5867 aa3c
000003b0: 5675 303d 0be1 423c 1fe7 853d acd6 133e
000003c0: ff3e d33d 31c2 d43d ba82 4f3d 7801 7abc
000003d0: 41ea 8dbd c8ae f2bd c02a c23d 31b2 3ebb
000003e0: 9916 a43c a1f3 e13c 88f3 44bd b093 9abd
000003f0: e091 473c 7b75 c63d 27af c9bd 3c5b 80bc
-0.03943104 -0.08299653 0.12367347 0.016201088 0.023139495 -0.043234598 -0.12868413 0.16613247
0.028541204 0.12336407 -0.13567196 -0.10849737 -0.3139468 0.1198669 0.06602411 0.07359331
0.10378419 -0.013181426 0.0201471 -0.1766089 -0.16795902 0.089086525 -0.031768985 -0.09243419
-0.08298077 0.08796291 0.1012966 0.016349215 -0.07802683 0.017496703 0.028610492 -0.009755254
0.07989807 -0.12574033 -0.031544868 -0.058485556 0.12569897 -0.12899084 -0.017124593 -0.1159095
-0.09503062 0.051381156 0.070132434 -0.039545383 -0.031928886 -0.12121302 0.09914747 -0.11549951
-0.10836812 0.06476511 -0.15577814 -0.08622803 -0.032738023 -0.15497224 -0.07480413 0.044653095
0.13606782 0.15606472 0.11629787 0.1271091 -0.06527166 -0.08627979 -0.12009243 0.08716948
0.008075864 -0.044267576 0.0857095 -0.065029904 0.052691773 0.03699981 -0.070303604 -0.03682622
0.013328029 -0.06547099 0.019992724 -0.1241304 0.107192576 -0.09033056 0.059138283 -0.08469792
-0.021829832 0.08719934 0.06818275 -0.17233104 -0.0369351 -0.14846423 0.041018132 -0.039363697
0.06526869 0.07355035 0.08674657 -0.08424259 0.07436295 -0.13950814 0.059820276 -0.1680767
-0.030808756 -0.06736821 -0.043159425 0.049456824 0.09309575 -0.048772607 0.0002229248 -0.08954248
0.12050912 -0.15228811 0.09151871 0.101901755 0.15874393 0.0018682258 0.05367843 0.045910783
-0.029633401 -0.111037955 -0.0731288 -0.031636104 0.12162529 -0.006920987 0.16519949 0.026010454
-0.10814954 0.11726577 0.09174987 0.020981062 0.035713628 -0.010119351 0.061205655 0.06739916
-0.12635098 -0.13808616 0.040739823 -0.055324215 -0.03127567 -0.03923499 -0.09819701 0.16008691
-0.066990525 -0.17491472 0.12839998 0.011415364 0.13439023 -0.042872176 0.41403508 0.13313621
-0.12354859 0.11005828 0.075935066 -0.10426382 0.13944034 -0.34040517 0.055426594 -0.018887162
-0.06076828 0.12476798 -0.012913772 0.0024672232 0.084792696 -0.24015345 -0.091345094 -0.06516774
0.12067871 -0.10310587 -0.06254294 -0.05008881 0.07536949 -0.0025702836 -0.09003878 -0.07416493
-0.07909572 0.22248532 -0.14163658 0.058420967 0.088337325 0.05217488 -0.09472393 0.028048819
0.114909194 0.13858305 -0.0042018495 -0.024990119 -0.012537359 -0.08146424 -0.048657253 -0.038140107
0.047143072 0.12058639 0.05779345 -0.15875787 0.08117453 -0.045931615 -0.03780142 -0.07413469
0.049136188 0.03925055 0.045071 0.033281192 0.06906428 0.040414095 -0.11554749 -0.076768935
0.026648736 -0.1485595 -0.082299344 0.068233185 -0.11876271 -0.082331166 -0.059296682 0.09100274
0.0416963 0.08200428 -0.12197136 0.039724614 -0.14075261 -0.048894618 0.042334653 -0.07778742
0.059726585 0.048631065 -0.003928485 -0.11933203 0.03195227 0.065898485 0.027804013 -0.0038551362
0.09605915 0.05320668 0.06283562 -0.067698 -0.06315928 0.15168175 0.00096269173 -0.0423781
-0.029956514 -0.09950873 0.10279416 0.020801231 0.04308065 0.011894475 0.065382235 0.1443736
0.1031475 0.103886016 0.05066178 -0.015259139 -0.06929446 -0.11849743 0.0948081 -0.002909791
0.020030307 0.027581992 -0.048083812 -0.075477004 0.012180775 0.09690376 -0.09847861 -0.015668504

lstm.bias_ih_l0 f4 [200]
00000000: c596 b33d 741c 27be 51a3 49be 5b24 8ebe
00000010: 5c44 463e 3dd3 aabd 22e6 70be 51f6 e8bd
00000020: 5922 0dbc b6dc 15be 0d52 0fbd ddd8 c23d
00000030: dbe1 4dbc 3154 2fbe 9d3b fdbd 9455 583c
00000040: 5423 37be 9c8a f6bd bd4e 93bd e3a4 a83d
00000050: 545a d6bd eb58 4f3e 1dab 06bc 6192 823e
00000060: 6117 4abe 7ac7 0e3d c9ce 6ebd ed81 4ebe
00000070: 1b9d 52bd 0ff6 013e afcc 183e 4935 91be
00000080: 5f3a 953e 3b86 713c d51f b0bd 434a 023e
00000090: 3d47 0c3c 4be2 d0be e4fe c33e 4540 86be
000000a0: c5a9 c2bd 0413 adbe 61d2 1e3e e0b3 043e
000000b0: 5538 10bd 167d a3bd 7691 08be 7d7a 99be
000000c0: d245 87be 198e 81bd 5233 cabd 6e95 b2bd
000000d0: 6386 4a3c 6b69 c9bd 2ad1 763d 61b8 a5bd
000000e0: cf8c b3bc a474 0abd 6158 583d 31b8 adbd
000000f0: 7d4e 30be f784 8c3d 9b00 b4bd fe0a 1dbe
00000100: 0393 15be c4f9 f13d 1b34 64be 57c7 443c
00000110: 4669 4b3d b387 15be 4ee9 e83d dc0a f53d
00000120: b7de a03d 6dbc ee3d 29a0 1abe 7b5a 493d
00000130: 2c51 12be 5a8f ca3d b272 86bd f0bc 503d
00000140: de59 1e3e d154 7dbd f0a6 e8bd f0ca 80bd
00000150: afcc e93b 5dca f43d 52e0 0abd 1071 43be
00000160: 3fe9 873d fded efbd 8650 ffbc 27b1 d2bd
00000170: 0a14 18bd d690 b0bd 0ef7 febd 0c80 b1bd
00000180: 07ba 3bbd 3e9f 7db9 d225 7d3c 791d 24be
00000190: 60bb 213e 6525 d7bd 67f4 093e 5190 89ba
000001a0: af5c b0bd 7e89 df3d ca66 d3bd cb54 673d
000001b0: a835 1abe 169d 3fbe fd73 8a3e 7562 233e
000001c0: e56a f13d 4abc 763d 0d44 653e 48aa 003e
000001d0: f1d5 2dbd 5e47 2e3e 748c 2c3e df39 c8bd
000001e0: d386 f93d 4c4b c1bd 0535 20bd 50da b9bc
000001f0: 40c6 bbbd 995c 70be b500 54bd 331e ee3c
00000200: 7682 793d 54eb 863e 0c2a 37be f3b7 713d
00000210: 209c 6abe 5513 8bbe a001 a83d 4b99 a2be
00000220: c1c7 3fbd c5fe e93c 2c27 203f f599 b13d
00000230: 16bd 353e 1951 f33d b05f c53c 29fc c1be
00000240: a9e2 27be aa0b 41bd 3a51 f7bd b549 e53d
00000250: 1fe6 3cbd cb02 09be 5879 c43d 28a6 8d3c
00000260: e452 81be 6199 4ebe 4f32 ca3d 88c4 14be
00000270: e4de 19be f167 4b3e 59ba 643d bd92 a03d
00000280: eea6 1bbd d03c 613e 844e 183e a330 40be
00000290: 368e 8d3c 25d0 b9bd 36de 283d b249 31bd
000002a0: 00d3 0f3e e4c3 43bd 7633 633b a90b 2f3e
000002b0: 6e09 34be 8245 0c3e 6062 acbc a7be 613e
000002c0: 2ae1 67be a388 06be 3496 c33d b391 65bd
000002d0: e758 523e 4bc5 2abe 9a5e 753e 108b 413d
000002e0: e914 573d 69d1 2abd a9d8 693d dff6 3cbe
000002f0: 4125 083e 8c74 64be 6218 ebbd 4268 3cbe
00000300: 8d82 23bd 9b5d 493e c236 4fbe 156c a9bd
00000310: ba4b 2ebe da31 e9bc 49e5 13be a2f6 8bbc
0.087689914 -0.16319448 -0.19691207 -0.27762112 0.19362015 -0.08341072 -0.23525289 -0.11375106
-0.008614146 -0.14634976 -0.03499036 0.0951402 -0.012566055 -0.1712196 -0.12364886 0.013203997
-0.1788457 -0.120381564 -0.071927525 0.08234575 -0.104664475 0.20248763 -0.0082195075 0.25502303
-0.19735481 0.034858204 -0.058302674 -0.2016675 -0.05141936 0.1269152 0.1492183 -0.28360966
0.29146096 0.014741476 -0.085998215 0.12723641 0.008561906 -0.40797648 0.38280404 -0.2622091
-0.09505037 -0.3380357 0.1550994 0.12959242 -0.035209972 -0.079828426 -0.13336739 -0.29976264
-0.26420456 -0.06325931 -0.0987307 -0.08719908 0.012361142 -0.0983456 0.06025807 -0.08091808
-0.021917729 -0.033802643 0.05281866 -0.08482397 -0.17217441 0.068612985 -0.08789178 -0.15336224
-0.14606862 0.11815217 -0.22285502 0.012010417 0.049660943 -0.14602546 0.11372624 0.11964962
0.078549795 0.11657033 -0.15100159 0.049158555 -0.14288777 0.098906234 -0.06564845 0.050961435
0.15463969 -0.061848465 -0.11359966 -0.06288707 0.007134996 0.1195266 -0.033905335 -0.19086099
0.06636285 -0.117153145 -0.031166326 -0.102876954 -0.037128486 -0.08621375 -0.12449466 -0.08667001
-0.045831706 -0.00024187283 0.015450912 -0.16026868 0.15794134 -0.10505179 0.13472138 -0.001049528
-0.08611428 0.109148964 -0.1032234 0.05647735 -0.1505953 -0.18712267 0.27041617 0.15955527
0.11787967 0.06023816 0.2238924 0.12564957 -0.04244036 0.17019412 0.16850454 -0.09776663
0.12183919 -0.0943819 -0.039113063 -0.022687107 -0.091686726 -0.23472823 -0.051758487 0.029067134
0.060915433 0.26351416 -0.17887133 0.05901332 -0.2291112 -0.27163187 0.08203435 -0.31757578
-0.04682136 0.028563866 0.6255977 0.08671943 0.17747912 0.118807025 0.024093479 -0.37887695
-0.16395058 -0.047130264 -0.120760396 0.11195699 -0.046117898 -0.13379972 0.09593457 0.017291144
-0.25258553 -0.20175697 0.09872877 -0.14528096 -0.15026432 0.19863869 0.055841777 0.07840488
-0.038000993 0.21995854 0.14873701 -0.18768553 0.017279726 -0.090729035 0.041227542 -0.043283172
0.14045334 -0.047794238 0.0034668124 0.17094292 -0.17581722 0.1369839 -0.021043003 0.22045384
-0.22644487 -0.1313806 0.09550133 -0.056047153 0.20541726 -0.16676824 0.23961869 0.04725176
0.052510176 -0.041703615 0.05709139 -0.18453549 0.13295461 -0.22310084 -0.1147926 -0.18399146
-0.039919425 0.19664614 -0.20235732 -0.08272568 -0.17021075 -0.028466154 -0.14442934 -0.017085377

lstm.bias_hh_l0 f4 [200]
00000000: f23b 07bd 5dee 7ebd 8ff6 86be b92e 45be
00000010: 15ec 3ebc 6d28 e5bd 62ab b0bd 721a 9ebe
00000020: e7e3 143e 7f7d 00be 8554 98bc 1605 5f3d
00000030: 0901 b43c 25aa 03be 0b06 81be 2862 94bc
00000040: 4894 70be dd88 113d 12ec 103d f895 a83c
00000050: d236 c83d f23e eabc e81d b93c b0a0 08bc
00000060: 4dc1 9b3d 86ba 85bd b3bb 80be 87a2 4cbd
00000070: f264 8dbe 784a a43e b496 2b3d ec59 32be
00000080: 6e22 b03e 2ef7 323e 1c4f 0cbe 1c56 413e
00000090: 5217 7fbe be29 cebe 4bf8 293e 7703 2ebe
000000a0: 8630 1dbe e09c adbe 71f4 673c 77a0 2b3d
000000b0: db62 f9bc 873e 17be 7ad0 0ebc 014f 81be
000000c0: 4425 66be 70ba adbc 928b 38be f8a8 853d
000000d0: b06f abbd 526d f53d a976 babd 418e 97bd
000000e0: 4eb1 60bd 5b5a c9bd 1316 c13b fd87 cf3c
000000f0: 3d8f 45bc f495 c4bd dc8b 34be 4345 2fba
00000100: 072e 0dbe 104a 1b3d 0429 433d a2c1 e3bd
00000110: 5875 1cbe c872 f9bc 2039 25bd c31e 593d
00000120: 236c c43d f167 193d 6608 09bb 5366 d0bd
00000130: 9c75 20be 6cfd 21be 429e 57bd 876a 70bd
00000140: 2ebf 183e a631 983d f1c2 533d 678e 7d3c
00000150: c308 1abe 22c6 3e3d 606e 52be 8b94 85be
00000160: 0255 e3bc 79af 52bd 89cd 0cbe f7c8 b1bd
00000170: b4b6 e9bd 8e9f 2e3e 6725 c7bd 30e4 6dbd
00000180: a595 09bd 89fd 0b3e ce65 803c 2dce 0f3d
00000190: 0115 c63d e798 d73c 1334 803d 5385 3b3e
000001a0: 1c0e 2bbd 4ec0 523e 56f8 193c ea52 47be
000001b0: 1362 93be c2f7 af3b 41ad 5e3e dd8d 083c
000001c0: e411 153e 9a05 2b3d 518e 0b3e 476c 9e3d
000001d0: ca10 dcbd 3d71 be3e 7991 033e 9e44 253e
000001e0: b725 323e 8903 43be e44e e4bd f1db 33be
000001f0: 41a4 8f3d 1a4c 8fbe a3ef 5e3d 3f5c 823d
00000200: 0871 da3d 15e4 d73e 7705 76be 3112 c93d
00000210: 3d3d 8fbe 3fac 9cbe 0e5e b1bd ee94 e0be
00000220: 81b9 13be f206 edbd 3184 313f e60c 6abd
00000230: 0b14 c53d 6f8a 8c3d f008 35bd 2302 c6be
00000240: f9a8 e0bd b63d 46bd 2009 d8bd b717 e53d
00000250: 812c 30bd 1973 bf3b 08b9 0fbd 4f0d 23be
00000260: 572f c0be 0914 43bd 9213 483e 2922 a93d
00000270: cd03 543d fafe 613d 48f2 143e 7dbb afbd
00000280: cefb 67be 90de f53d ea55 643d 4624 b23c
00000290: 34fe c53c f234 0cbd 4645 8f3c c07f 1cbd
000002a0: 2b33 92bd 7ef2 f03d c4e2 18bb ef62 3a3e
000002b0: 6cc7 e7bd e7bf 6a3e e6dc e6bd 171d 293e
000002c0: d0aa a4bd 362e 98be 2e1f 02bd 04d6 fabc
000002d0: 2de6 17bc c787 3fbe 945d 4c3e da08 ba3d
000002e0: 4350 e2bd 5e52 d63d f7ab 2d3b b34a 9ebd
000002f0: 7422 c53d e67e 1bbe 8711 383d 2651 58be
00000300: 9db5 d43d d341 263e 08cb 0cbd a627 dfbc
00000310: 88c3 b2bd 2c17 acbd eb92 b3bd 6422 973d
-0.033016153 -0.06223904 -0.26359984 -0.19256105 -0.011652966 -0.11189351 -0.08626439 -0.3087955
0.14540063 -0.12547873 -0.01859499 0.05444821 0.02197315 -0.12857874 -0.25199923 -0.01811321
-0.23494065 0.035530914 0.035381384 0.020579323 0.09776081 -0.028594468 0.022597268 -0.008339092
0.076052286 -0.06529717 -0.25143203 -0.049959686 -0.27616078 0.32088065 0.04189177 -0.17417115
0.34401268 0.17477104 -0.13702053 0.18880504 -0.2491124 -0.40266222 0.16598623 -0.16993509
-0.15350541 -0.3390875 0.0141574005 0.041901078 -0.030442646 -0.14769946 -0.008716697 -0.25255588
-0.22475153 -0.021207064 -0.18021992 0.06526369 -0.08370912 0.11983742 -0.09104664 -0.0740018
-0.05485659 -0.09831687 0.005892524 0.025333399 -0.012058076 -0.09598914 -0.17631477 -0.0006686041
-0.1378709 0.03791243 0.047646537 -0.11120917 -0.15279138 -0.03045024 -0.04033768 0.053007852
0.09590938 0.037452642 -0.0020909547 -0.10175767 -0.15669864 -0.15819329 -0.05264116 -0.058695342
0.1491668 0.07431345 0.051699582 0.015475846 -0.15042405 0.046575673 -0.20549917 -0.26089892
-0.027750496 -0.051436875 -0.1375028 -0.08680909 -0.11411801 0.17053053 -0.09723931 -0.058078945
-0.033589978 0.13670935 0.015673544 0.035108734 0.09671975 0.026318027 0.06259932 0.18312578
-0.041761503 0.20581171 0.009397587 -0.19465223 -0.28785762 0.005370111 0.21745779 0.008334604
0.14557606 0.04175339 0.13628508 0.07735496 -0.1074539 0.3719577 0.12848462 0.16139457
0.173972 -0.19044317 -0.1114786 -0.1756437 0.07013751 -0.27987748 0.054427754 0.06365251
0.1066609 0.421662 -0.24025522 0.09817923 -0.2797641 -0.30600163 -0.08660518 -0.43863624
-0.14426233 -0.1157359 0.69342333 -0.057141207 0.096229635 0.068623416 -0.044197977 -0.38673505
-0.10969729 -0.048398696 -0.105486155 0.11186164 -0.043011192 0.005842578 -0.03508857 -0.15923046
-0.37536117 -0.04762653 0.19538715 0.08258469 0.051761437 0.055174805 0.14545548 -0.085806824
-0.2265465 0.12005341 0.055745997 0.021745812 0.024169065 -0.03423018 0.017489087 -0.03820777
-0.07138666 0.11765002 -0.0023328522 0.18201803 -0.113173336 0.22924767 -0.11272602 0.16515003
-0.080403924 -0.29722756 -0.031768017 -0.030619629 -0.009271187 -0.18704139 0.19957572 0.090837196
-0.11050465 0.10464929 0.0026500204 -0.077290915 0.09625712 -0.15185127 0.04493859 -0.21124706
0.103862025 0.16236047 -0.034373313 -0.027240586 -0.08728701 -0.08402857 -0.08768257 0.07379606

lstm.weight_ih_l1 f4 [200, 50]
00000000: f368 5cbd 092b 2dbe eeb3 f6bd 9db3 1cbd
00000010: 9948 2f3d 82d5 27be 0939 013d 0739 d73d
00000020: 5189 273d 447b a53d 1be8 b8bd 69df 61bd
00000030: 070a 35be 3d8f 223e c33d 17be f019 933d
00000040: d6b9 dabd 43e5 03be cd81 b3bc 8014 d9bd
00000050: e9ff acbc 755c 733c 13f9 2f3d e431 443c
00000060: ce46 72bc 4c8a 453e dbbf b33d ea9d 373d
00000070: b532 c43d d558 313e 8c0c c03d e16c 3cbd
00000080: 6e57 e2bd 1477 2bbe 67a6 f43c 11cd 9fbd
00000090: 0b6e e3bc 69f0 e23d 3eca 01be 454e 9a3d
000000a0: 7464 813d 758b 703c 80ff ba3c 9e70 343e
000000b0: afab f9bd f5b6 7dbd 0344 043e f4d9 b2bc
000000c0: 63b5 d53c d340 9b3e 511d cabd 1657 ac3d
000000d0: 9e04 36be c4e4 1dbd e178 1b3e 0089 92bd
000000e0: 71c3 10bd 9e71 243d 1542 593e a10c d7bd
000000f0: 09a5 b2bd 21a3 7c3b 244a fb3d 28f8 163e
00000100: b320 8cbd 5ec6 2abe 12f1 d53d d24f f33c
00000110: 00aa 4a3c b24e 0f3e 03df 0fbd 3e5e abbb
00000120: 6fcb 7a3c a2a6 cabd c985 ab3d b831 4e3e
00000130: b0aa 733d c012 bdbb 1ea9 febd 3705 af3d
00000140: d13b b53c 6f6a 50bd fc9f 2fbd 483c c13c
00000150: 1fea 2b3d bd37 803d 56c7 f1bd 185a 86bc
00000160: 938a ebbd 0833 0e3d d9ba 453d e3ca 0cbe
00000170: 3a99 03bc 7cd4 733d caed 213b b067 c03d
00000180: d3fd 3e3e dc1c 9fbd deb9 e6bc 103e 52bd
00000190: 36d2 f43d 6733 39be fcbb 17be 312a f13c
000001a0: 55c7 4cbe e2e0 bc3d 6c59 743d b6e0 8b3d
000001b0: f9f9 e33c a53d 22bc f2fd 2cbe fc07 933d
000001c0: 2dc1 42be e03b 853d bd98 78bd 1643 523e
000001d0: 132e 863d d44c e6bb 9e45 47be fcad aa3d
000001e0: df8f 26be 6acb 54be 3380 6fbd d84d 0a3e
000001f0: d652 393d 0fe2 743d 7e01 3bbd d3cd bcbd
00000200: fcc4 1e3d a776 513e e49b e83d 1dea 83bd
00000210: bc50 5bbd c6b7 763d f472 323d 72e0 9e3d
00000220: 61c7 2f3e ee49 4e3e d023 d6bc e58a 5fbd
00000230: b3e1 8e3d d9b5 31be 5ce1 e43c e4c4 35bd
00000240: a4de bbbd f35e 1fbe b208 c83d d411 813b
00000250: a79d 063d a9f8 7c3d dd8f 9fbd 68ae 773d
00000260: 376f 693c 1c1a 0dbe 3dc7 0bbd ec7a 203c
00000270: 5f47 c1bc 15dd ebbb 9e5b a93d 0310 383e
00000280: 4131 25bd 78c1 28be d587 86bd 08b8 a93d
00000290: e190 89bc abe4 953d c3d4 593d 00d7 eabd
000002a0: f8dc 70be 6a21 e3bd d965 afbd 88d0 2abe
000002b0: 6669 3cbe 89d7 ea3d 0bd2 9b3d 7964 8abc
000002c0: ed26 373d 4a35 29bd 6908 abbd cf49 01bd
000002d0: 4732 103e 4fba 0fbe 0032 673d 6fae 2c3d
000002e0: b384 77bd fb8e 6fbd d17c 363e 40ed 883e
000002f0: d8e8 453e 8bf2 2b3e 1712 003e d0d3 5fbd
00000300: eb27 f13d 06a0 b13d ae78 22be db6e ebbb
00000310: a92e 373e a0cc b7bd f8bb 0d3d 52d6 6c3d
00000320: f770 09be b36c d33d d155 bebd 089b cdbd
00000330: 4f96 983d 479f 9cbe 1636 e8bc 5283 2a3e
00000340: 4804 073e 4e7e 8f3c 8682 af3c 90d8 43be
00000350: 424f 1ebd 6517 97bd f151 06bd d7aa dc3d
00000360: 427f d23d 58a0 a0bd c29d 94be a784 edbc
00000370: 5e18 e0bd afa0 8c3d 6317 31be 36e3 733d
00000380: aea7 293b 3937 2d3e fd1c cdbc 5ba1 91bc
00000390: 0ec2 87bd e339 50bd a501 b3bd d448 24be
000003a0: e6f4 cfbd ff0d d2bb fd81 1e3e 978f e13d
000003b0: d46e 2bbe a7ce 863d b191 08be 6472 773d
000003c0: b7e5 ff3d 7115 25be b05c ffbc 297a 9c3e
000003d0: 2e72 c1bd 76d2 19be 2b3b 583e c936 d1bd
000003e0: b361 fc3d 2299 aebd 4a55 3abe b106 a93d
000003f0: 3363 993d 2394 d63d 3a21 273e 97e3 9abd
-0.053811025 -0.16910948 -0.120460376 -0.03825723 0.042793844 -0.1639004 0.031548534 0.10508924
0.04090244 0.08080152 -0.090286456 -0.0551447 -0.17679606 0.15874954 -0.14769654 0.071826816
-0.10679977 -0.12880425 -0.02191248 -0.10599613 -0.021118121 0.014853586 0.042962145 0.0119747855
-0.014787389 0.19291037 0.08776828 0.044828333 0.09579984 0.17319043 0.09377393 -0.046002273
-0.11051832 -0.16744643 0.029864503 -0.07802785 -0.027762434 0.11081011 -0.12674806 0.0753446
0.06317988 0.014681687 0.02282691 0.17621085 -0.12190949 -0.06194206 0.1291657 -0.021832444
0.026087468 0.30322894 -0.09868873 0.08415048 -0.17775199 -0.038548246 0.1518283 -0.07155037
-0.035342637 0.040147416 0.21216615 -0.10500456 -0.08722884 0.003854938 0.122700006 0.14743102
-0.068421744 -0.16677234 0.10446371 0.029701147 0.012369633 0.13994864 -0.03512479 -0.0052297404
0.015307291 -0.09895064 0.08375127 0.20136154 0.059488952 -0.0057700574 -0.124346 0.085459165
0.02212325 -0.050882753 -0.042877182 0.023588315 0.041971322 0.06260631 -0.118055984 -0.016400382
-0.1150104 0.034716636 0.048273895 -0.1374927 -0.0080321375 0.059528813 0.0024708384 0.09394777
0.18651514 -0.07769176 -0.0281648 -0.05132872 0.11954157 -0.18086015 -0.14817804 0.029439064
-0.19997914 0.092225805 0.05965559 0.068299696 0.027829157 -0.0099023925 -0.16893747 0.07179257
-0.19019003 0.06505561 -0.060692538 0.20533404 0.06551757 -0.0070282016 -0.1946015 0.08333966
-0.1626582 -0.20780721 -0.05847187 0.13506258 0.045245014 0.0597859 -0.04565572 -0.09218945
0.038762078 0.20455419 0.11357859 -0.06441138 -0.05354379 0.060233854 0.04356666 0.07757653
0.17165901 0.2014539 -0.026140124 -0.05457582 0.069766425 -0.17354526 0.027939491 -0.044377223
-0.09173325 -0.15563564 0.097672835 0.003938893 0.032865193 0.06176058 -0.077911116 0.06046906
0.014247707 -0.13779491 -0.034125555 0.009794932 -0.023593603 -0.007197986 0.08269428 0.17974858
-0.040330175 -0.16480052 -0.06568877 0.08287054 -0.016792716 0.073190056 0.05318142 -0.11466789
-0.23521793 -0.110903576 -0.08564348 -0.16681111 -0.18399581 0.11466891 0.07608422 -0.016893612
0.044714857 -0.041310586 -0.083512135 -0.03156453 0.1408168 -0.14035915 0.056444168 0.04215854
-0.060429286 -0.058485966 0.17821051 0.26743507 0.19327104 0.16791742 0.125069 -0.05464536
0.11775192 0.086731 -0.15866348 -0.007184846 0.17888893 -0.08974576 0.03460309 0.05782158
-0.13421999 0.10323467 -0.09293712 -0.100393355 0.07450544 -0.3059027 -0.028346103 0.16651657
0.13185227 0.017516281 0.021424543 -0.19125581 -0.038649805 -0.07377509 -0.03279299 0.107747726
0.10278179 -0.07843083 -0.2902661 -0.028993918 -0.10942148 0.068665855 -0.17294078 0.059542857
0.0025887298 0.16915597 -0.025038237 -0.017777136 -0.0662881 -0.050836455 -0.08740548 -0.16043407
-0.101541325 -0.00641036 0.15479274 0.11013716 -0.16741496 0.065823846 -0.13336827 0.060411826
0.124949865 -0.1612146 -0.031172127 0.3056195 -0.09445606 -0.1502169 0.21116321 -0.102155276
0.12323322 -0.085253015 -0.18196598 0.082532294 0.07489624 0.104774736 0.16321269 -0.075629406

lstm.weight_hh_l1 f4 [200, 50]
00000000: ea93 9c3d 9252 0dbe 1cc6 d4bd d9cc 253e
00000010: 2901 42bd 4829 5d3b 0359 88bd 61a3 83bd
00000020: 3358 303e 98a8 3b3b 5a88 29be 2fbc 3d3d
00000030: c930 273e a6a4 c53d ac97 d0bd 021a 50bc
00000040: 1294 82bd 978c efbc 538a 33be 06c0 39be
00000050: 1f74 dfbd 8b99 993d 09ff 8d3d 71bd 0a3e
00000060: 26ef ed3d eb1f a6bd 65d0 133e d8f0 153e
00000070: a122 34bd 7c5b 313d 3237 273c fbd9 f8bd
00000080: aca3 cb3d 0b85 a43d 3e73 2c3e 7eab 093d
00000090: 5186 cabd 1d54 eabc c3a7 733c faa5 093e
000000a0: efd2 47bd d36d 1bbe c516 d53d 946d ffbc
000000b0: a98e dd3d 3dbb 403d d34a 003e 2ada 46bc
000000c0: e921 a7bd 2671 f93d 555e dd3d 7934 eebd
000000d0: b1df 9e3d 0f0e 23be 1d56 983d 0238 2e3e
000000e0: c86d 8dbd b4bc c13d 5453 f23d 08ed 933d
000000f0: ac0d 0a3e 8ed7 103d ef6a 533d 68f7 d93b
00000100: 3220 d03c e6b5 09be 446b 403e c690 a7bd
00000110: b0fb 373e 9e17 173e a4ec 583d fcc4 a6bd
00000120: 361c 043b 2a39 9abd f7c0 c33d c47a 6d3b
00000130: 3a88 babd 7619 11be e991 443d 0add 06bd
00000140: 877a abbd 7d59 05be 2903 c83c f78f d03d
00000150: 0cdf d73d 74a4 b93c dbc8 0c3e 8e57 203a
00000160: cbf1 313e 6c0d 23be f927 373e 423b c5bd
00000170: 9b59 e53d 36f0 153c e1f0 9c3d f879 6ebc
00000180: 2a59 16bd 6a90 1f3e 8399 0abe 0d33 07be
00000190: 3dbe fc3d b9b6 073e c94e 203d 11c1 1a3e
000001a0: 28ba b5bc 7ad7 d8bd cab7 a53d 4b54 28bd
000001b0: 2f2a e93d 9518 3e3c fef4 c4bd e5bd 50bd
000001c0: 6687 b539 e80e 23be f387 bf3d b620 023e
000001d0: e055 a3bd 1ce0 ecbb 3a6d 82bd 827f 923d
000001e0: b0bb febd 9651 1c3d 0aa5 c83c a299 1b3e
000001f0: 9b31 b8bd 6a9f 973d 3fc8 013e 9029 54bc
00000200: c21a ec3d 2c72 2bbe a045 2d3e a7eb 90bd
00000210: 2c14 81bd 0c9d 223e a912 9f3d 0f53 093c
00000220: d162 fcbd 1a7c 1f3d 93eb 2dbe 023d bcbd
00000230: 9c21 8ebb 765a 07be 7f42 3bbd ba11 29bd
00000240: 6c4b 93bd 4d5a 5fbc 9798 883c d5ba 643c
00000250: 9cd2 91bb f843 c8bd 514b f43d 5bf9 4e3d
00000260: 5678 a3bc 851f fc3d 5c98 a4bd a4e5 02be
00000270: bef9 323e 9490 6a3d 0a54 313e 8e1d b23d
00000280: bd49 223d db58 22bc ef2e a1bd 587c 093b
00000290: 31cb e4bd ece0 f8bd fb26 803c e74a a4bc
000002a0: 7b2b 1bbe db86 1d3d 6415 373d 6bf7 bdbc
000002b0: 9671 58bd 0553 f23d c145 fa3d 2a85 bf3d
000002c0: 532b a3bd 3239 883d 89d3 423d c67c 813d
000002d0: 12eb 5fbd 8ca7 56bd dcaf 623b b814 abbd
000002e0: b8ab e2bb a0d4 82bd cada 80bd 29c7 ff3d
000002f0: 0bea a93d 73e4 383c a0c0 753d 13c2 0a3c
00000300: 4663 cf3b 5741 6b3d 6bde 193e 9e55 023e
00000310: 79c9 663c c88a 1c3b c089 6fbd 5b36 8e3c
00000320: 25ed b1bd 847d d8bd 4cd0 adbd e363 e3bd
00000330: fae9 8a3d 8bb1 6ebe b2db 13be 5371 a4bc
00000340: f194 26bb fbe8 2cba e4f4 dbbd 2cfc f3bd
00000350: e7bb 0bbe 3e2e febc 823e eb3d ddcb e9bd
00000360: 46b9 2ebe d56e 1b3d a7d3 443d 7e8e 47bd
00000370: 773b 2f3d 1fcc 89bd b510 123b 31e4 583d
00000380: 5b90 5c3d c8c3 a9bd 2b83 60bd 2ca5 1bbe
00000390: 367c d83d b45a 043e 85ed f7bd 5d07 98bd
000003a0: f612 f63c 8320 c83d b3f2 90bd dc02 703c
000003b0: 07e3 bebd de1f 923d 75e0 e8bd 887b 0f3b
000003c0: 9c70 a8bd 5957 1ebd 6e8f e33d 13b1 03bd
000003d0: 88c6 c2ba 221c ec3d d745 1e3d 032e c53d
000003e0: 0183 9bbb a289 8a3d 5b07 8c3d 18c7 853d
000003f0: 90e5 e63d 117c 0e3d 7de8 433e 5bf2 a9bc
0.076454 -0.1380103 -0.10389349 0.16191424 -0.047364388 0.003374653 -0.06657603 -0.064276464
0.17221145 0.0028634425 -0.1655592 0.046322044 0.16327204 0.09650545 -0.10185179 -0.012701513
-0.063758984 -0.029241843 -0.17533235 -0.18139657 -0.1091082 0.07499989 0.0693341 0.13548829
0.116178796 -0.081115566 0.14434965 0.14642656 -0.043978337 0.043300137 0.010206031 -0.121509515
0.09943327 0.080331884 0.16840836 0.033610813 -0.098889 -0.028604561 0.0148715405 0.13442221
-0.048785146 -0.15178613 0.104047336 -0.03118018 0.10818226 0.047053564 0.12528543 -0.012136975
-0.08160765 0.121797845 0.10809008 -0.11631102 0.077575095 -0.15923332 0.074383 0.17013553
-0.06905705 0.094598204 0.118323 0.072229445 0.13481778 0.03536182 0.05161565 0.0066518076
0.025405977 -0.13448295 0.18790919 -0.0818191 0.17967105 0.14755103 0.052960053 -0.081430405
0.0020158417 -0.075304344 0.095582895 0.0036236504 -0.091080144 -0.14169869 0.047990713 -0.032925643
-0.083729796 -0.13022418 0.02441557 0.10183709 0.1054059 0.022661425 0.13748495 0.0006116562
0.17377393 -0.15923089 0.17886342 -0.09630443 0.111987315 0.009151509 0.076631315 -0.014555447
-0.036706127 0.15582433 -0.13535123 -0.13203068 0.123409726 0.13253297 0.039137635 0.15112711
-0.022183493 -0.10587974 0.080916956 -0.041096013 0.11384999 0.0116025405 -0.09617041 -0.050962348
0.0003462389 -0.15923655 0.09352102 0.1270779 -0.07975364 -0.0072288644 -0.063684896 0.071532264
-0.12438142 0.038163744 0.02449276 0.15195325 -0.089938365 0.07403453 0.12674044 -0.012949362
0.11528541 -0.16742772 0.16921091 -0.07076197 -0.063026756 0.15880221 0.07767231 0.008381619
-0.12323535 0.03893671 -0.16984396 -0.09191324 -0.0043375026 -0.13218102 -0.045717712 -0.04127667
-0.0719212 -0.013632369 0.016674323 0.01396056 -0.0044501554 -0.09778589 0.11928428 0.050530773
-0.019954842 0.123106994 -0.08036873 -0.12782913 0.17478082 0.057266787 0.17317215 0.08697043
0.039621104 -0.00990888 -0.0787028 0.0020978656 -0.11171568 -0.121522754 0.015643587 -0.020055247
-0.15153305 0.038458686 0.044698134 -0.023189267 -0.0528427 0.11832241 0.12220336 0.09351571
-0.07967248 0.06651534 0.047565017 0.06322627 -0.05466754 -0.05240588 0.0034589684 -0.08353561
-0.006917443 -0.06388211 -0.06291731 0.12489159 0.08296593 0.011284935 0.059998155 0.008469122
0.006328973 0.05743536 0.15026252 0.12727973 0.014086121 0.002388643 -0.058480978 0.017359903
-0.0868781 -0.10570815 -0.08486995 -0.11103036 0.06782909 -0.23309915 -0.14439276 -0.020073568
-0.0025418366 -0.0006595996 -0.107400686 -0.11913332 -0.13645898 -0.03102791 0.11486532 -0.11415837
-0.17062864 0.037947495 0.04805341 -0.048719876 0.04278132 -0.06728386 0.002228779 0.052951995
0.053848606 -0.082892954 -0.05481259 -0.15199727 0.10570566 0.12925225 -0.1210585 -0.074232794
0.030038338 0.09771826 -0.07077541 0.014649119 -0.09320646 0.071349844 -0.11370937 0.0021893699
-0.082246035 -0.03865752 0.111113414 -0.032151293 -0.0014860192 0.115288034 0.038640823 0.09627917
-0.0047458415 0.067645326 0.068373404 0.06532115 0.11274254 0.034786288 0.19131656 -0.020745447

lstm.bias_ih_l1 f4 [200]
00000000: 9be3 25bd 2397 35be c439 c23d 6af0 f23d
00000010: 85cd 913d fb5a 14be f28b 553e 7d35 5fbd
00000020: daa7 483d 16c7 dcbc b5b3 e23d 7065 8c3c
00000030: c6b1 1f3e 8ef3 983d be54 c9bd 1e68 2bbd
00000040: ce66 fbbd a8be 473d a81c e33c 17c5 8c3d
00000050: 70aa 0cbe 2492 a6bd da58 503c 1c70 f03c
00000060: 6852 dfbc c004 90bd f599 c1bd b16b 71bd
00000070: fa1c b9bd 56ef db3c 5699 f6bd ccae e5bd
00000080: b2a0 aa3b e354 183e 8b63 163e a9f9 89bc
00000090: 3309 98bd 8419 8f3d ce1c 9cbd cf0d 36bd
000000a0: 1be1 28bc 79b3 1b3e 3a16 dbbd 9e5c ad3c
000000b0: dcf4 093d 3ff6 68bd c5eb 353c a56c 1e3e
000000c0: df8c 9dbd 553d 5a3d 071c 01be 11c7 1dbe
000000d0: 6fae f6bd 3f22 50bd 42c0 debd 91b1 d6bc
000000e0: fa2d 23bd 27ca 1a3d 1529 edba 3831 c0bd
000000f0: bf88 3bbd 286b dc3b 34f7 a4bd cc39 fa3c
00000100: cfb3 173c 8dfc dfbb accb 923d 9e02 a4be
00000110: 59cf 043c 1d5e 1a3e 2443 07bd 460d 10be
00000120: c312 1d3e 08cc 78bd b002 00be 1ef7 ecbd
00000130: 2761 3b3e 15e0 df3d 6d73 b8bd 233f b13d
00000140: 5115 c83c d482 1abe aa26 f4bc ced2 afbd
00000150: 3825 1d3c 2371 693b 8b2f 153e 12bd d7bd
00000160: d88f 92bd d8b1 733c 0d6e bdbd 13c6 78be
00000170: 8e02 04be efe4 1b3e 0db5 743d 1189 01bd
00000180: e1dc 55bc 706f f93d 4d5c 573d be1a 83bd
00000190: 558b c6bd c291 833b 8108 e2bd 0924 9e3d
000001a0: 1078 cbbc 8613 393d ff78 dc3d e28e 1f3d
000001b0: 2614 fb3c d4ab d0bc f8b7 c4bc 7d8f 6cbd
000001c0: d06a cb3d 0c59 5ebd d807 673c 317f 013e
000001d0: db72 7fbe daac b93d cd92 b8bb f8d5 d1bd
000001e0: db11 5f3d c853 bcbd 31a6 e6bd 1d7b 14bd
000001f0: 1ede 953c 9420 e3bd 1e43 3b3d 1159 a93d
00000200: d81b 00be 9bcb 1e3d f996 4e3d 98b6 113e
00000210: 5ff0 183e d8e2 ccbc 57b8 00bd ab21 24be
00000220: 6578 d3bd 5209 d13c b11a 8d3d f1ca 173e
00000230: 3643 3d3d 4ccf 1dbb 0add 73bd 55eb fb3c
00000240: be26 023e 53df 4a3d 2eb6 87bd 2688 00be
00000250: 6691 72bc 9ddf 833c e6f0 1abe b4da b73d
00000260: 7d4c c13d 10f2 043e bf66 903d 393c fb3d
00000270: 2ba6 0ebc a3e0 1abd 1222 c4bc e8a4 d43d
00000280: 3800 1c3b 61ab 76bd 3286 60bb 463f bcbd
00000290: 76dc 67bc 27fe 113e fd0f ffbc def1 71bd
000002a0: 8d99 9cbc 52a3 6fbd 28fb 953d eddc 903d
000002b0: 9660 acbd 4b06 733d 0955 523c 4d95 a8bd
000002c0: f202 59bd cbb5 a93c 9fa3 453d 1147 a4bd
000002d0: c82a 523d b656 2e3b 483d e6bd fd6a 9cbd
000002e0: aaff c73c a704 7c3d a4ad e53c 0a73 13bd
000002f0: 7100 96bd a262 373d eec6 583d 4f6c df3d
00000300: 9932 aa3d 53e7 cf3c 4a60 17be fc1c 29bd
00000310: 919d 1dbd c412 75bc d7e7 9b3b a99b 68bd
-0.040500265 -0.17733435 0.09483674 0.118622616 0.07119278 -0.14487831 0.20854166 -0.05449437
0.0489882 -0.0269504 0.11069433 0.017138213 0.15595159 0.07468329 -0.098306164 -0.04184734
-0.12275468 0.04876581 0.027723625 0.068735294 -0.13736892 -0.08133343 0.012716496 0.029350333
-0.027260974 -0.07032156 -0.09453193 -0.058940593 -0.0903873 0.026847523 -0.12040965 -0.112149805
0.0052071447 0.14876132 0.1468641 -0.01684268 -0.074236296 0.069872886 -0.076226816 -0.044446763
-0.010307576 0.15205182 -0.10697599 0.021162327 0.03368078 -0.056875464 0.011103575 0.15471132
-0.07692885 0.053281147 -0.12608348 -0.15407969 -0.12044989 -0.05081391 -0.10876514 -0.026207717
-0.03983877 0.037790444 -0.0018093908 -0.09384388 -0.045784708 0.006726641 -0.08054963 0.030545138
0.009259178 -0.0068355263 0.071677536 -0.32033247 0.008106076 0.15074964 -0.033023015 -0.14067563
0.15339188 -0.060741454 -0.12501025 -0.11570571 0.1829878 0.10931412 -0.09006391 0.086546205
0.024424227 -0.1508897 -0.029803593 -0.0858513 0.009591393 0.0035620413 0.14568917 -0.10534109
-0.07156342 0.014873944 -0.09249506 -0.2429431 -0.128916 0.1522405 0.059742976 -0.031624857
-0.01305315 0.12179458 0.05257826 -0.06401585 -0.09694544 0.0040151784 -0.11036778 0.07721717
-0.024837524 0.045184635 0.10765266 0.038954623 0.030649256 -0.025472559 -0.024013504 -0.05775403
0.09932482 -0.05428414 0.014100991 0.12646176 -0.24946158 0.09066172 -0.0056327344 -0.102458894
0.054460388 -0.091956675 -0.11262167 -0.036250222 0.01829439 -0.11090198 0.045718305 0.08268941
-0.12510622 0.038768392 0.050436947 0.1422981 0.14935444 -0.025010511 -0.0314258 -0.16028468
-0.10325698 0.02551714 0.068898566 0.1482351 0.046206675 -0.0024079857 -0.05953697 0.030751863
0.12710091 0.049529385 -0.06626545 -0.12551937 -0.0148051735 0.016097838 -0.15130958 0.08977261
0.09438417 0.12982965 0.07050847 0.12267346 -0.00870661 -0.037811887 -0.023942027 0.10383016
0.0023803841 -0.060222033 -0.0034259674 -0.09191756 -0.014151683 0.14257108 -0.031135553 -0.059068553
-0.019116187 -0.058505364 0.07323295 0.07073388 -0.0841686 0.059332173 0.012837657 -0.08231602
-0.052981324 0.020716568 0.048251744 -0.08021367 0.05131033 0.0026601977 -0.11242157 -0.07637594
0.024413902 0.061527874 0.0280369 -0.03599838 -0.07324303 0.044771798 0.05292409 0.1090933
0.08310432 0.025378859 -0.14782825 -0.041287407 -0.038480345 -0.014958087 0.004757862 -0.056789074

lstm.bias_hh_l1 f4 [200]
00000000: 576d acbc 94fb 3b3d a398 183e 1df7 4bbd
00000010: b869 1b3c 14de e63b db43 9c3d 5d27 853d
00000020: cafc c7bd eb28 2d3c 5ff2 0cbe d3b5 af3d
00000030: ee7b 4c3e 5da5 163e b77a 82bc 7ec8 183d
00000040: cb67 fd3c ac2d 313e a9f7 4f3d e6cc fc3a
00000050: 0582 0bbe b632 9fbd bba4 153d 378e 623d
00000060: 0b42 57bc 0318 343e 572b b03d 67e6 25bd
00000070: 122c f8bd 60d2 a63d ec0b 943d 90f4 e8bd
00000080: f0ca 993d 055b 5abd 33a4 d23d d4ff 91bd
00000090: 8a17 1a3e d1c2 333e fb2a 58bd 1ff6 90bd
000000a0: a68e 713c 7f03 6e3e 8508 b53c 6360 3bbd
000000b0: 85a8 213e 0778 2bbe da54 ba3d 28dc 223d
000000c0: 743a dfbb 669d 923d d9f8 30bd dfa4 d2bd
000000d0: ff3c 5c3d 88b6 af3d 6fe2 20bb 41d3 ed3d
000000e0: e457 4cbd 07d7 89bd 0316 69be b1f4 6dbc
000000f0: f36a 15be 38b2 eb3c 1ac1 bfbd ca7d 77bd
00000100: 913e f1bb 0720 c0bc be60 36be 46bd c9bd
00000110: d92f 0dbe 4a94 6cba 28ac c5bd 889c d8bd
00000120: 25d2 73bd 25f7 8abc a85e 11be 287c 55bc
00000130: 85ee 3abd fde5 95bd d969 f2bd 1563 a43d
00000140: 9eaa 6abd e39d 903d 89bc 0d3e cb34 06be
00000150: edbb 93bc 7d75 c7bd 037b e03d 0409 40bd
00000160: e466 1c3d 634f 473d 1585 373d 0d99 70be
00000170: c206 cebd ddcd 4e3e 18d8 f0bc ef59 adbc
00000180: 63fa 123b b8cd abbd bcb2 fd3d b299 05be
00000190: 0436 693d f9ae d8bb 7db5 7e3d 03f0 94bd
000001a0: 0bce e53d e3f3 e83d 029c 223d 1685 48be
000001b0: 86a3 113d c4d7 0f3d 6047 2abe 92a4 52bc
000001c0: 8c24 1dba 54bc 33be 0786 e43d 7fc1 f53c
000001d0: d7b4 52be 107a d43d 64fd 46bd 1edc 1bbc
000001e0: c5fc 2ebd 2840 28be 18e7 73bd ab33 963c
000001f0: cbda 28bd 7276 ad3d a63b 173d 00d5 273d
00000200: 69ed 063e b4aa c3bd a8a3 1cbc e5ed 98bd
00000210: 3139 e3bd 4ac9 c53c 0113 ee3d b0df e63c
00000220: 5bf4 11be 8a06 b53d 2c96 15be 06fe 72bd
00000230: d891 e63d 04d8 59bd 3ba5 2dbe 8d14 d7bd
00000240: 412b 45bd 648d 74bb 8dab 7fbd 4c36 4cbe
00000250: 0b78 0ebd 68d8 1b3d c2a7 d9bb 266e a0bc
00000260: 4e4d 0dbe d530 00bd add6 81bd 6ace 4dbd
00000270: be59 a8bd 765f 77bc 4411 83bd 6d23 86bd
00000280: 031c c33c f09c 0abc 875f 0c3d 8928 633d
00000290: 3b4b 9bbc 26ff c23d 7f26 2dbe bb6f 293e
000002a0: a589 e63d bda7 90bd 4600 c03d 8b7a 85bd
000002b0: 5b62 763d cfa7 55bd 5d90 cbbd efa9 81bd
000002c0: 436e bf3d ee5c 17bd 5546 06be 93bd 2cbc
000002d0: 8451 9abd fcfb 06be 3098 9abd a99a 04be
000002e0: 932b d8bd 1bee 413d 245d 37bd b840 533d
000002f0: f12f c53d e0fe 9e3c 12e2 063e 2bb2 7e3e
00000300: a8a0 3abd d938 873d 65aa d53d b191 12be
00000310: b951 e1bd f2cd eb3d 0052 913d 4609 e63c
-0.021048231 0.04589422 0.14901976 -0.049796212 0.0094856545 0.0070455167 0.0763013 0.065016486
-0.097650126 0.010568838 -0.13764332 0.08579602 0.1996915 0.14711519 -0.015927656 0.03730058
0.030933281 0.17302579 0.050773297 0.0019287139 -0.13623817 -0.07773344 0.036534052 0.055311408
-0.013138304 0.17587285 0.086020164 -0.040502932 -0.12117781 0.081455946 0.072288364 -0.113747716
0.075094104 -0.05330946 0.10285225 -0.071288735 0.15048042 0.17554785 -0.052775364 -0.07078194
0.014743483 0.23243521 0.022098789 -0.04574622 0.15786941 -0.16745006 0.090982154 0.03976074
-0.006812388 0.071589276 -0.04320607 -0.10285353 0.053769108 0.08579737 -0.0024549027 0.11612559
-0.049888507 -0.06730466 -0.22762303 -0.014523671 -0.14591579 0.028771505 -0.09363003 -0.060422696
-0.007362195 -0.023452772 -0.17810342 -0.09850554 -0.13787784 -0.00090247823 -0.09651977 -0.10576731
-0.05952658 -0.01696355 -0.14196265 -0.013030089 -0.045637626 -0.073192574 -0.11836595 0.08026711
-0.05729162 0.070613645 0.13841452 -0.13106076 -0.018033946 -0.09739206 0.109609626 -0.046883598
0.03818406 0.048659693 0.04480465 -0.23495884 -0.10059883 0.20195718 -0.029399917 -0.021161048
0.0022427074 -0.08388847 0.123876065 -0.13046911 0.05693628 -0.0066126552 0.0621848 -0.07272341
0.1122094 0.11374643 0.039699562 -0.19582018 0.03555634 0.03511788 -0.1662879 -0.012856619
-0.00059945206 -0.1755231 0.11158376 0.029999493 -0.20576797 0.10374844 -0.048581496 -0.009512929
-0.04272153 -0.16430724 -0.05954656 0.018335184 -0.041224282 0.08469857 0.03692212 0.040974617
0.13176502 -0.095540434 -0.009560503 -0.0746725 -0.11094893 0.024143834 0.116247185 0.028182834
-0.1425337 0.08839138 -0.14608067 -0.059324287 0.11258286 -0.053184524 -0.16957562 -0.105019666
-0.048136953 -0.003731572 -0.062419463 -0.19942588 -0.03478245 0.038048178 -0.0066423127 -0.019583773
-0.1379902 -0.03129657 -0.06339774 -0.05024568 -0.08220242 -0.015098443 -0.063997775 -0.06549726
0.023817068 -0.008460268 0.03427079 0.05545858 -0.018956771 0.09521322 -0.16909216 0.16546528
0.11256722 -0.070632435 0.09375052 -0.06517514 0.060152393 -0.052161988 -0.099396445 -0.063312404
0.09347203 -0.03695386 -0.13112767 -0.010543245 -0.07535079 -0.13182062 -0.07548559 -0.12949623
-0.10555186 0.047346216 -0.04476656 0.051575392 0.09628285 0.019408643 0.13172176 0.24872653
-0.04556337 0.0660264 0.10432891 -0.1431339 -0.110019155 0.1151389 0.070957184 0.028080594
