TFM/regresion/results/bus_trip/LSTM_NOBATCH.pt (torch, 210814 bytes, 10 tensors)

lstm.weight_ih_l0 f4 [200, 100]
0	0x3e00f86c	0.12594765
1	0x3e0a3172	0.13495424
2	0xbc7a5f23	-0.015281471
3	0x3e170c21	0.1475072
4	0xbc607b32	-0.013701247
5	0x3d3ad649	0.045614514
6	0xbd5611cf	-0.052263077
7	0x3dcc4fde	0.09976171
8	0x3e1064a4	0.14100891
9	0xbdb2dff2	-0.087341204
10	0x3e0e3a32	0.13889387
11	0x3d2ad27d	0.041704644
12	0x3df61d89	0.12017352
13	0x3d0ab86c	0.033867285
14	0x3daae1d6	0.08343856
15	0xbba72703	-0.005101086
16	0x3dfcaf55	0.123381294
17	0x3d123275	0.03569265
18	0xbd556c0f	-0.052105006
19	0x3d4f560d	0.050619174
20	0xbd51dad3	-0.051234078
21	0xbb416422	-0.0029509147
22	0xbd310e04	-0.043226257
23	0x3ddb8c8c	0.107201666
24	0xbdc8f1d3	-0.09811749
25	0xbd54ba9a	-0.05193577
26	0xbce0afad	-0.027427519
27	0xbd92ea08	-0.07173544
28	0x3cd125c7	0.025530709
29	0xbe01e0a8	-0.12683356
30	0x3e0f69cd	0.14005204
31	0xbddebb23	-0.10875537
32	0x3df920a9	0.121644326
33	0x3d0daedf	0.0345906
34	0xbd0ab9db	-0.03386865
35	0x3dca1c86	0.09868722
36	0x3d06ea70	0.03293842
37	0x3e008ea2	0.1255441
38	0x3cd1ddb4	0.025618412
39	0xbd091183	-0.033463966
40	0x3d467f24	0.048461094
41	0xbce828b9	-0.02833973
42	0x3d8f89e7	0.07008725
43	0x3e0af31d	0.13569303
44	0x3dbb9d46	0.09160857
45	0xbd56612f	-0.052338775
46	0x3db8d154	0.09024301
47	0x3d0d7941	0.034539465
48	0x3da33bc2	0.07970382
49	0xbd9e5d1c	-0.07732603
50	0xbe071ec1	-0.13195325
51	0xbd433644	-0.047659174
52	0xbdcdac0d	-0.10042582
53	0x3dfb0d98	0.12258452
54	0x3d45b834	0.048271373
55	0x3d859c4c	0.06523952
56	0x3d4e4c82	0.050365932
57	0x3b6f4cdb	0.0036514315
58	0x3dece1a1	0.11566473
59	0xbdc1fef4	-0.094724566
60	0x3c6165cf	0.013757183
61	0xbdbc6a59	-0.09199972
62	0x3d47e293	0.048800062
63	0xbd36ee20	-0.044660687
64	0x3d41cbbd	0.04731344
65	0xbcd42094	-0.02589444
66	0x3df51cfd	0.1196842
67	0xbda583bc	-0.08081767
68	0xbda97176	-0.08273594
69	0xbda7ef7d	-0.08199976
70	0x3e03748d	0.1283743
71	0x3d424f32	0.047438808
72	0x3e0c748e	0.13716337
73	0xbdf01f53	-0.117247246
74	0xbe1017c6	-0.14071569
75	0xbde3d9f3	-0.11125555
76	0xbdc73fde	-0.097289786
77	0x3d5fabe0	0.054607272
78	0x3d410a83	0.047129165
79	0x3deb333c	0.114843816
80	0xbd9e7b01	-0.07738305
81	0xbdcfd760	-0.101485014
82	0x3d920823	0.07130458
83	0xbd80e89c	-0.06294367
84	0x3da4361b	0.08018132
85	0xbd24b46c	-0.040211126
86	0x3d94e212	0.07269682
87	0xbdf21bd9	-0.11821718
88	0xbda6bdec	-0.081416935
89	0x3d0aead0	0.03391534
90	0x3c9ed6e0	0.01938957
91	0xbd42e042	-0.04757715
92	0x3d9578e9	0.072984524
93	0x3da82dcb	0.08211859
94	0xbdedd9f7	-0.11613839
95	0xbdb8ea69	-0.09029085
96	0x3de78601	0.11304856
97	0xbd823e0d	-0.063594915
98	0xbd8adbbe	-0.06780194
99	0xbe1d49b7	-0.15360151
100	0xbd54daab	-0.05196635
101	0x3d8404d7	0.064462356
102	0x3c2b3d71	0.0104516605
103	0xbd964184	-0.07336715
104	0x3d0577ee	0.032585077
105	0xbd89b872	-0.06724633
106	0xbdb96f99	-0.09054489
107	0xbd466f65	-0.048446078
108	0xbdc0f914	-0.09422508
109	0xbd77d06b	-0.060501497
110	0x3e2f1ff1	0.17102028
111	0x3d6756c0	0.056479216
112	0x3d962bdb	0.073325835
113	0xbdd10187	-0.102053694
114	0xbd81128e	-0.06302367
115	0xbc8bf3b5	-0.017083982
116	0x3d55dac5	0.052210588
117	0xbdc12638	-0.09431118
118	0xbcfbaa02	-0.030720714
119	0xbd5edf7a	-0.054412343
120	0x3cfbfd7f	0.030760525
121	0xbcb5b72e	-0.022182073
122	0x3ca958b0	0.020672172
123	0xbd859179	-0.06521887
124	0xbd87f263	-0.066380285
125	0xbd53efa1	-0.0517422
126	0xbc904879	-0.017612683
127	0xbda5504e	-0.080719575
128	0x3e191ebf	0.14953135
129	0x3b414699	0.0029491542
130	0x3e1c7b00	0.15281296
131	0x3d9a33a7	0.07529383
132	0xbdb5298e	-0.088458166
133	0x3e044bbc	0.12919515
134	0xbbf4ba4b	-0.007468497
135	0xbcb9effb	-0.02269744
136	0xbdafb0fe	-0.085786805
137	0xbddefe30	-0.10888326
138	0x3d93d7dc	0.07218906
139	0x3a74051a	0.00093086215
140	0x3db226c5	0.08698801
141	0xbdac3f09	-0.084104605
142	0x3e0c54fe	0.13704297
143	0xbd92e393	-0.071723126
144	0x3bff86d9	0.0077980575
145	0x3d7d3d57	0.061826076
146	0x3dd7a9b8	0.10530418
147	0x3e1620f8	0.14661014
148	0x3e252caa	0.16130319
149	0xbda31007	-0.07962041
150	0x3d8bddf6	0.06829445
151	0xbce573ba	-0.028009284
152	0x3c8e4c39	0.01737033
153	0xbd955c44	-0.07292989
154	0x3e25b93d	0.16183944
155	0xbd90c77b	-0.07069298
156	0x3ddec23a	0.108768895
157	0x3da9f35f	0.082983725
158	0x3da24719	0.07923717
159	0xbd30a159	-0.043122623
160	0x3e25eb02	0.1620293
161	0x3d8458b8	0.06462234
162	0x3d540500	0.05176258
163	0xbdba026d	-0.09082494
164	0x3dbee22f	0.09320485
165	0x3c50239f	0.012703805
166	0xbcfcc6da	-0.030856539
167	0x3e1f4ba5	0.155562
168	0x3d8662cf	0.06561815
169	0xbd34b557	-0.04411825
170	0xbd189546	-0.037251733
171	0x3ce30d20	0.02771622
172	0x3de86bbc	0.11348674
173	0xbacf12cc	-0.0015798449
174	0xbd3cad1e	-0.046063535
175	0xbc606fac	-0.0136985
176	0xbd912012	-0.07086195
177	0x3dae8f22	0.08523394
178	0x3e13c726	0.14431438
179	0xbdc93f61	-0.09826542
180	0x3d8ad929	0.06779701
181	0x3ddd4e70	0.108059764
182	0x3d788a78	0.06067893
183	0xbc767e00	-0.015044689
184	0x3ddf7d89	0.10912616
185	0x3de0a9ce	0.10969888
186	0x3db4b463	0.088234685
187	0x3c2c1503	0.010503056
188	0xbb07841c	-0.0020678109
189	0x3d4eaf16	0.050459944
190	0x3c2bd4da	0.0104877595
191	0xbbd71803	-0.0065641417
192	0x3e00eeb4	0.12591058
193	0x3e20cc65	0.1570297
194	0x3caf71dc	0.021416597
195	0x3b762486	0.003755839
196	0x3d193dad	0.037412334
197	0x3cdbb764	0.026820846
198	0x3d8dc107	0.06921583
199	0x3d991011	0.074737675
200	0xbdb96355	-0.09052149
201	0xbc6831fe	-0.014172075
202	0x3e20c333	0.15699463
203	0x3dbeb8e5	0.093126096
204	0x3cfd273f	0.030902503
205	0xbd419325	-0.04725947
206	0xbd466c8b	-0.04844336
207	0xbdb5a237	-0.08868831
208	0xbc02b32e	-0.00797729
209	0x3dafa7f2	0.08576955
210	0x3e035f72	0.12829378
211	0x3dd3f039	0.10348553
212	0xbdb20655	-0.08692614
213	0xbd3fb94d	-0.046807576
214	0x3c819922	0.01582009
215	0x3e333f6e	0.17504665
216	0x3d70e1c8	0.05880907
217	0x3ad29cc7	0.0016068452
218	0x3dc67237	0.096897535
219	0xbc7f1c75	-0.0155707495
220	0xbd59bbb7	-0.053157534
221	0x3e1116e5	0.1416889
222	0xbcd48b21	-0.025945248
223	0x3c26962b	0.010167639
224	0xbdd164ed	-0.10224328
225	0x3e085a84	0.13315779
226	0x3e1538a7	0.14572392
227	0x3db8775c	0.09007141
228	0xbd75a0f2	-0.059967943
229	0xbdcee572	-0.10102357
230	0xbd9c070f	-0.07618534
231	0x3e13abdc	0.14421028
232	0x3dda3ec0	0.106565
233	0x3e219bde	0.15782115
234	0x3de70cb6	0.11281721
235	0x3d98d404	0.07462314
236	0x3d19dcda	0.037564136
237	0xbd8cbd9b	-0.06872102
238	0xbda84dc1	-0.082179554
239	0xbdbf3e01	-0.09337998
240	0x3dc66b2b	0.096884094
241	0xbcf8a52e	-0.030352201
242	0x3c2c2e85	0.010509138
243	0xbd2d0ee0	-0.042250514
244	0x3c59f60a	0.013303289
245	0xbd775f78	-0.06039378
246	0xbd59d2e1	-0.053179625
247	0x3db04a78	0.08607954
248	0xbb334f76	-0.0027360595
249	0x3e0189bf	0.12650202
250	0xbbc60208	-0.0060427226
251	0xbd83ba61	-0.06432033
252	0x3c6b56ed	0.014363986
253	0xbcee1ca7	-0.029066397
254	0xbb7db426	-0.0038712113
255	0xbdc2da1c	-0.09514257

lstm.weight_hh_l0 f4 [200, 50]
0	0x3d887951	0.06663764
1	0xbe3e0f68	-0.18560565
2	0xbded07a7	-0.11573725
3	0xbe19c197	-0.15015255
4	0xbd217caa	-0.03942553
5	0xbd30c0e2	-0.043152697
6	0xbd8e5704	-0.06950191
7	0xbde68361	-0.11255527
8	0xbdb40ec1	-0.087918766
9	0x3d3a24c6	0.045445226
10	0xbd264f29	-0.040602837
11	0xbe0ad00f	-0.1355593
12	0xbd33242f	-0.04373568
13	0x3d3a574d	0.045493413
14	0x3d4cee96	0.05003222
15	0xbddcefe6	-0.107879445
16	0xbcd6dc36	-0.026228052
17	0x3e00223e	0.12513062
18	0xbb30b254	-0.002696176
19	0xbd7a7303	-0.06114484
20	0x3d6d5c4d	0.057949353
21	0xbd8e99d2	-0.06962933
22	0x3dc1dfea	0.09466536
23	0xbe244035	-0.16040118
24	0xbd4409f5	-0.04786106
25	0x3d097885	0.033562202
26	0xbe043238	-0.12909782
27	0xbd251a82	-0.040308483
28	0x3d86d807	0.06584173
29	0x3e0ff579	0.14058484
30	0x3dd738e7	0.105089
31	0x3da39742	0.079878345
32	0x3d773d96	0.060361467
33	0xbc8872f7	-0.016656382
34	0x3d489479	0.04896972
35	0x3da54442	0.0806966
36	0x3ce12e15	0.027487794
37	0xbc8055e2	-0.015665952
38	0x3d779a7a	0.060450055
39	0x3d411f98	0.04714927
40	0xbe0063de	-0.12538096
41	0x3df20b02	0.11818506
42	0xbd0a020a	-0.03369335
43	0x3dedfb12	0.116201535
44	0x3e16913e	0.14703843
45	0xbb30e1fb	-0.0026990164
46	0xbd749d32	-0.059720226
47	0xbe2315c0	-0.15926266
48	0xbbb5e9fc	-0.0055515748
49	0x3de9e8cb	0.11421355
50	0x3e097fe3	0.13427691
51	0x3d844d0e	0.064600095
52	0xbbcd84cc	-0.006271934
53	0xbcf56898	-0.0299571
54	0x3c28b85d	0.010297862
55	0xbcf790eb	-0.03022047
56	0xbd2b56b2	-0.041830726
57	0x3d83ac58	0.06429356
58	0xbdbf2490	-0.093331456
59	0xbdbb70e8	-0.091523945
60	0xbd427cab	-0.047482174
61	0xbdcf84fb	-0.10132786
62	0xbdbf607c	-0.09344575
63	0x3dbc01c2	0.09180023
64	0x3d845276	0.06461041
65	0x3d6a5159	0.057206485
66	0xbdacf835	-0.08445779
67	0x3d876af0	0.066121936
68	0x3dae6309	0.08514983
69	0x3b25de39	0.0025309457
70	0xbda89f58	-0.082335174
71	0xbd37738e	-0.044787936
72	0x3dbd9f61	0.09258915
73	0x3d28fa9f	0.041254636
74	0x3cbc6ff0	0.023002595
75	0xbdae833a	-0.08521123
76	0xbe10b01e	-0.14129683
77	0x3e013d3d	0.12621017
78	0xbbbf18cc	-0.0058318134
79	0x3e095149	0.13409914
80	0xbdeeec17	-0.11666124
81	0xbd64015f	-0.05566537
82	0xbe157f12	-0.14599255
83	0x3ddf02e4	0.10889223
84	0x3d30e5c3	0.043187868
85	0x3d2173a5	0.039416928
86	0x3dbc7d23	0.092035554
87	0x3cc1545e	0.0235998
88	0x3d3dfa87	0.0463815
89	0xbddf856b	-0.10914119
90	0xbbd1da1c	-0.0064041745
91	0x3de915c0	0.113811016
92	0xbbb6bf38	-0.0055769943
93	0xbd9de312	-0.07709326
94	0xbd71b2f7	-0.059008565
95	0x3a48b732	0.0007656693
96	0x3dd682d5	0.10474173
97	0xbb656b31	-0.0035006518
98	0xbd71c928	-0.05902973
99	0x3ce54242	0.027985696
100	0xbd70b440	-0.05876565
101	0xbbd5f768	-0.0065297373
102	0x3d83e70a	0.064405516
103	0xbe1107a3	-0.1416307
104	0xbd4c8f3e	-0.049941294
105	0xbd85b649	-0.06528909
106	0x3dc17d38	0.09447712
107	0xbe12d949	-0.143407
108	0xbc934c5c	-0.017980747
109	0xbe19db5a	-0.15025082
110	0xbdbf5d88	-0.093440115
111	0xbda7d397	-0.081946544
112	0x3d0a294c	0.03373079
113	0xbdd5f136	-0.10446398
114	0x3bc0f525	0.0058885985
115	0xbdc78f5a	-0.09744139
116	0x3dfd32f4	0.12363234
117	0xbd9b3824	-0.07579067
118	0xbe05452b	-0.13014667
119	0xbceeba61	-0.029141607
120	0xbe1023b5	-0.14076121
121	0xbd583215	-0.052782137
122	0x3d0475f1	0.03233904
123	0xbdd522aa	-0.10407002
124	0xbda7a713	-0.08186164
125	0x3dcb7584	0.09934524
126	0x3da51bdb	0.08061954
127	0x3e10f56d	0.14156123
128	0x3dc35fd3	0.095397614
129	0x3e0f1dcf	0.13976215
130	0xbc4a4694	-0.012345929
131	0xbd256a93	-0.04038484
132	0xbd625248	-0.05525425
133	0x3cd5e171	0.026108475
134	0x3d0a8c0d	0.03382497
135	0xbde7702c	-0.11300692
136	0x3dc07ca1	0.09398771
137	0xbc6b28e1	-0.014353008
138	0x3e060c84	0.13090712
139	0x3c894a42	0.016759042
140	0x3d312b5b	0.043254238
141	0x3d0d3a6e	0.03447955
142	0x3d9c9516	0.076456234
143	0xbd8699b8	-0.06572288
144	0x3daea38d	0.085272886
145	0xbdcfaac7	-0.10139995
146	0x3dc667c0	0.096877575
147	0xbdb5cf87	-0.08877473
148	0x3d4b23e3	0.04959477
149	0xbde1a478	-0.11017698
150	0xbdd64136	-0.10461657
151	0x3e015e08	0.12633526
152	0x3db83807	0.08995061
153	0xbe139eed	-0.14416094
154	0xbdcc4d6c	-0.099757046
155	0xbe097885	-0.13424881
156	0x39dcf13e	0.0004214141
157	0xbd5a45d4	-0.05328925
158	0x3a440d44	0.00074787834
159	0x3d925e42	0.071468845
160	0x3d6c740b	0.057727855
161	0xbd1cd52a	-0.038289227
162	0x3c26d136	0.010181716
163	0xbdd2e1b3	-0.10296955
164	0x3e03d738	0.12875068
165	0xbe0e312a	-0.13885942
166	0xbd629f04	-0.05532743
167	0xbd31792c	-0.04332845
168	0xbdb8e477	-0.09027951
169	0xbc96732e	-0.018365469
170	0x3d5468b2	0.051857658
171	0xbd65197c	-0.055932507
172	0xbd85c456	-0.06531589
173	0xbd754fc3	-0.05989052
174	0x3d282eb3	0.04106016
175	0xbdb5379d	-0.08848498
176	0x3dafd69c	0.08585855
177	0x3d4daf21	0.050215844
178	0xbe033246	-0.12812147
179	0x3c046c27	0.008082426
180	0x3d47a771	0.04874367
181	0x3e1f944a	0.15583912
182	0xbd8fdbd6	-0.07024352
183	0xbe07331e	-0.13203093
184	0xbda34f8f	-0.07974159
185	0x3c859f3d	0.016311282
186	0x3da3f262	0.08005215
187	0x3cb5c19b	0.022187045
188	0x3e14a3b3	0.14515571
189	0xbda8ff72	-0.08251847
190	0xbe0efe2c	-0.13964146
191	0x3d191334	0.03737183
192	0x3ddce581	0.10785962
193	0x3e1352b6	0.1438702
194	0x3c81a82b	0.015827259
195	0xbcdcf6cd	-0.026973153
196	0x3da38847	0.07984977
197	0x3d9166b3	0.070996664
198	0xbe02d35b	-0.12775938
199	0xbd4bde50	-0.04977256
200	0x3e47dea7	0.19518529
201	0xbe17647b	-0.14784424
202	0xbe50a4b5	-0.20375331
203	0xbe41c8b4	-0.18924218
204	0xbd2da39d	-0.042392362
205	0x3da438eb	0.08018669
206	0xbdd90cbf	-0.10598134
207	0xbe55b5a0	-0.20870066
208	0x3e787fa4	0.24267441
209	0xbda5f250	-0.08102858
210	0x3d0d2bc8	0.03446558
211	0xbe0b47f3	-0.13601665
212	0x3e3abce9	0.18236126
213	0x3e0e51d0	0.13898396
214	0xbe1abf19	-0.1511196
215	0xb9759ee0	-0.00023424206
216	0x3e3598ef	0.17734121
217	0x3bbd4f5a	0.0057772817
218	0x3af05e7d	0.0018338707
219	0x3d0bcac9	0.034128938
220	0xbe0f2365	-0.13978346
221	0x3be58a37	0.007005002
222	0xbd2c0c81	-0.042004112
223	0xbce28fe9	-0.027656512
224	0xbe1288b7	-0.14309965
225	0x3d0935b9	0.0334985
226	0x3d3b2f6e	0.04569953
227	0xbd609e84	-0.054838672
228	0xbe421468	-0.18953097
229	0x3e084e34	0.13311082
230	0x3e6d0430	0.23146129
231	0xbc31438d	-0.010819328
232	0xbdd5b0ca	-0.104341105
233	0x3d97d368	0.074133694
234	0x3e0c8fae	0.13726684
235	0xbdc38c55	-0.095482506
236	0xbe4f4d1e	-0.20244262
237	0x3cdae633	0.026721096
238	0xbce5fdbe	-0.028075095
239	0xbdee505b	-0.1163642
240	0xbe2a8f03	-0.16656117
241	0x3da84065	0.08215407
242	0x3e327431	0.17427136
243	0x3e4e64eb	0.20155685
244	0xbd4a5cd9	-0.049404953
245	0x3e02c230	0.12769389
246	0x3e552799	0.20815887
247	0x3c852296	0.016251843
248	0x3dd083d6	0.10181396
249	0x3da35e4c	0.0797697
250	0xbd9797ec	-0.07402024
251	0xbdb24527	-0.08704596
252	0xbdb796c9	-0.08964307
253	0xbd4ad8e6	-0.049523257
254	0x3dacded6	0.0844094
255	0x3e2113d6	0.15730223

lstm.bias_ih_l0 f4 [200]
0	0x3e13343b	0.14375393
1	0x3de7f779	0.113264985
2	0xbd651a78	-0.055933446
3	0x3d992375	0.07477466
4	0xbd3d19d7	-0.04616722
5	0x3d9c4b4d	0.0763155
6	0xbd536ed8	-0.05161938
7	0xbdb813bb	-0.08988138
8	0x3d18e758	0.03733
9	0xbd830f10	-0.06399357
10	0xbdbec692	-0.09315218
11	0xbde3970f	-0.111127965
12	0xbde05a89	-0.10954768
13	0x3d9e83ad	0.07739959
14	0x3e095e24	0.13414818
15	0x3df7ab08	0.120931685
16	0xbde8e895	-0.113724865
17	0xbd78e0af	-0.06076115
18	0xbd9fe40e	-0.0780717
19	0xbdedde6d	-0.1161469
20	0xbd07e199	-0.03317413
21	0x3d45af67	0.04826298
22	0x3e17514a	0.14777103
23	0x3dbae979	0.091265626
24	0xbdd98ad4	-0.106221825
25	0x3dbf73f3	0.093482874
26	0x3e1ea24a	0.15491596
27	0x3e1bf087	0.15228473
28	0xbdd2c8f3	-0.10292234
29	0xbd475572	-0.04866547
30	0xbccde949	-0.025135653
31	0x3e059c84	0.13047987
32	0x3e386cab	0.18010204
33	0x3da4e3ee	0.08051287
34	0x3e5a3e31	0.21312787
35	0x3d60e314	0.05490406
36	0xbca0b077	-0.019615395
37	0x3d9e7692	0.07737459
38	0xbd5507fb	-0.052009564
39	0x3d86ef87	0.06588655
40	0x3d521b06	0.051295303
41	0x3e1f275b	0.15542357
42	0xbddd61a4	-0.10809639
43	0x3c3b9725	0.01144961
44	0x3c9c6893	0.019092834
45	0x3d7f6890	0.062355578
46	0x3e14756c	0.14497918
47	0x3cfde118	0.030991122
48	0x3dca9987	0.09892564
49	0xbdf40279	-0.11914534
50	0x3d0abe92	0.03387315
51	0xbcadbeed	-0.021209205
52	0x3e034bde	0.1282191
53	0x3c0312b7	0.008000067
54	0xbc310e22	-0.010806592
55	0xbd572d94	-0.0525337
56	0x3d82d49e	0.0638821
57	0xbd91d570	-0.07120788
58	0x3d9d0f70	0.0766896
59	0x3c791397	0.0152024245
60	0xbd8f38d1	-0.06993259
61	0x3e12c305	0.14332207
62	0xbd3c6ddd	-0.04600321
63	0xbc3a7377	-0.011380068
64	0x3818723e	3.634602e-05
65	0xbd0f182c	-0.03493516
66	0xbd788740	-0.06067586
67	0x3dc46a8b	0.09590634
68	0x3e1ab05f	0.15106343
69	0xbdd97de5	-0.106197156
70	0x3d94f056	0.07272403
71	0xbdced7e3	-0.10099771
72	0xbd978b5e	-0.07399629
73	0xbdceb1d8	-0.10092515
74	0x3dcd3a16	0.10020845
75	0xbde4c563	-0.11170461
76	0x395aea61	0.00020877413
77	0x3d9bf114	0.076143414
78	0xbd7cce84	-0.061720386
79	0xbd91a8c5	-0.07112268
80	0x3e04edfd	0.1298141
81	0xbd1db424	-0.038501874
82	0xbdd7c463	-0.10535505
83	0x3d25a18a	0.04043726
84	0xbcbbc1c0	-0.022919536
85	0xbd2aa99c	-0.04166566
86	0xbd355ec4	-0.04427983
87	0xbd2646d3	-0.040594887
88	0x3cf5b2e5	0.02999253
89	0x3b462860	0.0030236468
90	0xbde02b1a	-0.10945721
91	0x3da3b611	0.07993711
92	0x3d83a909	0.06428725
93	0x3e114489	0.141863
94	0xbded2743	-0.11579754
95	0x3c8e0c7d	0.01733994
96	0x3ddfae62	0.10921933
97	0xbdc174f0	-0.09446132
98	0x3d82ff19	0.06396312
99	0xbd90a5a2	-0.07062842
100	0x3def2937	0.11677783
101	0xbd6e774c	-0.05821924
102	0x3c6c3f0d	0.014419329
103	0xbde2a348	-0.110663
104	0xbe16e096	-0.1473411
105	0xbc4c2895	-0.012460847
106	0x3dcd8b38	0.100363195
107	0xbde8d67c	-0.11369035
108	0x3dca2a10	0.09871304
109	0xbe03d2a1	-0.12873317
110	0xbca76ba4	-0.02043707
111	0xbdee9940	-0.11650324
112	0x3d8eeb07	0.06978422
113	0x3c57a95d	0.013162938
114	0x3d0fa46f	0.035068925
115	0x3bed3bc2	0.0072397897
116	0x3c80d5a8	0.01572688
117	0x3d3f4d55	0.04670461
118	0xbdf07fd7	-0.117431335
119	0xbd9a7765	-0.07542304
120	0xbd935a13	-0.07194915
121	0xbdd9895c	-0.10621902
122	0x3e04d1cd	0.12970658
123	0xbe39f7a3	-0.18160872
124	0xbb9e7454	-0.0048356447
125	0x3c9f2802	0.019428257
126	0xbd54d842	-0.051964052
127	0xbc0b73a3	-0.008511457
128	0x3c8dfe7c	0.017333262
129	0xbd4486fb	-0.04798029
130	0xbd97b274	-0.07407084
131	0x3da8b25b	0.082371436
132	0x3dc2f0bf	0.09518575
133	0xbd832e63	-0.06405332
134	0xbe466764	-0.19375378
135	0x3e086daf	0.13323091
136	0xbe1f6273	-0.15564899
137	0x3c6bb24e	0.014385773
138	0x3e1571f7	0.14594255
139	0xbe037653	-0.12838106
140	0x3db4a6b9	0.08820862
141	0x3d838e02	0.0642357
142	0x3da85818	0.082199275
143	0x3dd9b97b	0.10631081
144	0xbd2cd7b1	-0.042197887
145	0x3de0f460	0.10984111
146	0xbde9355b	-0.1138713
147	0x3dfc0129	0.12304909
148	0x3a9d6811	0.0012009164
149	0x3cd88181	0.02642894
150	0x3df82836	0.12117045
151	0xbd968d39	-0.07351155
152	0xbdfa1739	-0.122114606
153	0xbda96b43	-0.08272412
154	0x3e104d15	0.14091904
155	0x3d6fc07d	0.05853318
156	0x3d4e3f93	0.050353598
157	0xbd53504e	-0.051590256
158	0x3bc4a2f6	0.006000872
159	0xbe56f9ee	-0.20993778
160	0xbc3a4b66	-0.011370515
161	0xbc3071ea	-0.010769347
162	0x3ce831a6	0.028343987
163	0xbdfa3467	-0.12217026
164	0xbc21636e	-0.009850366
165	0xbd5afb2c	-0.053462192
166	0x3c60266c	0.0136810355
167	0x3c765ddc	0.015037026
168	0x3e0b213b	0.13586895
169	0x3a51dab8	0.0008005309
170	0xba50f9ca	-0.0007971792
171	0xbdb9e3d7	-0.0907666
172	0x3e1ca3fc	0.1529693
173	0xbc9b4dde	-0.018958028
174	0x3da23e96	0.079220936
175	0x3c4044f5	0.011735191
176	0xbbc0a261	-0.005878732
177	0x3df0b5cc	0.11753425
178	0x3d90377c	0.07041833
179	0xbdc01c57	-0.093804054
180	0x3dc6fc84	0.09716132
181	0xbc849d22	-0.016188208
182	0x3db27c74	0.08715144
183	0x3daceece	0.08443986
184	0x3e6bd806	0.23031625
185	0x3d911c0a	0.07085426
186	0xbc2d15bf	-0.010564267
187	0xbde19f7e	-0.11016749
188	0x3d947b70	0.07250106
189	0xbdb4f76c	-0.088362545
190	0x3d312941	0.043252233
191	0x3d8b87bd	0.068129994
192	0x3cdebf36	0.027190786
193	0x3d6493e2	0.055805095
194	0xbe030053	-0.12793092
195	0xbd0f5cf8	-0.03500077
196	0xbd1677eb	-0.036735456
197	0xbdd523ab	-0.10407194
198	0x3e0d2123	0.13782172
199	0xbd95a84a	-0.07307489

lstm.bias_hh_l0 f4 [200]
0	0xbd27074d	-0.040778447
1	0xbcce607e	-0.025192495
2	0x3de8dbb6	0.113700315
3	0x3cbaea36	0.022816759
4	0x3e14d4e4	0.14534336
5	0x3db4f182	0.088351265
6	0xbba44b56	-0.0050138636
7	0x3e0b208b	0.13586633
8	0x3dd50e16	0.10403077
9	0x3deb6526	0.11493902
10	0x3e16de11	0.14733149
11	0x3da07bba	0.07836099
12	0x3e124b74	0.14286596
13	0x3dca561c	0.09879705
14	0x3bcb28ca	0.006199931
15	0x3d1f9e93	0.038969588
16	0xbd423c7d	-0.047420967
17	0x3e0088ce	0.12552187
18	0x3dd35f94	0.103209645
19	0xbda2df57	-0.07952755
20	0x3e1c3441	0.15254308
21	0x3dbf8912	0.09352316
22	0x3d39667d	0.045263756
23	0xbd1aee07	-0.037824657
24	0xbd0d2ff6	-0.034469567
25	0xbe1d7c4d	-0.15379448
26	0xbd84020c	-0.06445703
27	0x3e206430	0.15663218
28	0x3c9ada01	0.01890278
29	0x3e1a36c4	0.15059954
30	0x3de21647	0.11039405
31	0x3e0b09fa	0.13578025
32	0x3dce5b98	0.10076064
33	0xbc3edd00	-0.01164937
34	0x3e693b3b	0.22776501
35	0xbdb80567	-0.089854054
36	0x3d81d40b	0.06339272
37	0x3d7e1b73	0.062037896
38	0x3ded1d6e	0.11577879
39	0xbdb28b1f	-0.087179415
40	0x3d12ee9f	0.035872098
41	0x3d2032c4	0.039110914
42	0xbd951dfa	-0.07281108
43	0x3d7bcd71	0.06147522
44	0x3cddec1e	0.027090129
45	0x3df0c064	0.117554456
46	0xbdd87b7d	-0.105704285
47	0x3d50154c	0.05080156
48	0x3e55725c	0.20844406
49	0xbd953ab6	-0.07286589
50	0x3e130acc	0.14359587
51	0xbc922ba1	-0.01784307
52	0x3e12851a	0.14308587
53	0xbbbf12e8	-0.005831111
54	0x3dba9976	0.091113016
55	0xbe105ab7	-0.14097105
56	0x3cb1e003	0.021713262
57	0xbd8534ea	-0.06504233
58	0x3d2a9c76	0.04165312
59	0xbe0cd226	-0.1375204
60	0xbd79a507	-0.060948398
61	0x3cb57f97	0.022155566
62	0xbe2e9aa5	-0.1705118
63	0x3dcd8177	0.10034459
64	0xbdb5fc88	-0.08886057
65	0xbc197c31	-0.009367988
66	0xbbad6622	-0.005291716
67	0x3d8ba8b5	0.06819288
68	0xbcc34c9d	-0.023840243
69	0x3bac64f1	0.0052610566
70	0xbd4488f6	-0.04798218
71	0xb832024a	-4.244064e-05
72	0xbe100f79	-0.14068402
73	0xbc81f81a	-0.015865374
74	0xbdd72c11	-0.10506452
75	0xbe0f8d42	-0.1401873
76	0x3e18c72e	0.14919731
77	0xbdf382ae	-0.118901595
78	0x3dbd04a6	0.09229402
79	0xbd4dd4a8	-0.050251633
80	0x3e15b7ea	0.14620939
81	0xbda23051	-0.07919372
82	0xbd9107f2	-0.070815936
83	0x3daa24c1	0.083077915
84	0xbe1ae6a5	-0.15127046
85	0xbd95780e	-0.07298289
86	0xbdcd9125	-0.1003745
87	0x3dec2bad	0.11531768
88	0x3e0c98cb	0.13730161
89	0xbd709c73	-0.05874295
90	0x3dbe6604	0.09296802
91	0xbe1ac5b0	-0.15114474
92	0x3dc2c5d6	0.095103905
93	0xbdf8d481	-0.12149907
94	0x3e216451	0.15760924
95	0xbda99b47	-0.0828157
96	0xbdabd90c	-0.08391008
97	0x3d6a7b62	0.057246573
98	0xbe24a2ee	-0.16077778
99	0x3dfc97ee	0.12333666
100	0x3c1adc46	0.009451931
101	0x3d51caaa	0.051218666
102	0x3d8927dd	0.066970564
103	0x3d4a34e8	0.04936686
104	0xbe4b1fca	-0.19836345
105	0x3d492579	0.049108002
106	0xbe211622	-0.15731099
107	0xbdddf457	-0.1083762
108	0xbdf1e0a6	-0.118104264
109	0xbd155728	-0.03646007
110	0xbda19226	-0.07889204
111	0xbdf0c0b5	-0.11755506
112	0xbd91bb1d	-0.07115767
113	0xbd98a255	-0.074528374
114	0x3d232b5d	0.039836276
115	0xbd78588e	-0.060631327
116	0x3e0fbf1f	0.1403775
117	0x3dc054fc	0.093912095
118	0xbd9fb318	-0.07797831
119	0xbd08afd3	-0.033370804
120	0xbe1d1edd	-0.15343805
121	0x3d3d6a0a	0.046243705
122	0x3d09c65b	0.033636432
123	0x3d15cf14	0.03657444
124	0xbe1fe33e	-0.1561403
125	0x3cd7d094	0.026344575
126	0xbdade182	-0.08490278
127	0xbd958e55	-0.07302538
128	0xbcf26caf	-0.02959284
129	0x3d7eadaa	0.062177338
130	0x3db03895	0.08604542
131	0xbda86879	-0.082230516
132	0x3bdd9fef	0.0067634503
133	0x3db5890f	0.088640325
134	0xbe3e0260	-0.18555593
135	0x3d590d10	0.052990973
136	0x3deb37d6	0.11485259
137	0xbddee42a	-0.108833626
138	0xbd677744	-0.056510225
139	0xbc51d261	-0.012806506
140	0xbd86df09	-0.06585509
141	0xbb1db2b4	-0.0024062814
142	0x3dcbe585	0.09955887
143	0x3cdec400	0.02719307
144	0x3dda8c54	0.10671297
145	0xbd283e8b	-0.04107527
146	0xbe02bf27	-0.12768231
147	0xbe0944c3	-0.13405137
148	0x3c68c8f8	0.014208071
149	0xbdaa7387	-0.08322816
150	0x3decf2da	0.11569758
151	0x3d804ebc	0.062650174
152	0x3d30e280	0.043184757
153	0xbb8ee712	-0.004361042
154	0xbc885071	-0.01663992
155	0xbc6c3842	-0.01441771
156	0xbdf84ced	-0.121240474
157	0xbdf91825	-0.12162808
158	0xbdb47450	-0.08811247
159	0xbe13aedc	-0.14422172
160	0xbdf11049	-0.11770684
161	0x3bad9f3f	0.0052985246
162	0xbd47407c	-0.04864548
163	0x3e09cdc6	0.13457403
164	0x3c8e9575	0.017405251
165	0xbccbbe65	-0.02487106
166	0x3cd45c21	0.025922837
167	0x3e1ba2ef	0.15198873
168	0x3e0b5b95	0.13609155
169	0x3e48e2cd	0.19617768
170	0xbd7e0753	-0.062018704
171	0x3d264fdc	0.040603504
172	0x3da5933c	0.08084723
173	0x3e292e85	0.16521652
174	0x3dfd1427	0.123573594
175	0x3dde0001	0.108398445
176	0x3dda9bb3	0.106742285
177	0xbe08cd36	-0.13359532
178	0xbd88e51c	-0.06684324
179	0x3dca1d34	0.09868851
180	0x3d350e05	0.044202823
181	0xbe2b6d3e	-0.16740891
182	0x3deb3547	0.11484771
183	0x3d871366	0.06595497
184	0x3e122284	0.14270979
185	0x3cb8cf40	0.022559762
186	0xbd9ac87e	-0.07557772
187	0x3dbb96c8	0.091596186
188	0x3d050b3e	0.032481425
189	0x3e2ee5d8	0.17079866
190	0x3dc358fa	0.09538455
191	0xbce4d02d	-0.027931297
192	0xbd390977	-0.045175042
193	0xbdc6f72d	-0.09715114
194	0x3d0ad40f	0.03389364
195	0xbda425cb	-0.08015021
196	0x3d8e3c58	0.069451034
197	0xbd8e4f0c	-0.06948671
198	0x3e3bf914	0.18356735
199	0x3dae3b80	0.085074425

lstm.weight_ih_l1 f4 [200, 50]
0	0xbdec537d	-0.115393616
1	0xbd4e842b	-0.050419014
2	0x3b2f2501	0.0026724937
3	0xbd544694	-0.05182512
4	0x3d2fe21c	0.042940244
5	0xbc3e9dc6	-0.011634296
6	0xbe02944f	-0.12751888
7	0xbd552dc6	-0.052045606
8	0x3e33cc91	0.17558505
9	0xbdbd2ef1	-0.09237469
10	0x3c8d5534	0.017252542
11	0xbc65aab2	-0.014017748
12	0x3e04c15b	0.12964384
13	0x3dbfa0ad	0.09356818
14	0x3d6c6113	0.057709765
15	0xbcca8cca	-0.024725337
16	0xbd1c1f33	-0.03811569
17	0x3e0a7f84	0.13525206
18	0x3dc395ae	0.095500335
19	0x3e52b357	0.20576225
20	0xbcce5ec5	-0.025191674
21	0xbcc99cdf	-0.024610935
22	0xbe693b16	-0.22776446
23	0x3dc8720f	0.0978738
24	0x3bf8414d	0.007576144
25	0x3e172a8a	0.14762321
26	0x3dbe06cc	0.0927864
27	0x3c3f8e61	0.011691661
28	0x3d81358f	0.063090436
29	0xbcd3f7fe	-0.025875088
30	0xbdb3fe14	-0.08788696
31	0x3d4d60de	0.050141208
32	0xbdb00ea7	-0.08596545
33	0x3d2d52ba	0.042315222
34	0x3e5f42e3	0.21802859
35	0xbda6e39c	-0.08148882
36	0xbba43b6f	-0.005011968
37	0x3d7612ff	0.06007671
38	0xbdd09567	-0.10184746
39	0x3dc72c7c	0.097252816
40	0x3b71588e	0.0036826464
41	0x3d4c550d	0.0498858
42	0xbc6dee1f	-0.0145221045
43	0x3e0fb62e	0.1403434
44	0xbd9f5f51	-0.07781852
45	0x3cd66fe3	0.026176399
46	0x3d2d14c2	0.042256124
47	0xbe232a10	-0.15934014
48	0x3d618e60	0.05506742
49	0xbd4a8661	-0.04944456
50	0xbdc226c2	-0.09480049
51	0xbdbea2c1	-0.093083866
52	0x3d219a50	0.039453804
53	0xbc5b047c	-0.013367768
54	0x3db7eb51	0.0898043
55	0x3d2618b4	0.040550902
56	0xbd73a2e5	-0.05948152
57	0xbc97b00d	-0.018516565
58	0x3d3029ec	0.04300873
59	0xbdfeab6e	-0.12435041
60	0x3d124204	0.03570749
61	0xbd85fc32	-0.06542243
62	0x3e0d1084	0.13775831
63	0x3db49a8c	0.0881854
64	0x3e863982	0.2621575
65	0xbc055bae	-0.008139534
66	0x3dcc85d4	0.09986463
67	0x3d3d9118	0.04628095
68	0x3d228ee5	0.039687056
69	0x3e94fba0	0.29098225
70	0xbdfe1f25	-0.12408284
71	0xbd44b0f9	-0.048020337
72	0xbe4cf8f9	-0.2001685
73	0x3e010bb2	0.12602118
74	0x3d6f55f0	0.058431566
75	0xbdc5f331	-0.09665526
76	0xbdc3d41a	-0.095619395
77	0xbda16dfd	-0.07882307
78	0xbd613730	-0.05498427
79	0x3cb734c0	0.02236402
80	0x3d0e2a4d	0.03470831
81	0x3d175f5c	0.036956176
82	0xbe16266e	-0.14663097
83	0xbcdce521	-0.026964726
84	0x3db0a555	0.086252846
85	0xbd2f474d	-0.042792607
86	0xbd95e484	-0.073189765
87	0x3ca8fca3	0.02062828
88	0x3e1bab8c	0.15202159
89	0xbd9786da	-0.07398768
90	0xbd58f470	-0.05296749
91	0x3e0fcd7f	0.14043234
92	0x3e0d73b6	0.13813671
93	0xbcc41e85	-0.023940334
94	0x3e07b7cc	0.13253707
95	0x3da29f00	0.07940483
96	0x3ddb64f5	0.107126154
97	0x3d1743e6	0.036929987
98	0x3d3c1ac0	0.04592395
99	0x3e17cc5e	0.14824054
100	0xbc80ed63	-0.015738195
101	0xbd2152cb	-0.0393856
102	0xbdb41d4b	-0.0879465
103	0xbe0f6395	-0.14002831
104	0x3e3148ff	0.17313002
105	0xbd6dde16	-0.058073126
106	0xbe4b253d	-0.19838424
107	0xbdd48b84	-0.10378173
108	0xbd3428b0	-0.043984115
109	0xbda9f0c9	-0.08297879
110	0xbdd9f7f3	-0.10642996
111	0x3c3e5971	0.011618004
112	0x3df82e44	0.121181995
113	0x3e128a02	0.14310458
114	0x3d6a5b83	0.05721618
115	0xbcfae23c	-0.030625455
116	0x3e0d8ba0	0.13822794
117	0x3e08a424	0.13343865
118	0x3d6578ea	0.056023516
119	0x3ead5998	0.33857417
120	0xbdea4894	-0.114396244
121	0x3e1ab6c2	0.15108779
122	0xbeb4aa53	-0.35286197
123	0x3da2746c	0.07932362
124	0x3d69d9f5	0.057092626
125	0x3dad145b	0.08451148
126	0xbdc9177f	-0.09818935
127	0x3de8a988	0.113604605
128	0x3dbf12a3	0.093297265
129	0xbcdbd7ed	-0.02683636
130	0xbba1790f	-0.0049277614
131	0x3e0d7aa1	0.1381631
132	0x3cb4db91	0.022077354
133	0xbdbb14c0	-0.09134817
134	0x3e839460	0.2569914
135	0xbe3626d0	-0.17788243
136	0x3d67267b	0.056433182
137	0x3d80f6df	0.06297087
138	0x3d0100ec	0.03149502
139	0x3e01e0e9	0.12683453
140	0xbe1f02e4	-0.15528446
141	0x3c54f2b6	0.01299732
142	0x3dddc019	0.10827655
143	0xbc3497f0	-0.011022553
144	0x3e00e439	0.1258706
145	0xbc7b44cf	-0.0153362295
146	0x3de16e8c	0.11007413
147	0x3c1e4e99	0.009662294
148	0xbd8e6dd6	-0.06954543
149	0x3e1bc4a3	0.1521173
150	0xbb30a365	-0.002695286
151	0xbde3de78	-0.11126417
152	0xbe197104	-0.14984518
153	0xbd8bb895	-0.068223156
154	0x3e179535	0.14803012
155	0x3ca03ce2	0.019560281
156	0xbe3f8ba3	-0.18705611
157	0xbdbe3372	-0.09287156
158	0x3e124de8	0.14287531
159	0xbd4206ae	-0.04736965
160	0xbd9a5049	-0.075348444
161	0xbd74c562	-0.05975855
162	0x3d8ac10a	0.067751005
163	0xbd40dee5	-0.04708757
164	0x3e5c46f0	0.21511436
165	0x3d2bd18b	0.041947883
166	0x3e4e2679	0.20131864
167	0xbb2bd73c	-0.002622082
168	0xbd1a7e31	-0.037718
169	0x3e83ef5a	0.25768548
170	0x3d8caf13	0.0686933
171	0x3d8d9396	0.069129154
172	0xbe52de78	-0.20592678
173	0x3e2c6d3f	0.16838549
174	0xbe59654a	-0.21230045
175	0x3e7e9155	0.24860127
176	0xbdc45e06	-0.09588246
177	0x3d2e6590	0.042577326
178	0xbda2c474	-0.07947627
179	0xbd0cd279	-0.03438041
180	0x3b11de9d	0.0022257932
181	0x3e2ad3f8	0.16682422
182	0xbdd65a16	-0.10466401
183	0xbdee4eb4	-0.11636105
184	0x3e4adddc	0.19811195
185	0x3d680b49	0.056651387
186	0x3d9c6244	0.0763593
187	0x3e129c79	0.14317502
188	0x3d1dc764	0.03852023
189	0x3cb71180	0.022347212
190	0xbe2cb3c7	-0.16865455
191	0xbb7f82b1	-0.003898781
192	0x3d39b0bf	0.045334574
193	0x3e053de7	0.13011895
194	0x3e48dc62	0.1961532
195	0x3d5d910a	0.0540934
196	0xbcc573b7	-0.024103029
197	0xbe014622	-0.1262441
198	0x3d95c298	0.073125064
199	0x3e4ee087	0.20202838
200	0xbd7c5e13	-0.061613154
201	0xbd074e4d	-0.033033658
202	0xbc9e3420	-0.019311965
203	0x3dca183c	0.098679036
204	0x3e103770	0.14083648
205	0x3de65f13	0.11248603
206	0x3ccd02a5	0.025025675
207	0xbd6fccf5	-0.05854507
208	0x3b839669	0.004015733
209	0xbe3a0905	-0.18167503
210	0xbd5c01d4	-0.05371268
211	0xbe0dd660	-0.13851309
212	0x3dcabc0b	0.098991476
213	0xbd2bc8cd	-0.041939545
214	0x3de0da9b	0.10979196
215	0xbdfbd7a2	-0.12296988
216	0x3dc1e102	0.09466745
217	0x3df7dd12	0.12102713
218	0xbb8092b0	-0.0039237365
219	0x3d42925e	0.047502868
220	0xbdc1bb24	-0.09459522
221	0x3e1e0fdc	0.15435737
222	0xbdbe33dc	-0.09287235
223	0xbc367170	-0.011135444
224	0xbd09a43d	-0.033603895
225	0x3d7a791d	0.06115066
226	0xbe04ef1c	-0.12981838
227	0x3c8c69d8	0.017140314
228	0x3d6fb7ed	0.058525015
229	0x3e3333a8	0.17500174
230	0x3d7fcae6	0.06244936
231	0xbd8246fe	-0.06361197
232	0xbd13e092	-0.03610284
233	0xbe0ce517	-0.13759266
234	0x3e34ee0c	0.17668933
235	0xbd0a57cc	-0.033775136
236	0x3d87488d	0.06605635
237	0xbbe9af6e	-0.0071315086
238	0xbdb57ed9	-0.08862085
239	0xbd988e3b	-0.07449003
240	0xbd8ab205	-0.06772236
241	0xbca7d7fa	-0.020488728
242	0xbdc4fd14	-0.09618583
243	0x3d9d31f7	0.07675546
244	0x3e350937	0.17679296
245	0xbd09d696	-0.03365191
246	0x3d6a5baa	0.057216324
247	0xbd13910d	-0.036027003
248	0xbd8656a5	-0.06559495
249	0xbd77b2da	-0.0604733
250	0xbd6235a5	-0.05522694
251	0xbe2abe67	-0.16674195
252	0x3d9f13b9	0.07767434
253	0x3d9673b1	0.07346285
254	0x3e25e159	0.16199245
255	0x3d3a2a71	0.04545063

lstm.weight_hh_l1 f4 [200, 50]
0	0xbcd01cd0	-0.025404364
1	0xbd41c515	-0.047307093
2	0xbda597e7	-0.08085614
3	0x3d6db136	0.05803033
4	0x3db32930	0.0874809
5	0x3d972fba	0.0738215
6	0xbb9fa732	-0.004872226
7	0x3dac1122	0.08401705
8	0xbddd6988	-0.10811144
9	0xbc200a23	-0.009768042
10	0x3d8c2cd5	0.068444885
11	0x3dae2a6b	0.08504184
12	0xbc985ead	-0.018599832
13	0xbdbfb01e	-0.093597636
14	0x3da735b1	0.08164538
15	0x3dadd533	0.0848793
16	0xbdeb8809	-0.11500556
17	0xbe0d1ed6	-0.13781294
18	0xbda50ebf	-0.08059453
19	0x3d4e6b68	0.0503954
20	0x3cc521d2	0.024063978
21	0xbe0e7a50	-0.13913846
22	0xbddd5b7e	-0.108084664
23	0xbd9505aa	-0.07276471
24	0x3d51e0ab	0.05123965
25	0xbd8b5367	-0.06803017
26	0xbb828cff	-0.003984093
27	0x3e109f26	0.1412321
28	0xbda23102	-0.07919504
29	0xbdbc75ab	-0.09202131
30	0x3de71a73	0.11284342
31	0xbd9c5c06	-0.076347396
32	0xbd9ad600	-0.075603485
33	0x3d0a4cc1	0.033764604
34	0x3c09fadb	0.008421625
35	0xbdae7555	-0.08518473
36	0x3dbc03cc	0.09180412
37	0xbc726273	-0.01479398
38	0x3df22b1e	0.1182463
39	0xbdf08ec8	-0.11745983
40	0xbcc3bcb9	-0.0238937
41	0x3d1144f5	0.035466153
42	0x3dbaf5f8	0.09128946
43	0x3de3e465	0.11127547
44	0xbd9387ef	-0.07203662
45	0xbd40cba8	-0.04706922
46	0xbd85d3fb	-0.06534573
47	0x3dbd099a	0.09230347
48	0x3daeb55c	0.08530685
49	0xbda24f70	-0.07925308
50	0xbaa7d157	-0.0012803477
51	0xbdecfdba	-0.11571832
52	0xbc21d13a	-0.009876544
53	0x3cab67c5	0.020923505
54	0x3e17682d	0.14785834
55	0x3e079a12	0.13242367
56	0xbe0d6fd9	-0.13812198
57	0xbde7ff77	-0.11328023
58	0xbc991257	-0.018685503
59	0x3e0a98c7	0.13534842
60	0x3e19b129	0.15008987
61	0x3e179476	0.14802727
62	0x3d769ebc	0.060209975
63	0xbd5ab113	-0.053391527
64	0x3dcd447b	0.10022827
65	0x3d2a9714	0.041647986
66	0x3e027554	0.1274007
67	0xbdce2d71	-0.10067261
68	0xbe0bbe9d	-0.13646932
69	0x3d10ea78	0.035379857
70	0x3befd6fc	0.0073193293
71	0xbe218a07	-0.1577531
72	0xbdc4f6a1	-0.09617353
73	0x3e0ced24	0.13762337
74	0x3d226bd4	0.039653614
75	0x3dc6c013	0.09704604
76	0xbd94ebfc	-0.07271573
77	0x3a563b03	0.00081722456
78	0x3c998972	0.018742297
79	0xbddd33ac	-0.10800871
80	0xbe04e6cb	-0.12978666
81	0x3dbce8a2	0.09224059
82	0x3e1ec8b2	0.15506247
83	0x3de85afe	0.113454804
84	0xbdf1b418	-0.11801928
85	0x3c8b85eb	0.01703163
86	0xbcc8426b	-0.024445733
87	0xbcc48d50	-0.023993164
88	0xbe23395a	-0.15939847
89	0xbe1f8561	-0.15578224
90	0xbda6fd70	-0.08153808
91	0x3d7cf23c	0.06175445
92	0x3d15fb50	0.036616623
93	0x3d8ef81d	0.069809176
94	0x3dc4a47d	0.09601686
95	0xbe0a5cd2	-0.1351197
96	0x3df56bfc	0.11983487
97	0x3db548cf	0.08851778
98	0xbe1963b8	-0.14979446
99	0x3df4522a	0.11929734
100	0xbd2133d9	-0.039356086
101	0xbe197c56	-0.14988837
102	0x3da09e98	0.07842749
103	0x3d741669	0.059591684
104	0x3e1e37e1	0.15451004
105	0x3dd09a90	0.101857305
106	0xbd94b930	-0.07261884
107	0xbc8b5a65	-0.017010877
108	0x3ceb1d50	0.0287005
109	0x3deb6341	0.114935406
110	0x3d1f26d5	0.038855392
111	0xbd9b789b	-0.07591363
112	0x3df16035	0.11785928
113	0x39a23f08	0.0003094601
114	0x3db12c68	0.08651048
115	0x3ca5d67d	0.020243878
116	0x3df0654f	0.11738073
117	0x3afa9d17	0.0019120303
118	0xbe24a7d2	-0.16079643
119	0x3dfa483d	0.122208096
120	0x3dcd43c7	0.10022693
121	0xbd7d6ab1	-0.061869327
122	0x3c8b2c8b	0.016989013
123	0xbdeac88c	-0.114640325
124	0x3d9826f1	0.074293025
125	0x3d374bec	0.04475014
126	0xbc1f6077	-0.009727589
127	0x3dcc0940	0.09962702
128	0xbb7e976c	-0.0038847579
129	0x3df98cdf	0.12185072
130	0x3e1d1b86	0.1534253
131	0xbdaed22a	-0.08536179
132	0x3dce8028	0.100830376
133	0xbd49394f	-0.04912692
134	0x3d1cce9e	0.038282983
135	0xbd16e33d	-0.036837805
136	0x3d99beee	0.0750712
137	0xbdbeb788	-0.093123496
138	0x3df22cfd	0.11824987
139	0x3dcb129c	0.09915659
140	0x3d563b99	0.05230293
141	0xbdf4adc0	-0.11947203
142	0x3d2e3b60	0.042537093
143	0xbda10ad3	-0.07863393
144	0x3e127656	0.14302954
145	0x3c57019a	0.01312294
146	0xbcdea9e9	-0.027180629
147	0xbe044731	-0.12917782
148	0xbd1bbbd5	-0.038020927
149	0xbc999180	-0.018746138
150	0xbdc815c7	-0.09769779
151	0xbe12a553	-0.14320879
152	0x3da3c7df	0.07997107
153	0x3e1638b8	0.14670074
154	0x3e2563c6	0.16151342
155	0x3d07b7ed	0.03313439
156	0x3d952e1d	0.07284186
157	0xbd77dd98	-0.060514063
158	0x3de91aff	0.11382102
159	0xbda905da	-0.08253069
160	0x3e10d997	0.14145504
161	0xbd30d966	-0.043176077
162	0x3cf9dfa3	0.030502146
163	0xbd625640	-0.055258036
164	0x3df42122	0.11920382
165	0x3c93312f	0.017967789
166	0xbdcc1478	-0.099648416
167	0x3d9a295f	0.07527422
168	0xbdde5bb7	-0.10857337
169	0xbe218e45	-0.15776928
170	0x3e2c9469	0.16853489
171	0x3dd64a53	0.10463395
172	0x3d75de8a	0.060026683
173	0x3dfc7a41	0.123280056
174	0x3d4aaa9d	0.049479116
175	0xbc4c06fd	-0.012452838
176	0x3d76c00e	0.06024175
177	0x3d5fab87	0.05460694
178	0x3d0016b7	0.031271663
179	0xbdc2bd58	-0.09508771
180	0xbcf0fd53	-0.02941767
181	0xbd7da8d7	-0.061928596
182	0xbc9523fc	-0.018205635
183	0xbe0fe39e	-0.14051673
184	0x3d9d1d2f	0.07671582
185	0x3df47e83	0.11938193
186	0xbd800bc1	-0.06252242
187	0xbc0b7cbe	-0.008513628
188	0xbd1dbce1	-0.038510207
189	0x3d9f427e	0.07776354
190	0xbdaf3e84	-0.08556846
191	0x3d3b9329	0.04579464
192	0x3cbc99d8	0.023022577
193	0x3de3e480	0.11127567
194	0xbda50a2f	-0.08058583
195	0xbc22cd95	-0.00993671
196	0x3dec8e6c	0.11550602
197	0x3bb9f0a0	0.0056744367
198	0x3d6d0573	0.057866525
199	0xbe103e8b	-0.14086358
200	0x3e08d73f	0.1336336
201	0xbde8a452	-0.113594666
202	0xbdbded19	-0.092737384
203	0x3e2293fe	0.15876767
204	0x3d8dc421	0.06922174
205	0x3d93ef58	0.072233856
206	0xbdb8570b	-0.09000977
207	0x3d7cf4f3	0.06175704
208	0xbe1f5bbe	-0.1556234
209	0xbdffbb48	-0.12486893
210	0x3d815a80	0.0631609
211	0xbd2e577a	-0.042563893
212	0xbd68c6e0	-0.056830287
213	0xbc5099f0	-0.012732014
214	0xbd942a65	-0.072346486
215	0xbd20208a	-0.03909353
216	0x3d883351	0.06650413
217	0x3cef4ffd	0.029212946
218	0xbda7f43d	-0.08200882
219	0xbddc41cc	-0.10754737
220	0x3daa562c	0.08317217
221	0x3d14e005	0.036346454
222	0x3c11fc14	0.008910198
223	0x3ddd4a23	0.10805156
224	0xbc27b8c7	-0.010236925
225	0xbb1edca8	-0.0024240408
226	0x3e29e4ee	0.16591236
227	0x3e0a872f	0.13528131
228	0x3ddfe041	0.10931445
229	0xbd2dcf32	-0.042433925
230	0x3e09516e	0.13409969
231	0x3b8fb69c	0.0043857824
232	0xbdaff372	-0.085913554
233	0x3cb192c2	0.021676425
234	0xbe080022	-0.132813
235	0xbdbc38e6	-0.0919054
236	0x3dcee31d	0.10101912
237	0xbd79fc73	-0.06103177
238	0xbe072a3f	-0.1319971
239	0x3d85e992	0.065386906
240	0x3d9972f2	0.07492627
241	0xbca5a90f	-0.020222215
242	0xbd923f54	-0.07140985
243	0x3d3f1dfc	0.046659455
244	0x3df13a9f	0.11778759
245	0x3d310c84	0.043224826
246	0xbdcf6b9e	-0.10127948
247	0x3bd4642e	0.006481669
248	0xbd2b8c24	-0.041881695
249	0x3e0e7b4a	0.13914219
250	0xbe010169	-0.12598194
251	0xbd90cd94	-0.07070461
252	0xbd0aa15d	-0.033845294
253	0xbe14560b	-0.14485948
254	0xbd42b8f4	-0.047539666
255	0xbd03f7fe	-0.032218926

lstm.bias_ih_l1 f4 [200]
0	0x3d6e56f4	0.058188394
1	0x3e103a52	0.14084747
2	0x3e3530bb	0.1769437
3	0xbcb572cc	-0.022149466
4	0xbade3f33	-0.0016956091
5	0xbc1ee559	-0.009698235
6	0xbd87753e	-0.06614159
7	0x3de99937	0.114061765
8	0x3d977c4e	0.07396756
9	0x3c1049d3	0.008806664
10	0x3e04088f	0.1289389
11	0x3ca089f3	0.01959703
12	0x3dd9366e	0.10606085
13	0x3dd48154	0.1037623
14	0xbdc5e233	-0.09662285
15	0xbcaf3c44	-0.021391042
16	0x3ddf045f	0.108895056
17	0xbc674e44	-0.014117781
18	0xbd256940	-0.040383577
19	0x3e0d8f7d	0.13824268
20	0x3d7cc4cb	0.061711114
21	0xbd3eeaab	-0.046610516
22	0x3e0b9767	0.13631974
23	0x3ddbb739	0.10728306
24	0x3d545a75	0.05184408
25	0xbd88506c	-0.06655964
26	0xbd5b2985	-0.053506393
27	0x3d21ff4d	0.039550114
28	0x3dbd0bf1	0.09230793
29	0x3de55636	0.11198084
30	0x3d5896b0	0.05287808
31	0x3d15cf0c	0.03657441
32	0x3d82400c	0.06359872
33	0xbda960b5	-0.082703985
34	0x3bebf236	0.0072005047
35	0x3dcfac47	0.10140281
36	0xbda1b45d	-0.0789573
37	0x3d976554	0.07392374
38	0x3add1bbd	0.0016869229
39	0xbdf28a2f	-0.11842763
40	0xbdb1cf5e	-0.0868213
41	0x3d04171f	0.032248612
42	0xbdceb14d	-0.10092411
43	0x3ddd8898	0.10817069
44	0x3dbedb87	0.09319215
45	0x3e37544e	0.17903253
46	0xbc80245b	-0.015642336
47	0x3da44d42	0.08022548
48	0xbdb7555e	-0.089518294
49	0x3cd5ac63	0.026083177
50	0x3d4d41e1	0.050111655
51	0x3d300c63	0.042980563
52	0xbd4335de	-0.047658794
53	0xbdb88293	-0.0900928
54	0xbcbbf330	-0.02294311
55	0x3ddda388	0.10822207
56	0x3d783afa	0.06060312
57	0xbd48d358	-0.049029678
58	0xbd02cd31	-0.031933967
59	0xb9ff97aa	-0.0004875039
60	0x3d9fb0cd	0.07797394
61	0x3e166898	0.14688337
62	0x3de3256c	0.11091122
63	0x3e07728f	0.13227294
64	0xbd16f4cf	-0.03685456
65	0x3c8ffb7a	0.017575968
66	0x3dea61bc	0.114444226
67	0x3df1943e	0.11795853
68	0x38f925dd	0.00011880298
69	0x3dcfeead	0.10152946
70	0xbe07e6d9	-0.13271655
71	0xbdebc417	-0.115120105
72	0x3d6c7da5	0.05773701
73	0x3dd5251a	0.10407467
74	0x3db06a47	0.08614021
75	0xbdc9bcb2	-0.09850444
76	0x3debe8fb	0.11519047
77	0xbdf5e36c	-0.12006268
78	0x3d8cab9f	0.068686716
79	0xbd9637e8	-0.07334882
80	0x3dd6b537	0.10483783
81	0x3daa7acd	0.08324204
82	0x3dd0d1ad	0.101962425
83	0x3ce7023c	0.028199308
84	0xbe06c00e	-0.131592
85	0xbe18a4f1	-0.1490667
86	0xbe1e9b06	-0.15488824
87	0xbceb5844	-0.028728612
88	0xbc8d94d5	-0.017282883
89	0x3d3f6d75	0.046735246
90	0xbde5ad83	-0.11214735
91	0xbdb011bc	-0.085971326
92	0xbc400cf7	-0.011721841
93	0xbd620175	-0.05517717
94	0xbc3c7abd	-0.011503872
95	0xbe158719	-0.14602317
96	0xbe04a76a	-0.12954488
97	0xbe116f30	-0.14202571
98	0xbd2938fd	-0.041314114
99	0xbd48bf56	-0.049010597
100	0xbd9d44a3	-0.07679107
101	0xbe1e3ec1	-0.15453626
102	0x3c685992	0.0141815115
103	0x3e0e1112	0.138737
104	0x3e047836	0.12936482
105	0x3ca5d9c1	0.020245435
106	0xbe00ba60	-0.12571096
107	0xbb9a9a21	-0.0047180806
108	0xbe13ed5a	-0.14446011
109	0xbda194be	-0.078896984
110	0x3d249d11	0.040188853
111	0x3d743017	0.059616175
112	0xbdb995e2	-0.09061791
113	0xbcbab0e3	-0.022789424
114	0x3cb6772a	0.022273619
115	0xbc0b7829	-0.008512535
116	0x3d837745	0.06419233
117	0x3d3668fb	0.04453371
118	0xbd6dbd99	-0.058042143
119	0xbc39b16c	-0.011333805
120	0xbdeae531	-0.11469496
121	0xbddbb6a7	-0.107281975
122	0xbe26e64a	-0.16298786
123	0xbdaf556e	-0.08561216
124	0xbd79edd6	-0.061017834
125	0x3cba39d4	0.022732653
126	0x3cba1dbc	0.022719257
127	0x3d0b2af6	0.033976518
128	0x3dcb7ba3	0.09935691
129	0x3c8f5786	0.01749779
130	0x3c4d7f52	0.012542563
131	0x3ca46918	0.020069644
132	0xbd29c803	-0.04145051
133	0xbcf31efa	-0.029677857
134	0x3d88935e	0.06668733
135	0x3dfb670c	0.12275514
136	0x3dd77db0	0.1052202
137	0xbdcfc14f	-0.101442926
138	0xbcd374a9	-0.025812464
139	0x3dbdcf61	0.0926807
140	0x3d0dad73	0.034589242
141	0xbe259a86	-0.16172227
142	0x3e0248fc	0.12723154
143	0xbd8309ae	-0.06398331
144	0xbd8ad6aa	-0.06779225
145	0xbdef6e75	-0.1169099
146	0x3e257f9f	0.16161965
147	0x3e08f363	0.13374095
148	0xbd8e75e9	-0.06956083
149	0x3ca8d932	0.02061138
150	0x3d21dd12	0.03951747
151	0xbdff83d5	-0.12476317
152	0xbd8adbd3	-0.067802094
153	0xbb61845e	-0.0034411172
154	0x3c78a23c	0.015175398
155	0xbcbdb8dd	-0.023159439
156	0x3dee80f2	0.11645688
157	0xbda96ccf	-0.08272707
158	0xbd568c70	-0.052380025
159	0x3d0a7b2a	0.033808865
160	0x3bc6518d	0.006052202
161	0xbbd6eb9e	-0.0065588495
162	0xbd7af993	-0.06127317
163	0x3dd63240	0.10458803
164	0x3dc6efc3	0.097137
165	0xba53bbba	-0.00080769847
166	0x3cb833ec	0.022485696
167	0x3e17328c	0.14765376
168	0xbbebd770	-0.007197313
169	0xbbfd0783	-0.0077218427
170	0xbc805dfa	-0.015669812
171	0x3db62821	0.08894373
172	0xbd842ead	-0.06454215
173	0x3d83a49b	0.064278804
174	0xbd1a103a	-0.03761313
175	0x3da34221	0.079715975
176	0x3dd79d2e	0.105280265
177	0x3e177ff2	0.14794901
178	0x3da96230	0.08270681
179	0xbd701d1d	-0.058621515
180	0x3d4ea29e	0.050448053
181	0xbd4a3d57	-0.049374904
182	0x3d7e524d	0.062090207
183	0x3c64f2b5	0.0139738815
184	0xbcb239f8	-0.021756157
185	0x3e44239f	0.19154213
186	0xbe01e32c	-0.12684315
187	0x3e0c1799	0.13680877
188	0x3d8a9bd2	0.067680016
189	0xbd926d8e	-0.07149802
190	0x3de700e6	0.11279468
191	0xbcb8ba02	-0.022549633
192	0xbddc2c01	-0.107505806
193	0xbd63c65b	-0.05560909
194	0x3c3465d3	0.011010605
195	0xbde474f4	-0.111551195
196	0x3cbcf4f2	0.023066018
197	0x3d60b9df	0.05486476
198	0xbddbde23	-0.107357286
199	0x3d4e06b2	0.050299354

lstm.bias_hh_l1 f4 [200]
0	0x3d7490ae	0.05970829
1	0x3e2d79f5	0.16941054
2	0x3e3601d2	0.17774132
3	0x3d1e3599	0.038625333
4	0xbbf2a388	-0.0074047484
5	0xbddf425f	-0.10901331
6	0xbd31dd02	-0.04342366
7	0x3d8b3c9e	0.06798671
8	0x3de67407	0.11252599
9	0x3e12f2da	0.14350453
10	0x3dc9c876	0.09852688
11	0x3c7af643	0.015317502
12	0x3d966032	0.073425665
13	0x3de0c1a6	0.109744355
14	0x3e136881	0.14395334
15	0x3da7f0dc	0.08200237
16	0xbd37ed78	-0.044904202
17	0xbd2932ea	-0.04130832
18	0xbd2464b2	-0.040135093
19	0x3d6b248a	0.057407893
20	0xbd93c601	-0.072155006
21	0x3e10599a	0.1409668
22	0x3e0042e0	0.12525511
23	0x3e1ed715	0.15511735
24	0x3da9af59	0.08285398
25	0x3e2d82d4	0.16944438
26	0x3d31583e	0.043297045
27	0x3cfcbfed	0.030853236
28	0x3dca8b21	0.09889818
29	0x3d1fec5c	0.03904377
30	0x3da0e93f	0.07856988
31	0x3cf6f36f	0.030145375
32	0x3cbc17b8	0.022960529
33	0xbd53368d	-0.051565696
34	0x3c3f239c	0.011666205
35	0x3dff6d79	0.12472052
36	0xbcdf8efa	-0.027289856
37	0xbdc0aab3	-0.09407558
38	0x3cb5fc06	0.0222149
39	0xbcb8e4df	-0.022570072
40	0x3dfc2be6	0.123130605
41	0x3e04ffd1	0.12988211
42	0xbd81fae7	-0.06346684
43	0x3d468b8a	0.04847292
44	0x3d82d33f	0.06387948
45	0xbd5c5210	-0.0537892
46	0xbcd096fd	-0.025462622
47	0xbaeca55e	-0.0018054654
48	0x3dd9b5a7	0.106303506
49	0xbd9b1f18	-0.0757429
50	0x3cd1dc0c	0.025617622
51	0x3d927e66	0.07153015
52	0xbdc90766	-0.09815864
53	0xbd7a9cc0	-0.061184645
54	0x3d86e7aa	0.06587155
55	0x3d7820d0	0.060578167
56	0x3d2f0e54	0.042738274
57	0xbd4c152e	-0.049824886
58	0xbd15b97b	-0.03655384
59	0x3d5f59f4	0.054529145
60	0x3db21751	0.086958535
61	0xbbcc0478	-0.0062261187
62	0x3e22f2ed	0.15912981
63	0x3d1b5cb1	0.037930194
64	0xbdc4631b	-0.09589215
65	0xbc969b6c	-0.018384658
66	0x39a31e07	0.00031112155
67	0xbce50540	-0.027956605
68	0xbc6627bb	-0.014047558
69	0xbd8e3e3f	-0.06945466
70	0xbde7f726	-0.11326437
71	0x3ddd6811	0.10810865
72	0x3de53648	0.11191994
73	0xbd83c6c4	-0.06434396
74	0x3cc827c9	0.024433034
75	0x3d5ace3b	0.053419333
76	0xbc8bacd0	-0.017050177
77	0xba10a8e6	-0.0005518332
78	0xbd9fa503	-0.07795145
79	0xbd12c21b	-0.035829645
80	0xbe12f1a6	-0.14349994
81	0x3e1b8ba5	0.15189989
82	0x3e153308	0.14570248
83	0x3dce176e	0.100630626
84	0xbd499424	-0.049213544
85	0xbd8f3198	-0.06991881
86	0xba9d4ae2	-0.0012000466
87	0x3dc3a5e8	0.095531285
88	0x3bbcf785	0.0057668113
89	0xbca46c24	-0.020071097
90	0xbde35ca7	-0.111016564
91	0xbda8b24f	-0.08237135
92	0x3c462da8	0.012095846
93	0xbcef56ba	-0.02921616
94	0x3b2ba109	0.0026188514
95	0x3dcd2689	0.100171156
96	0x3d50ecf9	0.051007245
97	0xbdfd1ba6	-0.12358789
98	0xbd93ab71	-0.07210434
99	0x3bb77084	0.0055981297
100	0x3ded608f	0.11590683
101	0xbe1fe1a2	-0.15613416
102	0x3dac2c26	0.08406858
103	0xbd81b55a	-0.06333418
104	0x3daecde8	0.08535367
105	0xbd0c160e	-0.03420072
106	0x3dcac342	0.09900524
107	0x3dcec22e	0.100956306
108	0xbdf7d38d	-0.12100897
109	0xbdd78414	-0.10523239
110	0x3d859c86	0.06523995
111	0x3e0f5c17	0.13999973
112	0x3d1d846a	0.038456358
113	0xbdb7b3a4	-0.089698106
114	0x3e15fa08	0.1464616
115	0xbdf3e424	-0.11908749
116	0x3e138746	0.14407071
117	0xbd9036f0	-0.070417285
118	0x3c45d32c	0.012074273
119	0x3be48a67	0.0069745067
120	0xbd0252da	-0.031817295
121	0xbd659b33	-0.056056213
122	0x3c38032b	0.011231224
123	0x3d50e46f	0.0509991
124	0x3d398438	0.04529211
125	0x3e290722	0.16506627
126	0x3c4f9381	0.012669445
127	0xbd91a692	-0.07111849
128	0xbe017dc3	-0.1264563
129	0x3dc64873	0.09681787
130	0xbdb361bd	-0.087588765
131	0x3d2c8036	0.04211446
132	0xbd5f5bdf	-0.054530974
133	0xbdf71523	-0.120645784
134	0x3d4d1210	0.050066054
135	0x3dd95ec8	0.10613781
136	0xbe1407be	-0.14456078
137	0x3df68be7	0.12038403
138	0xbe2feb78	-0.17179668
139	0xbd718b5d	-0.058970798
140	0xbceccfe4	-0.028907724
141	0xbe01db89	-0.12681402
142	0xbdaf7cc5	-0.0856872
143	0xbca58681	-0.020205738
144	0xbdad8e8c	-0.08474454
145	0xbc6937b0	-0.014234468
146	0xbd893a72	-0.06700601
147	0xbd47be72	-0.048765607
148	0xbdc86c50	-0.09786284
149	0x3c6ad26a	0.014332393
150	0xbd2cd842	-0.042198427
151	0x3dc61fdf	0.09674048
152	0x3dcda716	0.10041635
153	0xbd47462d	-0.04865091
154	0xbc4bfaf0	-0.012449965
155	0xbdfe2f55	-0.124113716
156	0x3da49cb5	0.08037702
157	0xbcc6d0ca	-0.02426948
158	0x3d6af9ec	0.05736725
159	0x3d8a6f11	0.067594655
160	0x3e12cac5	0.14335163
161	0x3abadada	0.0014255897
162	0xbd06fd1b	-0.032956224
163	0x3e1e0229	0.15430512
164	0x3c02fa92	0.007994311
165	0x3c1e351d	0.009656218
166	0x3d1ac0c6	0.0377815
167	0xbd6dafbe	-0.05802893
168	0x3d83471c	0.064100474
169	0xbd97e8cb	-0.074174486
170	0x3e0d8773	0.13821201
171	0x3da06406	0.07831578
172	0x3ddd34a9	0.1080106
173	0xbdaf6f75	-0.085661806
174	0x3dcba3b8	0.09943336
175	0x3e17d641	0.14827825
176	0x3d18e3ec	0.03732674
177	0xbdb1d1f1	-0.08682621
178	0x3db36eec	0.08761391
179	0x3b010b30	0.0019690506
180	0xbdbc0f56	-0.091826126
181	0xbb92b5d9	-0.0044772443
182	0xbd1af7ed	-0.037834097
183	0xbddbade5	-0.10726527
184	0x3d9b16a2	0.07572676
185	0x3dc2b95c	0.09508011
186	0xbdaa4aa2	-0.08315016
187	0x3e197e31	0.14989544
188	0x3cca9925	0.024731228
189	0x3cafb42a	0.021448214
190	0x3c7fcc95	0.015612741
191	0xbdc25af5	-0.09490005
192	0xbd5ef294	-0.05443056
193	0xba862cbb	-0.0010236719
194	0xbd46b05e	-0.04850804
195	0x3dac2213	0.08404937
196	0x3c69cb9a	0.014269734
197	0x3c57748b	0.013150345
198	0x3e191a25	0.1495138
199	0xbdac0cfc	-0.08400914
