TFM/regresion/results/gen_trip/DyGrEncoder.pt (torch, 617905 bytes, 11 tensors)

recurrent.conv_layer.weight f4 [1, 100, 100]
000000 22 e0 8e 3d c8 3c 05 3c 46 26 4f bd da 83 38 3d
       0.06976344 0.008132167 -0.05057361 0.04504762
000010 84 d3 c9 bc b5 58 31 3d dd 41 23 bc eb 98 f3 bd
       -0.024636991 0.04329749 -0.0099644335 -0.11894401
000020 e1 86 20 3d 3b fe ec 3d 3f 2f 2d bd 0d 2f c8 3c
       0.03919113 0.11571928 -0.042281386 0.024436498
000030 c1 6d c9 3c 81 48 77 bd b3 3d 5a 3d 35 93 f3 3c
       0.024588468 -0.06037188 0.053281497 0.02973328
000040 c2 16 ed bc b9 a1 c8 3d 59 13 7d bb c5 4c 62 bd
       -0.028941516 0.09796471 -0.0038616268 -0.055248994
000050 2d b9 60 bc 9f 05 15 bd e2 15 2d bd 02 10 34 3d
       -0.013716024 -0.036382314 -0.042257197 0.04396058
000060 d0 b4 86 3d 1b 71 84 bd 27 be 8e bc 72 73 17 3e
       0.06577456 -0.06466886 -0.017424656 0.14790133
000070 02 d1 4f bd 0d 36 c8 bd e0 db 40 3c 75 c9 77 bd
       -0.050736435 -0.09775934 0.011771172 -0.06049486
000080 f0 4b a2 3d 3d 73 a9 ba 5c ea 9b 3b 26 47 65 3d
       0.0792464 -0.001292802 0.0047581624 0.055976056
000090 3a ba 6f 3c 04 ba 2e bd 84 12 16 bc b1 27 a9 bd
       0.014631802 -0.042657867 -0.009159688 -0.08259524
0000a0 20 bf 0f 3d ae 88 93 bd e5 43 1f 3c cd ce 8d 3c
       0.03509438 -0.07203804 0.009720777 0.017310524
0000b0 c0 05 8a 3d 0e f9 d9 bd 54 f2 61 3d b7 67 83 bc
       0.06739378 -0.106432065 0.055162743 -0.016040666
0000c0 12 44 cd 3d a0 06 44 bd 9a f2 ab 3d b8 c2 53 bd
       0.10022749 -0.04785788 0.08395882 -0.05169937
0000d0 ca fd 3a 3d 58 56 56 3c 95 20 1c bc 47 39 25 bd
       0.04565219 0.013082109 -0.009529253 -0.040337827
0000e0 c1 4d be 3d 85 af f1 bd e5 bf d2 3d 06 ac 86 3d
       0.09292174 -0.11801056 0.10290507 0.065757796
0000f0 05 81 3a 3d 28 7c d1 bd d5 1a 4b 3c 55 f9 17 bd
       0.0455332 -0.10228759 0.012396534 -0.037103016
000100 e5 01 84 bc 46 9a e0 3d 9a 4a 58 bc e1 0c 41 3b
       -0.016114185 0.10966925 -0.01320138 0.002945714
000110 88 85 87 3c 47 71 8e bd bc 11 7d 3b cf 4e aa bc
       0.016543165 -0.069552 0.0038615307 -0.020789532
000120 0d b1 c9 3c 97 a8 7e bd e2 60 81 bb 73 68 87 bd
       0.024620557 -0.0621725 -0.003948317 -0.06611719
000130 6b 3b 7d 3c 96 fd 53 bd 01 34 dc 3b ad e2 5c 3d
       0.015456061 -0.05175551 0.0067200665 0.053927112
000140 69 c0 bf bc b0 47 51 3d 6f df b6 3d 20 a2 e3 3c
       -0.023407178 0.051093757 0.08929335 0.027787268
000150 ef f6 8c bd cd f2 a1 bd dd 2c 66 bd 6f 27 62 3d
       -0.06883036 -0.07907639 -0.05619513 0.055213388
000160 1c f9 05 3d f2 78 82 bd fd 72 ae 3d d4 a6 d2 bd
       0.032708272 -0.06370725 0.08518026 -0.10285726
000170 e3 15 b7 3d be e5 31 bd eb fa 3e 3d 48 ff bd 3d
       0.089397214 -0.04343199 0.046626013 0.09277207
000180 ca fb c1 3c 9b f0 bf 3d e9 29 b7 3d 63 af 48 3d
       0.023679633 0.09372064 0.089435406 0.048995387
000190 d7 cd 63 3d f8 59 46 bd bf 44 65 3c 3a 0a f6 bc
       0.055616226 -0.048425645 0.013993441 -0.030034173
0001a0 1e df 10 bd 4f 60 b0 bb 08 e1 a0 bd 14 18 7c 3d
       -0.03536903 -0.0053825746 -0.07855421 0.0615464
0001b0 7e e9 1d bd 17 9a 45 3d 0c f4 6d 3d c6 17 ba 3d
       -0.038552754 0.048242655 0.05809407 0.09086566
0001c0 68 c7 02 3d 20 35 4a 3c 61 77 98 bc 34 f1 00 bd
       0.03192845 0.012341768 -0.018611612 -0.03148003
0001d0 97 24 83 bc 07 01 1d 3d 45 c0 86 bc fa a9 67 bd
       -0.016008658 0.038331058 -0.016449103 -0.056558587
0001e0 00 68 00 bc 4a 8f ef 3b f3 7f a5 3d 2e f7 88 bd
       -0.0078372955 0.0073107826 0.08081045 -0.06687771
0001f0 72 46 b5 bc 5a 07 28 bd 4f 46 b0 3d ba 13 eb 3d
       -0.022128318 -0.041022636 0.0860716 0.11478372
000200 9d 29 76 3c 4e 2c 4c be 27 7f a8 bd 2f d8 8e 3b
       0.01502457 -0.19938776 -0.082273774 0.004359267
000210 a3 91 28 3d 36 44 44 bd d0 b9 3a 3d 87 f9 9d 3c
       0.041154515 -0.047916614 0.04558736 0.019284023
000220 0d d9 93 bd 7e cf bd 3d 4c 56 aa bc cd 02 c9 bd
       -0.072191335 0.092680916 -0.020793103 -0.09814987
000230 fb 80 74 bd e1 80 2f 3d ca 05 20 bd 02 75 b9 bb
       -0.059693318 0.042847518 -0.03906802 -0.0056597004
000240 05 c4 d0 bd 98 39 2a 3c f1 37 9c 3c de 5f 2c 3d
       -0.10193638 0.010389708 0.019069644 0.042083614
000250 81 ff ba 3b c1 02 f2 3c 2c 5b ba 3d bf e8 91 bd
       0.005706728 0.029542329 0.09099421 -0.07124471
000260 13 c2 83 3d f7 62 9a 3c 48 f5 62 bd 0a 70 b3 bd
       0.06433501 0.018846018 -0.0554097 -0.08761604
000270 57 25 be 3d a1 0b 06 3d 14 cf 37 3d 90 31 38 3d
       0.09284466 0.032725934 0.04487522 0.04496914
000280 4a 8a 9b 3a 5a 3c cf 3c ce a8 82 bd 59 82 21 3d
       0.0011866775 0.025297333 -0.06379853 0.03943095
000290 f0 c0 a9 3d b2 90 90 bc 46 7c 49 3c 18 fa 71 3d
       0.08288753 -0.017647121 0.0122976955 0.0590764
0002a0 93 2a f6 3c 23 ea fe 3c b9 97 11 3d e7 6d 98 bc
       0.030049598 0.031117504 0.035545085 -0.018607093
0002b0 12 df 75 bd 47 b0 c4 3d a4 f9 bd 3d 37 bd ec 3c
       -0.06002719 0.09603935 0.09276131 0.028898818
0002c0 ac d4 fe 3c 0f d9 02 b9 fe 36 ae 3c 8d 57 ca 3d
       0.03110727 -0.00012478627 0.021266457 0.0987998
0002d0 a5 56 0b 3d 12 bb 68 bd b0 ac e2 3c 1e d1 79 bc
       0.034018178 -0.05681903 0.027670234 -0.015247611
0002e0 0f bf af 3d e7 51 10 bd 11 11 1a 3d 26 90 90 3d
       0.085813634 -0.03523436 0.037613932 0.07058744
0002f0 8c c4 0b ba 43 d8 d2 3c 0f 03 3e 3d 87 7e 83 3d
       -0.0005331717 0.025737887 0.046389636 0.064206176
000300 ae a2 ba 3d 44 4c 46 bc 3e 7c c4 3d b5 8f cb 3d
       0.0911306 -0.012103144 0.0959401 0.09939519
000310 a6 4d 89 3d a9 69 a3 3d 59 5f b6 bd ba 76 92 bd
       0.067042634 0.079791375 -0.08904905 -0.071515515
000320 54 37 3b bd 60 3a 1f bd 1c f7 dc bd 5e 96 1d 3b
       -0.045707062 -0.03887403 -0.1078932 0.0024045925
000330 28 59 b3 3d f1 a3 83 bd 61 30 49 3c 23 85 ab 3c
       0.087572396 -0.06427754 0.012279601 0.020937508
000340 33 b1 e3 3c ea cf 42 3d 30 c9 2f 3c 33 34 b8 bc
       0.027794456 0.047561564 0.010729119 -0.022485828
000350 f7 b4 41 bb d3 b3 18 3d 5c 62 a9 bd 7b 28 ea bd
       -0.0029557326 0.03728087 -0.08270714 -0.11433502
000360 01 4d 1d 3d 54 40 c0 bd e0 a3 8d 3c f5 9e 75 3d
       0.038403515 -0.093872696 0.017290056 0.059966046
000370 18 de cd bd 09 d9 90 3d 28 0f 81 bd fd 83 8f bd
       -0.10052127 0.07072646 -0.06301719 -0.07007597
000380 2b 1a a5 3c 48 ce b2 3d 2e c1 0a bd 1c 89 0a 3d
       0.02015408 0.08730751 -0.033875637 0.033822164
000390 1b ef e5 3c ec 99 02 be 1a 58 0b be d7 e2 8e bd
       0.028068116 -0.12754029 -0.13607827 -0.0697686
0003a0 82 2b 7d 3c 9b 24 63 bd a7 b3 d0 3d 50 8e 56 3d
       0.015452268 -0.05545483 0.10190516 0.052381814
0003b0 a5 23 5e 3c e8 10 cb 3d f5 c9 d6 bc 87 4d 0c 3d
       0.013558303 0.09915334 -0.026219347 0.034253623
0003c0 ae 4a e6 bd a6 79 94 bd a9 dc e4 bc a3 47 02 3d
       -0.11244713 -0.07249765 -0.02793725 0.0318066
0003d0 3a d9 01 bd b1 45 a6 3b 8f ed ba bb 3d 81 88 3d
       -0.031701304 0.005074226 -0.0057045887 0.06665275
0003e0 28 ef 92 3c 9c 59 a8 bd a9 16 87 bd 93 97 90 bd
       0.017936304 -0.08220217 -0.06596119 -0.070601605
0003f0 b7 8b a0 bc 7a 02 3d bd 13 25 88 3d 8c 98 4c bc
       -0.019597871 -0.04614494 0.06647696 -0.012487542

recurrent.conv_layer.rnn.weight_ih f4 [300, 100]
000000 8c 45 63 3c 29 da e0 3b 75 70 98 bd 88 93 85 bd
       0.013871562 0.006861944 -0.074433245 -0.0652228
000010 6d 6b af bd 97 cc 38 3d c6 87 09 3d 83 bf 9b 3d
       -0.08565412 0.045116987 0.03357675 0.07604887
000020 1c ff a9 bc 7f 9e 80 bd 8b 74 6e bd af b3 37 3d
       -0.020751528 -0.06280231 -0.058216613 0.044849094
000030 d0 87 58 bd 4c a5 70 bd 02 fc 29 bc 28 75 f4 bc
       -0.052863896 -0.05875139 -0.010375025 -0.02984102
000040 61 2f a6 3b 10 36 c8 3c b3 2b 5d 3d 85 89 05 3e
       0.005071566 0.024439842 0.053996753 0.13040741
000050 3d fe 07 be 43 bf a7 37 7e 40 a9 3d 65 ff 22 3d
       -0.13280578 1.9997015e-05 0.08264254 0.039794344
000060 cf 2b 34 3d e1 11 aa 3d 6e 4e 83 bd 42 59 4f bd
       0.04398709 0.083041914 -0.06411444 -0.050622232
000070 e3 21 64 3d c2 0f 03 3d 8d 25 1f 3b 57 44 30 3d
       0.05569638 0.03199745 0.0024283857 0.043033924
000080 84 e0 0c 3c 96 4b e0 3c 1c 59 54 bd 2c ca 45 3d
       0.008598451 0.027379792 -0.051842794 0.04828851
000090 13 d3 aa 3d 2f 84 5c 3c 84 f8 16 3d a9 b9 be 3d
       0.083410405 0.013459249 0.036858097 0.093127556
0000a0 eb 64 8e bd 10 ea 88 bb 45 b4 bd bb 2a be bb 3a
       -0.06952842 -0.004178293 -0.005789312 0.0014323641
0000b0 31 aa 63 bc f2 7f d8 bd e8 cc c5 bc 5c eb 1c bc
       -0.013895557 -0.10571279 -0.024145558 -0.009577598
0000c0 9b cd 69 3d 8e 10 18 3d 23 61 44 bd 85 d0 cd bd
       0.057080846 0.037125163 -0.0479442 -0.100495376
0000d0 cd 87 87 3d 29 a3 83 3d bf 79 91 3d 70 ec 26 bd
       0.06617699 0.06427605 0.07103299 -0.040752828
0000e0 b8 b5 e8 bd 6d 57 cf bb 82 d8 76 bd 16 a1 ad bd
       -0.11362785 -0.0063275606 -0.06026507 -0.0847799
0000f0 b1 90 54 3d 99 86 05 3d 75 26 57 3d f0 b7 b6 bd
       0.0518958 0.032599065 0.05252691 -0.08921802
000100 4d 76 ea 3c 87 88 c4 bd 73 fa 98 3a bb c2 94 3d
       0.028620863 -0.09596353 0.0011671319 0.072637044
000110 4d b5 2c 3d 9b 34 6a 3c 0c 12 33 3d b6 d3 72 bd
       0.04216509 0.014294769 0.043718383 -0.059283935
000120 84 93 b5 bd 5b 1e e9 bc 85 2e b5 bc 17 4b 98 bd
       -0.08866027 -0.028456857 -0.022116909 -0.07436197
000130 53 e9 97 bd 12 16 94 bd a2 a3 a3 3c 48 24 9d bc
       -0.0741755 -0.07230772 0.019975487 -0.01918234
000140 d5 f5 02 be 33 22 bb 3c 7d 62 c9 bc ba a3 c1 bd
       -0.1278909 0.022843456 -0.024583096 -0.094550565
000150 ec 21 90 3d 47 2d 61 bd 08 a4 80 3d 8b 8b fd bc
       0.0703772 -0.05497482 0.062812865 -0.030950328
000160 2e ee dc bd 1d fb 6a 3c ce e5 5e 3d 3a 61 01 bd
       -0.10787617 0.014342097 0.054418378 -0.031586863
000170 3d da 85 3d 00 fa 51 3d d0 08 9b 3d 1a 1b e2 3c
       0.06535766 0.05126381 0.0757004 0.027600814
000180 f0 72 66 3c 50 92 81 3c 34 3e b0 bc ac 04 cf bd
       0.014065489 0.015816838 -0.021514036 -0.10108313
000190 e2 66 54 3c 3c 2d f3 3a 5d 39 19 3d 2c 70 0c 3d
       0.012963982 0.001855291 0.03740822 0.034286663
0001a0 6f 54 3a 3d 61 92 e9 bd f7 ff 74 bd ef 9b b2 bd
       0.04549068 -0.11404873 -0.05981442 -0.08721148
0001b0 c4 bc c2 3c 89 bb 76 bd 02 81 5e bd d0 95 13 3c
       0.023771651 -0.06023744 -0.05432225 0.009007886
0001c0 db a4 52 ba 9a 41 83 bd c3 50 0d 3d c1 96 aa 3d
       -0.00080354296 -0.06408997 0.03450085 0.08329535
0001d0 97 7d 97 3c 9b 32 3e 3c 0d f8 ac 3d 44 6f 26 3c
       0.018492503 0.011608745 0.084457494 0.010158364
0001e0 cb 90 16 3d b5 a0 d2 3b 75 d3 a9 bd 9e a4 b9 3d
       0.03675918 0.006427849 -0.08292285 0.09064601
0001f0 89 ab b5 3d ca 60 ff 3b 35 53 22 bd 91 e6 d0 3c
       0.08870608 0.0077935206 -0.039630134 0.025500568
000200 6a 3f ca 3d 39 82 04 bd be a2 6f bd ed 8d d3 3c
       0.098753765 -0.032350753 -0.058504812 0.025824511
000210 8c e2 c1 3d 4e 84 c2 3c 67 8d cd 3d 1d 9e a5 3c
       0.094670385 0.023744728 0.10036736 0.020216996
000220 4a 05 bf bd 61 d0 99 3d 98 9e 80 3d 9c 1e a8 bb
       -0.09327181 0.07510448 0.06280249 -0.005130602
000230 18 da eb 3c f5 26 11 3e bc 55 a4 bd b9 a4 d6 3d
       0.028790519 0.14175017 -0.08024165 0.10480637
000240 12 e4 9f bd 31 ba 99 3d 2c e8 ca 3d 8b dc b8 3d
       -0.07807173 0.07506216 0.099075645 0.0902644
000250 39 47 39 3c 1e dd e2 bd 46 28 be 3d e6 dd b8 bd
       0.011308485 -0.11077331 0.09285025 -0.09026699
000260 90 b4 84 3d 4b 76 af bc e3 b5 86 bd 98 71 8d bd
       0.06479752 -0.021418711 -0.06577661 -0.06906432
000270 4c bb be bd 2f c6 94 bd ac fd d4 bc c5 3c f5 3c
       -0.09313068 -0.07264363 -0.025999866 0.029936204
000280 fa e6 6a 3d f7 44 a9 bd bf 25 44 3c 3a 7b 1d 3d
       0.057349183 -0.08265107 0.01197189 0.038447596
000290 03 74 58 3c 0e 69 e3 3d a2 39 8a bd bd bb 6d bd
       0.013211253 0.11104022 -0.06749274 -0.05804037
0002a0 f0 42 bf 3d b3 ab 60 3c 8b de 11 bd 65 ff af 3c
       0.09338939 0.013712811 -0.035612624 0.021484086
0002b0 fc 32 c9 3c e0 86 e3 bb bf cf 1d 3d cb 6d d0 bc
       0.024560444 -0.0069435686 0.0385282 -0.025442978
0002c0 b1 0d dd 3a 81 4e 20 bc 90 4e 06 3d 35 05 80 3d
       0.0016865042 -0.009784342 0.032789767 0.06250993
0002d0 82 98 38 bd dd 0c 9e ba ff d4 84 bd 60 a8 43 3d
       -0.045067318 -0.0012058277 -0.06485938 0.047767997
0002e0 6a ca ee 3c f5 cc 79 3c 1b a3 44 bd 0a 04 2d be
       0.029149253 0.0152466195 -0.048007112 -0.16896072
0002f0 1d 5f ee bd 4a a6 75 bc cc 01 88 3d ca 1c 0e bd
       -0.11639235 -0.01499326 0.06640968 -0.034695424
000300 de 6f b7 bd bb e7 ad bc 12 15 a8 3d 12 c9 00 bd
       -0.08956884 -0.021228662 0.08207144 -0.031441756
000310 6d 08 ad 3d 00 b6 b6 3b 42 21 bd 3c 2f 65 ca 3d
       0.08448873 0.0055758953 0.023087148 0.098825805
000320 07 fe 49 3d 01 43 4c bc cc f4 94 bc 7f 4a d1 bd
       0.049314525 -0.012467147 -0.018183134 -0.10219287
000330 b3 39 62 bd e7 0e d4 bc a7 2f 98 bd 4d 12 cc bc
       -0.055230808 -0.025886012 -0.07430964 -0.02491107
000340 79 1c 9c bd de 1c 05 3e 0d 14 ba bc 8c 83 02 bd
       -0.07622618 0.12999293 -0.02271464 -0.031863734
000350 11 a4 b7 bc 67 d6 83 bd f8 76 85 3c 76 9a e8 3d
       -0.0224171 -0.064373784 0.01629208 0.11357586
000360 a9 b5 20 3d 99 89 af 3d 44 44 00 bd b1 62 a0 3d
       0.039235745 0.085711665 -0.031315103 0.07831324
000370 f8 fd a4 bc 64 f3 dc 3c f9 2a 6e 3b a5 bd de 3d
       -0.020140633 0.026971526 0.0036341532 0.108760156
000380 42 e5 27 bd 46 12 c4 bd 11 58 dd 3d f8 d6 01 3d
       -0.04099012 -0.09573798 0.10807813 0.03169915
000390 84 ec d1 bc 10 17 be 3b 69 22 55 bd 97 e4 78 bd
       -0.025625475 0.005801089 -0.05203477 -0.060764875
0003a0 d7 f3 66 bd 84 41 84 bb b6 ae 43 bc bd 59 04 3d
       -0.056384888 -0.0040361304 -0.01194351 0.032312144
0003b0 14 43 6d 3d ec fb 03 3d 79 89 11 3e 3a 6a 04 bc
       0.0579253 0.032222673 0.14212598 -0.008081967
0003c0 ef 9a 47 3d dc 02 c8 bd c5 4b ab 3d 81 30 a5 bc
       0.04873174 -0.097661704 0.08364061 -0.02016473
0003d0 90 33 8d bd b8 11 ec 3c 93 ce c4 3c ed 9c d1 bc
       -0.068946004 0.028817043 0.024024284 -0.025587523
0003e0 80 09 a9 3d a0 a7 86 bc 62 91 26 3d a9 00 cd bd
       0.08253765 -0.016437352 0.04066599 -0.100098915
0003f0 90 95 81 3d 9f ff 2c bc e6 69 a3 bd 47 92 91 bd
       0.06327355 -0.010558992 -0.07979183 -0.07107978

recurrent.conv_layer.rnn.weight_hh f4 [300, 100]
000000 ce 38 56 bd c3 6c b0 bd bb 87 1a bc e2 82 36 3d
       -0.052300267 -0.08614495 -0.009431775 0.044558413
000010 fa 27 4e bc fd 50 91 bd 5c d1 ac bc cd ab 67 bd
       -0.012582773 -0.070955254 -0.021095924 -0.056560326
000020 1b 1e 5a 3d 5e 67 f7 3a 74 84 ec bd b2 f3 9e bd
       0.053251367 0.001887541 -0.11548701 -0.07761325
000030 71 94 eb bd 0e 24 9f bc 83 3e 2e 3a c7 0a 96 bd
       -0.11502922 -0.019426372 0.0006646888 -0.07326274
000040 2d 02 24 3d 52 0e aa 3c 7f 8b 95 bc 07 39 7e bd
       0.040041137 0.020758782 -0.018254993 -0.062066104
000050 60 1e a1 bd ed 71 ee bb 2a 97 79 3d 78 1a 45 3d
       -0.07867122 -0.0072767646 0.060935177 0.048120946
000060 fa ff 1e bd 62 85 46 3d 36 16 cc 3d 8a 34 ae bd
       -0.038818337 0.048467048 0.09965174 -0.08506115
000070 a4 1c 6b 3a 06 14 b8 bd e8 f1 b3 bd 26 69 5b 3d
       0.00089688064 -0.08988194 -0.08786374 0.053567074
000080 ae 52 fc bc 12 9a 8b 3d 02 30 10 bd 15 ae 62 3d
       -0.030801143 0.06816496 -0.035202034 0.0553418
000090 5e e0 25 3d 2e 55 03 bc 14 05 99 bc ec 30 af 3d
       0.040497176 -0.008015914 -0.01867918 0.08554253
0000a0 03 62 6a 3d cd 23 b5 bc 2e 2c 96 3c 52 6a 38 bd
       0.057222378 -0.022111798 0.018331613 -0.04502327
0000b0 a9 a6 86 3d a2 52 94 bb 1b 31 3e bb 17 9e 05 3d
       0.06574757 -0.004526452 -0.0029020968 0.03262147
0000c0 1b 46 5c bd dc f1 8b bd 1d f9 8b 3c e0 0d a5 bc
       -0.053777795 -0.068332404 0.01708656 -0.020148218
0000d0 42 1f 63 bd 99 ac b2 bd f5 7e 88 3d a3 45 ba 3c
       -0.05544973 -0.08724327 0.0666484 0.022738284
0000e0 ab 65 d8 3c 9b e6 ae 3d 20 a0 10 bc e0 08 8f bd
       0.026415667 0.08540078 -0.008827239 -0.06984115
0000f0 c9 00 8c bd 9f 61 a8 bc ec 89 be bd 3f 32 d5 3c
       -0.06836087 -0.020554362 -0.0930365 0.026024936
000100 0f f7 e0 3c 10 ed 99 bd c7 51 c6 3d d8 6b 33 bd
       0.027461557 -0.07515919 0.096835665 -0.04380402
000110 2e b0 00 3e 29 aa b6 bc 5c 80 07 3e 8e a0 bd bc
       0.12567207 -0.022297936 0.13232559 -0.023147848
000120 46 c7 34 bd fb cf 3d 3d 25 ad 77 bd 0b 2f 80 3c
       -0.044135354 0.046340924 -0.060467858 0.015647432
000130 99 85 e8 3d f1 5d eb 3c 01 bc fe 3d 0a 0c 0d 3d
       0.11353607 0.028731318 0.12438203 0.03443531
000140 2c 41 0a 3e dc ba f0 3d 44 f3 31 bd 88 92 09 3e
       0.13501424 0.117543906 -0.043444887 0.13434803
000150 b7 c4 2e bc 2d af 9f 3d 9e c8 c5 3d dc b2 48 3d
       -0.010667018 0.07797084 0.09657405 0.0489987
000160 97 7f 08 3e aa 72 84 bc 1c 60 c4 3d a9 6b 37 3d
       0.13329922 -0.016167957 0.09588644 0.044780407
000170 e6 d7 43 bd dc 69 e5 3d 2e a9 db 3d 4d a7 95 3d
       -0.04781332 0.11201832 0.10725628 0.07307301
000180 f6 ae 15 3c 76 38 a4 3d c3 15 e9 3b c0 9a 37 3c
       0.009135952 0.080185816 0.00711319 0.011206329
000190 ec 0d 4e 3d 61 27 bc bd 2b 8f ba bd 3d e8 f5 bc
       0.050306246 -0.091871984 -0.091093384 -0.030017966
0001a0 46 71 39 bd fb a7 e3 bd 99 87 44 3d 65 27 87 bd
       -0.04527404 -0.11116024 0.04798088 -0.06599311
0001b0 47 f5 e0 bd 6e cb a2 bd 8c b7 e2 bd f4 c3 6f 3d
       -0.10984283 -0.079489574 -0.11070165 0.058536485
0001c0 f4 83 fe 3c 9e 90 b6 bd 40 c9 44 bd 6d e1 a9 bc
       0.03106878 -0.08914302 -0.04804349 -0.020737374
0001d0 ee 89 ab 3c 48 6f 3c 3d 34 7a 9d 3c 93 f6 53 bc
       0.020939793 0.046004564 0.01922331 -0.012937206
0001e0 59 d3 de bd 8b 65 7c 3d 13 f5 90 3c 54 0e 57 3c
       -0.10880155 0.061620276 0.017694985 0.013125975
0001f0 87 fb 55 3d c0 19 5f bd b0 d9 4b 3b 55 00 2e bd
       0.05224183 -0.054467916 0.0031105094 -0.042480785
000200 8d 19 b0 bc 46 0f b2 bc e5 d6 56 3d 08 b7 8e 3d
       -0.021496559 -0.021735799 0.052451033 0.06968504
000210 80 af 9d bd 36 6e d1 bd 5a 2e a3 38 0e 06 9a 3c
       -0.076994896 -0.10226099 7.781079e-05 0.018801715
000220 17 9c 6f 3d e8 9a 8d bd f5 a5 d5 bc 7e 7a 44 bd
       0.05849847 -0.06914312 -0.026080111 -0.04796838
000230 41 34 b4 bd 40 b4 17 bd c3 3c 16 bd 24 85 9b bd
       -0.08799029 -0.037037134 -0.03667904 -0.07593754
000240 38 67 d4 3c 91 7d 91 bd 45 23 b1 bc a6 3e 58 3d
       0.025928125 -0.07104028 -0.021623263 0.05279412
000250 04 e0 51 3d 40 e1 7b 3d 5c db cc bc cf a5 a1 3d
       0.05123903 0.061494112 -0.025006942 0.078929536
000260 13 f2 7a 3d 7d bd a4 3d b5 02 0e bd 0b 82 53 3d
       0.061266016 0.080439545 -0.03467055 0.05163769
000270 71 d8 fe 3c 99 95 7e 3d de 7b 3a 3d b8 97 26 3d
       0.031109067 0.062154386 0.045528285 0.040672034
000280 96 34 8c bc 41 51 0f 3b 33 22 0c bd 9f 0b 91 3d
       -0.017114919 0.00218685 -0.034212302 0.07082295
000290 fb 49 20 3d 99 52 ed 3d fb 91 e3 bc 2a f0 57 3c
       0.039133053 0.1158802 -0.02777957 0.013179818
0002a0 e1 17 bc 3d 7f 56 36 3c ad 7d 87 3c 7e 36 04 3d
       0.09184242 0.011129021 0.01653942 0.03227853
0002b0 c0 3a b0 3d 23 f0 05 3d 3b 03 b2 3b 50 fe eb 3c
       0.08604956 0.032699715 0.005432514 0.02880779
0002c0 de 6e b0 3c bb 18 9c 3c 31 72 28 3e 72 71 ca 3d
       0.02153724 0.019054761 0.1644981 0.09884919
0002d0 ac 70 d1 3d f0 9c 05 3e d3 51 c1 3d 59 bd f0 3c
       0.102265686 0.13048148 0.09439435 0.029387163
0002e0 38 99 04 3d a0 d1 c5 bc c1 60 ef 3d 4a c4 6b bd
       0.032372683 -0.024147809 0.11688376 -0.057560243
0002f0 61 a0 1c 3b c6 19 6e 3c 8d 4e d5 3d 4e d9 cb 3d
       0.0023899304 0.014532512 0.10415373 0.09953557
000300 4a ee 54 3c 8a 8d 5b 3e de ca d9 3d 85 1a 20 3d
       0.012996266 0.21440712 0.10634397 0.03908779
000310 0c d0 20 3e 5e ef 31 3e 7f e6 a1 3e e7 e4 35 3e
       0.15704364 0.17376468 0.31621167 0.177631
000320 ba 58 49 bd 8f 5a b8 3d 57 32 b5 bd e9 f9 8b 3d
       -0.049156882 0.09001648 -0.08847492 0.06834776
000330 90 7e 47 3c c1 46 99 3d 6a 6a b3 3d b4 81 46 bd
       0.012176171 0.07484198 0.08760531 -0.04846354
000340 23 b7 72 bd 19 fa 02 bc 66 84 92 3d 8e eb eb 3c
       -0.059256684 -0.007994198 0.07154159 0.028798845
000350 4f 8e 08 bd ca f6 96 bd 60 f0 2b bd 50 bb 45 3d
       -0.03333884 -0.0737129 -0.041977286 0.04827434
000360 34 10 51 3c f0 3d 36 3c 4b bc 58 bd 02 0a af bd
       0.012760211 0.0111231655 -0.052913945 -0.08546831
000370 6b f6 cf ba cd da 86 3b ea 0f c8 bc 6c 7e 54 bc
       -0.0015866285 0.0041154386 -0.02442165 -0.012969594
000380 6c 9e e3 bc 40 1f 01 3d ae 1b bb 3d d3 cc ba 3a
       -0.027785502 0.031523943 0.09136139 0.0014251716
000390 87 19 83 bd fd 7d a0 bd 94 e7 ce 3c e5 4c 94 3d
       -0.06401353 -0.0783653 0.02525691 0.07241229
0003a0 8e 53 60 bd 09 9a c0 bd 5f d6 eb 3c 1b dd 92 3d
       -0.054767184 -0.0940438 0.028788744 0.07171079
0003b0 3e 23 5c 3d 6b cb a0 3d ee 71 bc 3d 72 8e f6 bc
       0.053744547 0.07851299 0.09201418 -0.03009722
0003c0 13 3e 7f bc 9a 6f 87 bd 39 9f b5 3c 23 a7 88 3c
       -0.0155787645 -0.06613083 0.02217065 0.01668126
0003d0 d3 70 7c bd 49 11 fa 3c fd 45 1a 3d d3 a4 ad bd
       -0.061631035 0.03052582 0.037664402 -0.08478703
0003e0 d0 21 9e 3d 7f 78 c8 bd 32 af 06 bd 62 f4 ab 3d
       0.07721293 -0.09788608 -0.032881923 0.08396222
0003f0 74 69 56 bd 82 af 21 bd 3a 24 b7 3d 0f 42 72 3b
       -0.05234666 -0.039474018 0.089424565 0.0036965644

recurrent.conv_layer.rnn.bias_ih f4 [300]
000000 c7 ff e1 bd 86 e6 e4 bd 89 58 7b bd d5 ac 41 3d
       -0.11035114 -0.11176781 -0.06136373 0.047283966
000010 86 9c 3c 3e e0 8d c8 3d 78 2d 3f bd 48 fc 0b 3e
       0.18419084 0.097926855 -0.04667422 0.13670456
000020 b9 ee f4 ba 2f 89 3f bc 81 eb 89 3d 27 3c 09 3d
       -0.0018686868 -0.011690422 0.06734372 0.03350463
000030 34 0a 06 bd 1c 41 43 bd a2 b6 e0 bd d2 33 0f bc
       -0.032724574 -0.047669515 -0.109723344 -0.008740382
000040 5b 92 eb bd c0 00 c6 3d 74 d7 e9 3d c5 87 1a bd
       -0.115025245 0.09668112 0.114180475 -0.037727136
000050 26 99 81 bd cf 80 6e 3d 0e fa b1 3d 25 8c 74 3d
       -0.06328039 0.05822831 0.08690272 0.059703965
000060 11 10 12 3d 6e 2c 5d 3d aa 04 6f 3e 86 18 cb 3d
       0.035659853 0.05399745 0.23341623 0.09916787
000070 03 39 1e 3d 38 a1 4f bd a4 7a e7 3c a0 40 26 3d
       0.03862859 -0.05069086 0.028256722 0.040588975
000080 dd f4 b8 3d c1 6f 44 be 3e fe 7a bc 3f 04 11 be
       0.09031079 -0.19183256 -0.015319405 -0.14161776
000090 b3 98 3e 3d d6 04 04 3d 49 ff b8 3d 8e 0c 30 bc
       0.046532344 0.032231174 0.09033067 -0.010745181
0000a0 2b 6d 8f bd a2 9c 4f bd 98 71 b0 3d ff b4 91 bc
       -0.07003244 -0.050686486 0.08615416 -0.017786501
0000b0 74 b9 7f 3e e0 9c 86 3d 99 b1 c7 bd 35 e4 97 3d
       0.24973089 0.0657289 -0.09750671 0.07416574
0000c0 d4 7d 9a bb 75 20 43 3d d6 e1 c6 bb 3a 5e d2 3d
       -0.004714707 0.047638375 -0.006069402 0.102718785
0000d0 8a 8c 09 3e a1 17 9a 3c e0 8e 0e 3c 8b bc a2 3d
       0.13432518 0.018810095 0.008701056 0.07946118
0000e0 c1 77 a3 bc 1d bf 75 bd 6c 66 b9 3b 27 00 32 bd
       -0.019954564 -0.059996713 0.0056579616 -0.043457177
0000f0 31 3f 24 bc 51 20 a7 bd a9 08 6d 3d 10 56 11 bc
       -0.010024832 -0.08160461 0.057869587 -0.008870617
000100 f8 18 a8 bd 73 8a f1 3d 35 29 b8 3d 2f 8a 6a bc
       -0.082078874 0.11793985 0.089922346 -0.014315172
000110 d4 fd 6f bc d5 b4 d0 3d 43 c1 04 3e 15 c6 4e 3d
       -0.01464792 0.10190741 0.12964348 0.050481874
000120 65 54 90 3d 03 bd 62 3d 3a ee bb 3d f3 03 5d 3d
       0.07047347 0.055356037 0.091762975 0.053958844
000130 ed 45 89 bd 3e 03 f0 3c 8d ad 40 bb 9e 2d 4d ba
       -0.067027904 0.029298421 -0.002940032 -0.0007826927
000140 cf 34 c4 bc 35 61 67 3d d3 a9 b1 3d 7a 18 29 3e
       -0.023950962 0.05648919 0.086749695 0.16513243
000150 92 11 db bd 63 ea 75 3d 80 00 e5 bc ee 5c ec 3d
       -0.10696711 0.06003798 -0.02795434 0.115411624
000160 f8 ba 02 3c ca 8c d5 bd 19 66 ed bd 6d 76 4f bd
       0.007979147 -0.10427244 -0.11591739 -0.05065005
000170 2e 23 c8 bd b1 08 0b bd 6f 6c 7d 3c ba dd 1d 3d
       -0.09772335 -0.033943836 0.015467747 0.038541533
000180 01 f6 2b 3d 23 b7 ae 3a 88 eb bc 3c db 20 b8 3d
       0.041982654 0.0013329725 0.023061529 0.08990642
000190 00 96 e3 3c 1b 06 85 bc c2 2f dc bc 99 eb 83 bd
       0.027781487 -0.016238263 -0.026878241 -0.06441421
0001a0 77 6a 8b 3b ae c7 bd bc fc 86 a2 3b a0 f9 41 bc
       0.004254635 -0.023166504 0.004959939 -0.0118393
0001b0 86 7d 04 be e0 f7 cd bd 22 d7 93 bd 83 8b a1 3d
       -0.12938508 -0.10057044 -0.07218768 0.07887938
0001c0 ba 54 5a 3c 4a bd db 3c 71 7d cf bd a4 91 8b 3d
       0.013325864 0.026823658 -0.10131348 0.06814888
0001d0 a9 26 14 be 0a ed e3 3d e4 9e 88 3d cf 31 c1 3d
       -0.14467873 0.11129196 0.06670931 0.09433328
0001e0 92 16 5b bd 6d b0 fe bc 8c ab 18 3d 0c 40 ed bd
       -0.05348832 -0.031089986 0.037272975 -0.115844816
0001f0 b4 10 0e 3d 61 1e 12 3d af f2 40 bd 80 f9 6c bd
       0.034683898 0.035673503 -0.04710644 -0.05785513
000200 c5 c1 d5 bd a2 38 96 bd d9 35 ff 3b fb f4 51 3c
       -0.10437349 -0.073350206 0.0077884016 0.012814756
000210 98 69 88 bc 10 ba 61 3c c6 14 cc bb 68 fc 7a bd
       -0.016651914 0.013777271 -0.0062280623 -0.06127587
000220 d5 71 fa bd 14 6c 8f bd 8e 28 42 3d e0 0f 50 3d
       -0.12228743 -0.07003036 0.047401957 0.05079639
000230 55 86 c1 bc d4 aa 6c bd 5a 52 9c bc 28 d7 1e be
       -0.023623625 -0.057780102 -0.019082237 -0.15511763
000240 12 d4 e0 3c 07 3a 04 be 2e ef 1b bc 68 e2 3a bd
       0.027444873 -0.1291276 -0.009517474 -0.045626074
000250 c2 82 ea bd 8c f6 81 3d df 46 64 bd c3 cf c4 bd
       -0.11450721 0.06345853 -0.05573165 -0.0960994
000260 4c 54 89 bd 64 51 be 3d 8c b1 5f bd 1d 56 33 be
       -0.067055315 0.09292868 -0.05461268 -0.17513318
000270 5b c1 cc bd 19 f2 f0 bc 64 3d 22 bd 68 42 d0 bc
       -0.09997817 -0.029412316 -0.039609328 -0.02542229
000280 f7 13 b4 bb b9 f1 9d 3d 85 2c 59 bb a7 b3 5d 3c
       -0.005495544 0.077121206 -0.0033138108 0.013531602
000290 9c ab a8 bd f1 f2 93 3d ec f6 51 bd 64 88 03 bd
       -0.08235857 0.07224072 -0.051260874 -0.032112494
0002a0 3b 2c e7 bc a3 b6 2c be 0d 49 a6 bd fb 9b 34 bd
       -0.028219333 -0.16866545 -0.08119402 -0.044094067
0002b0 c9 d9 34 bd 3f e9 e9 bd b9 37 8b 3d 5b 46 bf bd
       -0.04415301 -0.11421441 0.06797738 -0.09339591
0002c0 d0 fc f4 bd 26 d2 f1 3c ad ab b8 3d ac 9f ce bb
       -0.11962283 0.029519152 0.090171196 -0.0063056555
0002d0 17 26 2f bd c0 8e 54 3c f6 f5 c3 bd b5 2d b5 bd
       -0.042760935 0.012973487 -0.09568398 -0.088466085
0002e0 81 f0 df bc f4 5c 8f bd f5 eb ae bd 28 d0 a3 3c
       -0.02733636 -0.07000151 -0.08541099 0.019996718
0002f0 ff 37 5e 3d 1e fd 45 3e 9a fb 8e 3d c1 ae ea 3d
       0.05425262 0.19334838 0.06981583 0.11459113
000300 7d a4 02 be 8d cb 33 3d ea e6 41 bd 51 de 44 3d
       -0.1275806 0.043895293 -0.047339357 0.04806358
000310 28 c1 39 3d 72 95 65 3e 83 6d 5d 3d f5 4e 13 3e
       0.045350224 0.2242029 0.054059517 0.14385588
000320 cb d7 27 bd bc 97 2b be b5 38 7d bd d4 e7 63 3c
       -0.04097728 -0.16757101 -0.06182166 0.013910253
000330 e6 8e f7 bc 37 1a 6d bd 3a b6 81 bd fd d9 32 3d
       -0.030219506 -0.05788633 -0.06333585 0.04366492
000340 a1 b4 08 be 14 1c 45 bd 78 06 b2 3c 15 2f bc 3d
       -0.13350154 -0.04812248 0.0217316 0.09188668
000350 e8 31 d1 3d 98 5a b9 bd d9 3b 87 bd 76 47 a5 bc
       0.10214597 -0.090504825 -0.06603212 -0.020175677
000360 c8 5f 87 bd ea f9 8e 3b 48 53 96 3c 91 48 7a bd
       -0.06610066 0.004363288 0.018350258 -0.06110436
000370 76 15 7c ba db 4b 2b be e0 08 a4 3c ec f5 6e bd
       -0.0009616235 -0.16728155 0.020023763 -0.058339998
000380 70 de f4 3d e3 ec ea bb 7b e9 53 3e ad 94 30 3d
       0.11956489 -0.0071693524 0.20694534 0.04311054
000390 3c 7f 21 bd f2 50 c4 3b d5 ce 08 bb e9 67 0f 3c
       -0.03942798 0.0059910947 -0.0020875235 0.008752801
0003a0 6e c1 55 bd 79 de 1c be 28 77 4e 3d a6 b7 2b be
       -0.052186422 -0.15319242 0.050406605 -0.16769275
0003b0 e2 e0 d9 3c 6d d0 41 3c e7 43 1d bd 99 fe 82 3d
       0.02659649 0.011829478 -0.038394835 0.06396217
0003c0 ab e7 67 bc c0 cc 78 bd 27 7e 65 3c 1d 77 0e be
       -0.014154355 -0.06074214 0.014007128 -0.13912626
0003d0 70 4d 83 3d a6 52 2f 3d 93 be e7 bc cd 41 69 3d
       0.064112544 0.04280343 -0.028289115 0.05694752
0003e0 0e 21 67 3c f1 e6 e0 bd 28 50 d6 bd f0 39 9d bd
       0.014107002 -0.109815486 -0.10464507 -0.07677066
0003f0 a9 ce d1 3d 15 3d 71 3d 07 32 33 bd e4 5e 64 bc
       0.102444954 0.058896143 -0.04374888 -0.013938639

recurrent.conv_layer.rnn.bias_hh f4 [300]
000000 df 50 d5 bd 7f 8c 1e be 29 b1 84 bd fb fb 3c bd
       -0.104158156 -0.15483283 -0.06479103 -0.046138745
000010 71 74 c1 3d 91 82 75 3d b2 2d 04 3d 59 3d 77 bc
       0.094460376 0.05993897 0.03227014 -0.01509031
000020 f3 bc 2e 3c 1c 69 1f 3e 19 77 5c 3d 5d 28 46 3d
       0.010665166 0.1556744 0.053824518 0.048378337
000030 1c c2 13 bd e6 7b ca bd ac f0 11 bd 8e 47 90 3d
       -0.03607379 -0.09886913 -0.035629913 0.07044898
000040 2a 0a 36 bd 44 1d 07 3d 9f 70 11 bd d4 87 b0 bd
       -0.044443287 0.032986894 -0.035507794 -0.08619657
000050 7f 09 4d bd 93 c1 76 bd 6a f8 bc bb 08 48 46 3d
       -0.050057884 -0.0602432 -0.005766918 0.048408538
000060 53 fd d2 3d f5 cc 94 bd 72 74 7f 3e 08 d0 78 3d
       0.10302224 -0.07265655 0.24946764 0.06074527
000070 ab 2c 2a 3d 9e 10 61 3d d4 65 03 bd 5c e2 54 bc
       0.041546505 0.054947488 -0.032079533 -0.012993421
000080 5f 81 24 3d de 56 0d be 73 f1 d5 bc 4a c1 4e bd
       0.04016244 -0.13802668 -0.026116109 -0.050477304
000090 d5 ae 4d 3d c5 0b b3 3c 01 0c a9 3d ed 8a f4 3b
       0.05021556 0.021856198 0.08254243 0.0074628503
0000a0 f5 26 95 3c df 40 96 3d ac f5 65 3d a5 cc 05 bd
       0.018207053 0.07336592 0.056142494 -0.032665867
0000b0 fb a7 be 3e ad 6d 5e bd 4c 46 81 bd 7f 61 6e 3b
       0.37237534 -0.054303814 -0.06312236 0.003637403
0000c0 7a 17 9a 3c 5d 79 63 bd 32 6f dc 3d b0 94 18 3e
       0.018810023 -0.055535663 0.10763396 0.1490047
0000d0 e7 47 11 3e 5e 98 dd 3b 42 6c 52 3d d8 b0 36 3e
       0.14187585 0.0067625483 0.051372774 0.17840898
0000e0 6b 61 a9 3d d4 24 8a b9 4d f8 9c bd 6f 01 8e bd
       0.08270534 -0.0002634885 -0.07664547 -0.06933867
0000f0 bf 81 f3 3d 7b 33 6b 3d 35 b4 6f bd ac d3 c6 3d
       0.118899815 0.057422142 -0.05852147 0.09708342
000100 d4 99 e4 bd cc 76 61 3d 83 4f be 3d 3b b7 91 3d
       -0.11162153 0.055044934 0.092925094 0.071150266
000110 11 c6 87 bd 1c 34 35 bc 87 e8 87 bc d2 d0 ab 3d
       -0.06629575 -0.011059787 -0.01659037 0.08389439
000120 e7 c9 97 bd 77 c5 5b bd 0e c1 ac 3b b8 a2 72 3d
       -0.07411557 -0.053655114 0.0052720373 0.059237212
000130 2e ca f6 bd 50 26 71 bd df 60 80 bd 5f f2 26 3d
       -0.120502815 -0.05887443 -0.06268477 0.040758487
000140 2c 4e db bb 21 36 38 bd 59 51 0c bd d3 27 c5 3c
       -0.0066926684 -0.044973496 -0.034257267 0.024066841
000150 60 1a 00 bc 78 78 89 3d 5c 9d 85 bc e8 10 f6 3d
       -0.007818788 0.06712431 -0.016310386 0.12014943
000160 06 1f 01 bd f3 2c 83 bd ef b5 92 bd 41 f8 41 3c
       -0.031523727 -0.06405058 -0.07163607 0.0118389735
000170 2d f4 98 3c bb 9d b1 bc 31 40 df 3d 88 80 ec 3d
       0.01867112 -0.021681657 0.109009154 0.11547953
000180 50 66 88 bd b5 ad af bd e6 56 e5 3c 79 49 42 3d
       -0.066601396 -0.08578054 0.027995538 0.04743335
000190 a8 05 03 bd 11 60 3c be bd 96 b3 bd 2a dc 85 bd
       -0.031987816 -0.18396021 -0.087689854 -0.065361336
0001a0 ef a3 df bd f1 d7 7c bd 65 88 46 3d f5 38 12 bd
       -0.1091994 -0.061729375 0.04846992 -0.03569885
0001b0 ff 5d f2 bd 85 32 85 bd 95 26 30 bd 94 4f 1e bc
       -0.118343346 -0.065037765 -0.043005545 -0.009662528
0001c0 bd a0 ce 3c 2b cf 06 bd 14 ab 10 3b 5c 0f 89 bd
       0.02522313 -0.032912415 0.0022074627 -0.06692383
0001d0 5e eb 7c 3c 9a 4c 43 3d d2 0f ae 3d 61 49 09 3e
       0.015436975 0.047680475 0.08499111 0.13406898
0001e0 7a a7 89 bd 7a 08 9e bd 5e 93 dd bd 82 12 03 3d
       -0.06721397 -0.077164605 -0.10819124 0.032000072
0001f0 34 d1 0e bd f3 a6 d7 3c f7 5b 27 3d c8 73 eb bd
       -0.03486748 0.026324725 0.04085919 -0.11496693
000200 25 df 8e bd 14 30 b0 bd 4a 10 15 3d 8c 17 41 bd
       -0.06976155 -0.0860292 0.036392488 -0.047141597
000210 32 85 3f bb e5 e4 e8 bc 32 fb c7 3c f5 0a 5e bd
       -0.0029223678 -0.028429458 0.024411771 -0.05420967
000220 b4 3a 40 3c 8d 6c 3c bd fb f9 cd bd 0f 54 cf bd
       0.011732746 -0.04600196 -0.100574456 -0.10123455
000230 d9 00 e9 3c d9 82 20 bc ae 81 27 bd b2 1c c6 bd
       0.028442787 -0.0097968215 -0.040895157 -0.09673442
000240 a1 de 95 bb f4 c2 57 bd 07 31 20 bd cd cb 4a 3c
       -0.0045736586 -0.052676156 -0.039109256 0.012377691
000250 2d b5 1f 3d 31 94 10 bd 0b 4d 16 3d 8e 54 3c be
       0.038991142 -0.035297576 0.036694568 -0.1839163
000260 50 e9 3a 3d 47 bd 0d bd 17 88 96 3d c4 13 b4 bd
       0.04563266 -0.034604337 0.07350176 -0.087928325
000270 cd 68 15 bd c6 4a 22 bd 38 a1 1e bd fa c3 d0 bb
       -0.0364769 -0.03962209 -0.03872797 -0.0063710185
000280 6e 8c ac 3d 4d 65 bd bd 66 f8 9a bd 31 17 0a bd
       0.08425222 -0.09247837 -0.075669095 -0.033713523
000290 fd c4 0f be ec 4e 57 3d 55 c3 82 bc b0 48 ce bd
       -0.14039989 0.0525655 -0.015962282 -0.10072458
0002a0 c0 cd 4f 3d 07 d0 bb bd e3 f1 a2 bd a6 54 8c bc
       0.050733328 -0.091705374 -0.079562925 -0.017130207
0002b0 21 d1 9c bc 12 15 09 bb fa bb 04 bd f3 c9 1b be
       -0.01914269 -0.00209171 -0.03240583 -0.15213756
0002c0 02 ae 89 bd 57 c7 06 be 8f 1e 96 bc e8 0a e3 3c
       -0.067226425 -0.1316198 -0.018325118 0.027715161
0002d0 5a 79 8f bd 4e 68 88 bd 84 b9 e9 bc 11 08 7f bd
       -0.07005568 -0.066605195 -0.028530844 -0.062263552
0002e0 1c 20 5b 3d 0c 5d a0 bd cf a6 91 3d 6d 84 9d bd
       0.05349742 -0.07830247 0.07111894 -0.07691274
0002f0 1e 1c cc bd ce 76 5a 3e 1f 4c f4 bc c3 67 4a 3e
       -0.099663004 0.21334383 -0.029821454 0.19766144
000300 d4 ad 79 3d 81 30 e4 bd bd b1 5a bd e1 8d 95 bb
       0.06095679 -0.11142064 -0.05339216 -0.0045640324
000310 1a 54 63 3d 68 92 3a 3e 31 63 69 3d 01 f4 76 3e
       0.055500127 0.18219912 0.056979362 0.24116518
000320 73 89 65 3d 4e a3 bf 3b e3 64 e7 bd 68 cb 54 3d
       0.056039285 0.005848325 -0.112985395 0.051951796
000330 61 fb 11 3e 2e 9d d8 3d b1 bb 00 be fb 69 1d bd
       0.1425605 0.10576855 -0.12571599 -0.03843115
000340 c4 9f 2b 3d 16 2a f1 bd 7b ff b5 bd 13 0e d4 bd
       0.04190041 -0.117756054 -0.0888662 -0.10354247
000350 59 22 b8 bd 21 0a 97 bd 03 bc 63 3d 20 c4 79 bc
       -0.08990926 -0.07374979 0.055599224 -0.015244514
000360 3d fa 1f be 55 c0 49 bd 26 33 fd bb ba b6 79 3d
       -0.15622802 -0.049255688 -0.0077270446 0.060965277
000370 5a e3 33 bc 79 fb 9f bd 23 77 74 3d 4b 66 19 bd
       -0.010979498 -0.078116365 0.05968393 -0.03745107
000380 d2 2c bb 3d 6d a0 7c 3d 04 9d f6 3d c9 98 ce 3d
       0.09139408 0.06167643 0.12041667 0.10087735
000390 39 49 cd 3d 7d 4d 95 bc c6 db a3 3d c5 75 4e bc
       0.10023732 -0.018225426 0.08000903 -0.012601321
0003a0 92 0c 73 3c d1 84 ee bd 87 66 9f 3d 20 4c ba bd
       0.01483454 -0.116464265 0.077832274 -0.09096551
0003b0 00 b5 84 b9 06 4c a7 3c 1e 3a 28 3e c2 17 1e 3d
       -0.00025311857 0.020421993 0.1642842 0.038596876
0003c0 57 9f 83 3c 8e 14 a4 bd 88 ea ad 3d a4 1b 08 3c
       0.01606719 -0.08011733 0.08491999 0.008307371
0003d0 cf cf c6 3d 04 d3 a6 3d cf bb 3c bd 0f 1b a5 bc
       0.09707605 0.08145717 -0.046077546 -0.020154504
0003e0 35 4e fc 3d c7 23 1c be 8e 5f 14 3c b4 6f 5b 3c
       0.12319604 -0.15248023 0.009055985 0.013393331
0003f0 c4 46 da 3d f4 c2 a9 bc 74 b7 93 3d 23 5d e6 bd
       0.10658029 -0.020722844 0.07212725 -0.11248233

recurrent.recurrent_layer.weight_ih_l0 f4 [400, 100]
000000 c5 36 49 bc 49 82 ee bc e0 be 46 bd f9 1d 2e bd
       -0.0122811245 -0.02911486 -0.048521876 -0.042509053
000010 c2 49 b7 3d 56 48 60 3e 33 ff 97 3d b1 a3 91 3c
       0.08949615 0.21902594 0.07421722 0.01777825
000020 6c cb ee bd bc 82 cc bc d2 93 4b 3d ad 64 e9 bd
       -0.116598934 -0.024964683 0.04970152 -0.113961555
000030 df 51 11 be 96 c6 ac 3d a5 3f ae 3d 34 d4 0e be
       -0.14191388 0.08436315 0.08508233 -0.13948137
000040 60 b2 92 3e 15 bb 2c be 1f 45 e1 3c 78 8c be bd
       0.28651714 -0.16868241 0.02749878 -0.09304136
000050 29 52 ee 3d 95 87 da bc ab f0 c4 bd c4 91 33 bd
       0.116367646 -0.026675979 -0.09616216 -0.043840185
000060 f5 a2 64 3d af cb 28 bd 07 ca d6 bd 2e 3b e4 bd
       0.05581947 -0.041209873 -0.104877524 -0.111441
000070 18 1f 3f bd 39 c7 b2 3d c2 e9 eb bc 81 6f 2e bd
       -0.046660513 0.08729405 -0.028797988 -0.042586807
000080 31 9c 4c be 77 f4 68 3e 0e 22 82 3e 6e a6 ae bb
       -0.19981457 0.22749506 0.25416607 -0.0053298986
000090 23 38 16 3e e6 73 8f 3c b2 67 2d 3e e8 0d 9e 3d
       0.14669852 0.01751132 0.16934088 0.07717496
0000a0 b3 5b 6c 3d e5 41 43 3e d2 a9 a9 3d 85 b3 8a 3d
       0.05770464 0.19068106 0.08284344 0.06772522
0000b0 2f 99 c1 3d 1e 60 17 be d2 18 3c 3c de 1d 84 bd
       0.094530456 -0.1478276 0.011480527 -0.06451009
0000c0 b4 55 a8 bb 0a a6 63 bd bd f2 a9 bd 76 31 4b bc
       -0.0051371697 -0.05557827 -0.08298252 -0.012401929
0000d0 01 71 67 3d 6a c5 25 3e b8 82 ca bc 86 53 1b 3e
       0.056504253 0.16188589 -0.024720535 0.1516858
0000e0 2f 35 78 3d 45 17 89 3d c2 a0 e3 3d 44 eb 02 3b
       0.060597595 0.066938914 0.111146465 0.0019976655
0000f0 b0 30 21 bd 20 d0 2b 3e 45 96 0e be d2 8e 29 3e
       -0.039353073 0.16778612 -0.13924511 0.16558388
000100 59 e9 09 3e 5e 17 3a be d5 36 3a bd b6 26 2f 3d
       0.13467921 -0.18172976 -0.04546245 0.042761527
000110 2b 82 a4 3d a9 9d 23 3d f3 df cd 39 72 cc 13 3e
       0.0803264 0.03994528 0.00039267502 0.14433458
000120 a2 b1 20 be a9 57 f0 bd 66 d3 82 bc d9 c6 fd bb
       -0.15692762 -0.1173547 -0.015969943 -0.0077446518
000130 5d 7f ee bd 7b 88 a6 bd 10 64 ed bc 68 b4 e3 3d
       -0.11645386 -0.081315 -0.028978378 0.11118394
000140 4b aa 7c 3d 21 e9 c4 3d c5 12 e3 3c 41 33 2d 3e
       0.06168584 0.09614778 0.027718911 0.16914083
000150 28 ed 3c 3e b5 a6 46 bd 7c 74 ab bd 17 7b 8a bc
       0.18449843 -0.048498828 -0.08371827 -0.016904397
000160 fc 8f 3a 3d bd 1e 74 3d fc b7 aa bd 71 fd f7 3c
       0.04554747 0.059599627 -0.083358735 0.030272217
000170 6b 4f ee 3d 72 5a 86 3e 54 65 76 3d 19 57 2f 3d
       0.116362415 0.2624088 0.060155228 0.042807672
000180 c3 14 b0 bd fc 39 9a bd 68 b5 09 3d 47 c4 43 3e
       -0.0859771 -0.07530591 0.033620268 0.19117843
000190 2e f6 a1 bc 36 c3 3b 3d d1 b3 69 bd c1 d0 da bd
       -0.019770708 0.045840465 -0.057056252 -0.10684348
0001a0 2e aa 2e 3c 20 e3 de 3d 26 a9 cf 3d cf dd 2a 3d
       0.010660691 0.108831644 0.101396844 0.04171544
0001b0 b0 2a ff bd 3d 5a a7 3d 3d 25 5f 3b 03 bb e0 bc
       -0.12459314 0.081715085 0.0034049295 -0.027432924
0001c0 07 cf 71 bc d2 11 09 3d 09 c8 30 bd 56 e8 ea bc
       -0.014758832 0.03346426 -0.04315952 -0.02867524
0001d0 55 9e 88 3d 7f 1d 0a 3d ee 27 cc bc e1 e1 80 3c
       0.066708244 0.033719536 -0.024921384 0.015732707
0001e0 21 bd 0e bd 7c 26 a2 bb cb 9a a8 bd bf 61 18 bd
       -0.034848336 -0.0049484354 -0.082326494 -0.037202593
0001f0 e2 ba 54 3d f4 01 06 3d 81 24 6f 3d 25 3a e9 bd
       0.051936038 0.032716706 0.058384422 -0.11388043
000200 0f 57 09 3e 94 a5 a2 bd db ad da 3b 73 01 3e 3d
       0.13412116 -0.07941738 0.006673557 0.0463881
000210 3a 14 11 be 97 a2 2f 3e c6 e5 14 3d 7f 9a 99 3d
       -0.14167872 0.17151867 0.03635194 0.07500171
000220 83 50 fe 3d d7 4b 37 3d f3 7e cf 38 81 23 c0 3d
       0.124177 0.04475006 9.894175e-05 0.09381772
000230 5b 65 07 bb 62 fd 11 3e 1e d4 ff 3d f9 74 84 3c
       -0.0020659778 0.14256814 0.1249163 0.016169058
000240 32 ec 1d 3e ed 05 b1 bc f1 34 e3 3d 4f 65 b7 bd
       0.15422133 -0.021609271 0.11094082 -0.0895487
000250 20 2b 87 bb e1 03 65 bd 81 27 ac 3d b2 60 ce 3c
       -0.004125014 -0.055911902 0.08405972 0.025192592
000260 bb 75 c3 3d 73 d3 8c 3d db 8f 17 be 7a 8e e3 3d
       0.0954394 0.06876268 -0.1480097 0.111111596
000270 8f f2 90 3d 52 30 18 3d 0a 2a e4 3d 4b 68 3e 3c
       0.070775144 0.037155457 0.11140831 0.011621545
000280 a0 2d 85 bd 3b 6c 2b 3d da 70 08 bd 2c 66 bc 3d
       -0.06502843 0.041851263 -0.03331075 0.09199175
000290 27 0e 8f bc dd e1 4d be 64 a4 ef bd a2 04 e5 bc
       -0.017462803 -0.20105691 -0.11701277 -0.02795631
0002a0 06 65 05 3e 7e 69 8a 3d b4 c8 d3 3d 89 b2 1b bd
       0.13026819 0.06758402 0.103410155 -0.03801206
0002b0 92 a3 1a be 9f dc 9f 3d a0 9d 54 bd 73 c2 9c 3d
       -0.1510146 0.07805752 -0.051908135 0.07654276
0002c0 b0 84 6e bd 2e de 41 3d 59 f5 a2 bc 16 54 17 3e
       -0.05823201 0.047331028 -0.019892382 0.1477817
0002d0 7a 4d d8 3c 08 ae 81 3d 52 f3 c5 3b 30 fa 02 3d
       0.026404131 0.06332022 0.006040969 0.03197688
0002e0 22 ae ce 3c 2b fb 66 3d 93 b7 fa 3c 68 df 02 3e
       0.025229517 0.056391876 0.030605113 0.12780535
0002f0 70 79 f5 3d cc f3 9a bc e3 6d 91 bd ea c8 dc 3d
       0.11986053 -0.01891508 -0.07101037 0.10780509
000300 8a df 52 3d 2b 8f f0 3d 8f e8 02 3e 56 03 af 3c
       0.051482715 0.11746057 0.12784027 0.021363895
000310 b5 d8 59 3b 95 49 29 3e 13 4b 18 3e 2a 88 b3 3d
       0.003324074 0.16531976 0.14872389 0.087662056
000320 c5 e9 f4 bc df 7e 21 3d b6 e5 5c bd e8 ca b5 3c
       -0.029896626 0.039427634 -0.053930007 0.02219148
000330 37 f8 8f 3c 27 1c 54 3c 85 5e 40 bc 8a c6 c0 bc
       0.017574413 0.012946165 -0.011741285 -0.02353217
000340 98 55 46 3b b1 c4 14 3c d6 3b d9 3d ed 16 01 3e
       0.003026342 0.009080098 0.10607116 0.12606402
000350 07 45 f4 bc a7 11 76 bd e1 35 93 3d cb 9c e7 bd
       -0.029818071 -0.06007543 0.07188011 -0.11309203
000360 ef cf ab 3d b9 ee 35 ba 4b 32 82 3d 08 b3 93 3c
       0.083892696 -0.00069401745 0.06357249 0.018029705
000370 ba 70 b7 3d ba d0 79 bd b5 ef e3 3d 66 37 59 3d
       0.08957048 -0.060990073 0.11129705 0.053031348
000380 db dd f2 3d 71 c9 bd 3d 90 d4 61 bd 3a 19 bb bd
       0.11858722 0.092669375 -0.055134356 -0.09135671
000390 5a dd 8c bd 9f 3b ce bb 30 59 e0 3d 40 33 1b 3d
       -0.06878157 -0.0062937285 0.10954511 0.037890673
0003a0 95 34 67 bd ac 1c 48 3d 24 5c ed 3d 1e 0f da 3d
       -0.05644663 0.04885547 0.1158984 0.106474146
0003b0 f6 a6 55 3d c0 fc e1 3d 38 df 07 3c b5 83 56 3d
       0.05216118 0.11034536 0.008292966 0.0523717
0003c0 31 b8 81 bd a2 14 fd bc 69 43 85 bd f1 54 8b 3d
       -0.0633396 -0.030893628 -0.06506998 0.06803311
0003d0 e6 4b 61 3d 47 f1 1d b9 b1 67 9e 3d 76 57 43 3d
       0.055004023 -0.0001506257 0.07734621 0.04769083
0003e0 93 51 a6 3c 7e b6 7b 3d 12 64 b6 bb 8f 43 c3 3d
       0.02030257 0.061453335 -0.0055661285 0.0953437
0003f0 30 3b 27 bd a4 db ea bc 53 4e df bd ff 07 87 3d
       -0.04082793 -0.028669186 -0.10903611 0.06593322

recurrent.recurrent_layer.weight_hh_l0 f4 [400, 100]
000000 ef da b3 bd a5 09 18 bd 26 bb a4 3d 2c d9 d8 3c
       -0.08781993 -0.037118573 0.08043508 0.026470743
000010 ba af 07 bd de a3 a1 bb 2d 47 b0 3d 6f ea b8 3d
       -0.03312657 -0.0049328646 0.08607326 0.0902909
000020 ed 2c 71 bd e5 ac 60 3c eb c6 4e 3d fa 81 bb bb
       -0.058880735 0.013713096 0.05048267 -0.0057222815
000030 8f 77 72 3b ea 74 80 bc 12 74 ed 3b b6 f8 c1 3d
       0.0036997532 -0.015680749 0.0072465027 0.09471266
000040 13 9b 65 be 84 aa 40 be 9e 9e 3e bd ad b1 3a 3c
       -0.22422437 -0.18815047 -0.046537988 0.0113949
000050 3f 1a a5 3b 35 be 92 3c 0f 4e ad bc 91 8d 3a be
       0.005038529 0.017912963 -0.021155385 -0.18218066
000060 93 81 c8 bc 86 59 9f 3d 28 53 9c 3d f3 f2 cd bb
       -0.024475848 0.07780747 0.07633048 -0.0062850653
000070 b3 07 c8 3d ca 9d 73 3d d9 4f bf be a7 df 3f bc
       0.097670935 0.05947665 -0.37365606 -0.011711038
000080 c5 01 a9 3d 46 0b 80 bd c1 ad b4 3d dd 50 0b bd
       0.08252291 -0.0625215 0.088222034 -0.034012664
000090 ef 2d 7a 3d 2d 7e e1 3d db 2d 2a be 52 bd 9b bd
       0.061078962 0.11010394 -0.16619055 -0.07604469
0000a0 0f c8 df 3d 4f 47 01 be 1e bf 36 bd 21 30 14 3d
       0.1092683 -0.12624858 -0.044615857 0.03617871
0000b0 ef d1 72 bd 24 e9 bc bc 0c 00 88 3d 76 0b e1 3d
       -0.05928224 -0.023060389 0.06640634 0.10988514
0000c0 5b ad 40 bc 49 e9 bb 3d 34 3e b5 3d 12 15 6f 3d
       -0.011760081 0.09175355 0.08849755 0.058369704
0000d0 34 8a f0 bc 0d 11 97 3d e3 96 39 3d 59 fb 8a 3d
       -0.029362775 0.07376299 0.045309912 0.06786222
0000e0 a9 5d 80 bd 5d 8a ea bb 9a 27 7e 3d eb 21 87 3d
       -0.06267864 -0.0071576075 0.062049486 0.06598266
0000f0 1b 8f 0b 3e eb e1 c9 3d 8a 43 dd 3c 6e cb 40 be
       0.13628809 0.098575436 0.027009744 -0.18827602
000100 dc a2 92 3c b6 b2 c6 bc 0a ca 22 3e 68 11 38 3a
       0.017899923 -0.024255138 0.15897384 0.00070216367
000110 de 92 b7 bd 5a 9f 72 bd ce a0 89 3d 02 a1 35 bd
       -0.089635596 -0.059234 0.06720124 -0.044343002
000120 05 dc a0 bd 7a 2c fc 3d 02 ec 36 bd 08 39 8a bc
       -0.078544654 0.12313171 -0.04465867 -0.016872898
000130 1d 80 26 3e 7e 6f 3b be ee 90 33 3e 04 0c ab 3d
       0.16259809 -0.1830425 0.17535755 0.08351901
000140 f1 18 92 bd 16 47 96 3d 49 37 a7 3d 44 ab e7 bd
       -0.071336634 0.07337777 0.08164842 -0.11311963
000150 db a1 2a bd 63 c8 45 be 7a cb 53 3c ad 45 2e bd
       -0.041658264 -0.19314723 0.012926931 -0.042546917
000160 67 15 ea bc d6 bf 80 3e 01 a9 f1 3d 16 6e 1a be
       -0.028574659 0.2514636 0.11799813 -0.15081057
000170 f3 0d 77 bc 3a e7 f0 bd d3 7f c5 bd 50 f6 c4 bd
       -0.015079009 -0.11762853 -0.09643521 -0.09617293
000180 7a 43 a0 bc 49 62 83 bb 05 d1 bf 3b bf e1 47 3d
       -0.019563425 -0.0040095192 0.0058537745 0.048799273
000190 70 b4 ce bd 53 60 88 bd 53 35 8b 3d 66 2c 88 3d
       -0.100930095 -0.066589974 0.0679728 0.06649093
0001a0 76 b2 08 3d a3 85 a9 3d 48 8a 68 bd cb a1 7f bd
       0.03337332 0.08277442 -0.0567725 -0.062410157
0001b0 91 c4 77 bb 9f 4d ac 3d 3d 6f 86 3b 1c a9 16 be
       -0.0037806372 0.084132425 0.004102616 -0.14712948
0001c0 ad 5c 1c 3d 55 fe 15 3e 2d 4d 96 bd 49 c0 62 3d
       0.03817432 0.14647801 -0.07338939 0.05535916
0001d0 c1 ef 23 be 34 8f 40 be 57 98 c1 bd 7f ed 9a bd
       -0.16009428 -0.18804628 -0.09452885 -0.0756483
0001e0 f9 e0 3b 3d 0c b7 81 3d e4 52 9a 3d 78 76 c3 bd
       0.045868848 0.063337415 0.075353414 -0.095440805
0001f0 cb 3e e9 bb 77 c4 55 3e 55 84 12 3c 80 85 d0 3c
       -0.007118081 0.20875727 0.008942683 0.025454283
000200 82 8c c9 bd 45 0a a2 3d d5 34 22 be 5c e0 9d bd
       -0.09841253 0.07912115 -0.15840466 -0.07708809
000210 d2 af 80 bd c2 be d9 3d bd 15 12 3d 8b 23 e1 3c
       -0.06283535 0.10632087 0.035665262 0.027482769
000220 ef 7e 53 bd af f0 25 bc fe f5 71 be 23 ae 88 bd
       -0.051634725 -0.010128184 -0.23628995 -0.06673839
000230 f9 59 8d bd cf 55 2b 3d a7 d5 92 bb 87 d7 e0 3d
       -0.069019265 0.04182988 -0.0044810358 0.109786086
000240 2d 8d 00 3d b8 b0 7a bd e3 0e 7f 3d 85 bc 0b be
       0.031384636 -0.06120369 0.062270056 -0.13646133
000250 70 1c 30 bd 7e fe db 3c 66 06 42 bd fd 33 77 3d
       -0.04299587 0.02685475 -0.047369383 0.060352314
000260 c6 22 c7 3d 70 c0 b0 3d 81 74 aa bb c0 fa 04 be
       0.097234294 0.086304545 -0.0052018766 -0.12986279
000270 c8 fa 28 bd 60 a5 af bd 7e b4 07 bd 60 91 31 bd
       -0.04125479 -0.08576465 -0.033131115 -0.04335153
000280 72 de c7 3c d9 49 1d bd 2f cd 19 be af a1 ef bc
       0.024398062 -0.038400505 -0.15019678 -0.029251901
000290 14 a0 44 bd 28 e6 a4 bd fc e8 d8 3d 5d 12 c7 3d
       -0.048004225 -0.08051711 0.10591313 0.097202994
0002a0 72 17 3d 3d 37 05 be 3d 47 7f 36 3d 14 c3 a5 bd
       0.046164937 0.092783384 0.044554975 -0.08093849
0002b0 bd a4 5d 3d 5e 3d c6 3d 8f 9b 87 3d 95 14 d4 bb
       0.054112185 0.096796736 0.06621467 -0.00647218
0002c0 c2 fc 5f 3c ba 7b f7 bd 29 da 9a 3d 54 7e 8c bc
       0.013671102 -0.12084146 0.07561142 -0.017150082
0002d0 51 9e b3 3d 5f ed 03 bd 95 75 9f 3c 5b d9 82 3d
       0.08770431 -0.032208797 0.019465247 0.063891135
0002e0 5a 82 95 bc cc 1c c9 bd 6c 32 29 bd d8 b3 fb 3d
       -0.018250633 -0.09819946 -0.04130785 0.12290162
0002f0 b1 50 43 bc fd c4 79 bd a0 c9 ed 3d 41 fb 85 bd
       -0.011921094 -0.06097888 0.116107225 -0.065420635
000300 b9 ca 28 3d 44 9b 83 bd b7 8d bd 3d f8 d4 7a 3d
       0.041208956 -0.06426099 0.092555456 0.06123826
000310 51 ed 2f 3d 32 25 f2 3c a7 b2 e1 bd 30 d9 90 bd
       0.042950932 0.029558752 -0.11020403 -0.07072675
000320 7f a6 a0 bc 64 a5 c3 bc 26 41 f1 bc 99 76 38 3d
       -0.019610642 -0.023882575 -0.02945001 0.04503498
000330 03 54 84 bd 8a a7 f8 bd ff 63 86 bd e8 9e fe 3d
       -0.064613365 -0.121413305 -0.065620415 0.12432653
000340 45 69 91 bd 92 62 ad bd 76 90 cd 3c f9 df 5a b9
       -0.07100157 -0.084660664 0.025093298 -0.00020873536
000350 d9 5a db 3d 76 26 bb bd da 2d 46 bd a9 de 5b 3c
       0.10710687 -0.09138195 -0.04838357 0.013419786
000360 44 18 7a 3d 96 c7 25 bd ed 4e f8 3c 20 cb b1 3d
       0.061058298 -0.040473543 0.030311072 0.08681321
000370 76 39 a9 bd 94 86 a2 3d 52 04 ec 3b 22 99 d7 bd
       -0.08262913 0.07935825 0.0072026635 -0.10527255
000380 40 51 6f 3d 3b 18 77 bd 5a 9d ae 3d 8c 64 8d 3d
       0.058427095 -0.060325842 0.08526106 0.069039434
000390 f4 24 18 bd a5 01 7b 3d 66 1e bb bd 8a 9f ca bd
       -0.037144616 0.061280865 -0.091366574 -0.09893711
0003a0 ab 19 df 39 f5 72 00 3e 98 01 b7 3d 43 9e 0a 3d
       0.00042553 0.12543853 0.08935851 0.033842336
0003b0 39 31 26 bd b2 e2 61 bc bf cc 5f 3d dd 93 f5 3d
       -0.040574286 -0.0137869585 0.05463862 0.11991093
0003c0 37 15 6c bc 0b 05 12 3d 19 32 99 bc 2e 9c 40 bd
       -0.014409355 0.03564934 -0.018700646 -0.047023945
0003d0 3d 70 8d bd 95 6d 91 bc 13 1f c0 3d 4a 8e e5 bd
       -0.069061734 -0.017752448 0.09380927 -0.1120878
0003e0 36 7a e6 3d 3e 0f ea bd 07 50 8b bd 81 b1 6c 3d
       0.11253779 -0.114286885 -0.068023734 0.05778647
0003f0 67 5c 9b 3d 4a 4e 9b bd ce 48 bc bd 22 3a 28 3d
       0.07585984 -0.07583292 -0.09193574 0.041071065
