TFM/regresion/results/gen_trip/LSTM_NOBATCH.pt (torch, 210814 bytes, 10 tensors)

lstm.weight_ih_l0 f4 [200, 100]
000000 82 e8 2e 3e d8 88 bb 3d 63 0d 38 3e 02 59 94 bd
       0.17080882 0.0915696 0.17973857 -0.072435394
000010 e4 b5 c6 bd c4 ac 87 bd 49 e2 54 bd 74 85 cf 3d
       -0.09702662 -0.06624749 -0.051973615 0.10132876
000020 f5 16 c0 3d 64 2f 25 3e de 0b f6 bc 40 12 56 bd
       0.09379379 0.1613136 -0.030034956 -0.0522635
000030 61 79 f3 3d 60 8d 55 bc 9e 13 05 3e 0b 4b 22 3c
       0.118883856 -0.013034195 0.12995765 0.009905587
000040 d1 82 fe 3d 72 9c 88 bd 60 cc e6 bc 74 62 b0 3d
       0.12427295 -0.066704646 -0.028173625 0.086125284
000050 42 92 96 3d 52 a4 f9 3b 3e b2 01 3e ec b5 0e 3e
       0.07352115 0.0076184655 0.1266565 0.13936585
000060 66 54 74 bd 40 14 03 bd a4 a6 32 3e d3 81 8c bb
       -0.0596508 -0.032001734 0.17446381 -0.004287937
000070 23 e4 e9 bb 5b 92 be bd 3f c4 1b bd 22 2d a1 3d
       -0.0071377917 -0.09305259 -0.03802895 0.078699365
000080 69 ba cd 3c ee 29 77 bd b9 7e 3d 3d a4 28 59 bd
       0.025113301 -0.06034272 0.04626343 -0.053017274
000090 0d 49 9d bd 56 24 0f bd 90 9b a4 bd db 1b 3d bd
       -0.07679949 -0.034946762 -0.08037484 -0.046169143
0000a0 64 77 3d 3e 10 02 91 3d 41 d3 b0 3d 45 83 b5 bd
       0.18502575 0.070804715 0.086340435 -0.08862928
0000b0 71 21 4b bd 17 77 47 bb 53 47 86 3d 7f 40 a4 bd
       -0.04959244 -0.0030435973 0.06556573 -0.08020114
0000c0 c8 5f 91 bc 07 81 26 bd 5f cf 32 3d f3 34 11 bc
       -0.017745867 -0.040650394 0.043654796 -0.008862722
0000d0 a0 c7 0a 3d ce 13 55 bd b2 2f 5b bd ea 0e 1b bd
       0.033881783 -0.05202084 -0.053512283 -0.03785602
0000e0 30 db 8c bb 20 90 87 bd b3 61 26 3e 5a b9 88 3c
       -0.00429859 -0.066192865 0.16248207 0.016689945
0000f0 1d 08 2a 3e 75 40 b5 3d 69 1d 99 bd d3 93 11 3e
       0.16604657 0.08850185 -0.07476313 0.14216547
000100 b1 51 be 3b 1a f5 10 bc 99 39 95 bd 86 1b c4 bd
       0.005808078 -0.008847499 -0.072863765 -0.09575562
000110 d3 a1 ad 3d cd 77 62 3c d3 c9 cb 3d 43 66 92 bd
       0.08478131 0.013822508 0.09950604 -0.07148411
000120 cc c8 19 3e 97 ea 73 bd d4 e5 a8 3c e4 0d 96 3d
       0.15018004 -0.059549894 0.020617403 0.07326868
000130 64 c8 f1 3d e1 17 23 3e 84 48 31 3e 1a 01 8a bd
       0.118057996 0.15927078 0.17312819 -0.06738491
000140 79 7e a5 3d 7a 8c 8b bc 48 f3 e1 3c d4 bc 7c bd
       0.08080763 -0.017034758 0.027581826 -0.061703518
000150 5c 5c 32 3e 61 cc 72 bd 31 18 f4 3d d6 4a c1 3d
       0.17418045 -0.059276942 0.11918677 0.09438102
000160 58 57 b7 3d 85 81 04 bd a8 69 2f 3e 69 17 98 3d
       0.089522064 -0.032350082 0.17130148 0.0742634
000170 d6 d7 7e 3d 35 44 a8 bd 6c 4e cf 3d 77 6d a4 3c
       0.062217556 -0.082161345 0.1012238 0.020071728
000180 34 db b6 bc 7a d7 24 3e 46 8f 90 3d 05 44 1e bd
       -0.022321321 0.16097823 0.07058577 -0.038639087
000190 65 7a 2a bd 4c 9c b8 3c ca a0 de 3d bb f9 dd bb
       -0.04162063 0.022535466 0.10870512 -0.006774155
0001a0 ac 18 4c bd 88 46 99 bc e3 45 99 bd 3b d1 a4 3d
       -0.049828216 -0.01871039 -0.07484033 0.0804772
0001b0 00 6e 0f 3e df d7 d1 bd 3f c3 82 3d c5 a7 d3 3d
       0.14006805 -0.10246252 0.063848965 0.10334734
0001c0 f2 13 67 3d c4 40 a1 bc a5 a5 d5 3d 9e 18 d8 3d
       0.056415506 -0.019684203 0.10431985 0.1055157
0001d0 1b ad ac 3d 74 d9 e1 3b 1d 66 c2 bb d8 30 41 3d
       0.08431455 0.0068923775 -0.005932583 0.04716572
0001e0 f2 30 d6 3b 69 fc 2d bc d5 39 fc 3d 3e 48 1d 3e
       0.0065365965 -0.010619261 0.12315718 0.1535959
0001f0 82 2f 95 3c 23 fb 3b 3a 23 8c 08 3d 94 d6 c2 3c
       0.01821113 0.0007170906 0.03333677 0.02378396
000200 b0 9d 88 3d d6 ce 92 3d 6c c4 c3 bd b1 6f 9f bc
       0.066707015 0.07168357 -0.09558949 -0.019462438
000210 5d 65 1b 3e 45 a3 b5 3d 37 d2 d6 3c 95 6f 55 bd
       0.15175386 0.08869032 0.026223285 -0.052108366
000220 b5 db 5b bd 6f b6 be bd 57 bb 50 bc a1 3e a6 3d
       -0.053676326 -0.0931214 -0.012739978 0.08117414
000230 b5 c1 fc 3d e0 e1 c9 3d 37 b6 b9 bd 71 31 51 bd
       0.12341634 0.09857535 -0.09067958 -0.05107254
000240 25 fb 3d 3c 36 9e 2e 3e 36 5d 5f 3d 67 6a 42 bb
       0.011595522 0.1705254 0.054532252 -0.0029665472
000250 67 3d be 3d 0a b7 9f bc bd 26 69 bd a7 28 0d 3e
       0.09289055 -0.01949646 -0.05692171 0.13785039
000260 73 58 f0 bc 42 c6 d6 3b 5e 24 d8 bd 5b 0b 04 3e
       -0.02933905 0.006554396 -0.105538115 0.12894957
000270 ff 0c 11 3e aa 87 af 3d 7a e5 80 bd 19 44 d7 bd
       0.14165114 0.08570798 -0.06293769 -0.105110355
000280 3a d7 a2 bd 0b 11 10 3e 45 12 d2 3d fe 42 1e 3e
       -0.079512075 0.14069001 0.10257391 0.15455243
000290 fc 61 e1 3d 4d 91 91 3d ba 82 0e 3d d6 4a 92 bd
       0.11005017 0.07107792 0.03479264 -0.0714318
0002a0 81 99 ac bd f0 65 c4 bd b2 9e c2 3d f0 c8 03 bd
       -0.08427716 -0.095897555 0.09502925 -0.03217405
0002b0 5d d2 09 3c 8d 5e 31 bd 14 82 41 3c 70 9e 79 bd
       0.008411971 -0.04330306 0.011810798 -0.060942113
0002c0 f0 f6 5e bd 82 5f ad 3d 57 fc 4c bb 51 80 01 3e
       -0.054434717 0.08465482 -0.0031278336 0.12646605
0002d0 a5 19 dc bb ab 80 81 bd c3 04 7e 3c b1 3a e8 bc
       -0.0067169243 -0.063233696 0.015504065 -0.028348299
0002e0 42 2e 5e bb 54 ee c0 bd b2 13 f7 3d de ec 6b bd
       -0.0033902084 -0.094204575 0.120643035 -0.05759894
0002f0 8d 9c e6 3d b8 11 d9 3d 21 9a 13 3e 66 8d 86 bd
       0.112603284 0.10599083 0.14414264 -0.06569938
000300 07 7b 13 3e 08 34 bb bc a2 74 c7 3d d2 b3 36 3e
       0.144024 -0.022851959 0.09739043 0.17842034
000310 d4 c3 d1 3c 42 b9 3d 3d e8 c2 7d 3c 68 7f 8f bd
       0.025606073 0.046319254 0.015488364 -0.07006723
000320 50 aa 01 3e b9 29 a5 bd 36 95 16 3e c9 90 29 3e
       0.12662625 -0.080645986 0.14705357 0.16559137
000330 b2 3f 44 3e 05 28 d9 3c 68 a5 6f bd d5 69 bb 3d
       0.19164923 0.02650834 -0.058507353 0.09151045
000340 5d 5f 0b 3e c2 07 a8 bd d6 3c d0 3c 1d b3 d2 bc
       0.13610597 -0.08204605 0.025419634 -0.025720173
000350 0b d5 3d 3d 9c c5 31 bc e1 a5 e4 3a 8b d7 57 3c
       0.04634575 -0.010850336 0.0017444455 0.013173948
000360 d2 df 9c bd cc bb 31 3e b7 57 34 3e 88 5b 11 3d
       -0.07659878 0.17356795 0.17611586 0.03548768
000370 03 13 2c 3d f5 82 5f 3a b8 a0 92 bd 5b 4c a3 bd
       0.04201032 0.0008526289 -0.07159561 -0.07973548
000380 a9 02 e1 3d 65 d9 a1 bc 75 7f 00 bd 36 a9 41 3d
       0.109868355 -0.019756982 -0.031371552 0.047280513
000390 a6 e0 1a 3c bd 64 50 3c 65 7d 7a 3d 7a 03 df 3c
       0.009452974 0.01271933 0.06115474 0.027223337
0003a0 bb d1 23 3c 7a 4c 42 bc 34 19 6d bd e1 95 34 3e
       0.009998734 -0.011859054 -0.057885364 0.176353
0003b0 d6 c2 67 3a b0 ce c0 3d f2 9b 09 3c 84 a5 8e 3d
       0.00088409835 0.094144225 0.008398997 0.06965163
0003c0 24 89 42 3e c8 f3 fc 3d 99 62 87 bd 42 b0 e7 3d
       0.18997627 0.12351185 -0.06610603 0.113129154
0003d0 aa 57 44 3e 35 95 c3 3d 64 28 1c 3e 72 e6 4a 3e
       0.19174066 0.09549943 0.15249783 0.1981447
0003e0 1c 8e 0f 3d a3 92 b4 3d 16 13 29 bd be 7a e5 3c
       0.035047635 0.08817031 -0.041277967 0.02801263
0003f0 4d 01 26 3e 6d 1c 05 3e 9e 69 03 bd 54 2b 5c bd
       0.16211434 0.12999125 -0.032083146 -0.05375226

lstm.weight_hh_l0 f4 [200, 50]
000000 55 74 a6 bd 3e 42 a5 bd 3d 24 aa 3d 18 e9 eb 3c
       -0.08127657 -0.08069275 0.08307693 0.028797671
000010 db e3 99 3c 7d 4a bf bd e1 9c dc bd 41 1d 06 3e
       0.018785408 -0.093403794 -0.1077211 0.13097097
000020 a9 c3 c9 bb 31 6e 0d 3e de 25 1d be 8e 54 ae bd
       -0.0061573577 0.13811566 -0.15346476 -0.08512221
000030 2d 3f 1a be e0 93 16 3e 03 c5 1d 3b 4a 2f 93 3d
       -0.15063162 0.14704847 0.0024073727 0.07186754
000040 03 d3 b7 3d a3 6a 20 bc 19 5e 2f 3c 73 8c d8 bd
       0.08975794 -0.009791049 0.010703587 -0.105736636
000050 25 8a b6 ba 25 5f c1 3d 2b 78 1d bd c2 32 a9 bd
       -0.0013926668 0.094419755 -0.03844468 -0.082616344
000060 8c dc b9 bd c3 4e 5e 3d 09 6b e5 3d d2 3a ce bb
       -0.09075269 0.05427433 0.11202056 -0.006293633
000070 8b 3c 81 bd bd ec de 3c be 3e d2 bc ec 2d 30 bc
       -0.06310376 0.027212495 -0.025664683 -0.010753136
000080 23 bc 9b 3d 17 8b 08 be e6 6b bc bc 1e ca af bd
       0.076042436 -0.13334309 -0.023000669 -0.08583473
000090 fd db 0d 3e fd cf 0e be 28 6f d3 bc 4b 67 df bd
       0.1385345 -0.13946529 -0.02580984 -0.109083734
0000a0 d5 6b aa bd e8 4d 9a bd bc a7 13 3d 37 e1 c1 bd
       -0.083213486 -0.07534391 0.036048636 -0.094667844
0000b0 8b 06 f9 bc db 87 c3 bd ab a4 f0 3d b3 c0 de bd
       -0.030398628 -0.09547397 0.11750158 -0.10876598
0000c0 a9 87 cc bd e3 21 9a 3d 45 a2 0c be 3c 39 99 bd
       -0.099868126 0.07525995 -0.13733776 -0.0748162
0000d0 46 13 da 3c a3 88 09 be f2 3e 9c bd dd 89 7a 3d
       0.026620518 -0.13431029 -0.07629193 0.061166633
0000e0 2d 12 01 3e a5 d1 0e 3e 5e c4 d4 3d d7 82 0b 3e
       0.1260459 0.1394716 0.103890166 0.1362413
0000f0 ba 35 57 bd ce 37 aa bd 90 5c 50 bd 30 77 52 3d
       -0.052541472 -0.08311425 -0.050869524 0.051383197
000100 ca bc 51 3c 76 47 8d bd e6 d5 c8 3d 23 cb 6e bd
       0.0128013585 -0.06898396 0.09806423 -0.058299195
000110 a9 9f b0 3d ff 8f c2 3a 8b 97 1f 3d 26 ff 2a bc
       0.08624203 0.001484394 0.038962882 -0.010436809
000120 61 51 05 3d 71 79 87 bd 65 3f 1b 3d 57 82 9e bd
       0.032548312 -0.0661496 0.037902255 -0.07739704
000130 2b 6a bc 3d 3b a9 ac bd 56 06 6c 3d b9 64 e7 bd
       0.091999374 -0.08430716 0.05762323 -0.11298508
000140 ef 8a 96 bd 0c f5 cc 3d 21 26 b4 3d 38 16 16 be
       -0.07350718 0.100076765 0.08796335 -0.14656913
000150 5c 79 89 bd 9e e4 13 be 0d bd 0a 3d da d7 a6 bc
       -0.067126006 -0.1444268 0.0338717 -0.020366598
000160 91 79 5d 3c f7 39 85 3d 9d 52 77 3d 57 02 27 bd
       0.013517753 0.065051965 0.06038152 -0.040773716
000170 05 97 10 3d 15 1b 67 bd a1 d7 b3 3d 8b 27 13 be
       0.035300273 -0.05642231 0.08781362 -0.14370553
000180 a4 b9 5c bd 5e 17 8a bd 74 6c 7e bd 64 97 98 bc
       -0.05388798 -0.06742738 -0.062115148 -0.018626876
000190 ab cc 4f 3d ce 85 8f bd a7 4b 88 bd 06 d2 cf bd
       0.050732296 -0.07007943 -0.066550545 -0.10147481
0001a0 b8 e1 f1 3c a1 4b d2 bd 10 d0 02 3e a4 60 5c 3d
       0.029526576 -0.10268331 0.12774682 0.0538031
0001b0 e6 c3 e5 bd 7f bb 3a 3c f3 68 a5 3c 75 6b f3 3d
       -0.11219005 0.011397242 0.020191645 0.1188573
0001c0 bb 3d 95 bd 39 ab bd bd 6a ef cf bd 17 48 67 3d
       -0.07287165 -0.09261174 -0.101530865 0.056465235
0001d0 e7 ff 93 3d b3 ae 89 bc 7c 9f d7 3d 15 8a 07 be
       0.07226544 -0.016806936 0.10528466 -0.13236268
0001e0 bb 4c 1c be 03 25 77 bb 46 76 89 3d 8f ea 1f 3e
       -0.15263645 -0.003771127 0.06712012 0.15616821
0001f0 26 e9 4f bc 9c 40 0c ba b1 fd bd 3d cb b3 85 3d
       -0.012689864 -0.0005350204 0.092769034 0.065284334
000200 91 bc dc bd 70 90 3f bd 70 a0 02 3e 08 f1 7f bd
       -0.10778154 -0.046768606 0.12756515 -0.062485725
000210 db be 0d be 5c 4b 03 be 09 69 48 bd 87 1d 29 bd
       -0.13842337 -0.12821716 -0.048928294 -0.041287925
000220 92 3a 1d 3c b1 3c c0 bd 31 df 28 3e 5d 4c e7 3c
       0.009596484 -0.09386576 0.16491391 0.028234655
000230 77 69 23 3e 9e 19 a0 bd 18 0e a5 3d 33 82 86 bd
       0.159582 -0.07817386 0.08059329 -0.06567802
000240 19 8c 17 be 6a 7e 9e 3d 28 19 ea 3d 68 f2 01 be
       -0.14799537 0.07738955 0.114305794 -0.12690127
000250 f4 27 0f 3e 8e 7c b9 bb a8 9c 77 bd 8a 32 5f bd
       0.13980085 -0.0056606 -0.060452133 -0.054491557
000260 3e 16 07 bd 2d a5 dc 3d 97 0a 73 bd 66 a3 69 bd
       -0.032980196 0.10773692 -0.05933627 -0.057040595
000270 b5 53 12 3e d3 40 07 be b4 81 f4 bd 9f 1b 79 3d
       0.14289744 -0.13208322 -0.119388014 0.060817357
000280 5d 89 f8 3d 43 57 a5 bd c1 88 ab bd 53 35 86 bd
       0.12135575 -0.080732845 -0.08375693 -0.065531395
000290 02 06 d2 3d 43 9a 7b 3b 89 10 f8 bd e2 d8 9d bd
       0.10255052 0.0038391508 -0.12112529 -0.07707383
0002a0 95 f1 ce bd fb 25 97 3d 5c 07 9e bd 73 14 4b 3d
       -0.10104672 0.07380291 -0.077162474 0.04958005
0002b0 00 c9 ad 3d e6 4c c3 3d d0 7b 19 be aa fb 8a 3d
       0.08485603 0.095361516 -0.14988637 0.06786282
0002c0 21 e8 0b 3e 42 03 d1 3d 09 c2 85 3d 8e 79 58 bb
       0.13662769 0.102056995 0.0653115 -0.0033031437
0002d0 51 f2 9e bd 0f 5f b2 bd 02 36 9f bd 08 3c 43 bd
       -0.07761062 -0.08709537 -0.07773973 -0.047664672
0002e0 22 d0 8c 3d 49 fe fa 3d 80 4c a8 3d 1d ac a8 bd
       0.06875636 0.12255532 0.08217716 -0.08235953
0002f0 8b e8 e2 3c ec 1e 19 bd 88 41 23 bd 72 f2 e9 bc
       0.027698776 -0.037383005 -0.039857417 -0.02855799
000300 d3 c7 9f 3b 07 43 87 3d dd da 5a 3d 28 a8 1d 3d
       0.004876116 0.06604581 0.05343138 0.038490444
000310 5c fe da 3d 40 b2 b7 3b ef 0a cc bd 59 f0 4c 3d
       0.106930465 0.005605966 -0.09963023 0.0500339
000320 41 d6 36 3d 99 69 11 be 55 a8 91 3c 4c f9 8d 3d
       0.044637922 -0.14200439 0.017780462 0.06932315
000330 c6 af e2 bd 03 fb a8 3d 11 47 94 bd 27 2a 95 3d
       -0.110686824 0.08251002 -0.07240117 0.072834305
000340 ff 4a 1c 3d 30 88 99 3d be b7 e4 bd 58 40 34 3d
       0.03815746 0.07496679 -0.111678585 0.044006675
000350 19 0a f7 bd 3d dc 69 bd 8f fb 80 3d 25 39 aa bd
       -0.12062473 -0.0570948 0.06297981 -0.08311681
000360 af 89 7b 3d d5 c6 5a 3d b3 c8 ec 3d c5 b9 91 bd
       0.061410602 0.053412277 0.11561718 -0.07115511
000370 79 04 07 3d 5e fe fe 3d 22 d7 11 3d 58 ac b9 bc
       0.03296325 0.124508604 0.035605557 -0.022665188
000380 77 2c dd 3d 59 9a f9 3d e4 83 67 3d e6 10 84 bd
       0.107994966 0.121876426 0.056522265 -0.064485356
000390 d2 7e 8e bd 33 af 0d 3e fa d6 3e 3c 07 14 24 bd
       -0.06957783 0.13836364 0.011647934 -0.040058162
0003a0 b4 23 1d bc 9b 77 b6 bd ab 79 9d 3d 3c 59 8d 3c
       -0.009591032 -0.08909532 0.07689222 0.017254464
0003b0 a2 25 42 3d 9e 15 02 bd 17 7d 84 3d ef 94 0c 3e
       0.04739917 -0.031758897 0.064691715 0.13728689
0003c0 cc a3 ba 3d 6b c0 f9 3d 36 df 69 3d 39 a8 25 3d
       0.09113273 0.12194904 0.057097636 0.040443633
0003d0 36 90 6a bd 2c 5f ef bd a5 28 ba 3d 03 88 14 3b
       -0.057266437 -0.116880745 0.090897836 0.0022664077
0003e0 96 15 32 3c fe f5 89 3d 39 63 b2 bc 29 e4 9a bd
       0.010869404 0.067363724 -0.021775829 -0.07563049
0003f0 17 60 ae bc f2 d2 77 3d 34 d8 e3 bd 20 be ce 3b
       -0.021286054 0.060503908 -0.11125222 0.0063092858

lstm.bias_ih_l0 f4 [200]
000000 fa 7a c6 3d d8 76 6f bd a6 1c 57 3b b4 31 d2 bd
       0.09691425 -0.058462948 0.0032823472 -0.10263386
000010 24 8d 0d 3e d6 ca f9 bd 26 64 95 bb e9 75 ab 3d
       0.13823372 -0.12196891 -0.0045590578 0.08372099
000020 53 2a 6b bd b7 06 a2 bd 52 4a f6 3d e9 be ed 3a
       -0.05741341 -0.07911437 0.12025894 0.0018138561
000030 a5 1c b4 bd 7c 26 27 3d ee 23 d7 bb e2 2d 96 bc
       -0.08794526 0.040808186 -0.0065655624 -0.018332426
000040 61 7f 41 bd c9 cd 93 bd a0 85 98 3c b6 4b 12 3d
       -0.04724062 -0.07216985 0.018618405 0.035716735
000050 dc 84 3f bd f6 bb 01 3e b8 f1 ad 3d 84 ba 2b 3e
       -0.046757564 0.12669358 0.0849337 0.16770369
000060 8b 0d 08 be 30 8d 9b 3d 12 79 b3 3d 35 67 b2 bd
       -0.13286416 0.07595289 0.08763327 -0.087110914
000070 cd 98 06 3e 32 0c 08 bd 30 03 cf 3d d2 96 98 bc
       0.13144226 -0.033214755 0.1010803 -0.018626604
000080 9d 6b d1 3d b8 78 67 bd b8 ca 57 3d 40 8d d5 3c
       0.10225604 -0.05651161 0.052683562 0.02606833
000090 bc 4c 36 3e 8b ec 8a bc 3e 49 0d 3e 20 3c 05 be
       0.1780271 -0.016958496 0.13797471 -0.13011217
0000a0 5c 61 23 3c 83 19 88 bd 3e 11 00 3e a4 83 89 3d
       0.009971943 -0.06645491 0.12506577 0.067145616
0000b0 00 37 bd 3d 0e 48 7f 3d c3 0c 16 3d 72 ec 40 bd
       0.09239006 0.062324576 0.036633264 -0.04710049
0000c0 3c 02 33 be 86 15 42 3c 98 33 44 bd b1 f4 9e bd
       -0.17481321 0.011845952 -0.047900766 -0.07761515
0000d0 fd 2e c5 3d e7 bb de bd 67 fe e7 3c 78 30 21 bd
       0.09628103 -0.10875683 0.02831955 -0.039352864
0000e0 2e ec 81 bc e0 f9 7b bc 6b a7 24 3b 3e f6 cb bc
       -0.01585969 -0.015379399 0.0025124203 -0.02489769
0000f0 8b c0 cf bd 09 74 d8 3d 7e 32 6e bc 5e 08 a5 bd
       -0.101441465 0.10569007 -0.014538405 -0.080582365
000100 b7 32 01 be 2d 43 a2 3d 09 33 fb bd ed 3a 2a bb
       -0.12617002 0.07922969 -0.122655936 -0.0025975064
000110 3e ae f7 3d 67 de 69 bd 7c 16 58 3d a6 10 9a 3d
       0.12093781 -0.057096865 0.052755818 0.07522707
000120 e6 81 9b 3d 10 1e a9 3d 6c 56 4f bd 93 a2 8d 3d
       0.075931355 0.08257687 -0.050619528 0.06915774
000130 31 86 b5 bd a9 9a 12 3e 60 fc 4e 3c 31 5b 03 3d
       -0.088634856 0.1431681 0.012633413 0.03206939
000140 19 e0 f6 3d 43 b5 81 bd 24 69 d5 bd 48 3b a8 bd
       0.12054462 -0.06333401 -0.104204446 -0.08214432
000150 4f ca 3d 3d d2 f5 f0 3d 7d c3 15 bd d2 b8 92 bd
       0.046335515 0.117656365 -0.036563385 -0.07164158
000160 e5 e9 55 3d 44 64 cd bd 3c cb 7e 3c 03 26 78 3c
       0.052225012 -0.1002889 0.015551385 0.015145781
000170 c1 91 26 bd 84 82 e6 bd 31 81 b1 bd 6f 45 41 bc
       -0.040666346 -0.11255363 -0.086672194 -0.011796339
000180 8d a2 69 3c 2e 7a 6b 3c 2f 5e 74 3d 0d 10 9a bd
       0.0142599465 0.014372392 0.059660133 -0.07522593
000190 7d 3d 50 3c f8 0c 1e be b8 4b ca 3c bb 47 ea bd
       0.012709972 -0.15434635 0.024694309 -0.11439463
0001a0 17 57 06 3c b4 0b fc 3c 28 c7 27 bd 02 51 b5 3d
       0.008199475 0.0307673 -0.040961415 0.08853342
0001b0 10 32 ce 3d 7a 87 2e be 97 15 a3 3d 6e 6d b2 3c
       0.100681424 -0.17043868 0.07963102 0.021780696
0001c0 fc 46 05 3e 0c d4 da 3b 18 ed 04 3e b7 41 fe 3d
       0.1301536 0.00667811 0.12981069 0.12414878
0001d0 41 5d 2f bd e3 fb bf bd 92 fa cf 3d 73 0c 2d be
       -0.042813543 -0.093742155 0.10155214 -0.1689928
0001e0 c2 28 04 3e 63 e6 6e 3b 5e 24 09 3d 8f c5 a8 3d
       0.12906173 0.003645324 0.033481948 0.08240806
0001f0 af 2d 6a 3d 3e a3 bf bd 09 2a 6c bc 1d 1c ee bd
       0.057172474 -0.09357308 -0.014414319 -0.11626456
000200 85 7d 12 3d 76 c3 d2 bc f1 79 59 bd 52 4a 9f bc
       0.035764236 -0.025727969 -0.053094808 -0.019444618
000210 24 55 12 3d 9f 7d 23 bd 58 7e d0 3d 54 6f 47 3d
       0.035725728 -0.039914723 0.10180348 0.048690155
000220 0c ae 29 be 84 be 24 3e 93 2b cf 3d 89 22 c0 3d
       -0.165703 0.16088301 0.10115733 0.09381587
000230 45 20 17 3e a4 cf 04 3d bb 58 a1 3d ea 94 be 3c
       0.14758404 0.032424584 0.07878252 0.023264367
000240 58 25 62 3d 55 fa be 3c 4a 15 1e bd db 19 99 3d
       0.055211395 0.023312727 -0.03859452 0.07475635
000250 aa 7c 39 3d 3b 10 65 bd 27 29 04 3e 37 de 9e 3d
       0.045284905 -0.05592368 0.12906323 0.07757228
000260 7d a0 3a 3d e0 ea e1 bd 9d f8 47 bd 82 64 77 bd
       0.04556321 -0.11031127 -0.04882108 -0.060398586
000270 da e1 c7 bd 2e 81 1e 3e d6 dc be bb 0c 6d c9 3d
       -0.09759875 0.15478966 -0.0058246655 0.09835252
000280 eb 32 4e 3d ca 4e ec 3d d5 99 06 3c 69 74 84 bd
       0.050341528 0.11538465 0.008215387 -0.06467516
000290 7d 8a d7 3d 6a a4 cc bd b0 fb 29 3d 50 e1 bb 3c
       0.105244614 -0.09992297 0.041499794 0.022934586
0002a0 92 1a bd 3d 2a d3 d8 bc e1 e2 ba 3d c8 71 36 3d
       0.092335835 -0.026467878 0.09125305 0.044542104
0002b0 a4 e0 ca bd df 00 54 3d 1d f5 5d bd 27 87 4c 3e
       -0.09906128 0.051758643 -0.054188836 0.19973432
0002c0 47 ad fc bd ac b1 13 3b 8f 53 05 3e bf 77 6b bd
       -0.123377375 0.002253632 0.13020156 -0.057487246
0002d0 d0 82 02 3e 7f a6 3f bd 97 16 28 3e 1c d7 76 3c
       0.12745214 -0.046789642 0.16414867 0.0150659345
0002e0 51 e1 0b 3e 51 35 b8 bd 08 80 bb 3d bb e3 d4 bc
       0.1366017 -0.08994544 0.091552794 -0.025987497
0002f0 1a c5 bb 3d d8 86 f2 bd 76 d0 69 bd da c3 12 3d
       0.091684535 -0.11842126 -0.05708357 0.03583131
000300 59 31 a4 bd 0d 15 2f 3e a5 41 0d bd db 45 a7 bc
       -0.08017225 0.17097874 -0.03448643 -0.020419052
000310 ea 3f 3a bc bd a4 59 3d fa f1 a9 bd bc dc 0f 3e
       -0.011367777 0.053135622 -0.082981065 0.14049047

lstm.bias_hh_l0 f4 [200]
000000 1e e7 c2 bc 68 0c 2e 3d e5 da 81 bd 88 f7 8f bc
       -0.023791846 0.0424923 -0.06340579 -0.017574087
000010 e5 4b 89 bd 02 10 1a be 43 e5 13 3e d7 fd e3 bd
       -0.06703929 -0.15045169 0.14442925 -0.111324005
000020 d3 d6 c5 3d 8c 90 6e bd 12 ef 0b 3e 7b 3e 1f bd
       0.09660115 -0.05824332 0.13665417 -0.038877945
000030 54 c0 5a bd 3b e7 aa 3d 7e 27 0a be 74 5d 4b bd
       -0.053406075 0.08344885 -0.13491628 -0.04964967
000040 66 a1 d3 bd 4f 81 ab 3d 1b f3 00 3e a1 66 d5 bc
       -0.10333519 0.08374273 0.12592737 -0.026049914
000050 4b 67 1f 3e 8d c9 d5 bd 86 0e ed 3d 88 e8 c3 bd
       0.15566747 -0.104388334 0.11575036 -0.09565836
000060 76 ea 0f 3e dc 44 c6 bc 62 0e d8 bd 5f 4b 84 3d
       0.14054283 -0.024202757 -0.10549618 0.064596884
000070 8e 13 bf bd c1 9b 24 3e 80 a7 cc bb 46 fb b9 3d
       -0.09329902 0.1607504 -0.0062455535 0.0908113
000080 d7 85 1e 3e 5e 01 d4 3d 10 b9 d9 3a 0f 7b b3 3d
       0.15480743 0.10351823 0.0016610939 0.08763706
000090 f5 1d a3 bd cd c7 3e bc 53 78 a1 bd 19 fd 1a bd
       -0.07964698 -0.011644316 -0.07884278 -0.03783903
0000a0 00 96 46 bd f8 40 8a bd dd 0e 82 bc 73 4f a8 bc
       -0.048482895 -0.06750673 -0.015876228 -0.020545697
0000b0 76 fa c6 3d 12 c0 b5 bb a0 27 25 3e f0 80 e0 38
       0.097157404 -0.005546578 0.16128397 0.00010705169
0000c0 da 9b 0a be 5d c4 5c 3d b6 7e 04 be b5 49 99 3d
       -0.13536015 0.053898204 -0.12938961 0.074847616
0000d0 e4 02 5d 39 f4 1a e0 3d b5 df fb bd 27 dc 04 bd
       0.00021077279 0.10942641 -0.12298528 -0.032436516
0000e0 f4 e0 47 bd 1a 9f a3 bd 21 eb 35 bd c2 9c ae 3d
       -0.048798516 -0.079893306 -0.04441369 0.08525993
0000f0 e9 54 70 3d 9f 4d 71 bd fc dc d2 bd 06 af 93 3d
       0.058674727 -0.058911916 -0.10296056 0.072111174
000100 87 9b f1 bd 3e 64 84 ba db 64 17 3e 28 d6 00 be
       -0.117972426 -0.0010100675 0.14784567 -0.12581694
000110 4e f1 a6 bd 1b 86 6f 3d 7f 7a cf bd c1 a9 0c 3c
       -0.08151494 0.058477502 -0.10130786 0.008585394
000120 53 0f bf 3d b7 b4 62 3b f8 4c c9 3d 07 71 a7 bd
       0.09329095 0.0034592578 0.09829134 -0.08175855
000130 1e cf d1 bd 89 55 e9 bd fd 0b d2 3c 35 e6 9e bd
       -0.102445826 -0.11393268 0.025640482 -0.07758752
000140 c6 aa eb 3d ac 26 95 3d b0 3e 7a 3d 3a d0 77 bb
       0.11507182 0.07282767 0.06109494 -0.0037813322
000150 15 c9 e3 bd 3b 1d 37 3d 26 27 55 be 63 14 11 be
       -0.11122338 0.04470561 -0.20815715 -0.14167933
000160 1b 93 2b bd 1a 9c 0d bd 6a ed b9 bd c7 b3 ff 3c
       -0.041888338 -0.0345727 -0.09078486 0.031213654
000170 56 f5 f0 bd a2 a6 13 3e e7 5e 73 bd 14 95 89 3c
       -0.11765544 0.14419034 -0.059416678 0.016794719
000180 30 1a d9 3c b9 f4 1a 3e 9e 47 75 3d e1 11 f6 3d
       0.026501745 0.15132417 0.059882753 0.12015129
000190 09 b4 46 bd 74 38 bc bc b2 43 42 bd c0 e8 8e 3d
       -0.04851154 -0.022976138 -0.04742784 0.06977987
0001a0 e2 40 57 3d 1b 7d 02 3e 46 c2 92 3d a3 7f 26 be
       0.05255211 0.12743036 0.07165961 -0.16259627
0001b0 f5 d4 15 bd 88 aa b4 3c 4c 80 da 3c d5 8b 04 be
       -0.036580045 0.022053972 0.026672505 -0.12943967
0001c0 5b a3 21 3e 65 71 41 bc 44 de 2c 3d 8f 59 9b 3d
       0.15784971 -0.0118068205 0.042204157 0.07585441
0001d0 4b d4 dc bd 6d 3a dd 3d 7f 09 7c 3d 24 aa b8 3d
       -0.10782679 0.108021595 0.061532494 0.09016827
0001e0 fd 8a 39 3e 93 44 bd bd b8 44 1f bd 99 7b 90 bd
       0.18119426 -0.09241595 -0.038883895 -0.070548244
0001f0 be 40 60 3e 42 0d 0e be 09 f3 bb 3d 83 47 a7 bd
       0.21899697 -0.13872245 0.09177215 -0.08167937
000200 8f ee a6 3d 7b 99 07 3e a5 73 ea bd 38 8e a1 3c
       0.0815097 0.13242142 -0.11447839 0.019721135
000210 11 93 74 bc 12 22 98 bd 52 e1 88 bd af 36 94 bd
       -0.0149276415 -0.074283734 -0.066836014 -0.072369926
000220 be ba 86 be dd d8 87 3c 7f 09 2d 3e a3 fb 4c bd
       -0.26314348 0.0165829 0.16898154 -0.050044667
000230 ce da 87 3d 7d 7a 91 bc 3c e3 2b 3c 2b 6a 7c 3c
       0.066335306 -0.017758602 0.010491189 0.015406172
000240 fa 2e e0 3d 5b 96 b4 3c 36 0a bf bc dd e7 98 3d
       0.1094646 0.022044351 -0.023320299 0.074660994
000250 3d 36 46 3d 83 74 ab 3d 50 79 00 bb 01 a6 ca bd
       0.04839157 0.08371832 -0.0019603558 -0.09894944
000260 6d 21 9e bd 44 7b 33 3d 6b f1 43 3d 7b 7c 2b 3e
       -0.07721219 0.043818727 0.047837656 0.16746704
000270 ca dd d5 3d 45 8f 39 3c 79 99 ab 3d f6 e0 86 bd
       0.104426935 0.011325662 0.08378882 -0.06585877
000280 6c 85 0d be 23 a0 7d 3c ab 9e ad bd 00 3b 14 3e
       -0.13820428 0.015480074 -0.08477529 0.14475632
000290 89 a6 e5 3d 6f dd 31 bd 33 80 91 3c 56 75 e5 3c
       0.11213405 -0.043424066 0.017761325 0.028010052
0002a0 bf be f4 bd d0 4f 0e 3e 2b 02 af 3d b4 ce 63 3d
       -0.119504444 0.13897634 0.085453354 0.05561705
0002b0 b2 2a 15 bd a5 7a 13 3e 93 5f 15 be 9e e5 13 3e
       -0.03641767 0.14402254 -0.1458724 0.14443061
0002c0 10 a9 b9 3c 1f 85 27 be 2b 2c 40 3b 1c 51 03 bd
       0.022663623 -0.16359375 0.00293232 -0.032059774
0002d0 a9 a8 b2 bd 32 58 89 bd 3a 2b fe 3d 21 3c 70 3d
       -0.087235756 -0.06706275 0.124105886 0.058651093
0002e0 76 5f d8 bc 93 0b 67 3d 67 02 18 3d 08 6a a6 3d
       -0.026412707 0.056407522 0.037111666 0.081256926
0002f0 45 3a 61 3d 0e 37 41 bd ce 38 d2 3d e4 81 0c 3c
       0.05498721 -0.047171645 0.10264741 0.00857589
000300 84 45 82 3d 39 f9 0b 3e 88 b3 08 3e 96 a1 0f 3d
       0.06360915 0.1366929 0.13349736 0.03506621
000310 20 8c 92 3d bd 09 1f bb 33 ea d6 bc f0 ec 6c 3e
       0.07155633 -0.002426728 -0.026234722 0.2313726

lstm.weight_ih_l1 f4 [200, 50]
000000 e3 12 0a be d7 75 04 be 8c 08 0b be 4b 91 8a bb
       -0.13483767 -0.12935577 -0.13577479 -0.004228746
000010 7c bb 81 3d fd 72 a9 be 4b 2b 78 3c ca 1a 5a bd
       0.06334588 -0.33095542 0.015147041 -0.053248204
000020 b0 5a c6 bc 3d b8 1f 3d e8 0d 84 bd bf 6d 63 bd
       -0.024213165 0.038994063 -0.06447965 -0.055524584
000030 31 58 1a be f8 71 25 3e d0 42 1c be 95 46 2f 3d
       -0.15072705 0.16156757 -0.15259862 0.04279192
000040 9c 0d a7 bd 13 b6 84 bd 63 85 76 3d 3c f8 09 be
       -0.08156893 -0.064800404 0.0601858 -0.134736
000050 d6 d0 90 bd 0f 33 0a 3d 96 13 56 3d 39 1a 6f bb
       -0.07071082 0.0337401 0.052264772 -0.0036484136
000060 50 ba fd 3b 36 b2 5f 3e 53 74 a5 3d 09 7c 10 3d
       0.0077431574 0.21845326 0.08078828 0.03527454
000070 8d d6 4e 3d e2 09 21 3e 50 fc 3d 3d b5 35 b9 bc
       0.05049758 0.15726426 0.046383202 -0.022608617
000080 f6 0c d8 bd 7f 3f 17 be 51 7a 8c 3c 52 b4 83 bd
       -0.10549347 -0.14770316 0.017148169 -0.06430878
000090 c7 0e 40 bd 00 ba 2e 3d 24 93 22 be 76 48 51 3d
       -0.046889093 0.042657852 -0.15876442 0.051094495
0000a0 23 e0 16 3d 44 35 0a 3a 7a 7d 1c bc 09 88 56 3e
       0.036834847 0.00052722194 -0.0095514 0.20950331
0000b0 67 8f e8 bd 6c 19 0e bd 22 8c 16 3e e4 04 fd 3c
       -0.11355477 -0.034692213 0.14701894 0.030886121
0000c0 a0 a1 6f bb df 99 0c be b3 c1 c1 bd 97 b3 32 3d
       -0.0036564842 -0.13730572 -0.09460773 0.0436283
0000d0 20 27 16 be b8 59 90 bd 3b 43 c3 3d 2a f8 1d bd
       -0.14663363 -0.070483625 0.095343076 -0.038566746
0000e0 9e 54 54 bb 59 53 a3 3d 22 70 0a 3e b6 88 f0 bc
       -0.0032399069 0.07974882 0.13519338 -0.029362064
0000f0 a1 2d cb bd e5 7f 65 3d 45 87 06 3d 9e b6 15 3e
       -0.099208124 0.056030173 0.032843847 0.14620444
000100 3c 77 c5 3c 30 4c ea bd d0 52 97 3d a0 8f c0 bb
       0.024104707 -0.11440313 0.07388842 -0.0058764964
000110 b2 a2 d8 bd dd ae 55 3d 45 bb 4f be fb 7d 7c bd
       -0.10577907 0.052168716 -0.20286281 -0.06164358
000120 f2 16 c1 3c 66 af ed bc 36 71 14 3c 20 c2 30 3e
       0.023570511 -0.0290143 0.009060195 0.17261553
000130 41 7d 74 3d 55 99 da 3c 70 f2 cc bd 36 53 0a 3e
       0.059689764 0.026684443 -0.10007179 0.13508305
000140 6c 62 55 3c 77 0c 56 bd 33 48 db bd 54 14 c2 bc
       0.013023954 -0.05225798 -0.1070713 -0.023691334
000150 53 a7 1c 3d 1b 8f d6 3c ce 2a 2e bc b2 3d 64 b9
       0.03824551 0.026191285 -0.010630323 -0.00021766758
000160 ec 75 4c bc d0 61 1a 3d 02 ba 8c 3d c4 90 ed bc
       -0.012479287 0.037690938 0.06871416 -0.028999694
000170 dd 5b c1 bd 81 6e 1b bd e7 3d 32 3a af 46 b9 3d
       -0.0944135 -0.03794718 0.00067993853 0.09046685
000180 04 39 1f 3e e8 99 e7 bd 4f 5c db bb 38 57 0d be
       0.15549093 -0.11308652 -0.0066943537 -0.13802803
000190 f7 4c 9e 3d 50 e0 1c be 81 b0 31 be 0f 30 3c 3d
       0.07729524 -0.15319943 -0.17352487 0.04594427
0001a0 07 ec 3b be e0 4b ea bd 30 16 2f 3d bb 56 17 3d
       -0.18351756 -0.11440253 0.04274577 0.036947947
0001b0 d0 e6 32 bd 3b 15 29 bd be bc 1b be 30 1f 94 3d
       -0.04367715 -0.041280013 -0.15208718 0.07232511
0001c0 67 19 01 be e1 8a 4c 3d f7 fb f3 bc 82 b4 35 3e
       -0.12607346 0.049937133 -0.029783232 0.1774464
0001d0 36 6a b0 3d a7 dd d6 3c 2a b2 9f bd 78 f3 d1 3b
       0.08614008 0.026228739 -0.07797654 0.0064071976
0001e0 36 d2 46 be 89 58 4a be 0c 4a 5e bd dc 73 f8 3d
       -0.19416127 -0.19760336 -0.054269835 0.121314734
0001f0 4a 12 84 3d 23 ba f7 3d 85 11 3d bd c6 91 ca bd
       0.06448801 0.1209605 -0.046159286 -0.09891085
000200 8e 6e a2 3c d2 dc 40 3e be fa 8c bb 58 0d 2d bd
       0.019828107 0.18834236 -0.0043023517 -0.042249054
000210 98 19 46 bd aa 08 a2 3d 0e 0c 42 3d 1b cb 9c 3d
       -0.04836425 0.07911809 0.047374777 0.07655927
000220 1f 69 0d 3e de 78 0c 3e e0 5b 08 bd bd cc 9a bd
       0.13809632 0.13717982 -0.033290744 -0.07558582
000230 c5 bf 5b 3d 79 24 1a be af 2a 65 3c 0c 2c 86 bd
       0.053649683 -0.15052976 0.013987227 -0.0655137
000240 19 86 aa bd de 6e 0e be ba 22 e1 3d 1d 5d 06 3d
       -0.08326358 -0.1390948 0.10992952 0.032803643
000250 3d d0 8c 3b 78 fb c2 be fc 17 e0 bd a7 4b 8f 3d
       0.004297285 -0.3808248 -0.10942075 0.069968514
000260 c6 52 d5 bc b5 b4 11 be c2 78 dc bc 1e 8f 4e be
       -0.026040446 -0.1422909 -0.02691305 -0.20171782
000270 08 10 c8 bc 42 b0 dc 3c bb c2 a5 3d 74 6f 3a 3e
       -0.024421707 0.026939515 0.080937825 0.18206578
000280 d3 02 21 bd bf 88 1b be 4f 09 22 bd 4a 04 8b 3d
       -0.039309334 -0.15188883 -0.03955966 0.067879274
000290 9f bd 6a 3c 30 0e 56 3d 9e 20 7c 3d c0 16 b6 bd
       0.014327436 0.052259624 0.061554544 -0.08891058
0002a0 02 55 34 be a4 85 4a be 1e 95 e2 bd 97 bd 28 be
       -0.17610553 -0.19777542 -0.11063598 -0.16478573
0002b0 05 9a 39 be b0 e2 d6 3d f1 b2 90 3d 7b 04 e1 3c
       -0.1812516 0.10492456 0.0706538 0.027467957
0002c0 6b 85 37 3d 71 32 1a bd 24 9f 88 bd db 89 2a bd
       0.04480497 -0.03764576 -0.06670979 -0.041635375
0002d0 e9 90 b1 3d 73 90 12 be cb 80 86 3d 69 62 69 3d
       0.086702175 -0.14312916 0.06567534 0.056978617
0002e0 cf 0f 0b bd 85 62 c8 bc 45 b5 2b 3e ff 9f 92 3e
       -0.033950623 -0.02446104 0.16768368 0.28637692
0002f0 07 be 1a 3e 01 27 29 3e e0 b1 ff 3d 91 85 0e bd
       0.15111552 0.16518785 0.12485099 -0.034795348
000300 4c f9 04 3e 71 2a ee 3d a2 c1 23 be b6 f7 51 3c
       0.12985724 0.11629189 -0.15991834 0.012815407
000310 db 63 3f 3e f0 e2 be bd a1 c8 f0 3c 6f 25 8a be
       0.18690436 -0.09320629 0.029392542 -0.26981685
000320 9a fe 89 bd 2b 88 03 3d f6 54 14 be 1f f0 47 be
       -0.067380145 0.03211228 -0.14485535 -0.19525193
000330 4d f6 58 bd 59 55 c1 bd 95 fb 6b 3d 5c 93 68 3e
       -0.052969266 -0.09440107 0.057612974 0.22712463
000340 27 30 63 3d 4d 2f f8 3d ae 7a 80 bd b6 e0 27 be
       0.055465844 0.12118397 -0.06273399 -0.16394314
000350 49 9e f0 bc ea 1d db bc 7d 36 8c bc 51 f5 7a 3e
       -0.029372351 -0.026747663 -0.017115826 0.24507643
000360 0e e1 04 bc 23 8f 1e be c1 6c 26 be 84 02 77 be
       -0.008110298 -0.1548429 -0.16252424 -0.24122053
000370 cb 2b df bd 89 d7 b6 bd 2c b1 5c be 05 3d 5a 3e
       -0.10897025 -0.08927829 -0.2155196 0.2131234
000380 67 9e 03 be 39 29 74 be 08 28 78 3d 25 f6 b7 bc
       -0.12853394 -0.2384385 0.06058505 -0.022456238
000390 3c 6d 15 3d 5f c9 c2 3d 60 f2 2b bc 32 52 40 be
       0.036481127 0.09511065 -0.010494798 -0.18781355
0003a0 bb 7c 84 be 6f 7e 16 be 1a 83 7e 3e b6 9a 1b be
       -0.25876412 -0.14696668 0.24854699 -0.15195736
0003b0 e2 b2 3a bc 94 15 82 3e 1b 44 12 3e 4e e5 12 3e
       -0.011395188 0.25407088 0.14283793 0.14345285
0003c0 13 9f 6e 3e 71 8d 53 be 45 ed 47 be aa 45 8f bd
       0.2330287 -0.20659424 -0.19524105 -0.06995709
0003d0 46 1f 1e be 8e fd 68 be 97 c8 83 3e e0 bb 1f be
       -0.15441617 -0.22752973 0.25738975 -0.15599012
0003e0 9e e5 1f 3e 6d 62 38 be 75 50 bf bd 82 3a 66 bc
       0.15614936 -0.18006296 -0.09341518 -0.014052035
0003f0 31 37 10 3d 99 87 9f 3c 6d 61 04 3e 37 39 10 bd
       0.035208885 0.019473838 0.1292779 -0.035210814

lstm.weight_hh_l1 f4 [200, 50]
000000 f2 ab 7f 3d ae 07 11 be 94 f1 a8 bd 8a 34 01 3e
       0.06241984 -0.14163086 -0.08249202 0.12617698
000010 73 af 2d 3d 60 d7 8e 3d 54 b4 ab bd b5 f5 0f bd
       0.04240365 0.06974673 -0.08384004 -0.035146434
000020 b8 5e bb 3c ac b9 19 be c8 30 0a be 83 0a db 3d
       0.022872314 -0.15012234 -0.13495171 0.10695364
000030 9d d3 14 3e b4 64 ff 3d 1d a2 e4 bd 46 8a 07 be
       0.14533849 0.124703795 -0.11163733 -0.13236341
000040 be 07 45 bc 85 e1 64 bd 60 f3 15 be e4 49 1a be
       -0.012025772 -0.055879135 -0.14643621 -0.1506725
000050 63 e1 f9 bd 21 e0 a0 3d 7a e1 4d 3d 10 c1 de 3d
       -0.12201192 0.07855249 0.05026386 0.108766675
000060 92 fc d2 3d e6 6f d2 bd d9 43 e9 3d e0 e0 f7 3d
       0.1030208 -0.10275249 0.11389894 0.121034384
000070 d0 c6 06 be 5b 72 8b 3d 14 d0 82 bc 99 f9 16 be
       -0.13161778 0.06808921 -0.01596836 -0.14743651
000080 34 9c 8a 3d 6c df 87 3d 6a 9d 19 3e 9e 2b 89 3d
       0.06768075 0.06634411 0.15001455 0.066977724
000090 0d 8b 7e bd 2e 1b 97 bc ec 4b 2a 3d 8a cc e3 3d
       -0.062144328 -0.018445577 0.04157631 0.11122997
0000a0 5f 5a ee b9 7a 9d 99 be ba 3e 0d 3e fe 98 0d 3c
       -0.0004546223 -0.30002958 0.1379346 0.008642433
0000b0 38 ee be 3d 88 53 8e 3d 4f 73 c7 3d f6 6e 58 3c
       0.0932278 0.06949526 0.0973879 0.013210049
0000c0 d0 db ef bd 35 2e d2 3d 55 e1 fa 3d 3a 18 6f bd
       -0.11711848 0.102627195 0.1225001 -0.058372714
0000d0 7f b0 eb 3c 97 4d 0a be fc f7 f9 3d e1 ed 7a 3d
       0.028770683 -0.1350616 0.122055024 0.061262015
0000e0 57 89 a6 bc f5 3a a9 3d 58 fc 76 bd ca db 68 3d
       -0.02032916 0.08263198 -0.060299248 0.056850232
0000f0 5b 96 18 3e 93 7d 00 bc 6d 23 a6 3d 32 5e 1f bd
       0.14901106 -0.007842439 0.08112226 -0.03890819
000100 62 7d 42 3d 15 2b a9 bd 39 94 45 3e 36 bf 2e be
       0.047482856 -0.0826017 0.19294824 -0.17065129
000110 18 9d 0b 3e c0 be f3 3d e6 8e 88 3c d5 43 ef bd
       0.13634145 0.11901617 0.016669702 -0.1168286
000120 99 3a 2a 3d 67 bf 4c bd ba 5e 0e 3e b5 93 1e 3d
       0.04155979 -0.049987223 0.13903323 0.038715083
000130 ff 79 5f bd ac 17 bf bd b4 5c e3 bc 9f f8 69 bd
       -0.054559704 -0.09330687 -0.027754165 -0.05712187
000140 97 6f b7 bd 84 23 10 be 2a 14 3d 3d 47 bc 01 3e
       -0.08956831 -0.14076048 0.046161808 0.12669478
000150 20 1c 11 3e 33 f4 61 bc c8 f5 da 3d 14 95 00 bd
       0.14170885 -0.013791132 0.1069141 -0.031392172
000160 70 3e 01 3e 8d f6 06 be b5 8c 29 3e cd ce 02 bd
       0.12621474 -0.13179989 0.16557582 -0.0319355
000170 80 c5 20 3d b8 6c f9 bc e5 96 ce 3d 51 b3 e7 3b
       0.03925085 -0.030447349 0.100873746 0.0070709367
000180 c4 b3 4f be 7f 43 09 3e 93 94 cf bd df 70 d4 bd
       -0.20283419 0.13404654 -0.1013576 -0.10373091
000190 7c de cc 3d e3 85 1b 3e e7 3a 7a 3d 01 db f5 3d
       0.10003373 0.15187792 0.06109133 0.12004662
0001a0 62 6f 54 3d 4b 6c 32 bd ac b5 89 3d 66 11 4e bc
       0.051864035 -0.043560307 0.06724104 -0.01257739
0001b0 44 eb b7 3c 84 7e 79 bd 00 c8 3b bd 25 97 76 bb
       0.02245105 -0.06091167 -0.04584503 -0.003762671
0001c0 99 25 58 bc 77 b6 0a be 57 db ac 3d f2 6e ea 3c
       -0.013192558 -0.13546167 0.08440273 0.028617356
0001d0 d5 dd 70 bc 95 fc 3e bd 31 fc 26 bd 57 33 c0 3d
       -0.014701326 -0.0466276 -0.040767852 0.09384792
0001e0 90 91 06 be 41 e4 27 3d ca 7f 01 3b ae 24 04 3e
       -0.13141465 0.040989164 0.0019760006 0.12904617
0001f0 00 3c d1 bd af 28 72 3d 69 c9 d2 3d d1 6c e8 bc
       -0.10216522 0.05912083 0.10292322 -0.0283722
000200 f9 ba 67 3d 6b ea 0d be f7 db 14 3e 7a cd e2 bd
       0.056574795 -0.13858955 0.14537035 -0.11074348
000210 5f 22 be bd 9e a4 24 3e cb a1 83 3d 84 37 0f 3d
       -0.092838995 0.16078421 0.06427344 0.034965053
000220 c4 67 b9 bd 5e a4 46 3d f4 a1 1a be da da e7 bd
       -0.09052995 0.048496597 -0.15100843 -0.113210395
000230 9a 16 34 3d be 81 1d be d8 92 f6 bc b4 5c 18 bc
       0.043966867 -0.15381524 -0.030099317 -0.009299446
000240 d5 47 b0 bd ba 5e e5 3b 22 ed 42 3c d7 c9 06 3d
       -0.08607451 0.0069998177 0.011897357 0.032907333
000250 35 ad 1b bd 6e c8 e3 bd 93 40 d2 3d d1 18 b6 3d
       -0.03800698 -0.11122213 0.10266223 0.08891452
000260 35 8a 39 3c 72 be d5 3d 03 cc c2 3b ed a9 3c bd
       0.011324455 0.10436715 0.0059447302 -0.04606049
000270 88 6e 25 3e 9c 85 a6 3d c2 fd ff 3d 05 dd 27 bd
       0.16155446 0.08130953 0.12499572 -0.040982265
000280 da 2e d1 3d 9e 00 1d 3d fc 77 ae bd a9 b0 ca 3c
       0.10214014 0.038330667 -0.08518979 0.024742441
000290 b3 ef e8 bd 44 d9 03 be 5a 37 01 3e 5e 11 c4 bd
       -0.11373844 -0.12875849 0.12618771 -0.09573625
0002a0 e5 13 03 be fd b8 7e 3d cb ef bf 3c 73 5e 8d bc
       -0.12800558 0.062188137 0.023429772 -0.017256951
0002b0 b6 ff 86 bd c2 52 d2 3d f7 da ef 3d 1e 45 b6 3d
       -0.06591742 0.10269691 0.11711686 0.08899902
0002c0 ad e9 ca bd f6 22 6c 3d 7d 10 21 bd 07 67 bf 3d
       -0.09907851 0.05765053 -0.039322365 0.09345823
0002d0 cf ee c3 bd c2 00 ba bd 16 4c b2 bc 96 46 8f bd
       -0.095670335 -0.09082176 -0.021764796 -0.06995885
0002e0 d5 84 b3 bc 26 aa 28 bd 48 44 10 bd 56 24 ef 3d
       -0.021913925 -0.04117789 -0.035221368 0.116768524
0002f0 6b f7 c0 3d d1 37 f2 bb b3 23 0c 3e e5 0c 72 3d
       0.09422191 -0.0073919077 0.13685493 0.05909433
000300 42 3c 63 3d d6 c0 bc 3d 3a a2 12 3e 02 1c 19 3e
       0.05547739 0.09216468 0.14319697 0.1495209
000310 97 cb 47 3c 80 2d 7e 3c 03 e5 a8 bd 31 2f 68 3c
       0.012194536 0.015513778 -0.082468055 0.014171408
000320 6b 8b a9 bc c7 a5 cf bc bf 34 35 be 17 d3 12 bd
       -0.020696362 -0.025347603 -0.17695902 -0.035845842
000330 64 8f 1f 3d 83 2d a3 bd 40 11 88 bd 46 1d dd bd
       0.038955107 -0.07967665 -0.06643915 -0.10796599
000340 64 a8 4c bd 25 03 3f bd 87 d4 91 bd a0 f4 ef 3b
       -0.049965277 -0.04663386 -0.071206145 0.0073228627
000350 1f 1c 3f bd 50 e4 ce bd e2 14 43 3e 60 bc 8e 3d
       -0.046657678 -0.10102141 0.19050935 0.069695234
000360 a3 0a 02 be 4d f1 ba bd d7 0e 14 bd 1c 02 f9 bd
       -0.1269937 -0.09128056 -0.036146965 -0.121586055
000370 83 22 e8 bc c9 a1 fe bd a7 0d 94 3d 63 3a fb 3d
       -0.028336769 -0.12433202 0.072291665 0.12266996
000380 66 47 0d 3e 6d c0 22 3a ce 0a 9e 3c 6b 72 96 bd
       0.13796768 0.0006208483 0.019292261 -0.07346042
000390 6d 6f 84 3c 69 bc 63 3d 73 b0 ab bc d7 a8 9e bd
       0.016166413 0.055599604 -0.020958161 -0.077470474
0003a0 8e 37 d0 3d 47 1f 17 3e a8 cb 8a bb 38 a4 84 bd
       0.10166846 0.14758025 -0.0042357035 -0.06476635
0003b0 d2 64 39 be 98 80 d2 bc cf 7c 31 be 77 2b aa 3d
       -0.18104866 -0.025696084 -0.17332767 0.083090715
0003c0 25 0d 64 3c 9e 36 64 3e 87 66 6e 3d 22 91 f7 bd
       0.0139191495 0.2228646 0.058203246 -0.12088229
0003d0 a6 5c 8f 3d 57 5c 35 3e 77 ed 9c bd 3f 2c 4f 3b
       0.07000093 0.17711006 -0.0766248 0.0031612066
0003e0 86 26 9a 3d 8c 5a 19 3e 30 89 99 3d af f6 3c 3d
       0.07526879 0.14975947 0.074968696 0.046133693
0003f0 7e 23 be 3d ed 94 78 3d 62 fc 94 3e 16 e1 f1 bd
       0.09284113 0.0606889 0.29098803 -0.1181051

lstm.bias_ih_l1 f4 [200]
000000 96 db 47 bd c5 c9 ed bd 14 99 b3 3d fb 5f f9 3d
       -0.048793398 -0.1161075 0.08769432 0.1217651
000010 ea 8b 48 3e 9e da e3 bd 89 e2 3a 3e 7f 36 8f bd
       0.19584623 -0.11125682 0.18250479 -0.06992816
000020 50 26 08 3e 71 34 cc bb ca 9e 1d 3e db 7b cb 3d
       0.13295865 -0.0062318374 0.15392604 0.09935733
000030 77 66 1c 3e 24 f2 6c 3d 3e a0 cd bd 41 23 99 bc
       0.15273462 0.05784811 -0.100403294 -0.018693568
000040 b8 27 9c bd c4 9c 66 3b c3 cb bd 3a 18 5f a2 3d
       -0.07624763 0.0035188654 0.0014480281 0.07928294
000050 c0 ed 89 bd 27 37 98 bd 36 96 cd 3c 36 43 62 3c
       -0.067348 -0.074323945 0.02509604 0.01380997
000060 00 79 3b b4 7d 88 b5 bd 50 6d b3 bd 22 cf 92 bd
       -1.7459752e-07 -0.08863924 -0.08761084 -0.07168414
000070 1b 68 a0 bc d8 38 b5 3c 96 80 07 be 57 cc fb bd
       -0.019580891 0.022121832 -0.13232645 -0.12294834
000080 ff d1 a4 3c 39 bd 3c 3e 50 9f 11 3e 82 18 04 3d
       0.020119665 0.18431558 0.14220929 0.032249935
000090 99 8d 91 bd 75 f6 8e 3d dd 17 85 bd 5f 14 3e bd
       -0.07107086 0.06980602 -0.06498692 -0.046406146
0000a0 26 6b d0 3d eb 45 16 3e 7d ea 9e bc f4 f0 66 3d
       0.10176687 0.14675109 -0.019398922 0.056382135
0000b0 d6 e7 56 3d bd fc be bb 54 d1 3c 3d a0 11 01 3e
       0.05246719 -0.0058284686 0.04609807 0.1260438
0000c0 99 5d 4e bd 5f 17 fc 3c f8 b4 f1 bd 17 3d c6 bd
       -0.05038223 0.030772863 -0.11802095 -0.09679621
0000d0 56 ab eb bd 09 ec ae bd b2 d9 f1 bc f8 96 10 bc
       -0.11507289 -0.08541114 -0.02952275 -0.008825056
0000e0 a1 d5 33 bb 10 9f d5 3c c0 f0 ab 3d d6 cc 98 bb
       -0.0027440565 0.026076823 0.08395529 -0.00466309
0000f0 50 00 76 bc e3 7e 45 3c aa dc 3d bd bb 19 a1 3c
       -0.015014723 0.012054178 -0.04635302 0.01966559
000100 ef 39 32 3d 18 25 b2 3d bd d5 d8 3d bb 71 10 be
       0.04351228 0.08698481 0.10587642 -0.14105885
000110 77 72 c2 3c 80 f0 16 3e 9a 9f 55 3c bc 54 01 be
       0.023736222 0.14740181 0.01303854 -0.1262998
000120 79 79 f9 3d ee f4 a8 bd e9 80 c8 bd 20 b7 bc bd
       0.12181372 -0.08249842 -0.09790213 -0.09214616
000130 ea 7e 23 3e 5e fe 03 3e a8 2f 0b bd 41 f1 71 3d
       0.15966383 0.12890002 -0.033980995 0.05906797
000140 43 f8 8d 3c 45 ac 1f be 1b 2d 82 bd 7f 5b 36 bd
       0.017330294 -0.1559306 -0.063562594 -0.04452085
000150 5f 92 d1 3c 42 55 a7 bc 43 ed f8 3d cb de 9e bd
       0.02558249 -0.020426396 0.12154629 -0.07757338
000160 22 a1 59 bd 27 7e bb 3c 3c 3c 7b bd 8b b5 d7 bd
       -0.053132184 0.022887303 -0.06133674 -0.105326734
000170 ef 24 88 bd 95 b4 e3 3d 95 9d bd 3d e8 6b e6 3c
       -0.066476695 0.11118428 0.09258572 0.028127626
000180 be 48 c6 bc 17 b6 21 3e 4f b9 c9 3c e3 85 25 bd
       -0.024204608 0.15792118 0.024624495 -0.040410887
000190 cc 92 54 bd 50 1c 93 3d 72 c6 e4 bd 4f 06 99 3d
       -0.05189781 0.071831346 -0.11170663 0.074719064
0001a0 9f e4 19 bc 02 ab 20 3d 54 bb d0 3d 6f d0 8b 3d
       -0.009392886 0.039225586 0.1019198 0.06826865
0001b0 10 c4 01 3c b8 86 89 bd 64 ec 0d 3d 79 a1 7e bd
       0.00792028 -0.06715149 0.034649268 -0.06216571
0001c0 24 18 ae 3d 58 51 1e bd 35 98 0a 3c 25 f2 d6 3d
       0.08500698 -0.038651794 0.008459141 0.10495404
0001d0 7c ff 02 be 68 64 dc 3d 9a 11 ae 3c 89 95 e6 bd
       -0.12792772 0.107613385 0.021248627 -0.1125899
0001e0 ea a9 8c 3d 3d 60 98 bd f5 fb b4 bd 1d ad d0 bb
       0.06868346 -0.07440231 -0.088371195 -0.006368293
0001f0 30 51 09 3d cf 94 c4 bd 18 07 1d 3d 83 e4 bf 3d
       0.033524692 -0.095986955 0.038336843 0.09369757
000200 fa b1 18 be 4f 11 18 3d 0c d4 55 3d be 83 f2 3d
       -0.14911643 0.03712588 0.052204177 0.11841534
000210 bd 1b 25 3e 62 2e 81 3c 53 52 26 bc 0b b9 2d be
       0.16123863 0.015769187 -0.010151464 -0.1696512
000220 43 0e bf bd 61 40 4f 3b f6 ba 7e 3d e8 b6 10 3e
       -0.09328892 0.0031624066 0.06219002 0.14132273
000230 5a 8b 34 3d 77 57 dc bc 52 c2 7a bb f0 2b 2a 3d
       0.04407821 -0.026897175 -0.0038262797 0.04154581
000240 7d 65 13 3e a2 8b e9 3d 2b 87 7a bd 8c be d2 bd
       0.14394183 0.11403586 -0.061164062 -0.1029025
000250 32 1b 9a 3a 48 94 b1 3c a7 7f f0 bd a1 c1 0c 3e
       0.0011757372 0.021677151 -0.11743098 0.13745739
000260 cb 3c f7 3d ca 0c 17 3e 8f 39 22 3e 3a ef 0d 3e
       0.12072142 0.14750972 0.1584227 0.13860789
000270 86 0e cb 3c af 2e 65 39 29 27 c2 3c 7b 07 96 3d
       0.024787199 0.00021856533 0.023700314 0.073256455
000280 d6 28 5b 3d 12 a7 ef 3c c3 37 e6 3c c8 01 94 bd
       0.05350574 0.02925447 0.028102761 -0.07226902
000290 fa 84 72 3c 22 fe 30 3e 38 79 ac 3c b6 40 b4 bd
       0.014802212 0.17284444 0.021053895 -0.08801405
0002a0 fa ba 45 3c 1e 86 c2 bc 3c 3d 02 3e 70 4d e6 3d
       0.0120685045 -0.023745593 0.12718672 0.11245239
0002b0 2f 47 8b bd b1 6f b2 3d 65 22 4b 3d 6e 21 89 bd
       -0.068006866 0.0871271 0.049593348 -0.06695829
0002c0 94 93 c8 bc 13 f8 19 3d 8d 9f d2 3d d5 98 38 bd
       -0.024484433 0.037590098 0.10284338 -0.045067627
0002d0 32 a4 aa 3c fa f1 6d 3d bf 02 b2 bd 5b de 86 bc
       0.020830248 0.058092095 -0.0869193 -0.01646345
0002e0 1e 4c 77 3d 4d 11 c1 3d a1 fc 2f 3d 81 0c 8c bc
       0.060375325 0.09427128 0.042965535 -0.017095806
0002f0 5a a0 c1 bc cb bb b6 3d e3 1f 0c 3e eb 18 01 3e
       -0.023636032 0.089225374 0.13684039 0.12607162
000300 0b 07 1a 3e 77 fc 61 3d d5 23 ac bd 27 4d 76 3c
       0.15041749 0.05517241 -0.08405272 0.015033043
000310 06 71 5b bc 05 0c e2 3c 58 cc e7 3c 5e ac c7 bc
       -0.013393646 0.027593622 0.02829568 -0.024374183

lstm.bias_hh_l1 f4 [200]
000000 f8 5c f0 bc 5a 62 db 3d 3f 48 11 3e ec 17 3f bd
       -0.029341206 0.107121184 0.14187716 -0.046653673
000010 bb 5b 09 3e 40 92 26 3d c5 e1 4d 3d 20 17 4b 3d
       0.13413899 0.04066682 0.05026414 0.0495826
000020 08 20 60 bc 2e 27 00 3d df 5a c1 bd 36 0c 2c 3e
       -0.013679512 0.031287365 -0.094411604 0.16801533
000030 a4 30 49 3e 04 68 05 3e 8d a8 93 bc e5 9e 77 3d
       0.19647461 0.1302796 -0.018024707 0.060454268
000040 3e 99 9e 3d 6d d8 02 3e 80 af c8 3c 13 6b 4c 3c
       0.077440724 0.12777872 0.024497747 0.0124767
000050 e6 9c 87 bd bb d7 90 bd c0 59 48 3d e1 e6 22 3d
       -0.06621723 -0.07072397 0.048913717 0.039770965
000060 41 62 67 3c 05 56 21 3e fa 57 be 3d 89 18 5a bd
       0.014122547 0.1575547 0.09294124 -0.053246055
000070 ef 51 4e bd 07 25 9d 3d d4 47 77 3d 0c 12 ff bd
       -0.050371107 0.07673078 0.060371235 -0.12454614
000080 6c 55 b8 3d e7 73 91 bc 4a 1c c9 3d aa d4 b5 bc
       0.09000668 -0.017755462 0.09819849 -0.022196133
000090 38 55 1d 3e 38 b1 33 3e 38 21 2a bd 8b f9 94 bd
       0.1536454 0.17548072 -0.041535586 -0.07274159
0000a0 a1 dc 01 3e 05 96 68 3e 86 9d e0 3d dc 77 2c bc
       0.1268182 0.22713478 0.10967545 -0.010526624
0000b0 10 e5 34 3e e3 64 ee bd 10 00 01 3e 45 bf 35 3c
       0.17665505 -0.11640336 0.1259768 0.0110929655
0000c0 6e a9 a1 3c 4e 09 49 3d 26 f2 0f bd 31 a8 3a bd
       0.01973411 0.04908114 -0.03514304 -0.045570556
0000d0 60 43 72 3d 62 b7 51 3d a4 42 9d 3d 7d b6 08 3e
       0.059146285 0.051200278 0.07678726 0.13350864
0000e0 45 9d 51 bc 54 d4 a1 bd 52 43 11 be d3 e5 98 3d
       -0.012793844 -0.079018265 -0.14185837 0.074657105
0000f0 a6 d1 eb bd 63 ab 0b 3d 85 70 73 bd fa 06 92 bd
       -0.11514597 0.034098994 -0.05943348 -0.07130237
000100 90 4a dc 3c dc 1c 90 3d be 5b 13 be b3 69 a5 3d
       0.026891023 0.070367545 -0.14390466 0.08076801
000110 27 5d fa bd 9a 3f 8b bb 7d ad 4e bd 88 2b bb bd
       -0.12224799 -0.0042495253 -0.05045842 -0.09139162
000120 3a 95 ba bd 93 99 1e bd cb 38 eb bd a7 82 2c 3c
       -0.09110494 -0.03872068 -0.11485442 0.010529197
000130 dd 3b 8d bd 60 92 5b bd 62 1c 7f bd 4f 39 58 3d
       -0.06896184 -0.05360639 -0.062282927 0.05278903
000140 9e dc 83 bd 1c 4b 86 3d e5 55 d6 3d ad c4 b7 bd
       -0.06438564 0.06557295 0.10465602 -0.0897306
000150 18 e1 05 bb 96 96 f8 bd 0f 09 af 3d 92 98 9c bc
       -0.0020428356 -0.12138097 0.0854665 -0.01911572
000160 3e e5 67 3d 2e 22 68 3d 37 92 9b 3d 68 5b c7 bd
       0.056615107 0.05667322 0.07596248 -0.09734231
000170 63 4d 1c bd 46 c3 24 3e 60 a2 61 3b 27 12 1e 3d
       -0.03815974 0.16090116 0.0034429058 0.03859153
000180 6e f6 11 bc c6 a1 43 bd f4 72 c4 3d 3e db da bd
       -0.008908851 -0.0477617 0.09592238 -0.106863484
000190 05 dd d0 3d 6b b0 7a 3d bc 39 79 3d c0 0d 9a bd
       0.10198406 0.0612034 0.060846075 -0.07522154
0001a0 a1 b7 02 3e 00 c0 dc 3d 12 20 0b 3d a2 80 2a be
       0.12765361 0.107788086 0.03396613 -0.16650632
0001b0 d0 29 52 3c ef fc d6 bb 82 6a dc bd b3 75 8d bc
       0.012827352 -0.0065609138 -0.10762502 -0.017268037
0001c0 93 67 74 bc 86 ba 23 be 36 f8 d8 3d a6 21 0b 3c
       -0.014917272 -0.15989122 0.105942175 0.008491909
0001d0 25 83 ac bd 96 31 f7 3d 80 c4 b1 bc b5 eb a0 bc
       -0.08423451 0.12070005 -0.021700144 -0.019643644
0001e0 c1 75 e9 bc 66 46 16 be 5f 92 10 bd 4d 7f 45 3d
       -0.028498532 -0.14675292 -0.03529584 0.048217107
0001f0 30 f1 d4 bc 36 02 cc 3d ec fe f1 3c 24 ec 54 3d
       -0.025993913 0.09961359 0.029540502 0.051983014
000200 59 ae dc 3d cd 07 c7 bd 55 5f ff bb 4f d7 c9 bd
       0.10775442 -0.09718285 -0.007793347 -0.0985552
000210 ae e2 ca bd a8 f6 84 3d 8d d2 0c 3e 6b 24 9a 3c
       -0.09906517 0.064923584 0.13752194 0.018816194
000220 50 bf 07 be 2d 3e 87 3d df 74 1c be 16 a7 87 bd
       -0.13256574 0.06603656 -0.15278958 -0.06623666
000230 11 36 e2 3d 5d 13 9f bd f8 31 e9 bd 87 f9 c0 bd
       0.110454686 -0.07767365 -0.11386484 -0.094225936
000240 57 30 00 bd b5 ee 78 3d 6f c6 6a bd 6e 0d 35 be
       -0.0312961 0.060774524 -0.057318147 -0.17680904
000250 ed 05 9a bc f0 b2 32 3d 29 1e df 3c db 33 e6 3c
       -0.018801654 0.04362768 0.027236061 0.028100898
000260 75 aa e4 bd 7d 1a 5f bc f4 d6 c8 3c f9 89 0c bd
       -0.111653246 -0.013617155 0.02451656 -0.03431127
000270 72 82 47 bd e6 db bb 3c fd fb 85 bc f7 c0 c4 bd
       -0.048708387 0.022932004 -0.016355509 -0.096071176
000280 71 7b 99 3d d7 eb a5 3d fb c1 86 3d b4 d1 99 3d
       0.07494248 0.081016235 0.065799676 0.07510701
000290 f8 ca 23 3c a0 7f 00 3e 76 6a ef bd bd cb 0b 3e
       0.009997122 0.12548685 -0.11690228 0.13651939
0002a0 d4 33 13 3e 32 ef 12 bd cc 3f 17 3e 75 27 c0 bc
       0.1437524 -0.035872646 0.1477043 -0.023456315
0002b0 9f 4a 9c 3d 12 9e c7 bc c9 49 80 bd 6f 6c 44 bd
       0.0763142 -0.024367366 -0.062640734 -0.047954973
0002c0 fa ca f9 3d 76 7f a4 bc ed be 9c bd 1c 8c c9 3c
       0.12196918 -0.02008031 -0.07653604 0.024602942
0002d0 fb bd d8 bd dc 71 9c bd 15 bb 4c bd db 81 8e bd
       -0.10583111 -0.076389045 -0.049983103 -0.06958362
0002e0 7d 85 8e bd fb 05 a4 3d a6 6e f4 bc ba 56 90 3d
       -0.069590546 0.08008953 -0.029837918 0.07047792
0002f0 24 64 15 3e 33 ca 82 3d 28 d0 5c 3e 74 0a 88 3e
       0.14588982 0.06386223 0.2156378 0.26570475
000300 89 2d b2 3c 3a 3d c4 3d 82 23 2c 3e 2b cb b1 bd
       0.021750228 0.095819905 0.1681042 -0.08681329
000310 f5 f0 ad bd 93 79 21 3e 9b 86 c1 3d 30 ca 77 3d
       -0.084932245 0.15769033 0.09449502 0.060495555
