TFM/regresion/results/gen_trip/STConv.pt (torch, 63034 bytes, 21 tensors)

recurrent._temporal_conv1.conv_1.weight f4 [32, 1, 1, 7]
000000 2e 81 a1 3e 2f 9d b1 3e 22 14 7e bd 1a e1 be 3e
       0.3154387 0.34690234 -0.06203092 0.37281114
000010 b6 fd 4f bd de 25 d8 3d df 1c 18 be 9a cf 75 3e
       -0.050779067 0.105540976 -0.14854763 0.24004975
000020 85 36 b3 3e 71 82 86 be 9a c8 ae 3e 00 42 a2 3d
       0.35002533 -0.26271394 0.34137422 0.07922745
000030 73 71 92 3e 6b a4 5d 3d d3 b5 44 3e 62 de 36 bd
       0.2860218 0.05411188 0.19209985 -0.044645675
000040 be 73 99 3e 09 32 81 3d 0b a3 2d be e5 35 d1 3d
       0.29971117 0.063083716 -0.16956727 0.10215358
000050 12 0f 2d be bb 51 19 bd 6d a0 18 be 39 59 81 3e
       -0.1690028 -0.03743146 -0.14904948 0.25263384
000060 2d ff 98 be 43 f8 35 be e4 7c e7 bd 4e 79 72 be
       -0.29882184 -0.17770486 -0.11303118 -0.23679087
000070 4b 27 db 3c 04 01 c3 be 07 21 ab 3e bc 67 a7 be
       0.026752135 -0.38086712 0.33423635 -0.3269633
000080 a9 17 93 3e 1b 69 73 3d f7 03 00 be 4e 03 6c 3e
       0.2872899 0.05942641 -0.12501512 0.23048136
000090 d3 b2 5e 3d a8 17 99 3e 0a cb 08 3d 28 0f 04 be
       0.05436976 0.2990086 0.03339676 -0.12896407
0000a0 85 79 b7 3d c4 c5 ee bd 21 f0 16 3e f0 b4 a7 3e
       0.08958725 -0.116588145 0.1474004 0.32755232
0000b0 06 2e 57 3e a1 96 2f be e6 e0 5a 3e a5 05 86 3d
       0.2101365 -0.17147304 0.21374854 0.06544045
0000c0 28 9b 44 3e d1 7d 47 be ab 1d bf be 3c 17 16 be
       0.19199812 -0.19481589 -0.37327322 -0.146573
0000d0 3c 45 9d be 11 bd 9e 3e 9a ca b9 3d 3d de 05 3e
       -0.30716884 0.3100362 0.09071846 0.13073058
0000e0 e5 f6 3c 3e 8c 43 0d 3d 2e ff b1 3e ef f3 63 be
       0.18453558 0.034488246 0.34765 -0.22261022
0000f0 44 10 31 3d c5 d7 4a be a0 f4 23 3e 13 03 ec bd
       0.043228403 -0.19808872 0.16011286 -0.11524024
000100 2c fd 3e 3e 02 8c 5a bc 55 65 ae 3e 3f 97 22 be
       0.18651265 -0.0133390445 0.34061685 -0.15878008
000110 28 bf 30 be 10 5f 3a be 7f 4b ac 3e 0f b0 f8 3d
       -0.1726042 -0.18200326 0.3365135 0.121429555
000120 a6 0e b7 3e 16 76 a3 be 97 55 c4 be bf a7 9c be
       0.35753363 -0.3192603 -0.3834655 -0.3059673
000130 1b 52 88 be 29 5c 56 3e b9 3e 3a 3e 59 55 b2 3e
       -0.26625142 0.20933594 0.1818799 0.3483074
000140 96 12 38 be d2 69 4a be 67 b0 52 3e cd a6 2c be
       -0.1797584 -0.1976693 0.20575105 -0.16860504
000150 bd ed 8d 3e ac ee a6 bd 13 eb 81 3e ae a8 8c be
       0.27720442 -0.08150992 0.2537466 -0.27472442
000160 ea 94 4a be 71 0b e4 3d 19 87 b0 3d be 69 cf bd
       -0.19783369 0.11134995 0.08619518 -0.101275906
000170 85 ed 64 3e 12 5b 84 3e 33 c0 89 be 35 e4 45 be
       0.22356232 0.2585073 -0.2690445 -0.19325335
000180 dd 65 b7 3e ee de e3 bd 14 0e 16 be 23 df d0 be
       0.35819903 -0.11126505 -0.14653808 -0.4079524
000190 95 c4 67 be cf 40 98 3d d0 b3 e1 bd 41 32 8e be
       -0.22633584 0.07434236 -0.11020625 -0.27772716
0001a0 0a b9 41 bb 3e b0 89 be d8 d5 a9 be 55 7c 60 be
       -0.0029559755 -0.26892275 -0.33170962 -0.21922429
0001b0 8c d9 ae be 67 14 80 be 44 dc bb 3e f8 78 78 3d
       -0.3415035 -0.25015566 0.36691487 0.06066224
0001c0 9e 89 ee 3d b4 7d b4 be e2 31 7e be ba d3 00 be
       0.11647342 -0.35252154 -0.24823716 -0.12580767
0001d0 b3 15 72 3d cb 47 aa be 62 c3 26 be b2 53 cb bd
       0.059102725 -0.332579 -0.1628547 -0.09928073
0001e0 df 2d bc 3d 04 70 9a bc 6b fa 89 3d b8 f3 52 be
       0.09188437 -0.018852241 0.067372166 -0.20600784
0001f0 04 6e 03 be 9c f5 26 be 34 c1 08 be 9a 07 98 be
       -0.12834936 -0.1630463 -0.13354951 -0.296933
000200 74 e2 a3 3e 6d 24 e5 bd bf 33 aa 3e b0 6c dd 3d
       0.32008708 -0.11188588 0.33242604 0.10811746
000210 cb fc be be e7 09 a3 3e 60 fc 74 bd 1e 6d 87 bd
       -0.3730224 0.31843492 -0.059810996 -0.06612609
000220 2b 51 85 be cb 0a b0 be e7 19 43 3e a0 8e 1a bc
       -0.2603849 -0.34383234 0.1905285 -0.0094334185
000230 7f 37 1a 3e b3 68 9d be f2 cf 90 3e 13 3c 8d be
       0.15060233 -0.30743942 0.2828365 -0.27584895
000240 84 e1 83 bd f3 0f a2 3d d3 62 47 3e a0 08 99 3e
       -0.06439498 0.07913198 0.19471292 0.29889393
000250 5b e6 ab 3e 7d a6 9e be 9d 04 a8 3d f4 b7 34 be
       0.33574185 -0.30986395 0.08204005 -0.17648298
000260 2d 73 6e bd bd 4f 9b be e3 11 a8 3e 73 13 95 be
       -0.05821531 -0.30334273 0.32826146 -0.291164
000270 5f ec 43 3e a6 02 00 3e 05 78 f2 3d 0b 79 52 be
       0.19133137 0.1250101 0.11839298 -0.20553987
000280 a6 06 b1 3e 94 22 c5 3d 90 3b 7e 3d c3 31 a5 be
       0.34575385 0.09625736 0.062068522 -0.32264528
000290 c8 07 2d 3e 3b 2d 4b bd 27 e3 2a be 16 6d a7 3e
       0.168975 -0.049603682 -0.16688214 0.32700413
0002a0 97 65 5b 3d 02 48 41 be 40 45 39 be 9c 30 98 bc
       0.05356368 -0.18875125 -0.18092823 -0.018577866
0002b0 56 33 28 3e a9 82 b0 bd 83 3a 7d be 93 e0 16 be
       0.16425833 -0.086186714 -0.24729352 -0.14734106
0002c0 19 e7 98 be 2e 78 f5 3d d3 17 8f 3e a1 eb bb be
       -0.29863814 0.11985813 0.27947864 -0.36703208
0002d0 f7 cf a1 3d 6b f2 40 3e c5 0d 1c 3d 6d 68 26 be
       0.07900994 0.18842475 0.03809907 -0.16250773
0002e0 00 68 30 3e e3 d8 34 3e 8d c9 fa 3d 9e 02 a7 bd
       0.17227173 0.1766086 0.12245474 -0.08154796
0002f0 fb 97 e4 bd 61 d0 f6 3c a0 6a 77 bd c0 0e a4 bd
       -0.111618005 0.03012866 -0.06040442 -0.08010626
000300 ff 38 8b 3e 36 e0 e2 3e 40 80 9d bb e2 62 c1 3c
       0.27191922 0.44311684 -0.0048065484 0.023606721
000310 43 34 9f 3c a2 f1 00 bd 3f 5a e6 3d 47 a6 dd 3d
       0.0194341 -0.03148044 0.11247682 0.108227305
000320 3c 22 b1 be a8 4f f2 bd d4 59 ae 3e 96 5e 4a 3e
       -0.3459643 -0.118315995 0.34052908 0.19762644
000330 80 fd 04 3d 9f cf 43 be a8 05 46 be 04 ab 9d be
       0.03246832 -0.1912217 -0.19338095 -0.30794537
000340 f6 f3 d4 bd ec cd 13 3e c9 77 7f 3e 31 e5 39 3e
       -0.10398094 0.14434022 0.24948038 0.18153836
000350 01 41 a8 be 90 b7 64 be ec bb 6a bd 43 53 bb 3e
       -0.32862094 -0.22335649 -0.057308123 0.3658696
000360 06 23 59 3d 70 a9 cb bd 7a 2d 28 3e 24 0c 1f be
       0.053011917 -0.09944427 0.16423598 -0.15531975
000370 44 e6 74 be 54 3b 8d 3e ab 3b ca bd 50 f3 7b bd
       -0.23915964 0.27584326 -0.09874662 -0.061511338

recurrent._temporal_conv1.conv_1.bias f4 [32]
000000 3f 26 b7 be 9b 48 7b 3e 1a 10 94 3e 2e 3a 01 3e
       -0.35771367 0.24539416 0.28918535 0.1261985
000010 18 b2 89 be 46 f1 c6 be 46 4a 9b be 20 06 8b 3e
       -0.26893687 -0.38855952 -0.30330104 0.2715311
000020 29 9d 52 3e 50 74 b4 3e 01 20 39 3e 85 36 49 3e
       0.20567764 0.3524499 0.18078615 0.19649704
000030 3c fc 55 3c 9f 49 8b be 9f 6d b2 be 6e ab ba be
       0.013060626 -0.27204606 -0.3484926 -0.36458915
000040 0a 70 1e 3e 2f 5a 89 bd f0 ef d4 bd 31 51 04 be
       0.15472427 -0.06706654 -0.10397327 -0.12921597
000050 ce 1d 8d bd fc b6 92 be 8c 36 80 be 34 4f f5 3d
       -0.068904504 -0.2865523 -0.25041616 0.119779974
000060 1a 93 0b be 9a 95 73 3e 6c 43 00 be 53 3b 7b be
       -0.13630334 0.23787537 -0.1252572 -0.24534349
000070 f6 60 4e bd ec 85 0d be 1a 99 f2 bd ee 6a b4 be
       -0.050385438 -0.13820618 -0.11845608 -0.3523783

recurrent._temporal_conv1.conv_2.weight f4 [32, 1, 1, 7]
000000 0a a6 73 3e 22 f1 69 be 88 17 61 3e 0a ff 4b 3e
       0.23793808 -0.22845891 0.21981633 0.19921508
000010 59 e5 9b 3e 08 30 84 be 78 26 9e 3e be c1 1d be
       0.30448416 -0.25817895 0.30888724 -0.15405938
000020 bd c6 27 3e ad 78 c0 3e bf 2b 0a bd cf 53 53 3c
       0.16384406 0.37592068 -0.033733126 0.0128983995
000030 4e e1 95 bd 83 53 9c be 5e 3f 44 3e 07 86 bb be
       -0.07318364 -0.30532464 0.19164798 -0.36625692
000040 cd 29 79 3e 7d 99 94 3e ea 9e ba 3e 0a 23 aa bd
       0.24332352 0.29023352 0.36449367 -0.083074644
000050 f3 50 9c be 33 91 b2 3d a0 c5 59 3e 79 73 bd be
       -0.3053051 0.08719101 0.21266794 -0.3700216
000060 2c b1 9f bd 20 70 5d be ac 72 a7 bc 81 35 2f be
       -0.07797465 -0.21624804 -0.020440422 -0.17110254
000070 af e1 16 be 1a e2 e7 bd 36 51 b5 be f0 7a a1 3e
       -0.14734529 -0.11322422 -0.35413522 0.31539106
000080 12 9a a3 3e ce 3b 69 bd 85 64 2a bd 1d 5d 10 be
       0.31953484 -0.0569418 -0.04159977 -0.1409802
000090 8d 16 a8 be 4f e1 b5 be e2 c0 1b 3e fd 84 49 be
       -0.32829705 -0.3552346 0.15210298 -0.19679637
0000a0 79 6c 6d be 03 8f a2 bc ac 93 0f be a1 94 0a be
       -0.2318591 -0.019843584 -0.14021176 -0.1353326
0000b0 a8 8d 01 3a fb 6c b8 bd e3 09 0e be 36 3c 40 be
       0.0004942068 -0.090051614 -0.13870959 -0.18772969
0000c0 ed 0d a0 be 9f 1e 77 3e f2 89 6b be d8 19 81 3d
       -0.31260625 0.24132775 -0.2300184 0.063037574
0000d0 d6 31 6c be 6f 4c 94 3c 05 cb 88 3e bd cf df 3d
       -0.23065886 0.018102853 0.26717392 0.10928295
0000e0 b2 ce 7a be a5 21 4e 3e a4 3a d3 3e 66 29 16 3e
       -0.2449291 0.20130022 0.41255677 0.1466423
0000f0 1b 08 92 3e c1 c4 df 3e 44 43 37 bb af 0a 7d 3c
       0.2852181 0.437048 -0.0027963677 0.015444442
000100 7e 50 8d be 6b 72 d2 bd ad e3 7d 3e b0 ef 1e 3e
       -0.27600473 -0.1027573 0.24793883 0.15521121
000110 12 ec 8b be 75 c9 a9 be 16 76 74 be 9d 6f b4 be
       -0.27328545 -0.33161512 -0.23873171 -0.35241404
000120 17 59 8a be 20 24 91 bd 01 85 8e 3e ed 90 b4 3d
       -0.27021095 -0.070869684 0.2783585 0.08816705
000130 fc 24 86 be 3d a1 99 be 1d 7d 3b 3e 2b da 93 be
       -0.26200092 -0.30005828 0.18309446 -0.28877386
000140 19 fb a7 bd b5 28 56 3e 08 fb 5f be 3f 3f ac bd
       -0.0820219 0.20913966 -0.21873105 -0.08410501
000150 48 23 6b 3d f3 48 4e bd a1 49 f1 bd 74 71 8f be
       0.057406694 -0.05036254 -0.11781622 -0.28016245
000160 26 cc 91 be 72 a5 46 be 2a f7 cb 3e dd 9b 45 be
       -0.28476065 -0.1939905 0.3983701 -0.19297738
000170 58 0b 88 be 29 f1 97 3d 5a 4c ae 3d 07 8e 3c 3e
       -0.26571155 0.074190445 0.08510657 0.18413554
000180 2c e1 84 3e 37 56 38 3e ca 4f b2 be e3 d9 af 3d
       0.25953043 0.18001638 -0.348265 0.085864805
000190 65 08 75 3e 3d 1c 6f bc a1 3c 19 be 96 65 ba 3e
       0.23928984 -0.014594135 -0.14964534 0.3640563
0001a0 21 ae 04 be 60 c1 51 be f7 e5 a8 be 2b 17 e4 3c
       -0.1295705 -0.20483923 -0.3298795 0.027843079
0001b0 6b 0b 36 3e af 8e bc 3d 7e d5 ae 3d 99 79 8d be
       0.17777793 0.09206902 0.08536814 -0.27631834
0001c0 4c b9 b4 be 28 18 da 3b c6 74 b0 3e 03 4a 5f 3e
       -0.3529762 0.0066557117 0.3446409 0.21805577
0001d0 6c 58 61 be 4d f6 48 bd 7c a8 8e be 40 fc 7f be
       -0.22006387 -0.049063016 -0.27862918 -0.2499857
0001e0 28 e9 9f 39 d3 84 11 3e b2 29 79 3e 5a 00 b7 be
       0.00030500558 0.14210825 0.24332312 -0.35742456
0001f0 c0 12 24 3e dc 0c 90 be a3 a2 54 3e 3a 71 c6 3e
       0.16022778 -0.2813481 0.20765166 0.3875826
000200 f0 77 6d 3b 97 82 eb 3e d1 ea 9b be b8 9a a1 bd
       0.0036234818 0.4599807 -0.30452588 -0.078908384
000210 11 6f a7 3e 64 aa df bd 91 74 d7 bd 38 01 42 be
       0.32701924 -0.10921171 -0.1052028 -0.18945777
000220 09 41 61 3e da 56 34 3e 1c 07 ac 3d c4 0f 88 be
       0.21997465 0.17611256 0.083997935 -0.26574528
000230 00 10 c0 be 4f 7d cb bc 9f c9 2e 3d 98 d1 75 be
       -0.37512207 -0.024840025 0.04267275 -0.24005735
000240 fb 85 31 be 22 ea 3f 3e e8 37 0f bd c6 a3 01 3d
       -0.17336266 0.18741658 -0.034965426 0.031650327
000250 b4 1d 9c bd db 19 a6 be 70 2e ab be 47 5e 22 be
       -0.07622853 -0.324416 -0.33433867 -0.15856276
000260 ad 22 2b be 75 d5 15 3e 89 ba ed bd 21 a2 1c be
       -0.16712447 0.14632209 -0.116078444 -0.15296222
000270 67 9d b7 3e 82 e4 06 3e ff 8a 8b 3e ce e2 35 be
       0.35862276 0.13173106 0.27254483 -0.177623
000280 da a8 14 be e0 a7 1d 3e 4a 12 72 be e9 f0 6f be
       -0.14517537 0.1539607 -0.23639789 -0.23431744
000290 26 ab c2 bb 1d e4 03 be f9 e4 8c be eb af 69 3e
       -0.0059408126 -0.12879987 -0.27518442 0.22821014
0002a0 d2 11 8c 3e 4c f2 0f bd b8 18 13 be 77 e5 d8 be
       0.27357346 -0.03514318 -0.14364898 -0.42362568
0002b0 08 b5 05 be c8 91 bd 3c 79 fe 24 3e 56 38 3c bd
       -0.13057339 0.023140803 0.16112699 -0.045952164
0002c0 86 3d 14 be ce 96 5c 3e 2d cd 96 be f8 fa 7f 3e
       -0.14476594 0.21541902 -0.29453412 0.2499808
0002d0 cf 19 0a be 7b cc a4 3c d8 36 02 be db b3 a0 bb
       -0.13486408 0.020117035 -0.12716234 -0.004904253
0002e0 8f 4d 27 be e2 2f 67 3e 51 e1 67 bd b1 2e 7f 3e
       -0.1633818 0.2257686 -0.056611363 0.24920155
0002f0 69 d2 a3 3e 4f 37 26 be 1d 6b 52 be 19 38 c8 3e
       0.31996468 -0.16232036 -0.20548673 0.391053
000300 bc 77 cd 3e b7 2c b4 bd b7 bf 70 3d 27 65 64 be
       0.40130413 -0.08797591 0.058776584 -0.22304212
000310 90 62 90 be 20 91 aa 3d 4c ea 1d 3e 85 3c f8 3d
       -0.28200197 0.08328462 0.15421408 0.12120918
000320 dc e6 f3 bd b6 56 c1 3e 3b 65 e3 3d 81 23 7c be
       -0.11909267 0.37761468 0.111032926 -0.24622919
000330 8a 81 44 bd ff 1a 9c 3d 36 f1 ee 3d 32 9f 8d be
       -0.0479751 0.076223366 0.11667101 -0.2766052
000340 b1 e7 10 3e 58 0d 44 be 49 10 9c be e5 2d 4c be
       0.14150883 -0.19145715 -0.30481175 -0.19939382
000350 24 d9 bd 3e e9 ea a7 3e 45 f1 ae 3e 2a b4 65 3e
       0.37079728 0.3279641 0.3416845 0.22432008
000360 45 2d 92 3e 1b a6 85 bd 2c eb 6c be 4f 67 23 3e
       0.28550163 -0.06525823 -0.23136586 0.15957378
000370 6f d0 61 be 35 ac 91 be 86 f2 64 be 51 41 0c 3d
       -0.22052167 -0.28451696 -0.2235814 0.034241978

recurrent._temporal_conv1.conv_2.bias f4 [32]
000000 24 df 5b 3e 7e 19 0f be 53 e1 5d be d1 2a 5e 3d
       0.2147184 -0.13974568 -0.21667986 0.05424005
000010 84 26 5e be 0c 6e 47 be a0 ba 3d 3e b8 35 01 be
       -0.2169438 -0.19475573 0.18528223 -0.12618148
000020 44 55 bf 3e de e5 b4 3e 0b da 05 3e f3 94 2f 3e
       0.3736974 0.35331625 0.13071458 0.17146663
000030 78 68 07 3e ea 49 17 bd a9 9c c0 b9 98 de 83 3c
       0.13223445 -0.036935724 -0.00036737815 0.016097352
000040 58 87 10 3e 7b c5 85 3e c6 81 a4 3c 82 3d 4a be
       0.1411413 0.26127228 0.020081412 -0.19750026
000050 a4 87 00 be 3f a7 1d be 3b 93 5b 3d 52 45 91 3e
       -0.12551743 -0.1539583 0.053607207 0.283732
000060 ff bf 87 3e 68 11 4f 3e 2a 9f a8 be a6 d0 ec bd
       0.2651367 0.20221484 -0.32933933 -0.11563234
000070 ea a8 eb bc 73 b4 d5 bd e1 4d 33 3d d7 2e c2 be
       -0.028767068 -0.104348086 0.043775443 -0.3792636

recurrent._temporal_conv1.conv_3.weight f4 [32, 1, 1, 7]
000000 af 27 11 3e 2b bf 83 be 57 ff 5b be cb e8 94 be
       0.14175294 -0.25731787 -0.21484123 -0.29083857
000010 4e ee b7 3e 30 2a a9 be a9 0a a3 3e 9f d3 7b 3b
       0.35924 -0.3304 0.3184407 0.0038425697
000020 0c 30 ea bc c4 7e 7f 3e 85 82 c0 bc 58 14 7a 3e
       -0.028587364 0.24950701 -0.023499737 0.24421823
000030 c7 ad 8e 3e 37 32 a7 be b3 3b 1f 3e 73 8c a4 3d
       0.27866957 -0.32655498 0.15550117 0.08034601
000040 ca 06 b8 3d 92 4d 80 3d 06 62 e2 3d 4a fd 33 be
       0.0898567 0.06264795 0.11053853 -0.17577091
000050 cc a4 2f bd bc 26 b9 3e 89 2d 82 3e 9b 86 85 bc
       -0.042881772 0.36162364 0.25425366 -0.016299536
000060 a6 39 b8 be 79 74 1b 3c 49 be 88 be d1 d6 96 3e
       -0.35981482 0.009488218 -0.26707676 0.29460767
000070 00 a8 74 be 3f d4 10 bd a3 a0 bb bd 41 52 79 3d
       -0.23892212 -0.035358664 -0.091614984 0.06086946
000080 5b 7f b3 3e 22 6b 02 3d a7 23 5d 3e f1 f2 94 3e
       0.35058102 0.03184045 0.21595632 0.290916
000090 60 50 9a 3e 86 3d 0b be ca 5a bb bd 05 bc 31 3e
       0.30139446 -0.13597688 -0.09148176 0.1735688
0000a0 07 b8 e8 bd fd 63 28 3e 69 7f be bd 4b c7 87 be
       -0.113632254 0.16444393 -0.09301645 -0.26519236
0000b0 c1 0e 16 3e 17 6f 57 3d 41 ce 28 3e 2e 73 bf 3e
       0.14654066 0.052596178 0.1648493 0.37392563
0000c0 35 61 84 3e 72 db c9 3e bc d6 b4 3c 42 a9 a7 be
       0.25855413 0.39425236 0.02207505 -0.3274632
0000d0 af 31 91 be 12 b3 6f be b3 16 b5 be 45 0e 5a be
       -0.28358218 -0.23408154 -0.3536888 -0.21294506
0000e0 92 31 91 be e0 e1 9e be 1f 27 36 be 81 6b a9 be
       -0.28358132 -0.31031704 -0.17788361 -0.3308983
0000f0 13 a6 5a be 1e 88 4f 3e c4 e1 b6 3e d0 84 bb bd
       -0.21352415 0.20266768 0.3571912 -0.09156191
000100 e1 cf 09 bd 6e 9a 8a 3e dd 07 1f be e3 83 e2 bd
       -0.033645514 0.27070946 -0.15530343 -0.11060312
000110 0e 18 95 3e 4e 96 8f be 21 7a 2b 3d ea 34 a8 3e
       0.29119915 -0.2804436 0.041864518 0.3285287
000120 24 b4 6d 3d c1 54 c2 3d 75 a6 6a be 89 13 81 bc
       0.058033124 0.09488822 -0.22915061 -0.015756385
000130 bf 81 0e 3c 8d ed 07 3e 3a f2 38 3e 8b 73 b2 3e
       0.008697926 0.13274212 0.18061152 0.34853777
000140 c8 67 93 be bb 0c 75 3d ef d4 4d be 66 a1 a4 be
       -0.28790116 0.059826594 -0.20100759 -0.32154387
000150 f6 e0 c1 3c 10 4d a2 be 84 f8 9a 3e ff e2 93 3d
       0.02366684 -0.3169942 0.30267727 0.072210304
000160 a1 4d 52 be 62 92 4f 3e 13 58 b2 be 4e 0a 1e be
       -0.20537426 0.20270684 -0.3483282 -0.15433618
000170 f6 e9 a0 bd 88 46 a5 be 38 33 74 be 2c ba 66 bd
       -0.078571245 -0.32280374 -0.23847663 -0.05632989
000180 b1 68 97 3e 55 96 c1 3e bf 93 60 3e 61 da 8b be
       0.2957206 0.37810007 0.2193136 -0.27315047
000190 7f 66 85 be 4c 2f 9d 3e 7c 6b 84 3d 26 ad b4 3b
       -0.2605476 0.30700147 0.064658135 0.005513805
0001a0 e9 4f 1c 3d 23 31 a1 be 20 b0 0c be bf 8a b4 3e
       0.038162146 -0.314828 -0.13739061 0.35262105
0001b0 87 86 d5 bd 28 07 f1 bc f2 61 a6 be d2 d3 63 be
       -0.1042605 -0.029422358 -0.324966 -0.22248772
0001c0 4a e6 fc bb 2c 69 70 be 0b fc 3f bd f8 81 1d 3e
       -0.0077178823 -0.2347762 -0.046871226 0.1538161
0001d0 73 4b bd be 94 e8 e5 3d 3e e9 7f be 01 dc 95 bd
       -0.36971626 0.112260014 -0.24991319 -0.07317353
0001e0 3b fa 66 3e 99 b1 ce 3e 61 6a 8d bc 93 61 ef bd
       0.22556393 0.4036987 -0.01726264 -0.11688533
0001f0 89 04 66 be 75 8f 1d be db 55 ab be 00 0b ae bd
       -0.22462668 -0.15386756 -0.3346394 -0.08498192
000200 71 75 a5 3d 21 e2 c7 be 2d 0d ad 3e 92 12 69 3e
       0.08079041 -0.3903971 0.33799115 0.2276099
000210 8c 80 d7 be 85 61 f9 bd 5c a0 2d 3e cc 5f 44 3b
       -0.4209026 -0.121768035 0.16955703 0.0029964326
000220 60 66 76 3c 82 3d 0d be cc 7a c5 3e 0a d7 0a be
       0.015039057 -0.13792995 0.3857025 -0.13558593
000230 60 d3 a1 3e 52 09 d7 3c 50 3e 9e 3d 9f 49 97 3e
       0.3160658 0.026249561 0.07726729 0.29548356
000240 3d b9 7f bd f7 44 5d be c1 55 80 bd 26 f5 9a 3e
       -0.062432516 -0.21608339 -0.06266356 0.30265158
000250 db 93 92 be 27 7a a0 3d 7b 30 c3 be 07 cf 3f 3e
       -0.2862843 0.07835799 -0.38122925 0.18731318
000260 ea 60 01 3e a6 83 e1 b9 ab 24 16 3e 54 99 53 bc
       0.12634626 -0.0004301343 0.14662425 -0.012914974
000270 91 93 4b 3e b7 f9 9c be 06 e9 73 bd 49 ef 2a 3e
       0.19880511 -0.30659267 -0.0595484 0.16692843
000280 59 0d c2 3e a2 fd 56 3e d4 b8 83 be 52 6c 9c 3e
       0.37900808 0.2099519 -0.2572695 0.30551392
000290 52 39 8e bd 32 19 8d bd df 33 aa be b7 bf 54 bd
       -0.06944527 -0.06889571 -0.332427 -0.051940646
0002a0 c8 e9 76 3e 57 8e ab 3d f8 b3 4e be ce 91 05 3e
       0.24112618 0.083767585 -0.2018584 0.13043901
0002b0 7c e3 25 be e4 3c b9 3e d8 a5 b5 be 8e f2 0d be
       -0.1620006 0.36179268 -0.3547809 -0.13862059
0002c0 61 e5 c3 be f8 0d 29 be 67 38 d6 3d 83 db b3 3e
       -0.3826094 -0.16509235 0.10459977 0.35128412
0002d0 e8 f0 59 3d c2 78 b9 3e 0d 61 33 3d 70 75 43 3e
       0.05320826 0.36224943 0.043793727 0.19087768
0002e0 83 a6 8e 3e 2e 00 97 3e 41 e1 6a be e0 db aa 3e
       0.27861413 0.29492325 -0.2293749 0.33370876
0002f0 20 6d 60 3e 48 5e 34 be 95 a5 21 be c0 70 89 be
       0.21916628 -0.1761409 -0.15785821 -0.26843834
000300 4c 2e 0a 3e 95 8b 2e be 3e a8 58 3e 95 0f 6f 3e
       0.13494223 -0.17045434 0.2115793 0.23345788
000310 01 fa a1 be 48 a4 c0 3d 68 89 30 bc 4e 1a 33 3e
       -0.3163605 0.09406334 -0.010774948 0.17490503
000320 40 7f 5b 3e 4e a1 b6 be 9d 41 bc 3e 2d e3 b6 3e
       0.21435261 -0.3566994 0.3676881 0.35720196
000330 56 4f 46 3e da 1c a2 be 71 43 d6 bd d6 2a b2 bd
       0.19366202 -0.31662637 -0.10462082 -0.086995766
000340 40 70 ae bd 97 3a 63 3e 43 6d 16 3e 16 65 9d 3e
       -0.08517504 0.22190319 0.14690118 0.30741185
000350 04 81 0a be 3f 22 07 3e 8d e2 0c 3e eb a6 a0 be
       -0.13525778 0.13196658 0.13758297 -0.31377348
000360 c4 43 bc be e0 98 46 be 07 7b 89 3e d8 7a ba be
       -0.3677045 -0.19394255 0.26851675 -0.36421847
000370 5d 1c a1 be b7 50 62 3e 68 71 92 3e 8d 6b a8 3e
       -0.31466952 0.22101103 0.28602147 0.32894555

recurrent._temporal_conv1.conv_3.bias f4 [32]
000000 15 0b 8a be 88 ff 91 be 89 55 48 3e fd 65 a2 3e
       -0.2696158 -0.28515267 0.19563879 0.31718436
000010 5d 32 61 3e db 6b 47 3d c9 44 00 3e 35 95 b1 3e
       0.21991868 0.048686843 0.1252624 0.34684148
000020 b7 5d 66 be 72 eb 02 be 51 db 80 3e 8c 7b 33 be
       -0.22496687 -0.12785128 0.25167325 -0.17527598
000030 68 f2 41 be 98 44 94 3e c4 57 bc 3d 1b 24 e3 3d
       -0.18940127 0.28958583 0.091964275 0.11090871
000040 95 0a 24 be 9d c5 d0 3d a5 eb a3 3e c7 bc 0f be
       -0.16019662 0.10193942 0.3201572 -0.14036857
000050 be bc 4c 3b f6 f3 27 3e 1c 9b 86 be bc 9b bb 3e
       0.0031240429 0.16401657 -0.26290214 0.36642253
000060 91 ac 53 be fe a9 b3 bd ca 5b d6 bd 51 4e 4e be
       -0.20671298 -0.08772658 -0.10466726 -0.20147063
000070 d2 75 b5 be 7a c7 82 3e f7 d8 c4 3d 9b cb ae be
       -0.35441452 0.25542814 0.09611695 -0.34139714

recurrent._graph_conv.bias f4 [32]
000000 b5 28 27 bc 73 a5 9e 3c 00 00 00 00 96 11 19 bb
       -0.010202576 0.019366002 0.0 -0.002335643
000010 5e 90 86 bb 66 5a c8 bb 48 ce 8e ba 07 aa 9b bc
       -0.0041065654 -0.006114292 -0.0010895217 -0.019001974
000020 d6 77 1d 3d e6 2b b2 3b ae 02 39 3c 30 c7 45 3d
       0.038444363 0.005437362 0.011292143 0.048285663
000030 c5 e0 db 3c 7f f8 37 bc be 3b db bb d1 ee e0 bb
       0.026840577 -0.01122868 -0.0066904714 -0.0068644066
000040 0b 9a 8f 3c de 63 8f 3a 3e c9 16 bb 0b 9f 08 3c
       0.017529508 0.0010939797 -0.0023008133 0.0083387
000050 c2 37 71 bc 69 4d 5f bc cc d9 c6 3d ed 34 2e 3d
       -0.014722766 -0.013629296 0.0970951 0.042530943
000060 97 6c 42 3c d4 16 6e 3b b5 ca a1 bb 74 29 8d bc
       0.01186671 0.0036329525 -0.0049374946 -0.01723168
000070 39 f9 e0 bb e5 fb a0 bb 83 bf ac 3b 23 78 19 3c
       -0.006865647 -0.0049128407 0.0052718534 0.009367022

recurrent._graph_conv.lins.0.weight f4 [32, 32]
000000 33 f2 52 3e cf d6 09 be e2 b2 0c be eb 1c 67 3e
       0.20600204 -0.13460849 -0.13740113 0.22569625
000010 94 d8 d7 3d d0 56 28 be df 47 b6 3d 40 9f a9 3d
       0.10539356 -0.16439366 0.08900427 0.08282328
000020 bf 32 8c be 32 32 15 3d 1e 8e 9b 3d 4a d8 57 3d
       -0.27382466 0.036424823 0.07595466 0.052696504
000030 ac f1 a8 3e 88 fd 66 be 0d 47 63 3e 08 8e 26 be
       0.3299688 -0.22557652 0.22195072 -0.16265118
000040 a3 35 86 be a4 8a 83 3e 4e 83 14 be df f3 11 3e
       -0.26212797 0.25691712 -0.14503214 0.14253186
000050 68 66 2b 3e 52 93 88 be 55 d9 88 be f0 a1 5e 3d
       0.16738284 -0.26674896 -0.2672831 0.054353654
000060 52 53 e6 3e 33 b5 59 bd 57 46 64 3e db 50 16 3e
       0.44985443 -0.05315132 0.22292458 0.14679281
000070 ad 4f b5 3d f6 01 38 be 59 57 b3 3e 5a 0a 4f 3e
       0.088530876 -0.17969498 0.35027578 0.20218793
000080 19 5f d4 bd 1c 41 66 3e ea 75 7e be 28 dc aa 3d
       -0.10369701 0.22485775 -0.24849668 0.08342773
000090 7d a8 27 be 08 2d 80 bc fc 54 d5 3d f7 e3 3b 3e
       -0.16372867 -0.015646473 0.104166 0.1834868
0000a0 d4 9c f8 bc d9 18 26 be a7 b4 2d be 11 bf a8 bc
       -0.030348219 -0.16220416 -0.16963445 -0.02059892
0000b0 15 15 40 be a8 5e bb be 5f 25 85 3e 04 40 2c 3d
       -0.18758042 -0.36595654 0.26005074 0.042053238
0000c0 3a c8 5e be 3a cc 47 3e f3 d3 4a 3e 31 9c 85 be
       -0.21756068 0.195115 0.19807415 -0.26095727
0000d0 0b f9 32 3e fe c4 2c be fb 00 ab 3d 38 ac b0 3e
       0.17477815 -0.16872022 0.083497964 0.34506392
0000e0 4b ac 20 3e eb ff 9f 3d 94 2f 6b bd 86 0e 01 be
       0.15690725 0.07812484 -0.05741842 -0.12603197
0000f0 c4 c4 1d 3d 8d d5 d8 3d 40 0b de 3d 77 51 a5 bd
       0.03851773 0.105876066 0.108419895 -0.08072179
000100 8c fb fd bd 19 3b 31 be ad ab 90 be ab a0 7f be
       -0.124014944 -0.173077 -0.28255978 -0.24963634
000110 7d cf 44 be 35 da 95 3e db f8 7a 3d a1 d0 8d be
       -0.19219775 0.2926804 0.061272483 -0.27698234
000120 eb 44 20 be 72 78 92 3d 91 af bb bd 9b 7f b1 bd
       -0.1565129 0.07151879 -0.09164346 -0.08666917
000130 50 79 eb bd c2 27 99 bd 93 42 10 3d 1d 89 94 3c
       -0.11497748 -0.07478286 0.03521974 0.018131787
000140 bc 70 49 3e fb a4 48 3e a8 04 81 3e 0d 95 1f bc
       0.19671911 0.19594185 0.25198865 -0.009740126
000150 db ff 0b be 53 f2 88 3a 8d a0 4f be 1a 46 00 3e
       -0.1367182 0.0010448195 -0.20276089 0.12526742
000160 f7 4f 17 bd e9 d5 c8 bd c2 e8 84 be f7 18 17 3e
       -0.036941495 -0.09806425 -0.2595883 0.14755617
000170 e3 01 2f 3e e5 01 8f 3e e5 26 de bd 4f f1 bc 3d
       0.17090563 0.27931133 -0.10847262 0.092257135
000180 cf 18 3d 3c fb 3e 51 be 68 90 46 be 2b 28 1e 3e
       0.011541559 -0.20434181 -0.19391024 0.1544501
000190 d9 be 37 be ed cc 5e 3e 1f 76 d0 3d 6d d8 d3 3d
       -0.17943896 0.2175786 0.1017878 0.10344014
0001a0 a7 e2 13 3e 69 3c 37 3e bb 92 04 3e 8d 4c 2d 3e
       0.1444193 0.17894138 0.12946598 0.16923733
0001b0 c1 0d 05 be 62 1d 27 be b3 ee 8b bd 84 10 2e 3e
       -0.12993528 -0.16319802 -0.06832638 0.16998488
0001c0 8f 6b 5b 3e db 44 62 3e 0a 8d cb bd 8b 21 1f bd
       0.21427749 0.22096579 -0.099390104 -0.03885035
0001d0 d6 b3 5c be 60 3e 3d 3e 29 cf 5e be a9 d5 02 be
       -0.21552977 0.18480825 -0.21758713 -0.12776817
0001e0 fc 73 81 3e a8 14 90 3d 0b e0 0b be 1c 20 53 be
       0.25283802 0.0703519 -0.13659684 -0.20617718
0001f0 f1 c0 72 be cf 0c 7f 3e a3 27 90 be 71 7a 80 3e
       -0.23706414 0.2490723 -0.2815524 0.25093415
000200 38 ed 86 3e 90 75 27 3c 49 97 01 bd f7 95 6f 3e
       0.2635286 0.0102209 -0.031638417 0.23397051
000210 bf 3e 07 3e 4a 98 90 3e a4 4a 77 3e 61 c7 62 be
       0.1320753 0.28241187 0.24149567 -0.2214637
000220 7a ae 31 3e 4d 86 19 3e b8 07 65 be da 32 35 3e
       0.17351714 0.14992638 -0.22366226 0.1769518
000230 80 d3 5c be d4 c3 03 be 1a ca 36 3d 40 1c 1a bd
       -0.21565056 -0.12867671 0.044626333 -0.037624598
000240 7e 9b a8 bd 05 80 04 be 5c 8a 15 3e 84 e7 a0 3e
       -0.08232783 -0.1293946 0.14603561 0.31426632
000250 80 c3 9d bd 8d e7 57 be a6 5a ba bc aa f8 88 be
       -0.07703304 -0.21084423 -0.022748303 -0.26752216
000260 51 d3 2e be 5d 8a c9 bd 33 40 3e 3e ea ac 3d be
       -0.17072798 -0.09840844 0.18579178 -0.18522993
000270 72 9c 0c be 29 45 16 be c6 54 99 be 1c dc f2 bd
       -0.13731554 -0.1467482 -0.2994749 -0.11858389
000280 18 01 84 3d df ea 61 bd 06 b5 5e 3e ba b1 ed 3d
       0.06445521 -0.05515563 0.21748742 0.11606164
000290 4a 5e 42 3e 54 c7 ec 3d e3 c6 f1 3c bf 35 02 3e
       0.18981281 0.11561456 0.029513782 0.12715815
0002a0 57 43 92 be a5 b4 dd 3d f3 de 0d 3e 83 d6 21 be
       -0.28567 0.10825471 0.1385458 -0.15804486
0002b0 5d de 1f 3e 32 81 3e be ea a8 91 be 17 60 83 3c
       0.15612169 -0.18603972 -0.28449184 0.01603703
0002c0 6c 8f 60 3d 4a 0c 94 be a1 5e 77 3d 8c b7 32 be
       0.054824278 -0.28915626 0.06039298 -0.1745283
0002d0 09 39 32 be d4 95 54 3e 01 ce 98 be 6e 52 db 3c
       -0.1740457 0.2076028 -0.29844669 0.026772704
0002e0 b3 f7 38 3e fc 1e 71 3e 94 ea cf 3d 36 9c f8 be
       0.1806324 0.23546976 0.10152164 -0.4855668
0002f0 ef b1 01 3e 13 b6 13 be 9a d5 ec bd e8 bd 4d 3e
       0.12665533 -0.14424925 -0.11564179 0.20091975
000300 80 9e a9 bd 38 3d 65 be 9c 35 80 be c1 11 43 3e
       -0.082821846 -0.22386634 -0.250409 0.19049741
000310 9b e5 8c 3c b8 1c 99 3e 1f 93 7c 3d 6d bd 95 be
       0.017199328 0.29904723 0.061663743 -0.29246083
000320 0e c1 65 bc 6d 77 3f 3e ba 5b 3d 3e 63 a3 d3 3d
       -0.014023079 0.18697901 0.18492022 0.10333898
000330 ae 13 58 be ce e9 d9 bd 50 a0 6f 3e fb 75 43 be
       -0.21101257 -0.10640298 0.23400998 -0.19087975
000340 35 0e 8f 3d 1e 57 28 be f4 1f cf 3d 2a 3b 8a 3c
       0.06985132 -0.16439483 0.101135164 0.016873915
000350 03 a3 75 be 69 f5 fb bd d9 a4 87 3e d5 b5 07 3d
       -0.23987965 -0.12302668 0.26492956 0.033132393
000360 4b 4d 32 3e bb 5b 13 be 5e 92 75 3e df d5 83 be
       0.17412297 -0.14390461 0.23981616 -0.25749108
000370 35 65 f8 bd 03 8c 38 3d ca 70 0d be f7 ec 24 be
       -0.12128679 0.0450554 -0.13812557 -0.1610602
000380 1a d8 cb bc 8d 50 3e bd bc 3a 4d be 1a 6f ab 3d
       -0.024883319 -0.046463538 -0.20041937 0.083708
000390 63 e9 a0 be 22 8c 26 3e d5 2c 86 3e db 91 a9 3c
       -0.3142806 0.16264394 0.2620608 0.020699432
0003a0 2c 23 a4 bd 42 51 e0 be 66 27 f3 3d 0c 51 4d 3e
       -0.08014521 -0.43811995 0.11872749 0.20050448
0003b0 c3 56 6e 3e fd a2 83 3d cb b8 c2 3d db e4 a0 3e
       0.23275284 0.06427572 0.09507903 0.31424603
0003c0 21 31 3b 3d e8 12 6f be 1f a9 a6 be e8 60 19 3d
       0.04570115 -0.23347056 -0.32550904 0.037445933
0003d0 04 8e b7 3d c3 45 81 3e ab 8d 3c be 68 9e de 3d
       0.08962634 0.25248536 -0.18413417 0.10870057
0003e0 0f bb fa bd 88 39 a5 bd 0b 3a 1d 3e 75 86 4b be
       -0.1224271 -0.08067614 0.15354173 -0.1987551
0003f0 b9 0f 40 3e cd 43 c6 3d a3 58 6f be 6a 36 21 3e
       0.18755998 0.09680901 -0.23373656 0.15743414

recurrent._graph_conv.lins.1.weight f4 [32, 32]
000000 f9 05 7e be c2 54 9c 3d 02 40 4e 3e e1 21 c4 bc
       -0.24806966 0.07633354 0.20141605 -0.023941936
000010 f5 c6 b1 3d 40 97 03 3e 74 df 97 be f8 56 ac 3c
       0.08680526 0.12850666 -0.2966267 0.021037564
000020 da ec e0 bd 23 99 09 be bc 48 3b 3e b2 16 77 3e
       -0.10982676 -0.13437323 0.18289465 0.24129751
000030 63 42 87 3c cd d2 5c 3e c7 c6 90 be 3e f2 5c 3d
       0.016511148 0.21564789 -0.28276655 0.053941958
000040 41 33 22 bd 01 58 71 be 61 16 76 3d 22 92 f0 bc
       -0.03959966 -0.23568727 0.060079936 -0.029366557
000050 80 ae 9e bc cf 48 10 3e 31 aa 1d 3e 7a 66 a9 3e
       -0.019370317 0.14090274 0.15396954 0.33085996
000060 15 6c 28 be dd 29 0c 3d c7 52 23 bc a5 0b a0 3b
       -0.1644748 0.03421961 -0.009968466 0.0048842006
000070 e1 2f 49 be d9 94 50 bd da 10 a2 be 42 95 8c be
       -0.1964717 -0.050923202 -0.31653482 -0.27457625
000080 52 2c f4 bd 47 81 5e 3e f6 05 44 be 33 0a 2f bd
       -0.11922516 0.21729003 -0.19142899 -0.042734336
000090 9a eb 54 3d d7 da 81 3e 0c a1 09 3e 08 9b 8a be
       0.0519825 0.25362274 0.13440341 -0.27071404
0000a0 c6 b7 cc 3e ba 7f bc be 3e 8e 8a 3c db db 9a 3e
       0.39983958 -0.36816198 0.01691353 0.3024586
0000b0 f7 d9 cb 3e bf 74 2d 3d a8 ca 26 be 71 f8 03 3e
       0.3981473 0.042347666 -0.16288245 0.12887742
0000c0 2d b1 71 3e 28 d0 69 be 40 52 ef bd 46 61 a3 bd
       0.23602743 -0.22833312 -0.1168561 -0.07977538
0000d0 41 e1 c0 3d 33 7a 2c 3d 7c 40 30 3e 03 ea 21 be
       0.09417964 0.042108726 0.17212099 -0.15811925
0000e0 b8 4b 80 be ca 03 62 bd 9c 88 7b be ac 35 de 3d
       -0.2505777 -0.055179395 -0.24563831 0.10850081
0000f0 7e 63 34 3e 17 b8 93 be a8 aa 41 be 01 60 36 be
       0.17616078 -0.28851387 -0.18912756 -0.1781006
000100 a9 2f 5e be 8d 84 5b be 08 82 d5 bd 71 dc 1e be
       -0.21697868 -0.21437283 -0.10425192 -0.15513779
000110 d7 0a 41 3d 44 aa 3f 3e f2 69 6c 3e 4e 93 c5 3d
       0.04712948 0.18717295 0.2308729 0.09647237
000120 92 c7 04 bb f5 7d 5f bd 14 e4 54 3e 24 92 33 be
       -0.0020260555 -0.05456348 0.2079013 -0.17536217
000130 32 a0 62 3e 00 f0 96 be 56 03 6a be d0 56 a6 3d
       0.22131422 -0.2947998 -0.22852835 0.08122027
000140 ae 22 01 be 5c fc 69 3d 69 97 88 3e 81 33 0f 3e
       -0.12610886 0.057125434 0.26678017 0.13984491
000150 63 70 99 3e be cd 04 be e9 b8 15 be 68 3d 1f bd
       0.29968557 -0.1296911 -0.14621319 -0.03887692
000160 54 95 7c bd 18 ea 09 be c0 ba 9b bc 73 a0 8d 3e
       -0.061665848 -0.13468206 -0.019009948 0.27661476
000170 d0 dd 2b be 63 13 30 3e b5 a6 11 3e d4 92 35 3e
       -0.16783834 0.17194895 0.1422375 0.17731792
000180 eb 2b a9 3d 71 f9 d4 bd 17 dc 03 3e c1 5b 11 be
       0.0826033 -0.1039914 0.12876926 -0.14195158
000190 76 e3 3c be 6f 3e 95 3e 15 87 84 3e 00 80 61 be
       -0.18446144 0.29149196 0.2588431 -0.22021484
0001a0 3f be 9c 3e 4a 17 0c 3d 72 df a5 3d e9 c1 91 3e
       0.30613896 0.034201898 0.080992594 0.28468254
0001b0 4f b4 83 bc b4 ed c5 bd b2 5a 51 3e 12 fb a1 bd
       -0.016077189 -0.09664479 0.20444754 -0.07909216
0001c0 0a 89 96 bd b8 de f3 bd 48 b9 9b 3e 3d 9b 15 3e
       -0.07350357 -0.119077146 0.30414796 0.1461
0001d0 c0 5d 36 bd e8 6c 0d bb 00 71 13 3d 5a 23 38 be
       -0.044523 -0.0021579806 0.035996437 -0.17982236
0001e0 59 0a b2 3d 1d 51 6f be c7 2b c4 bb fd 51 6b bd
       0.0869338 -0.23370786 -0.005986664 -0.057451237
0001f0 64 e3 c9 bd d5 e8 8f 3e 27 fd b2 3d f7 00 25 3e
       -0.098578244 0.28107324 0.08739691 0.1611365
000200 ba d4 59 be c9 63 6b 3d 3f 16 b6 3d 4c b2 26 3e
       -0.21272555 0.05746821 0.08890962 0.16278952
000210 3a 84 b3 bd 9e e2 59 bd f7 d5 78 be 8c b3 53 3e
       -0.087654546 -0.053194635 -0.24300371 0.2067396
000220 03 c1 61 3e 73 d2 1a 3e af 83 25 3e ad fe 20 3e
       0.22046284 0.15119343 0.16163515 0.15722151
000230 c2 9a b0 3e 04 6d 35 3d 1b 65 91 3d 32 3c c5 3d
       0.3449307 0.04429342 0.070993625 0.09630622
000240 3f 0f 31 be 31 3f 15 3c cb 44 ea 3d 72 39 80 be
       -0.17290972 0.009109304 0.114389025 -0.25043827
000250 e1 f8 a6 bd 57 e3 3c be e0 26 41 be 97 52 5a 3e
       -0.08152939 -0.18446098 -0.18862486 0.21320568
000260 1f b5 26 3e 26 19 3d bd 4a 60 cd 3d 4c 84 f2 bd
       0.1628003 -0.04616656 0.10028131 -0.1184164
000270 18 d5 1e 3e 60 88 80 bd b1 53 10 be b5 f5 9f bd
       0.15510976 -0.062760115 -0.14094426 -0.07810537
000280 c4 26 6d 3e 9e b6 64 3d 2c 78 24 be fe 99 2a 3d
       0.23159319 0.05583822 -0.16061467 0.041650765
000290 6a d4 9b be 8a 41 f2 3b e2 ac 73 3e ca c8 9a 3d
       -0.30435497 0.007393067 0.23796418 0.07557829
0002a0 ce 65 28 3e 3d 1b 73 be ae 7b 4c bd 7e 97 5a 3e
       0.16445085 -0.2374086 -0.049922638 0.21346852
0002b0 1d 15 c6 be 58 ed 41 be 7f f0 64 3e f4 b8 93 3d
       -0.38687983 -0.18938196 0.22357367 0.072130114
0002c0 b2 91 12 3e 87 18 6b bd 24 d3 6b 3e 5e 85 fb bd
       0.14313391 -0.057396438 0.23029763 -0.12281297
0002d0 e8 9c 90 3d d9 c1 80 3e 52 f5 8f be 8e 9f df 3d
       0.070611775 0.25147894 -0.28116852 0.109191045
0002e0 73 8b 62 be 1b 17 62 3e c0 e2 be 3d 5e 89 77 3e
       -0.22123508 0.22079127 0.09320593 0.24173495
0002f0 26 8b 52 be d9 d7 1e 3e fe 08 03 be c2 ca c5 3d
       -0.20560893 0.15512027 -0.12796399 0.096578136
000300 08 ee 78 3e bb d7 66 be a2 08 aa bd 0b a2 97 3d
       0.24309552 -0.22543232 -0.08302428 0.07403954
000310 fe 3d 4e 3d 6a dc f0 3b 83 2d 87 3e ef a2 93 bd
       0.05035209 0.007350494 0.2640191 -0.072088115
000320 28 40 2d 3e 04 5e 84 3e 12 ad 5f bd 09 ed 44 3e
       0.16919005 0.25852978 -0.054608412 0.19231047
000330 6b 05 3b 3e 79 b7 6c 3d 73 14 cf bd 07 17 81 3e
       0.18263786 0.05779216 -0.10111322 0.2521288
000340 d7 2a 35 be af 1b 65 3e 92 bd 81 3d d9 9e 63 3e
       -0.17692123 0.22373842 0.06334986 0.22228564
000350 97 4e 7a be 35 32 5e 3d 38 73 32 be e1 2f 28 3e
       -0.24444042 0.0542471 -0.17426765 0.16424514
000360 68 93 b0 3d 6b 39 7f be 71 c2 89 bc 02 e0 8d 3e
       0.086218655 -0.24924247 -0.01681635 0.27709967
000370 66 21 1a 3e 7a d0 94 3e 5c 10 2b 3e 90 81 cb 3d
       0.15051803 0.29065305 0.1670546 0.099368215
000380 35 dd 1d 3e 3d 64 85 be c7 e5 6b 3e d0 ce 79 bc
       0.15416415 -0.26053038 0.23036872 -0.015247062
000390 2c 3e 43 3e 8b 9b e7 3d 7f e1 b8 3b 26 51 7b 3e
       0.19066685 0.11308964 0.0056421156 0.24542674
0003a0 3f 0f 2d be f7 1d 7c 3e 18 08 23 3e bb b9 66 bd
       -0.16900347 0.24620806 0.15921056 -0.05632947
0003b0 99 20 0f 3e fb e8 ae be 4b 9e 17 be be 68 03 3e
       0.13977279 -0.34162125 -0.14806478 0.12832925
0003c0 1b 9a 21 3e e8 27 46 be d5 6b 10 3e ac f6 01 3e
       0.15781443 -0.1935116 0.14103635 0.12691754
0003d0 12 50 a8 3e 3d cd 8e be 84 d4 34 bd 67 6b 1b be
       0.3287359 -0.2789096 -0.044147983 -0.1517769
0003e0 31 86 28 be eb d8 3b bd fa 30 83 be 98 1c 24 3e
       -0.1645744 -0.045861166 -0.25623304 0.16026533
0003f0 89 aa 8e bd 30 b3 1d 3e 58 9f 00 be c5 c2 37 3b
       -0.06966121 0.15400386 -0.12560785 0.0028039676

recurrent._temporal_conv2.conv_1.weight f4 [16, 32, 1, 7]
000000 2f cb 52 3d be c3 27 3c 13 77 27 3d 7f fd c6 bc
       0.051463302 0.01023954 0.040885042 -0.024290798
000010 7f 2f 8b bd 88 f1 0c 3d 22 1d ac 3c 65 54 1a 3d
       -0.067961685 0.03441003 0.021009985 0.03767814
000020 b4 56 a1 3b 92 b8 c9 bc dd a2 9f bd cf ab c6 bd
       0.004923666 -0.024624143 -0.077947356 -0.09700739
000030 b1 85 e8 bc e1 93 e0 3b de 33 aa bb c3 90 b2 bc
       -0.028384062 0.006853566 -0.0051941713 -0.021797543
000040 1c ea 08 3d a0 7f 04 bd e1 23 c1 3c 0c 15 5e bd
       0.03342639 -0.032348275 0.023576679 -0.05421929
000050 25 06 78 bd 15 51 fd bc 39 46 8e bb 9d 0c ea 3c
       -0.060552735 -0.030922452 -0.0043418673 0.028570468
000060 d1 7b 11 3d 7d a2 35 bd da 33 56 bc 08 fd c5 3c
       0.03551847 -0.044344414 -0.013073886 0.024168506
000070 5d 97 e3 bb 54 79 14 3c d9 93 53 3d 5a 7d 2c bc
       -0.006945534 0.00906213 0.05165467 -0.010527933
000080 86 b3 32 3d 0d 0b 83 3d 0a 29 05 3d 00 95 54 bb
       0.04362824 0.06398592 0.03250984 -0.0032437444
000090 c9 fd 09 bd 98 3f 11 bd 3c 40 8c bb ec 27 f2 3c
       -0.033689294 -0.03546104 -0.0042801183 0.029560052
0000a0 35 7b 39 3d de a0 b5 3b 99 fb 7a 3d 21 a5 99 bc
       0.045283515 0.0055428585 0.0612751 -0.018755497
0000b0 44 ab ae 3c 4b 30 d4 bc d6 df d9 3c 9e 28 87 3d
       0.0213219 -0.025901934 0.026595991 0.06599544
0000c0 c4 2c 06 3d ee 2f 52 3c 7e d4 83 bc 5e 48 3d bd
       0.032757536 0.01282881 -0.016092535 -0.046211593
0000d0 3d 65 17 bd 2e 14 46 bd 65 ec 67 3d 51 e9 97 bc
       -0.036961783 -0.04835909 0.056621928 -0.018543871
0000e0 4f 93 78 3d 47 44 88 3c 9d 93 78 3d 5a 9f 13 3e
       0.06068736 0.01663412 0.06068765 0.14416257
0000f0 18 1e e5 3d 04 eb ca 3d 41 c3 21 3e 25 c1 94 3d
       0.111873806 0.09908107 0.1579714 0.07263402
000100 c9 5e 95 3d a3 1d ea bc c3 f4 ca 3c 0e 17 0c bd
       0.072934695 -0.028578585 0.024774915 -0.034201674
000110 c5 9f ca bc 9e e4 95 3d 83 97 7f bc a9 8e 17 39
       -0.024734387 0.07318996 -0.015600088 0.00014453627
000120 c9 67 60 3d 89 3e be 3d 84 41 34 bd ba 12 c4 bc
       0.054786477 0.092892714 -0.044007793 -0.02393471
000130 bb ad 81 bb 16 ea ad 3d 0e c1 8f 3d e8 ca 8e 3d
       -0.003957478 0.08491914 0.07019244 0.06972295
000140 db 48 8d 3d 24 33 b6 3b e8 9f 8c 3d 50 6a 71 3c
       0.06898662 0.0055602957 0.06866437 0.0147348195
000150 92 09 d9 bc d3 2a 54 bd fd e5 ed bb bc 62 08 bc
       -0.026493821 -0.051798653 -0.0072600828 -0.008324321
000160 25 d9 3b bd 39 1e 87 3c d8 6c 7f bd 58 84 bd 3c
       -0.045861382 0.016493903 -0.06235966 0.023134395
000170 4e 11 88 3d 1e e2 32 3d 81 21 98 bc 62 9f cb bc
       0.066439256 0.043672673 -0.018570663 -0.024856273
000180 d5 7f 93 3c 7a 4e 87 3b 0f d0 4c bb d3 f1 11 3d
       0.018005291 0.004129228 -0.0031251942 0.035631012
000190 1d b7 09 3c 33 a4 35 bd 81 f1 7b bd 30 59 52 3d
       0.008405474 -0.044346046 -0.061509613 0.051354587
0001a0 15 b8 8e bc 3f 8e f0 bc ea ae 56 bd 85 44 79 3d
       -0.017421762 -0.029364703 -0.052412905 0.06085636
0001b0 c3 02 fb 3c 5e eb 33 bd d8 34 6f bd f6 41 64 3d
       0.030640965 -0.043925636 -0.058400005 0.055726968
0001c0 0f 78 fa 3d 9a 83 c2 3d 4d ca 7a 3d da 8a 2c 3e
       0.122299306 0.09497757 0.061228085 0.16849843
0001d0 09 5e fa 3d ff 8c 6c 3e 31 be 2e 3e 37 18 58 bd
       0.12224967 0.2310066 0.1706474 -0.052757468
0001e0 95 89 69 bd cc f8 8a 3d 30 82 8b 3d 5d 86 4a bd
       -0.057015974 0.067857355 0.06811941 -0.049444545
0001f0 0e bc 72 3d cb a2 06 bd 0d 6e 5c bd 22 55 26 3d
       0.059261374 -0.032870095 -0.05381589 0.040608533
000200 cb b6 3e 3d 75 9f 3f 3d 12 22 ab 3c fa c2 96 3d
       0.046561044 0.04678293 0.02089027 0.073614076
000210 3f 92 43 bd 5f 75 1f 3d 6b 8a 52 bc 70 d3 41 3c
       -0.047746893 0.038930293 -0.012850384 0.011830196
000220 c0 86 60 3d f4 0b 1f bd a2 0f 1e 3d 4b f0 71 bb
       0.054816008 -0.03882976 0.038589127 -0.0036916907
000230 e9 55 34 3d 9e 84 df 3a 6d 44 07 3d 42 d9 82 3d
       0.044027243 0.0017053073 0.03302424 0.06389095
000240 cf f3 c8 bc a2 03 8e bd 11 f3 78 3d 22 5a de bc
       -0.02453032 -0.06934287 0.06077868 -0.027142588
000250 4f ce cc 3c f0 7d 52 3d 40 61 ed b9 e1 2b 7f 3d
       0.02500072 0.051389635 -0.0004527662 0.062297706
000260 fc 9b 5b 3d de f6 3c bb f1 5f 41 3d 8c a5 07 3d
       0.053615555 -0.0028833668 0.047210637 0.033116862
000270 4c a6 c8 3d 2d 6f 99 3d 7e 96 1b bc ae 4e 33 3d
       0.097973436 0.07491908 -0.009496329 0.043776207
000280 61 c0 8f 3d d2 38 2f 3d 38 0c 41 3c 50 cd 4e 3c
       0.07019115 0.042778797 0.011782698 0.0126221925
000290 f6 e0 01 bd 17 a5 db bc 21 5d aa bd 4d 70 1c 3c
       -0.03170868 -0.02681212 -0.08318544 0.009548259
0002a0 96 40 7c 3d 76 25 e1 bc 60 3b 42 bd 3b 5a 7f 3d
       0.06158503 -0.027483683 -0.047419906 0.06234191
0002b0 99 e9 45 bd 1f 75 5f 3d 77 5a 57 bd 4e 4e 4d bd
       -0.04831848 0.054555055 -0.05257651 -0.050123505
0002c0 79 8a 36 bd df 96 37 3d 1c cf 12 bd ca ea 2d 3d
       -0.04456565 0.044821616 -0.035842046 0.04246024
0002d0 96 ad 25 bb 05 da 4f 3d ec 77 57 3d f4 3c 6c 3d
       -0.0025280467 0.05074503 0.0526046 0.057675317
0002e0 cb bf 88 3d 1c 9d 38 bc e3 90 21 bc 18 11 f6 3c
       0.066772066 -0.011267927 -0.009861204 0.030037448
0002f0 5d 22 8a 3d c5 00 87 bc cc 4e 35 bd fd 5f 33 bd
       0.067448355 -0.01647986 -0.0442646 -0.043792713
000300 fb fa b5 bc 8b a9 9f 3c 3e 51 aa 3a 29 17 0c bc
       -0.022214403 0.019490024 0.0012994183 -0.008550444
000310 f3 a0 bd bc a0 8e d1 3c 24 6e 3f bd 92 cc 97 3d
       -0.023148036 0.025580704 -0.046735898 0.074120656
000320 22 1c fb ba 79 4d ab 3c e6 a2 f9 3c c9 97 98 bd
       -0.0019158165 0.020910965 0.030473184 -0.07450826
000330 11 9b be 3b b6 29 41 bd b4 99 36 bd 83 7f df bd
       0.005816825 -0.04715892 -0.044580176 -0.10912993
000340 d1 65 2f bd 50 27 eb bc aa 1f 7d 3c 00 61 0e 39
       -0.04282171 -0.02870527 0.015449444 0.0001357831
000350 05 11 6b 3d 69 0f 76 3d 94 2b 5b 3d 24 5e 82 bb
       0.057389278 0.06007329 0.053508356 -0.0039785076
000360 52 45 a0 3c 4e dd 6d 3c af 3e 8b 3c 88 26 76 3d
       0.019564305 0.014518095 0.016997663 0.06009534
000370 7f 29 94 3d 9f c7 1c 3d b9 3c bf 3c 0c 54 e7 3d
       0.07234477 0.03827631 0.023344385 0.112953275
000380 2c 54 87 3c 6d a4 51 bd 75 fd 1e 3d 89 08 6f bd
       0.016519628 -0.0511822 0.038815934 -0.05835775
000390 55 b9 36 3d 21 54 dd 3c 61 33 f7 bc 0a a8 60 3d
       0.04461034 0.027017655 -0.030175867 0.054847755
0003a0 0f 95 3c bd 3d 96 20 bd b5 6b 35 3d 56 4f d4 bc
       -0.04604059 -0.03920578 0.04429217 -0.025916737
0003b0 75 da 11 bd 36 75 c3 3a 59 fa 38 bc c4 69 2c 3d
       -0.035608727 0.0014912251 -0.011290156 0.042093053
0003c0 be 6f 5f 3d ba 78 f3 3c c4 bf 6c 3c f6 80 89 3c
       0.054549925 0.029720653 0.014450017 0.016785126
0003d0 1f 02 e4 3a 60 d0 91 3a f6 25 60 bb df a8 1e 3d
       0.0017395652 0.0011124723 -0.0034202314 0.038735267
0003e0 b0 f3 f9 3c b2 3a 5e bc 91 11 97 3c d8 b6 8e ba
       0.030511707 -0.013563799 0.018440994 -0.0010888232
0003f0 3a e9 9d 3c 80 f1 4e 3d 59 2d 4c bd af 61 a7 3b
       0.01927625 0.05052328 -0.049847934 0.0051080803

recurrent._temporal_conv2.conv_1.bias f4 [16]
000000 93 42 a4 bc 32 42 d2 3c 70 c7 52 3d 70 69 f3 3c
       -0.020051276 0.02566633 0.05145973 0.029713362
000010 16 15 33 ba e5 76 69 bd 7b 6e 37 bd 2c 0a b0 bc
       -0.000683145 -0.056998152 -0.044783097 -0.021489225
000020 64 88 df bc f7 07 4d bd b8 55 f0 3b 6f 6f f2 bc
       -0.027286716 -0.050056424 0.007334437 -0.029594151
000030 59 8d d3 3c 05 d2 e4 bb 90 77 6f bb f6 95 3c bc
       0.025824236 -0.006983044 -0.003653977 -0.011510363
