TFM/experimentos_split/results/gen_trip/AGCRN.pt (torch, 82932 bytes, 6 tensors)

recurrent._gate.weights_pool f4 [3, 2, 110, 20]
0	0xb88256a1	-6.215019e-05
1	0xbdc1c0f4	-0.09460631
2	0xbdc4eeb8	-0.096158445
3	0x3d5bb968	0.053643614
4	0xbe16b577	-0.14717661
5	0xbe86c9f8	-0.26325965
6	0xbc5e38e9	-0.013563373
7	0x3d84375a	0.0645587
8	0x3d44f627	0.04808631
9	0xbe6fdce5	-0.23424108
10	0xbe563625	-0.20919092
11	0x3d829d89	0.06377704
12	0x3e4f35ce	0.20235369
13	0x3dee4a8c	0.116353124
14	0x3dda0f71	0.106474765
15	0xbe8053ee	-0.25064033
16	0x3db4f773	0.0883626
17	0xbdbf6e92	-0.093472615
18	0x3cc4744d	0.023981238
19	0xbdbb5e28	-0.09148818
20	0x3ccc9cc0	0.024977088
21	0x3d06289b	0.03275357
22	0xbd6cf964	-0.057855025
23	0xbe012ec2	-0.12615493
24	0xbe02bb94	-0.12766868
25	0xbe80ccea	-0.25156337
26	0xbe55d947	-0.20883666
27	0x3d58310a	0.052781142
28	0x3dc7dfb5	0.097594656
29	0xbe7e3e6a	-0.24828497
30	0x3e6ddf4c	0.23229712
31	0x3e4aedc0	0.19817257
32	0x3e93de10	0.28880358
33	0x3e8c0fc8	0.2735579
34	0xbe508286	-0.2036229
35	0x3d84c337	0.06482547
36	0x3e9f5668	0.3112061
37	0xbe8504d6	-0.25980252
38	0xbf014d22	-0.5050832
39	0xbcac16ca	-0.02100696
40	0x3e279873	0.16366749
41	0x3d9aad29	0.07552559
42	0x3e1b91b4	0.151923
43	0xbe751a54	-0.23935825
44	0x3d250d0f	0.040295657
45	0xbe9ff8f1	-0.31244615
46	0xbdf8337c	-0.12119195
47	0x3e7211d9	0.23639621
48	0x3e753346	0.2394534
49	0x3d950c16	0.07277696
50	0x3e88e551	0.26737455
51	0x3cd0a5ee	0.025469746
52	0x3ddabf6e	0.106810436
53	0xbdcfd29a	-0.10147591
54	0x3ccb6919	0.024830388
55	0xbe8e4b25	-0.27791706
56	0x3ed88593	0.4228941
57	0xbd42f230	-0.04759425
58	0x3c225f7b	0.00991046
59	0x3e2b480b	0.16726701
60	0x3e5ee8b5	0.21768458
61	0x3d16fe19	0.03686342
62	0x3e042b32	0.12907103
63	0x3bc65c43	0.006053479
64	0xbd91f217	-0.07126253
65	0xbea76ecd	-0.32701722
66	0x3d0861c4	0.03329636
67	0x3e18797e	0.14890096
68	0x3de64a8b	0.11244687
69	0x3dd1330f	0.10214817
70	0x3d86b52d	0.06577525
71	0x3db0289b	0.08601495
72	0xbd566c32	-0.052349277
73	0x3e14a6e6	0.14516792
74	0x3e7578a1	0.23971798
75	0xbdd39c5c	-0.103325576
76	0x3e575fd5	0.21032651
77	0xbc6010af	-0.013675853
78	0xbe8f2304	-0.27956402
79	0x3e3a34e5	0.1818424
80	0x3e69f5a3	0.22847609
81	0xbe02f290	-0.12787843
82	0x3e6a457a	0.22878066
83	0x3e0fe2f1	0.14051415
84	0xbda65d96	-0.08123319
85	0xbe7729aa	-0.24136987
86	0x3de828bd	0.11335895
87	0x3ebae1b4	0.36500323
88	0x3eab8052	0.33496338
89	0xbda8a7e4	-0.082351476
90	0x3c6c78bf	0.014433085
91	0x3e645008	0.22296154
92	0x3cc5e8b6	0.024158817
93	0xbbb73e52	-0.005592146
94	0x3e6608f7	0.22464357
95	0x3d9581bf	0.07300138
96	0x3e874c27	0.26425287
97	0xbbb885c0	-0.0056311786
98	0x3c90bcb7	0.017668111
99	0x3d57bcc9	0.052670274
100	0x3e0bd8d4	0.13656932
101	0x3e1a968d	0.15096493
102	0xbe19940e	-0.14997885
103	0xbd3bba0a	-0.045831718
104	0x3cfbd3de	0.030740675
105	0xbdb21eb4	-0.086972624
106	0xbc5a6842	-0.013330521
107	0x3dde696d	0.10859952
108	0x3d95f31d	0.07321761
109	0xbe5ea268	-0.2174164
110	0x3d387af5	0.045039136
111	0x3e53a3e8	0.20667994
112	0x3e4ddc1b	0.20103495
113	0x3e4f124b	0.20221822
114	0xbd2f4c37	-0.042797294
115	0xbe79bc26	-0.24388179
116	0x3e851b09	0.2599719
117	0x3ea3923d	0.31947508
118	0xbd6f66ec	-0.058447763
119	0x3da40160	0.08008075
120	0x3e2d277a	0.1690959
121	0xbca2cc62	-0.019872848
122	0xbdbeaf28	-0.09310752
123	0x3e4e5876	0.20150933
124	0xbe54170f	-0.20711921
125	0xbe5361f2	-0.20642832
126	0xbe3d5e8c	-0.18493098
127	0x3ec054e4	0.37564766
128	0x3ee06d7f	0.4383354
129	0x3c7787bf	0.015108048
130	0xbe49603b	-0.19665615
131	0xbc88ba06	-0.016690265
132	0xbddee55f	-0.10883593
133	0x3e8dc4e9	0.27689293
134	0x3e78c354	0.24293262
135	0x3e0a2213	0.13489561
136	0x3e9f044a	0.3105796
137	0x3d8fa1a9	0.07013256
138	0xbd674fda	-0.056472637
139	0xbe568724	-0.2094999
140	0xbdfb0709	-0.12257201
141	0xbdeb0b58	-0.11476773
142	0x3e692c85	0.22770889
143	0xbdbaaf4b	-0.09115466
144	0xbe58421a	-0.21118966
145	0xbea3183b	-0.31854424
146	0xbd7cf9e3	-0.061761748
147	0x3dd85952	0.105639115
148	0x3da25b4f	0.07927572
149	0x3d3ed2d2	0.046587773
150	0xbd987ddf	-0.07445883
151	0x3e8c094e	0.2735085
152	0xbd81e970	-0.06343353
153	0xbe4b37c6	-0.19845495
154	0x3bf497ff	0.0074644084
155	0xbe2848e0	-0.1643405
156	0x3e3188a2	0.17337278
157	0xbea0aab1	-0.31380227
158	0xbdc5094f	-0.09620916
159	0xbd85443c	-0.06507155
160	0x3e5438ad	0.20724745
161	0x3e211f8b	0.15734689
162	0x3e0560fa	0.13025275
163	0xbe1cc022	-0.15307668
164	0x3aea8c9e	0.001789469
165	0xbe9017f6	-0.2814328
166	0x3dc6733c	0.09689948
167	0x3ed66ef4	0.41881526
168	0x3e1ce398	0.15321195
169	0xbd655a4e	-0.055994324
170	0xbe018fc1	-0.12652494
171	0xbc808d4c	-0.015692376
172	0x3d4d84f4	0.050175622
173	0xbdc2cd5e	-0.09511827
174	0x3e63a0db	0.2222933
175	0x3df37404	0.118873626
176	0x3eb31b58	0.349818
177	0x3c5716ec	0.013128024
178	0xbe568e8c	-0.20952815
179	0x3da3c393	0.07996287
180	0x3e40214a	0.18762699
181	0xbe03eb98	-0.1288284
182	0x3dd53921	0.10411287
183	0xbdb3f4f4	-0.087869555
184	0xbe364a02	-0.17801669
185	0xbe9aa453	-0.30203494
186	0xbe034173	-0.12817936
187	0x3e546d1b	0.20744745
188	0x3d8361cf	0.0641514
189	0x3e4fde98	0.20299757
190	0x3ea11565	0.31461635
191	0x3d88c757	0.06678646
192	0x3cccae95	0.024985591
193	0xbe2b6d7f	-0.16740988
194	0xbdd98c08	-0.10622412
195	0xbebce903	-0.36896524
196	0x3ea598e2	0.32343203
197	0xbdde5e87	-0.108578734
198	0xbed447bf	-0.41460988
199	0x3d1471c0	0.036241293
200	0x3b8ae1af	0.0042383294
201	0x3c3892da	0.011265481
202	0x3d15305d	0.036423076
203	0xbd4573e0	-0.04820621
204	0xbe5dc94c	-0.2165882
205	0xbe9f1fa8	-0.3107884
206	0xbe51bb7d	-0.20481677
207	0x3edefc7e	0.4355201
208	0x3e210df0	0.15727973
209	0x3d6a8977	0.057260003
210	0xbd4390c4	-0.04774548
211	0x3e23f89f	0.1601281
212	0x3e165711	0.1468165
213	0x3e338486	0.17531022
214	0xbe089501	-0.1333809
215	0xbbd983e5	-0.0066380375
216	0x3ed34486	0.41263217
217	0x3dc1dd1c	0.094660014
218	0xbd889538	-0.06669086
219	0x3e933470	0.28750944
220	0x3d12dfd2	0.035857983
221	0x3df712b3	0.120641135
222	0xbe10e192	-0.14148548
223	0xbcdcde9c	-0.026961617
224	0xbd1a1539	-0.037617896
225	0xbddf3d63	-0.109003805
226	0xbe214fc0	-0.15753078
227	0x3dc2d47a	0.09513183
228	0xb9af3b24	-0.00033422664
229	0xbe4d850c	-0.20070285
230	0xbe5cff9d	-0.21581884
231	0x3d9151aa	0.07095654
232	0x3d99781f	0.074936144
233	0x3dbdafaf	0.092620246
234	0x3c201abb	0.009771998
235	0xbe24b9bf	-0.16086482
236	0x3e8058d3	0.25067768
237	0xbea357a3	-0.319028
238	0xbe266e05	-0.16252907
239	0x3dcb9816	0.099411175
240	0xbd564db4	-0.052320197
241	0x3d52f23e	0.05150055
242	0x3cfc9540	0.030832887
243	0xbc8bf790	-0.01708582
244	0xbe9bf5bf	-0.30460927
245	0xbedb526d	-0.42836323
246	0xbe750c01	-0.2393036
247	0x3e339d05	0.17540367
248	0x3efb651b	0.49100575
249	0xbd9c4cb4	-0.076318175
250	0xbcfc5687	-0.030802978
251	0x3df4a4c7	0.11945491
252	0xbcc9c9cd	-0.024632359
253	0x3e1b170f	0.15145515
254	0x3ead0297	0.33791038
255	0x3d06ddf8	0.03292653

recurrent._gate.bias_pool f4 [3, 20]
0	0x3df7d0ee	0.12100397
1	0x3f4c4e19	0.7980667
2	0xbe815c13	-0.2526556
3	0xbf10f040	-0.5661659
4	0x3e1ba33f	0.15198992
5	0x3ec9f7c5	0.39446846
6	0xbf097cc7	-0.5370602
7	0xbe6b1728	-0.22958052
8	0xbec002c0	-0.37502098
9	0xbe11ce40	-0.14238834
10	0xbd36be5d	-0.04461514
11	0xbd0ee2ab	-0.034884136
12	0xbcf801ba	-0.03027426
13	0x3d6376a6	0.055533074
14	0xbe03acf8	-0.12858951
15	0xbe8ac42d	-0.27102795
16	0x3e963230	0.29335165
17	0x3e137a28	0.14402068
18	0xbe65cba8	-0.2244097
19	0x3e2425b6	0.1603001
20	0x3f42bcde	0.7606944
21	0xbf110536	-0.56648576
22	0xbf43a6a8	-0.7642617
23	0x3ec3363c	0.38127315
24	0x3f0dddbe	0.55416477
25	0xbefae764	-0.49004662
26	0xbe97684d	-0.29571763
27	0xbf0b6cb9	-0.5446277
28	0xbebaf4af	-0.36514804
29	0x3e32b16c	0.17450494
30	0x3e82f9dd	0.25581256
31	0xbe7b0e51	-0.2451718
32	0xbe4e7337	-0.20161138
33	0x3c4a645a	0.012353027
34	0xbec4cb8e	-0.3843655
35	0x3dc3763c	0.09544036
36	0x3e159b03	0.14609914
37	0xbe31892a	-0.1733748
38	0x3dc5da7a	0.09660812
39	0x3e9bb243	0.3040944
40	0x3d6a2543	0.05716444
41	0xbeffbbb7	-0.49947903
42	0xbf44c460	-0.76862144
43	0x3f2d4c04	0.67694116
44	0xbe9d08af	-0.30670688
45	0x3e875239	0.26429918
46	0x3f023c81	0.5087357
47	0x3ec5ae5e	0.38609594
48	0x3f899f2c	1.07517
49	0x3d49591e	0.049157254
50	0x3d2a8d1f	0.04163849
51	0x3e9fa33e	0.3117923
52	0xbd9c6209	-0.07635886
53	0x3d8fd4d5	0.07023016
54	0x3d930555	0.071787514
55	0x3eb6ef81	0.35729602
56	0xbe93faab	-0.28902182
57	0x3e87b142	0.26502424
58	0x3e963231	0.29335168
59	0xbe20afa4	-0.15692002

recurrent._update.weights_pool f4 [3, 2, 110, 10]
0	0x3e1e0983	0.15433316
1	0xbcbceddb	-0.023062637
2	0x3d8242e4	0.063604146
3	0x3d1ca35c	0.03824173
4	0x3ce23909	0.027615087
5	0xbe2fb5bc	-0.1715917
6	0xbe26c42d	-0.16285773
7	0x3bdce3f8	0.006741043
8	0x3dc2bfaf	0.09509217
9	0x3da30c15	0.07961289
10	0xbe3de696	-0.18544993
11	0x3e203386	0.15644655
12	0x3e19ae19	0.15007819
13	0x3bc2a39c	0.005939914
14	0xbd955ddd	-0.072932936
15	0xbda53db5	-0.0806841
16	0xbe337364	-0.17524487
17	0x3cf44912	0.029819999
18	0xbc6edbb6	-0.01457875
19	0x3cd48285	0.025941143
20	0x3db39035	0.0876774
21	0xbdbd63b8	-0.092475355
22	0x3c4f3c5f	0.012648671
23	0x3e51dc94	0.204943
24	0xbdbd0985	-0.09230331
25	0x3e51b0fa	0.20477667
26	0x3e0f8080	0.14013863
27	0xbe03fe3f	-0.12889956
28	0xbe272fbb	-0.16326801
29	0x3c3112a9	0.010807672
30	0xbca45ee2	-0.020064775
31	0xbe0474ed	-0.12935229
32	0x3b75645b	0.003744385
33	0x3de152ea	0.11002143
34	0x3e3e6ac2	0.18595412
35	0x3df0fb37	0.117666654
36	0x3d60441a	0.054752447
37	0xbeb6cfd5	-0.35705438
38	0x3e1824e5	0.14857824
39	0x3db7ce8a	0.08974941
40	0xbdaf0eac	-0.0854772
41	0xbbd1cbc8	-0.0064024664
42	0xbb83c018	-0.004020702
43	0xbd16443b	-0.036686163
44	0x3dfb1bdd	0.12261174
45	0xbcde0f1b	-0.027106812
46	0xbe3387a1	-0.17532207
47	0x3db13b10	0.086538434
48	0xbe258dd9	-0.16167392
49	0x3d06583c	0.03279899
50	0x3d42cda4	0.047559395
51	0xbdfe4eaa	-0.12417348
52	0x3d97824d	0.073979
53	0x3cd6c096	0.026214879
54	0xbe061a03	-0.1309586
55	0x3e144990	0.14481187
56	0x3dd58242	0.10425235
57	0x3dad68fe	0.08467291
58	0xbe2c5407	-0.16828929
59	0xbe7a1ba6	-0.2442461
60	0xbe678ec6	-0.22613057
61	0x3e2eebe0	0.17082167
62	0x3cfb8cbe	0.03070676
63	0xbdda6a7f	-0.10664844
64	0x3d75bddb	0.059995513
65	0x3d5d9491	0.054096762
66	0xbdc45f06	-0.09588437
67	0xbcf9b038	-0.030479535
68	0xbdf946c3	-0.121717
69	0xbd96022e	-0.073246345
70	0x3d8e10a5	0.069367684
71	0x3d2e55a2	0.042562135
72	0xbe0236c7	-0.12716208
73	0x3dab99a4	0.08378914
74	0x3b97b5a6	0.0046298085
75	0xbe2db481	-0.16963388
76	0xbe3d7ce2	-0.1850467
77	0xbc13ddd9	-0.009025061
78	0xbe165b9f	-0.14683388
79	0xbe0cd74b	-0.13754003
80	0xbbbdfc84	-0.0057979245
81	0x3bc0b688	0.0058811344
82	0xbe323b1f	-0.17405365
83	0x3d9cfe23	0.0766566
84	0x3d8a1676	0.06742565
85	0xbd92aa39	-0.07161374
86	0xbd3860bb	-0.045014124
87	0x3bb16f19	0.005414855
88	0x3d8d7d1f	0.069086306
89	0x3d6756ea	0.056479372
90	0x3df7ca38	0.12099117
91	0xbcf02b88	-0.029317632
92	0x3dd042fa	0.10169025
93	0xbdbffc27	-0.09374266
94	0x3c8d2b80	0.017232656
95	0x3dfb2dd2	0.12264599
96	0xbe3f1ecd	-0.18664093
97	0xbe22dbc9	-0.15904154
98	0xbe4e2330	-0.2013061
99	0x3e1b7958	0.15183008
100	0xbdb7dc53	-0.089775704
101	0x3e1ff6a9	0.15621437
102	0xbe1230c2	-0.14276412
103	0xbc381a32	-0.011236714
104	0x3df87323	0.121313356
105	0xbe627048	-0.22113144
106	0xbe31a67c	-0.17348665
107	0xbe28153f	-0.16414355
108	0x3c9765be	0.018481132
109	0xbe8180b8	-0.25293517
110	0xbb8f77b2	-0.0043782825
111	0x3e30c839	0.17263879
112	0xbd902b84	-0.0703955
113	0x3d5bde96	0.05367907
114	0xbe3d7024	-0.1849981
115	0x3c879dd3	0.016554749
116	0x3ddb5d1d	0.10711119
117	0x3cc5cbf6	0.024145108
118	0xbd415825	-0.0472032
119	0xbdf65b43	-0.120291255
120	0xbe2128bc	-0.15738195
121	0x3e18d06b	0.14923255
122	0xbdc86dd2	-0.097865716
123	0x3d536a0b	0.051614802
124	0xbd4b20e2	-0.049591906
125	0xbdc9d93e	-0.09855889
126	0x3cfe4b1a	0.03104167
127	0x3e12597f	0.14291953
128	0x3e323976	0.17404732
129	0xbd991099	-0.07473869
130	0xbdaff892	-0.08592333
131	0xbe01be4e	-0.12670252
132	0xbdeae961	-0.11470295
133	0x3c3431f2	0.010998236
134	0x3e297819	0.1654972
135	0x3de36a5f	0.11104273
136	0xbe066048	-0.13122666
137	0xbd824fe1	-0.06362892
138	0xbe032cf9	-0.12810124
139	0x3e78b49f	0.24287651
140	0xbccde633	-0.025134182
141	0xbd9f0c43	-0.077660106
142	0x3d83a7e1	0.06428505
143	0xbe367932	-0.1781967
144	0xbd96a28b	-0.07355221
145	0xbc35ca96	-0.0110956635
146	0x3e61f0ea	0.22064558
147	0x3e22eea2	0.15911344
148	0xbd1499a5	-0.03627934
149	0xbe8e13f6	-0.27749604
150	0x3c81c525	0.015841076
151	0xbdb63f1e	-0.088987574
152	0x3e5a6ec3	0.21331315
153	0xbc177a46	-0.009245461
154	0xbda29560	-0.07938647
155	0xbbe7a00e	-0.0070686406
156	0x3e5a1e5c	0.21300644
157	0x3dcde721	0.1005385
158	0xbdf5b21f	-0.119968645
159	0x3c5f0cc4	0.013613883
160	0x3d7f2e66	0.06230011
161	0xbb834129	-0.0040055704
162	0x3c947f10	0.018126994
163	0xbe36243a	-0.17787257
164	0xbe0c2bd9	-0.13688602
165	0x3dcc8ca0	0.099877596
166	0x3e4dfa6a	0.20115057
167	0x3d4cdd61	0.05001581
168	0xbd8ce35f	-0.06879305
169	0x3d818fb9	0.06326241
170	0xbdeb1a6c	-0.11479649
171	0xbe00a729	-0.12563767
172	0xbdc82891	-0.097733624
173	0x3b22c8c8	0.0024838913
174	0x3ce86452	0.028368149
175	0xbc3eae29	-0.011638203
176	0x3e36c52a	0.1784865
177	0xb95686f9	-0.00020458912
178	0x3e84fbc0	0.2597332
179	0xbe34d38b	-0.17658822
180	0xbdd94557	-0.10608929
181	0x3dd886c0	0.105725765
182	0x3cbcfab2	0.02306876
183	0x3d8338df	0.06407332
184	0x3e268451	0.16261412
185	0xbe17a63b	-0.14809506
186	0x3e030f13	0.12798719
187	0x3d3e35ed	0.046438146
188	0x3df990b6	0.121858045
189	0x3c9d45ee	0.019198384
190	0xbe0001aa	-0.12500635
191	0x3e42f87e	0.19040105
192	0x3cc639bb	0.02419745
193	0x3e01be2c	0.12670201
194	0x3e2c3476	0.16816887
195	0xbe6b9969	-0.2300774
196	0x3e090e56	0.13384375
197	0x3b4e7361	0.0031501877
198	0xbdbf0b8c	-0.09328374
199	0x3e706563	0.23476176
200	0xbd768fbf	-0.06019568
201	0x3daf049f	0.08545803
202	0xbc193a7c	-0.009352323
203	0xbdb48fe1	-0.08816505
204	0x3ddaf2d4	0.10690847
205	0x3d88f6e4	0.06687716
206	0x3e094c70	0.13408065
207	0xbda40375	-0.08008472
208	0xbe1219bf	-0.14267634
209	0x3c840032	0.016113374
210	0xbd47146e	-0.048603468
211	0x3daf9468	0.08573228
212	0xbe9a2f1e	-0.30114073
213	0x3e5fee88	0.21868336
214	0xbe125bcd	-0.14292832
215	0xbd16450e	-0.03668695
216	0xbd9661e8	-0.07342893
217	0xbdc632a0	-0.09677625
218	0x3e30d16f	0.17267393
219	0xbddbb60a	-0.107280806
220	0xbce8bfec	-0.028411828
221	0xbdbba36f	-0.09162032
222	0x3dd5a20e	0.104313
223	0xbe36b259	-0.17841472
224	0x3d9b0876	0.07569973
225	0xbe78887d	-0.24270816
226	0xbea44c17	-0.32089302
227	0x3c89095b	0.016728094
228	0xbe44b641	-0.1921015
229	0x3e53cadd	0.20682855
230	0x3e1ff614	0.15621215
231	0xbdbade68	-0.09124452
232	0x3dc80218	0.09766024
233	0xbd7213eb	-0.059101027
234	0x3c9bd8dd	0.019024307
235	0xbe21a75e	-0.15786502
236	0xbd9b3149	-0.0757776
237	0xbdad1427	-0.084511094
238	0x3e06e6bd	0.13173957
239	0x3dd5f8a0	0.10447812
240	0xbe41e0f5	-0.1893347
241	0x3d9c6e0b	0.076381765
242	0x3d960be4	0.07326487
243	0x3e00ec65	0.12590177
244	0x3d391894	0.045189455
245	0xbda50b0c	-0.08058748
246	0x3d9fc4c8	0.07801205
247	0x3e1f2554	0.15541583
248	0xbe49afdc	-0.19695991
249	0x3c1cfe1f	0.009582072
250	0xbe5d13f2	-0.2158964
251	0x3c9a4e3b	0.018836131
252	0xbc141e20	-0.0090403855
253	0xbdcc4331	-0.09973753
254	0x3c887895	0.01665906
255	0x3e30ad0e	0.17253515

recurrent._update.bias_pool f4 [3, 10]
0	0xbf64b927	-0.8934502
1	0xbed2b662	-0.41154772
2	0x3e2beea1	0.16790248
3	0x3f06adc7	0.52608913
4	0x3ee2d5a4	0.4430362
5	0x3e1cf4b9	0.1532773
6	0x3e50d933	0.20395355
7	0xbf5d629a	-0.8647858
8	0xbe78c62f	-0.24294351
9	0xbf50dffe	-0.81591785
10	0xbefdb827	-0.4955456
11	0xbe1e04e7	-0.15431558
12	0xbea50e1f	-0.32237336
13	0x3f24ac69	0.6432558
14	0xbe19a09c	-0.15002674
15	0x3e0488e0	0.12942839
16	0x3e90c24a	0.2827323
17	0xbf69251a	-0.9107224
18	0x3f25e06f	0.64795583
19	0xbf1ad74e	-0.6048478
20	0x3e8d0990	0.27546358
21	0x3db531d1	0.08847392
22	0xbf352911	-0.7076579
23	0xbf001fc1	-0.5004845
24	0xbf59e57d	-0.85115796
25	0xbea432d0	-0.32070017
26	0xbec08a5c	-0.3760556
27	0x3e84de7e	0.25950998
28	0xbe802b4a	-0.25033027
29	0x3f16c423	0.5889303

linear.weight f4 [20, 10]
0	0x3e9ca624	0.30595505
1	0x3ebc1540	0.36734962
2	0x3e82eae5	0.25569835
3	0x3e96905e	0.29407018
4	0x3e9422e3	0.28932866
5	0x3e9bdc12	0.30441338
6	0x3e8e23c1	0.27761653
7	0x3ec1cb4e	0.37850422
8	0x3efbd7b2	0.49188
9	0x3e9f5c20	0.31124973
10	0x3e6780bd	0.22607704
11	0x3ef3e183	0.4763299
12	0x3ea407a7	0.32037088
13	0x3e8b6094	0.2722212
14	0x3e701ef4	0.23449308
15	0x3ea70ef8	0.32628608
16	0x3ea0cbf1	0.31405595
17	0x3ec09f74	0.37621653
18	0x3eff74fd	0.49893942
19	0x3eacede0	0.33775234
20	0x3ec353fd	0.38150015
21	0x3e882003	0.26586923
22	0x3e44da73	0.19223957
23	0x3ea2de09	0.31810024
24	0x3eb4037b	0.35158905
25	0x3e90fadb	0.28316388
26	0x3e7bdbee	0.24595615
27	0x3ec87fe6	0.3916008
28	0x3efd1ef5	0.4943768
29	0x3e925000	0.2857666
30	0x3e72584e	0.23666498
31	0x3eeba2da	0.46022683
32	0x3ea0bd35	0.31394354
33	0x3e8d4e9b	0.27599034
34	0x3e735126	0.23761424
35	0x3ea57f7e	0.3232383
36	0x3e9c8aa9	0.3057454
37	0x3ec0df0b	0.37670168
38	0x3f0002d1	0.500043
39	0x3ea9b03d	0.33142272
40	0x3ec68f64	0.38781273
41	0x3e808dfb	0.25108323
42	0x3e48af34	0.19598085
43	0x3ea214be	0.3165645
44	0x3ead8fe8	0.33898854
45	0x3e91f195	0.28504625
46	0x3e6fa335	0.23402102
47	0x3ec76d62	0.3895064
48	0x3efc38f9	0.49262217
49	0x3e8eb7de	0.27874655
50	0x3e9a359b	0.30119023
51	0x3ebb422b	0.3657392
52	0x3e8135ff	0.25236508
53	0x3e960c5a	0.29306298
54	0x3e9448a2	0.28961664
55	0x3e9a843d	0.30179015
56	0x3e8da887	0.2766764
57	0x3ec492b0	0.38393164
58	0x3efcd3dc	0.49380386
59	0x3e9d14ed	0.30680028
60	0x3e76112b	0.24029987
61	0x3ee67404	0.45010388
62	0x3e960a6f	0.29304835
63	0x3e903270	0.2816348
64	0x3e805fd8	0.25073123
65	0x3ea15ddb	0.3151692
66	0x3e9c8f61	0.3057814
67	0x3ec324ca	0.38114005
68	0x3efe7c3c	0.49704158
69	0x3ea80368	0.328151
70	0x3ec71967	0.38886568
71	0x3e7bea47	0.24601088
72	0x3e451da7	0.19249593
73	0x3e9fb56c	0.311931
74	0x3eae7b96	0.34078664
75	0x3e8f9f4b	0.28051218
76	0x3e6fccdf	0.23417996
77	0x3ec86c67	0.39145204
78	0x3efcd3b6	0.49380273
79	0x3e8b8ccf	0.27255866
80	0x3e82db08	0.25557733
81	0x3edfa3f3	0.4367977
82	0x3e974541	0.29545024
83	0x3e8fd841	0.28094676
84	0x3e7a1e94	0.24425727
85	0x3ea31dca	0.31858665
86	0x3e9ab8f4	0.30219233
87	0x3ec2f851	0.38080075
88	0x3effc307	0.49953482
89	0x3ea635f8	0.3246305
90	0x3ec38086	0.38183993
91	0x3e7cee3f	0.24700259
92	0x3e3c54f1	0.18391778
93	0x3ea02c72	0.3128391
94	0x3eb3bd0a	0.35105163
95	0x3e8da952	0.27668244
96	0x3e6eff3c	0.23339552
97	0x3ecbf01b	0.39831623
98	0x3efc05e1	0.49223235
99	0x3e8ab6eb	0.2709268
100	0x3ea48eb5	0.32140127
101	0x3eac12a0	0.3360796
102	0x3e748acd	0.23881073
103	0x3e99b89b	0.30023655
104	0x3e975554	0.29557288
105	0x3e97b3a6	0.29629248
106	0x3e874a20	0.2642374
107	0x3ec85b0e	0.3913197
108	0x3efec070	0.49756193
109	0x3e97aa6b	0.29622206
110	0x3e7dff3a	0.24804392
111	0x3ee1c022	0.44091898
112	0x3e910ce1	0.28330138
113	0x3e8da4ed	0.2766489
114	0x3e83379b	0.2562836
115	0x3e9df2ea	0.3084939
116	0x3e9e5ec0	0.30931664
117	0x3ec43c6b	0.38327345
118	0x3f0022f4	0.50053334
119	0x3ea32d57	0.3187053
120	0x3ec24f67	0.37951204
121	0x3e80da43	0.2516652
122	0x3e3ecc75	0.18632682
123	0x3e9e63e6	0.3093559
124	0x3eb0449d	0.34427348
125	0x3e8cec0a	0.27523834
126	0x3e73aa79	0.23795499
127	0x3ecb396a	0.3969224
128	0x3efca9e4	0.49348366
129	0x3e894ae5	0.26814952
130	0x3e86b117	0.26306984
131	0x3ed2937e	0.41128153
132	0x3e8d1f5c	0.27562988
133	0x3e8dd743	0.27703294
134	0x3e82e0ed	0.2556223
135	0x3e9d8b83	0.30770501
136	0x3e953aa4	0.29146302
137	0x3ec436fb	0.38323197
138	0x3efe9cd2	0.4972902
139	0x3e9d4f47	0.30724546
140	0x3ec1514d	0.3775734
141	0x3e7892fc	0.2427482
142	0x3e30181c	0.17196697
143	0x3e9df333	0.3084961
144	0x3eb296a4	0.34880555
145	0x3e8a85fa	0.2705534
146	0x3e6f99e5	0.2339855
147	0x3ecb50b7	0.39710018
148	0x3ef9cf23	0.48790845
149	0x3e8718e6	0.26386184
150	0x3ea34034	0.3188492
151	0x3ea4f1f7	0.32215855
152	0x3e5bf9b1	0.21481968
153	0x3e938ca0	0.28818226
154	0x3e9ee5be	0.31034654
155	0x3e920041	0.2851582
156	0x3e8605b6	0.26176232
157	0x3ec8d98e	0.3922848
158	0x3efa4503	0.48880777
159	0x3e8f4f7a	0.27990323
160	0x3e886148	0.2663672
161	0x3eca35c1	0.39494136
162	0x3e81f506	0.2538225
163	0x3e8c0658	0.2734859
164	0x3e8e75b5	0.27824178
165	0x3e9930a1	0.29919913
166	0x3e92db35	0.28682867
167	0x3ec7d681	0.3903084
168	0x3efc37bd	0.49261275
169	0x3e97c938	0.29645705
170	0x3ebf9b2d	0.37423077
171	0x3e712a03	0.23551182
172	0x3e259f8a	0.1617414
173	0x3e9a460e	0.30131572
174	0x3eb71c0f	0.35763595
175	0x3e87c340	0.2651615
176	0x3e6d28e6	0.23160133
177	0x3ecc9981	0.39960864
178	0x3ef7dbbd	0.48409835
179	0x3e82b6ee	0.2553019
180	0x3e8eca91	0.2788892
181	0x3ec06574	0.37577403
182	0x3e835f00	0.25658417
183	0x3e8cf793	0.27532634
184	0x3e8992e2	0.26869875
185	0x3e991307	0.2989733
186	0x3e8de774	0.27715647
187	0x3ec848e7	0.3911812
188	0x3efedf01	0.49779513
189	0x3e94b58d	0.29044762
190	0x3ec24437	0.3794267
191	0x3e6753f6	0.22590622
192	0x3e203fe2	0.1564937
193	0x3e999904	0.29999554
194	0x3eb2e50d	0.34940377
195	0x3e867276	0.26259202
196	0x3e68fdd8	0.22753084
197	0x3ec9ca44	0.3941213
198	0x3ef5f046	0.48034877
199	0x3e7df0a3	0.24798827

linear.bias f4 [20]
0	0x3e398123	0.18115668
1	0x3e09a7a3	0.13442855
2	0x3e65ce4b	0.22441976
3	0x3e0f7762	0.14010385
4	0x3e7186e5	0.23586614
5	0x3e41e983	0.18936734
6	0x3e1a8628	0.15090239
7	0x3e77ee6c	0.24212044
8	0x3e1c3ed6	0.15258345
9	0x3e7dc246	0.2478114
10	0x3e5006c5	0.20315082
11	0x3e205495	0.15657265
12	0x3e7d4fea	0.24737516
13	0x3e356e01	0.17717744
14	0x3e85054b	0.259806
15	0x3e6a9745	0.22909267
16	0x3e4b7903	0.19870381
17	0x3e8c7770	0.27434874
18	0x3e505fca	0.2034904
19	0x3e934e9b	0.2877091
