TFM/experimentos_split/results/branch_fault/AGCRN.pt (torch, 399732 bytes, 6 tensors)

recurrent._gate.weights_pool f4 [3, 10, 110, 20]
000000 f6 eb db bd 50 4b a1 bd 04 a3 b5 bd 47 68 04 be
       -0.10738365 -0.07875693 -0.088689834 -0.12930404
000010 d1 1c 61 be 65 2c 80 be bb 95 56 3e 99 ec 6f be
       -0.21983649 -0.2503387 0.20955555 -0.23430099
000020 25 9f a2 3e a4 8e 62 bd 03 30 80 be 83 b2 94 3e
       0.31762043 -0.055311814 -0.2503663 0.29042444
000030 66 68 99 3d b4 b1 2d bd 2c a2 be be 32 b0 2f be
       0.074906155 -0.0424058 -0.37233102 -0.17157057
000040 0a f4 07 3e 4e 9a 0b be a1 93 5f 3e de 6b a8 be
       0.13276687 -0.13633081 0.2183366 -0.32894796
000050 2b e3 87 3d c9 3a f4 bd 7c ba 94 bc 45 25 04 3d
       0.06635126 -0.11925275 -0.018155329 0.032262105
000060 85 84 21 bd 18 6c c4 3d b2 62 71 3e 07 27 ab be
       -0.03943302 0.0959093 0.23572806 -0.33428213
000070 a8 1f 2b 3e b8 a6 34 be 19 6c dc bd 19 5f b3 bc
       0.16711295 -0.17641723 -0.107628055 -0.021895932
000080 ea 61 a3 3e 44 c3 e3 bd 42 24 a4 bd 82 61 06 3e
       0.3191064 -0.11121228 -0.08014728 0.13123134
000090 0c 5c 1c 3e e0 92 39 be 90 68 ad 3e d3 ce 89 bd
       0.15269488 -0.18122435 0.33868837 -0.06728902
0000a0 12 cf 82 bd 2f 2e 0d be 19 a1 e5 3d 6a 09 2e bd
       -0.06387152 -0.13787149 0.112123676 -0.042489447
0000b0 31 8e 71 be 69 d4 fb 3d a2 52 a2 3d 0e fb 87 be
       -0.23589398 0.122963734 0.07925917 -0.26558727
0000c0 bb 3c 09 bc ef 01 d9 bd aa 4f fa 3c 14 26 92 3d
       -0.008376296 -0.10596072 0.030555565 0.07136169
0000d0 94 e6 c9 3b 95 ad 83 bc 4e 9e b1 be ae 9f f3 3d
       0.0061615203 -0.016073981 -0.3469109 0.11895691
0000e0 b1 9c 75 3e eb a7 86 be 03 60 31 3e 40 b8 3c 3c
       0.23985554 -0.26299986 0.17321782 0.011518538
0000f0 e0 42 08 bd 83 aa 11 bd f8 a9 51 3e 29 33 b7 3d
       -0.033266902 -0.035563003 0.20474994 0.08945305
000100 71 0f 76 bd 9f 95 ad bd 82 d1 86 bc d6 1d 04 be
       -0.06007332 -0.084758036 -0.016457323 -0.12902007
000110 46 1f 29 3d 69 dc 15 be 92 05 6d 3d a6 d0 b0 3e
       0.04128959 -0.14634861 0.05786664 0.34534186
000120 91 70 c3 3d 20 6c e9 3c 4c fa 31 be 60 1f 10 3d
       0.09542955 0.02849394 -0.17380637 0.03518617
000130 fb c3 c8 3d 86 b3 64 3c 82 43 a3 bd 5d 92 2c be
       0.09803005 0.013958817 -0.079718605 -0.16852708
000140 0b 53 91 3d 08 7b f6 3d 6d 24 17 3d 8c 83 19 be
       0.07095917 0.12035185 0.036899973 -0.14991587
000150 09 90 8a be 3e 73 83 be a3 c1 cc bc 89 8e a8 bd
       -0.27063015 -0.2567386 -0.024994677 -0.082303114
000160 12 a4 6b 3e 29 e0 0c 3d b6 6d 88 be 53 ea 1f bb
       0.23011807 0.034393463 -0.26646203 -0.0024401143
000170 61 5a 9f 3d a1 a5 90 3e ef 43 17 be 70 73 73 bc
       0.0778091 0.28251365 -0.14772008 -0.014859065
000180 d2 d0 11 3e bf 31 0c be af 49 e6 bc 15 24 98 3d
       0.14239815 -0.13690852 -0.028111307 0.07428757
000190 e1 10 43 be e6 28 15 3c c3 a9 17 be 3d 27 04 3e
       -0.19049408 0.009103989 -0.14810853 0.12905593
0001a0 8a 6c 8f 3c ff 3f 89 3c ee 97 e9 bd d3 24 b6 be
       0.01750781 0.016754149 -0.114059314 -0.3557497
0001b0 72 c4 ed bd 61 fb aa 3d ef e8 fe 3b 2a c9 99 3e
       -0.116097346 0.08348728 0.0077792327 0.30036288
0001c0 4a 19 67 3e cf c0 c3 3d d6 3a 34 be 7e 07 fe bd
       0.22568241 0.0955826 -0.17600569 -0.12403773
0001d0 f7 cc 22 be 16 16 84 be f3 0f 4a 3e 3d 25 51 be
       -0.158985 -0.257981 0.19732647 -0.20424362
0001e0 2b ee 08 be c0 89 b3 bd 9e 00 3b 3d aa fc 30 be
       -0.13372104 -0.08766508 0.045654885 -0.17283884
0001f0 f8 83 8e be 10 29 52 3d 2d 24 1b bd 5f d3 6e bb
       -0.2783506 0.05130869 -0.037876297 -0.0036441905
000200 b8 5a 5c bc 9a 3e 67 be ee cf df bd 74 5d 07 3d
       -0.013449363 -0.22582474 -0.10928331 0.03304811
000210 bb 0b 48 3d 5c 42 19 be 9e 94 12 bd 44 30 b6 bd
       0.048839312 -0.1496672 -0.035786264 -0.08895925
000220 7a 1e 06 3e f2 e8 e7 3c 68 53 92 3e 93 57 8c be
       0.13097563 0.02830932 0.2857926 -0.27410564
000230 55 78 3a 3d 04 e6 2d bd 3b a5 42 3e 5f 7b 4f 3e
       0.045524914 -0.042455688 0.19008343 0.20261906
000240 61 1f 2f be c6 ca 29 bd 6e 45 a2 ba a8 2c a4 be
       -0.17101814 -0.041453145 -0.0012380311 -0.3206532
000250 58 d1 42 3e a9 1e 9d be e2 ef 17 3d 66 0e 8c 3e
       0.19025171 -0.30687454 0.037094004 0.27354735
000260 03 b7 a2 3e 8f 1b 15 bd ac ac ad be b3 a9 b7 3d
       0.31780252 -0.036403235 -0.339208 0.089679144
000270 cc 95 0d 3e 4b 60 87 be 5d a0 91 3d d1 a1 83 be
       0.13826674 -0.26440653 0.07110665 -0.25709394
000280 69 68 b3 bd ba e2 9c bd 54 ee 40 bd c3 b5 8a bd
       -0.08760149 -0.07660432 -0.047102287 -0.067729495
000290 ea 5a b2 be 86 f5 11 3e 63 e1 64 3e 59 58 12 be
       -0.34834987 0.14253816 0.22351603 -0.14291514
0002a0 be 77 b0 3b 1b 2c 01 be e8 7d 8e be 53 0b b6 bd
       0.005385368 -0.12614481 -0.27830434 -0.08888879
0002b0 7c ab 49 3e 2f 93 90 bd 8e 6a 8f be 71 36 2a 3d
       0.19694322 -0.07059323 -0.28010982 0.041555826
0002c0 23 a9 09 bd 6a 55 07 be 4c 77 d3 3d 88 67 2d be
       -0.033608567 -0.13216177 0.103254884 -0.16934025
0002d0 aa ce 34 be dc 9b 8b bd 00 5c 22 bd e3 5f 28 3e
       -0.17656961 -0.06816837 -0.03963852 0.16442828
0002e0 40 32 78 be 65 c4 92 3c 19 ca 12 bd c6 68 1e be
       -0.24237919 0.017915914 -0.035837267 -0.15469655
0002f0 c5 27 89 3e f9 c5 d0 3c 46 97 94 be f2 40 3a 3e
       0.26788154 0.025485026 -0.29021662 0.18188837
000300 57 b2 a4 3e 49 fa 00 3e 40 2a dc bb 34 4b 8a 3e
       0.32167313 0.12595476 -0.006718904 0.270105
000310 ac 51 b2 3c 0f 6c bc 3c 41 41 3b bd fc 07 34 be
       0.02176746 0.023000745 -0.045716528 -0.17581171
000320 43 43 58 3d 0b a2 0e 3e 54 7a f6 bc a4 ef 43 be
       0.05279852 0.13929002 -0.030087627 -0.19134384
000330 50 fa 92 be e1 35 89 be f7 aa 14 be ee b6 42 be
       -0.28706598 -0.2679892 -0.14518343 -0.19015095
000340 2c 07 39 3e f0 48 d0 bc 67 4c 85 be 7e 1e ad bd
       0.18069142 -0.025425404 -0.26034853 -0.084530815
000350 dd 4f 66 3e ad 44 e2 bd 05 57 36 be 77 b6 1d 3e
       0.22491403 -0.11048255 -0.17806633 0.15401636
000360 51 75 c7 bd 9c a9 b4 bd d5 5a c1 3d 81 40 32 be
       -0.09739173 -0.08821413 0.09441153 -0.17407419
000370 c5 3e 58 be 3c 96 2f be e8 e1 dd bd 02 87 17 be
       -0.21117695 -0.17147154 -0.10834104 -0.14797595
000380 77 02 86 3d 7f bd 1c be 78 78 c7 bd 2a 47 31 bd
       0.06543439 -0.15306662 -0.097397745 -0.043280758
000390 bd 4d d8 3d 1b 8e ac 3d ba b3 8b 3d 9a 6f 5e 3e
       0.105617024 0.08425542 0.068213895 0.2172226
0003a0 c2 9c d2 bd 09 67 b8 3d a1 da b9 bc a8 f6 e1 3c
       -0.102838054 0.090040274 -0.022687258 0.027583435
0003b0 5e bf 0d be de 9d 1c 3e 07 f4 fc 3c cf 09 68 be
       -0.13842532 0.15294597 0.03087808 -0.22659992
0003c0 3f af 93 be 38 da 20 3d 87 eb 22 3e 78 78 25 3d
       -0.2884464 0.03927061 0.15910159 0.04039809
0003d0 a3 12 b0 bd 58 8c 65 be c5 83 25 be 45 69 5f bd
       -0.08597305 -0.22416818 -0.16163547 -0.054543752
0003e0 cd 92 6e 3e 8c 66 d8 3d 73 14 5e be 7c 4b 4d 3d
       0.23298188 0.10566434 -0.21687488 0.050120816
0003f0 62 55 0e bd 6b fa 30 bd aa 19 e6 bd bb a2 25 3e
       -0.034749396 -0.043207567 -0.11235364 0.16175358

recurrent._gate.bias_pool f4 [3, 20]
000000 d1 9f 40 3d e9 d4 7f 3e 50 86 ae bd 4a 2e 83 3d
       0.047027413 0.24983563 -0.08521712 0.06405313
000010 e9 cb fe bd 0f 17 df be cd 4b 49 3e 24 2e c4 3d
       -0.124412365 -0.4357228 0.19657822 0.09579113
000020 20 02 04 3f 4d a0 15 be a2 f4 62 be 4c 0c 36 3e
       0.5156574 -0.14611931 -0.22163633 0.17778128
000030 01 2a 84 3e 8a b0 05 3e ab 06 07 be 04 5d 33 3c
       0.25813296 0.13055626 -0.13186137 0.01094747
000040 a3 ad 8d 3e 4c e3 88 be 71 1a 57 3d 41 7a d0 bd
       0.27671537 -0.26735914 0.05251545 -0.10179568
000050 76 c2 32 3d 2d 9f 94 3d 60 6c 9d bd 77 ff aa 3e
       0.043642484 0.07256923 -0.076866865 0.3339803
000060 02 bb 86 3d b5 e7 b8 3e a2 fa fe bb b9 d1 fa 3d
       0.06578638 0.36114278 -0.0077813426 0.12247033
000070 ca 3b 49 be 4b 20 2c be 70 c1 86 3d 65 a4 8f 3d
       -0.19651714 -0.16809194 0.06579864 0.07013778
000080 f4 19 30 3e 00 51 de 3c 5c 9d dc bd ea af 20 be
       0.171974 0.027138233 -0.107722014 -0.15692106
000090 47 92 a3 3d 80 81 9a 3d 23 87 81 be 9d ee 16 be
       0.079868846 0.075442314 -0.25298414 -0.14739461
0000a0 50 36 47 3e 44 77 58 be 58 4b ac 3c 4f ff fa 3e
       0.19454312 -0.21139246 0.02103202 0.4902291
0000b0 ab 5b 3c 3e 5d 1e 24 3f 66 91 b5 3d 50 e6 6f bc
       0.18394344 0.6410883 0.08865623 -0.014642313
0000c0 36 b5 64 be 06 96 f8 bc 65 2a ac 3d de cb 46 3d
       -0.22334751 -0.030344974 0.084065236 0.048534267
0000d0 c5 55 d0 3c 2d d2 fe bd 4b cd 04 3e af c0 9d be
       0.025431523 -0.124424316 0.12968938 -0.30811068
0000e0 95 af d0 bd e4 9e 72 3e c2 63 bf be 35 6f 72 3e
       -0.101897396 0.23693424 -0.37380797 0.23675235

recurrent._update.weights_pool f4 [3, 10, 110, 10]
000000 18 33 be bc 0d 72 05 be 39 a3 5d 3e 57 80 f8 bc
       -0.023217723 -0.13031788 0.21644296 -0.030334635
000010 d1 e1 a9 bd 16 5c 09 3e a4 be cc bd f2 e0 39 be
       -0.08295024 0.13414034 -0.09997299 -0.18152216
000020 1e 2b 5e 3e 12 78 6a 3d 2c 0e e5 bd 22 d3 bd 3d
       0.21696135 0.057243414 -0.11184344 0.09268786
000030 e9 f6 e0 3d 20 85 82 bd cd da 88 be cc 65 41 3e
       0.109845944 -0.06373048 -0.26729432 0.18886489
000040 d7 5f 13 bd 76 a3 eb bd 46 3f f0 3d e0 29 36 be
       -0.035980072 -0.11505787 0.117308185 -0.17789412
000050 be c6 97 be 99 b8 19 be bb 9d 41 bd ad 78 89 bd
       -0.29643816 -0.15011825 -0.047269564 -0.0671247
000060 2f 77 0c 3e 7d 33 e0 3c c3 e4 b5 3d e0 dd 75 be
       0.1371734 0.027368302 0.088815235 -0.2401042
000070 27 0d 74 bd c4 59 9f bd 43 41 e7 3d d8 1b 0d 3d
       -0.059582856 -0.07780793 0.112917446 0.034450382
000080 e7 f7 d6 3d b3 de 28 3e 22 85 0a 3c 74 a9 5b bd
       0.10496502 0.16491203 0.008454593 -0.0536284
000090 40 a4 17 3e c9 15 84 3c f0 51 5a 3e 7b cd 02 3e
       0.1480875 0.01612367 0.21320319 0.12773697
0000a0 b4 87 86 3d ff 06 b0 bd 61 77 4c bd b4 88 1e be
       0.06568852 -0.085950844 -0.049918536 -0.15481836
0000b0 3b 7a 3e be ed 3d f2 3d 9d 89 72 bd f8 b4 f9 3c
       -0.18601315 0.11828218 -0.05921327 0.0304818
0000c0 6b eb 87 bd 67 7a a0 3d 37 f5 f8 bd f8 32 2e 3e
       -0.06636699 0.078358464 -0.12156146 0.1701163
0000d0 f2 71 54 bd 23 b7 0b 3e 67 d4 df bd f8 f3 cb bc
       -0.05186648 0.1364408 -0.109291844 -0.024896607
0000e0 24 ba 3c 3e 5a 2b d0 bd 07 ff 31 bc 5a ad e9 bd
       0.18430382 -0.10164519 -0.010864026 -0.11410017
0000f0 ee fe 17 be 2e 3a 98 3c 94 69 59 3e 6d 54 1f 3d
       -0.14843342 0.01858243 0.21231681 0.038898874
000100 28 b8 6e bd 30 cd 37 3e 56 db 65 3e 7d b2 dd 3d
       -0.058281094 0.17949367 0.22446951 0.108250596
000110 92 0c 04 3e 69 5c 0e bd e3 18 82 3d a9 50 15 be
       0.1289542 -0.034756098 0.06352403 -0.1458155
000120 c0 b9 0e bd 84 15 9c 3d 81 a7 2a bd b3 ac b3 bc
       -0.034845114 0.07621291 -0.04166365 -0.021932935
000130 b8 42 5d 3e 90 b5 8b be e6 ca 49 be ab d9 cf bd
       0.21607482 -0.2728696 -0.19706306 -0.10148939
000140 b6 bb 83 be 7e ee 83 3d 6a fb c9 3c 05 c1 93 bc
       -0.2572915 0.06441973 0.024656016 -0.018036375
000150 e7 1e db 3d 4f cd 62 be b7 59 6f 3e 48 97 2d be
       0.106992535 -0.22148632 0.23374067 -0.1695224
000160 ba 63 0f bd be 47 13 bd 7d 3a 85 be 91 0d e0 bd
       -0.035007216 -0.03595709 -0.26021186 -0.109400876
000170 bc 87 4d be dd 38 b7 3d 1f 3d fb bc 68 c5 47 3e
       -0.2007131 0.08946393 -0.030668793 0.19508898
000180 62 ac 40 3e ab 1c 72 3d 8b e5 44 3e ab 28 88 bb
       0.18815759 0.05910937 0.19228189 -0.0041552386
000190 96 84 3c be 64 b3 98 3d 96 8d 2b 3d cc 8b f0 bd
       -0.18409953 0.07456091 0.041883074 -0.11745414
0001a0 d3 85 e0 3d af 0b 19 3c b7 f6 08 be 8a d6 9d 3d
       0.10963025 0.0093411645 -0.13375364 0.07706936
0001b0 34 28 63 3e 5a 90 53 be ae d0 24 be ce d3 0d 3d
       0.22183305 -0.20660535 -0.1609523 0.03462582
0001c0 c5 e9 26 3e b0 4c 38 3e 2e 04 0f 3e 8d da c2 bc
       0.16300113 0.17998004 0.13966438 -0.023785854
0001d0 71 ad 3d be 94 a4 6b be fb cf 95 bd dd 91 3c be
       -0.18523194 -0.23012 -0.0731506 -0.18415017
0001e0 fa c5 b4 bc 2c 45 16 be 93 92 69 3d da 88 ab 3c
       -0.022067059 -0.14674824 0.05702455 0.02093928
0001f0 33 e8 24 3e 0f ee e1 3d 36 eb 0a 3e 1d 3b e9 bd
       0.16104202 0.11031734 0.13566288 -0.11388228
000200 11 ec 9a bc 53 66 a4 3d 30 47 3e 3d b3 9c 2b 3e
       -0.018911393 0.08027329 0.04645461 0.16758995
000210 7f 66 77 3d 29 ed 5e 3d 6c 79 a3 bd 62 af d5 3d
       0.060400482 0.054425392 -0.07982144 0.10433842
000220 0b 6d 9d bd d1 f3 1a 3e 87 d0 09 3e 22 f6 54 be
       -0.07686814 0.15132071 0.13458453 -0.20797017
000230 43 c7 f3 bd a1 f9 55 3e 82 db 1e 3e 4c 9b 73 3c
       -0.119032405 0.20896007 0.15513423 0.014868569
000240 6e 14 84 bd 02 c4 49 3e 59 be 64 3e 93 1d 67 be
       -0.06449209 0.19703677 0.22338237 -0.22569875
000250 ea 17 2b 3e 4f f7 62 3e 0d c1 ec 3d 92 c3 17 be
       0.16708341 0.22164653 0.11560259 -0.14820698
000260 b7 4b 52 bd f3 28 9a bc 41 ba 32 bd 3b 98 1e 3e
       -0.05134174 -0.018818354 -0.043634657 0.15487759
000270 a2 6c 80 3e f4 af 36 3e 90 31 90 bd 0f 6b d0 bc
       0.2508288 0.17840558 -0.07040703 -0.025441675
000280 dd 73 41 be 85 b7 f0 3d 42 1d a1 3c 08 13 d0 bd
       -0.18891855 0.117537536 0.019667272 -0.1015988
000290 73 b2 d2 3c a4 78 2b be 00 c5 65 3e 71 00 5a 3d
       0.025719857 -0.1674524 0.22438431 0.053223077
0002a0 c0 b5 17 be 33 fa 93 3d 82 de 47 be d0 47 3d bd
       -0.14815426 0.07225456 -0.19518474 -0.046211064
0002b0 39 06 06 be 85 f3 46 3d 60 48 eb bd d2 f7 25 be
       -0.13088311 0.048572082 -0.11488414 -0.16207817
0002c0 dd 1d 15 be 09 85 01 3d 06 0e e7 3d f4 10 36 bd
       -0.14562173 0.031621013 0.11281972 -0.04444976
0002d0 de 60 03 3d fa 02 84 3d c5 93 b9 bd 18 7f 53 3e
       0.0320748 0.0644588 -0.09061388 0.20653951
0002e0 54 37 09 3e ee 58 4b be 4b 80 c5 bc d0 c9 8a bc
       0.13400012 -0.19858143 -0.024109026 -0.016941935
0002f0 ff 29 18 bc 03 b9 16 be 02 cd 04 3e e2 47 7c 3e
       -0.009287356 -0.14719014 0.1296883 0.24636796
000300 a3 54 8c bd 8d af f0 bd a5 e4 86 bd 9f 5d 21 3d
       -0.06852081 -0.11752234 -0.06586579 0.039395925
000310 ea 47 2d be fc aa dc 3d 0c 5b 8e 3d 77 3f 2e be
       -0.16921964 0.107748 0.069509596 -0.17016397
000320 a7 a4 57 3c 94 84 ad bd 3b 5e fd bb bd 6a b9 bc
       0.013161815 -0.08472553 -0.0077321804 -0.022633905
000330 40 e4 13 be a6 5c bb 3d 76 b0 25 bd 4f 90 2f bd
       -0.14442539 0.09148531 -0.04045149 -0.042862233
000340 f7 c8 11 be 55 46 cc bc d2 a0 fd 3d 18 f4 f7 3d
       -0.14236818 -0.02493588 0.1238419 0.12107104
000350 87 1b 5d be ce f4 94 bd 74 f8 e4 bd 03 ac cd bd
       -0.21592532 -0.07273255 -0.11180201 -0.10042574
000360 49 42 5e 3e b8 d1 2d be 59 d6 d4 bd ff 5d 25 be
       0.21704973 -0.16974533 -0.10392446 -0.16149138
000370 00 e2 0b be 1f e3 09 bd 3a 0c fd 3d c1 95 26 bc
       -0.13660431 -0.033663865 0.12355848 -0.01016754
000380 91 07 1e be 74 c0 c6 3d d1 33 4c 3e 13 ff 9f bd
       -0.15432574 0.09704676 0.19941641 -0.078123234
000390 43 52 8e 3d cb 7a 02 be d7 61 38 bd d0 77 db bd
       0.06949284 -0.12742154 -0.045015182 -0.10716212
0003a0 8d 7e 66 be ad 37 77 3d 06 b0 26 3e 1c 39 15 3e
       -0.22509213 0.06035583 0.16278085 0.14572567
0003b0 7e 00 5d 3e 96 57 14 3e 55 df a3 bd f5 27 1b 3e
       0.21582219 0.14486536 -0.080015816 0.15151961
0003c0 16 2d 13 3d 6a 5f 40 3e c7 0b be bd a3 27 7a be
       0.03593167 0.18786398 -0.0927959 -0.24429183
0003d0 d5 3e 20 be 50 68 26 be 91 8a 8b 3c 84 e2 80 3c
       -0.15648969 -0.1625073 0.017033847 0.015733011
0003e0 ea 54 01 be 0c 27 40 be 85 5d a8 bc 18 f2 03 3e
       -0.12630048 -0.18764895 -0.020552406 0.1288532
0003f0 63 e5 69 be ef 8c 32 be e2 1f 2c 3c 8e b8 31 3e
       -0.2284141 -0.17436574 0.010505648 0.17355558

recurrent._update.bias_pool f4 [3, 10]
000000 37 44 88 bf 8f 1f a1 be b5 5f 21 3f cb 76 b5 3d
       -1.0645818 -0.3146939 0.6303666 0.088605486
000010 b9 88 37 bf 76 00 8f 3d 09 a3 f9 be f4 c4 70 bf
       -0.71693 0.0698251 -0.48757198 -0.94050527
000020 27 e5 fe 3e 38 a0 50 bf 77 a3 2a 3e 9b 7d 74 3f
       0.49784204 -0.81494474 0.1666392 0.9550416
000030 ac e6 19 3f 98 2b 33 be a9 9d a8 3d fa 6c 2c be
       0.601176 -0.17497098 0.08233196 -0.16838446
000040 7c 1f 2f 3e 46 b0 e5 bb fb f4 54 be 69 d6 1f bf
       0.17101854 -0.007009539 -0.20796578 -0.6243654
000050 5d 57 7a 3e ce 74 2c be 97 8b 55 bf 7b 14 03 bf
       0.24447389 -0.16841432 -0.8341612 -0.51203126
000060 b8 8d 24 3f 1f 35 76 bf 65 f6 b9 3e 8d bc 98 3e
       0.64278746 -0.96174806 0.36320797 0.29831353
000070 67 2f 72 bf 36 72 9a 3e
       -0.9460358 0.3016526

linear.weight f4 [20, 10]
000000 f9 16 a4 3e a5 1f 4b 3e 1a c6 cc 3e dd 08 9f 3e
       0.32048777 0.1983629 0.3999489 0.3106145
000010 fa f3 c4 3e 23 b8 e3 3e a2 db 97 3e a0 fd 8d 3e
       0.3846739 0.44476423 0.29659754 0.27732563
000020 9d 07 81 3e f0 90 80 3e 6c f3 a2 3e ea 50 4e 3e
       0.2520112 0.2511058 0.3182634 0.20148054
000030 67 15 cf 3e 75 cb 9d 3e ca d2 c2 3e 4e 7a e1 3e
       0.40446016 0.30819288 0.38051444 0.44038624
000040 1e a4 96 3e 4a e8 8f 3e ca 9c 81 3e 32 5d 7e 3e
       0.29422086 0.2810691 0.25314933 0.24840239
000050 ea c1 a4 3e a7 5b 4a 3e 2d f5 cd 3e d2 8b 9d 3e
       0.32179195 0.19761525 0.40226117 0.30770737
000060 4a da c7 3e 14 0e e5 3e c6 f2 95 3e cf 10 8f 3e
       0.3903373 0.44737303 0.29286784 0.2794251
000070 70 6e 81 3e 7d 0f 80 3e 76 8e a3 3e 88 a1 4b 3e
       0.2527957 0.25011817 0.31944627 0.19885838
000080 f9 77 cd 3e d6 8f 9d 3e 13 08 c2 3e ee cb de 3e
       0.40130594 0.307738 0.37896785 0.4351496
000090 cb 84 96 3e 4e 56 8f 3e 0c c0 82 3e 00 64 7a 3e
       0.29398188 0.27995533 0.25537145 0.2445221
0000a0 75 37 a4 3e d4 8a 48 3e 6b b4 cf 3e 01 94 a0 3e
       0.3207356 0.19584209 0.40567335 0.31362918
0000b0 1b 11 bf 3e 45 4c dc 3e e2 07 99 3e c1 fd 8f 3e
       0.37317738 0.4302694 0.29888827 0.28123286
0000c0 91 7d 82 3e d2 86 7c 3e 3d da a3 3e e2 7d 4c 3e
       0.25486425 0.24660805 0.3200244 0.19969895
0000d0 4c fc cd 3e 9c d3 9d 3e fd 71 c4 3e bd 66 e0 3e
       0.4023155 0.30825508 0.38368216 0.43828383
0000e0 88 e3 96 3e 3e 6e 90 3e 7f 4d 83 3e 99 47 7c 3e
       0.29470468 0.28209108 0.25645062 0.24636687
0000f0 4b 5e a2 3e d6 68 4c 3e 11 45 cd 3e 62 7d 9d 3e
       0.31712565 0.19961867 0.40091756 0.30759722
000100 10 27 c2 3e ed 08 de 3e 93 a7 95 3e 61 57 90 3e
       0.37920427 0.43366185 0.2922941 0.28191665
000110 e3 cd 82 3e 1d 4a 7a 3e 5c 89 a2 3e df 78 4d 3e
       0.25547704 0.24442334 0.31745422 0.2006564
000120 3a 7b cb 3e e2 f8 99 3e 44 72 c8 3e 3e 1b e3 3e
       0.39742452 0.30072695 0.39149678 0.44356722
000130 57 1d 93 3e 80 c2 90 3e e4 68 83 3e d1 5e 7a 3e
       0.28733322 0.28273392 0.25665963 0.24450232
000140 a1 60 a1 3e 22 3f 4a 3e 79 d9 ca 3e 1a 6e 9e 3e
       0.31519035 0.19750646 0.39619043 0.30943376
000150 78 33 c1 3e 66 c6 db 3e 79 f2 96 3e 34 d7 90 3e
       0.3773458 0.42924803 0.29481867 0.28289187
000160 85 e5 83 3e c7 34 76 3e d4 e7 a0 3e 47 58 4c 3e
       0.25761047 0.2404357 0.3142687 0.1995555
000170 c7 1a ca 3e 62 cf 9e 3e 0e 6b c2 3e 06 7d dd 3e
       0.39473554 0.31017596 0.379723 0.43259448
000180 14 7f 96 3e 82 5f 90 3e 94 ee 83 3e f6 cf 7a 3e
       0.29393828 0.28197867 0.25767958 0.24493393
000190 6e 2f a0 3e 77 46 4c 3e 77 92 c8 3e c7 f1 9c 3e
       0.31286186 0.19948755 0.39174244 0.3065321
0001a0 dd 2a c3 3e 81 38 dd 3e bf b6 95 3e 4d cf 90 3e
       0.3811864 0.43207172 0.29240987 0.28283158
0001b0 f3 f7 84 3e 89 33 77 3e 8e b0 9e 3e 67 07 51 3e
       0.2597042 0.24140753 0.30994076 0.2041298
0001c0 6a e6 c9 3e 72 81 9b 3e 1a 79 bf 3e 44 61 d9 3e
       0.39433604 0.30372196 0.3739708 0.4245702
0001d0 01 df 93 3e ad 73 91 3e 82 a8 85 3e 70 23 76 3e
       0.28881076 0.28408566 0.26105124 0.24036956
0001e0 c0 e8 9e 3e 15 0b 4f 3e 28 41 c7 3e d4 1b 9a 3e
       0.3103695 0.20219071 0.38916898 0.30099356
0001f0 9e aa c6 3e 83 5a df 3e 16 2f 93 3e ab fa 90 3e
       0.38802046 0.43623742 0.2874686 0.28316244
000200 a7 e7 84 3e fa 48 75 3e 31 57 9e 3e c1 7a 4e 3e
       0.25957987 0.2395362 0.30925897 0.20164014
000210 d0 c8 c6 3e 2e 09 9c 3e 8e 80 bf 3e d9 e7 d7 3e
       0.38825083 0.30475754 0.37402767 0.42169073
000220 69 74 94 3e c4 58 90 3e 3f 20 86 3e 52 85 70 3e
       0.28995064 0.28192723 0.26196477 0.23488358
000230 bc 57 9d 3e e9 53 50 3e 9c 7a c7 3e 77 69 9c 3e
       0.30731 0.20344509 0.3896073 0.30549213
000240 39 79 be 3e 57 dc d6 3e 83 1c 94 3e 80 23 91 3e
       0.3720186 0.4196498 0.28928003 0.28347397
000250 0e 4a 86 3e 96 c5 73 3e 9b 43 9c 3e c5 d6 4f 3e
       0.26228374 0.23805842 0.3052033 0.20296772
000260 ad df c3 3e c1 a7 9a 3e 54 45 c1 3e 57 d0 d7 3e
       0.3825659 0.3020611 0.37748206 0.42151138
000270 47 25 93 3e 40 d0 90 3e e6 33 87 3e d8 cd 6c 3e
       0.28739378 0.28283882 0.26406783 0.23125398
000280 dd 31 9a 3e a1 9c 50 3e b7 22 c3 3e d6 7e 9b 3e
       0.30116168 0.20372249 0.38112423 0.30370206
000290 e1 1f be 3e d1 ae d4 3e 24 09 93 3e 60 8c 90 3e
       0.37133697 0.41539624 0.2871791 0.28232098
0002a0 e3 14 88 3e 6f 3e 6c 3e e0 8d 9a 3e 5c a3 4f 3e
       0.26578435 0.23070692 0.30186367 0.2027716
0002b0 bb be c0 3e 91 22 9a 3e 98 ba c2 3e f4 0b d7 3e
       0.37645516 0.30104497 0.38032985 0.42001307
0002c0 23 5e 92 3e 26 13 90 3e 31 d3 87 3e 1e 01 6b 3e
       0.28587446 0.2813961 0.26528314 0.22949645
0002d0 10 a6 9a 3e 9c 8f 4b 3e aa 5c bf 3e a6 a9 9a 3e
       0.3020482 0.19879001 0.37375385 0.30207556
0002e0 e1 23 be 3e f2 6e d3 3e 54 a1 92 3e fa ab 8e 3e
       0.37136748 0.41295582 0.2863871 0.27865583
0002f0 b4 5f 88 3e 74 36 67 3e 46 9a 99 3e 9f 58 4c 3e
       0.26635516 0.22579366 0.30000514 0.19955681
000300 6f 20 bf 3e f8 d4 9b 3e c6 80 be 3e a0 43 d3 3e
       0.37329432 0.3043592 0.3720762 0.4126253
000310 bf 1a 93 3e c2 55 8e 3e ad e8 87 3e 39 e6 68 3e
       0.28731343 0.27799803 0.26544705 0.22744073

linear.bias f4 [20]
000000 8d 90 13 3e 9d 3f 11 3e a7 18 11 3e 34 b7 16 3e
       0.1441061 0.14184423 0.1416956 0.14718324
000010 8a 19 1f 3e c9 74 15 3e 65 03 18 3e f1 33 1b 3e
       0.15537086 0.14595331 0.14845045 0.15156533
000020 6a 20 1e 3e 18 05 1a 3e 22 28 1e 3e a5 9a 1e 3e
       0.15442052 0.15041006 0.15444997 0.1548868
000030 53 78 1e 3e bd 51 24 3e 76 ed 22 3e 53 96 23 3e
       0.15475588 0.16046806 0.15910897 0.15975313
000040 43 b4 26 3e a4 d7 25 3e d7 cd 29 3e 79 4a 27 3e
       0.16279702 0.16195542 0.16582428 0.16337003
