TFM/experimentos_split/results/branch_fault/EvolveGCN.pt (torch, 293466 bytes, 7 tensors)

recurrent.initial_weight f4 [100, 100]
00000000: 2aca e4bb 5a01 bf3b 9086 05bd 8abd ec3d
00000010: d974 0ebd 17d2 983d f3dd c73c 05d6 29be
00000020: f044 c23d 2401 f53d ea98 0fbd 3110 9a3d
00000030: 518c 873d 96a2 a8bd 1bc0 8b3d 55c4 573d
00000040: 7142 aebd 4047 183e 97c0 c8bc 60f6 0cbe
00000050: 5e59 723c ac41 5ebd da2d 9bbd 43d4 9a3d
00000060: 51be e23d e014 11be df73 b4bc 1ff1 0f3e
00000070: 7e87 f9bd 3129 023b 1609 ab3d 37c2 a2bd
00000080: 2fa0 cd3d 8aae 093a a3b5 c638 f48f bf3d
00000090: 1e48 d93c 9598 e0bd 64b8 63bd ab05 b9bd
000000a0: 64d3 183e 6a62 1fbe 2adf eb3d 6bed 883c
000000b0: 218a 203e db12 0dbe 65ba e23d e7a0 78bd
000000c0: 3dbf 2d3e 472f 9cbd ec01 063e 88da 28bd
000000d0: d588 9d3d 917f 953b 99b0 8cbd e134 c3bd
000000e0: 6064 173e 7389 efbd 58d0 253e 0b98 dc3d
000000f0: 72cc bc3d c7c3 26be c330 0c3d a8ba aebd
00000100: c836 5f3b f68e 0e3e 3f80 1a3c f922 e53c
00000110: 266a cbbc 8a45 c0bd 8ff5 803d 5310 243d
00000120: 9f60 09bd 6f9c 27be 6e21 24bd a549 a5bd
00000130: 0c0f 3b3b bf30 c3bd 2b08 66bc 2b8a 793d
00000140: 1f50 ea3c 11b3 bd3d 3112 193e 3851 8b3d
00000150: 8da0 23be aa0c 1abe 713f 48bd 64c9 623c
00000160: 5c0f 933d 748a 2bbe 0acd 0e3e 5b4a f8bd
00000170: 72fc 2e3e db3f c7bd 2342 6a3d 6c8e f23d
00000180: ae90 7b3d 4f22 c93d b59f 223e 60c9 823d
00000190: c85e 26bc 3fd1 94bd 1d64 683d 2562 c9bc
000001a0: 5cbe 80bd df47 d5bc 987a cfbd 21dc 263e
000001b0: feac 57bd c1f5 7f3d df55 033e b915 2b3e
000001c0: e088 3b3d 2bbe 123d d7f8 96bd 42ab 95bc
000001d0: 2949 8abd 8b95 153d af6a 7abd 9739 0dbe
000001e0: 0476 0f3d d37e 093d d28d e13d 80e0 eabd
000001f0: 4588 7ebd dd6a cbbd 5be2 103e 6d50 ba3d
00000200: 32bc 4e3b 50ad 23be 76f4 91bd 6809 3f3d
00000210: be2e 163d 6377 eebd 5d56 ad3d f1e6 3d3c
00000220: 665d 11be fc0c 103e 7537 9ebd 3f57 d3bd
00000230: 3511 69bd 999c 523d 21b6 3a3d 520c 9dbc
00000240: 6979 10be 86e1 7a3d fd6a 463d 0a66 bb3c
00000250: 2d07 1abc 4ad5 5d3d 6df5 1d3e 2e3b d6bd
00000260: ee80 a83d 8c32 f93c e2de 09be d64e 2cbe
00000270: 4d3b 1d3e bb11 dd3d 69aa f83c 16d1 233d
00000280: 06de 783c a341 363d a064 c9bd 4ecc 873d
00000290: b49d 2c3e 6872 94bd 0585 7f3d b734 c43d
000002a0: efc1 22bd 5ca9 cb3d 4be8 cc3d aaee 043d
000002b0: 3475 2fbe ca60 fb3d d5d4 0c3e c1d2 973d
000002c0: 5c14 a23c 4c1d 663c b456 be3c 80fe fb3d
000002d0: 896a f23d 7038 b9bd 4cb6 693d abd0 f0bc
000002e0: a3a6 e73d a075 9ebd 29cc de3d 703a 423d
000002f0: c1a2 e63c ad44 523c 6ced ca3d 15c4 213e
00000300: ea65 2a3e f536 fcbc f5c0 2c3e 24e2 213e
00000310: bead 153e 30f0 a23d 3b47 31be 9471 1abe
00000320: de1b 21be dedc cebd f25a 20be ef33 453d
00000330: 3b13 2c3e 2d6d a8bd 12a8 a23d 3122 393d
00000340: 5e1f 3d3d c68a 893c fe88 843d bea3 da3c
00000350: d550 643d 0f00 a33d fb48 2abe 3bd0 27be
00000360: e22a 633d fa4e 2cbe e56c 273d a99b 893d
00000370: 681f 11be a8d5 f03d 495d f9bd afd4 f4bd
00000380: 7b38 9c3d 1693 fe3d 35cf 03bc 33b3 4bbd
00000390: d832 cf3b a5e9 a0bd 7df2 0fbe 7766 a4bd
000003a0: 556e 16bd c07d 9cbd ad04 1b3e 03e3 d73d
000003b0: 876b 7b3c 76f7 073e 083f b9bd 5d94 c53d
000003c0: 7beb e1bd 11ff 2fbe b781 483d 44fa 393d
000003d0: 993a 3ebc 76f0 9a3d c1d6 3a3c df37 8a3d
000003e0: cf99 6e3a e666 1cbe 193e 30be 03c1 3cbd
000003f0: 7f42 1b3c b777 03be 8669 693d 8060 8dbd
-0.0069821076 0.0058290185 -0.032599032 0.11559589 -0.034779403 0.074619465 0.024397826 -0.16585548
0.09485805 0.11963108 -0.03505794 0.075226195 0.0661856 -0.08234136 0.068237506 0.05267747
-0.085087664 0.1487093 -0.024505896 -0.1376586 0.014791815 -0.05426185 -0.07577105 0.07560017
0.11071456 -0.1416812 -0.022027908 0.14056824 -0.12184046 0.0019860978 0.083513424 -0.079472
0.10040318 0.00052521436 9.475208e-05 0.09353629 0.026523646 -0.10966603 -0.05559577 -0.09034284
0.14924389 -0.15564886 0.115171745 0.016714772 0.15677692 -0.13776724 0.11070708 -0.060700323
0.16967483 -0.07626205 0.1308667 -0.041224033 0.07692114 0.0045623262 -0.06869621 -0.0953157
0.14784384 -0.11696138 0.16192758 0.107711874 0.09218682 -0.1628562 0.03422619 -0.085316956
0.0034059752 0.13921723 0.00942999 0.027970778 -0.024830889 -0.093882635 0.062968366 0.04005463
-0.03353941 -0.16368268 -0.040070944 -0.08070687 0.0028542904 -0.09530782 -0.014040033 0.060922783
0.028602658 0.0926267 0.14948346 0.068026006 -0.15979214 -0.15043893 -0.048888627 0.013841961
0.07180664 -0.16752034 0.13945404 -0.12123557 0.17088488 -0.09728976 0.05719198 0.11843571
0.061417274 0.09820997 0.15881236 0.063860655 -0.010154434 -0.07266473 0.0567361 -0.024582932
-0.06286308 -0.026035247 -0.10130805 0.1629491 -0.052655213 0.06249023 0.12825726 0.16707505
0.04578483 0.03582589 -0.07371681 -0.018270139 -0.067522354 0.03651957 -0.061136898 -0.137915
0.035024658 0.033568215 0.11013378 -0.11468601 -0.062141676 -0.09932492 0.14148848 0.09097371
0.0031545279 -0.15984082 -0.07126705 0.04663983 0.03666567 -0.11643865 0.08463738 0.011590705
-0.14195785 0.14067453 -0.07725421 -0.10319375 -0.056901176 0.051418874 0.045583848 -0.019170914
-0.14108814 0.061250232 0.048441876 0.022875804 -0.009401125 0.054158486 0.15425654 -0.104605064
0.082277164 0.03041961 -0.1346393 -0.16826949 0.15354653 0.107943974 0.030354695 0.03999432
0.015189653 0.04449619 -0.09833646 0.06630765 0.16857034 -0.07248384 0.062382717 0.09580367
-0.03973573 0.09944412 0.10005244 0.03245417 -0.17134553 0.122743204 0.13753064 0.07413245
0.019785099 0.014045071 0.023234703 0.123044014 0.11836726 -0.09043968 0.057058617 -0.029396376
0.1131108 -0.07737279 0.10878784 0.04741901 0.028153779 0.012833756 0.09908566 0.15797456
0.1664044 -0.030787924 0.16870482 0.15808922 0.14617059 0.079559684 -0.17312329 -0.15082389
-0.15733287 -0.10100721 -0.15659693 0.04814523 0.16804211 -0.08223949 0.07942213 0.045198623
0.046172492 0.016789805 0.06471442 0.026689406 0.05574115 0.079589956 -0.16629402 -0.16388027
0.055460818 -0.16827002 0.040875334 0.06719143 -0.14172137 0.11759502 -0.12175996 -0.11954629
0.0762796 0.12430398 -0.0080450075 -0.049731445 0.0063231997 -0.07857064 -0.14057346 -0.08027356
-0.036726315 -0.076411724 0.15138502 0.10541346 0.015345461 0.13277993 -0.090452254 0.09647439
-0.110312425 -0.17187144 0.04895183 0.045404688 -0.01161065 0.075653955 0.01140374 0.06748938
0.0009101899 -0.15273628 -0.17211188 -0.046082508 0.009476303 -0.12838636 0.0569854 -0.069031715

recurrent.recurrent_layer.weight_ih_l0 f4 [300, 100]
00000000: 09ed 303d 399e 003e beaa 9dbc 9773 a73d
00000010: 0f8f 3ebd dfb3 96bb 92de 8ebd 3052 423d
00000020: dd99 b23d 4bd1 c8bd 8d1b 193e cf82 cd3c
00000030: ca02 413d cfc4 f83a b8f4 a83d cd91 ecbc
00000040: 8399 2d3e 0688 c2bc 0806 8ebe d770 993d
00000050: 2264 8ebd 3a4f 79bb 525b 91bc 4043 b43d
00000060: 87a6 8dbd e843 82bd f9ed 7fbc 38f7 febd
00000070: 5d02 e9ba 3fc7 bdbd e79e 923d 1cb5 c8bd
00000080: b184 f73c 91f6 bc39 47a4 95bd 28aa 4d3d
00000090: b315 a0bb 7b0f 903d d622 f03c 71b8 46bc
000000a0: 9c85 d23c 8842 09bb 9fe8 b33d f4b9 c23d
000000b0: fe41 1f3c 28b4 eebc 4e77 9e3d d400 653b
000000c0: fab6 553d 6949 0ebd e116 69be ea71 95bc
000000d0: b94b b4bd 3210 b53d 6d48 263d f9c1 643c
000000e0: 59f0 023c 52b1 403c 16e8 593d bedc cdbd
000000f0: b915 7bbd 4e8a a4bd 6084 413c 75f8 21bd
00000100: 5cc3 003c 0374 15bd 2a50 a43d 303b 61be
00000110: bed6 d2bc 251b 0bbd 4352 853d 8900 4a3d
00000120: c05c 923d 43e7 84bd 4acf 82bd e571 c8bd
00000130: 2189 68bd ec77 8f3d 8dea 6a3d 6f7a 6d3d
00000140: 668c 82bd e621 00be fdbc 8f3d ea5b 7bbd
00000150: 7a93 c93d 8ff5 61bc fe7e 103e eb95 cfbd
00000160: c406 d4bc d578 b33c c154 0bbc a71f 4fbd
00000170: 2624 1e3e 2a5d cc3d d6b0 c9bd a67f 82bd
00000180: ff02 f2bc c301 72bd 8874 58bc 5d4a d4bd
00000190: 2e45 47bd 0e99 883d bc3c 4fbc 4427 9fbd
000001a0: 993c e2bb 8bdb 85bd 821e bdbd b849 43bd
000001b0: b003 bfbd ba96 a7bd cade d23d 04b2 5e3b
000001c0: 4d08 3a3c 1727 ecbd 2198 ebbc ba4b 59bd
000001d0: 295d 293e 3b10 06be 115d 8bbd 4ce3 77bd
000001e0: b695 a93c 8e21 9d3c 5b01 963c cd35 55bd
000001f0: 353a aabd 8ff8 8abd 41bd 38bd c724 74bd
00000200: 8d53 9b3d b4c5 18b9 d2a8 e23d 0c51 393d
00000210: 1668 f3bd 61d0 b73d 5089 bebc 662f 75bd
00000220: 24e0 8cbd 1628 e2bd c449 4a3d da21 0fbc
00000230: 8f0e 6e3d 6d04 bebd d66b a83d f54c a5bd
00000240: 1556 16bd cc4a 913c 15f4 233d 8de3 8a3d
00000250: a1ff 9a3d c566 aabd b3ac 8b3c 3fc1 b2bc
00000260: 6719 fbbc 7a92 b8bd 9fe3 ec3d f633 c2bd
00000270: c03f 053d 3b01 1b3d c038 173d cea8 c0bd
00000280: 3c3d dd3d 3c30 e63a 987f f038 c8e4 ebbd
00000290: b044 473d fdeb e9bc 7b9a afbd c9e9 df3d
000002a0: 3f33 0d3d 4944 3abd 9655 59bd 811e 7bbc
000002b0: 2989 873d 26b0 713a a94d 3fbd b45e 81bd
000002c0: 1a5a a0bd 1865 b23d 8d72 e73d cda5 dabd
000002d0: 9fdd 6f3c 7e28 2a3d 237d e93c 7efe 8bbc
000002e0: 26c7 833d b639 8e3d 7f1a 833c fa3c 2abd
000002f0: 22a3 2ebd 5a2b 4f3c 2c29 c7bd fd4a 3ebd
00000300: 547f 3e3d 07e0 ff3d 6a87 65bc 72fe 43bc
00000310: c5f5 843b 8d0b 723c 7b64 893c 2d8b aebb
00000320: 8c66 3abd 02ec e3bc caf7 0a3e 7050 233d
00000330: ecf3 763b ea77 c2bb 5588 77bd c3bc d9bd
00000340: 2f07 20bb a634 4e3d 77b6 db3c 18be e43d
00000350: 9647 91bd 9d48 923c c2e5 fc3b 0943 bf3d
00000360: 8df5 613d 4d15 ddbc d015 ba3c 8591 b33c
00000370: 6e45 a0bd 82e3 b83d 85d9 42bc d31b 1dbd
00000380: 0ca0 d5bd f030 953d 3b6a c03d 5a58 2f3e
00000390: ed07 6cbd 55dc a9bd fe24 babd d9f4 d0bc
000003a0: 224e 253d d90c 803d 2763 583d 034a 0d3d
000003b0: a0af 31bb b00e 9dbd 4eea 0dbe 13bc a9bd
000003c0: 5ae2 f93c 5e1e d8bd ec8f 443d 4760 4ebc
000003d0: 2778 9dbd b53f 48bd ecd5 0dbd 487a 093d
000003e0: 2791 0cbc c54e 7c3d 7d80 363d 61b4 81bd
000003f0: d87f 1b3c d652 bbbd 2fb0 41bd a595 83bd
0.043194804 0.12560357 -0.019246455 0.08176344 -0.04652315 -0.004599079 -0.06976046 0.04744166
0.08720753 -0.098055445 0.14951916 0.025086788 0.0471218 0.0018979552 0.082498014 -0.028878117
0.16953091 -0.023746502 -0.27738976 0.074922256 -0.069526926 -0.0038041607 -0.01774374 0.088018894
-0.06916528 -0.06360608 -0.015620702 -0.12449497 -0.0017777194 -0.09266519 0.071592145 -0.09800169
0.03021464 0.0003604186 -0.07306724 0.0502111 -0.0048853992 0.07034203 0.029313486 -0.012128935
0.025698476 -0.0020944197 0.08784603 0.09508124 0.009720324 -0.02913864 0.07737599 0.003494312
0.052176453 -0.034737978 -0.22762634 -0.018242795 -0.088035055 0.0884098 0.040596414 0.013962262
0.007991874 0.011761026 0.05319985 -0.10051869 -0.061300013 -0.08034192 0.011811346 -0.039543588
0.007859077 -0.03648759 0.080231026 -0.21995234 -0.025737163 -0.033961434 0.06509831 0.049316917
0.07146597 -0.06489422 -0.063871935 -0.09787349 -0.0567714 0.07005295 0.05735259 0.05797809
-0.06374435 -0.12512931 0.070184685 -0.061366953 0.09842582 -0.013791456 0.14110944 -0.101360165
-0.025882132 0.021908203 -0.008504094 -0.050567295 0.15443477 0.09978707 -0.09848182 -0.06372003
-0.029542444 -0.05908371 -0.013211377 -0.10365746 -0.04864996 0.06669818 -0.012648758 -0.07771161
-0.0069041965 -0.06536015 -0.092343345 -0.047677726 -0.09326875 -0.08183046 0.102964 0.0033980617
0.011354518 -0.11530893 -0.028759064 -0.053050734 0.16539444 -0.13092129 -0.068048604 -0.0605195
0.02070127 0.01918104 0.018311193 -0.05205326 -0.08311883 -0.0678569 -0.04510236 -0.059605386
0.075842954 -0.000145695 0.11067356 0.045243308 -0.11885087 0.08975292 -0.023258835 -0.059859656
-0.06878689 -0.11042802 0.049386755 -0.008736098 0.058119353 -0.09278188 0.08223693 -0.08071319
-0.036703188 0.017735861 0.040027697 0.06781683 0.075682886 -0.08320383 0.017050123 -0.021820663
-0.030651761 -0.09012313 0.11566853 -0.09482567 0.0325315 0.03784297 0.036919355 -0.09407197
0.10802695 0.0017561982 0.00011467858 -0.11518246 0.04864949 -0.02855491 -0.08574387 0.10933263
0.0344727 -0.045475278 -0.053060137 -0.015327097 0.06617958 0.00092196686 -0.046704922 -0.06316891
-0.078296855 0.08710688 0.11301146 -0.10676155 0.014640241 0.041542523 0.028502053 -0.017089125
0.06434469 0.06944601 0.016003845 -0.041562058 -0.042636044 0.012644613 -0.0972465 -0.046458233
0.04650815 0.12493902 -0.014009336 -0.01196252 0.0040576183 0.014773262 0.016771546 -0.0053266496
-0.045507953 -0.027822498 0.13571087 0.039871633 0.003768201 -0.005934705 -0.06043275 -0.106317066
-0.0024418344 0.05034318 0.026820404 0.1116907 -0.07093732 0.01785689 0.007717819 0.09338958
0.055165816 -0.026987696 0.02271548 0.021919975 -0.07825743 0.09027769 -0.011892681 -0.038356613
-0.10430917 0.07284725 0.09395262 0.17123547 -0.057624746 -0.08293978 -0.09089087 -0.025507377
0.040357716 0.062524505 0.052828934 0.03449441 -0.0027112737 -0.07668817 -0.13858911 -0.082878254
0.03050344 -0.10552667 0.047988817 -0.0125961965 -0.07688933 -0.04888888 -0.03462784 0.033563882
-0.008579529 0.061598558 0.04455613 -0.06333233 0.00949093 -0.09146659 -0.047287162 -0.06425027

recurrent.recurrent_layer.weight_hh_l0 f4 [300, 100]
00000000: 3b37 4c3d 0d35 d43d 8986 7fbd 3115 d63c
00000010: 20b8 edbd b7a6 973c 544e 65bd cefe babd
00000020: 3280 473a 1b1b c0bd 5d80 ffbb 6714 b3bd
00000030: 1e2d febd 9d7c e23c add8 a93d a28e 383d
00000040: 2cc7 93bb 1c4b bfbd 3867 a8be 1df4 38bd
00000050: c964 84bd efce 093d 3136 cd3d 3261 2b3d
00000060: 0f20 b8bd b0aa 893d 3e59 d13d bb69 e13c
00000070: cd33 d3bd 3edf 47bd 8b30 80bd a2e3 973d
00000080: f25c 2f3d 1a5f 09bc a644 2b3d 2d50 b63b
00000090: 9a38 53bd 106d dc3c da41 12bd 977b 643d
000000a0: 9ffe 373d 4f76 f13d 63b2 57bd 27b5 61bc
000000b0: 5d89 7bbd 248b 673d 3eb5 d53d 2a83 27bc
000000c0: 58c9 943c 730e 95bd 2adb e4bd 485b 1dbb
000000d0: 41f2 823d c6c7 373b fe14 893c 33b0 78bd
000000e0: f86e 153d 6433 41bd 06f9 f23c 73a0 3dbc
000000f0: 7fc1 f7bd db6e 9e3d ca99 bfbb d668 c0bc
00000100: 8819 20bc 1f7b 5fbd 7e48 6bbd 6fa6 c0bd
00000110: ef78 f33d 5cb1 a5bc 240b 1e3c 1d3e 4dbd
00000120: c019 90bd eb69 9cbd 54d9 bf3d dd6a a3bd
00000130: e85a 8ebb 60f2 993d b5a0 1cbd 0e17 bebd
00000140: 77de 7f3d 1e71 8abd 4644 48bd a98b 55bc
00000150: 355e 6d3d 6025 0abd b7b0 1c3d 8f9d 86bd
00000160: 0772 0a3d e540 91bc cbc6 cdbd 090b 463d
00000170: 077a 073e 30c7 f43d 5c3b f8bd 2b3a 643c
00000180: 3ae4 24bd 2ac3 ddbd f601 cd3d e77a 92bd
00000190: 0443 8e3d 31df 483c dbfb c93c 5e7c a1bd
000001a0: f33e 13bc c09e 9bbc 6451 9c3d 5fe7 79bd
000001b0: 6099 473d a1ed bebd 0f67 38bc 7145 b2bd
000001c0: 930a 4f3d 2738 b6bc 643f 9f3d 7885 663a
000001d0: d03d 193e 6a9f a7bc 518d a3bd a473 2dbd
000001e0: 70af 84bc fc9c 4fbc e59e b33d 3101 85bd
000001f0: b4e1 2f38 ea90 9abb 2856 13bd e664 ca3a
00000200: 32b7 533c 74ba a1bc a80c 4bbd 62c6 a93d
00000210: 83db 41bd 6eda 51bd 1319 8abd f240 173d
00000220: d8fd a6bd c909 43bc 8482 e73d dbe2 68bd
00000230: 28b3 bf3d bd72 3e3d 8f2c 5c3d 74bb 513d
00000240: 9a1f 7abd 160a fd3c 422e 9fbd b996 ac3d
00000250: d970 00bc 2af6 743b b0f8 8c3d 4829 e9bc
00000260: c974 dabd a374 acbd ce24 783d 1027 1f3d
00000270: 49c1 613c 9568 2ebd 85e1 bd3c 2869 09be
00000280: bf37 8e3c 95f4 aebc dfc3 5ebd 6896 e8bd
00000290: 0281 3fbd fbd6 29bd c71d 20bd 2dca 953c
000002a0: 6752 593d 8a38 7dbd 22e6 cb3c cef6 e1bd
000002b0: 4853 5e3d a18a fabc f7d9 0d3d 11f8 ffbc
000002c0: e6b6 a7bc 30a5 053e 65dc ab3d 81fd d0bd
000002d0: 6ef0 7b3d dd74 a23b 0786 513d 666e dc3c
000002e0: 23a6 e23d 0b85 8e3d 9005 0bbd 9323 eebd
000002f0: 661a 1b3d 1a06 b8bd be8c dabc dc13 4939
00000300: eddb ab3c 02cb 8d3d 0a31 a4bd 7155 00bd
00000310: e741 9cbc 50e9 95bd f462 733d daaa a6bd
00000320: 8354 06bb a2cf e3bc 4ecc d63d f263 d539
00000330: 4fdb 573d d868 d93d dbf6 9dba f5c0 803d
00000340: fad8 a13d 0687 973d 676d 803d 1478 d83d
00000350: c0e9 c93d 0998 073e c413 96bc 1a88 c2ba
00000360: 987d 19bc 1c25 9b3d 4484 393c 434c 0ebc
00000370: 3adf 9c3d 24a1 993d 0761 1d3d 1c28 b7bd
00000380: c13c 5cbd 4274 acbd 2bda 41bd 6043 6b3e
00000390: ca9d cf3b 8565 d03d 1935 2d3d e541 15bc
000003a0: fc5d d53c ef94 a1bd f8e0 be3d 07b4 9bbd
000003b0: d0e5 d33c 5101 d43c edc3 3e3c a3b0 7abd
000003c0: 51c4 ca3c 2b96 3bbd 9d7f afbb bed7 783d
000003d0: 89db 87bd 6adf d13d 8452 7dbd b92a 983c
000003e0: 043d ec3d 55ff 87bd e537 2f3e 673a 2abc
000003f0: d641 e73d cfb3 66bd 600d 773d 6bcb 84bd
0.04985736 0.10361681 -0.062384162 0.026133152 -0.11607385 0.018512113 -0.055982903 -0.091306314
0.000761035 -0.0938017 -0.0077972845 -0.08744126 -0.12410949 0.02764731 0.08293281 0.0450579
-0.004509827 -0.09340498 -0.3289125 -0.04515468 -0.06464536 0.033644613 0.10020102 0.04184074
-0.0899049 0.06722009 0.102221 0.027516237 -0.103126146 -0.048796885 -0.06259259 0.074164644
0.04281325 -0.00838449 0.041813515 0.005563757 -0.05156765 0.026907474 -0.035707332 0.055781927
0.04492056 0.11790144 -0.052660357 -0.0137761 -0.061410297 0.05652918 0.1043496 -0.010224143
0.018162414 -0.072781466 -0.11174615 -0.0024010707 0.063938625 0.0028042658 0.016733643 -0.06071491
0.03648278 -0.04716815 0.02965976 -0.011573899 -0.12097453 0.07735988 -0.0058471905 -0.02348749
-0.009771712 -0.054560777 -0.05744218 -0.09406745 0.118883006 -0.020226173 0.009646211 -0.050108064
-0.070361614 -0.0763739 0.09367624 -0.07979367 -0.004344333 0.075169325 -0.0382392 -0.09281741
0.06246802 -0.06759857 -0.048893236 -0.013033786 0.05795117 -0.03372705 0.038254466 -0.06573021
0.03380015 -0.01773114 -0.100476824 0.048350368 0.13230143 0.119520545 -0.12120697 0.013929884
-0.040256716 -0.1082824 0.1001014 -0.07152348 0.06946376 0.012260244 0.024656227 -0.07885049
-0.008987176 -0.018996596 0.076327115 -0.06101167 0.048730254 -0.09322668 -0.01125504 -0.08704651
0.050547194 -0.022243572 0.07775763 0.0008793692 0.14964986 -0.020461757 -0.07985938 -0.04234661
-0.016196936 -0.012671705 0.08770541 -0.06494368 4.1933454e-05 -0.004716982 -0.035970837 0.0015441447
0.012922095 -0.019742228 -0.049572617 0.08289792 -0.047328483 -0.0512337 -0.06743064 0.03692717
-0.081538856 -0.011904188 0.11304191 -0.05685697 0.09360343 0.04649614 0.053753432 0.05120416
-0.061065294 0.030888598 -0.07772495 0.084271856 -0.007839405 0.003737817 0.06883371 -0.028462067
-0.10666806 -0.08420684 0.060581975 0.038855612 0.013778993 -0.042580206 0.023178825 -0.1341902
0.017360566 -0.02135686 -0.054386016 -0.11356813 -0.04675389 -0.041464787 -0.039090898 0.018284881
0.0530571 -0.061821498 0.02489001 -0.110334024 0.054278642 -0.030583682 0.034631696 -0.031246217
-0.020472955 0.13051295 0.08391646 -0.10204602 0.06150859 0.004957779 0.05115321 0.02690811
0.11066844 0.0695897 -0.03394085 -0.11627879 0.037866972 -0.08985539 -0.02667844 0.00019176252
0.020978892 0.06923486 -0.08017166 -0.031331483 -0.019074393 -0.073198915 0.05942054 -0.08138056
-0.002049715 -0.027808968 0.10488187 0.0004070099 0.052699383 0.106157005 -0.0012051718 0.06286804
0.07902713 0.073988006 0.06270867 0.10569778 0.098590374 0.1324159 -0.018319972 -0.0014841587
-0.009368323 0.075754374 0.0113230385 -0.008685174 0.076597646 0.07501438 0.03842261 -0.08943197
-0.053768877 -0.08420612 -0.0473272 0.2297492 0.0063359486 0.10175613 0.042286966 -0.009109949
0.026045792 -0.07889735 0.09320253 -0.07602697 0.02586642 0.025879534 0.011643392 -0.06120361
0.024751814 -0.04579751 -0.005355789 0.060752623 -0.0663367 0.10247691 -0.06184627 0.01857506
0.11535075 -0.066404976 0.17111166 -0.010389901 0.11291854 -0.056323823 0.06031549 -0.064841114

recurrent.recurrent_layer.bias_ih_l0 f4 [300]
00000000: 746b 3bbd 84dd 96bd 81ab cf3c 7932 163d
00000010: c140 a33d f501 4e3d e8b4 94bd c2f3 e4bd
00000020: 8bed 12bd 7ab0 19bd 1f96 74bd 37bc b83c
00000030: a331 55bd cc62 8fbc 0f04 afbd 54bd 5f3d
00000040: 49a0 913d 676e 15bd 8a2f 29bd f246 ba3c
00000050: fab2 24be 6545 38be 010f 00be f63a 503b
00000060: 8a29 b8bd 0e56 f9bb 7451 e6bd 3902 833d
00000070: 41b7 4ebd aae4 5e3c 644e 943d bed7 8ebd
00000080: 7674 e5b8 ec84 0bbd 930a 61bd 8b86 30bc
00000090: 1acf a1bc ac85 31bd cf92 03be f290 45be
000000a0: e3a3 66bd 73ee b3bd 3889 e8bd e3ae 9bbd
000000b0: fd06 b43d 3c54 bd3d 19c4 e2bd 0c87 5e3d
000000c0: 7563 9abe 83a5 01be 94b0 9d3c f530 2abe
000000d0: 3933 4c3d 4639 03bd 1570 dabc 4ba4 4e3c
000000e0: f19f 0dbe 4cd1 e23b 3a06 3b3d 23cf e4bc
000000f0: 0bda 5a3d c684 12bc a22e 99bd c484 10bd
00000100: 3a11 9e3c 837f 4cbe d0f5 863d 32f4 7c3d
00000110: af0b 5bbd 29c9 e1bd 9988 c43c aa7c 7b3d
00000120: 6f07 a8bc 82b0 e3bd 328f c9be 6cb6 07be
00000130: 67be 57bd 183e cb3c 36e6 15bc 06db e7bc
00000140: 2657 f5bd 1fda 89bc 860d 66bd f715 323d
00000150: 199b f1bd 03f2 6fbc 17c0 a23c ecab 253d
00000160: 1723 98bc ca75 d0bd 6fd4 a23c 0f61 f83b
00000170: 3d65 863d d84c a83b 81c8 5ebd 654e 893d
00000180: 6795 20bd 1ac2 00bd f115 9cbd 9ab9 e8bb
00000190: 301a 933c f69a 703b a311 ea3c 1a00 f03d
000001a0: efcf edbb a0c3 47bd 4f46 3fbd b1a2 ac3c
000001b0: 0005 303e 5370 fdbc 3f32 57bc a05f 41bd
000001c0: b279 2bbc ce14 113d eb5c 293d 35d6 29bc
000001d0: 79c2 41bd 377c be3c f61b 35bb d8e4 d83d
000001e0: 5829 1d3e ec21 293e 1360 9e3e 40fe 3b3d
000001f0: 1cf1 e83c 0f4b 0bbd f335 da3d ef52 d3bd
00000200: dab4 c93c 5a9f 7b3d fd2b aabd 535f c2bc
00000210: 60e6 3f3b 8576 cd3d f0ac 9d3c d449 b6bc
00000220: ed32 73bd bd46 143e 50f1 913e 2a20 473e
00000230: 25da d63d 43a4 073e a421 203e 73d8 11bc
00000240: 2037 603d 7e10 9bbc fca2 e43c 56cf 0c3d
00000250: 1c59 013e a09c 603e 3ef7 0abc 95bc 1f3e
00000260: d797 a13d 21d6 893d cd50 553e c200 5c3b
00000270: d501 703d e068 5b3d 863a 67bd 03b2 823c
00000280: 0252 b33d 3182 61bd 7908 db3c 092a db3c
00000290: 24f7 55bc c1af 153d c4a9 91b8 3665 4c3c
000002a0: d989 46bd 6a2f 203d b635 a4bd fc78 21be
000002b0: d210 993c 8360 8f3e 6324 ac3e cd17 043e
000002c0: 3a3f 10bd 0401 123e f1b1 403e a0db ea3d
000002d0: 99d5 793c 5e72 1e3e 2c37 1cbd 71f3 343d
000002e0: 3b88 983d 7ee4 c0bd 219e fa3d fe65 f9bc
000002f0: 0cec b33d 4bf9 f53d 1e33 5cbd abcc e03d
00000300: f87e 14bd 053c a8bd 34f0 a6bc 97c2 fdbc
00000310: 46c2 bb3c eb88 58bc 167f f1bc 7d5d 7c3d
00000320: 529e 98bc f285 5e3d b856 923d 940a af3b
00000330: e398 113d fdc7 883d 9d3c 623d 4cc0 763d
00000340: ae38 c7bd 0124 c6bd 0f8d 10bd ec2b 993a
00000350: 76bf 73bd de1a 99bd 83bf 9d3c e0e3 2cbb
00000360: d21e 4b3b defd 1c3d dc03 01bd 078e cf3c
00000370: 5d32 1abd c3f7 6fbd ac63 66bb 6c73 973d
00000380: 4cd8 3d3d 703c bd3c 6f4a a9bd 9785 413d
00000390: 2351 76bd 4a05 82bc 9f0e 93bc 257d bd3b
000003a0: e3fc 9bbd 7964 bf3c e928 cd3c 13c9 5ebd
000003b0: a1b5 393d 4d8e d83c 6531 9dbc 4098 4dbd
000003c0: b35f d9bc 1b02 01bd 090d 7dbc 3c28 783d
000003d0: 54b2 613d 8ebb 93bc 0c37 36bd 574a a73c
000003e0: 0bde 3dbd 781b 3fbd 9ffb 6d3d 9efb 32bd
000003f0: cc7f a6bd bb6b 973d d11f 8ebc d504 693b
-0.045756772 -0.073664695 0.025350334 0.03666923 0.07971335 0.050294835 -0.07261068 -0.111793056
-0.03587107 -0.037521817 -0.05971348 0.022550685 -0.05204929 -0.017503165 -0.08545696 0.054623917
0.0711065 -0.03648224 -0.041305102 0.022738907 -0.16083899 -0.17995222 -0.12505724 0.0031773425
-0.08992298 -0.0076091355 -0.11246005 0.06396908 -0.050467733 0.013604322 0.07241514 -0.06974743
-0.000109412635 -0.03406231 -0.054941725 -0.010774265 -0.019752074 -0.04334037 -0.12848972 -0.19293573
-0.05630864 -0.08785715 -0.113542974 -0.07601716 0.087903954 0.09244582 -0.11072559 0.05432801
-0.30154005 -0.12660794 0.019249238 -0.16620238 0.049853537 -0.032037042 -0.026664773 0.012612413
-0.13830544 0.006921923 0.045660235 -0.027930802 0.0534306 -0.0089427885 -0.07479598 -0.035282865
0.019295324 -0.19970517 0.06589854 0.06175632 -0.05347794 -0.110246964 0.023990916 0.061398186
-0.020511357 -0.111176506 -0.39367062 -0.13253182 -0.052671816 0.024809882 -0.009149125 -0.02830268
-0.11979513 -0.016827641 -0.05616524 0.04347798 -0.11797161 -0.014645102 0.019866986 0.04044716
-0.01857142 -0.101787165 0.019876687 0.0075799297 0.065622784 0.0051361136 -0.054390434 0.06704406
-0.03920498 -0.03143511 -0.076213725 -0.0071022036 0.017956823 0.0036713458 0.028572863 0.11718769
-0.0072574536 -0.048770547 -0.04669791 0.021073671 0.17189407 -0.03093735 -0.013134538 -0.047210336
-0.010466026 0.03542023 0.04134838 -0.010366012 -0.047304604 0.02325259 -0.0027635074 0.105905235
0.15347803 0.16516846 0.30932674 0.04589677 0.028435282 -0.03400713 0.10654821 -0.10318553
0.02462237 0.061431266 -0.08309171 -0.023727095 0.0029281601 0.100323714 0.019247502 -0.022252
-0.05937474 0.1448011 0.2850442 0.19445863 0.104908265 0.13246255 0.15637833 -0.008901703
0.05474007 -0.018928763 0.027909748 0.03437742 0.12631649 0.21934748 -0.008481799 0.15599282
0.07890289 0.06730295 0.20831604 0.0033569788 0.058595497 0.053566813 -0.056452297 0.015954023
0.08755876 -0.0550558 0.026737439 0.026753442 -0.013059411 0.036544565 -6.94576e-05 0.012475302
-0.048471306 0.039107718 -0.08018057 -0.15768808 0.018684778 0.2800332 0.3362151 0.12899704
-0.035216548 0.142582 0.1881788 0.114676714 0.01524868 0.15473315 -0.038138554 0.044177476
0.07447859 -0.094185814 0.12237192 -0.030444141 0.08785257 0.120104395 -0.053759687 0.10976537
-0.0362539 -0.08214573 -0.02037821 -0.030976577 0.022919785 -0.013216238 -0.029479545 0.061612595
-0.01863018 0.05432696 0.071454465 0.005341837 0.035546195 0.0667877 0.055233587 0.060241982
-0.09727608 -0.09674836 -0.035290774 0.0011686063 -0.059508763 -0.07475828 0.019256359 -0.0026380941
0.0030993712 0.038328044 -0.03149782 0.025336279 -0.037645686 -0.058585893 -0.0035154624 0.07395062
0.046348855 0.023100108 -0.0826615 0.04724654 -0.06013597 -0.015871663 -0.017951308 0.0057827407
-0.07616594 0.023363339 0.025043922 -0.054390978 0.04533923 0.026435042 -0.019188592 -0.050194025
-0.02653489 -0.03149615 -0.015445002 0.060585245 0.055101708 -0.018033769 -0.04448609 0.02042119
-0.046354335 -0.046657056 0.058101293 -0.043696992 -0.08129844 0.07393595 -0.017349156 0.0035555859

recurrent.recurrent_layer.bias_hh_l0 f4 [300]
00000000: dd05 cebd 425f 03bc d0e5 47bd ef74 c9bd
00000010: 51b6 4f3d 65cb 53bd 9cc6 c23c 458d 00bd
00000020: e143 6f3d 060d 04bc 4f84 74bd 0bc5 923d
00000030: 5e16 b33c e2d0 15be 0671 4e3d bee6 16bd
00000040: c759 a8bd 78de 183b c0f1 24be d67f 6f3d
00000050: 6e24 53be 3bb1 04be 3e3b 34be a0ec 86bd
00000060: eaf5 693d 6a8a 833d 3797 a63b 0d27 1a3c
00000070: 9be7 7dbd dd8a 3abd 6b61 92bd 86d4 363d
00000080: aab2 86bd 7ac1 263d 5e08 c43c 7faa 92bd
00000090: a7ec 5cbb 6cff 96bd 64a6 5fbe 3b40 09be
000000a0: 9d4b 043d b864 debc c107 31bd 6402 f83c
000000b0: 3544 b63d 3bd6 e7bc 7b49 98bd 5f2f b83c
000000c0: 12f9 c8be 88cc 84bd 235c 93bc e5aa 76be
000000d0: 9d54 ffbc d080 063b e83c 1fbe fd9c 623d
000000e0: 0f94 0abe b84b b3bd 1e0b 12bd b4fa 913d
000000f0: 68df a93c 5217 7fbd ba40 d7bd a88a 293d
00000100: bda3 2e3d 143c b9bc e198 41bd 28a0 bc3d
00000110: 875b f6bc 140b 3abd 9020 efbd 18b2 1dbc
00000120: a513 acbd 62a8 a9bd 9bf9 e1be 542c c2bd
00000130: 90c4 acbc 7910 f2bd fc35 393b 76ec 72bd
00000140: c914 5b3d f736 d0bd ba41 afbd a189 75bd
00000150: d056 e43b af9f 893d f5b5 d7bd aab4 a9bc
00000160: f4ad e8bd 8103 3ebd e02d d2bd a0e9 c4bd
00000170: 7327 8d3c b10c 87bd 8b60 6e3d 49c0 45bd
00000180: a808 1cbe 909e aabd 7be8 853d 5eca 043d
00000190: 9729 fb3d bfad a63d 550a 46bc 0805 033e
000001a0: 3b29 d33b f325 19bd a55c 78bd f8fa d23d
000001b0: 2013 083e 3dd7 0c3e db38 8ebd 2a40 543d
000001c0: 7707 783d 0a20 be3c b6b5 84bd bd5c a63d
000001d0: 5b3b ea3c 3901 8abd 1f57 ae3c 88d8 35bd
000001e0: bf1e 873d 6006 1f3e fc28 c53e fad2 9c3d
000001f0: 5294 943d 14d3 e83a 6636 273e 2f50 a6bb
00000200: 3d3d 1b3e 7007 47bd 3aba a3bd cd8c e43c
00000210: 866c a53c b7f4 aebb 5ffb 9e3d c9d9 893c
00000220: 75db 73bd b215 aa3d 3241 913e ea11 8f3e
00000230: 86e3 973d 72b0 063e c970 323e 4869 8dbc
00000240: 9957 ac3d 5129 9b3d d6c7 443e 8cc8 103d
00000250: a8c2 403d c452 613e 87a4 d13d adb8 643e
00000260: bd9a 7e3d a610 3fbd bedd dd3d 40a5 c03c
00000270: 69c7 ce3c 5637 6c3d 0bd8 ba3d dac2 87bd
00000280: 35c6 b13c 4666 a4bd 2666 3fbd 06b4 893d
00000290: bc56 81bd be13 013e 1c0d af3d 1832 1b3e
000002a0: dff9 3fbc b698 7b3d ac11 09bd b913 1bbe
000002b0: e475 f83b a020 733e a949 c33e b17e a93d
000002c0: b550 02bd 4d7e 643e 1fa1 f23d 52f9 483d
000002d0: b4c1 8ebd 90a7 923d 9c98 d33c 9228 95bd
000002e0: c188 de3d 6d0c aabd 9158 b43d 8474 123d
000002f0: 9429 623d d201 2e3d ed7f 883d ad35 b63d
00000300: f060 85bd bd4c 7ebc 2a86 ec3d fef8 b43d
00000310: 132a f23d ad75 2e3e ea4f b83c 2bae 943d
00000320: eb9d 9f3d 550d 723b 27f0 73bd 515d adbd
00000330: 64d2 c0bc 522f e7bd 564d c9bd 3dd8 983d
00000340: d135 a23d 6617 523d 4861 a33d c5c7 5c3d
00000350: bd66 aa3d 0cd8 363c 4010 3b3d 1bc6 953d
00000360: 896d 3cbc 6441 c7bb c122 02bd 5505 38bd
00000370: d444 f7bb 9dd6 72bd 6401 1ebd 630a 44bd
00000380: b24f 603d 23ab 44bd 3646 993d 4656 c9bd
00000390: 0768 aa3c 01a2 653d 70c1 c8ba 851a 973c
000003a0: 1499 863d 9aad fdbb e08a bbbd dfb0 9f3d
000003b0: a5a9 b2bd 881e ccbd 8c67 9fbc a241 9bbc
000003c0: be2c b33b d301 ab3c 0c8a b9bb 3af4 c2bc
000003d0: 7dc1 b5bd f001 babc 13f0 293c bc36 f13c
000003e0: 213c b7bb e7d1 3fbd 90df 813d 74cf 5abd
000003f0: 3e90 be3d 4925 c6bd 9d18 12bd 5cf8 67bd
-0.10059712 -0.008018317 -0.04880315 -0.098367564 0.05071098 -0.051707644 0.023776345 -0.031384725
0.058414344 -0.008059746 -0.05969649 0.07166489 0.021861251 -0.14630464 0.050400756 -0.036841147
-0.08220249 0.002332596 -0.16107845 0.058471523 -0.20619366 -0.12958233 -0.17600724 -0.065881014
0.057119288 0.06422885 0.005083944 0.0094087245 -0.061988454 -0.045542587 -0.07147487 0.044636272
-0.06577046 0.040711857 0.023929771 -0.07161426 -0.0033710392 -0.073729366 -0.21840817 -0.13403408
0.032298673 -0.027147636 -0.043220285 0.030274577 0.08899728 -0.028300395 -0.0743589 0.022483526
-0.39252526 -0.06484324 -0.01798827 -0.24088629 -0.031168276 0.0020523556 -0.15550578 0.055325497
-0.13533042 -0.087546766 -0.035655133 0.07127896 0.020736411 -0.0622781 -0.105103925 0.041392
0.04263662 -0.022611655 -0.047264937 0.09210235 -0.03007294 -0.04542072 -0.11676133 -0.00962498
-0.084021844 -0.082840696 -0.44135746 -0.09481111 -0.021089822 -0.11819548 0.0028260937 -0.059307538
0.05348662 -0.10166734 -0.08557458 -0.059945706 0.0069683567 0.0671991 -0.105327524 -0.02071603
-0.11361304 -0.04639006 -0.10262656 -0.09614873 0.017230725 -0.065942176 0.05819754 -0.04827908
-0.15237677 -0.08331025 0.06538483 0.032419555 0.12263792 0.08138608 -0.012087424 0.12794888
0.006444124 -0.037389707 -0.060635228 0.10301775 0.13288546 0.13753982 -0.06944438 0.051819004
0.060553994 0.023208637 -0.06479971 0.08123157 0.028592756 -0.067385145 0.021281777 -0.044395953
0.06597661 0.15529776 0.3850783 0.07657428 0.07254852 0.0017763101 0.16329345 -0.0050754766
0.1516008 -0.048591077 -0.07994504 0.02789917 0.02019335 -0.005339231 0.07762789 0.01682748
-0.059535462 0.08304919 0.28370053 0.27943355 0.074164435 0.13153246 0.17425837 -0.017262116
0.084151454 0.0757624 0.19216856 0.035347506 0.04706064 0.22004229 0.10236459 0.22336073
0.06215929 -0.046646737 0.108333096 0.023516297 0.02524157 0.05766996 0.09123238 -0.06628962
0.021700958 -0.080273196 -0.046728276 0.0672379 -0.063153714 0.12605187 0.08547422 0.15155828
-0.011717289 0.061424933 -0.03346412 -0.15144242 0.007582413 0.23742914 0.38142136 0.082761176
-0.03181525 0.22313805 0.11847138 0.049065895 -0.0697054 0.07160866 0.025829606 -0.07283129
0.108659275 -0.08303151 0.08805955 0.03575565 0.055215433 0.042482205 0.06665025 0.088969566
-0.0651263 -0.0155212255 0.11549027 0.08836554 0.11824431 0.17037077 0.022499043 0.072597824
0.07793792 0.0036934216 -0.0595552 -0.08465064 -0.023537822 -0.112883225 -0.09829204 0.07463119
0.07920421 0.051291846 0.07977539 0.053901453 0.08320377 0.011159908 0.045669794 0.07313176
-0.011500725 -0.006080793 -0.031771425 -0.04492696 -0.0075460467 -0.059286702 -0.038575545 -0.047861468
0.054763503 -0.04801477 0.07484095 -0.098309085 0.020801557 0.056062702 -0.0015316438 0.018445263
0.06572166 -0.007741642 -0.09157348 0.07797407 -0.087237634 -0.09966761 -0.019458555 -0.018952195
0.00546798 0.020874893 -0.0056622084 -0.023798097 -0.088747956 -0.022706002 0.01037218 0.029445045
-0.0055918847 -0.046831038 0.06341469 -0.0534205 0.09304856 -0.0967508 -0.035668004 -0.05663334

linear.weight f4 [20, 100]
00000000: 7384 a3bc f059 c33c 2b90 4dbc fc9b 6bbc
00000010: 4a7a 47bd 2414 2b3d 705f 4b3d 21e4 793d
00000020: be1f f9bc 9f32 0b3b f90c 5cbd 1c63 393d
00000030: 53f7 d43b cd5a 82bd c8fc 52bc c2b6 4bbd
00000040: 33f4 083d a11c 633c 111b 373d 228c 8e3d
00000050: 1179 063c 1efe a8bc 9f0d 633d 5f12 b73c
00000060: f8ad 233d 157b ba3d a20d 7dbd dd5a 45bd
00000070: eb85 983d 3ecb bf3c a6f7 013d c446 61bd
00000080: 61a9 303b 976c 8dbc 04c3 05bd 2a4a 273d
00000090: 2dd6 793d 2f87 1c3c 681f 58ba 7a9c ba3d
000000a0: 45cc e9bc 0d98 08bd 8daf 463d a787 39bc
000000b0: 879f 1dbd 858c 95bd f91b 92bc 1c7e 57bc
000000c0: 4ad6 2d3d dd57 3a3d 5c76 4cbd 3556 81bd
000000d0: ecf5 1b3d fcd3 183d 5957 673d 40a9 33bd
000000e0: 2876 5bbd 2a70 f2bb e943 1abd af1e 8bbd
000000f0: f7fa d83c 3fc5 b2ba 661d 8a3c 2ccf a1bd
00000100: 4b3c 783d dd05 2fbd 14a3 c9bb 3586 99bd
00000110: 2e04 413d f8aa 88bb 8657 403d 15cd 333e
00000120: b5ce 81bd 1cea 023c d3ab 3ebd 4391 9fbd
00000130: 20e6 babd 72f8 5cbd e120 233c 823a 4f3c
00000140: 64f7 a1bd bfcc 283b bf35 9abd f01a 5cbd
00000150: a982 c93d ec35 84bd f80b e53c b3b0 9e3b
00000160: a021 a1bd 51fb debc b804 963d 744e 45b9
00000170: 53d3 4a3d 7ca9 283d 970b 113d a33d 3a3c
00000180: ff96 053d bd34 443d c09c cebd 60cb adbd
00000190: 864c 093b 2fe0 2cbb 5835 2c3d 97a7 643d
000001a0: 103a ec3c bdbc a6bd 8686 a8bd b3dd b1bd
000001b0: 2899 c2bb ce96 a3bc eaa0 6dbd b7ef 32bc
000001c0: 4c86 933b d046 d3bd 7aa8 0dbc bb26 853d
000001d0: 3a95 4c3d 8285 603c 5dcd 533d ad4d 983c
000001e0: d612 5e3b 48d0 29bb b450 45bd 79a7 233d
000001f0: bdfa 783c bbe4 06bb 3281 21bc ab64 ac3b
00000200: e573 973d 649f 97bc 1ba0 2abd 15cc 233e
00000210: 5414 183d 1949 093d b3c4 723d 920d 5c3c
00000220: 2d42 e1bd 2b79 063b 8b41 d93c 283f a0bb
00000230: a6e6 c2bc 6dd9 2d3d ba84 78bd 4b0d 9f3d
00000240: d620 93bd 8d11 a23d dca3 813d 2120 473d
00000250: 3f7e 65bb 88c6 b8bd 88b4 983d 12c7 8fbd
00000260: 9528 c83c 1793 dabc ffe2 73bd 1a8e 46bd
00000270: 0485 b0bd 88b4 f9bc 07bd 4cbd 104e cc3c
00000280: 5f64 8b3c 2ec6 7cbd 6bb4 583d c7b6 d93c
00000290: 2696 8a3b 5a0c 783d 24ae 67bd 6146 e8bd
000002a0: eed1 163d 90ec 6c3b c87d e5bd 0c19 2c3e
000002b0: 9455 813c b9ad 313c 6fab b4bc a8e4 a3bd
000002c0: 7f8d bd3b 5bf7 2a3c e52a 033c 105c da3d
000002d0: 42c2 07bd 7e66 11bd a60c a5bd 59f3 803c
000002e0: 844a 983d 81f2 9abc fad5 1dbd e3e5 c0bc
000002f0: 871b 9abd 9a3b 983b 0a6d 4b3d 7288 32bd
00000300: fd69 cfbd ba0c 983b 393b 713d e131 a5bd
00000310: bb42 a13d 067e 02bb 71ff a9bd 0e5f 9f3d
00000320: be8e 1f3d 6953 f2bc ad16 19bd 5cf6 36bd
00000330: f229 8fbd ec5c b5bc 852f 37bd 413d 1dbb
00000340: a4cb 97bd a18a e83d 92c8 59bd 61af edbc
00000350: 8eb4 cc3c 2d38 83bd 5828 903c a9bf ad3d
00000360: 544e 1dbd f5ed ae3d 7c29 07bc 268f 7f3d
00000370: 7b30 2ebc e7b7 113d 01fc 873c e8d7 a83d
00000380: 718f 1a3c a521 95bd 8f10 863d 9921 5ebd
00000390: 1adf 80bd 1a3c 643d 67e4 2fbc 1143 8ebc
000003a0: 06b0 30bd efbc 37bd 92a5 d33c 13d3 383d
000003b0: b935 a23c 3135 8f3c e2a0 a73d 27d5 053d
000003c0: 86a4 973c bee5 bcbd a646 bb3c d842 bdbc
000003d0: b7cc 11bd eba9 9a3c 512d b5bc 6fbf e0bc
000003e0: 88b8 5d3d a839 f4bc 8562 923c 6b53 f8bc
000003f0: d10b 553d 0b01 8fbc 1433 81bd 62cc eabb
-0.019960618 0.023846596 -0.012546579 -0.014380451 -0.04870061 0.041767254 0.049651563 0.061008576
-0.030410644 0.002123989 -0.05372331 0.045260534 0.00649921 -0.06364975 -0.012877651 -0.04973484
0.03343601 0.013861806 0.044703547 0.06960322 0.008207575 -0.020628985 0.055432912 0.022347627
0.03996083 0.09105507 -0.06178058 -0.048182357 0.07447418 0.023412343 0.031730317 -0.054999128
0.0026956426 -0.017263694 -0.032656685 0.040842213 0.06099527 0.009553715 -0.0008244426 0.09111877
-0.028539786 -0.033348132 0.048507262 -0.011323846 -0.038482215 -0.073021926 -0.017835604 -0.013152625
0.04244069 0.04549395 -0.049917564 -0.06315271 0.038076326 0.03731154 0.056479786 -0.04386258
-0.05357948 -0.007398625 -0.03766242 -0.06792962 0.026486857 -0.0013639106 0.016859721 -0.07900843
0.060604375 -0.0427302 -0.0061534736 -0.07496301 0.047123127 -0.0041707717 0.04695847 0.17558701
-0.06338254 0.007990386 -0.046550583 -0.07791378 -0.09125924 -0.053947873 0.009956569 0.012648227
-0.07908514 0.0025756804 -0.075297825 -0.053736627 0.098393746 -0.06455597 0.027959809 0.0048428415
-0.078677416 -0.027219446 0.07325119 -0.0001881661 0.04951794 0.041177258 0.035411444 0.011367234
0.032614704 0.047901858 -0.100884914 -0.08486056 0.0020950153 -0.002637874 0.04204306 0.05582389
0.02883628 -0.08141468 -0.08228783 -0.08684864 -0.005938668 -0.01996937 -0.058014788 -0.01092141
0.0045020934 -0.10316241 -0.008646125 0.06501528 0.049947 0.013703706 0.05170952 0.018591726
0.0033885739 -0.0025911499 -0.048172668 0.039954636 0.015196499 -0.0020583111 -0.009857463 0.005261024
0.07395152 -0.01850862 -0.041656595 0.1599582 0.03712876 0.033516977 0.05926962 0.01343097
-0.1099895 0.0020519 0.026520511 -0.0048903413 -0.023791622 0.04244368 -0.060673453 0.07766207
-0.07183997 0.07913504 0.06330082 0.048614625 -0.0035017875 -0.09022242 0.074563086 -0.070203915
0.024433414 -0.026681466 -0.059542652 -0.048475362 -0.08619121 -0.030481592 -0.049984958 0.024939567
0.017015634 -0.061712436 0.052906435 0.026576413 0.004229325 0.060558654 -0.056562558 -0.11341549
0.0368213 0.0036151744 -0.112056315 0.1680643 0.015787877 0.010844641 -0.022054402 -0.08002597
0.00578469 0.010434951 0.008005832 0.10662091 -0.033144243 -0.035498135 -0.08059053 0.015741037
0.07436088 -0.018914463 -0.038534142 -0.023547119 -0.07524782 0.004645777 0.049664535 -0.043587156
-0.101276375 0.004640189 0.05889437 -0.08066154 0.07874056 -0.0019911542 -0.08300675 0.07781802
0.03895449 -0.029580789 -0.03737514 -0.04466854 -0.06990422 -0.022139035 -0.044723053 -0.002399281
-0.07411888 0.11354566 -0.053169794 -0.029014291 0.024988439 -0.06407199 0.017597362 0.08483822
-0.038404778 0.085414805 -0.008249637 0.062392376 -0.010631676 0.035575774 0.016599657 0.08244306
0.009433613 -0.07281808 0.06546127 -0.05423126 -0.06292553 0.05572138 -0.010735608 -0.017365964
-0.04313662 -0.044857915 0.025835786 0.04512317 0.019801008 0.017481418 0.08184983 0.03267398
0.018511068 -0.09223507 0.022860836 -0.023103163 -0.035595622 0.018879851 -0.022116335 -0.027435033
0.05413106 -0.029812649 0.017869243 -0.030313214 0.052013222 -0.017456552 -0.063085705 -0.0071654776

linear.bias f4 [20]
00000000: 7335 fe3e 1ad2 fc3e 7006 fd3e 8f15 fe3e
00000010: f77e 003f 4c07 fe3e e753 fe3e 6bcc fc3e
00000020: 1758 003f 3727 ff3e 2f38 003f 8235 fe3e
00000030: 4a0c fe3e 64c8 003f 8333 013f 828c 003f
00000040: 71a9 003f 64b3 003f 7e1c 013f 2caf 003f
0.49650154 0.49379045 0.49418974 0.49625823 0.5019373 0.49614942 0.49673387 0.4937471
0.50134414 0.49834606 0.5008573 0.49650198 0.4961875 0.5030577 0.50469226 0.502144
0.5025855 0.5027373 0.504341 0.5026729
