TFM/regresion/results/branch_fault/DCRNN.pt (torch, 239016 bytes, 8 tensors)

recurrent.conv_x_z.weight f4 [2, 1, 160, 60]
0.01704987 0.014149211 0.021008158 0.019272733 0.00043942593 -0.006473592 -0.0023023812 0.0122705
0.01125763 -0.004586963 0.028111016 0.0087067755 0.015187404 0.007916548 0.012965281 -0.007746475
0.028271165 0.006992266 -0.005804392 0.009684418 0.01297963 0.0042926213 -0.021242825 0.01738269
-0.0053887693 -0.0006590712 0.001929777 -0.0026597586 0.007367478 -0.00818089 0.032657888 -0.0053612064
0.017148431 0.008640973 0.0013911326 0.015041581 -0.01680283 0.00689332 0.041944433 0.017837277
-0.0019015921 0.0020913593 0.020275243 0.011255371 0.016488906 -0.0003045428 0.014369839 0.008588198
0.036700618 -0.0027925086 -0.012275957 0.00043296878 0.00071669684 0.019409506 0.050534528 0.003085644
0.010609445 0.0057544312 0.010647623 -0.0040753116 0.006916483 -0.00484061 0.045045353 0.001044138
0.022195801 -0.007909708 0.023345537 0.0012099681 0.0003885085 -0.0026067116 0.041047383 0.010815427
0.018917402 -0.0059503424 -0.008311003 -0.0041286643 0.011457715 0.010705076 0.00586948 0.017998632
0.026944038 -0.003845623 -0.003343419 0.0046959207 0.014764996 0.0025635567 0.014262274 -0.0051957783
-0.0012788151 0.010473208 0.026544046 -0.026794624 0.014608711 0.02856761 -0.004388586 -0.0015811153
0.00957443 0.0019360875 0.04193361 0.013018256 -0.014593185 0.009611105 0.012258939 0.0074312924
0.007743576 -0.0038539348 -0.0062078554 -0.001942388 0.016594874 -0.0031855826 0.024038326 0.008735756
0.027707987 -0.0048642624 0.036404736 -0.0030736143 0.0083016995 -0.006695039 0.003747488 -0.00263374
0.006058504 0.010911218 0.03510722 -0.0037668236 0.0033191815 0.0046332693 0.024128368 -0.0049432027
0.013416216 0.0031374616 0.037337057 0.010502779 -0.008576274 0.015949575 0.0020341203 0.0037282777
0.03358243 -0.009490646 0.0046004495 0.0028523144 0.037948918 -0.0058473074 0.017758654 0.016692396
0.003512484 0.008997566 0.013456956 0.017671224 0.019153737 -0.0053700157 0.026052404 0.027544772
0.0044234577 0.012332255 0.019223573 -0.0044749794 -0.00060786714 0.010343979 0.061668385 0.033217944
0.020101396 0.0091773225 0.016010225 -0.0009947899 0.006056949 0.0038401384 -0.0005744975 0.018403385
0.045714315 -0.0019809264 0.0020626325 0.0053203306 0.028302686 0.0061200797 0.04108017 0.0013454075
-0.0047383783 0.011153052 0.026659776 -0.0071612033 0.009362617 0.015085907 0.02726009 0.000872634
0.014204715 0.00518059 0.013041133 -0.0042746053 -0.004159358 0.007546205 0.013782494 0.0017042097
0.014316779 0.018364094 0.0045765913 -0.0076678293 0.014293504 0.0039970144 0.0048433905 0.010050102
0.0036455973 0.0006719357 0.00093183405 0.016203748 0.005286914 -0.0027409855 -0.0028251407 -0.006910639
0.0013003149 0.010950101 0.025491465 -0.0024326462 -0.0067534503 -0.00048055744 0.0037976722 0.020083057
0.0021037061 -0.003131543 0.036296204 0.017662626 -0.014776043 0.016540509 0.007556572 -0.0023095913
0.00090315565 0.015665583 0.016973378 0.011266206 0.0155473 -0.008240327 -0.006514587 0.016772904
0.020614741 0.0199445 0.035664707 0.0013702442 0.0059033628 -0.0049714334 -0.010233985 -0.0076732556
0.011921895 -0.007907629 0.02965583 -0.0022914 0.013212887 -0.009376041 0.008349254 0.017589392
-0.0012775514 0.014912629 0.01806503 -0.004582646 0.0016855783 -0.0010372427 0.0015896078 -0.0024374605
00000000: 2bac 8b3c 18d2 673c 4d19 ac3c dae1 9d3c
00000010: c062 e639 6d20 d4bb 8ce3 16bb 350a 493c
00000020: ec71 383c 3c4e 96bb 1349 e63c dda6 0e3c
00000030: 97d4 783c 69b4 013c 546c 543c 24d6 fdbb
00000040: ee98 e73c 611f e53b c532 bebb 65ab 1e3c
00000050: 84a8 543c 1ea9 8c3b 6f05 aebc 2566 8e3c
00000060: 4694 b0bb 85c5 2cba 92f0 fc3a 584f 2ebb
00000070: e36a f13b 2409 06bc 47c4 053d 0fad afbb
00000080: de7a 8c3c de92 0d3c aa56 b63a f770 763c
00000090: 17a6 89bc 5ce1 e13b edcd 2b3d 7b1f 923c
000000a0: d83e f9ba 300f 093b 4418 a63c 7368 383c
000000b0: be13 873c 0bab 9fb9 796f 6b3c 83b5 0c3c
000000c0: 6353 163d 8502 37bb 1821 49bc 1600 e339
000000d0: b6e0 3b3a af00 9f3c 4bfd 4e3d 8438 4a3b
000000e0: 3dd3 2d3c ab8f bc3b 5e73 2e3c 318a 85bb
000000f0: aaa3 e23b fb9d 9ebb 7a81 383d 75db 883a
00000100: f8d3 b53c b897 01bc 243f bf3c cb97 9e3a
00000110: bab0 cb39 5dd5 2abb 4d21 283d 3033 313c
00000120: abf8 9a3c 17fb c2bb e02a 08bc bf49 87bb
00000130: 24b9 3b3c 5864 2f3c c454 c03b de71 933c
00000140: beb9 dc3c d906 7cbb 431d 5bbb 3de0 993b
00000150: e2e8 713c 5801 283b 50ac 693c 5941 aabb
00000160: ea9d a7ba d197 2b3c e672 d93c 6680 dbbc
00000170: 6059 6f3c 9f06 ea3c 21ce 8fbb 6d3d cfba
00000180: 12de 1c3c 51c4 fd3a 94c2 2b3d 864a 553c
00000190: 4118 6fbc e577 1d3c b8d9 483c 3382 f33b
000001a0: d3bd fd3b 4c92 7cbb 446b cbbb ba97 feba
000001b0: f9f1 873c 35c5 50bb 06ec c43c 6b20 0f3c
000001c0: dcfb e23c 6464 9fbb 221d 153d b16e 49bb
000001d0: da03 083c 0f62 dbbb 6a98 753b d39a 2cbb
000001e0: 6a86 c63b f7c4 323c 97cc 0f3d d0dc 76bb
000001f0: a086 593b aed2 973b dba8 c53c 97fa a1bb
00000200: b0cf 5b3c df9d 4d3b beee 183d d913 2c3c
00000210: 8083 0cbc afa8 823c e04e 053b 1f56 743b
00000220: bb8d 093d a87e 1bbc 5ebf 963b e5ed 3a3b
00000230: 5370 1b3d c59a bfbb 997a 913c 7ebe 883c
00000240: b431 663b 876a 133c 907a 5c3c 3ec3 903c
00000250: 4ce8 9c3c f5f6 afbb da6b d53c 93a5 e13c
00000260: a7f2 903b 3a0d 4a3c c17a 9d3c d9a2 92bb
00000270: 4659 1fba cb79 293c fd97 7c3d 8a0f 083d
00000280: afab a43c 7b5c 163c e027 833c 9c63 82ba
00000290: 5f79 c63b d5aa 7b3b e099 16ba b2c2 963c
000002a0: ef3e 3b3d 6ed2 01bb 3b2d 073b 2b56 ae3b
000002b0: 09db e73c f38a c83b ae43 283d 6258 b03a
000002c0: 6644 9bbb 4abb 363c 9a65 da3c 87a8 eabb
000002d0: a965 193c e12a 773c 8d50 df3c 7ac1 643a
000002e0: e5ba 683c f0c1 a93b 7aaa 553c fd11 8cbb
000002f0: 394b 88bb 2846 f73b f8cf 613c ca5f df3a
00000300: ec90 6a3c 4c70 963c 3bf7 953b 6a42 fbbb
00000310: 4d2f 6a3c 63f9 823b 4eb5 9e3b 2fa9 243c
00000320: f9ea 6e3b d724 303a 5346 743a b9bd 843c
00000330: d93d ad3b 1ba2 33bb ff25 39bb a472 e2bb
00000340: 546f aa3a 0d68 333c 7ad3 d03c 086d 1fbb
00000350: 0c4c ddbb 54f3 fbb9 5ee2 783b 3985 a43c
00000360: 55de 093b 933a 4dbb 54ab 143d 36b1 903c
00000370: 3717 72bc f67f 873c 1f9d f73b 835c 17bb
00000380: c0c1 6c3a 1c55 803c c10b 8b3c e595 383c
00000390: 1aba 7e3c 7002 07bc 5178 d5bb 5467 893c
000003a0: 3fe0 a83c a662 a33c 2815 123d c499 b33a
000003b0: ff70 c13b 68e7 a2bb 72ac 27bc ef6f fbbb
000003c0: 0d54 433c 008f 01bc c8f0 f23c 502b 16bb
000003d0: dd7a 583c f79d 19bc 4fcb 083c a117 903c
000003e0: 8373 a7ba 1954 743c 1dfd 933c 052a 96bb
000003f0: 9fee dc3a 17f4 87ba 635a d03a cdbd 1fbb

recurrent.conv_x_z.bias f4 [60]
0.006029818 0.07774252 0.18541703 0.0060204207 0.03329988 0.08870718 0.16655181 0.12220891
0.14506066 0.006002248 0.14929691 0.0060053505 0.005295402 0.005975443 0.0060054953 0.047049653
0.17085677 0.0049126833 0.005879631 0.006005251 0.15482129 0.006001524 0.10029605 0.13936885
0.00600471 0.0059995777 0.006005506 0.0060203252 0.006005135 0.006110279 0.06024802 0.01476282
0.0060053435 0.1576044 0.006131517 0.0061565535 0.020018265 0.035062257 0.14817218 0.10712116
0.09171628 0.006005499 0.013171162 0.0032057036 -0.0280918 0.0060055004 0.0060352217 0.0060059046
0.13156047 0.0060028466 0.09017865 0.0060098954 0.15369181 0.006099755 0.10988484 0.1050673
0.0060454034 0.0060055614 0.074723504 0.00670083
00000000: c895 c53b 7837 9f3d f6dd 3d3e f346 c53b
00000010: 7465 083d 1cac b53d 8f8c 2a3e aa48 fa3d
00000020: c88a 143e 81ae c43b 4ae1 183e 88c8 c43b
00000030: 0d85 ad3b a6cd c33b bfc9 c43b 23b7 403d
00000040: 14f5 2e3e 93fa a03b eba9 c03b b2c7 c43b
00000050: 7989 1e3e 6fa8 c43b 0468 cd3d b5b6 0e3e
00000060: 29c3 c43b 1b98 c43b d6c9 c43b 2646 c53b
00000070: b9c6 c43b bc38 c83b a1c6 763d c1df 713c
00000080: 79c8 c43b 0c63 213e e4ea c83b eabc c93b
00000090: 58fd a33c 719d 0f3d 73ba 173e 5762 db3d
000000a0: bfd5 bb3d c7c9 c43b dccb 573c c816 523b
000000b0: c620 e6bc cac9 c43b 1cc3 c53b 2ecd c43b
000000c0: cab7 063e 87b3 c43b 96af b83d a8ee c43b
000000d0: 6361 1d3e 74e0 c73b 4e0b e13d 862d d73d
000000e0: 8518 c63b 4dca c43b a308 993d a392 db3b

recurrent.conv_x_r.weight f4 [2, 1, 160, 60]
0.0117855845 -0.010983556 0.0074896025 0.006145222 0.007560228 -0.004969331 -0.0075176717 -9.1665264e-05
-0.004420587 0.0064115236 -0.0107488865 0.012243368 -0.004611335 0.008277347 -0.004666394 -0.0022014477
0.0021435998 -0.012730562 0.006647762 0.013059461 -0.010780636 0.0055202125 -0.013125812 -0.0005678036
-0.006570643 -0.012482653 0.0063246414 0.009026429 0.0019684096 0.0048627723 -0.007983622 0.009537957
-0.011487699 -0.0039660065 -0.0051969783 -0.006227069 0.011883564 0.011172017 0.007418685 -0.005561771
-0.008892002 -0.0039985473 -0.0056356844 0.0016088411 0.0072832517 0.013537139 0.010114398 -0.011857858
0.0123985065 -0.01339174 0.0015965902 0.0017139515 -0.0025673346 -0.004447699 -0.006224984 0.008276378
-0.009200164 0.0028460778 0.0052085705 0.011031421 0.00027797592 0.012432309 -0.014125247 -0.007975719
-0.012543288 -0.0004157044 -0.008926267 0.009633445 -0.0068617007 0.0012270918 0.012202382 -0.01422507
0.005954016 -0.012294926 0.0069943448 -0.0037821392 -0.012384707 0.0023784565 0.0010539406 0.0050213477
0.0086550955 -0.0014900053 -0.0066935564 0.014106545 -0.004457345 0.012349281 0.009624854 -0.014155554
-0.0041797375 0.0009323947 -0.011566836 0.0024673499 -0.0059661414 -0.0074071083 0.010743139 0.006205577
0.014364611 -0.0029526216 -0.004105215 -0.009218592 0.0016329094 0.01132455 -0.0015797813 -0.0050002374
0.009226331 0.00050333305 0.0020500247 0.013602038 0.013824327 0.01379994 -0.013038813 0.0024511483
0.011735757 0.012796789 -0.012526032 0.010646106 -0.006668929 -0.0072284373 -0.008129888 -0.0076723294
-0.002257002 -0.0002588803 -0.006323893 0.009276639 -0.008289025 0.012858371 -0.0130255725 0.0047567086
-0.008841455 -0.008026514 0.003422027 -0.0027020741 -0.009683729 -0.00085270166 -0.010404061 -0.008584304
0.008530942 0.0008941071 -0.004076074 0.011557321 0.0017757292 0.010438471 0.0059764427 0.0011850412
-0.005318705 -0.006342089 0.01263795 0.003085952 0.012305375 0.008625054 -0.00081512984 -0.013300612
0.0058208457 -0.0032021294 0.0028938048 -0.005258004 0.0113416845 0.013893536 -0.008560268 -0.0034329651
-0.010744671 0.0069867466 -0.010458257 -0.011160741 -0.01055135 -0.01164129 0.011149987 -0.006214567
0.00892245 -0.003994299 -0.004355566 -0.0039538452 -0.011708126 0.0041426886 -0.0058056577 0.0043205596
-0.01229851 0.002257697 0.011723176 -0.0044367285 0.0030767482 -0.014249576 -0.005895406 0.011955051
0.005725202 0.0052883015 0.006264197 -0.0029471412 -0.0061267577 0.013583447 -0.0052928436 -0.001151117
-0.010938895 0.011063955 -0.0047155335 -0.0053812983 -0.008977528 0.003359566 -0.011176205 0.01243305
0.010611077 -0.010984982 -0.013243811 0.003771616 -0.008582288 -0.014308014 0.0090623 -0.0036297578
0.0029864698 0.001543696 -0.009008618 -0.007080413 0.005018063 -0.012744374 -0.0019822023 -0.001269946
-0.008002685 0.0142657515 -0.01279065 -0.012372327 -0.01043502 0.008185207 -0.012286607 0.0087619005
0.014010405 0.013546841 0.013451656 0.0023445704 -0.012620927 0.0035347424 0.005942732 -0.001090628
-0.012649214 0.010889273 0.0027812717 0.009722908 -0.0016009865 -0.012901274 0.012291924 -0.014126666
-0.010311691 0.013187595 -0.00415415 0.007837645 0.008841465 -0.001695009 -0.0029023376 0.0064133387
-0.0029290263 0.005965362 -0.00457333 -0.007918577 -0.009116974 -0.014347465 -0.0043946053 -0.006593992
00000000: 5318 413c 5ff4 33bc 576b f53b dc5d c93b
00000010: cabb f73b c5d5 a2bb cd56 f6bb 6a3c c0b8
00000020: 92da 90bb c217 d23b 191c 30bc 6898 483c
00000030: af1a 97bb b69d 073c 8de8 98bb 2a46 10bb
00000040: a37b 0c3b d993 50bc 78d5 d93b 59f7 553c
00000050: 44a1 30bc e6e2 b43b a50d 57bc a8d8 14ba
00000060: 8c4e d7bb 0b84 4cbc f03e cf3b 96e3 133c
00000070: 6f00 013b e457 9f3b bdcd 02bc 1745 1c3c
00000080: e736 3cbc 46f5 81bb 6a4b aabb 710c ccbb
00000090: 48b3 423c d60a 373c 7118 f33b 843f b6bb
000000a0: c2af 11bc 3f06 83bb 8cab b8bb c0df d23a
000000b0: 58a8 ee3b e0ca 5d3c dcb6 253c 7647 42bc
000000c0: 1b23 4b3c 0769 5bbc ad44 d13a aba6 e03a
000000d0: ba40 28bb 01be 91bb f3fa cbbb a599 073c
000000e0: 49bc 16bc 4385 3a3b a8ac aa3b 22bd 343c
000000f0: 4cbd 9139 e2b0 4b3c 946d 67bc 97ac 02bc
00000100: 5d82 4dbc e6f2 d9b9 7a3f 12bc 99d5 1d3c
00000110: 1ed8 e0bb 5ed6 a03a 80ec 473c 4510 69bc
00000120: e819 c33b a870 49bc d130 e53b c4dd 77bb
00000130: 3ae9 4abc e1df 1b3b 6124 8a3a 1e8a a43b
00000140: 1ace 0d3c 484c c3ba 9f55 dbbb 231f 673c
00000150: ec0e 92bb a454 4a3c 90b1 1d3c b2ec 67bc
00000160: 2ef6 88bb f36b 743a d482 3dbc 43b3 213b
00000170: 9f7f c3bb 54b7 f2bb fe03 303c 2758 cb3b
00000180: 8c59 6b3c c580 41bb 0a85 86bb 9409 17bc
00000190: 5907 d63a 9b8a 393c aa10 cfba 08d9 a3bb
000001a0: 092a 173c 1cf2 033a b559 063b 15db 5e3c
000001b0: 6e7f 623c 2519 623c bfa0 55bc 72a3 203b
000001c0: 5547 403c a0a9 513c fc39 4dbc 016d 2e3c
000001d0: 0887 dabb 87dc ecbb 3933 05bc 2a68 fbbb
000001e0: 36ea 13bb 53ba 87b9 a938 cfbb 0bfd 173c
000001f0: b1ce 07bc ebab 523c 3669 55bc 2ade 9b3b
00000200: c0db 10bc a481 03bc 1644 603b 4815 31bb
00000210: 81a8 1ebc d787 5fba cb75 2abc 2ea5 0cbc
00000220: 5dc5 0b3c 8362 6a3a 9690 85bb eb5a 3d3c
00000230: 96bf e83a 1f06 2b3c 09d6 c33b 6253 9b3a
00000240: 8848 aebb 4cd1 cfbb 670f 4f3c af3d 4a3b
00000250: 7c9c 493c 1950 0d3c 70ae 55ba cfea 59bc
00000260: cbbc be3b d1da 51bb fda5 3d3b 564b acbb
00000270: 79d2 393c b7a1 633c 5e40 0cbc 99fb 60bb
00000280: 6b0a 30bc 14f1 e43b 1c59 2bbc 8adb 36bc
00000290: 92df 2cbc 1cbb 3ebc 6fae 363c 91a3 cbbb
000002a0: 782f 123c 9ce2 82bb 23b9 8ebb 428f 81bb
000002b0: 71d3 3fbc 64bf 873b 633d bebb 7b93 8d3b
000002c0: b17f 49bc dff5 133b 9012 403c fa61 91bb
000002d0: 45a3 493b 0e77 69bc 402e c1bb 1edf 433c
000002e0: 7a9a bb3b 7d49 ad3b e543 cd3b d324 41bb
000002f0: f8c2 c8bb 1b8d 5e3c 976f adbb 14e1 96ba
00000300: 0d39 33bc 9745 353c c384 9abb 9a55 b0bb
00000310: 7b16 13bc 2a2c 5c3b 671c 37bc feb3 4b3c
00000320: 15da 2d3c 5bfa 33bc 92fc 58bc 372d 773b
00000330: ba9c 0cbc 296c 6abc 0b7a 143c 3be1 6dbb
00000340: a6b8 433b d855 ca3a e298 13bc cf02 e8bb
00000350: 906e a43b c7cd 50bc d6e7 01bb 5174 a6ba
00000360: b21d 03bc e6ba 693c e08f 51bc 4db5 4abc
00000370: a5f7 2abc 3f1b 063c c44d 49bc 138e 0f3c
00000380: e68b 653c 92f3 5d3c 5664 5c3c 5da7 193b
00000390: 01c8 4ebc 23a7 673b 40bb c23b 67f3 8eba
000003a0: a63e 4fbc ec68 323c ff45 363b d54c 1f3c
000003b0: 31d8 d1ba dd5f 53bc 1164 493c 8873 67bc
000003c0: 5ef2 28bc c810 583c 891f 88bb 7769 003c
000003d0: cbdb 103c 102b deba 2535 3ebb fc26 d23b
000003e0: e8f4 3fbb 1579 c33b dfdb 95bb ebbc 01bc
000003f0: 5c5f 15bc a111 6bbc 9f00 90bb 6a12 d8bb

recurrent.conv_x_r.bias f4 [60]
0.0 0.0 0.0 0.0 0.0 0.0 0.0 0.0
0.0 0.0 0.0 0.0 0.0 0.0 0.0 0.0
0.0 0.0 0.0 0.0 0.0 0.0 0.0 0.0
0.0 0.0 0.0 0.0 0.0 0.0 0.0 0.0
0.0 0.0 0.0 0.0 0.0 0.0 0.0 0.0
0.0 0.0 0.0 0.0 0.0 0.0 0.0 0.0
0.0 0.0 0.0 0.0 0.0 0.0 0.0 0.0
0.0 0.0 0.0 0.0
00000000: 0000 0000 0000 0000 0000 0000 0000 0000
00000010: 0000 0000 0000 0000 0000 0000 0000 0000
00000020: 0000 0000 0000 0000 0000 0000 0000 0000
00000030: 0000 0000 0000 0000 0000 0000 0000 0000
00000040: 0000 0000 0000 0000 0000 0000 0000 0000
00000050: 0000 0000 0000 0000 0000 0000 0000 0000
00000060: 0000 0000 0000 0000 0000 0000 0000 0000
00000070: 0000 0000 0000 0000 0000 0000 0000 0000
00000080: 0000 0000 0000 0000 0000 0000 0000 0000
00000090: 0000 0000 0000 0000 0000 0000 0000 0000
000000a0: 0000 0000 0000 0000 0000 0000 0000 0000
000000b0: 0000 0000 0000 0000 0000 0000 0000 0000
000000c0: 0000 0000 0000 0000 0000 0000 0000 0000
000000d0: 0000 0000 0000 0000 0000 0000 0000 0000
000000e0: 0000 0000 0000 0000 0000 0000 0000 0000

recurrent.conv_x_h.weight f4 [2, 1, 160, 60]
-0.0006348085 0.0018277213 -0.013171238 -0.005744233 0.017389702 0.028127884 0.0034339277 -0.0073013953
0.004829364 -0.013115049 -0.0029985604 -0.0023211807 -0.019565921 0.0023916112 -0.012307212 0.037600864
-0.015016713 -0.019144567 -0.011607177 0.0061997604 -0.011324611 -0.014848634 0.028545665 0.01631673
-0.0047621625 -0.018117975 0.0048946594 0.001350728 0.0047781826 -0.0045120167 -0.0062710983 -0.02030223
-0.016719084 0.019035148 -0.0040246486 -3.7867216e-05 -0.0051085204 0.031362798 -0.011900138 0.019721845
0.010857781 -0.0144450115 0.0016531763 -0.016604472 0.010117971 -0.005874896 -0.012840256 0.0030159177
0.007820381 -0.0044530053 0.0043353443 0.0009834251 0.02136329 -0.014921975 -0.029869337 0.0024564671
0.0021877685 -0.017029202 0.025357096 -0.017589275 -0.0026879718 0.014051531 -0.022182474 -0.0013851434
-0.005461095 -0.0077558532 -0.014487401 -0.013247361 0.0048444388 -0.00089297147 -0.0071429573 0.0043558176
-0.0040481123 -0.019384585 -0.0039802017 -0.012031915 -0.016180255 -0.0036870758 0.0016117088 -0.019362208
-0.0012577411 -0.0060947984 -0.0025422107 -0.002445806 -0.006262837 -0.0020497486 -0.018128294 -0.016283838
-0.0022094036 -0.008319939 0.01676025 0.026069093 -0.0046061254 -0.013938418 -0.012148092 0.000786897
-0.01624191 -0.00896861 -0.007944088 -0.015076539 -0.0019945982 -0.018791707 -0.01848499 -0.018635973
0.01477823 0.0043120338 -0.0034376443 -0.01089024 0.015876003 -0.004957046 -0.011147303 -0.0021027552
-0.0111994445 0.0089372955 -0.028873699 0.01124524 -0.0024759697 -0.009810677 -0.017651334 -0.016217178
-0.015138754 0.0036630312 -0.022842342 0.0063787918 0.0018688237 -0.02194348 -0.012447692 -0.00063767144
-0.016024794 -0.013280786 0.008826191 -0.011498191 -0.012671151 0.007594852 -0.007832036 0.0020744216
-0.0123612825 0.0069613117 -0.004344612 0.0077223796 -0.009376853 -0.016927917 0.00201647 -0.022200564
-0.013946291 -0.016816402 0.008402973 0.0004935832 -0.0055495715 -0.013326368 -0.014153084 -0.024286741
0.0046770493 -0.015689166 -0.011557664 -0.0032057883 -0.0006408091 0.011760671 -0.035876628 -0.009836547
-0.009927398 0.002125765 -0.020686213 -0.016285546 0.010068573 -0.01027899 0.0004925002 -0.010048783
-0.014256487 0.007752612 0.001672231 0.005862473 0.011013187 0.0027551593 -0.036257524 -0.009356062
0.0013045043 -0.0094199525 -0.0004971184 -0.017111972 0.006061235 0.004620746 -0.023033874 0.0075396667
-0.012402744 -0.008751542 -0.016044166 0.023486491 0.0022827832 -0.0010068301 0.011971119 -0.011278287
-0.007919575 -0.009484793 -0.002392534 0.013169878 -0.012706459 -0.019355867 0.0053089247 -0.007749909
-0.0047404226 -0.009567445 0.00051301514 -0.013526994 -0.012635165 0.0052064923 -0.008845221 0.0038699687
-0.012440722 -0.009793344 -0.013482599 0.011801841 -0.016824199 0.0019475219 -0.018786628 -0.010474775
-0.030102413 0.0023448537 -0.010394609 -0.0026477394 -0.004460026 -0.013283146 -0.0077046365 -0.006042311
-0.011090509 -0.013841605 -0.008576594 -0.004404876 0.0106837135 -0.002523318 -0.016514763 0.0010944926
-0.0011959922 -0.0055601373 -0.027173245 -0.0014558716 0.0083028935 -0.013649499 -0.00900006 -0.00064111885
-0.020307757 0.035665892 -0.013579392 0.005668633 -0.00976601 0.0151592875 0.007796064 0.004110779
-0.00450633 -0.010890865 0.022653073 -0.011739142 -0.004871437 0.0004076454 0.0019186182 -0.009667772
00000000: 4769 26ba 2690 ef3a 2dcc 57bc 1e3a bcbb
00000010: d974 8e3c 736c e63c bf0b 613b 8b40 efbb
00000020: a43f 9e3b 81e0 56bc 7f83 44bb f31e 18bb
00000030: b648 a0bc 94bc 1c3b 30a4 49bc 5d03 1a3d
00000040: a908 76bc 11d5 9cbc 072c 3ebc 5c27 cb3b
00000050: dc8a 39bc af47 73bc 99d8 e93c aaaa 853c
00000060: ea0b 9cbb 266c 94bc 6163 a03b e90a b13a
00000070: 4d92 9c3b 8ad9 93bb c97d cdbb dd50 a6bc
00000080: 76f6 88bc 99ef 9b3c 33e1 83bb 9dd3 1eb8
00000090: 6065 a7bb 4776 003d ccf8 42bc b58f a13c
000000a0: d6e4 313c c5aa 6cbc 64af d83a 1a06 88bc
000000b0: d9c5 253c 3382 c0bb f05f 52bc b4a6 453b
000000c0: 0e21 003c 84ea 91bb 810f 8e3b 45e6 803a
000000d0: 1102 af3c 4d7b 74bc 8ab0 f4bc aefc 203b
000000e0: aa60 0f3b d380 8bbc afb9 cf3c 6217 90bc
000000f0: af28 30bb 6538 663c 05b8 b5bc b38d b5ba
00000100: fcf2 b2bb d024 febb 905c 6dbc 760b 59bc
00000110: 19be 9e3b 4d16 6aba 780f eabb 3fbb 8e3b
00000120: 07a6 84bb 6ccc 9ebc 5a6c 82bb 8221 45bc
00000130: 748c 84bc dea2 71bb f93f d33a 7e9d 9ebc
00000140: cada a4ba e0b6 c7bb 389b 26bb d149 20bb
00000150: 7c38 cdbb 1355 06bb ca81 94bc af65 85bc
00000160: a4cb 10bb 5a50 08bc cb4c 893c da8e d53c
00000170: fbee 96bb f65d 64bc ca08 47bc c447 4e3a
00000180: c10d 85bc 14f1 12bc ec27 02bc 9603 77bc
00000190: ceb7 02bb 11f1 99bc d56d 97bc 78aa 98bc
000001a0: 6420 723c f64b 8d3b 1a4a 61bb fa6c 32bc
000001b0: 640e 823c b76e a2bb 2da3 36bc 61ce 09bb
000001c0: e07d 37bc bc6d 123c 8988 ecbc f53d 383c
000001d0: e143 22bb f6bc 20bc 8899 90bc e3d9 84bc
000001e0: 8908 78bc 770f 703b dd1f bbbc 2f05 d13b
000001f0: 51f3 f43a d0c2 b3bc 68f1 4bbc 6829 27ba
00000200: 6e46 83bc a797 59bc ba9b 103c e962 3cbc
00000210: a99a 4fbc 3cde f83b f151 00bc 05f3 073b
00000220: fa86 4abc b71b e43b 3f5d 8ebb 040c fd3b
00000230: 5fa1 19bc 6aac 8abc c126 043b f5dd b5bc
00000240: fc7e 64bc 8dc2 89bc a0ac 093c cf63 013a
00000250: 2ed9 b5bb d756 5abc 56e2 67bc fdf4 c6bc
00000260: ef41 993b 9186 80bc 5b5c 3dbc 3418 52bb
00000270: f9fb 27ba d4af 403c 5ff3 12bd 7829 21bc
00000280: 86a6 22bc 6b50 0b3b 2276 a9bc 4469 85bc
00000290: a8f6 243c 3569 28bc 211b 013a a7a3 24bc
000002a0: 0a94 69bc 9f09 fe3b c32e db3a fd19 c03b
000002b0: a770 343c e78f 343b c582 14bd 2b4a 19bc
000002c0: e7fb aa3a 2556 1abc 0d51 02ba 682e 8cbc
000002d0: 539d c63b a069 973b 89b1 bcbc 4f0f f73b
000002e0: e134 4bbc a162 0fbc 0e6f 83bc be66 c03c
000002f0: bf9a 153b 9df7 83ba 8322 443c 90c8 38bc
00000300: 1bc1 01bc 1b66 1bbc 0fcc 1cbb 79c6 573c
00000310: c02e 50bc 3290 9ebc 7df6 ad3b f3f2 fdbb
00000320: 8c55 9bbb c6c0 1cbc dd7b 063a 53a0 5dbc
00000330: b903 4fbc 399b aa3b 8ceb 10bc 4d9f 7d3b
00000340: 2cd4 4bbc 4374 20bc 1ee6 5cbc 825c 413c
00000350: e7d2 89bc fe43 ff3a 6ae6 99bc 649e 2bbc
00000360: 5699 f6bc 1eac 193b 264e 2abc b285 2dbb
00000370: 6925 92bb 8da1 59bc 2d77 fcbb 94fe c5bb
00000380: f7b4 35bc e6c7 62bc d884 0cbc c756 90bb
00000390: be0a 2f3c 405e 25bb f849 87bc 1475 8f3a
000003a0: d7c2 9cba d031 b6bb 6d9a debc f2d2 beba
000003b0: dc08 083c 26a2 5fbc fd74 13bc c210 28ba
000003c0: 745c a6bc 6616 123d 197c 5ebc f1bf b93b
000003d0: 9d01 20bc a95e 783c 2076 ff3b b7b3 863b
000003e0: d6a9 93bb 996f 32bc f092 b93c 8855 40bc
000003f0: 93a0 9fbb 3db9 d539 257a fb3a 9365 1ebc

recurrent.conv_x_h.bias f4 [60]
-0.0061486503 0.0123486435 -0.16368993 -0.0061669047 0.028038697 -0.004483087 -0.096443854 -0.025572142
-0.06523406 -0.0060054827 -0.062320486 -0.0060039037 -0.0055586607 -0.005962836 -0.0060055074 0.017685348
-0.19680344 -0.005400982 -0.006004797 -0.0060046837 -0.1262373 -0.0060054916 -0.07203647 -0.04644344
-0.0060032606 -0.0060054823 -0.0060055424 -0.0060797743 -0.006004919 -0.0077795545 0.0009812072 -0.002043509
-0.0060055065 -0.08733066 -0.008000603 -0.0075760297 0.0059621437 0.014129869 -0.2255898 -0.02605016
-0.04682112 -0.006005507 -0.00802493 -0.01226119 0.007603733 -0.006005507 -0.006037967 -0.006030962
-0.044530753 -0.0059967726 -0.002135976 -0.0060218666 -0.034484304 -0.0061862916 -0.21180059 -0.009730697
-0.0060739545 -0.0060095126 -0.0080245575 -0.00675896
00000000: 9e7a c9bb f751 4a3c 559e 27be bf13 cabb
00000010: 69b1 e53c dce6 92bb 5b84 c5bd ab7c d1bc
00000020: 6f99 85bd a4c9 c4bb c443 7fbd 65bc c4bb
00000030: 6d25 b6bb e563 c3bb d9c9 c4bb dde0 903c
00000040: d786 49be b9fa b0bb e3c3 c4bb f0c2 c4bb
00000050: 5a44 01be b7c9 c4bb db87 93bd 7a3b 3ebd
00000060: 00b7 c4bb a3c9 c4bb 24ca c4bb d838 c7bb
00000070: e9c4 c4bb a2eb febb da9b 803a 64ec 05bb
00000080: d7c9 c4bb 6bda b2bd f614 03bc 5840 f8bb
00000090: 165e c33b f780 673c 0301 67be 2567 d5bc
000000a0: 81c7 3fbd d8c9 c4bb ff7a 03bc 29e3 48bc
000000b0: bc28 f93b d8c9 c4bb 23da c5bb 609f c5bb
000000c0: e165 36bd 9380 c4bb bbfb 0bbb 1453 c5bb
000000d0: 6a3f 0dbd 60b6 cabb 41e2 58be 806d 1fbc
000000e0: 0608 c7bb 72eb c4bb 6f79 03bc 447a ddbb

linear.weight f4 [20, 60]
0.08877717 0.029485868 0.016789008 0.08088589 -0.007227772 0.18323934 0.16813439 0.22034587
0.15342246 0.052883133 0.016362708 0.029294044 -0.0125521 -0.06165282 -0.011912702 0.10190867
0.0680975 -0.059782553 -0.087120734 -0.0066503854 0.1460997 0.10049911 0.14022104 0.06255808
0.11848081 -0.121608265 -0.057021376 -0.00016470866 -0.0504998 -0.07255561 -0.047967896 -0.06920561
0.047423918 0.20482248 0.081884846 0.12977648 0.17661995 -0.020862475 0.052030437 -0.02829403
0.1751913 0.05098044 0.121499985 0.08578002 0.13506773 -0.04336008 0.10111242 0.046769932
0.052017335 -0.049765874 0.15824094 0.07091416 0.09849396 -0.103934065 0.087487005 0.10888306
-0.1198472 -0.0034929095 0.085860714 -0.034512464 -0.07530178 0.006941615 0.057050407 -0.033147424
0.06123412 0.05431889 0.13454716 0.1442948 0.2375725 0.066776656 0.0843165 -0.06852772
0.034724012 -0.110916875 -0.068311974 -0.005673969 -0.027584935 -0.11127273 -0.10836667 -0.11781323
-0.015515658 0.09206556 0.081728406 0.19489384 -0.11379378 0.10520076 0.0866148 0.03975496
-0.07056862 0.0027256657 0.13336405 0.08040705 -0.019894844 0.20676273 -0.045257732 -0.032143928
0.019386817 0.011307664 0.035757802 -0.08853217 0.16507088 -0.09525627 0.10299853 0.06673534
0.13951866 -0.008105884 0.120053224 -0.095137514 0.12166604 -0.0132444715 0.15118317 0.052767854
0.12726402 -0.030975034 0.13374409 0.18890972 0.096463904 -0.055947207 0.047009435 -0.09446532
0.02353727 0.12010818 0.23895055 -0.100562505 0.11541339 0.1288915 0.03429306 0.10451967
0.019305583 0.03576734 -0.015715173 -0.100738354 -0.046187636 -0.083391435 0.09838082 0.05337611
0.19011119 0.035007127 -0.09488911 0.033999518 0.038821995 -0.01173854 0.19951227 -0.024276266
-0.068691805 -0.11033594 -0.08212057 -0.098473474 0.11811707 -0.08323383 0.07526915 0.03797934
0.07691192 -0.018240266 0.0013467245 -0.113368325 0.12632354 0.1558127 -0.020033244 0.20719434
0.19782121 -0.03797097 0.059122507 -0.04656925 0.019153677 0.017364569 -0.05691735 0.04554126
0.001285968 -0.05705276 0.094787024 0.09526609 0.11390795 0.06283702 0.02623074 0.15892726
-0.04013075 0.089391455 0.06124481 0.13434133 0.018747723 0.08269024 0.22387457 -0.028207598
0.1693053 0.020829096 0.07085078 0.02635189 0.16741985 0.10388362 0.105568126 -0.008370346
0.028397065 0.020349342 -0.004235286 0.16362727 0.042478547 -0.064723216 0.047567178 0.032378353
0.18358062 -0.06384082 0.0680667 0.070338435 0.05075525 0.058541376 0.030422151 -0.074436165
-0.117609486 -0.0002663585 -0.017198808 0.11518112 -0.09212542 0.11925951 -0.05463902 -0.0645523
0.07639798 0.036411773 0.13076186 0.0075712325 0.059483685 -0.06709129 -0.023307683 0.13970926
0.14621617 0.10101179 -0.07543063 -0.0756971 0.033691857 0.028184138 -0.0032499172 -0.027857438
0.12877563 0.1124563 0.0085706925 0.20500964 0.09361571 0.03387324 -0.022342762 0.019437194
0.0591379 0.088552184 0.0057231346 0.04364383 -0.057807814 0.1901357 0.09453459 0.0047765584
0.04432545 -0.052461505 0.093143985 0.08424819 0.084344536 0.035985984 0.030179316 0.12633525
00000000: ced0 b53d 598c f13c 1a89 893c 80a7 a53d
00000010: f2d6 ecbb 18a3 3b3e 6c2b 2c3e 59a2 613e
00000020: c71a 1d3e fc9b 583d 160b 863c 10fa ef3c
00000030: 53a7 4dbc ab87 7cbd 7e2d 43bc 7eb5 d03d
00000040: b476 8b3d 8dde 74bd 5b6c b2bd 7aeb d9bb
00000050: 299b 153e 7ad2 cd3d 1b96 0f3e 731e 803d
00000060: 11a6 f23d c10d f9bd 3f8f 69bd a5b5 2cb9
00000070: e1d8 4ebd 0998 94bd fc79 44bd acbb 8dbd
00000080: 953f 423d fcbc 513e 3eb3 a73d 20e4 043e
00000090: dcdb 343e c8e7 aabc de1d 553d e2c8 e7bc
000000a0: 5965 333e ded0 503d fcd4 f83d 6fad af3d
000000b0: 324f 0a3e 579a 31bd 0714 cf3d d491 3f3d
000000c0: 2110 553d 4dd7 4bbd ea09 223e 713b 913d
000000d0: 34b7 c93d 62db d4bd 632c b33d 15fe de3d
000000e0: 7372 f5bd 4ce9 64bb bed7 af3d f15c 0dbd
000000f0: d237 9abd 7d76 e33b b0ad 693d 98c5 07bd
00000100: a1d0 7a3d 7c7d 5e3d bbc6 093e 04c2 133e
00000110: 3546 733e 33c2 883d 21ae ac3d 4358 8cbd
00000120: c43a 0e3d 6328 e3bd 26e7 8bbd b4ec b9bb
00000130: cdf9 e1bc f5e2 e3bd 58ef ddbd 1048 f1bd
00000140: 6335 7ebc de8c bc3d 3961 a73d 4092 473e
00000150: b70c e9bd 7f73 d73d 1a63 b13d 19d6 223d
00000160: 4886 90bd 15a1 323b 9690 083e 74ac a43d
00000170: 83fa a2bc 9cb9 533e 2c60 39bd 5aa9 03bd
00000180: 1ad1 9e3c c843 393c c676 123d 5b50 b5bd
00000190: 5708 293e b815 c3bd e5f0 d23d 8aac 883d
000001a0: fbdd 0e3e 8bce 04bc 77de f53d 75d7 c2bd
000001b0: 0b2c f93d 57ff 58bc c3cf 1a3e 1b23 583d
000001c0: 8051 023e 5bbf fdbc 36f4 083e 8d71 413e
000001d0: de8e c53d e628 65bd f78c 403d 0977 c1bd
000001e0: 3cd1 c03c 47fb f53d 74af 743e b7f3 cdbd
000001f0: db5d ec3d 22fc 033e e176 0c3d 690e d63d
00000200: be26 9e3c c680 123d 1bbd 80bc e94f cebd
00000210: 3f2f 3dbd 21c9 aabd e27b c93d e8a0 5a3d
00000220: 82ac 423e a263 0f3d 3955 c2bd 1443 0b3d
00000230: d003 1f3d 0153 40bc f24c 4c3e 05df c6bc
00000240: 4aae 8cbd cff7 e1bd d42e a8bd 76ac c9bd
00000250: 5de7 f13d 8076 aabd b626 9a3d 3990 1b3d
00000260: ff83 9d3d 9c6c 95bc 9384 b03a a72d e8bd
00000270: f55a 013e 5d8d 1f3e c21c a4bc c12a 543e
00000280: a591 4a3e 7387 1bbd 712a 723d 66bf 3ebd
00000290: 2ce8 9c3c 2440 8e3c 2b22 69bd 7989 3a3d
000002a0: ed8d a83a 28b0 69bd b31f c23d de1a c33d
000002b0: 9248 e93d b2b0 803d d9e1 d63c d4bd 223e
000002c0: 2460 24bd de12 b73d d6db 7a3d c690 093e
000002d0: d394 993c 8059 a93d 603f 653e 9f13 e7bc
000002e0: 5e5e 2d3e c8a1 aa3c 371a 913d ebdf d73c
000002f0: 1c70 2b3e efc0 d43d 1a34 d83d c723 09bc
00000300: f6a0 e83c aab3 a63c 27c8 8abb e88d 273e
00000310: fcfd 2d3d 9b8d 84bd cdd5 423d 2a9f 043d
00000320: 8ffc 3b3e fabe 82bd 8e66 8b3d 990d 903d
00000330: bde4 4f3d 15c9 6f3d e037 f93c fd71 98bd
00000340: 3edd f0bd 08a6 8bb9 84e4 8cbc 14e4 eb3d
00000350: 41ac bcbd 543e f43d 2acd 5fbd ff33 84bd
00000360: 8b76 9c3d 8324 153d 70e6 053e 1a18 f83b
00000370: 2aa5 733d 2967 89bd c1ef bebc f20f 0f3e
00000380: b1b9 153e 45df ce3d 607b 9abd 1507 9bbd
00000390: 7900 0a3d 6ce2 e63c 90fc 54bb 4835 e4bc
000003a0: c2dd 033e 7d4f e63d 176c 0c3c 0cee 513e
000003b0: 98b9 bf3d abbe 0a3d 2b08 b7bc c03a 9f3c
000003c0: 953a 723d d95a b53d 2289 bb3b dfc3 323d
000003d0: e3c7 6cbd efb2 423e 5a9b c13d ad84 9c3b
000003e0: 9a8e 353d e0e1 56bd 46c2 be3d 518a ac3d
000003f0: d4bc ac3d 0a66 133d 9d3a f73c 075e 013e

linear.bias f4 [20]
0.021270469 0.054979127 0.0341096 -0.001912813 0.031705383 0.0050002774 0.02448255 0.044300295
0.018585553 0.060819905 0.039963193 0.03602403 0.025076557 0.053054165 0.0153765185 0.05052011
0.014373189 0.014667715 0.061340712 0.029965894
00000000: 683f ae3c cb31 613d 82b6 0b3d 5bb7 faba
00000010: 81dd 013d 5ed9 a33b a18f c83c 3a74 353d
00000020: bb40 983c 4b1e 793d 72b0 233d ef8d 133d
00000030: 5a6d cd3c 534f 593d cbed 7b3c 2dee 4e3d
00000040: 867d 6b3c db50 703c 6640 7b3d 097b f53c
