TFM/regresion/results/branch_fault/MSTGCN.pt (torch, 41730 bytes, 20 tensors)

recurrent._blocklist.0._cheb_conv.bias f4 [8]
1.0405375 0.4461809 0.07448402 0.08120437 0.9989049 0.040705565 0.30308926 0.71431196
00000000: 5530 853f d371 e43e 148b 983d 7a4e a63d
00000010: 3bb8 7f3f e1ba 263d 842e 9b3e 26dd 363f

recurrent._blocklist.0._cheb_conv.lins.0.weight f4 [8, 1]
-0.54851335 0.78068006 0.026814172 0.34664842 0.07440425 0.14765151 0.5280168 -0.81066114
00000000: 5f6b 0cbf a6da 473f 65a9 db3c e77b b13e
00000010: 4161 983d f531 173e 1c2c 073f 7d87 4fbf

recurrent._blocklist.0._cheb_conv.lins.1.weight f4 [8, 1]
-0.016073 -0.29492778 0.70450115 0.4649758 -0.32338417 0.3566263 -0.14980486 0.5477642
00000000: 86ab 83bc c600 97be 305a 343f 4f11 ee3e
00000010: 9c92 a5be b997 b63e 7266 19be 463a 0c3f

recurrent._blocklist.0._time_conv.weight f4 [8, 8, 1, 3]
-0.10549072 -0.24167359 0.10282716 0.17793566 0.3428779 0.14524937 -0.17308182 0.08793724
0.022250788 0.3210639 0.1758616 0.3387844 0.015362549 -0.27072272 -0.2257567 0.31459522
0.3282247 0.12333207 -0.2495144 0.28258803 0.17963059 -0.2615967 0.07807158 0.29743728
-0.104516104 0.19637969 0.2917293 -0.18291788 0.16494308 0.24026732 0.31147206 -0.3480024
-0.01440522 0.21335697 0.22296692 -0.17468657 0.20843665 0.23274057 -0.05667893 0.19182838
0.15177353 -0.10839695 -0.20427798 -0.25600284 -0.35985047 -0.26013726 0.099586554 0.15772009
-0.10589618 -0.06369821 0.19532825 0.07714035 -0.20036346 0.35105672 0.09521478 -0.06898775
0.065265365 -0.27409986 0.2423592 0.1321452 -0.014998816 -0.08664679 0.31503803 0.008069223
-0.25632742 0.10954898 0.08863264 -0.077576205 0.30275586 0.37078214 -0.043848783 -0.19719909
-0.15053636 -0.15076476 0.2294398 0.16415936 -0.2629772 0.13666484 -0.07341618 -0.10055831
-0.19055694 -0.37379682 -0.33944124 0.20722298 -0.088863954 -0.039425306 -0.24142767 -0.09628593
-0.1573167 -0.0008775526 -0.3964302 -0.015882947 -0.3737676 -0.09741964 0.114402 0.12480937
-0.10794817 0.1553494 -0.050886307 0.09670508 0.18534508 0.07043313 -0.3080674 -0.097713515
0.26326433 0.24706699 0.19336484 0.39400315 -0.17406356 -0.08767637 -0.031000596 -0.07201548
0.3477983 -0.30109048 0.09158324 0.38908038 -0.14455076 0.3595129 -0.25445873 0.063566945
-0.32315567 0.0034028618 -0.022608707 0.069136 -0.103773475 -0.14230472 -0.3176368 0.08761116
0.3697402 -0.3085179 -0.17707466 0.051020514 0.13835038 0.080997266 0.17851138 0.019390212
-0.10829836 -0.31466755 -0.3669501 -0.29884303 0.14055684 0.2049833 0.25072786 0.20191841
0.03975289 0.29356033 0.19657902 -0.18272476 -0.03018985 -0.30024192 0.25223234 -0.0034937868
0.23822281 -0.10936411 0.19087407 0.06799279 0.01871598 0.0429623 0.30380046 -0.10104624
0.1932355 -0.010905963 -0.0873453 -0.13311544 -0.14950562 0.20592147 0.28583327 -0.13083142
-0.24943203 0.29546136 0.02210226 -0.2768217 0.084198475 -0.034870304 0.3223804 0.123197466
-0.17833929 -0.0019458471 -0.21726419 0.18572453 0.16903287 0.25938496 -0.21372539 -0.12588908
-0.16797243 -0.25934565 -0.27367464 -0.26680118 0.2546084 -0.06285221 0.012952017 0.19250436
00000000: 850b d8bd 4879 77be 0c97 d23d c434 363e
00000010: b18d af3e 40bc 143e 5c3c 31be 7118 b43d
00000020: 4947 b63c 7d62 a43e 1015 343e 2675 ad3e
00000030: 33b3 7b3c 2b9c 8abe c42c 67be a012 a13e
00000040: 110d a83e 8695 fc3d b480 7fbe 61af 903e
00000050: 15f1 373e 01f0 85be fee3 9f3d b349 983e
00000060: 8a0c d6bd c217 493e 8b5d 953e d34e 3bbe
00000070: d7e6 283e a308 763e 4479 9f3e 5f2d b2be
00000080: df03 6cbc 407a 5a3e 7151 643e 09e1 32be
00000090: 6b70 553e 8b53 6e3e 2a28 68bd a96e 443e
000000a0: 856a 1b3e 38ff ddbd 3f2e 51be ce12 83be
000000b0: 523e b8be b630 85be 09f4 cb3d 6081 213e
000000c0: 19e0 d8bd 3574 82bd 2104 483e c3fb 9d3d
000000d0: 142c 4dbe b5bd b33e f7ff c23d 7349 8dbd
000000e0: d9a9 853d d156 8cbe 032d 783e 1251 073e
000000f0: 98bd 75bc df73 b1bd aa4c a13e c634 043c
00000100: 593d 83be 375b e03d 0885 b53d 46e0 9ebd
00000110: d102 9b3e 28d7 bd3e c89a 33bd 8fee 49be
00000120: 3426 1abe 1462 1abe 44f2 6a3e 6419 283e
00000130: f3a4 86be def1 0b3e 395b 96bd 84f1 cdbd
00000140: 5c21 43be 4c62 bfbe 3ecb adbe 4332 543e
00000150: 4efe b5bd 6e7c 21bd d138 77be 8f31 c5bd
00000160: a117 21be 8f0b 66ba e6f8 cabe f41c 82bc
00000170: 785e bfbe f383 c7bd 994b ea3d 0e9c ff3d
00000180: ee13 ddbd ea13 1f3e 296e 50bd 500d c63d
00000190: 1acb 3d3e 3f3f 903d 03bb 9dbe 061e c8bd
000001a0: 95ca 863e 21ff 7c3e 6f01 463e c8ba c93e
000001b0: b83d 32be ab8f b3bd f6f4 fdbc da7c 93bd
000001c0: 9e12 b23e 8828 9abe fe8f bb3d 8b35 c73e
000001d0: 1d05 14be 1312 b83e 6a48 82be 632f 823d
000001e0: a974 a5be 8c02 5f3b e535 b9bc 2d97 8d3d
000001f0: 3087 d4bd 54b8 11be 4aa1 a2be 7b6d b33d
00000200: 964e bd3e 0ff6 9dbe 0f53 35be e3fa 503d
00000210: b9ab 0d3e e5e1 a53d b0cb 363e 39d8 9e3c
00000220: 88cb ddbd 1b1c a1be e2e0 bbbe f401 99be
00000230: 22ee 0f3e 24e7 513e 675f 803e b3c3 4e3e
00000240: edd3 223d 8a4d 963e 034c 493e 331c 3bbe
00000250: b450 f7bc 4fb9 99be 9924 813e 04f8 64bb
00000260: aef0 733e 4afa dfbd 7e74 433e ce3f 8b3d
00000270: 4152 993c 3df9 2f3d bc8b 9b3e 55f1 cebd
00000280: 87df 453e edae 32bc 18e2 b2bd 6a4f 08be
00000290: 0018 19be 14dd 523e bd58 923e acf8 05be
000002a0: 1c6b 7fbe b646 973e cc0f b53c 93bb 8dbe
000002b0: 4070 ac3d 2ad4 0ebd 0b0f a53e f44e fc3d
000002c0: 939e 36be cb0b ffba 817a 5ebe 922e 3e3e
000002d0: f416 2d3e 1bce 843e d4da 5abe 11e9 00be
000002e0: f700 2cbe f4c8 84be 151f 8cbe 2a9a 88be
000002f0: 085c 823e a9b8 80bd b234 543c dd1f 453e

recurrent._blocklist.0._time_conv.bias f4 [8]
0.6211536 0.71673745 0.16740191 0.9299437 0.47193047 0.19731756 0.8632109 0.15883924
00000000: ec03 1f3f 1b7c 373f 686b 2b3e ca10 6e3f
00000010: dfa0 f13e 9d0d 4a3e 64fb 5c3f c1a6 223e

recurrent._blocklist.0._residual_conv.weight f4 [8, 1, 1, 1]
-0.43888983 0.36877126 0.3800889 -0.3993642 -0.002446787 -0.16093133 0.31511065 0.15069573
00000000: 2bb6 e0be 96cf bc3e 039b c23e 7779 ccbe
00000010: 465a 20bb 2fcb 24be 2f56 a13e fb4f 1a3e

recurrent._blocklist.0._residual_conv.bias f4 [8]
0.672783 0.90493923 0.17655873 0.101042226 0.3932549 0.20706655 0.18490082 1.0385891
00000000: 823b 2c3f 19aa 673f d0cb 343e 3aef ce3d
00000010: b558 c93e 4109 543e a456 3d3e 7df0 843f

recurrent._blocklist.0._layer_norm.weight f4 [8]
0.90641296 0.88670295 0.26177594 0.4373495 0.17189541 0.17545155 0.95118237 0.5490887
00000000: ae0a 683f f7fe 623f 7f07 863e 46ec df3e
00000010: 5a05 303e 92a9 333e b080 733f 1491 0c3f

recurrent._blocklist.0._layer_norm.bias f4 [8]
0.69186646 -0.028803954 0.7076955 0.8574535 0.3179069 0.8988735 0.7298263 0.16750674
00000000: 291e 313f 45f6 ebbc 882b 353f 1382 5b3f
00000010: b1c4 a23e 931c 663f e5d5 3a3f e386 2b3e

recurrent._blocklist.1._cheb_conv.bias f4 [8]
0.13612975 0.46447855 -0.0016180343 0.083616555 0.6908355 0.33590347 0.52414113 0.28712997
00000000: 9965 0b3e 22d0 ed3e 3914 d4ba 283f ab3d
00000010: 98da 303f 8afb ab3e 1d2e 063f b302 933e

recurrent._blocklist.1._cheb_conv.lins.0.weight f4 [8, 8]
0.40757906 0.49326545 0.42704257 -0.55106294 -0.17869323 0.2881374 0.36496058 -0.08427588
0.31571028 -0.032838162 0.045289136 0.3865741 0.3717241 -0.46348134 -0.4093466 0.17356485
0.3451627 -0.15109521 0.55930346 -0.057796575 -0.27106646 -0.04816784 -0.51619714 0.16843213
-0.57970595 0.57113117 -0.42194206 0.38665646 -0.43711364 -0.061577726 -0.27261758 0.35417745
0.312598 -0.5975047 -0.5745472 0.046940003 -0.07097075 -0.03724846 0.142025 -0.17088053
0.5441109 0.069652915 -0.239506 0.26316285 -0.42169902 -0.24169429 0.2448699 -0.1754522
-0.64644927 0.2084427 0.059702832 0.0981656 0.13859232 -0.62098885 -0.28967538 -0.3212906
0.5339216 -0.30022267 -0.44291362 -0.25797263 0.0087834075 0.21140154 0.4094361 0.3765604
00000000: 34ae d03e 4a8d fc3e 53a5 da3e 7612 0dbf
00000010: 5cfb 36be bf86 933e 1ddc ba3e d598 acbd
00000020: c7a4 a13e 4f81 06bd 1a81 393d 0aed c53e
00000030: 9f52 be3e 6d4d edbe e195 d1be fcba 313e
00000040: 2ab9 b03e b4b8 1abe 832e 0f3f 1abc 6cbd
00000050: 39c9 8abe a44b 45bd 7f25 04bf 7979 2c3e
00000060: 9c67 14bf a735 123f ca08 d8be d6f7 c53e
00000070: 5ccd dfbe ed38 7cbd 8894 8bbe bf56 b53e
00000080: d80c a03e 11f6 18bf 8615 13bf 2944 403d
00000090: 1d59 91bd d791 18bd 006f 113e 4efb 2ebe
000000a0: da4a 0b3f 30a6 8e3d 1041 75be 48bd 863e
000000b0: efe8 d7be b57e 77be 2dbf 7a3e bea9 33be
000000c0: b37d 25bf 0172 553e f58a 743d 0c0b c93d
000000d0: 25eb 0d3e 20f9 1ebf 5550 94be 3480 a4be
000000e0: 16af 083f c9b6 99be 93c5 e2be fd14 84be
000000f0: 48e8 0f3c a579 583e 9ca1 d13e 86cc c03e

recurrent._blocklist.1._cheb_conv.lins.1.weight f4 [8, 8]
0.049932584 0.5645167 0.3434739 0.33466205 -0.49702606 0.07324919 -0.079066366 -0.5658612
-0.33262938 0.4227847 0.15285416 0.5207451 0.36013937 -0.040913142 0.41896734 0.11910336
-0.05305659 -0.23432732 0.4301214 0.3396659 0.4741314 -0.029248906 -0.5378947 0.14290698
0.05410659 -0.44098645 0.108299404 -0.13205771 0.44340855 0.09279251 -0.28482634 0.48811823
0.006926799 -0.17367175 0.2014777 0.5144157 0.17874849 -0.02983359 0.45162234 -0.19233026
0.5295603 -0.36828822 0.017697483 0.5641229 0.23893261 -0.12556307 0.41707328 0.18519855
-0.46408883 0.033048116 -0.37660286 -0.037779886 0.030772025 -0.17530876 -0.14921997 0.37698013
0.041283116 -0.5560035 0.153815 -0.55017924 -0.3724484 0.41062596 0.48240954 -0.19048133
00000000: 1c86 4c3d 2b84 103f d0db af3e d358 ab3e
00000010: 337a febe ac03 963d 8ced a1bd 48dc 10bf
00000020: 664e aabe 3c77 d83e cd85 1c3e 8d4f 053f
00000030: 3064 b83e 8a94 27bd e382 d63e 76ec f33d
00000040: de51 59bd 80f3 6fbe df38 dc3e b0e8 ad3e
00000050: 5ac1 f23e 679b efbc 78b3 09bf 3556 123e
00000060: df9e 5d3d fac8 e1be 14cc dd3d 233a 07be
00000070: 7206 e33e 000a be3d c2d4 91be a2ea f93e
00000080: 34fa e23b 02d7 31be 2c50 4e3e bfb0 033f
00000090: d809 373e 9365 f4bc 0b3b e73e 39f2 44be
000000a0: 4491 073f 4690 bcbe 50fa 903c 5c6a 103f
000000b0: c0aa 743e 9b93 00be a18a d53e b0a4 3d3e
000000c0: 0d9d edbe 765d 073d 17d2 c0be 15bf 1abd
000000d0: 9d15 fc3c 2484 33be 1fcd 18be 8a03 c13e
000000e0: 7c18 293d 3f56 0ebf ae81 1d3e 8cd8 0cbf
000000f0: 8fb1 bebe 913d d23e 62fe f63e 8a0d 43be

recurrent._blocklist.1._time_conv.weight f4 [8, 8, 1, 3]
-0.19516736 0.17221934 -0.33680743 0.17452522 0.20230527 0.10873813 0.120426945 0.086911075
-0.25944138 -0.13742603 0.23841056 0.29421362 -0.009826242 0.07403818 -0.3490662 0.21093167
-0.24523157 -0.2239371 0.31247494 -0.1351603 -0.21437123 0.024713805 0.25147504 0.2832366
-0.0075043594 0.20055379 0.21102028 -0.035212334 -0.24456744 0.025601618 -0.10527776 0.12974931
-0.2422305 -0.14606541 -0.15848842 -0.15563004 0.2910585 -0.2996697 0.024316289 -0.113204874
-0.027276052 -0.014156851 0.15330194 0.22833978 -0.0722963 -0.04437257 -0.06296253 0.27001515
0.17530161 -0.054692272 0.26301607 -0.23840047 0.17636845 0.31381214 -0.13330154 0.19484946
0.2250257 -0.34987444 0.07008847 0.24146686 0.012185127 -0.15301204 -0.2140247 -0.18787545
0.06576604 -0.36121035 -0.4557771 -0.2810142 -0.32553473 0.27845123 -0.19257945 -0.27088648
0.11792151 0.18089025 0.29260904 -0.18792126 -0.10913121 -0.31492963 -0.27989823 -0.12743971
0.06001771 -0.12888998 -0.052153874 0.15899351 0.0401059 0.17672326 0.12808223 0.22045943
-0.15942796 0.20646901 -0.21438386 0.21017753 -0.13125479 0.1287313 -0.28940004 -0.033050623
0.26279226 -0.13559726 0.20859386 -0.08156611 0.29795983 0.2876635 -0.21514642 -0.09602721
-0.095766105 -0.064623326 0.19962914 -0.2875664 -0.23316665 -0.09312421 -0.35309052 -0.24555878
0.22352844 -0.23778841 0.34173536 -0.108125865 -0.17414024 0.3001892 -0.2571308 -0.36877584
-0.02606876 -0.176169 0.19706851 0.120130636 0.051693153 0.18237501 0.27003187 0.047590047
0.24041615 -0.19002657 0.29618433 -0.05521579 0.17829631 -0.3103804 -0.19531327 -0.22755224
0.16851884 0.013164059 -0.3264448 0.34727502 0.12648672 0.25690565 -0.022349007 0.049144253
0.24529925 -0.2503767 0.317536 -0.16621988 0.086703874 -0.18220372 -0.23909386 0.26151037
-0.10235147 -0.12943448 0.1972849 0.278299 -0.29111278 0.018583097 0.11425766 0.34206173
-0.14020948 -0.115393825 -0.16932626 0.124192946 0.11243235 0.046183925 0.01453556 -0.20311688
-0.15158772 -0.12676929 0.15127447 0.16954848 0.18653679 -0.21923944 -0.05056679 -0.08061498
0.35593057 0.16618869 -0.36429867 -0.27382347 -0.22194135 -0.06150021 -0.2559174 0.13798153
-0.17941132 -0.1590538 -0.007146727 -0.13282993 0.27274162 0.28601232 -0.337118 0.18611646
00000000: f4d9 47be 445a 303e 0672 acbe bdb6 323e
00000010: 1d29 4f3e 19b2 de3d 67a2 f63d 6ffe b13d
00000020: 80d5 84be 69b9 0cbe e621 743e 2ba3 963e
00000030: 3ffe 20bc 54a1 973d ceb8 b2be 79fe 573e
00000040: fc1d 7bbe c44f 65be b7fc 9f3e 7667 0abe
00000050: 2284 5bbe 9b74 ca3c 56c1 803e 6304 913e
00000060: 21e7 f5bb f95d 4d3e b315 583e cf3a 10bd
00000070: e36f 7abe 7cba d13c de9b d7bd 01dd 043e
00000080: 460b 78be 2c92 15be ca4a 22be 7b5d 1fbe
00000090: 9f05 953e 4f6e 99be f432 c73c f5d7 e7bd
000000a0: 0772 dfbc 23f2 67bc 2ffb 1c3e e7d1 693e
000000b0: 1510 94bd 03c0 35bd 80f2 80bd 6d3f 8a3e
000000c0: 4482 333e 0105 60bd 0baa 863e 411f 74be
000000d0: ee99 343e fcab a03e 3380 08be 9e86 473e
000000e0: 236d 663e be22 b3be 8b8a 8f3d 1743 773e
000000f0: 20a4 473c 30af 1cbe 4a29 5bbe 6c62 40be
00000100: 58b0 863d 90f0 b8be 9e5b e9be 18e1 8fbe
00000110: 7dac a6be 2991 8e3e 8c33 45be a2b1 8abe
00000120: d580 f13d 4b3b 393e dad0 953e 6e6e 40be
00000130: 2f80 dfbd 753e a1be d24e 8fbe 8e7f 02be
00000140: 21d5 753d bcfb 03be 4d9f 55bd 32cf 223e
00000150: 1646 243d f1f6 343e fd27 033e 1ec0 613e
00000160: 1541 23be 9d6c 533e 7187 5bbe c738 573e
00000170: a867 06be 23d2 033e 3e2c 94be 1760 07bd
00000180: b58c 863e 02da 0abe a199 553e 220c a7bd
00000190: 318e 983e a148 933e 584f 5cbe eaa9 c4bd
000001a0: 0521 c4bd 3c59 84bd 956b 4c3e e73b 93be
000001b0: 3dc3 6ebe e8b7 bebd 48c8 b4be c373 7bbe
000001c0: a4e4 643e ce7e 73be f0f7 ae3e 1871 ddbd
000001d0: d251 32be 66b2 993e a6a6 83be 30d0 bcbe
000001e0: 278e d5bc a565 34be 54cc 493e 0d07 f63d
000001f0: 33bc 533d 84c0 3a3e 9e41 8a3e c8ed 423d
00000200: a72f 763e 5396 42be 79a5 973e f429 62bd
00000210: 4f93 363e 2eea 9ebe 3400 48be 7403 69be
00000220: 3490 2c3e 11ae 573c c623 a7be 08ce b13e
00000230: bc85 013e 2389 833e 4415 b7bc 7c4b 493d
00000240: ba2f 7b3e 6031 80be 1494 a23e 8b35 2abe
00000250: cd91 b13d 9d93 3abe 05d5 74be b0e4 853e
00000260: a69d d1bd 798a 04be 0e05 4a3e 357d 8e3e
00000270: bc0c 95be 943b 983c ecff e93d b722 af3e
00000280: 1393 0fbe 9953 ecbd dd63 2dbe df58 fe3d
00000290: ef42 e63d 5b2b 3d3d 8f26 6e3c dffd 4fbe
000002a0: d039 1bbe cfcf 01be b2e7 1a3e 1e9e 2d3e
000002b0: 8003 3f3e 4e80 60be 1f1f 4fbd 7719 a5bd
000002c0: 883c b63e 5e2d 2a3e 5b85 babe 9732 8cbe
000002d0: 9844 63be a5e7 7bbd 9b07 83be 084b 0d3e
000002e0: 9ab7 37be 00df 22be 172f eabb 9204 08be
000002f0: caa4 8b3e 3570 923e bb9a acbe 5095 3e3e

recurrent._blocklist.1._time_conv.bias f4 [8]
0.49973622 0.75509745 0.33772993 0.49275896 0.43953606 0.6606178 0.7622099 0.67180485
00000000: 6ddd ff3e 114e 413f f0ea ac3e e74a fc3e
00000010: df0a e13e 401e 293f 3020 433f 67fb 2b3f

recurrent._blocklist.1._residual_conv.weight f4 [8, 8, 1, 1]
0.059514906 -0.50430775 -0.36718252 -0.3628096 -0.62502986 0.5882269 -0.26842177 -0.40686938
-0.28661224 0.3306466 -0.40738627 -0.53278047 -0.47660202 0.13621342 0.04379012 -0.5019735
-0.35312286 -0.52063406 0.22720666 0.27405024 0.13535169 -0.16427135 -0.27017352 0.13488343
-0.094784915 -0.07844601 -0.15904404 0.1867693 0.18163571 0.53512126 0.52533984 -0.2480398
0.049597327 -0.49595723 -0.5442801 0.6158474 -0.0031626257 -0.31537932 0.31773618 0.17147967
0.1799068 0.29626617 0.002949717 -0.53719234 -0.5709819 0.5820389 0.5957725 -0.34933487
0.49876195 -0.568242 0.43749315 0.46178806 0.41042492 0.25467256 -0.42769226 -0.2863083
0.07901157 0.25676337 0.47799537 -0.08156726 0.2016149 -0.4818485 -0.026424436 0.49230385
00000000: e7c5 733d 501a 01bf 59ff bbbe 2ec2 b9be
00000010: f501 20bf 0a96 163f 946e 89be 2f51 d0be
00000020: d7be 92be 834a a93e ef94 d0be 4d64 08bf
00000030: 2e05 f4be 887b 0b3e 455d 333d 5681 00bf
00000040: 85cc b4be 4648 05bf dda8 683e 5050 8c3e
00000050: a299 0a3e c036 28be 2f54 8abe e21e 0a3e
00000060: 981e c2bd 4da8 a0bd 71dc 22be 7440 3f3e
00000070: b6fe 393e b5fd 083f ac7c 063f 25fe 7dbe
00000080: 9126 4b3d 1bee fdbe f155 0bbf 2da8 1d3f
00000090: 0e44 4fbb 6679 a1be 51ae a23e 5e98 2f3e
000000a0: 7d39 383e 33b0 973e 0a50 413b 7085 09bf
000000b0: df2b 12bf 8000 153f 8c84 183f 05dc b2be
000000c0: ba5d ff3e 4f78 11bf 1aff df3e 7c6f ec3e
000000d0: 3723 d23e 7164 823e 7bfa dabe 0097 92be
000000e0: d1d0 a13d 7d76 833e cfbb f43e bc0c a7bd
000000f0: 2374 4e3e d9b4 f6be 0f78 d8bc 400f fc3e

recurrent._blocklist.1._residual_conv.bias f4 [8]
0.5301686 0.8879323 0.123965554 0.19698648 0.6060771 0.4682707 0.085688315 0.69014376
00000000: 21b9 073f 884f 633f a7e1 fd3d d3b6 493e
00000010: de27 1b3f 2dc1 ef3e 5b7d af3d 43ad 303f

recurrent._blocklist.1._layer_norm.weight f4 [8]
0.48991263 0.56973743 0.6058712 0.10215582 0.17561795 0.0854985 0.91004515 0.21077864
00000000: d4d5 fa3e 50da 113f 601a 1b3f 1237 d13d
00000010: 31d5 333e d619 af3d b8f8 683f 5bd6 573e

recurrent._blocklist.1._layer_norm.bias f4 [8]
0.93155265 0.3106245 0.62226844 0.9434355 0.21171848 0.011073341 0.57141626 0.119779505
00000000: 3c7a 6e3f 2d0a 9f3e fc4c 1f3f fd84 713f
00000010: bbcc 583e f56c 353c 5648 123f f54e f53d

recurrent._final_conv.weight f4 [20, 50, 1, 8]
0.05352779 0.040978685 0.086581245 -0.014130967 -0.064412415 -0.098723866 0.0067824894 0.08917782
-0.01893276 0.0018501392 -0.012322338 -0.056887373 0.07382972 -0.032574214 -0.049814988 0.09866412
0.0637382 0.05711137 0.07839837 -0.06952378 0.019470872 -0.032909617 0.022430122 0.049061637
-0.03215238 0.10303699 -0.001786738 0.05529316 -0.006153363 -0.10472751 -0.03189489 -0.08338108
0.013515499 -0.066674344 -0.08264906 0.017624572 -0.107285544 -0.061564736 -0.029997371 0.053183388
0.09601831 0.038930096 -0.043984152 0.07461824 0.086893104 -0.033137895 0.08047078 0.027474444
-0.070753776 -0.02508715 -0.07757496 0.0270954 0.04225615 -0.10742777 -0.02018694 0.005811717
0.08439977 -0.054194298 -0.0066390187 -0.007302029 -0.06940865 -0.05138972 0.0029581997 -0.028201433
-0.031274267 0.012810152 -0.0065395813 -0.054759786 0.046775263 0.068721846 0.006411169 -0.016728688
-0.09935345 -0.07201963 0.004313153 -0.024050336 0.014654654 -0.056879506 -0.0023197038 0.017952215
0.10267062 0.08453756 -0.056495357 -0.012416646 -0.027673144 -0.0086160535 0.048711624 -0.04003473
-0.020586478 -0.099904425 -0.036823377 -0.10575561 0.020063039 -0.0858327 -0.027994998 -0.0710443
0.08036094 -0.028088726 0.08123525 -0.055893254 0.059579276 -0.025902888 -0.042333964 0.08961067
-0.067921184 -0.05846108 0.045727115 -0.014477861 -0.020149514 0.096596956 -0.04714508 -0.032966822
0.044001527 -0.016532531 -0.00422534 -0.03995528 -0.03453585 0.07644693 0.016402181 0.045973953
0.079630286 0.08231858 0.050919224 0.06683603 -0.037738968 0.0020409715 -0.02720883 -0.0970497
0.08958084 -0.09741065 -0.06626238 -0.04144299 -0.10951129 -0.08708174 -0.025579104 0.016416345
-0.08630845 -0.0720496 -0.05109955 -0.08224498 0.010241076 -0.001848056 0.0371319 0.094457254
-0.04043027 -0.036327343 0.050024766 0.08642087 0.02182519 -0.014140434 0.035212804 -0.10091011
-0.0664789 -0.04055788 -0.06709217 -0.082417846 -0.09011669 0.024603533 0.027989041 -0.0019402248
-0.019484092 0.0043732706 0.08756634 -0.08195024 0.06711098 0.039515123 -0.045762468 0.07386033
0.004510992 -0.046551768 0.10338936 0.025940008 0.0654666 -0.0342808 -0.073835716 0.08657126
0.011758324 0.050828967 0.0058357147 0.044780858 -0.09002527 -0.0007359922 0.066875495 -0.027986018
0.0942111 0.04000247 0.089983486 0.097961955 -0.031549238 -0.028665112 0.046696205 -0.05101682
-0.070796415 0.06983544 -0.047886558 -0.05347737 0.01699566 0.010593818 -0.07933935 -0.024602758
0.07158688 -0.06463194 0.10825964 -0.01505306 -0.03939433 -0.10306682 -0.059826713 0.085343875
-0.050335623 -0.07997469 0.04570569 0.0693758 -0.03208066 0.09681058 0.0628596 0.09581429
-0.053147838 -0.07252559 -0.05161233 -0.024484627 -0.0728955 0.044182677 -0.015413033 0.08334856
-0.0890039 -0.086000346 0.028371075 0.02245242 0.08097468 -0.013211679 0.06556999 -0.024990877
-0.008663387 -0.039217096 -0.0030354897 -0.044462033 -0.096024565 -0.017573232 -0.04476008 -0.06285872
-0.069944605 -0.09971543 0.018005965 -0.08930716 0.08778963 -0.033409502 0.011564055 -0.06963302
0.017643074 -0.09932802 0.059706744 0.04286672 -0.111703075 0.038072266 0.031604752 -0.056276616
00000000: f53f 5b3d 44d9 273d 8251 b13d 9285 67bc
00000010: a8ea 83bd bd2f cabd a53f de3b dca2 b63d
00000020: e018 9bbc 5f80 f23a a2e3 49bc bc02 69bd
00000030: 0934 973d 8a6c 05bd cd0a 4cbd 6a10 ca3d
00000040: 2c89 823d 9ded 693d 538f a03d 7c62 8ebd
00000050: 6181 9f3c 3ccc 06bd 60bf b73c dbf4 483d
00000060: 37b2 03bd 0f05 d33d fb30 eaba 157b 623d
00000070: 26a2 c9bb 607b d6bd 37a4 02bd b3c3 aabd
00000080: 1d70 5d3c 8f8c 88bd e943 a9bd 6861 903c
00000090: 86b8 dbbd 4e2b 7cbd 0cbd f5bc d3d6 593d
000000a0: 3fa5 c43d 2a75 1f3d ba28 34bd 73d1 983d
000000b0: 03f5 b13d 9abb 07bd ddcd a43d 1612 e13c
000000c0: 5be7 90bd 9183 cdbc 9fdf 9ebd 2cf7 dd3c
000000d0: c914 2d3d 1703 dcbd 155f a5bc 3770 be3b
000000e0: c9d9 ac3d d7fa 5dbd 208c d9bb dc45 efbb
000000f0: 1f26 8ebd 077e 52bd 5bde 413b b106 e7bc
00000100: 7219 00bd ace1 513c fc49 d6bb cc4b 60bd
00000110: 6b97 3f3d 0abe 8c3d c914 d23b 9a0a 89bc
00000120: d279 cbbd 077f 93bd 5a55 8d3b 3605 c5bc
00000130: 131a 703c 7cfa 68bd 2c06 18bb 8610 933c
00000140: f944 d23d 0722 ad3d ad67 67bd 306f 4bbc
00000150: cab2 e2bc 592a 0dbc d785 473d 75fb 23bd
00000160: f9a4 a8bc b19a ccbd 1cd4 16bd 6696 d8bd
00000170: 3e5b a43c 0ec9 afbd c455 e5bc ad7f 91bd
00000180: 4794 a43d 541a e6bc ab5e a63d 53f0 64bd
00000190: 6609 743d 4b32 d4bc 6166 2dbd cd85 b73d
000001a0: 431a 8bbd e374 6fbd 5b4c 3b3d 8d34 6dbc
000001b0: 9810 a5bc a0d4 c53d 331b 41bd 3808 07bd
000001c0: f23a 343d 3b6f 87bc b974 8abb 26a8 23bd
000001d0: 7775 0dbd 3590 9c3d de5d 863c 2f4f 3c3d
000001e0: 3415 a33d a596 a83d ad90 503d 54e1 883d
000001f0: 2d94 1abd d2c1 053b 0de5 debc fec1 c6bd
00000200: 2976 b73d 3c7f c7bd 92b4 87bd 20c0 29bd
00000210: 7547 e0bd e957 b2bd 458b d1bc 927b 863c
00000220: 7cc2 b0bd be8e 93bd c34d 51bd 0e70 a8bd
00000230: 30ca 273c 783a f2ba 9f17 183d ce72 c13d
00000240: 369a 25bd fbcb 14bd c5e6 4c3d 6dfd b03d
00000250: beca b23c 47ad 67bc 4d3b 103d f6a9 cebd
00000260: 1726 88bd 0520 26bd 9f67 89bd b0ca a8bd
00000270: 198f b8bd 598d c93c 4649 e53c 244f feba
00000280: 1a9d 9fbc a74d 8f3b fb55 b33d 87d5 a7bd
00000290: 7b71 893d 9cda 213d 6d71 3bbd 1644 973d
000002a0: f2d0 933b 11ad 3ebd cdbd d33d 2480 d43c
000002b0: 5a13 863d 066a 0cbd 2e37 97bd 464c b13d
000002c0: fca5 403c 0932 503d 8639 bf3b 226c 373d
000002d0: 2b5f b8bd 9aef 40ba 05f6 883d ef42 e5bc
000002e0: c0f1 c03d a1d9 233d 4349 b83d 47a0 c83d
000002f0: c639 01bd 19d3 eabc 8544 3f3d 03f7 50bd
00000300: b6fd 90bd e205 8f3d b224 44bd 160b 5bbd
00000310: 7b3a 8b3c b191 2d3c ab7c a2bd b98b c9bc
00000320: 249c 923d c05d 84bd 3bb7 dd3d 1ca1 76bc
00000330: f35b 21bd b214 d3bd db0c 75bd c5c8 ae3d
00000340: ba2c 4ebd c5c9 a3bd e435 3b3d e614 8e3d
00000350: 0367 03bd a044 c63d 89bc 803d 483a c43d
00000360: 8cb1 59bd 4c88 94bd 7367 53bd fc93 c8bc
00000370: 3c4a 95bd e5f8 343d f286 7cbc a6b2 aa3d
00000380: ad47 b6bd f320 b0bd 756a e83c 23ee b73c
00000390: 0ed6 a53d cc75 58bc 8f49 863d abb9 ccbc
000003a0: e1f0 0dbc 1ba2 20bd 11ef 46bb d21d 36bd
000003b0: 87a8 c4bd bdf5 8fbc 5856 37bd 13bc 80bd
000003c0: 1e3f 8fbd 9a37 ccbd 3f81 933c ace6 b6bd
000003d0: 0dcb b33d 67d8 08bd 2a77 3d3c c29b 8ebd
000003e0: 3588 903c 7d6c cbbd 0f8f 743d 0495 2f3d
000003f0: 95c4 e4bd aaf1 1b3d fc73 013d 4f82 66bd

recurrent._final_conv.bias f4 [20]
0.9865735 0.96056443 0.3536005 0.6032878 0.5181785 0.94599825 0.27685964 0.43890235
0.683331 0.41520992 0.26393184 0.9293605 0.3137699 0.8037035 0.3817803 0.0044045346
0.16093974 0.62890625 0.85540247 0.43080345
00000000: 1590 7c3f 8de7 753f 200b b53e 1271 1a3f
00000010: 59a7 043f f12c 723f 8cc0 8d3e cfb7 e03e
00000020: c8ee 2e3f 6596 d43e 1322 873e 92ea 6d3f
00000030: 73a6 a03e 83bf 4d3f b578 c33e ea53 903b
00000040: 63cd 243e 0000 213f a8fb 5a3f 4592 dc3e
